Lightcode/bc/zyy_results/N_3_3_d_32_32/snr2_100/seed_777/weights/gbaf_1xfe_fy/T_10/pow_1/100000/0.002/K_3_m_3_snr1_2/model_weights120000.pt (torch, 183790 bytes, 38 tensors)

Tmodel.fe1.FC1.weight f4 [64, 27]
00000000: a81e ecbc 4fbc 9fbe 0846 8c3c 8c33 88bb
00000010: f8f6 c2bc a8d3 febc 3936 32bc cef9 99bc
00000020: b298 63bc b92c a83b bfc0 5a3b 1afa 093b
00000030: f9e5 3b3c 1f5d 463c 5af6 ee3b 93fe a4bb
00000040: 0e5d a43a 2ad5 48ba ed53 c13c 6bf0 91be
00000050: febd 75bd 66d5 e4bc 0f24 ad3d 8c66 063d
00000060: ea79 be3b 5823 30bb ed71 d03b f6ae d9bc
00000070: e43e faba 9727 9b3b 00d5 25bb e012 47bd
00000080: 2de2 00bf ad31 643d 9f00 833d 6803 5b3e
00000090: 31dc 903c be9d 313c ccc9 943a 5737 00bc
000000a0: a3f9 33bb e05f abbf f31c 5dba 0173 c1bd
000000b0: 412a 003e 64b1 4bbc 54fc b7bc f8e5 103d
000000c0: a3e2 0a3b d376 ea3c 1ccd dc3f 7474 223c
000000d0: 2db3 64bc bcca d63d 5cd6 abbe e2b0 a2be
000000e0: 2d1d 5fbd a730 e83d 1a14 4c3e e855 a43d
000000f0: 8d00 433d 102e 8bbc 22c2 a6be 8c2d 373e
00000100: 6a9f a43a a049 403e 7ce1 973d 667b 9dbc
00000110: b299 a6bc 7032 d13b a8cd 683d 1d0d 35bd
00000120: d636 a5bc bbd2 413e 054b 853d fd20 8b3d
00000130: 8b57 43be a465 13be 56f6 e6bd 5814 f8bd
00000140: ba02 7c3d 298f 1f3d c003 853c 8a7c c0bc
00000150: cba8 94bf 8ae5 f8bd 31d1 69be 790c 4e3e
00000160: 966c a6bd 253c 143e 8cfa bebc a62d 8dbc
00000170: 7d4f d73b 0943 abbe edf8 823d 87ff 08bd
00000180: 7c27 be3c 4ed5 76bc 1947 ca3b 52c9 93bc
00000190: fc5b 143c 6cfc 2bbc b625 293e 1d83 7b3d
000001a0: 7b04 953c 580b 3bbd d4b9 b7ba f3e3 a9bd
000001b0: 6261 ce3d 2da0 0fbf 12fd 553b b832 41bd
000001c0: 41b3 443d 1ce2 88bd 0c03 47bc a025 7ebd
000001d0: d1a9 cdbd c287 98bd 0182 ce3a 6569 eabc
000001e0: 2b50 883c 20ac c9bc 9e68 ee3c 50a6 b5bc
000001f0: e400 633c e59b 2abc 137e 1abd 3c7e cd3e
00000200: d5f2 e33d e26f bc3d b7a6 7bbe 9b49 f2bd
00000210: d374 b6bd 44f4 c7bc 91ad 373d 0ae0 293e
00000220: f1d1 983c 203b 1d3d 641f 02be bc85 62bf
00000230: de5d d7bc a2cb e83d 1014 b6bd bc79 04be
00000240: fa7a ddbd 78cd 9f38 ea1a a6bd 6bf6 83bc
00000250: be1a 12bd e3f2 05bc 582d a43d 4675 b23b
00000260: a6b2 adbc 7eea 90bc 4f71 8abc 3c9c 83bc
00000270: 7d28 9a3c e588 4e3f 18ad 543e ad1a 283e
00000280: 2027 063e bf70 b23d 3d29 013d 7040 5cbd
00000290: c07a 9dbb 0d3e 8ebc 0559 053f 255c 50bd
000002a0: ce4c 92be 65e4 893d 5fda b53c e28d 09bc
000002b0: afd7 043c 7509 dbbc e849 6cbc 79fc 583f
000002c0: 64c9 adbd ed1f 253d bba7 33be 042c a63d
000002d0: 7b3d feba f43b 04bc 6ad9 feba 7fcf 04bb
000002e0: dcc8 05be 7e63 333b 4fd7 adbd 162e afbc
000002f0: 74fd 233c 2dea af3d c667 ecbc be6c 5fbd
00000300: 5561 123c a751 01bd 6ca0 ac3b ffda 0a3c
00000310: b429 e9be 3c52 fdbd 2172 2abd 0997 aabb
00000320: 8e5e 95ba 349d 28ba 8e6e 803b 70bd dabb
00000330: d9b5 0fbc c22e 7440 376c 96bd 34b0 29bc
00000340: edaf a43c 2075 433c 9453 b73b 1343 4bbc
00000350: bc8e 89bb 73a3 1bba d19f 13bf e192 6e3e
00000360: 5e54 06bf 7aaf c9bc 1ccf 79bd de72 e43d
00000370: aea0 733d 75b9 18bd 90b1 d13d d349 04bd
00000380: 10ba c23f 2ce3 b13e e135 99bc 611b 803e
00000390: f5b5 bb3d 6347 913d 02b6 97bc 2d55 84bc
000003a0: 5d75 873c d4b0 dd3e b1a3 93bc 222f 053d
000003b0: 1921 063c a8b4 a1bc 1394 3cb9 8884 8cba
000003c0: 4044 06bd cdc5 623a ac13 bc3f 92ce da3e
000003d0: d991 afbe 0b89 983c 4e73 b03c e252 7c3d
000003e0: 2f47 34bd 2f68 5e3d 6b95 35bd da6e 043c
000003f0: 5dc7 8ebe 0b0a 053d 05a3 28be 214e e9bd
-0.028823212 -0.31198356 0.017123237 -0.0041565355 -0.023799405 -0.031106785 -0.0108771855 -0.018795874
-0.013891386 0.0051322845 0.0033379046 0.0021053613 0.011468404 0.012107163 0.007292551 -0.0050352304
0.001253994 -0.00076611585 0.02359959 -0.28503737 -0.059995644 -0.027933788 0.08454143 0.03281264
0.005812873 -0.0026876535 0.0063612373 -0.026572686 -0.0019092229 0.004734944 -0.002530396 -0.048601985
-0.50345117 0.055711437 0.06396603 0.21388018 0.01768312 0.010840831 0.0011351644 -0.007825694
-0.0027462028 -1.3388634 -0.0008434795 -0.094457634 0.12516119 -0.01243243 -0.022459187 0.035375565
0.0021192215 0.028621113 1.7250094 0.00991546 -0.013958734 0.10487887 -0.3356198 -0.31775576
-0.054471184 0.11337405 0.19929543 0.08024198 0.047607947 -0.016989738 -0.32569987 0.17888469
0.0012559716 0.18778086 0.074160546 -0.01922388 -0.02033696 0.0063841864 0.056836754 -0.04420196
-0.02016775 0.18928044 0.065084495 0.067934014 -0.19076364 -0.14394242 -0.112774536 -0.12113255
0.061526038 0.038954888 0.01623714 -0.023496885 -1.1614012 -0.12153156 -0.22833706 0.20121945
-0.0812618 0.14476068 -0.02331283 -0.017233681 0.006570755 -0.3344958 0.06395135 -0.033446815
0.023212187 -0.015065504 0.0061730263 -0.018040333 0.009055134 -0.010497194 0.16518292 0.061404336
0.018190613 -0.045665115 -0.0014017173 -0.08295431 0.10077168 -0.56103784 0.0032652062 -0.04716751
0.048022512 -0.06683752 -0.0121467225 -0.0620476 -0.100421555 -0.07447769 0.0015755297 -0.02861471
0.01663979 -0.024618208 0.02910262 -0.02217403 0.013855193 -0.010413145 -0.03771789 0.40135372
0.11130301 0.092010275 -0.24575315 -0.118304454 -0.08909001 -0.024408467 0.04484326 0.1658937
0.018654795 0.038386464 -0.12707287 -0.8848531 -0.026289877 0.11366965 -0.08890545 -0.12937063
-0.108144715 7.619982e-05 -0.08110602 -0.016108712 -0.035670035 -0.0081755845 0.08016461 0.005446109
-0.02120335 -0.01768994 -0.016899733 -0.01606571 0.018818134 0.80677634 0.20769155 0.16416426
0.13100863 0.08712911 0.03153347 -0.05377239 -0.0048058927 -0.017363572 0.5208896 -0.050869126
-0.28574222 0.06733016 0.022198854 -0.008395644 0.008108064 -0.026737908 -0.0144219175 0.8476024
-0.08485678 0.04031365 -0.17544453 0.08113864 -0.0019396985 -0.008070935 -0.0019443457 -0.002026528
-0.13064903 0.0027372534 -0.084883325 -0.02138428 0.010009158 0.08589587 -0.028858077 -0.054547064
0.008934339 -0.03157201 0.005268147 0.008475064 -0.4553963 -0.123692006 -0.041612748 -0.005205993
-0.0011395977 -0.00064321165 0.003919429 -0.0066754147 -0.008771383 3.8153539 -0.07344859 -0.0103569515
0.02010342 0.01192978 0.00559468 -0.012406128 -0.0041979235 -0.00059371366 -0.57665735 0.23298217
-0.52472484 -0.024619807 -0.06098853 0.11154722 0.059479408 -0.03728624 0.102389455 -0.032296967
1.5213032 0.3474363 -0.01870245 0.25020888 0.09165565 0.07093694 -0.018519405 -0.016153896
0.016535455 0.43298972 -0.01802239 0.032515652 0.008186602 -0.019739464 -0.00017984239 -0.001072065
-0.032779932 0.00086506904 1.4693503 0.42735726 -0.3429096 0.018620035 0.021539357 0.06160248
-0.0440132 0.054298576 -0.04433195 0.00808307 -0.27886477 0.03248028 -0.16468437 -0.11391855

Tmodel.fe1.FC1.bias f4 [64]
00000000: fed4 4dbf 3ccf e0bd 279b 3c3c be2b 24bb
00000010: 3384 063b 3f0b 04bd f4c8 3fbd 7e9f 26bd
00000020: 0bfb cf3c 8068 223c ebea 743e 0e79 cbbd
00000030: d181 66bf 9a48 d3be 08b8 ac3b 5266 923c
00000040: fafd 1c3b 828b 02bf 8dbc 413c dbef 923b
00000050: 7a74 1bbe 750f 1bbd 7380 1ebc 6ce5 49be
00000060: 012c cbbd 95e8 18bf f659 15bf 6f0b 1f3b
00000070: 8688 a1bd deb2 8d39 6b29 7b3b 05ae d8bd
00000080: 1674 35bf 731f dc3b 0b24 84bd 1bde 05bf
00000090: 819b 15bf 962e 0e3b 2a3f a73b c2be b3bd
000000a0: c258 3fb9 360c 68bf 182e 403e 093b 6cbd
000000b0: 08a5 113c 83f5 50be b327 0abd 88eb b3be
000000c0: 9b97 beba d89a e23b 2aaf d3bc 194d dcbb
000000d0: 6a63 8abd a553 a3be 43e7 203b 7c6d 92be
000000e0: bfd2 8ebc ebc3 10ba cf2d 513d 090f bcbc
000000f0: ee49 4cbc 9a35 debe 2ecb 5a3e 203b 8bbd
-0.80403125 -0.10977027 0.011511601 -0.0025050486 0.0020525574 -0.032237288 -0.046822503 -0.040679447
0.025388261 0.00991261 0.23917739 -0.09935199 -0.90041834 -0.41266328 0.0052709617 0.017871056
0.0023955093 -0.5099412 0.011824739 0.0044841594 -0.15181151 -0.037856538 -0.009674179 -0.19716424
-0.099205025 -0.5972989 -0.58340394 0.002426829 -0.07887368 0.00027026882 0.0038324248 -0.105800666
-0.7088026 0.006717616 -0.06452187 -0.5229203 -0.58440405 0.0021695248 0.0051039653 -0.087766185
-0.00018248244 -0.9064363 0.18767583 -0.057673488 0.008889444 -0.20406155 -0.033729266 -0.35140634
-0.0014541032 0.0069154315 -0.02584036 -0.006723058 -0.06757243 -0.31899753 0.0024551905 -0.28599155
-0.017434476 -0.0005522358 0.051069077 -0.022956388 -0.012468798 -0.4340027 0.2136657 -0.067983866

Tmodel.fe1.FC2.weight f4 [64, 64]
00000000: f833 eb3e 704c b3bb f638 78be 8dbf 7dbc
00000010: 6820 90bd 887e 07be 1bd5 4c3c 3ccc 1d3c
00000020: 4843 ab3d 2966 c73d acdb 8fbe 389b 0c3d
00000030: 6238 63bf 510d 543d cb5e 3dbc 7032 dbbd
00000040: 198d 04be 1d47 51bd 758f 003f 8a88 f43d
00000050: 6946 62be 7434 b1bc e972 6c3e e217 43bc
00000060: 7e11 4bbc a64c 8c3e ab3c 753c b1c5 063f
00000070: d601 47bc 0167 44bf a414 723e 4a82 ec3d
00000080: e996 de3d 36a9 55bd 1636 62bb c586 453c
00000090: 0052 bf3e 8db6 4ebd 0da0 74be b067 783d
000000a0: fa73 93be 5bd2 62be b5a9 b3be 3db8 31bd
000000b0: d9f2 4ebe 835c 17bd 3982 ecbc fd0c bdbd
000000c0: 1a7c 893e a817 523e 28aa b1bd 4633 a5bd
000000d0: b38c ee3a 550a aabd abde 853e 3e2c 86bd
000000e0: fd31 86bc b21d 80be 90f7 2d3e f493 41bd
000000f0: 3078 54be 6a5f b73d 36e9 cdbc a9a2 713d
00000100: 60bf 083e 32fd 8fbe 0db1 16bd 8a61 14bf
00000110: 4372 143d 2f87 4b3e 526d 273c 5611 02be
00000120: 345a 67be 52b8 d4bd cb3a 573e d57c 23bf
00000130: c857 54bd 28e6 dcbd befc f73b 4de2 7c3d
00000140: 5131 1abc 9a5f 4b3e 1b67 713d a536 c73d
00000150: eeb4 19be c70c 37be 621b 5abb 8b1e 0bbe
00000160: a320 ccbe fe0b c0bd 389a af3e e249 e83c
00000170: 229b cdbe 3cd7 6b3d 8291 d83d 117b 003d
00000180: 1d59 133f bc48 94bc 5241 98be c667 91be
00000190: 5da5 963e eb06 4cbd bac1 f8bd 2747 d6be
000001a0: 4c63 b83c 0590 373f 520b 5f3d 7181 45bc
000001b0: 55e2 603c 64c4 32be 4985 a8be 71a1 91be
000001c0: fa10 69be f5fb b4bb 40ab 80bd d6ba 02be
000001d0: 8021 2dbe b00d 51bd 5394 fe3d 736f 6c3e
000001e0: 4705 49be dd52 aa3d 798a 42bd 4535 afbd
000001f0: bb8e bc3c 5511 3c3d b386 94bd 2d92 50be
00000200: be64 9c3e 574e 2bbf 3f98 2ebd df03 623d
00000210: 98b1 b4bd d456 5a3e d88f 033d 557d 74be
00000220: 7b2b 07bf 8eb2 dd3d 09ce 09bf a08a 6abd
00000230: 62d3 9c3d ecc1 e23c 0a14 003e c2fe 06bf
00000240: 8882 37be 95a9 cabd e927 43be 23c0 cd3c
00000250: df77 973c 3468 003e a081 13bd df16 673d
00000260: 5a43 2bbe c07c 4abd 8c6c 76bd cc84 263d
00000270: 1bad 52bc d9dc 1c3e 3837 4b3e 0fd6 6bbe
00000280: 831a 4fbd 3bde d23d 0e76 41bf 2c8f e73c
00000290: 1716 57be f07c 8abd d924 e6bd 8030 02be
000002a0: a56a a8bd 5042 aabe d3ef 8a3e 68df 11be
000002b0: 20f7 7cbe dccd a83d 8170 203d 84cb 4fbe
000002c0: c2b2 e83d 17ca 963c a12d b63d f47d 4f3d
000002d0: 053a 39bf b086 74bd a2c9 05bf 7b26 cabd
000002e0: b19d 613d 979e f4bd c384 153d b098 7b3d
000002f0: 67f2 f5bc 259e 393d dea6 743c a5cd 26bf
00000300: 6079 9c3e 114c 463d 76d0 3a3c 46da b63c
00000310: b89c 653e 4efb 66bc a67e 883d 87da 73bd
00000320: e553 0dbf b5c6 af3e 27ce 4fbf 2e9a 8ebf
00000330: d913 83bd 667a af3d 3f1c 313e 0e26 86be
00000340: d8c1 dcbe ff6c 0f3c 3c84 e7be 0771 1a3b
00000350: ac85 743d 5a01 8e3c e233 c0be 7b9f 4bbb
00000360: 672d b0bf eb4f 8c3e 4ba4 ffbd 6ca2 413e
00000370: 4e2d ccbf 12f6 233d 9f86 853c eb37 25bf
00000380: 6c76 93be ea97 533e bb66 9b3d 8ff0 263d
00000390: b6d6 07bf d82b 4cbd 830c b5bd 6309 b4bf
000003a0: 0045 36be f5f3 afbf 411a e23e a2b6 b8bc
000003b0: dcea e0bd 32d7 2abf 35ca f03c 82ee 3bbd
000003c0: 7293 ab3e 128a f83d 509d efbc bed2 203e
000003d0: 4ec8 7b3d 414e acbe 394b 72bf 1fa1 0a3d
000003e0: bd8e 953d 006a 9abd e3cb 9f3d d953 033e
000003f0: 4af0 61bd 03d6 fb3d e072 a33b 2b94 bc3d
0.45938087 -0.0054717585 -0.24240479 -0.015487564 -0.07037431 -0.13231862 0.01250198 0.009631213
0.08362442 0.097362824 -0.28097284 0.034327716 -0.8875791 0.051770512 -0.011558245 -0.107029796
-0.1294445 -0.05109321 0.502189 0.11940105 -0.22097172 -0.021631457 0.2309071 -0.01190755
-0.012394307 0.27402228 0.014968078 0.52645403 -0.012146434 -0.7671967 0.23640686 0.11548288
0.108686276 -0.052163325 -0.00345171 0.012056057 0.3736725 -0.050467063 -0.2388918 0.06064576
-0.2879942 -0.22150557 -0.35090414 -0.043388594 -0.20209827 -0.03695346 -0.028870689 -0.09230993
0.26852494 0.20516837 -0.08675033 -0.0806642 0.0018199891 -0.08302752 0.26146445 -0.06551407
-0.016381258 -0.25022656 0.16988969 -0.04726024 -0.20748973 0.08953746 -0.025135618 0.058993015
0.13354254 -0.2812286 -0.036789943 -0.5796133 0.03624178 0.19875787 0.010218935 -0.12701926
-0.22593004 -0.10386719 0.21018521 -0.63862354 -0.051841527 -0.10786086 0.007567971 0.061739255
-0.009411172 0.19860688 0.05893622 0.097272195 -0.15010425 -0.17875968 -0.0033280482 -0.1358587
-0.3986865 -0.09377287 0.34297347 0.028355543 -0.4015742 0.05757831 0.105746284 0.031367365
0.5755785 -0.018101089 -0.29737335 -0.28399485 0.29423037 -0.049811285 -0.121463254 -0.4185116
0.022508286 0.7170413 0.054454155 -0.012054787 0.013725837 -0.1745773 -0.32914189 -0.28443483
-0.22760382 -0.0055231997 -0.06282663 -0.12766585 -0.1690731 -0.051038444 0.12430634 0.2308939
-0.1963092 0.08316586 -0.04749534 -0.08555082 0.023017278 0.045914967 -0.07252254 -0.20368262
0.3054561 -0.6691641 -0.042625662 0.055179473 -0.08822936 0.21322185 0.032119602 -0.23875935
-0.5280072 0.10825072 -0.5383001 -0.05726111 0.076575056 0.02768036 0.12507644 -0.5273248
-0.17920887 -0.098956265 -0.19058193 0.025116032 0.018489776 0.1253975 -0.036012292 0.056418296
-0.16724911 -0.049435377 -0.060162112 0.04065399 -0.012858654 0.15318622 0.19845283 -0.23030876
-0.050562393 0.10296293 -0.7557076 0.028266512 -0.2100452 -0.06762111 -0.11237497 -0.12713814
-0.08223466 -0.33253717 0.27136096 -0.14245379 -0.24703646 0.082423896 0.039169792 -0.20292479
0.1136222 0.01840691 0.08895422 0.050657228 -0.72354156 -0.05969876 -0.5226079 -0.09870621
0.055082027 -0.11944311 0.036503565 0.06142491 -0.030022813 0.045316834 0.014932362 -0.6515754
0.30561352 0.048412386 0.01140224 0.022320878 0.22423065 -0.014098002 0.06664781 -0.059534576
-0.5520614 0.3433129 -0.8117394 -1.1140802 -0.0640027 0.085682675 0.17295931 -0.26200908
-0.4311664 0.008754014 -0.45218074 0.0023565905 0.059697792 0.017334629 -0.37539583 -0.00310704
-1.3763856 0.27404723 -0.12482508 0.18909615 -1.5951326 0.040029593 0.016299544 -0.6453845
-0.28801286 0.2066342 0.07587954 0.04075676 -0.53062 -0.0498465 -0.08840277 -1.4065365
-0.17799759 -1.3746325 0.44160655 -0.022548024 -0.10982296 -0.6673461 0.029393295 -0.045881756
0.3351093 0.1213571 -0.029249817 0.15705392 0.061470322 -0.33653453 -0.9464603 0.033845063
0.07302616 -0.07539749 0.0780256 0.12824954 -0.055160798 0.12296679 0.0049880594 0.09207948

Tmodel.fe1.FC2.bias f4 [64]
00000000: ee5a fdbe bba4 5dbe d726 c43d adb6 813e
00000010: 99f8 d73e 63cd 543e 6d17 d8be c834 88bd
00000020: 8947 eb3d f586 1abe eb81 aebe 36e0 f33d
00000030: 88d7 cb3e 8d55 21be a83a edbe 95a6 d4bd
00000040: bde9 b0bd f3f6 e43e 3a54 a93c 67f0 dcbd
00000050: 4171 b2be e533 b23e ca56 6abe 7770 e93d
00000060: 833b 803e e124 0cbf cc55 6a3e 3d2f 733e
00000070: 5127 08bf 6561 423e f3d1 a3bd 4101 47bf
00000080: 0371 373c 2ced 62be 0dd9 7f3e cce4 67be
00000090: eb69 16be bc24 cd3e 84cb f73d e1dd 263e
000000a0: f5f8 b4bc 08ca af3e f7cd 9b3e cd6f d63b
000000b0: d372 eabe 2302 7abd a45a 15bd 6663 13be
000000c0: 4cbc 51be 3d55 e73d 5727 3c3c fed8 543e
000000d0: 6f1e 353e 6088 bf3d 2d55 733d 9161 c4bd
000000e0: bb68 643d 8af7 e03c ab57 6dbe c337 48bf
000000f0: e6c3 ff3c 9259 31be 34a7 54be 8584 f4be
-0.49483436 -0.21644871 0.095777206 0.25334683 0.42181852 0.20781474 -0.42205372 -0.06650692
0.114882536 -0.15090545 -0.34083495 0.11907999 0.39812875 -0.15755291 -0.46333814 -0.103833355
-0.08638332 0.44719657 0.020670045 -0.107880406 -0.3485203 0.34805217 -0.2288467 0.11398404
0.25045404 -0.5474377 0.22884291 0.23748489 -0.5318499 0.18982466 -0.07999029 -0.7773629
0.011196378 -0.22160786 0.24985142 -0.22645873 -0.14688842 0.4006709 0.120993644 0.16295578
-0.022091368 0.34333825 0.30430576 0.0065440894 -0.4579073 -0.061037194 -0.036463395 -0.14393386
-0.20481986 0.11295555 0.011483989 0.20785901 0.1768739 0.09352183 0.0594074 -0.09588922
0.05576394 0.027461786 -0.23177974 -0.78210086 0.031221341 -0.17319325 -0.20766908 -0.47757354

Tmodel.fe1.FC3.weight f4 [64, 64]
00000000: d7e1 a0bd e60a d73e 9ff8 e9bd 2c3b 343e
00000010: fadb 9cbc 68d4 ee3c 9644 a93b 2620 11be
00000020: e590 cebd 2bea 9cbd 3a04 393e 428a 70bd
00000030: 226e cc3d 22ee bc3d 6a75 fa3e 8fdf 913e
00000040: 7470 d1bb 9ddd c43e 6c45 b43e 0a42 0cbe
00000050: bde9 54bd 4b17 543e 2218 233d 8edf 02be
00000060: a514 673e d36c a33e 6f87 2ebd 4dbe a6bd
00000070: f35f c5be 24cb fc3c 313d c9bc 4611 45bf
00000080: c826 53be 6560 703e 32ca 31bd ae19 6d3e
00000090: 4fa6 16bd 2698 8e3d bc11 84bd 72ef 3a3e
000000a0: ec0b 883e bac9 9fbb f8f0 103d b55c 6c3e
000000b0: e57b e9be f1c4 aebb f5ee 923e ee75 213c
000000c0: 3b15 523d 3c8d bd3e c090 dd3d dfd3 59be
000000d0: 6897 1dbe 515c e73b 8140 3cbe 3a9a a9bd
000000e0: 0865 603d 91c9 c13d d251 733e 9603 913d
000000f0: 9dbc dbbe c07f 693f 2d6a aabe 03cd 673b
00000100: 942b 14bd ee10 94be c84f 3fbc 8521 07be
00000110: e86c b73c 69f3 883d 68ae 733a 939c 8fbc
00000120: 5f8f 073e f753 8ebd 79c2 39be 1510 3e3e
00000130: 7a80 e6bc 1b7d 9dbb 938f f43d d470 0b3e
00000140: ddc8 c9bc bdfb 3c3e 79c2 91be 82c5 84be
00000150: 9703 1a3d 3c61 793c 2077 e2bb 0072 93bd
00000160: a013 bbbd 944a b6bd ea20 d73c 35cf d03c
00000170: de85 4bbf 4fcc dabc 1558 74bd 1e3a 34bd
00000180: 1347 69be fef4 333c 9707 4fbe ab5d ef3e
00000190: 2d13 19bc 6f44 2e3e 9eb3 0fbe 6a31 e23d
000001a0: f44b 8ebd 41dd 0bbc 7501 4c3e db4a 813e
000001b0: bf85 8ebe 87b7 223d b87e 933d a0cd fcbd
000001c0: ef63 4d3d 85d8 12bf c85f 7f3e 00ad 223e
000001d0: 42a3 273e 8f7d a03e de8b 433e 526e 7bbd
000001e0: 2b54 213d 0860 ccbd a6e8 7e3e 51e7 793f
000001f0: ac61 363e 5fff 05be d5c4 0abe 0c75 a73c
00000200: 2d49 243c 70ba 57be 2d24 c33c 5de1 ff3d
00000210: 5fcf 03bd a76f 9b3d 8897 ebbb bc96 66be
00000220: 021b f5bd f200 1ebd 970d b3be 5d7d ccbd
00000230: 572b 91bd 6baa 003c 4fdb b8bc d7c5 913e
00000240: 0256 be3d 5197 813d 8ce1 643d 49f5 7a3c
00000250: 976d cfbd cccd a93e 9130 c7be 55f5 1cbe
00000260: aff4 81bd 8f2c 9fbc a46a 35be 92b1 a5bd
00000270: f25e 11bf f622 093e 298b 00bd fc99 4e3e
00000280: 2151 593c f8f5 11be aae1 2bbb 8167 7c3e
00000290: 4a19 96bd a672 0a3e 3743 a1bd d848 353e
000002a0: a523 b53e 823c a03b 3eec dd3e b9d4 ecbd
000002b0: 2b0e 6fbe 3877 133d 5409 643e 1819 b5bd
000002c0: 0071 f83d 7846 a43e ec07 a83d e6c8 1a3e
000002d0: 3e7f 19bf d31e 153e bd1f 5ebd 111e 91bd
000002e0: 6d88 683e c3f0 fabd 185c e6bd 92ae bfbe
000002f0: 6abd c8be a391 3d3e 8199 86be f19b 983d
00000300: fa8a 2ebd bd7f 103f ac51 afbd 1567 61be
00000310: fdd3 eb3d ca7f a7bd 05bf 84bd 58f3 0cbd
00000320: 1a61 e03e b0c0 cf3c c5d7 a3bd 0b45 2cbe
00000330: 495f 26bd b8b2 e4bc 2d89 9bbb d57e 8ebe
00000340: 11ac 69bb d1fa 27be e8bb b3be fbeb 0c3e
00000350: a041 983d 20c4 f4bd 6d6a 033f 5ff9 e63d
00000360: 96c4 7cbd a81e 593d cb89 46bd ffcb 683e
00000370: ce23 803e b522 66bc 1dbd 613d 90f6 553e
00000380: 00fa 0b3b d61a d8bd 8d1d debd 19ea 273d
00000390: 2b13 5dbd 8b95 ccbd 02da c43a 7ded e8be
000003a0: f4e9 01bf 4f4d a4bd 7ab6 afbe 3929 963e
000003b0: c8e6 333e 53f6 2dbd a0d9 c5be 84ba 383c
000003c0: 1a6a 4bbe 033d 033e 1392 78bd 2b0f 60be
000003d0: 85d8 033f de99 aabe fbc1 593e a2fa 6abb
000003e0: 96c4 95bc 5625 d43c 3ed3 91bc 9c5d 4f3f
000003f0: 0da4 a7be da52 00bd 97ba 7ebc cb69 3a3d
-0.078555755 0.42000502 -0.11424374 0.17600697 -0.019147862 0.029154018 0.005165647 -0.1417242
-0.1008623 -0.076618515 0.18068019 -0.058725603 0.09981944 0.09225108 0.48917705 0.28490874
-0.0063915793 0.38450328 0.35209215 -0.13697067 -0.051980723 0.2071201 0.039817937 -0.12780592
0.22566469 0.31918964 -0.04260963 -0.08141766 -0.38549766 0.030858584 -0.024565311 -0.7697948
-0.20620263 0.23474272 -0.04340572 0.23154327 -0.036779698 0.06962614 -0.06448695 0.18255404
0.26571596 -0.0048763426 0.035386056 0.2308224 -0.45602337 -0.005333536 0.28697935 0.009854777
0.05128978 0.37021816 0.108186245 -0.21272229 -0.15389788 0.0070605655 -0.18383981 -0.082813695
0.05478385 0.09462274 0.2376168 0.07080762 -0.42917338 0.91210556 -0.3328413 0.003537
-0.03617437 -0.28919166 -0.011676736 -0.1319638 0.022390798 0.06687052 0.0009295703 -0.017530715
0.13238285 -0.06949609 -0.18140592 0.18560822 -0.028137434 -0.0048061735 0.11941447 0.1361726
-0.024631912 0.18455406 -0.28468683 -0.25931937 0.03760108 0.015220936 -0.0069111735 -0.07199478
-0.091346025 -0.089009434 0.026260812 0.025489429 -0.7950114 -0.02670875 -0.059654314 -0.044000737
-0.22781019 0.010983704 -0.20217739 0.4675115 -0.009342951 0.17018293 -0.14033362 0.11044581
-0.06948081 -0.008536638 0.19922431 0.25252423 -0.27836415 0.039725807 0.07201904 -0.12343907
0.050144132 -0.5736163 0.24938881 0.15886307 0.16370872 0.31345794 0.19096324 -0.061384507
0.03938691 -0.09979254 0.24893436 0.97618586 0.17810696 -0.13085698 -0.13551648 0.020441554
0.010027212 -0.21067214 0.02382096 0.124941565 -0.032180186 0.07589655 -0.007189695 -0.22518438
-0.11968042 -0.03857512 -0.34971306 -0.09984849 -0.070883445 0.007853131 -0.022565512 0.28471252
0.092937484 0.063276894 0.05587916 0.01531727 -0.101283245 0.33164823 -0.3890424 -0.15327962
-0.06345498 -0.019430427 -0.17716461 -0.080905095 -0.567855 0.13392243 -0.031382713 0.20175928
0.013263972 -0.14253986 -0.0026227036 0.24648859 -0.07329042 0.13520297 -0.07874148 0.17703569
0.35378757 0.0048900256 0.433443 -0.11564011 -0.23345248 0.036002368 0.22269183 -0.08842677
0.12130928 0.32085013 0.08204636 0.15115699 -0.5995978 0.1456254 -0.054229487 -0.07085813
0.22708292 -0.12252953 -0.11248034 -0.37437874 -0.3920701 0.18512587 -0.2628899 0.074516185
-0.042613007 0.56444913 -0.085604995 -0.22011979 0.11515043 -0.08178671 -0.064817466 -0.03441176
0.43824083 0.025360435 -0.08000139 -0.16823213 -0.040618215 -0.027917251 -0.0047465772 -0.2783114
-0.0035655538 -0.16404273 -0.351043 0.13761894 0.07434392 -0.119514704 0.5133427 0.112780325
-0.061710916 0.05300775 -0.048471253 0.22734068 0.25027317 -0.014046361 0.055111993 0.20894837
0.0021358728 -0.105519935 -0.1084548 0.040994737 -0.053973358 -0.099894606 0.0015018585 -0.4549369
-0.5074761 -0.08022558 -0.34318906 0.29328325 0.17568505 -0.04247124 -0.38642597 0.011274938
-0.19864693 0.12816243 -0.060686182 -0.21880786 0.5150226 -0.33320516 0.21265404 -0.0035854955
-0.018282216 0.02589671 -0.017800923 0.8100221 -0.32742348 -0.031329013 -0.015547416 0.04551105

Tmodel.fe1.FC3.bias f4 [64]
00000000: 4088 783d c73f 583d 4df7 253d 9a16 0b3e
00000010: 67b9 8bbe 14e4 863d 6276 54be a246 e3bd
00000020: 9f43 dcbe 5da9 d6bc 5678 83be 8b71 cebd
00000030: e564 813e 595d 7dbe b1c6 f0be c8f4 d73e
00000040: 385c 0cbe ea59 2e3f fa32 e53d ddd0 2ebe
00000050: ff66 29bf e1a5 febe 4249 993d 0b26 5d3e
00000060: f5ce 2abe 640a 20bd 5c25 dcbe ff54 d23d
00000070: 6deb 2e3d 7978 ab3d 5d0d 99be 7398 113e
00000080: da7e 313e e989 6c3e b258 7f3e e16b 09bc
00000090: 0258 c5be 4111 743d ab43 0ebf 3e31 0cbe
000000a0: e8ca 923e 01b4 703e fca2 7e3e 074e 4bbe
000000b0: 5835 c7bc 76e8 a0be a322 9abe add0 b13e
000000c0: 2812 203f 461e 4b3e 4c0d 6fbd b367 bd3e
000000d0: 8d23 b63b bd09 5ebd d0e0 1dbc db6f 24be
000000e0: f0cd 1bbf a17e ae3d eeeb 0abf 49f7 d9bd
000000f0: 93bd ba3e f822 213e 6884 1abe 2c07 d2bd
0.060676813 0.052795198 0.040519048 0.1358284 -0.27289888 0.06586471 -0.20748284 -0.110974565
-0.4302034 -0.026203806 -0.25677747 -0.1008025 0.2527229 -0.2474264 -0.4702659 0.4217894
-0.13707054 0.6810595 0.11191364 -0.17071863 -0.66172785 -0.4973593 0.07484676 0.21596543
-0.1668051 -0.03907241 -0.42997253 0.10270118 0.04270499 0.08372588 -0.29893008 0.14218311
0.17333546 0.23099484 0.24936178 -0.008387537 -0.38543707 0.059586767 -0.55572003 -0.1369066
0.2867043 0.23506166 0.24866861 -0.19853984 -0.024317428 -0.31427354 -0.3010455 0.3472952
0.62527704 0.19835767 -0.05836229 0.3699318 0.005558437 -0.054208506 -0.009636119 -0.16058294
-0.6086111 0.08520246 -0.5426625 -0.10642869 0.3647276 0.15735996 -0.15089571 -0.10255274

Tmodel.fe1.FC4.weight f4 [32, 128]
00000000: 38f0 04be 3dc8 e3be 1896 0dbe 6e24 0b3d
00000010: 3754 eb3e c263 1c3e 10fa d4bd 312c 783d
00000020: 0c5f 63be 0cfa 883d 42a6 8abd d06c bbbd
00000030: e819 9dbd 8ba7 8a3c 9a1d 8cbd 1149 b53d
00000040: 049b a53e 1231 afbd 3bf1 f5be 12e3 8c3e
00000050: 5a86 25be d6bf 9d3c 2617 823e 1376 953d
00000060: e840 34be 98ef babe 51d0 6abd 46f4 33be
00000070: 83c7 6abc c02b 0abd e8c5 823c 9e5a 643e
00000080: a578 203e bec0 b63c be3c 60bc 5945 5bbd
00000090: 942a 17bd ac5d f6bc dcdd 01be 3027 d53e
000000a0: 83fa 233e ce19 47be 3063 51bd 9fb9 013e
000000b0: 3e73 663e 0e79 f33d 68c2 403e 3712 58bd
000000c0: 0d9a 09bf a259 dabe 5831 573d ac4d f6bc
000000d0: 6da1 483e e3fb d33e 1cb8 123e ea75 81bd
000000e0: b091 b93e d781 40be 933f 0abe 30df 34bd
000000f0: 3988 203c 5b76 a6be 087e 58be b1eb 8dbe
00000100: c56a bd3d 3a03 963e 57ef 503e ae45 4b3d
00000110: 242b 3cbe 2518 a13d 261e 7dbe ba78 bd3e
00000120: 637c 813d 1826 00be 5ab9 f3bd bb69 7abd
00000130: c785 6a3e f798 edbd 8b66 593d 8f74 e0ba
00000140: 0933 1cbe d3e5 473e 205c 6fbd 71d1 adbe
00000150: 747c 49bd d12c eebc 9dde 933c 9be5 e6bd
00000160: e326 5abe 405e ae3e d0fc c13d 400e 4ebc
00000170: 52fd 9ebc dbca b13d 93c3 27bc 5186 acbd
00000180: 570c b9bd 82da 64be 7156 cdbe dd7a 80bd
00000190: b321 673d 40b2 0ebe 670c 05bd 5d24 abbe
000001a0: ed40 8bbc 38cb f3be 832c 70bc 04e2 113d
000001b0: b83f 793e b9de 863c 67d6 b83e a32a 2abd
000001c0: 831c b23e 9df3 813e 4d4c 5ebe 8f2d 223e
000001d0: e698 22be 1a41 493d e2a6 33bd 9385 5ebd
000001e0: 1d4a 7bbe dcf8 3cbe 1817 d0bc 2803 b83e
000001f0: 9da7 a8bd 7ae6 af3e 06c5 c03d d957 073d
00000200: 8d89 ae3e e3a5 5b3e 2e47 273e 7112 c9be
00000210: 9cd5 6fbd 2b88 91be 8c66 563e ff47 a83d
00000220: 81c0 94bd d8ee 923e c50a 89bc 011a ab3e
00000230: 3976 71bc b79d a8bd 13db 82be 9382 96be
00000240: 6bba b13d 68ea 133d fc8a 90bc fff5 51be
00000250: 1ddf 3b3d ae4e 6a3e a9dc 9ebe 788d 82be
00000260: 686c 57be 1ff4 c1be 699a 923e 6836 a8be
00000270: 7704 5d3e 3f2b 553e 8585 c7bd 1ca0 b03d
00000280: 293e 93be 3bda 9d3d 7211 f3bd 8eac 8d3b
00000290: 3e93 823e d2eb 1d3e 9656 193e 432c 0dbe
000002a0: c6d8 85bb 0031 f6bd 7853 463e 2c1c 0abe
000002b0: 97f5 26be e14b d23c 57a2 9c3e 30f7 82be
000002c0: 91df fdbc ae57 79be b508 a53d a21a ab3c
000002d0: f9fd 773d a1ae 07be af48 67bd bd82 0a3e
000002e0: c502 33bd 9da6 663e b30a 893c 28fd 133e
000002f0: 5944 2fbe 0d5a 05be 7a29 10bd 318c de3d
00000300: 665e 10bf eb49 673c b4a7 9bbd 570e ae3e
00000310: 75d0 99be ed62 2b3e c15c d3bb f26d da39
00000320: cd1c b1bd d9cf 34be 3a51 2cbd 8136 2abe
00000330: a45a 64bd 195c 5e3d 1f8f b139 654d 963c
00000340: 27ee cf3d dfd4 973d 9681 10be 5139 233d
00000350: f0e5 51bd c82a 60bd 1ac4 0d3e 8583 dc3b
00000360: 1e08 6d3e fa31 74bd 8bcb 293b 6e7e 3c3b
00000370: e1f7 4ebe d321 86be dc05 c33d 9a9a ba3d
00000380: e412 ae3d ee76 30bd d486 a5be 791c b0bb
00000390: 2b9a 24be 5508 893d 4da7 0e3d 943e fe3d
000003a0: 3d80 fb3d 81ca 1abe e64b afbd ebd3 8b3d
000003b0: 7b6c 5b3d 32cf b13c 29e3 acbd 51b6 4b3b
000003c0: 25c4 cfbd bf37 4b3c b6b1 393d 761d 68bd
000003d0: 763c c0bd ab2d 1b3d 47ca 47be 5d4c b1be
000003e0: 6693 fe3c 1768 6ebe 02f5 0fbd cbc4 273e
000003f0: 8873 93bc 9950 023e dd0e 31be bfed 6bbe
-0.12982261 -0.44488707 -0.13826787 0.03397029 0.45962688 0.1527243 -0.10399258 0.06058902
-0.22204226 0.06688318 -0.067699924 -0.09151614 -0.07670957 0.016925594 -0.068415835 0.08851827
0.3234483 -0.08554281 -0.48035607 0.2751699 -0.16164532 0.019256514 0.25408286 0.072979115
-0.17602885 -0.3651092 -0.057327572 -0.17573652 -0.014329794 -0.03373313 0.01596351 0.22300193
0.15671022 0.022308704 -0.013686357 -0.053532932 -0.03690584 -0.030073963 -0.12682289 0.4163146
0.16013531 -0.19443437 -0.051119983 0.12668465 0.22504899 0.11888324 0.1882416 -0.052751746
-0.5375069 -0.4264651 0.052537292 -0.030066334 0.19592829 0.41403112 0.14328045 -0.063213184
0.36243963 -0.1879953 -0.13500814 -0.04415816 0.009798103 -0.32512173 -0.21141827 -0.2771888
0.0924888 0.29299337 0.20403801 0.049627 -0.18375832 0.07865933 -0.24718532 0.3700617
0.06322553 -0.12514532 -0.119005874 -0.06113599 0.22902595 -0.11601441 0.05307631 -0.0017124581
-0.15253843 0.19521265 -0.058437467 -0.33948854 -0.049190953 -0.029074105 0.018050486 -0.112742625
-0.21303897 0.34056282 0.09472048 -0.01257664 -0.019407902 0.0868127 -0.0102395 -0.08424056
-0.09035557 -0.22348979 -0.40105012 -0.06273434 0.056428622 -0.13935184 -0.03248253 -0.3342618
-0.016998732 -0.4761598 -0.01465905 0.035615936 0.24340713 0.016463624 0.36101076 -0.041544568
0.34787378 0.25381175 -0.21708794 0.15837692 -0.15878639 0.04913435 -0.043860324 -0.054326605
-0.2453999 -0.18454307 -0.025401637 0.35939908 -0.08235095 0.34355527 0.09412579 0.033042762
0.34089318 0.2145 0.16335747 -0.39271882 -0.058553323 -0.284242 0.20937556 0.08216857
-0.0726328 0.28697848 -0.016728768 0.33418277 -0.014737659 -0.08233207 -0.25557765 -0.29396495
0.086781345 0.03611222 -0.017644398 -0.20503996 0.045867074 0.22881576 -0.31027725 -0.25498557
-0.21037447 -0.37881562 0.2863343 -0.3285401 0.21583734 0.20817278 -0.09742264 0.086242884
-0.28758362 0.0770764 -0.11868562 0.0043235486 0.25502962 0.1542199 0.14974436 -0.13786416
-0.0040846793 -0.12021065 0.19367778 -0.13487309 -0.16304623 0.025670948 0.30592605 -0.25579214
-0.030990394 -0.24349853 0.08058301 0.020886723 0.06054494 -0.1325021 -0.0564658 0.13526435
-0.043703813 0.22524495 0.016728735 0.1445204 -0.17115916 -0.13022633 -0.035195805 0.10866583
-0.5639404 0.0141167445 -0.07600346 0.33995315 -0.30041853 0.16736956 -0.006450266 0.00041662116
-0.086480714 -0.17657413 -0.04206965 -0.16622354 -0.055750504 0.05428705 0.00033866704 0.018347451
0.10152846 0.07413649 -0.14111933 0.039849583 -0.051244676 -0.0547283 0.13844338 0.0067295455
0.23147628 -0.059617974 0.0025908675 0.0028761881 -0.20211746 -0.2619768 0.09522602 0.09111519
0.08499697 -0.04308217 -0.32329428 -0.005374488 -0.16074435 0.06691042 0.03482752 0.124142796
0.12280319 -0.15116312 -0.08559398 0.068275295 0.053570252 0.021705244 -0.08441765 0.003108401
-0.101448335 0.012403428 0.045335494 -0.05666872 -0.09386532 0.03788535 -0.19510756 -0.34628573
0.031076144 -0.23281895 -0.035145767 0.16383664 -0.017999426 0.12726058 -0.17290826 -0.23039912

Tmodel.fe1.FC4.bias f4 [32]
00000000: 3c0e 903d 999b f23d dafc 1f3e 84f8 81be
00000010: 5972 353f 702a adbd 9bd8 e03e be9f 81be
00000020: 3210 a03e 411c 5b3c 1acd c5bf 8851 493f
00000030: cb65 00be a120 463e 7d59 2a3e 04a7 bdbc
00000040: 25d5 453e 4b46 df3e cd3a 923e 43d9 03bd
00000050: c100 1a3e f56e 8abf 08f1 acbe 4ec0 86bd
00000060: 4763 6d3e b9ab 653e 4676 c1bd 8114 ac3e
00000070: ce6d 113f 530e b9bc ceaa a63e de71 89bd
0.07033965 0.11846084 0.15623799 -0.25384915 0.70877606 -0.0845536 0.43915257 -0.25317186
0.31262356 0.0133734355 -1.5453217 0.7864003 -0.12538831 0.19348384 0.166357 -0.023150928
0.1931959 0.43608317 0.28560486 -0.03218962 0.1503935 -1.0815111 -0.33777642 -0.06579648
0.23182403 0.22428788 -0.09446387 0.33609393 0.56808174 -0.022589838 0.3255219 -0.067111716

Tmodel.norm1.weight f4 [32]
00000000: 26cf c43e f84d 9e3e 11e2 b63e 5c76 393f
00000010: ac32 5e3d 3f0c fd3e 76a1 1f3e b7b7 303f
00000020: 40e1 2b3e 203c 993e 87c2 ec3e 1013 b23d
00000030: 0f5e b53e cd2c 9c3e 7ba2 7d3e fae5 e73e
00000040: a8e2 533e 13e5 963e 67cc 4f3e 53bf 8a3e
00000050: 179b a63e 93a0 d83c 9b57 b93e d401 fa3e
00000060: 5447 b23e 884f e13e 2c48 153f 3f5d 823e
00000070: 3366 233d cf69 a13e 05a4 603e a70b 203f
0.38439292 0.3091886 0.3571935 0.7244623 0.054247543 0.49423406 0.15588936 0.69030327
0.16785145 0.29928684 0.46242163 0.08695042 0.35423324 0.3050293 0.24769013 0.45292646
0.20691931 0.29471645 0.20292817 0.27099094 0.325402 0.026443755 0.3619965 0.4882952
0.34820044 0.4400599 0.5831325 0.25461766 0.039892387 0.31526038 0.21937568 0.6251778

Tmodel.norm1.bias f4 [32]
00000000: 8028 0abd b607 853c cf99 a6bb aabf e43a
00000010: c898 f3bd c15e 01bd a526 a03c a9bc c53c
00000020: e34f 0dbe de2a b9bd 8ce3 0f3f d72d 6abe
00000030: 4391 0dbd 06b2 3ebc 9337 36bd 9a00 b7bc
00000040: a9e3 28be c67a 6ebd b6ce 9cbd 7bbb b1bd
00000050: 45e8 63bd 40f7 24be 1e5a 15bb 94fd 21bd
00000060: ae04 e63c 7821 083a 1260 8abb 9f52 6ebd
00000070: dc41 0ebe a486 edbd be58 27bd 718a b03b
-0.03373003 0.016239028 -0.0050842534 0.001745214 -0.11894375 -0.031584505 0.019549677 0.024137812
-0.13800006 -0.090413794 0.56206584 -0.22869049 -0.03456236 -0.011639124 -0.044486593 -0.022339154
-0.16493095 -0.058222555 -0.076566145 -0.08678337 -0.05564143 -0.16109943 -0.002278931 -0.03954847
0.028078403 0.00051929755 -0.0042228783 -0.058184262 -0.13892311 -0.11597946 -0.040856116 0.0053875973

Tmodel.out1.weight f4 [32, 32]
00000000: de27 a23d 0d05 d5bc 6171 a6bc fee9 19bf
00000010: d0b8 633c 004d 30bd c1b6 72bd 7009 0d3f
00000020: 7bfe ccbd 5a76 613d f508 063f 2b39 9dbc
00000030: 052a 5ebe 9e3a 983d 9eb2 edbd bc9b a8bc
00000040: 53a5 a3bd 7ee7 693e b097 82be 49c5 8e3e
00000050: 0542 78be 78f8 36be eba9 c03d 3735 e1bd
00000060: 78c7 293e b8f3 01bf 7696 e63e bc3f 39bd
00000070: 8fec edbc f952 ad3d c6e1 113e 3fd3 5f3e
00000080: 82ca ccbb 951b 913e 7a51 173e 5496 013f
00000090: acb6 a83b e335 b4b9 14e3 a93d 3127 1cbf
000000a0: ac4c a93c 403d 84bd 0c5c c93e a525 36bc
000000b0: 75cb 7dbc d52a 413d 170c 213e 648c 313d
000000c0: 1319 86bb c11c 0cbe cc3c d43d ed0c 18be
000000d0: b68e c4be f21b febd 0f02 d5bc e361 0f3b
000000e0: b07b 97bd 3480 26bf 3b35 733e 809a 183e
000000f0: ec3e f3bc d260 04be a621 433c 3847 103f
00000100: e395 053a 6681 433c 57cf 193c 8d10 b9bb
00000110: 6bf3 86bd 4af2 a6bb cb51 09bb 9d6b 6bbd
00000120: de52 953d b733 613c 867d d23d ced2 e83c
00000130: e171 233c 3b8b d83b 8c21 9a3c ae4c 7cbb
00000140: e370 1b3d ee7d cd3c a546 a53c 686d 2bbe
00000150: f416 173c 1159 8e3d e925 52bc 672b f7ba
00000160: c842 5fbc e6d1 9d39 6a40 183d 3e18 10bc
00000170: 1251 41bd ce7a cc3a 2e2d 80bc 6da4 c13c
00000180: 229a 343c a46e b8bb 4aa3 cbbb 18f3 913c
00000190: 045b 7ebd 22f3 92bc ee1f 7abd 0d2b 623b
000001a0: c898 6f3d d9ff 15bc 59d4 9d3d a78f 2a3d
000001b0: 3009 493d 6dd4 fe3c aaba f13c 43a6 233c
000001c0: fa09 45bd e1b6 153d 0251 65bc c23b 8dbe
000001d0: f193 70bd c0c3 5fbd db85 33bd 535f 67bc
000001e0: 6be3 39bd 653e a6bc 81fb 5d3b 649b 463b
000001f0: 069e 5ebb dba2 1fbd c404 343d 82b3 95bc
00000200: d73c 2fbe c5a4 9cbd 145a e63d 2149 6f3c
00000210: 042d 003d d4f1 a53e 1d77 223e aa51 5e3d
00000220: 97b0 f5be aec5 443e 4579 76be a0d5 46bc
00000230: 03e3 903c b3d0 0fbe b24d 60bc 283b b6be
00000240: 3e4f 823e 2677 723e 7485 5ebe d909 873c
00000250: 6ed2 003e 06e4 d43d 3b06 31be 00b9 9f3d
00000260: a816 b8be 6292 9b3c 0170 33be df71 88bd
00000270: 4bac 9ebc 7282 443e 7e5e 483e efb0 5e3e
00000280: c348 b93d 8010 b9bd 5716 c73c 7683 efbe
00000290: 2742 57bd 398b ad3e fba7 adbc bd80 72bf
000002a0: cc10 c4bc 867c 34bd c1e1 7cbd 2b60 1a3c
000002b0: b354 dcbd c1df b83c 5fe6 ecbd 657e a8bc
000002c0: 6ad5 f5bc b78d d0bb 8f10 713d 2349 523e
000002d0: 356d 073e 4ee4 36bc c7d5 5f3e a0cd 30be
000002e0: b2bd 0f3d c779 cc3d 6812 e7be 5ef7 963d
000002f0: 744a 79bc de94 923d 61e6 f43d 39ec 5a3e
00000300: 9a5b ac3d e142 2cbd 550c f9bd ea8e 563d
00000310: 62c6 cfbd adc8 de3c b495 19be 4016 f4bc
00000320: 2120 f8bc 92bb da3d 27bf a13d 3a37 e43c
00000330: 1d1d edbc 7e8f 753d 2e84 d6bd c6dc f9bc
00000340: 6992 18bd cb4d 39be 5c13 763d ac3e febd
00000350: 28e3 87bd 6424 9dbd 81f0 3ebe 5539 30be
00000360: b1e9 97bd 69b6 cbbe 3791 43be 3610 e2bd
00000370: 004b 8c3d 3f76 89bd a444 7fbe b654 19bd
00000380: c26b a3be b0cd f3bc 7319 a63d 71c6 cabe
00000390: 6bb6 5cbd 45b3 f6be 0362 ad3d 4a4d 03bf
000003a0: e07f 133e 7ffa f3bd 3db1 c33e 2bc2 16bc
000003b0: 322b 633e dca3 1cbd 75a2 663e c391 9f3e
000003c0: 1123 d5bd 36cd 0c3e adcc 103d 72bf 263e
000003d0: a9e9 94bd 06bb 583d b42f b63e 0cdd 923e
000003e0: 7609 a53d 8636 783d 6bd8 733e f44d d23c
000003f0: 5b58 4f3c cdc7 a8be 052e a83c b3ae abbe
0.0791776 -0.026003385 -0.020317735 -0.6012267 0.013899043 -0.043042183 -0.05925632 0.55092525
-0.10009476 0.05504451 0.5235742 -0.019192299 -0.21695717 0.07433055 -0.11606334 -0.020582072
-0.079905175 0.22842214 -0.25506353 0.27884892 -0.24243934 -0.17868221 0.09407409 -0.10996478
0.16579998 -0.5076251 0.45036668 -0.045226797 -0.029043464 0.084630914 0.14246282 0.21857928
-0.0062497267 0.28341356 0.14777175 0.5062001 0.0051487293 -0.00034372424 0.08295265 -0.609973
0.020666443 -0.06456995 0.3932804 -0.011117374 -0.0154904025 0.04715999 0.15727268 0.043346778
-0.0040923445 -0.13682844 0.103631586 -0.14848681 -0.3839013 -0.12407674 -0.026001958 0.0021878413
-0.073966384 -0.6503937 0.23750775 0.14902687 -0.02969309 -0.12927559 0.011909878 0.5635867
0.0005095882 0.011932706 0.009387813 -0.005647725 -0.06589397 -0.005094801 -0.0020953293 -0.057475675
0.07291196 0.01374524 0.10277848 0.028420832 0.009975881 0.0066083944 0.018814825 -0.0038497853
0.037949454 0.025084462 0.020175288 -0.16740954 0.009221781 0.06950582 -0.012826421 -0.0018857539
-0.013626762 0.0003010176 0.037170805 -0.008794842 -0.047196455 0.0015600563 -0.015646543 0.023637975
0.011023076 -0.0056284238 -0.006214534 0.017816111 -0.062098518 -0.0179382 -0.061065607 0.0034510524
0.058495313 -0.009155237 0.07706518 0.041640904 0.049081028 0.031107152 0.029507954 0.00998837
-0.048105218 0.03655136 -0.013996365 -0.27584654 -0.058734838 -0.05463004 -0.043828826 -0.014121848
-0.0453829 -0.020293424 0.0033871832 0.0030305022 -0.00339687 -0.03897367 0.043949857 -0.018274073
-0.17113052 -0.07648615 0.1124765 0.014604838 0.03129293 0.32411063 0.1586575 0.0542771
-0.4798629 0.19216034 -0.24069698 -0.012135893 0.017686373 -0.14044456 -0.013690399 -0.35592008
0.25451082 0.23678264 -0.21730596 0.016484188 0.12580273 0.103950545 -0.17287533 0.07798958
-0.35954785 0.0189907 -0.17523195 -0.06662344 -0.019369265 0.19190386 0.19567296 0.21747182
0.09047081 -0.0903635 0.024302645 -0.46779984 -0.052553322 0.3389528 -0.021198263 -0.9472769
-0.02393379 -0.044064067 -0.061738733 0.009422342 -0.107583426 0.022567632 -0.11567377 -0.020568082
-0.03000899 -0.00636455 0.058853682 0.20535712 0.13225253 -0.0111628305 0.21858893 -0.1726594
0.035093017 0.09984165 -0.4513123 0.073714 -0.015215505 0.071573004 0.11958004 0.21379174
0.08415909 -0.04205597 -0.12160555 0.052382387 -0.101452604 0.027195299 -0.14998513 -0.029795766
-0.030288758 0.106803074 0.078977875 0.027858365 -0.028944546 0.059951298 -0.1047443 -0.03050078
-0.037249003 -0.18096082 0.060077056 -0.124142975 -0.066351235 -0.076729566 -0.18646432 -0.1720937
-0.0741762 -0.39787605 -0.19098364 -0.11038248 0.068502426 -0.06712007 -0.24928528 -0.037434302
-0.3191815 -0.029761165 0.08110323 -0.39604524 -0.053884905 -0.48183647 0.0846596 -0.5128981
0.14404249 -0.11913013 0.3822116 -0.009201567 0.22184446 -0.038242206 0.2252291 0.31165895
-0.10407079 0.13750157 0.035351444 0.16283968 -0.0727113 0.052912734 0.3558327 0.2868427
0.08058445 0.060598873 0.23813026 0.025671937 0.012655343 -0.32964936 0.020529756 -0.33531722

Tmodel.out1.bias f4 [32]
00000000: 575b 9abb eae5 75bc d467 b43e c27a eb3e
00000010: a130 50bc edd5 b73d 280b 12be 08af e93b
00000020: 718c c7bd 8f6f 13be 5834 b23c f3f3 413f
00000030: 39cb 903d b501 0a3d d7c0 c53e ee7c 22be
00000040: 02ce 4fbe e8fb c63c 1009 113f 5d86 a7bd
00000050: 8396 2bbe 4e7b c339 f7ff afba f2ea 8d3f
00000060: 6435 5bbb 20a5 1b3f 4398 863f f224 efb9
00000070: fdf2 83bd d3f0 4d3f 0c8c f53e f33f 6fbd
-0.0047105956 -0.015008429 0.35235465 0.45992094 -0.012706907 0.0897635 -0.14262068 0.007131461
-0.09743584 -0.14398025 0.021753475 0.7576286 0.07070012 0.033693034 0.38623688 -0.1586797
-0.2029343 0.02429004 0.56654453 -0.08179925 -0.16756634 0.00037285167 -0.0013427724 1.1087325
-0.0033448571 0.60798836 1.0515217 -0.0004561316 -0.06442831 0.80445594 0.4795841 -0.058410596

Tmodel.out2.weight f4 [1, 32]
00000000: afa1 a63e 77a2 a2be b7db 68bb 75a9 3b3b
00000010: 3647 c2bd 2074 8dbc 2a40 e03b 8643 16be
00000020: 7b3f ff3e e05c 9abe abd5 c73d 1c64 563c
00000030: 0982 583e 93ae 44be 46c3 0dbb 66a0 d7bd
00000040: 351a 45bf 3c39 9e3d 5e1a 053b 9b46 9c3e
00000050: d62c 323e 59cc 293e 27b3 2d3e fc4a 15be
00000060: 4301 bebd 4eda 25bb 0918 6cbe 3372 f33a
00000070: b77a 503c d478 613a 67f1 3d3b e2db b8bb
0.3254523 -0.31764576 -0.003553135 0.002863494 -0.09486239 -0.017267287 0.0068435865 -0.14674196
0.4985312 -0.30148983 0.09757551 0.013085391 0.21143354 -0.1920722 -0.0021631285 -0.105286404
-0.76993114 0.0772576 0.0020309906 0.30522618 0.17399916 0.16581859 0.16962872 -0.14579386
-0.092775844 -0.0025307122 -0.23056044 0.0018573463 0.01272457 0.00086010736 0.0028982998 -0.0056414464

Rmodel1.fe1.FC1.weight f4 [64, 10]
00000000: f646 f3bd b62d 573c 5d35 cfbd 57de a2bd
00000010: c4cd 9cbc fea0 b5bd 680d ac3d a395 eebc
00000020: 7b09 513d f8c3 94bc becf 6e3c 8c09 cd3b
00000030: 9f56 b13c 79e8 e23b bec5 473c 810a 153c
00000040: af88 d2bc 4627 993c beb9 18be 3d7c 9cbd
00000050: 2d31 dc3e 55b3 18bd a246 893e b057 243e
00000060: 0ced 013e 8a70 a8bd 3375 4e3d 3e08 e8bc
00000070: 374c 883c cd0b 9bbb f234 29bc a5d7 043b
00000080: 7388 c8bc ec32 cebc e0df f9bc 1813 8f3c
00000090: b360 b13a 65df 9abc dc99 09be 575b 9f3d
000000a0: af82 c83e cbe3 14bd 914a 773e 23af 163e
000000b0: 3f7c ef3d e4db 97bd 8962 413d 224a bfbc
000000c0: 41a5 1c3d b18f 56bc e28a 91be d923 003d
000000d0: 82aa 31be f108 d4bd ed2c b0bd d36a 553d
000000e0: 2b21 28bd 26e5 783c d64f 7bbb cbf7 a23c
000000f0: 0aa5 14bb 2cd2 a63a 173d 9e3c bfb5 8fbc
00000100: b4bc 20bc 27d8 46bc 94f4 fbbc 4555 e9bc
00000110: b589 78bc d88b 453d d022 37bd 6b1d 793c
00000120: e269 09bd 068c a6bc bc4d 5dbc 5441 493c
00000130: dc48 90bb 4273 8cbb 19d0 ae3b 3f78 1ebb
00000140: 4d72 563b 04f6 c43b 87c0 863c 5cad 35bc
00000150: 065b 4f3b 913b 1d3b dd2a 113a 1c9f d13a
00000160: 2580 25ba b6ea 0e3b 8847 bc3b 0b73 523c
00000170: b3f6 d6bc e2fb f13b 2805 243c 0ef3 82bc
00000180: 8a81 c23b ca45 97bb 68cc 0f38 ed98 8abb
00000190: 0baa 9fbb 12a9 06bb 75db e8bc 63cc 5bbd
000001a0: ae76 03bd 8bff 9c3d 42e8 15bd 384a cdbc
000001b0: 029a 3a3d 89de 193d df1e 863d a876 aebb
000001c0: 0967 253d 36ca 823c eea4 a03c 0efe 7ebc
000001d0: 385f 173b 4e4a b6ba d81c beba 2774 5abb
000001e0: 168b 32bd 0283 6b3d bcd1 34ba 78ff 8f3d
000001f0: b610 043a 9778 333d ec57 bcbd c2b5 44bd
00000200: 78d9 ca3c c9d6 c2bb a59a 013b f290 413b
00000210: 2977 b13a 743d f2ba 8835 843b 8cc3 3e3a
00000220: 1227 84bb aa18 5ebb fa10 523b c702 a8ba
00000230: fcc6 cb3e 974d 0dbd 0da2 7b3e 49f8 133e
00000240: 2260 eb3d 7b7f 93bd 9c24 4b3d a831 d7bc
00000250: 53db 813c 3643 97bb a2bb 633d dde1 16bb
00000260: ac8b 853d b5d5 8bbd c27a b6bd 7d42 7b3d
00000270: 4f72 05bd f951 aa3c 8215 8cbc 8810 293c
00000280: 2814 ed3c e8ea 0d3b dcde b03c 9dc7 cf3b
00000290: fa88 1f3c 9839 b7bb 6569 573b cd33 54bb
000002a0: c9c7 023b 9d6f 56bb 3752 f3bc 94f6 183c
000002b0: 889f 97bc a0b3 45bc 7a0c 11bc c35d 953b
000002c0: 7f77 91b9 0d7f 2dbb 8c40 c83b 4405 53bb
000002d0: dcd7 fcbc 1447 1abd 4980 223b 0176 9abd
000002e0: c4bf 6c3b cf88 92bc 67f9 263c c3dd f5bc
000002f0: ad9b 963b 327d 1dbc 5c1d 9b3c 9976 353a
00000300: 1379 e23c ecfd dcb9 454c 88bc a120 87bc
00000310: 49b1 7d3c a473 b4bb 2eb4 b2ba d476 b73b
00000320: 5323 983d dec7 12bd bc22 01bd 9dce 1dbd
00000330: ffea 8bbd 7bd5 bf3c 5848 87bd 0640 68bb
00000340: 032f 31bc 69b5 a5bb 8561 30ba 5bd2 c8bc
00000350: db87 a6bb 74e9 db3c fa71 ffb9 f176 bbbb
00000360: 910b 62ba dcf3 4e3c fcbd 5c3e 7edf 8ebd
00000370: 3305 93bd 5bd7 033c 4478 043d 0a4a 3e3d
00000380: 4e76 143d 9527 c9bc 0eb2 9a3c dbdb 2bbc
00000390: e89f 4a3b 3395 78bb 1038 ae3e 1ee0 01bd
000003a0: 3c54 5d3e b285 013e 58db cd3d 3152 84bd
000003b0: 87bb 2e3d abc1 c6bc 8632 c2b9 5759 d0ba
000003c0: 0bb3 26bd 2c41 87bd 813a 22bc 9227 b3bc
000003d0: 1b04 0b3c 5b04 8bbb af54 c1bc 9720 a93d
000003e0: f66d 24bd aec6 68bb 0393 803e 874a 5ebc
000003f0: 9273 2e3e d119 eb3d 8b42 df3d 61c9 79bd
-0.11878769 0.013133457 -0.101176 -0.07952564 -0.019141085 -0.088685974 0.084009945 -0.029124087
0.051034432 -0.018159851 0.014575897 0.0062572416 0.02164775 0.0069246856 0.0121931415 0.009096743
-0.025699941 0.018695485 -0.14914605 -0.07640884 0.43006268 -0.0372804 0.268117 0.16049075
0.12688082 -0.0822459 0.05040474 -0.028324243 0.016637905 -0.0047316314 -0.010327565 0.0020270136
-0.024479127 -0.025170766 -0.03050226 0.01746516 0.0013532847 -0.018905351 -0.13437599 0.077810936
0.39162204 -0.036350053 0.24149539 0.14715247 0.1169362 -0.07414988 0.04721311 -0.023350779
0.038243536 -0.013095782 -0.28426272 0.031284187 -0.173502 -0.10353268 -0.08602319 0.05210383
-0.041047256 0.015191352 -0.0038347146 0.019893548 -0.0022681379 0.0012727431 0.01931624 -0.017542718
-0.009810615 -0.012136496 -0.030756272 -0.028483042 -0.015169551 0.04822907 -0.044710934 0.015204768
-0.033548243 -0.02033044 -0.013507303 0.012283642 -0.0044032168 -0.0042862007 0.005334866 -0.002418056
0.0032721937 0.0060107727 0.016449226 -0.011088695 0.0031639948 0.0023991803 0.0005537698 0.0015992853
-0.00063133455 0.002180738 0.005745832 0.012844811 -0.026240682 0.007384763 0.010010995 -0.015985038
0.0059358524 -0.004616474 3.4284225e-05 -0.004229656 -0.0048725656 -0.002054755 -0.028424958 -0.053661715
-0.032095604 0.076659285 -0.03659845 -0.025059804 0.04555703 0.03756574 0.06548857 -0.0053242035
0.040381465 0.015965562 0.019609895 -0.015563501 0.0023097526 -0.0013907643 -0.0014504446 -0.0033333392
-0.043589674 0.057497986 -0.0006897708 0.07031149 0.00050378905 0.043816175 -0.09196457 -0.0480249
0.0247619 -0.0059460145 0.0019776013 0.0029535857 0.0013539541 -0.0018481449 0.0040347017 0.00072770636
-0.004032978 -0.0033889213 0.0032053576 -0.001281821 0.3980025 -0.034497824 0.24573536 0.14450182
0.11492945 -0.07202049 0.04959546 -0.026268795 0.015851652 -0.0046161665 0.055598862 -0.0023022809
0.06520781 -0.06827871 -0.08910133 0.061342705 -0.032579716 0.02079104 -0.0171001 0.010318883
0.028940275 0.0021654908 0.021590643 0.0063409344 0.009737248 -0.0055915825 0.0032869217 -0.0032379508
0.0019955507 -0.0032720335 -0.029702289 0.009336133 -0.018508688 -0.012066752 -0.008853072 0.0045582964
-0.00027745587 -0.0026473433 0.00611121 -0.0032199183 -0.030864649 -0.03766544 0.0024795702 -0.07542039
0.0036125043 -0.017887501 0.010191298 -0.03001297 0.0045961947 -0.009612368 0.018934898 0.00069222745
0.027645623 -0.00042150856 -0.01663793 -0.01649505 0.015484163 -0.0055069495 -0.001363402 0.005598882
0.074286126 -0.03583514 -0.031527266 -0.03852712 -0.06831931 0.023417225 -0.06605595 -0.0035438552
-0.010814431 -0.005057026 -0.0006728399 -0.024514368 -0.005082113 0.026844718 -0.0004872231 -0.005720966
-0.00086229393 0.012631383 0.21556848 -0.069762215 -0.07178726 0.00804695 0.032341257 0.046457328
0.036245637 -0.024555007 0.018883731 -0.010489429 0.0030918065 -0.0037930727 0.34027147 -0.031707875
0.21614164 0.12648657 0.10051602 -0.06460989 0.04265931 -0.02426227 -0.00037040206 -0.0015895766
-0.040698092 -0.066042274 -0.009901644 -0.021869455 0.008484866 -0.0042424626 -0.02359995 0.08258169
-0.04014393 -0.0035518813 0.2511216 -0.013567573 0.17036274 0.114795335 0.10901364 -0.060983066

Rmodel1.fe1.FC1.bias f4 [64]
00000000: 0931 eabe cb58 05bf 7b4f 85be dd7e 16bf
00000010: 6ba7 96be f7be 87be 6a09 eabe 71ea 463e
00000020: f7f3 2dbe 328d b7be 68f6 f0be acb2 7c3e
00000030: 1c91 24bf 1a19 613e d305 76be 4226 3cbe
00000040: 0c39 103e 87ba 423e 9de9 2fbf b4bf bfbe
00000050: 0651 80be 41a1 e3be 0317 8f3d 1268 b3be
00000060: 2dee f2be 30fd 5abe bdce 60be 6ecb 8abe
00000070: c9e3 d8be 890a 65be 4922 b6be f089 0abf
00000080: 8567 acbe a095 22bf 2b6a 69be 8bca e2be
00000090: 6757 96be 07e3 10bf 0e73 ec3e b439 a6be
000000a0: db91 1f3e cee5 083e 1323 c7b9 5103 b5be
000000b0: 7e9d 1abf 947a bfba 0745 fdbe 0f55 3aba
000000c0: 5674 94be 3bf9 d5be 0bd3 00bf 7f47 13bf
000000d0: b79b 92be 1167 95be e3fb e73d ba8f 7abe
000000e0: 243e e4be faee c1be 013a 893e 67b6 98be
000000f0: e1ac abbe 8ff8 713e 2144 d8be 6c52 09bf
-0.45740536 -0.5208861 -0.260372 -0.5878733 -0.29424605 -0.26512882 -0.45710307 0.1942537
-0.16987596 -0.3584991 -0.47062993 0.24677533 -0.6428392 0.21982232 -0.2402566 -0.18373969
0.14084262 0.19016467 -0.6871584 -0.37450945 -0.25061816 -0.44458964 0.06986811 -0.35040337
-0.4744734 -0.21385646 -0.21953864 -0.2710833 -0.42361286 -0.223673 -0.35573032 -0.54116726
-0.3367273 -0.6350956 -0.22794406 -0.44295153 -0.29363558 -0.56596416 0.4618153 -0.324659
0.15582983 0.13368914 -0.0003798237 -0.35354093 -0.60396564 -0.0014608675 -0.49466726 -0.00071080116
-0.28995007 -0.4179171 -0.50322026 -0.5753097 -0.28634426 -0.29180196 0.113273405 -0.2446889
-0.4457866 -0.37877637 0.26802066 -0.29826662 -0.33530334 0.23629974 -0.42239478 -0.5364139
