Lightcode/single/lightcode/jsac_results/N_3_3_d_16_16/snr2_100/seed_101/weights/gbaf_fy/T_5/pow_1/100000/0.001/K_3_m_3_snr1_1.0/model_weights120000.pt (torch, 39042 bytes, 26 tensors)

Tmodel.fe1.FC1.weight f4 [32, 7]
-0.21310258 0.1838285 0.043826032 -0.09249162 -0.054689955 -0.03378518 -0.21547346 0.18264301
0.1555656 -0.019183392 0.010494687 -0.1424776 -0.11077578 -0.057484798 0.17499541 -0.069401436
0.052186444 0.111995004 -0.009405137 0.018361215 -0.0012564083 -0.16653113 0.09316919 -0.093301065
0.040003214 0.24322832 0.15362929 0.0768698 0.13482772 -0.25715503 0.07969566 -0.12801339
-0.09630942 -0.06998752 -0.039783105 -0.17689241 -0.08359198 -8.599977e-06 -2.8332712e-05 0.16844887
0.109736055 0.06240504 -0.23459138 0.14671542 0.10995071 0.1803482 0.11815384 0.07316817
0.05645871 0.26610902 -0.046990503 0.15297158 -0.24331468 0.015184636 0.025233127 0.019732885
0.00082953746 -0.14456883 -0.05328251 -0.00071180257 -0.0005397934 -0.00047556256 -0.5181526 -0.13853644
-0.11416613 -0.01852019 -0.1903745 -0.11083477 -0.0699573 -0.046430197 -0.17685916 0.2192581
0.19731443 -0.013338202 -0.09710307 -0.06414731 -0.029536631 0.013448329 -0.14652704 0.08914783
-0.29269814 -0.17523286 -0.10935499 -0.0684626 -0.2404781 0.24048194 5.579053e-06 2.606524e-06
-0.12630066 -0.08580039 -0.038329553 0.032799806 -0.0052670822 -0.011123023 0.0054979953 0.0051541813
-0.61999375 -0.25520876 -0.11475314 0.23620744 0.047553353 0.15013133 0.114616215 0.08921512
0.054203495 0.1743127 0.05995091 -0.03798705 -0.11239153 -0.07490947 -0.00568855 0.005072544
-0.06629588 -0.062883094 0.048269987 0.0045222756 0.11683738 0.063914366 0.040635653 0.03612297
-0.0048714527 -0.0030966918 -0.05497963 -0.03867669 -0.025097447 -0.57054144 0.015608403 -0.018545605
-0.033991493 -0.006446412 -0.0038826736 -0.55006737 -0.23257859 0.02712514 0.17580174 0.21743871
-0.019256683 -0.02017463 0.025258912 0.034589257 -0.03266698 0.18205608 -0.017544277 -0.21636932
-0.014850019 0.0016906296 0.0067629893 0.07137123 0.017478714 -0.119754225 0.228435 0.14091232
0.089618236 0.0602143 0.024585942 0.023610625 -0.083259515 -0.012102981 -0.013575934 -0.011478765
-0.50574005 -0.17017202 0.061270572 0.005240853 0.07946129 0.05022018 0.031127816 -0.2955002
0.22299723 -0.02272718 0.2392352 0.016395263 0.09160533 0.07156515 0.044577662 0.28541574
0.01608083 0.2986528 0.020566989 0.016387805 0.008000883 -0.035852246 0.24449974 -0.27787507
0.15174855 0.12979428 0.107792795 0.075177744 0.055199895 -0.27273855 0.0051521277 -0.10293921
0.1784757 0.007851195 -0.0008877849 -0.0008030738 0.29354575 -0.15345308 -0.11290511 -0.17074314
-0.11255592 -0.07983806 -0.05369974 0.109991014 -0.010157923 0.2549977 2.6653106e-06 -0.048704468
-0.034038078 -0.017244773 0.08453515 -0.056403544 0.043135557 -0.03512166 -0.026604889 -0.01821522
-0.73596114 0.021225577 -0.0012924427 -0.010124246 0.0003276547 0.00032986392 -0.62722874 -0.2600078
00000000: 9037 5abe 8a3d 3c3e ed82 333d 3f6c bdbd
00000010: 9302 60bd 5462 0abd 13a5 5cbe c506 3b3e
00000020: 974c 1f3e 7d26 9dbc e8f1 2b3c a6e5 11be
00000030: 6ade e2bd 2e75 6bbd ff31 333e 5722 8ebd
00000040: 74c1 553d a35d e53d 0118 1abc 426a 963c
00000050: 11ae a4ba 2387 2abe 7dcf be3d a114 bfbd
00000060: 69da 233d d810 793e ff50 1d3e ea6d 9d3d
00000070: 4710 0a3e d3a9 83be 7a37 a33d f115 03be
00000080: e03d c5bd 9e55 8fbd 9cf3 22bd 4923 35be
00000090: 4632 abbd 9f48 10b7 09ac edb7 dc7d 2c3e
000000a0: 4cbd e03d 6d9c 7f3d b938 70be 913c 163e
000000b0: d62d e13d 33ad 383e a4fa f13d 32d9 953d
000000c0: 4041 673d 713f 883e 1d79 40bd 95a4 1c3e
000000d0: 7c27 79be fbc8 783c b4b5 ce3c dca6 a13c
000000e0: 5175 593a da09 14be c33e 5abd 4398 3aba
000000f0: ec80 0dba ed54 f9b9 a6a5 04bf 7fdc 0dbe
00000100: efcf e9bd a7b7 97bc 88f1 42be 57fd e2bd
00000110: c645 8fbd 972d 3ebd 911a 35be 3285 603e
00000120: cb0c 4a3e 7988 5abc f9dd c6bd aa5f 83bd
00000130: cef6 f1bc 6156 5c3c 2f0b 16be 2393 b63d
00000140: 88dc 95be 3e70 33be 82f5 dfbd 1f36 8cbd
00000150: e43f 76be e640 763e b333 bb36 beeb 2e36
00000160: f654 01be 1db8 afbd 73ff 1cbd 1759 063d
00000170: 7d97 acbb 573d 36bc 8728 b43b 68e4 a83b
00000180: e9b7 1ebf b9aa 82be b203 ebbd 5de0 713e
00000190: 4ec7 423d 07bc 193e e8bb ea3d 6bb6 b63d
000001a0: 7c04 5e3d 077f 323e 168f 753d 4f98 1bbd
000001b0: 882d e6bd 236a 99bd 0467 babb 9537 a63b
000001c0: 22c6 87bd dac8 80bd c0b6 453d 992f 943b
000001d0: 7048 ef3d 89e5 823d 9271 263d aef5 133d
000001e0: b5a0 9fbb def1 4abb 5232 61bd 736b 1ebd
000001f0: 2999 cdbc 010f 12bf 63ba 7f3c f4ec 97bc
00000200: aa3a 0bbd 6c3c d3bb 7474 7ebb 37d1 0cbf
00000210: 1529 6ebe 8b35 de3c 5f05 343e 41a8 5e3e
00000220: 31c0 9dbc 4445 a5bc c7eb ce3c 77ad 0d3d
00000230: d0cd 05bd e96c 3a3e 04b9 8fbc eb8f 5dbe
00000240: 7e4d 73bc 1e98 dd3a 119c dd3b 142b 923d
00000250: 852f 8f3c b441 f5bd ddea 693e 524b 103e
00000260: c489 b73d 45a3 763d 7568 c93c 126b c13c
00000270: f783 aabd 954b 46bc 986d 5ebc 6e11 3cbc
00000280: 2e78 01bf 9341 2ebe daf6 7a3d 76bb ab3b
00000290: 9abc a23d adb3 4d3d c3ff fe3c cd4b 97be
000002a0: 6359 643e 5a2e babc 13fa 743e 5c4f 863c
000002b0: 939b bb3d c090 923d 1197 363d 0322 923e
000002c0: f2bb 833c 05e9 983e 1a7c a83c b83f 863c
000002d0: 2316 033c ced9 12bd 245e 7a3e a445 8ebe
000002e0: f963 1b3e cbe8 043e 78c2 dc3d caf6 993d
000002f0: 4919 623d 63a4 8bbe 2ed3 a83b cbd1 d2bd
00000300: 55c2 363e 4ca2 003c 3cba 68ba 5f85 52ba
00000310: a14b 963e ce22 1dbe cb3a e7bd 4ad7 2ebe
00000320: b883 e6bd 2382 a3bd 42f4 5bbd f842 e13d
00000330: 6b6d 26bc 0f8f 823e b0dd 3236 567e 47bd
00000340: 836b 0bbd e944 8dbc c420 ad3d 6707 67bd
00000350: e9ae 303d bbdb 0fbd 7ff2 d9bc 1638 95bc
00000360: f367 3cbf 43e1 ad3c 2e67 a9ba 2ae0 25bc
00000370: 12c9 ab39 96f1 ac39 1092 20bf be1f 85be

Tmodel.fe1.FC1.bias f4 [32]
0.04993109 -0.004547513 -0.19224444 0.0044176183 0.10265089 0.09335251 0.13535711 -0.07415893
0.09013449 -0.25451848 0.19044003 0.24912834 -2.9413752e-06 -0.03534276 0.23169418 -0.0649141
0.08248463 -0.063764766 -0.00016896686 0.009110709 -0.098982304 -0.15576302 -0.08746035 0.10373712
0.08180114 0.012793499 -0.2019092 0.015825184 0.13532214 0.13483442 0.040943235 -0.03381937
00000000: 8b84 4c3d 4e03 95bb badb 44be abc1 903b
00000010: a13a d23d 9a2f bf3d 0e9b 0a3e a3e0 97bd
00000020: 6e98 b83d 3f50 82be b602 433e 801b 7f3e
00000030: 7164 45b6 92c3 10bd 3d41 6d3e aff1 84bd
00000040: b4ed a83d 1a97 82bd b22c 31b9 1545 153c
00000050: 3cb7 cabd 5780 1fbe 691e b3bd 2174 d43d
00000060: 5b87 a73d d39b 513c 49c1 4ebe d1a3 813c
00000070: e391 0a3e 0912 0a3e 18b4 273d 2e86 0abd

Tmodel.fe1.FC2.weight f4 [32, 32]
-0.08648463 -0.012416061 0.046055917 0.017885884 -0.083672605 -0.012628174 0.19424912 -0.06469266
0.013821443 0.032225262 0.0035058944 0.083892055 0.09980325 -0.04594408 0.19507329 0.08990757
0.042934366 -0.19142191 -0.048409667 -0.043413877 0.032820288 0.05195276 -0.2572209 -0.19394831
-0.103353016 0.069040164 0.02299718 0.17538583 0.005699775 0.030867398 0.4218629 0.08024873
-0.040003654 -0.0034381654 0.14730513 -0.051362436 0.043404385 0.047436886 -0.063811496 -0.033665363
0.052051667 -1.4666189 -0.41375786 -0.1770079 -4.4165506 0.120371915 -0.057269156 0.15815967
0.13136299 -0.34705773 -0.009894519 0.0020167723 -0.07347251 0.12340291 -0.022395413 0.08510306
-0.062197763 -0.11917966 0.19755691 0.08598305 -0.041382525 -0.27589044 0.2154721 -0.10737457
0.009941389 0.06772732 0.12682621 0.039157655 -0.022839794 0.047789123 -0.09314503 -0.039311968
0.02999338 0.48910132 -0.025504032 -0.20828074 -0.0893199 0.068254836 -0.08033302 0.007772656
-0.0124762645 0.21657437 -0.010694988 0.07502828 0.2323212 -0.20086758 -0.05173611 -0.0376386
0.039819863 0.027526392 0.13745318 -0.009480713 0.041426048 0.027419116 -0.14084327 -0.0523574
-0.043543283 0.16581932 0.019905942 0.08779942 0.2140005 -0.16501392 0.16752648 0.020125518
0.030724049 0.27941796 -0.31546643 -0.021668468 0.033001583 0.09168697 -0.0645004 -0.022844657
-0.017997991 -0.0964678 -0.021875149 -0.22061537 -0.111223474 0.031882413 0.16770115 0.13045071
0.010888346 -0.21536927 0.05908123 -0.116353005 0.15968607 -0.12337535 -0.117884524 -0.07996551
0.06825974 -0.018618848 -0.040180534 -0.0114923855 -0.18904515 0.05621311 -0.19672532 0.03948684
0.038183652 0.1529003 0.019276034 -0.33767903 0.016822575 -0.09298849 0.043474663 0.0062562563
-0.051916778 -0.27869904 0.06164212 -0.011183654 -0.114488244 0.07909766 -0.224953 0.3499111
-0.016448295 -0.033592045 -0.22104564 0.040790036 0.103954166 -0.0041255034 0.17477776 0.039099555
0.05272782 0.06361583 0.13559589 -0.020276157 0.11104195 -0.032914426 0.06814775 -0.06670201
-0.7850178 0.030553417 0.067411244 0.017786516 -0.0033614694 -0.019228432 0.08994068 -0.0409914
-0.011716208 0.061496817 -0.07140545 -0.12848479 0.02215082 -0.17772472 0.2283111 0.09317689
0.38167602 -0.4562215 -0.51104236 -0.09935632 0.18302248 -0.3880805 0.29799154 0.0787771
0.0061559854 0.04060661 0.0855314 0.17028704 0.0925673 0.037504137 -0.1449067 -0.09213795
-0.046143435 -0.1121674 -0.06453689 -0.10902256 -0.024756348 -0.05606416 -0.09859704 0.03932951
0.006355081 -0.040020492 -0.114486456 -0.17673773 0.14346236 -0.050256923 -0.03929077 0.19510905
-0.1834701 0.12036533 -0.0154834585 -0.06739365 0.03749736 0.28106153 -0.00702517 0.12117858
0.040931433 0.015553666 0.2674 -0.101979 -0.01996036 0.11783709 -0.19153644 0.035823073
0.013465555 -0.03669887 0.16056028 0.11684223 0.027814552 0.011906059 -0.1153872 -0.11534787
0.013908946 -0.07299642 0.025321735 0.0064650346 -0.16371119 -0.17902829 -0.113165595 -0.077692196
0.1257745 -0.4408569 0.08297899 -0.1087617 -0.031030836 -0.030010713 0.17296588 -0.039747145
00000000: db1e b1bd bc6c 4bbc 21a5 3c3d 6b85 923c
00000010: 8b5c abbd 67e6 4ebc 3ee9 463e 967d 84bd
00000020: 5573 623c a3fe 033d 26c3 653b 99cf ab3d
00000030: a565 cc3d dc2f 3cbd 4bc1 473e 7621 b83d
00000040: f2db 2f3d 1b04 44be 3749 46bd c0d2 31bd
00000050: 916e 063d 6bcc 543d 75b2 83be 639a 46be
00000060: bfaa d3bd ee64 8d3d 9564 bc3c 5898 333e
00000070: 2ec5 ba3b a0dd fc3c 6afe d73e 7259 a43d
00000080: dfda 23bd d852 61bb 28d7 163e 6b61 52bd
00000090: ccc8 313d 2e4d 423d 9aaf 82bd b1e4 09bd
000000a0: 2134 553d 2bba bbbf 12d8 d3be 8f41 35be
000000b0: 6254 8dc0 8d85 f63d 1093 6abd 9cf4 213e
000000c0: 0584 063e 8db1 b1be 9f1c 22bc d32b 043b
000000d0: c178 96bd aaba fc3d 9676 b7bc 834a ae3d
000000e0: 15c3 7ebd 7714 f4bd 5c4c 4a3e e217 b03d
000000f0: b980 29bd 8341 8dbe b8a4 5c3e 33e7 dbbd
00000100: 35e1 223c 9fb4 8a3d bbde 013e c763 203d
00000110: 851a bbbc 87be 433d d2c2 bebd 9605 21bd
00000120: adb4 f53c 7d6b fa3e d5ed d0bc 8c47 55be
00000130: 5aed b6bd 31c9 8b3d a385 a4bd c4b1 fe3b
00000140: 3f69 4cbc acc5 5d3e 083a 2fbc 6da8 993d
00000150: 9ce5 6d3e 3bb0 4dbe 3ee9 53bd ef2a 1abd
00000160: 271a 233d 077f e13c 87c0 0c3e fe54 1bbc
00000170: 5cae 293d 0e9e e03c 3839 10be b774 56bd
00000180: 715a 32bd 8acc 293e c911 a33c 2fd0 b33d
00000190: f222 5b3e 69f9 28be 108c 2b3e 45de a43c
000001a0: 00b1 fb3c df0f 8f3e d184 a1be 1282 b1bc
000001b0: ab2c 073d 61c6 bb3d c918 84bd b824 bbbc
000001c0: 8670 93bc e990 c5bd 8333 b3bc ffe8 61be
000001d0: 22c9 e3bd 2297 023d dab9 2b3e df94 053e
000001e0: 0865 323c c389 5cbe 29ff 713d 7c4a eebd
000001f0: bf84 233e 37ac fcbd 716d f1bd f5c4 a3bd
00000200: c3cb 8b3d 8e86 98bc 5894 24bd 8f4a 3cbc
00000210: 0d95 41be b83f 663d 5d72 49be f4bc 213d
00000220: 7666 1c3d e591 1c3e c6e8 9d3c 44e4 acbe
00000230: 7fcf 893c c070 bebd 7d12 323d 4801 cd3b
00000240: b0a6 54bd a4b1 8ebe 737c 7c3d a53b 37bc
00000250: d078 eabd f4fd a13d 145a 66be 8c27 b33e
00000260: 93be 86bc d097 09bd ca59 62be 7413 273d
00000270: ece5 d43d 3b2f 87bb f1f8 323e db26 203d
00000280: 20f9 573d 0449 823d a6d9 0a3e 2f1a a6bc
00000290: f669 e33d 47d1 06bd 0c91 8b3d 109b 88bd
000002a0: edf6 48bf 294b fa3c e80e 8a3d 07b5 913c
000002b0: 194c 5cbb f284 9dbc d232 b83d 99e6 27bd
000002c0: 57f5 3fbc 16e4 7b3d 053d 92bd 8491 03be
000002d0: a375 b53c 78fd 35be 63ca 693e 86d3 be3d
000002e0: 0a6b c33e dd95 e9be acd3 02bf 547b cbbd
000002f0: 3f6a 3b3e 7db2 c6be 5992 983e e355 a13d
00000300: 26b8 c93b 1e53 263d 162b af3d ba5f 2e3e
00000310: ed93 bd3d f09d 193d 6c62 14be d2b2 bcbd
00000320: e600 3dbd 06b8 e5bd eb2b 84bd 3847 dfbd
00000330: d3cd cabc 88a3 65bd 3fed c9bd fb17 213d
00000340: 493e d03b 87ec 23bd e077 eabd bcfa 34be
00000350: cce7 123e 34da 4dbd 5cef 20bd abca 473e
00000360: 96df 3bbe 1982 f63d 55ae 7dbc af05 8abd
00000370: d596 193d 4ce7 8f3e 6633 e6bb 7a2c f83d
00000380: b8a7 273d ced4 7e3c a7e8 883e 5eda d0bd
00000390: e983 a3bc 9254 f13d 2122 44be 37bb 123d
000003a0: a29e 5c3c 8e51 16bd ea69 243e fb4a ef3d
000003b0: 58db e33c a211 433c 2050 ecbd 813b ecbd
000003c0: 59e2 633c 267f 95bd 876f cf3c a4d8 d33b
000003d0: e8a3 27be 3153 37be 5dc3 e7bd 161d 9fbd
000003e0: 08cb 003e ffb7 e1be e4f0 a93d 74be debd
000003f0: 6134 febc 07d9 f5bc f81d 313e e7cd 22bd

Tmodel.fe1.FC2.bias f4 [32]
-0.054681078 -0.023422197 0.02817206 -0.076646425 0.028443858 -0.13506812 0.1218019 0.0014125146
-0.0068701995 0.040648594 0.0027933454 -0.015226883 -0.084777296 0.011179816 -0.13858913 -0.05144891
-0.023621434 -0.0153089 0.012644643 0.073368154 -0.12610833 0.030163046 0.047301237 0.023847178
-0.022383193 -0.114395276 -0.036047503 -0.053397194 -0.19351369 -0.054521177 0.06329213 -0.09746635
00000000: 44f9 5fbd e8df bfbc 18c9 e63c cdf8 9cbd
00000010: 1803 e93c 4c4f 0abe 4673 f93d 2024 b93a
00000020: 691f e1bb 247f 263d 8f10 373b 2d7a 79bc
00000030: b89f adbd 8c2b 373c 4fea 0dbe 18bc 52bd
00000040: bd81 c1bc 2ed2 7abc 7a2b 4f3c 0b42 963d
00000050: 8b22 01be 7e18 f73c f1be 413d 285b c33c
00000060: f55c b7bc 1248 eabd 8ca6 13bd 04b7 5abd
00000070: 7428 46be 9951 5fbd 4e9f 813d 709c c7bd

Tmodel.fe1.FC3.weight f4 [32, 32]
-0.08384337 -0.19871494 0.1420134 -0.13218148 0.18797052 0.18571807 0.0931355 -0.10054006
-0.024744242 0.17404437 -0.009791028 0.04164446 -0.031017307 -0.09235712 0.015035992 -0.06759151
0.11127876 0.01202497 -0.16949049 -0.08275932 -0.29726836 -0.19504908 -0.08543472 0.07737333
0.008656878 0.18003479 0.17525023 0.031688955 0.09742527 -0.069010854 0.012394158 -0.013959644
0.021463282 -0.12654313 0.20577802 -0.060700744 -0.004217398 0.40678176 -0.09793287 -0.043487053
-0.012416626 -0.038651247 -0.03955067 0.13276835 -0.1162217 -0.11683402 0.12479682 0.12677416
0.034760673 -0.18532686 0.100500606 0.01633247 -0.25740564 0.09232038 -0.14826305 0.09636426
0.0131646795 0.14638563 0.10760488 -0.25197604 0.09597019 -0.19495268 -0.029545752 -0.024640685
-0.05117806 0.16291946 -0.018162685 0.042835105 -0.100830816 -0.25175282 -0.11076792 0.10038124
-0.037519645 -0.09736405 -0.06004331 -0.043716643 0.18853422 0.10263737 -0.07101225 -0.11356446
-0.04705622 0.49430305 0.035226963 0.053294275 0.127223 0.007935781 0.19242339 0.0043562106
-0.051167686 -0.14697444 -0.14286591 0.2681314 -0.037631243 0.20873652 0.047793392 -0.1757762
0.08268549 -0.064047635 -0.10883804 -0.034443058 0.032651987 0.28035423 -0.035618324 -0.091067575
0.12653069 0.07239337 -0.0014154257 0.027160643 -0.11774151 -0.21372673 0.17916098 0.20459808
0.046027064 -0.9372115 0.11316413 -0.08055571 -0.027830767 0.12223468 -0.29404142 0.034951054
0.038006604 0.10994063 0.07166843 -0.55137527 0.08134053 -0.06907089 -0.15549639 0.048367076
-0.060102593 -0.2847739 -0.278481 -0.13369279 0.6218439 -1.0132654 0.01832655 0.008272107
-0.020901924 0.15373099 -0.053201944 0.47127226 0.11157723 -0.07313826 -0.22949192 -0.06820985
-0.3523154 -0.2602919 -0.3033945 -0.41494477 -0.10890561 -1.1798884 0.3387218 0.05898765
-0.14061296 -0.27814785 0.46977264 -0.016295003 -0.25351897 -0.19783247 0.19348808 0.091958165
0.104599364 0.099933796 -0.11446362 0.1468266 -0.2003198 -0.43129423 -0.07759809 0.1323906
-0.07826618 -0.04291707 -0.1380483 -0.1052996 -0.03034592 0.14099804 -0.09016552 -0.11275339
-0.095313944 0.43684295 -0.029341256 0.10813449 0.20290238 0.07535477 0.25307858 0.035532806
-0.1039529 0.008869974 -0.19742677 0.26096267 -0.15155485 0.19183761 -0.08776249 -0.17452428
0.16861118 0.065857515 -0.08665078 0.20211941 -0.172544 -0.46821854 -0.10108689 0.09092013
0.06983989 -0.18618396 -0.062000398 -0.15687737 0.083520465 -0.039773874 -0.026032487 0.059214167
-0.04140398 -0.06991079 -0.07607502 0.0746443 0.1849104 0.21722893 0.06686386 -0.041287422
-0.06408698 -0.035808604 -0.19428018 0.08307533 -0.21178955 0.107724145 -0.16779685 -0.026076382
-0.20611604 -0.18631129 0.1698583 -0.073834516 0.034430236 0.41781643 -0.04197848 -0.0040866937
0.03784647 0.15622978 0.036377564 0.13178329 -0.10433675 -0.11218174 -0.07034785 0.10573253
0.08326072 -0.27815822 0.07085693 -0.15276931 -0.19746445 -0.109562464 -0.19918714 0.051262755
0.043385897 0.041580055 0.0986735 -0.2022082 0.19745909 -0.14152548 0.019232094 0.11551976
00000000: 13b6 abbd ee7b 4bbe f66b 113e 955a 07be
00000010: 587b 403e e12c 3e3e d3bd be3d f2e7 cdbd
00000020: 70b4 cabc b038 323e 8c6a 20bc 6293 2a3d
00000030: 0218 febc bb25 bdbd 8559 763c 6b6d 8abd
00000040: 1ee6 e33d 6104 453c ea8e 2dbe b87d a9bd
00000050: 8f33 98be f2ba 47be 66f8 aebd e975 9e3d
00000060: 94d5 0d3c 0a5b 383e cc74 333e 47cc 013d
00000070: e686 c73d 9055 8dbd de10 4b3c feb6 64bc
00000080: c4d3 af3c 8694 01be 79b7 523e 58a1 78bd
00000090: 1932 8abb b345 d03e 0791 c8bd 7b1f 32bd
000000a0: 1b6f 4bbc c550 1ebd e2ff 21bd 6df4 073e
000000b0: a505 eebd ad46 efbd 7a95 ff3d 16d1 013e
000000c0: 3561 0e3d 53c6 3dbe 43d3 cd3d accb 853c
000000d0: acca 83be 7812 bd3d 45d2 17be a05a c53d
000000e0: abb0 573c 1de6 153e f35f dc3d 0103 81be
000000f0: 058c c43d ada1 47be ef09 f2bc 43db c9bc
00000100: 16a0 51bd 5cd4 263e e9c9 94bc dd73 2f3d
00000110: 6380 cebd bfe5 80be 4bda e2bd ae94 cd3d
00000120: 33ae 19bd ce66 c7bd f9ef 75bd 3910 33bd
00000130: 1d0f 413e 8b33 d23d df6e 91bd 7c94 e8bd
00000140: 06be 40bd 4a15 fd3e 264a 103d 194b 5a3d
00000150: bf46 023e 1405 023c a30a 453e 8bbe 8e3b
00000160: 3595 51bd 7880 16be 714b 12be 8548 893e
00000170: 3823 1abd 07bf 553e 01c3 433d adfe 33be
00000180: 0357 a93d 682b 83bd 7ae6 debd 2a14 0dbd
00000190: 17be 053d 978a 8f3e 85e4 11bd a381 babd
000001a0: 4391 013e fa42 943d ce85 b9ba ff7f de3c
000001b0: 7622 f1bd 2edb 5abe fa75 373e 2982 513e
000001c0: e086 3c3d 18ed 6fbf 98c2 e73d 64fa a4bd
000001d0: 59fd e3bc 2d56 fa3d 998c 96be d628 0f3d
000001e0: d0ac 1b3d 8e28 e13d e6c6 923d ee26 0dbf
000001f0: dd95 a63d 0a75 8dbd 723a 1fbe 8e1c 463d
00000200: 232e 76bd e2cd 91be 1095 8ebe c3e6 08be
00000210: 2931 1f3f aeb2 81bf 9021 963c bb87 073c
00000220: 833a abbc a86b 1d3e 48ea 59bd 994a f13e
00000230: 9a82 e43d 83c9 95bd eeff 6abe 9bb1 8bbd
00000240: af62 b4be fb44 85be 8656 9bbe a473 d4be
00000250: e809 dfbd 9506 97bf f26c ad3e 099d 713d
00000260: d8fc 0fbe 6569 8ebe 0a86 f03e 197d 85bc
00000270: 3dcd 81be 9894 4abe bd21 463e 9054 bc3d
00000280: 3138 d63d 17aa cc3d e76b eabd b659 163e
00000290: a220 4dbe 99d2 dcbe bfeb 9ebd 6791 073e
000002a0: 054a a0bd cfc9 2fbd 895c 0dbe 51a7 d7bd
000002b0: 0298 f8bc ca61 103e b3a8 b8bd 40eb e6bd
000002c0: f533 c3bd e1a9 df3e 135d f0bc 9e75 dd3d
000002d0: a4c5 4f3e 9a53 9a3d 8493 813e d98a 113d
000002e0: 42e5 d4bd 5e53 113c 3e2a 4abe e69c 853e
000002f0: 3231 1bbe 1471 443e d2bc b3bd 7eb6 32be
00000300: 69a8 2c3e 4ee0 863d f775 b1bd 64f8 4e3e
00000310: 60af 30be 57ba efbe a506 cfbd 5534 ba3d
00000320: 3708 8f3d 02a7 3ebe 21f4 7dbd 76a4 20be
00000330: c70c ab3d eee9 22bd 1542 d5bc 8e8a 723d
00000340: 3897 29bd 632d 8fbd 38cd 9bbd 1cdf 983d
00000350: 2759 3d3e 4371 5e3e ebef 883d 001d 29bd
00000360: 0940 83bd 0bac 12bd 62f1 46be 6623 aa3d
00000370: 5cdf 58be 7a9e dc3d f0d2 2bbe 239e d5bc
00000380: 1510 53be 63c8 3ebe 56ef 2d3e 8d36 97bd
00000390: b806 0d3d 09ec d53e a0f1 2bbd ace9 85bb
000003a0: e604 1b3d b3fa 1f3e a400 153d 33f2 063e
000003b0: 82ae d5bd 8abf e5bd 8912 90bd 4c8a d83d
000003c0: 9984 aa3d c16a 8ebe 701d 913d 8f6f 1cbe
000003d0: 1f34 4abe 4962 e0bd b7f7 4bbe e5f8 513d
000003e0: 69b5 313d d94f 2a3d 5515 ca3d ab0f 4fbe
000003f0: b732 4a3e 0eec 10be a08c 9d3c a095 ec3d

Tmodel.fe1.FC3.bias f4 [32]
0.10101031 -0.08485149 -0.00970086 -0.06397209 0.08004998 0.024077058 -0.06357053 0.07804297
-0.024292998 -0.01944293 -0.10127625 0.02042521 -0.015534135 -0.0074249096 0.063645184 0.013440953
-0.07639565 0.0009365013 -0.10590087 0.09456016 -0.079469256 -0.07234962 0.010139989 0.11091545
-0.022204714 -0.13002555 0.0977041 -0.005970367 0.13421011 0.09193577 -0.05342976 -0.016498206
00000000: 7ede ce3d 9ec6 adbd 5bf0 1ebc cd03 83bd
00000010: 3ef1 a33d 403d c53c 4431 82bd fed4 9f3d
00000020: 1c02 c7bc c846 9fbc ec69 cfbd c552 a73c
00000030: e282 7ebc a84c f3bb 6858 823d 7137 5c3c
00000040: 5375 9cbd 8a7f 753a 8ee2 d8bd c2a8 c13d
00000050: c7c0 a2bd 0a2c 94bd 3222 263c a427 e33d
00000060: a9e6 b5bc 6b25 05be 1619 c83d 12a3 c3bb
00000070: 606e 093e d248 bc3d 2ad9 5abd 3f27 87bc

Tmodel.fe1.FC4.weight f4 [16, 64]
-0.09211255 0.096448705 -0.062069844 0.21452826 -0.047365863 -0.23080665 -0.03908161 0.16289642
0.28968534 0.03426319 0.14900538 0.08110262 -0.11450149 0.16105978 -0.004839151 0.03248067
0.062450137 0.14640065 0.11623784 -0.019696405 0.052930444 -0.078726016 0.11874249 -0.14152086
-0.10374176 0.07864681 -0.28809157 -0.057002705 -0.24716951 0.02483017 -0.0020217102 -0.19692332
0.0031904485 0.015784133 -0.0026366431 -0.07255857 0.07514385 0.041593604 -0.050327323 0.12645276
-0.056588814 0.025265073 -0.042708706 0.0146669485 -0.048388004 -0.0006891556 -0.021852965 0.03069316
0.07081292 0.041401856 0.040905353 0.066667356 -0.00013070852 -0.024675747 -0.00902801 0.031600207
-0.006723305 0.03842678 -0.03560943 -0.1426937 0.01555881 -0.051925823 -0.009006578 -0.04952203
-0.0864671 -0.010351874 0.21588644 -0.15562908 -0.075869754 0.20029132 0.113518365 -0.11768569
-0.12920706 0.12938944 0.073793784 0.14731124 -0.041211102 -0.14217265 0.0363052 -0.07146804
-0.055933908 -0.14938904 -0.09588371 -0.035458814 0.13114017 0.117944255 -0.022638295 0.029262703
-0.006344472 0.09200786 0.15933385 0.05744291 -0.051844362 -0.10935624 -0.119853124 0.054371614
0.0062464047 -0.0076770666 0.021142958 0.12945105 -0.04768071 0.06468385 0.08702479 -0.13918915
0.0040601655 -0.030414142 0.06352656 0.012431161 0.054917876 0.009215421 0.07886764 -0.058461618
0.025114696 -0.011720745 -0.014824641 -0.030976772 -0.06226473 0.07004727 -0.016831085 0.05364547
-0.07513965 -0.039648592 -0.08604201 0.054976624 -0.15570593 0.012589091 -0.03701794 -0.018757379
0.1639636 -0.2938925 0.056023348 -0.0975129 0.6667312 0.2777235 0.05446869 0.00852963
-0.08571646 -0.18610854 -0.22210135 -0.012507132 -0.01869737 -0.12953843 0.19459689 -0.09298993
-0.2355441 -0.16804792 -0.16361548 0.09996909 -0.1268273 -0.021715475 -0.35143766 0.19627686
0.17976083 -0.35640094 0.2812706 0.095423624 0.13335374 0.31321904 -0.030537618 0.6308067
-0.102777585 -0.008830518 0.022708938 0.11983575 -0.04756034 -0.02127879 -0.0008453573 -0.0056327423
-0.02646515 -0.07051572 -0.021364074 -0.11373593 0.061572563 -0.00044781444 0.05224506 0.034095284
-0.017689817 -0.012704691 -0.029348625 -0.04507399 -0.088300385 0.134588 0.07196909 -0.051973812
0.03225281 -0.07935711 0.019447297 0.0041391756 -0.07602421 0.047382154 0.034219895 0.03697665
0.02858309 -0.012317028 -0.24445412 0.0742288 -0.12513226 -0.35434848 -0.23833749 0.3464682
0.114197634 -0.26432043 -0.2553503 0.46562925 -0.69965786 0.20940076 -0.11166762 -0.08095223
-0.77219385 0.1575666 0.14571874 0.06975323 -0.2103977 -0.24173965 0.21491072 0.2405821
0.50660235 -0.17323329 -0.11018235 0.24761844 -0.042119876 0.2623764 0.3493665 -0.13140947
0.011170938 -0.0014555455 -0.07692205 0.07997062 0.05249754 0.08582152 -0.096294105 0.121123984
-0.060702927 0.05862697 -0.044185404 0.07610537 -0.007932391 -0.034602594 -0.09310058 0.10419561
0.08483848 0.073970236 0.04096199 -0.031291552 0.17853564 -0.048079677 0.0240507 -0.02988929
-0.05783847 0.014342631 0.00033951286 -0.06871854 0.045206115 -0.0145442085 -0.033694353 0.017436137
00000000: 81a5 bcbd e686 c53d f33c 7ebd 4cad 5b3e
00000010: b502 42bd 9458 6cbe 0a14 20bd 52ce 263e
00000020: a351 943e 8f57 0c3d de94 183e 2119 a63d
00000030: c27f eabd dbec 243e be91 9ebb 730a 053d
00000040: b7cb 7f3d 0dea 153e 1b0e ee3d 5b5a a1bc
00000050: 98cd 583d 1b3b a1bd 432f f33d d8ea 10be
00000060: 8f76 d4bd 9411 a13d bd80 93be ab7b 69bd
00000070: 011a 7dbe a468 cb3c ab7e 04bb 44a6 49be
00000080: d816 513b ba4d 813c 88cb 2cbb 9699 94bd
00000090: 05e5 993d 0e5e 2a3d 0624 4ebd d57c 013e
000000a0: acc9 67bd b3f8 ce3c 53ef 2ebd a44d 703c
000000b0: 8032 46bd 73a8 34ba fd04 b3bc 3970 fb3c
000000c0: 5d06 913d fe94 293d 5f8c 273d e588 883d
000000d0: cd0e 09b9 cb24 cabc 38ea 13bc 386f 013d
000000e0: 2c4f dcbb 6665 1d3d 32db 11bd 4c1e 12be
000000f0: 61ea 7e3c 2cb0 54bd 5390 13bc 9dd7 4abd
00000100: aa15 b1bd e89a 29bc 5611 5d3e 3b5d 1fbe
00000110: 9a61 9bbd 2b19 4d3e 517c e83d 3205 f1bd
00000120: db4e 04be aa7e 043e 3221 973d c2d8 163e
00000130: f9cc 28bd b595 11be c3b4 143d d65d 92bd
00000140: f41a 65bd 71f9 18be ae5e c4bd 433d 11bd
00000150: 9c49 063e c28c f13d f273 b9bc 56b8 ef3c
00000160: 4ae5 cfbb 9e6e bc3d 6a28 233e 4249 6b3d
00000170: c15a 54bd 2af6 dfbd 8e75 f5bd c5b4 5e3d
00000180: a4ae cc3b e78f fbbb ff33 ad3c d18e 043e
00000190: d94c 43bd f778 843d 0e3a b23d 9a87 0ebe
000001a0: 230b 853b 1427 f9bc 371a 823d 11ac 4b3c
000001b0: 91f1 603d 47fc 163c 5b85 a13d 7375 6fbd
000001c0: 56bd cd3c 5e08 40bc 0de3 72bc 00c3 fdbc
000001d0: 4d09 7fbd f174 8f3d 58e1 89bc 5abb 5b3d
000001e0: d1e2 99bd 9066 22bd cb36 b0bd 2b2f 613d
000001f0: 6071 1fbe 7a42 4e3c 20a0 17bd 13a9 99bc
00000200: 13e6 273e 1479 96be bd78 653d d8b4 c7bd
00000210: e5ae 2a3f c631 8e3e 901a 5f3d dcbf 0b3c
00000220: 1d8c afbd 3d93 3ebe 896e 63be b7ea 4cbc
00000230: 3a2b 99bc b9a5 04be 6844 473e 8171 bebd
00000240: 7932 71be c114 2cbe d18a 27be 98bc cc3d
00000250: 04df 01be a7e4 b1bc a3ef b3be cdfc 483e
00000260: 3913 383e 2f7a b6be b302 903e 766d c33d
00000270: e28d 083e 3f5e a03e 072a fabc 8c7c 213f
00000280: 0e7d d2bd e1ad 10bc 1808 ba3c 726c f53d
00000290: a2ce 42bd db50 aebc f89a 5dba de92 b8bb
000002a0: 71cd d8bc 8c6a 90bd b603 afbc 62ee e8bd
000002b0: 8333 7c3d a3c8 eab9 ebfe 553d 7fa7 0b3d
000002c0: 3cea 90bc 5627 50bc 876c f0bc 819f 38bd
000002d0: d5d6 b4bd 70d1 093e 8864 933d 7ee2 54bd
000002e0: 861b 043d fb85 a2bd f04f 9f3c eca1 873b
000002f0: 95b2 9bbd ca13 423d 292a 0c3d d474 173d
00000300: 1627 ea3c 5ccd 49bc 2e52 7abe 4505 983d
00000310: ac22 00be 2a6d b5be be0e 74be 4864 b13e
00000320: 73e0 e93d 0255 87be 46bd 82be f566 ee3e
00000330: c71c 33bf 276d 563e feb1 e4bd 48ca a5bd
00000340: 7fae 45bf 2459 213e 4b37 153e c8da 8e3d
00000350: 7f72 57be 998a 77be 8e11 5c3e 275b 763e
00000360: b1b0 013f 1164 31be 49a7 e1bd b08f 7d3e
00000370: e485 2cbd 3356 863e 2ae0 b23e 3490 06be
00000380: 4f06 373c 01c8 beba 4f89 9dbd a3c7 a33d
00000390: a907 573d 31c3 af3d d835 c5bd da0f f83d
000003a0: a2a3 78bd d522 703d c1fb 34bd 22dd 9b3d
000003b0: dcf6 01bc 73bb 0dbd 84ab bebd 8264 d53d
000003c0: ccbf ad3d b57d 973d c2c7 273d 922b 00bd
000003d0: 0cd2 363e 32ef 44bd f905 c53c 62da f4bc
000003e0: 08e8 6cbd 5bfd 6a3c a500 b239 4ebc 8cbd
000003f0: 0c2a 393d d54a 6ebc 1703 0abd 3bd6 8e3c

Tmodel.fe1.FC4.bias f4 [16]
-0.0679689 -0.05313854 0.112396866 -0.025887208 -0.11685192 0.02991732 -0.04062971 -0.015258421
-0.07859891 0.018533044 -0.057176497 0.040141676 0.019357359 0.013355946 -0.020346437 -0.023580028
00000000: 4733 8bbd cca7 59bd 5430 e63d 6911 d4bc
00000010: 0f50 efbd 2b15 f53c 576b 26bd 75fe 79bc
00000020: 77f8 a0bd 9cd2 973c e731 6abd 996b 243d
00000030: 5393 9e3c e6d2 5a3c 92ad a6bc e72a c1bc

Tmodel.norm1.weight f4 [16]
0.4996269 0.84799564 0.25809988 0.45727235 0.4603395 3.613928e-09 0.4742567 0.28501192
0.6850647 0.4915189 0.57940865 0.13520938 0.43575978 0.4395479 -4.825085e-10 0.51847047
00000000: 19cf ff3e 3e16 593f ab25 843e 9a1f ea3e
00000010: 9eb1 eb3e e558 7831 c6d1 f23e 15ed 913e
00000020: 6660 2f3f 5ea8 fb3e 2054 143f 5474 0a3e
00000030: e81b df3e 6c0c e13e 84a1 04b0 7bba 043f

Tmodel.norm1.bias f4 [16]
-0.015952157 0.11841191 -0.0020329035 -0.058327116 0.04220477 0.0070742094 0.05708713 -0.044129323
-0.086028844 -0.03659956 -0.14006893 -0.013666104 0.11117177 0.100660734 0.001311262 0.026762182
00000000: 19ae 82bc f281 f23d 763a 05bb 6ae8 6ebd
00000010: e9de 2c3d c5ce e73b 32d4 693d f3c0 34bd
00000020: e42f b0bd 6ce9 15bd 3b6e 0fbe cbe7 5fbc
00000030: 06ae e33d 3727 ce3d a7de ab3a 5d3c db3c

Tmodel.out.weight f4 [1, 16]
-0.022332333 0.43269122 -0.019519929 -0.03237534 0.030269064 -1.6222096e-08 0.029091066 -0.0016278564
-0.23436654 -0.055379614 -0.1652975 -0.002835084 0.026372898 0.03358624 -1.2996406e-09 0.05051786
00000000: 4cf2 b6bc b489 dd3e 42e8 9fbc 019c 04bd
00000010: d4f6 f73c c458 8bb2 6350 ee3c cc5d d5ba
00000020: c8fd 6fbe bcd5 62bd bf43 29be d1cc 39bb
00000030: fa0b d83c ba91 093d 0a9f b2b0 d1eb 4e3d

Rmodel.fe1.FC1.weight f4 [32, 5]
0.22657937 0.16253169 0.10597073 0.06960451 0.051326197 0.096545614 -0.047793027 0.09260571
0.06729496 0.05391754 0.1729157 -0.029362991 -0.012207343 -0.0017769611 -0.007616569 0.014009248
0.012922873 0.013761947 -0.10600945 -0.004628502 0.14763828 0.096521735 0.017289966 0.0041611586
0.0040781465 0.24010931 0.20881324 0.14097232 0.090917975 0.05167407 0.021535818 0.17562297
0.10997243 0.03221219 -0.011672767 -0.062745094 0.07718365 0.029752843 0.02206251 0.01897341
0.36990708 0.19024922 0.12006462 0.07297747 0.044726484 -0.015967892 -0.019359775 0.056425992
0.013638194 0.010762769 0.024853855 0.022110008 -0.06497225 0.03737675 0.043483876 -0.10419115
0.1150366 0.044554107 0.0034899833 -0.004527465 0.18486534 0.20890082 0.1702361 0.114080444
0.07898143 -0.18183765 -0.02649136 -0.0022922943 0.00930514 0.009211181 -0.0010779919 -0.0028375664
-0.0025633138 0.0085331295 -0.15561385 -0.12931918 0.05230972 -0.11853928 -0.09068732 -0.07156898
-0.30968043 -0.1756778 -0.035356257 -0.031092402 -0.03802195 0.0820403 0.053310778 0.0067616426
0.011588854 0.010916165 0.26842016 0.22883077 0.15615895 0.103949144 0.056267228 -0.17201139
-0.008452425 0.008778187 0.009146456 0.0089754015 -0.26204184 -0.20357184 -0.13667299 -0.09418003
-0.06269884 -0.015047456 -0.011548066 -0.0075680176 0.10540297 0.013940216 0.04298274 0.019986738
0.009939064 -0.00032670342 0.15473644 0.2765652 0.008459387 -0.008915412 -0.009072702 -0.0050339056
-0.35528797 -0.20166875 -0.13618459 -0.07285459 -0.032039694 -0.27180892 -0.2834641 -0.20341812
-0.14607401 -0.078005545 -0.31167722 -0.09886683 -0.049707133 -0.025143059 -0.016913496 0.030700335
0.013440092 0.14534602 0.061045986 0.027008299 -0.13760144 0.076925926 0.063488916 0.048526578
0.031088522 0.28605765 0.2206108 0.15059175 0.100604236 0.062821425 -0.030912884 -0.2008583
-0.1267769 -0.038898095 0.008670254 -0.049270775 -0.03738065 -0.020805718 -0.020828603 0.15924436
00000000: 6c04 683e b56e 263e 2f07 d93d cf8c 8e3d
00000010: 6b3b 523d b5b9 c53d 9fc2 43bd 10a8 bd3d
00000020: f1d1 893d a3d8 5c3d d010 313e a88a f0bc
00000030: 4f01 48bc ece8 e8ba 6994 f9bb 0c87 653c
00000040: 75ba 533c ca79 613c 7c1b d9bd b0aa 97bb
00000050: 7d2e 173e 30ad c53d b0a3 8d3c 545a 883b
00000060: f9a1 853b 37df 753e 23d3 553e 0c5b 103e
00000070: 3433 ba3d 31a8 533d e26b b03c 82d6 333e
00000080: 3a39 e13d eef0 033d 223f 3fbc 8080 80bd
00000090: 7612 9e3d 3cbc f33c 70bc b43c 206e 9b3c
000000a0: 7664 bd3e b1d0 423e 71e4 f53d 3675 953d
000000b0: 1e33 373d 19cf 82bc 6498 9ebc f11e 673d
000000c0: bb72 5f3c 5356 303c 509a cb3c 0c20 b53c
000000d0: 2c10 85bd 5d18 193d 261c 323d 2b62 d5bd
000000e0: 4f98 eb3d 5e7e 363d 34b8 643b 215b 94bb
000000f0: 574d 3d3e 19ea 553e 5f52 2e3e 02a3 e93d
00000100: 04c1 a13d a633 3abe 6904 d9bc 513a 16bb
00000110: 9674 183c 7eea 163c 684b 8dba 77f6 39bb
00000120: 45fd 27bb 8ace 0b3c 3d59 1fbe 3f6c 04be
00000130: b842 563d b9c4 f2bd 46ba b9bd c292 92bd
00000140: 6f8e 9ebe e2e4 33be b9d1 10bd 7eb5 febc
00000150: e7bc 1bbd bf04 a83d 675c 5a3d c590 dd3b
00000160: 2ddf 3d3c b7d9 323c 5e6e 893e 9d52 6a3e
00000170: 22e8 1f3e 4ae3 d43d 7778 663d c123 30be
00000180: 0a7c 0abc 63d2 0f3c 04db 153c 900d 133c
00000190: 592a 86be 2375 50be 01f4 0bbe 76e1 c0bd
000001a0: 4068 80bd 9b89 76bc 1934 3dbc 22fd f7bb
000001b0: 83dd d73d 8165 643c ab0e 303d 3abb a33c
000001c0: 75d7 223c 6449 abb9 3b73 1e3e f499 8d3e
000001d0: 3e99 0a3c f311 12bc aca5 14bc 76f3 a4bb
000001e0: 4ee8 b5be 4182 4ebe f973 0bbe ca34 95bd
000001f0: 0e3c 03bd 8a2a 8bbe 3522 91be d74c 50be
00000200: 6d94 15be 5fc1 9fbd 2894 9fbe b17a cabd
00000210: b599 4bbd d1f8 cdbc 2c8e 8abc 457f fb3c
00000220: d533 5c3c 96d5 143e 5b0b 7a3d 8240 dd3c
00000230: 64e7 0cbe 578b 9d3d 7a06 823d cec3 463d
00000240: 5bad fe3c 2676 923e cce7 613e b934 1a3e
00000250: 9809 ce3d 85a8 803d 043d fdbc ccad 4dbe
00000260: ced1 01be 9c53 1fbd ae0d 0e3c 27d0 49bd
00000270: 741c 19bd c170 aabc bfa0 aabc f410 233e

Rmodel.fe1.FC1.bias f4 [32]
-0.07365555 0.07305343 -0.10090419 -0.12448536 0.2924568 0.10856556 0.0034630166 0.1827245
0.12921609 0.07229548 0.015910614 0.00032985304 -0.2497385 0.36891097 -0.20917757 -0.110880345
-0.10845649 0.027476763 0.19531307 0.24132665 -0.015247128 -0.11823068 -0.22282621 0.29271808
-0.04267763 -0.07208454 0.2283173 -0.06917999 -0.27112272 0.024031406 -0.02072962 -0.22360046
00000000: b9d8 96bd 099d 953d dba6 cebd 2ef2 febd
00000010: e6bc 953e 9f57 de3d c7f3 623b 221c 3b3e
00000020: 3951 043e a70f 943d fa56 823c 20f0 ac39
00000030: 73bb 7fbe e6e1 bc3e a532 56be 3c15 e3bd
00000040: 701e debd f316 e13c 2600 483e 551e 773e
00000050: 17cf 79bc ed22 f2bd 8e2c 64be 25df 953e
00000060: bdce 2ebd 0fa1 93bd 03cc 693e 3dae 8dbd
00000070: 99d0 8abe 83dd c43c 2ad1 a9bc 85f7 64be

Rmodel.fe1.FC2.weight f4 [32, 32]
-0.3198162 -0.06966304 0.06498781 0.13123837 0.09153057 -0.11611293 -0.10085404 0.19697383
0.096989945 0.08332964 -0.02539448 -0.032318752 0.33791208 -0.0009118308 0.086265914 0.11900437
-0.12547684 0.043537088 -0.18511374 -0.028981406 -0.081965856 -0.04456015 -0.17948179 0.14266978
-0.21076684 0.06307713 0.016611675 0.057534512 0.039829507 -0.12951024 0.07379624 0.09001503
-0.12926547 0.07923303 -0.19030419 0.113668524 -0.016258288 -0.058774516 -0.039293677 0.04832874
0.08697968 0.09901642 0.10685427 0.041097116 -0.20172612 -0.1293164 -0.3347155 0.09913331
0.019459952 0.0058008074 -0.010851624 -0.124096304 0.029206607 -0.16786946 -0.11131717 0.03336694
-0.0172304 0.024804894 -0.13608958 0.026036667 -0.18614994 -0.003287802 0.013960018 -0.16009548
-0.0909504 0.060185432 0.14929754 0.058244333 0.089845754 0.002344096 -0.016787581 0.06912283
0.10068593 0.1108581 0.014078203 -0.020905748 -0.09139095 -0.0796976 -0.00616383 -0.053373132
-0.029255759 0.019057054 -0.014406322 -0.07643251 -0.121150434 0.13685118 0.009214853 0.08834378
-0.16224945 -0.15907684 -0.12640336 0.043535303 -0.05969381 -0.0877248 -0.0026980217 -0.0095846895
0.043230284 -0.19610582 -0.039989237 -0.024142513 -0.31164852 0.10807959 -0.0920403 -0.00071962114
-0.31465754 -0.028338386 -0.18817067 -0.12148138 -0.20669961 -0.056498054 0.2779824 0.0781244
0.059618 0.046106603 0.27279663 0.036061954 0.06341139 -0.23697402 -0.58898646 -0.040933464
0.21875574 0.13042337 0.12762372 -0.27440658 -0.2378411 -0.04835397 0.09820047 0.2686063
-0.18801339 0.034878038 0.060511354 -0.012121813 0.051431093 -0.110920355 -0.060032424 0.0696077
-0.19857332 0.052312855 0.049533296 0.07617151 -0.10253572 0.032938346 -0.09901551 0.00018914833
0.004394655 -0.0033825866 0.010115729 0.15091576 -0.13689852 -0.07886285 0.1305555 0.0011467594
-0.14585796 -0.06763615 0.0910098 0.024551991 0.032394677 -0.20570405 -0.017745405 -0.004435765
-0.16372354 0.008377087 0.14745721 0.0045716437 0.07525002 -0.07469594 -0.08495026 0.083597295
-0.1926221 0.040220648 -0.0002232115 0.08592681 -0.106243625 0.23243505 0.22628994 -0.0066768993
0.022489341 0.012586635 -0.18179254 0.11162338 0.06303591 0.00780385 -0.123611346 0.0047750454
0.063128434 0.09377968 0.16790469 0.01904963 -0.13908088 -0.23141213 0.042442657 0.036988463
0.06053647 0.03287301 -0.030916901 -0.07770729 0.13719259 0.13613567 -0.015111477 -0.024660917
0.14856942 -0.010463461 0.0020638483 -0.01564512 0.09384717 -0.19290805 -0.08097579 -0.054385144
-0.034597926 0.051753152 0.22526331 -0.16238311 -0.022973929 -0.016515044 0.020449156 0.10551889
-0.10640245 -0.045564234 -0.10597691 0.037557606 0.062953405 0.14899822 -0.12642083 0.14714064
0.18406321 0.07741016 -0.012711176 -0.16838694 -0.0062349485 0.15966922 0.024871167 -0.03927584
0.0503031 -0.013930363 -0.022871964 -0.051672284 0.30020308 -0.19310567 -0.28249723 -0.1658516
-0.4346877 0.05745432 -0.007215014 -0.06841132 -0.014748819 -0.05438092 -0.2425613 -0.037039816
-0.014360271 -0.07469171 -0.15914313 -0.12270521 -0.063436575 0.07415676 -0.08277993 0.33415115
00000000: f3be a3be 7fab 8ebd 5418 853d 5a63 063e
00000010: 6174 bb3d 9ecc edbd 908c cebd 82b3 493e
00000020: aaa2 c63d bba8 aa3d 1608 d0bc ab60 04bd
00000030: d002 ad3e ee07 6fba 2fac b03d 90b8 f33d
00000040: 007d 00be f253 323d 758e 3dbe 6a6a edbc
00000050: b7dd a7bd b484 36bd 13ca 37be 0718 123e
00000060: 43d3 57be 952e 813d 3515 883c 4fa9 6b3d
00000070: 4424 233d 559e 04be 7c22 973d cd59 b83d
00000080: 2b5e 04be ed44 a23d 1adf 42be 0bcb e83d
00000090: 1a30 85bc 8cbd 70bd 68f2 20bd 5bf4 453d
000000a0: 6722 b23d 1fc9 ca3d 69d6 da3d 7355 283d
000000b0: 4b91 4ebe 856b 04be d45f abbe 6806 cb3d
000000c0: 7a6a 9f3c b314 be3b 03cb 31bc 3426 febd
000000d0: b242 ef3c f9e5 2bbe 42fa e3bd c6ab 083d
000000e0: c526 8dbc a233 cb3c 115b 0bbe d94a d53c
000000f0: 179e 3ebe 2a78 57bb 8fb8 643c 12f0 23be
00000100: 3444 babd 0085 763d 74e1 183e 9c91 6e3d
00000110: 0d01 b83d 689f 193b 1c86 89bc 4590 8d3d
00000120: 6d34 ce3d 9209 e33d 43a8 663c 8842 abbc
00000130: 2e2b bbbd 7f38 a3bd f4f9 c9bb c99d 5abd
00000140: c6a9 efbc 8a1d 9c3c 7e08 6cbc a688 9cbd
00000150: b81d f8bd b722 0c3e e5f9 163c 95ed b43d
00000160: b824 26be 0ae5 22be e26f 01be 1352 323d
00000170: 7f81 74bd 0fa9 b3bd 4bd1 30bb 1a09 1dbc
00000180: 3d12 313d f7cf 48be c1cb 23bd 85c6 c5bc
00000190: 6590 9fbe d558 dd3d a07f bcbd f5a4 3cba
000001a0: cb1a a1be e725 e8bc d0af 40be 3bcb f8bd
000001b0: 10a9 53be 816a 67bd b653 8e3e afff 9f3d
000001c0: 0132 743d 47da 3c3d 00ac 8b3e b3b5 133d
000001d0: d5dd 813d 51a9 72be d1c7 16bf d9a9 27bd
000001e0: 8101 603e b48d 053e cbaf 023e 057f 8cbe
000001f0: 9e8c 73be d00e 46bd 541d c93d c486 893e
00000200: 9586 40be 46dc 0e3d c1da 773d 929a 46bc
00000210: 69a9 523d 362a e3bd 8fe4 75bd 7b8e 8e3d
00000220: ce56 4bbe 0146 563d 6de3 4a3d cfff 9b3d
00000230: 3ffe d1bd 5cea 063d a5c8 cabd 1e56 4639
00000240: 0a01 903b 63ae 5dbb 71bc 253c a989 1a3e
00000250: 202f 0cbe d982 a1bd 57b0 053e dc4e 963a
00000260: ca5b 15be d284 8abd 5963 ba3d 4221 c93c
00000270: 48b0 043d 15a4 52be d05e 91bc e559 91bb
00000280: 25a7 27be 0d40 093c 06ff 163e bacd 953b
00000290: af1c 9a3d 2ffa 98bd 67fa adbd 0f35 ab3d
000002a0: ba3e 45be 68be 243d e10d 6ab9 65fa af3d
000002b0: 4296 d9bd 7403 6e3e 8db8 673e e4c9 dabb
000002c0: 913b b83c 2c38 4e3c d327 3abe cc9a e43d
000002d0: f918 813d 70b7 ff3b f227 fdbd fc77 9c3b
000002e0: 7b49 813d 900f c03d 35ef 2b3e f80d 9c3c
000002f0: 386b 0ebe 4df7 6cbe 5ad8 2d3d 3781 173d
00000300: 17f5 773d d9a5 063d 7145 fdbc 0025 9fbd
00000310: 377c 0c3e 2667 0b3e 2196 77bc b105 cabc
00000320: 9522 183e f06e 2bbc a141 073b 322a 80bc
00000330: f232 c03d b089 45be a3d6 a5bd f5c2 5ebd
00000340: 8eb6 0dbd 1dfb 533d 6dab 663e c247 26be
00000350: d233 bcbc 8f4a 87bc fd84 a73c 4a1a d83d
00000360: 87e9 d9bd 90a1 3abd 6c0a d9bd 01d6 193d
00000370: b7ed 803d fd92 183e 7674 01be 09ac 163e
00000380: 117b 3c3e 3889 9e3d 8942 50bc a06d 2cbe
00000390: 8a4e ccbb 5480 233e 9ebe cb3c b4df 20bd
000003a0: a00a 4e3d 2d3c 64bc fc5d bbbc 51a6 53bd
000003b0: 38b4 993e 7ebd 45be 7aa3 90be 00d5 29be
000003c0: 638f debe 3955 6b3d ed6b ecbb 3c1b 8cbd
000003d0: 08a5 71bc 87be 5ebd fd61 78be 10b7 17bd
000003e0: 5847 6bbc f8f7 98bd 6bf6 22be de4c fbbd
000003f0: 09eb 81bd 80df 973d 8688 a9bd dc15 ab3e

Rmodel.fe1.FC2.bias f4 [32]
0.06193143 0.12632884 0.19043426 -0.2134457 0.17073342 0.14308482 -0.016017616 -0.27029184
-0.1719529 -0.14323895 -0.1172795 -0.0023701494 -0.06284932 -0.08407264 -0.03023746 0.0090471925
0.14119503 -0.23858044 0.038101893 0.0366714 0.026553547 0.14357908 0.033648703 -0.15815268
-0.063415915 0.06595939 -0.046623014 0.11316672 -0.21225409 -0.3086784 -0.014299695 -0.11605634
00000000: d0ab 7d3d 595c 013e 3301 433e 8291 5abe
00000010: bed4 2e3e d484 123e 6037 83bc b163 8abe
00000020: 6c14 30be 3bad 12be 3c30 f0bd 8254 1bbb
00000030: 25b7 80bd 472e acbd 8db4 f7bc ad3a 143c
00000040: 6e95 103e 6e4e 74be bb10 1c3d c034 163d
00000050: d386 d93c 6506 133e 39d3 093d c7f2 21be
00000060: 34e0 81bd b715 873d c6f7 3ebd f4c3 e73d
00000070: 2359 59be 180b 9ebe 4549 6abc f2ae edbd

Rmodel.fe1.FC3.weight f4 [32, 32]
-0.0029880397 0.09588187 0.15786843 0.13988706 -0.03830682 -0.20203914 0.028735735 -0.075282894
0.3275606 0.0784309 0.048107386 0.0974864 0.014550011 -0.2731648 0.04298401 -0.038751606
-0.0059480257 -0.2936592 -0.11063938 0.07999595 -0.021147244 -0.21965162 -0.047733866 0.26816377
0.054278083 0.18484683 0.09247971 -0.00983718 -0.07356786 0.1821349 0.110579304 0.029169975
-0.02787202 -0.010684524 -0.025999898 0.18074647 -0.16878453 -0.022903576 0.1976884 -0.49980336
0.2474523 0.27499202 0.16284512 0.17842747 -0.21048537 0.002681121 0.09151184 0.10222711
-0.0100096585 0.120913886 0.005017561 0.08436368 -0.043604173 0.016343802 -0.028350364 0.14704786
0.013269033 -0.15377244 -0.090009935 -0.20337082 0.29415315 -0.32315257 0.004380146 0.073875904
-0.19258577 0.026845424 -0.018676346 0.28704256 -0.14820099 0.0009614013 0.13220972 -0.5576507
-0.062268898 -0.09498621 -0.032437272 -0.09969718 -0.02563412 0.033259954 0.05070378 -0.036013097
0.034348015 -0.43843603 -0.03303348 0.016173622 -0.119499646 0.14110395 0.055452906 -0.17944278
-0.10738677 0.0661151 -0.040013053 -0.11421671 0.23321022 0.44818535 -0.06564229 0.28257188
0.056086916 0.03504349 0.08611337 0.25876844 0.097671986 -0.047539875 -0.12348358 1.2004548
0.504596 -0.23777673 -0.06690061 -0.08293072 0.05104655 -0.108346224 -0.11413866 -0.22217377
0.036045548 -0.027367914 0.03212704 -0.051087085 -0.102042325 -0.1544498 -0.05507745 0.13068186
0.00038652125 -0.023451474 -0.06439925 -0.03331712 0.018459236 -0.1358307 -0.06217205 -0.27289158
-0.05651885 -0.07479218 -0.13635965 -0.29710075 0.08944423 0.12207932 0.07907467 -0.21956293
-0.27391765 -0.0528002 0.036562588 0.015888376 -0.083395086 0.297038 0.06614138 0.036567125
0.17155285 0.09966384 -0.013799916 -0.026692001 0.066503964 0.017304437 0.09653439 -0.25233316
0.13072294 0.0010253813 0.10104565 -0.060659822 -0.21994463 -0.2091842 -0.043654505 0.27710062
-0.15318125 -0.055716 0.12578663 0.015338954 -0.08837734 -0.11073191 0.187751 -0.20683369
0.18937235 0.27508336 0.11833825 0.21640567 -0.15060383 -0.010089141 0.11935082 0.20116939
-0.008508365 -0.4561209 -0.075404435 -0.031697948 0.05916953 -0.07870473 -0.08686566 0.26107234
0.0795317 -0.06676017 -0.016375287 -0.08886601 -0.013981517 -0.36716777 -0.025525205 -0.049096547
-0.15522861 0.09070205 0.034465473 0.18906325 -0.26437053 -0.13792786 0.19773003 -0.676779
0.056874204 -0.076628886 0.083558165 0.06100728 -0.061648708 -0.093500696 0.105560474 0.012607536
0.16277592 -0.2534921 0.068673514 0.031238046 -0.07567599 0.05525804 0.057078343 -0.19512516
-0.15463255 0.1391943 0.04991737 -0.015142879 0.23047386 0.4711921 0.024561606 0.13451867
-0.123935215 -0.014037345 0.03438954 -0.34037665 -0.0051215547 0.13792779 0.13198955 0.059564628
-0.073452175 0.24387817 0.11369704 0.07923261 -0.2955685 0.11584285 0.060791217 0.19335064
0.025457874 0.28168198 -0.07868705 -0.018955715 -0.010637144 0.011590959 0.06300881 0.15151511
0.03531909 -0.0819459 -0.012520084 -1.3726483e-06 -0.2569846 -0.59243685 -0.04411094 0.062186033
00000000: fdd2 43bb b75d c43d 43a8 213e 8e3e 0f3e
00000010: 9de7 1cbd 59e3 4ebe 3467 eb3c eb2d 9abd
00000020: 06b6 a73e 61a0 a03d 400c 453d f3a6 c73d
00000030: 2b63 6e3c 42dc 8bbe 0010 303d 01ba 1ebd
00000040: a8e7 c2bb 805a 96be e696 e2bd ebd4 a33d
00000050: fc3c adbc 5bec 60be 9684 43bd c34c 893e
00000060: b252 5e3d 7d48 3d3e 0166 bd3d 202c 21bc
00000070: bfaa 96bd 9281 3a3e 6777 e23d dff5 ee3c
00000080: dd53 e4bc 240e 2fbc bdfd d4bc 9a15 393e
00000090: dad5 2cbe 48a0 bbbc d46e 4a3e 3ae6 ffbe
000000a0: 2364 7d3e c1cb 8c3e dfc0 263e b1b5 363e
000000b0: 7a89 57be bfb5 2f3b 8f6a bb3d 725c d13d
000000c0: 8dff 23bc b3a1 f73d 5a6a a43b ddc6 ac3d
000000d0: 4a9a 32bd 70e3 853c 063f e8bc b793 163e
000000e0: 5c66 593c 8676 1dbe 2157 b8bd 7140 50be
000000f0: 3e9b 963e 4174 a5be 5487 8f3b 404c 973d
00000100: 3435 45be efea db3c 23ff 98bc 3ef7 923e
00000110: 00c2 17be 8d06 7c3a fc61 073e 32c2 0ebf
00000120: ac0d 7fbd 2188 c2bd f2dc 04bd 092e ccbd
00000130: a5fe d1bc 973b 083d c4ae 4f3d 7882 13bd
00000140: 81b0 0c3d b07a e0be 1d4e 07bd 8b7e 843c
00000150: 3bbc f4bd 8e7d 103e 9622 633d d9bf 37be
00000160: 98ed dbbd 5b67 873d bae4 23bd 73ea e9bd
00000170: a9ce 6e3e 8d78 e53e 776f 86bd 43ad 903e
00000180: 65bb 653d c389 0f3d 355c b03d 4c7d 843e
00000190: 4008 c83d 2cb9 42bd f6e4 fcbd 81a8 993f
000001a0: 342d 013f be7b 73be 3003 89bd 95d7 a9bd
000001b0: 3016 513d a0e4 ddbd 88c1 e9bd 8581 63be
000001c0: 7fa4 133d ad32 e0bc a597 033d b140 51bd
000001d0: 91fb d0bd 1728 1ebe e498 61bd 77d1 053e
000001e0: 01a6 ca39 4e1d c0bc c1e3 83bd 8877 08bd
000001f0: d337 973c 3417 0bbe 1fa8 7ebd 72b8 8bbe
00000200: 4f80 67bd a42c 99bd dda1 0bbe 971d 98be
00000210: 892e b73d b904 fa3d e7f1 a13d 1bd5 60be
00000220: ef3e 8cbe 0645 58bd a7c2 153d 5728 823c
00000230: 0bcb aabd 5d15 983e 2275 873d 69c7 153d
00000240: 8dab 2f3e 8e1c cc3d 0b19 62bc 2fa9 dabc
00000250: 3b33 883d 09c2 8d3c d2b3 c53d d031 81be
00000260: 3cdc 053e 1666 863a 06f1 ce3d 6f76 78bd
00000270: 2a39 61be 6234 56be 11cf 32bd 22e0 8d3e
00000280: 8cdb 1cbe 7636 64bd 36ce 003e 3c50 7b3c
00000290: 2eff b4bd 69c7 e2bd cc41 403e 36cc 53be
000002a0: d3ea 413e bad7 8c3e 535b f23d 7399 5d3e
000002b0: e437 1abe ed4c 25bc 346e f43d 59ff 4d3e
000002c0: ab66 0bbc ae88 e9be a46d 9abd b5d5 01bd
000002d0: c05b 723d f22f a1bd a0e6 b1bd 46ab 853e
000002e0: 84e1 a23d 8eb9 88bd 7725 86bc 62ff b5bd
000002f0: bc12 65bc 6afd bbbe 3c1a d1bc 7619 49bd
00000300: 40f4 1ebe ffc1 b93d ab2b 0d3d cc99 413e
00000310: 935b 87be f63c 0dbe be79 4a3e 6341 2dbf
00000320: edf4 683d 9bef 9cbd 8b20 ab3d c5e2 793d
00000330: 5b83 7cbd 4b7d bfbd 1730 d83d d78f 4e3c
00000340: bbae 263e b7c9 81be b3a4 8c3d eee6 ff3c
00000350: 03fc 9abd 4156 623d fbca 693d e4ce 47be
00000360: ff57 1ebe f388 0e3e 2876 4c3d d719 78bc
00000370: 5701 6c3e 1740 f13e 6c35 c93c 43bf 093e
00000380: bfd1 fdbd e4fc 65bc 0cdc 0c3d d945 aebe
00000390: b7d2 a7bb f13c 0d3e 4528 073e 0afa 733d
000003a0: 186e 96bd 33bb 793e fed9 e83d b544 a23d
000003b0: c154 97be 043f ed3d 3600 793d b6fd 453e
000003c0: 088d d03c 9f38 903e ad26 a1bd 0449 9bbc
000003d0: 6a47 2ebc 01e8 3d3c c30a 813d c726 1b3e
000003e0: c0aa 103d 41d3 a7bd 0a21 4dbc d63b b8b5
000003f0: 7c93 83be f1a9 17bf acad 34bd c8b6 7e3d

Rmodel.fe1.FC3.bias f4 [32]
-0.040191695 -0.07916583 0.01056938 0.108479045 -0.03669114 -0.07410452 0.0061801844 -0.0849356
0.0022032484 -0.07104871 0.01934076 0.009690331 -0.056069516 0.102908455 -0.04103402 -0.07009319
0.07689698 -0.027083898 -0.040721893 -0.0039725536 -0.015772182 -0.090177916 0.028126579 -0.03804473
-0.021788746 0.09172138 -0.07424761 -0.022535304 -0.08501251 0.018482452 0.062115163 0.055330332
00000000: 0ca0 24bd b221 a2bd 312b 2d3c 432a de3d
00000010: 7349 16bd 1cc4 97bd 2583 ca3b b7f2 adbd
00000020: 6064 103b fc81 91bd 8370 9e3c 32c4 1e3c
00000030: 26a9 65bd abc1 d23d 4a13 28bd 058d 8fbd
00000040: 2a7c 9d3d 0ddf ddbc 00cc 26bd 322c 82bb
00000050: aa34 81bc 33af b8bd b669 e63c cad4 1bbd
00000060: 507e b2bc 6bd8 bb3d 220f 98bd f59b b8bc
00000070: 0a1b aebd 8368 973c 786c 7e3d 0fa2 623d
