Lightcode/single/rate35/lightcode_single_rate35_snr2.pt (torch, 38881 bytes, 26 tensors)

enc.fe.FC1.weight f4 [32, 11]
000000 03 7c 81 3e 2e 9f 6f 3e 7a cb 95 bd 7e b0 54 be
       0.25289926 0.23400566 -0.07314201 -0.20770451
000010 b4 1c 74 be 81 40 16 be ce c8 28 be f6 f1 5a 3e
       -0.23839074 -0.14673044 -0.16482851 0.21381363
000020 52 46 8b 3d cd f4 46 bc f4 d6 5d 3c ae f9 95 3e
       0.06800522 -0.012143326 0.013540018 0.29292053
000030 18 7f 5c bd 22 3a c3 3e 9f e7 66 3e 5a dc 85 3d
       -0.053832144 0.3813029 0.22549294 0.06536169
000040 4c 6d 05 bc eb 79 61 be 7d 30 34 be b7 70 c6 3c
       -0.008143734 -0.22019164 -0.17596622 0.024223669
000050 cb b1 81 bd be ba d7 3b 56 76 25 3e b1 7b 47 3e
       -0.063327394 0.0065835407 0.16158423 0.19480778
000060 1d 9e 12 be 01 c8 d7 b9 d8 7d 4d 3e bc 36 5c 3e
       -0.14318128 -0.0004115701 0.20067537 0.21505255
000070 95 c1 b4 3d 10 04 5f be 12 b7 9b bd a2 af 43 be
       0.08825985 -0.21778893 -0.07603277 -0.19109967
000080 e9 3e 2b be 5a 0b 14 be 6b e0 56 be 4f 1b c8 3d
       -0.16723217 -0.14457455 -0.20984046 0.09770834
000090 80 b1 f2 bc 51 3c 67 bc 46 07 d1 3d b2 44 a9 3e
       -0.029625654 -0.014113502 0.102064654 0.33060223
0000a0 a5 d7 a6 3d 45 89 15 be dc b7 d3 bd 30 a9 28 be
       0.081466 -0.14603145 -0.10337803 -0.1647079
0000b0 a3 9d 24 be 5d 96 a4 be 5f f2 b7 be e4 c7 a1 be
       -0.16075759 -0.32145968 -0.35927102 -0.31597817
0000c0 9a b4 32 be 14 57 5f 3e 44 0c 25 3e c6 94 8c bd
       -0.17451707 0.21810561 0.1611796 -0.06864314
0000d0 65 19 b1 bc 3f 67 d1 bd b8 56 7f bc 47 17 a7 3d
       -0.021618554 -0.10224771 -0.01558464 0.08158737
0000e0 8d f6 ba be e4 a3 b1 bd 63 23 19 be ba 4c 6d 3d
       -0.36516228 -0.08673838 -0.14954905 0.0579345
0000f0 d3 b8 a5 3e b5 48 65 be b3 8b 19 3e 92 1d df 3c
       0.32367572 -0.22391017 0.14994697 0.02723578
000100 4d 46 fd bd f3 25 e9 3d 34 82 05 be 45 ac 56 be
       -0.123669244 0.11384191 -0.1303795 -0.20964153
000110 3f 07 d2 bc 61 65 a2 be 7a 62 ff bd 22 7a 85 bd
       -0.02563822 -0.3171797 -0.12469955 -0.065174356
000120 1a 0a 3c 3d a6 10 38 3e 18 94 07 be 01 42 91 3b
       0.04590807 0.17975101 -0.13240087 0.004432917
000130 91 0b c0 bc fe 21 a4 3d 3f 31 3a 3d 23 ed 42 be
       -0.023443015 0.08014296 0.04545712 -0.19035773
000140 a3 16 aa bd 58 5e 34 3e cb f1 98 be a7 10 27 bf
       -0.08305099 0.17614114 -0.29871973 -0.65259784
000150 7c 10 a1 3d 8b 9e b6 bd e0 c8 80 3d ce 6c e2 3e
       0.07864472 -0.089169584 0.06288314 0.44223636
000160 19 c0 01 3e b1 bb 9d be 6f 16 48 3d 2c 4a ac be
       0.12670936 -0.3080726 0.04884952 -0.3365034
000170 e0 5a b4 3d 02 11 65 be 36 7d 9a be 03 f3 20 bd
       0.088063955 -0.22369769 -0.30173653 -0.039294254
000180 61 66 50 3b 30 44 d9 3d 0a 00 04 3e 8d 79 45 be
       0.0031799304 0.10608709 0.1289064 -0.19284649
000190 dd 04 95 be a7 8d 99 3e 70 87 e8 bd 5c 48 87 3d
       -0.29105273 0.29990885 -0.11353958 0.06605598
0001a0 e0 28 4c 3e 5e 71 a0 3e 5d 64 0a 3e 7f c9 c8 3c
       0.19937468 0.31336492 0.13514848 0.024510143
0001b0 45 a5 b4 bd 7a 03 f6 bd db 76 6d 3e 79 41 3c 3d
       -0.08820585 -0.12012382 0.23189871 0.045960877
0001c0 0c 74 81 be 2a b5 00 3e 87 54 31 be 59 40 a9 3e
       -0.2528385 0.12569109 -0.17317401 0.33056906
0001d0 f2 0d 1b 3e 67 48 95 bd b3 e8 52 be ae 9e 0b 3e
       0.15142038 -0.072892 -0.2059658 0.1363475
0001e0 18 de ef 3d 6e e0 c5 bd 1e dc d6 bd 47 3e 40 3e
       0.11712283 -0.09661947 -0.10491203 0.18773757
0001f0 57 dd 23 3d 1a c3 26 3e 00 3e 36 be b2 b8 11 3e
       0.040006008 0.16285363 -0.17797089 0.14230612
000200 61 24 20 bd 22 27 c2 bd 55 54 57 be 57 52 c1 3d
       -0.039097194 -0.0948012 -0.21028264 0.09439533
000210 f7 f8 98 be 47 2e cd 3d a0 09 ff 3d 56 89 20 3b
       -0.29877445 0.10018592 0.12453008 0.002449592
000220 4f 64 ea 3b 11 c2 35 3e 7b 58 72 3d 98 49 e1 3c
       0.007153071 0.17749812 0.059166413 0.027500913
000230 1e 30 25 be 13 0d cd 3c 14 a4 62 be 66 70 35 3e
       -0.16131637 0.025030648 -0.22132903 0.17718658
000240 cb ee 90 be ba 80 f5 3d 47 d5 2b 3e a8 8a e3 bd
       -0.28307185 0.11987443 0.16780578 -0.11110431
000250 33 4a d7 bd b3 be 86 3c e2 3f 5d 3e 39 a7 38 3e
       -0.10512199 0.016448354 0.216064 0.1803254
000260 36 9d b2 bd b3 70 87 bc 1a 51 ff bd c3 95 ab 3e
       -0.08721392 -0.016533231 -0.12466641 0.33512697
000270 6e f0 a0 be ef 1a 7b be 02 78 4f 3e c2 45 c0 3d
       -0.31433433 -0.24521993 0.20260623 0.09388305
000280 80 89 c3 3c 08 58 a7 3e 9d 39 a4 3d f0 cf 63 be
       0.023869276 0.3268435 0.08018801 -0.2224729
000290 7a 91 5d be 02 1e c1 3d 57 66 59 be de 0e 44 be
       -0.21637526 0.09429552 -0.21230446 -0.19146296
0002a0 d7 9b bf be 0a d3 7e bd 5a c7 85 3d 9a a0 99 bc
       -0.37423584 -0.06221298 0.06532164 -0.018753339
0002b0 e9 07 c1 bd d7 ff a9 3d bc 36 00 3e 7b 6e 91 3e
       -0.09425337 0.08300751 0.1252088 0.28404602
0002c0 d5 45 b0 3d fc 6c 86 3e 2d 12 1a 3e e0 8a 20 3e
       0.086070694 0.26255023 0.15045996 0.15677977
0002d0 66 4b 9d be 7b 97 4a 3e 5c c2 64 bc 17 eb 42 3e
       -0.30721587 0.19784348 -0.0139623545 0.19034992
0002e0 28 4d b0 3e 3a 53 d2 3d 10 d3 93 3d 20 58 c1 bc
       0.34433866 0.102697805 0.07217991 -0.023601592
0002f0 e0 aa 35 3d 8a e6 8d 3e 46 7c 3c bd b0 44 5c 3e
       0.044352412 0.2771495 -0.046016954 0.21510577
000300 2c d8 8d 3d 4e 36 81 be 1d ca 27 3e 10 78 4e be
       0.06925997 -0.25236744 0.16385694 -0.20162988
000310 2f 5e c2 bc f0 3d ee 3c f8 d1 99 3c 48 87 9b 3d
       -0.02372655 0.029082268 0.018776879 0.07594162
000320 03 1e 05 3e 60 e0 11 be f1 36 93 bd 2c 24 a0 3e
       0.1299973 -0.14245749 -0.071882136 0.31277597
000330 53 e6 2e bd 55 d2 77 3d 19 99 d9 3d 77 f6 b0 3d
       -0.042700123 0.060503323 0.10624904 0.086407594
000340 81 1a 7d 3d 6e 0d 84 be 7a f0 9b be 1c 80 d9 be
       0.061792854 -0.25791496 -0.30456907 -0.42480552
000350 0a 42 c5 be 47 ac 93 be b8 52 ad ba 0f 83 2c 3d
       -0.38526946 -0.28842375 -0.0013223505 0.042117175
000360 d2 44 14 be 0b 13 94 bd ae df bc bc b8 74 d0 bd
       -0.14479378 -0.07230195 -0.023055878 -0.10178512
000370 e2 fb 88 bd db d0 b7 3e 9a 39 8a bd 60 18 02 3d
       -0.06688668 0.35901532 -0.06749268 0.031761527
000380 3d 71 78 bd b4 8b df 3c 6f c4 a9 3e 9e 6a 30 3e
       -0.060654867 0.027288295 0.3315768 0.17228171
000390 ab 09 3a bc e5 aa 48 3d 07 8a bd bd 6c 68 79 be
       -0.011354844 0.048991103 -0.09254842 -0.2435624
0003a0 c6 b9 fa bd 95 1f a6 3e 66 a1 ae 3d 9a 87 65 3e
       -0.12242465 0.3244597 0.08526878 0.22415009
0003b0 f8 e2 15 3e 4c d0 c9 bd fb 81 2d be 41 1f 0c be
       0.14637363 -0.098541826 -0.16944115 -0.13683797
0003c0 28 6d 63 bd 78 dc b9 bc d5 2e 05 be 97 11 14 3d
       -0.05552402 -0.022688136 -0.13006146 0.036149587
0003d0 63 05 57 bd 01 5e 0d 3e ad 99 a5 3d 4b 2f 59 3e
       -0.05249537 0.13805391 0.08085952 0.21209447
0003e0 70 4d b3 3e 7d e3 49 bd 3a 4a 04 be 56 03 a3 be
       0.35020018 -0.049289215 -0.1291894 -0.31838483
0003f0 69 ab ac bd 81 03 a9 be 5b 40 26 be 37 2a dd 3d
       -0.084311314 -0.33010486 -0.16235487 0.107990675

enc.fe.FC1.bias f4 [32]
000000 c0 0f 09 bd 97 98 f6 3d a8 89 a5 bd a6 e9 d5 3d
       -0.033462286 0.12040823 -0.080828965 0.104449555
000010 71 75 92 bd 39 65 16 3e 7d dc 2f 3d 7c 57 f1 3d
       -0.071513064 0.14687051 0.042934883 0.117842644
000020 92 7f 80 3d 24 07 78 be 5e 79 1d 3e 00 d9 8d 3c
       0.06274332 -0.24221474 0.15378329 0.017315388
000030 2c bb 04 3e 85 30 04 bd 7d e6 70 3e d7 4e b3 bd
       0.12962025 -0.032272834 0.23525424 -0.08755272
000040 cd 0a 09 be 31 53 56 be bc 9f 93 3e 16 91 17 be
       -0.13383026 -0.20930173 0.28832805 -0.1480144
000050 96 94 4b 3e 7c 69 95 3d c1 13 78 be 74 98 ee bd
       0.198809 0.0729551 -0.24226286 -0.11650172
000060 db dd 82 3e 31 0f 8b bd 9e 4c 74 3e 67 3f f7 3d
       0.25559887 -0.06790007 0.23857352 0.1207264
000070 40 05 a2 be 0d 0f bd 3e 9c 5b 6a 3e e3 68 67 be
       -0.3164463 0.36925545 0.22886509 -0.22598605

enc.fe.FC2.weight f4 [32, 32]
000000 78 17 09 3e de 87 95 3e 22 35 48 3e 34 6e 82 3d
       0.13387859 0.2920522 0.19551519 0.06368676
000010 8a 2e 08 bd f9 02 8c bd a8 e5 6a 3d 80 37 58 3c
       -0.033247508 -0.068365045 0.057347924 0.013196826
000020 f8 3b 22 be e5 cd 74 3d 94 9a 45 bd 97 5b 22 3d
       -0.15843189 0.05976667 -0.04824312 0.039638128
000030 03 63 a9 bd b3 1a 4e 3c 3f 0e 85 bb e3 f8 f2 bd
       -0.08270838 0.012579608 -0.004060536 -0.118638776
000040 01 e8 33 be a6 c2 a0 3e 6c fe 8d 3d 1a 7f 3c 3e
       -0.17568971 0.31398505 0.06933293 0.1840786
000050 42 24 8e bd ff 9b 15 3e f9 12 24 3c ec 67 46 3e
       -0.069405094 0.14610289 0.010014289 0.1937558
000060 bc 87 a7 be 64 6c 6e be f2 30 a4 bd 34 2c 92 be
       -0.32720745 -0.23283535 -0.08017148 -0.2854935
000070 c2 68 3d 3b b1 fe be 3b 09 b1 ec bd 8a 26 ed bd
       0.0028901552 0.0058287014 -0.11557204 -0.11579616
000080 1b 02 03 be db 71 e0 3d fa 0d 01 be bd cc 26 3c
       -0.12793772 0.10959216 -0.12602988 0.010180649
000090 5b d6 05 3e 49 5b 92 bd 0a ca cf bd fc fb d3 3d
       0.13070051 -0.071463175 -0.10145958 0.103507966
0000a0 6e db 48 3e 2c 45 ad bc 43 9b 04 be 96 51 0d be
       0.19614956 -0.021151148 -0.12949853 -0.13800654
0000b0 a2 aa 2c 3e c4 ee 6e 3e ea be b6 bd ac a3 14 3d
       0.16861966 0.2333327 -0.08923133 0.036288902
0000c0 43 d0 c6 bb 09 7f 67 bd f6 65 d9 3d 69 bd ee 3d
       -0.006067307 -0.056517635 0.10615151 0.11657221
0000d0 57 f7 4a 3e c8 6a 65 be 9a b0 d7 3a ce 8d d4 3d
       0.19820915 -0.22404015 0.001645583 0.103786096
0000e0 9b 8f 20 3d b7 8f 5d bd 1e 03 a9 3d 7d 9e c7 3b
       0.039199453 -0.054092135 0.08252548 0.0060918913
0000f0 f0 9a c3 3e e0 47 6e bb ec d9 6e 3d 49 73 9d 3d
       0.38204145 -0.0036358759 0.058313295 0.076880045
000100 1e 60 8b be 39 5c 4e 3e b5 49 ce 3b e5 89 fc 3d
       -0.2722177 0.20152368 0.0062954077 0.12330989
000110 99 54 43 be 0f d6 a1 3d 31 c0 03 bf 57 1b 30 3e
       -0.1907524 0.079021566 -0.51465136 0.1719793
000120 5b 61 d3 bc 2a 2b 0c bf 30 cd e3 3c 9d 8b 79 3e
       -0.025803259 -0.54753363 0.027807802 0.24369664
000130 46 b8 77 3d 96 05 85 bd 2a fa 62 3e 10 5e 1c be
       0.06047847 -0.06495206 0.22165743 -0.15270257
000140 96 3e 51 3e c6 4c 82 be 7f 2d 88 bd 53 ab ac 3d
       0.20434031 -0.25449198 -0.06649303 0.08431115
000150 be c2 46 be 1a a0 9e bd 08 ba 53 bd 8a 9e c2 3d
       -0.19410226 -0.07745381 -0.051691085 0.09502895
000160 01 60 b0 bd 26 96 82 be f6 c5 bb be ea ff ac 3e
       -0.08612061 -0.2550518 -0.3667447 0.33788997
000170 f8 09 9d bd 4d 28 8c bd 29 92 38 3e 58 3a d2 be
       -0.07667917 -0.06843624 0.18024506 -0.41060138
000180 2c 05 ba 3c 0d 67 9a bd 3d 58 a5 3e b4 62 b8 3d
       0.022707544 -0.075391866 0.32293883 0.09003201
000190 90 d2 00 be 46 b3 9a 3d 7f 1a 5e 3d 5f 51 11 3d
       -0.12580323 0.07553725 0.054224487 0.035477992
0001a0 e3 f9 4c be 59 77 07 be 62 e4 1c 3e 99 dc 62 3d
       -0.20017199 -0.13229121 0.15321496 0.05538616
0001b0 9c a8 88 3c 5f a4 fe bd 16 a7 83 be 8d da 8d bd
       0.016681962 -0.12433695 -0.25713414 -0.06926451
0001c0 7f a9 ab bd 51 90 4a be 57 5d 9f be 6e 58 b2 bd
       -0.08381938 -0.19781615 -0.311259 -0.08708273
0001d0 79 b1 28 3e 87 57 db 3c 60 3d 52 3e 1a 5b ef bd
       0.1647395 0.026775135 0.20531225 -0.11687298
0001e0 96 03 44 be 85 e6 46 bd 65 fd 76 3e c1 66 51 3b
       -0.19141993 -0.048559684 0.241201 0.0031952115
0001f0 50 b6 d0 bd 36 44 0f 3e 8f 62 d1 bd ac 3c 9b 3d
       -0.10191023 0.13990864 -0.10223877 0.075799316
000200 0a 1e 5d bd 8c 14 43 bd f1 6c 91 3e 31 b7 49 be
       -0.053983726 -0.047627017 0.28403428 -0.19698788
000210 6b db b2 3d 73 ca 84 3d dd c9 1b be 2e f8 bf be
       0.08733257 0.064839266 -0.15213723 -0.37494034
000220 43 8f 64 bd 4b 06 32 3e 7c f9 ef bd aa 9e f5 3d
       -0.055800688 0.17385213 -0.11717507 0.119931534
000230 b6 c1 1b be 40 df 89 3d b5 33 d4 3c cf df 61 3d
       -0.15210614 0.06732035 0.025903562 0.05514508
000240 df 5b 07 3e 48 7b 19 bc 45 3e 9f 3e 93 de 5c 3e
       0.1321864 -0.009367771 0.31102195 0.2156928
000250 8f 8a 9a 3c 20 2b ab be d2 d8 ef be b1 a0 9a 3c
       0.018864898 -0.3343134 -0.46845108 0.018875452
000260 90 fa 2b 3d 22 9a 10 bd 3e d3 3f be ce f5 17 be
       0.041987002 -0.035303243 -0.18732926 -0.14839861
000270 9a a6 8d bc 12 d6 89 bd 4c 22 9f 3d 87 d1 77 be
       -0.017291356 -0.06730284 0.077702135 -0.24201022
000280 5c b4 36 be 0a 4e 81 3d 77 52 44 3e a4 8e bf 3d
       -0.17842239 0.06313713 0.19172083 0.093533784
000290 6e 19 c7 3c 5e 34 57 3d 83 41 23 3e 03 11 5f bd
       0.024304118 0.052540176 0.1594296 -0.054459583
0002a0 08 1d 5b be dc 03 31 3e 74 29 5a 3c 86 4a 09 3d
       -0.21397793 0.17286628 0.013315547 0.033518337
0002b0 1c a7 8d 3c 80 70 71 3c 49 e7 19 bd 8a 2d c1 bc
       0.017291598 0.014736295 -0.037574086 -0.023581285
0002c0 32 e7 bb 3e 90 51 8b 3c 43 91 19 be d6 73 6d 3e
       0.36699826 0.017006665 -0.14996819 0.23188719
0002d0 3a 6a 02 3c 70 56 30 3e 24 2a e8 bd b5 cd bf bd
       0.007959897 0.17220473 -0.11336163 -0.093654074
0002e0 ec 75 25 bd e0 4c c2 bd d7 79 9f 3c 2b 38 95 be
       -0.040395662 -0.09487319 0.019467277 -0.29144415
0002f0 66 55 06 3e 36 39 82 3d 72 30 49 3e 11 47 8a bd
       0.13118514 0.06358568 0.19647387 -0.06751836
000300 4c bf e7 3d 10 82 ad 3e 01 df 62 3e 67 40 c7 3d
       0.11315784 0.33888292 0.22155382 0.09729081
000310 24 0f 43 3e 74 be 80 3b c7 4e 2a 3d a0 fa 80 3d
       0.19048744 0.003928954 0.041579034 0.06297803
000320 ad f4 ae be 9d 5d bc be 7a 1b 3f 3d dd 81 95 3d
       -0.34171048 -0.3679017 0.046657063 0.0730016
000330 fc 7c 82 3d cb ff ba be fd 63 3e 3e 06 27 68 be
       0.06371495 -0.3652328 0.1859283 -0.22671136
000340 f7 6b 0b bf 41 21 81 3e dd b7 68 3d 72 1f 97 3c
       -0.54461616 0.25220683 0.05681597 0.018447611
000350 74 e3 92 3e e4 e6 8d 3d 43 95 d6 3d f6 fb b1 be
       0.28689158 0.069288045 0.10477688 -0.34762543
000360 fc 17 9a be 39 d6 89 be 53 01 c4 bd a5 ad c0 3d
       -0.30096424 -0.2692125 -0.09570565 0.0940812
000370 1c 12 4a 3d 71 f4 58 be 32 06 9f 3e dd 17 ed bd
       0.049333677 -0.21186997 0.31059414 -0.11576817
000380 e0 00 4b 3d d4 92 c9 be 34 74 60 3e 19 4f 83 3e
       0.04956138 -0.39369833 0.21919328 0.25646284
000390 51 81 6e 3d a5 85 76 be 8a a8 e8 be 98 58 47 3d
       0.058228794 -0.24074419 -0.45441085 0.048668474
0003a0 da 5b 82 bd 3c 28 da 3c 74 a8 ba 3d 00 02 06 3e
       -0.063651755 0.026630513 0.09114161 0.130867
0003b0 f4 6e 60 bd 7d 26 8c be a6 78 0a be ee b3 2d 3e
       -0.054793313 -0.27373114 -0.13522586 0.16963169
0003c0 d6 3e 68 3d f8 29 4f 3d ac df a4 3d d4 dd 9e 3d
       0.05670055 0.050577134 0.080504745 0.07757154
0003d0 8f 9c 43 be 7a f9 52 3e 9c 87 10 3e 8c 7e 9a bd
       -0.19102691 0.2060298 0.14114231 -0.07543668
0003e0 df 32 10 3e f2 b7 08 3d 83 ef 0e 3e cb 3c 4e be
       0.14081906 0.03337855 0.13958554 -0.20140378
0003f0 dd 35 70 bd 40 f2 5c 3c 94 68 0c be 7b 0a 8e 3b
       -0.058645118 0.013485491 -0.13711768 0.0043347455

enc.fe.FC2.bias f4 [32]
000000 8c 0a ac 3d d0 5d e2 3d 04 4c ea bd 4c 2a 2f 3e
       0.08400449 0.110530496 -0.1144028 0.17105979
000010 10 b4 6d 3d 92 93 2b be 28 c4 2f be 57 b5 fb 3c
       0.05803305 -0.16755512 -0.17164671 0.030726118
000020 7e be c3 3d 68 23 83 3d c2 1d 3c 3d 02 b0 a9 3d
       0.09557818 0.064032376 0.045926817 0.08285524
000030 65 7d c5 3d 93 7e 21 3e 28 19 8b 3d 9d 35 bb 3c
       0.09643058 0.1577094 0.067919075 0.022852713
000040 ac bf c0 bd 32 d9 05 be fd 71 ee bd 33 62 00 3e
       -0.094115585 -0.13071135 -0.11642835 0.1253746
000050 85 2a 81 bc 8c 23 ed 3d 9e 65 21 bd 61 f5 c9 3c
       -0.015767345 0.11579046 -0.03940355 0.024653139
000060 76 77 0e be 91 9d 62 bd 20 1a 2f 3c d6 61 46 3e
       -0.13912758 -0.05532605 0.010687381 0.19373259
000070 d5 bf 07 be 5f 02 31 3e 6f 10 67 3e 00 bf 2f be
       -0.13256772 0.17286061 0.22564863 -0.17162704

enc.fe.FC3.weight f4 [32, 32]
000000 82 99 04 bd da e6 f3 3d 7c 14 bf bd f1 ab 65 bd
       -0.03237296 0.11909266 -0.09330079 -0.05607218
000010 77 9e b8 bd 58 d6 48 be d2 81 81 3e 74 a9 7b bb
       -0.090146 -0.19613016 0.25294358 -0.0038400562
000020 71 57 2c 3e c1 0c 0e 3c ce c8 93 bc d1 82 3a 3e
       0.16830231 0.008670033 -0.018040087 0.18213965
000030 33 e7 95 3b 63 5a 11 bc d4 88 36 3e 8f 65 fb 3c
       0.0045746802 -0.0088716475 0.17825633 0.030688075
000040 7a 97 41 3c 4d cc 3c 3e 6b 72 e3 bd 41 3c 9b 3c
       0.0118159 0.1843731 -0.11105808 0.01894963
000050 47 11 2b 3d 29 fa e8 bd 20 00 92 3d 30 ae ab bd
       0.041764524 -0.11375839 0.0712893 -0.08382833
000060 2e 9a a0 be 52 3d 90 bd fc d8 02 be 43 28 86 3d
       -0.3136763 -0.07042946 -0.12778085 0.06550648
000070 ee 45 0d 3e e6 91 05 3d 0d 6d 11 3d 4f 7c f6 3a
       0.13796207 0.032609843 0.03550439 0.0018805357
000080 8f 83 07 bd 88 71 40 3e db 3d a7 be 2e ac b4 bd
       -0.03308445 0.18793309 -0.3266438 -0.08821903
000090 1d 34 3d be cd 4e 4c bd 19 d0 dd 3e 68 84 18 3e
       -0.18476911 -0.049879838 0.43322828 0.14894259
0000a0 e3 ca 4d bd 3a db ac be e7 7c 89 3e 3c 44 f3 bc
       -0.050242316 -0.33761007 0.26853105 -0.029695623
0000b0 5b 8a f8 bb 9b 37 43 bd b7 35 d7 bd 3f 18 dd 3d
       -0.0075848526 -0.04766045 -0.10508292 0.1079564
0000c0 54 a2 b7 3d bf ee ee bd eb c8 0b bc f6 fd 08 bc
       0.089665085 -0.11666631 -0.008531789 -0.00836133
0000d0 b9 67 0c 3d 6e 8e 32 3e 41 69 05 be 62 62 40 3d
       0.034278605 0.17437145 -0.13028432 0.046968825
0000e0 82 c9 58 3d 34 9a 11 be 7a 10 5c 3e 62 3d d6 3d
       0.052926548 -0.1421898 0.2149066 0.104609266
0000f0 e6 cf 1a bc 98 f6 2c be 17 65 f2 3b 91 17 41 be
       -0.009448981 -0.16890943 0.0073973048 -0.18856646
000100 3e 5f 19 3e e6 f9 92 3e cf d7 5a be 1f dc 1b 3d
       0.14977738 0.28706282 -0.21371387 0.03805172
000110 c5 f7 70 be 21 9f 26 3e e8 a0 49 3d 5c a6 2e 3d
       -0.23532017 0.1627164 0.049225718 0.04263912
000120 33 e4 bd bd 92 23 1d bd 36 5f 1b be 1d 67 49 3e
       -0.09272041 -0.038364 -0.15173039 0.19668241
000130 2c a3 65 3d 98 79 b1 bd a3 25 10 be 3f 85 0a 3e
       0.056063816 -0.0866577 -0.14076857 0.13527392
000140 1b 92 81 3d 28 6d 91 bb d2 ea f1 bc 6b b4 86 bd
       0.063266955 -0.0044380613 -0.029530916 -0.06577381
000150 e9 ee 1b be 25 bc 02 3d 74 62 b5 be 55 db 7c bc
       -0.15227856 0.03191771 -0.35426676 -0.015433152
000160 fb 36 09 be 1c 6e 6c be cd d6 1f 3d 50 8d 88 3d
       -0.1339988 -0.23088878 0.03902321 0.06667578
000170 73 6f 1f be 10 9c 6b 3c 32 2e ca 3d b1 4c 04 3d
       -0.15569858 0.01438047 0.09872092 0.0322997
000180 fa 7e 98 be e5 d1 d1 bc ec 89 46 bc 18 1d 16 be
       -0.29784375 -0.02561278 -0.012117844 -0.14659536
000190 ca d5 27 be 61 a5 4a be d2 2d 86 3e 78 26 14 3e
       -0.16390148 -0.1978965 0.26206833 0.144678
0001a0 25 d4 42 3d bb 95 13 be ac aa 2f 3e f0 30 6f be
       0.047565598 -0.14412586 0.1715495 -0.23358512
0001b0 09 1e 1e be 45 2c 24 be 6f 6f cd bd ec 61 ca bd
       -0.15441145 -0.16032512 -0.1003102 -0.09881958
0001c0 76 aa 37 bd 3d 5c 3e 3e a4 27 f6 bd c2 27 16 3e
       -0.0448403 0.18589874 -0.120192796 0.14663604
0001d0 6c db 6c 3e 86 ea 62 3d 0e 08 97 3d 89 92 02 be
       0.23130578 0.05539944 0.07374583 -0.12751211
0001e0 b8 b3 79 3e 5f 6c dc 3e 4d 09 2b 3e 4d bc 06 be
       0.24384964 0.4305143 0.16702767 -0.13157769
0001f0 c1 4e 9d bd 37 07 75 bc 8e 6c cb 3d 96 67 91 be
       -0.07681037 -0.014955333 0.099328145 -0.28399342
000200 bf 0a 56 be 7e f0 d6 3a d0 84 ee bd a9 82 0d be
       -0.20902537 0.0016398577 -0.11646426 -0.13819374
000210 aa 0b 9e bd 92 f9 7a be c9 99 94 bd 26 10 cc 3d
       -0.077170685 -0.24509266 -0.07255895 0.099640176
000220 25 34 1e be 99 ab 95 bc 0a e0 d9 3c 60 84 19 be
       -0.15449579 -0.0182703 0.026596088 -0.14991903
000230 60 5c 5b be e9 cb a2 bb a6 03 9a 3d 9a 56 8d bb
       -0.21421957 -0.0049681556 0.07520227 -0.004313302
000240 c2 bd d1 3d 0f e9 05 be 99 0d 3d bd 57 34 59 3e
       0.102412716 -0.13077186 -0.046155546 0.21211372
000250 d1 1f 7b 3e 9f 28 4f 3d 99 5e 06 bd 0b df ce bd
       0.24523856 0.05057585 -0.03280506 -0.10101136
000260 e3 02 1d 3e 35 9f a7 3e 64 7e 0c 3e 5b ab 40 be
       0.15333132 0.32738653 0.13720089 -0.18815367
000270 a4 35 1c be 7a 95 45 be c4 bd 26 3e 26 4b 40 be
       -0.15254837 -0.19295302 0.16283327 -0.18778667
000280 21 5a 90 bd 98 d3 98 3d f4 a7 ef bd e0 08 bb bd
       -0.07048441 0.07462233 -0.117019564 -0.09132552
000290 76 55 93 be fd 0a ed 3c b0 7e a4 be ff 07 b3 be
       -0.2877614 0.028935904 -0.32127905 -0.34967038
0002a0 f5 3e 4d bb c6 dd d4 3d 9b 2e 2f 3e 1d 92 1d 3e
       -0.0031318043 0.103938624 0.17107622 0.15387769
0002b0 0c 39 fb 3d 92 f3 4d be 12 d4 88 be ae 5c 13 3e
       0.1226674 -0.20112446 -0.26724297 0.14390823
0002c0 12 e1 16 3e 74 0b b6 bd bc 62 f0 bc 0a 98 4a bd
       0.14734295 -0.08888903 -0.029343955 -0.049461402
0002d0 f1 72 51 bf 8e 6d 82 3d a9 66 58 be 8a b3 71 be
       -0.8181601 0.06368552 -0.21132912 -0.23603645
0002e0 a2 0a b7 3e 76 7b 13 3e 2b a6 75 3e 2c 9a d8 bc
       0.357503 0.14402565 0.2398917 -0.026440702
0002f0 cb f3 b5 bd 21 44 e8 bd 45 73 84 3d 13 3d 5e be
       -0.088843904 -0.113411196 0.064672984 -0.21702985
000300 57 2e 21 3e 00 13 a8 3d 62 d9 f0 3c d0 5f 40 3e
       0.15740333 0.08206749 0.029400531 0.1878655
000310 45 99 73 3d 2e 06 ba 3e 59 81 78 bd a8 21 d2 bc
       0.05947234 0.3633284 -0.06067023 -0.025650814
000320 0f f1 ca 3d fe 59 95 3d bc a2 4d be 75 a5 93 3e
       0.099092595 0.07292555 -0.2008161 0.2883717
000330 75 8e 7f 3e 2f ed 35 3e 28 09 27 be a4 fd ec bd
       0.24956687 0.1776626 -0.16312087 -0.115718156
000340 89 5d bd 3d aa 72 05 be e0 82 b3 bd 18 79 eb 3a
       0.09246356 -0.13032022 -0.08765197 0.0017965166
000350 6a 7c 37 be 36 7e 99 3d 79 1f 80 be da 33 b1 bd
       -0.17918554 0.07494776 -0.25024012 -0.08652468
000360 4b 12 1c be 78 19 c4 be 56 1c d0 3d af fa e7 3d
       -0.15241353 -0.3830068 0.10161655 0.11327111
000370 c5 48 25 3e 2c 7b 1d 3e 53 ed a1 bd bf d0 0a 3e
       0.1614104 0.15379018 -0.07906594 0.13556193
000380 c5 c6 c2 bc e2 16 a6 3c e0 06 f4 3e a4 5d 5d be
       -0.023776421 0.020274583 0.47661495 -0.21617752
000390 ed b1 2d 3d 11 9e d9 be c4 b8 64 be cf 4e c2 3d
       0.04240601 -0.42503408 -0.22336107 0.09487688
0003a0 27 cb a2 3d 12 d3 0b 3f 6a cc 34 bd f7 8d 52 3e
       0.079489045 0.5461894 -0.044140257 0.20561968
0003b0 37 36 30 be 6e c7 b0 bb ad 13 be 3d 35 09 6b be
       -0.17208181 -0.0053948676 0.092810966 -0.22952731
0003c0 13 74 97 3d 5e 77 2f 3d 22 78 33 3d bc cc 42 be
       0.07395186 0.042838447 0.04381574 -0.19023412
0003d0 96 7e 59 be 2e b0 ec bd 60 9c 94 3c 69 71 cf bd
       -0.21239695 -0.11557041 0.018140972 -0.10129053
0003e0 fb eb 8c 3e 8a 9a b2 3e a3 cd 2a bd e2 80 c6 bd
       0.2752379 0.3488353 -0.041700017 -0.09692551
0003f0 81 6c 92 be 87 9e 97 3d 7a bc 05 be b2 c5 1d be
       -0.28598407 0.074032836 -0.1306018 -0.15407446

enc.fe.FC3.bias f4 [32]
000000 9b 9c 8d 3d 54 fb 7c bc b2 be 80 bc 91 e2 d2 3d
       0.06914636 -0.015440781 -0.01571593 0.1029712
000010 cd 00 2a be 4c b4 02 be 8a ce 09 3d fd 8c 08 be
       -0.16601868 -0.1276409 0.033644237 -0.13335033
000020 7b 72 e7 3d b5 59 42 3e 19 bf c6 3d ef 1e ba 3d
       0.11301132 0.18979533 0.09704418 0.09087931
000030 e5 f7 f5 bd 1c 19 c0 3d ca 84 46 3e c7 8e e0 3d
       -0.12010173 0.09379789 0.19386593 0.109647326
000040 b5 e3 24 bd b3 a9 22 3d 64 da 0b be eb 41 3e be
       -0.04025622 0.03971262 -0.13657528 -0.18579833
000050 7a c7 00 be 6d 61 41 bd 40 5f 4d 3d ed d3 da 3d
       -0.12576094 -0.047212053 0.050139666 0.10684953
000060 59 ba 06 3d eb 9c 2e 3d 0d f5 f4 3d 2d dd 19 3e
       0.03289256 0.042630117 0.11960802 0.15025778
000070 30 5b 02 3e b4 36 25 3e 68 a1 27 3e 20 8b e7 3d
       0.12730098 0.16134149 0.16370165 0.11305833

enc.fe.FC4.weight f4 [16, 64]
000000 0b 26 a2 3c 70 40 7f 3d 6b 91 8a be 27 02 6f 39
       0.01979353 0.06231731 -0.2706407 0.00022793618
000010 a8 55 06 3d 92 5b 91 be 66 11 26 be 42 b9 ac 3c
       0.032796532 -0.28390175 -0.16217574 0.021084432
000020 8b ab 88 3d 76 4e ef 3b ee e2 16 be 90 d4 86 3e
       0.06673344 0.0073030544 -0.14735004 0.26334047
000030 a6 4f 14 bd 6a 60 65 3d 03 5b bc 3d fb f6 09 be
       -0.03620877 0.05600015 0.091970466 -0.13473122
000040 ea 42 bd 3d 4d 97 f1 bd ee bb 0e be 08 0b 64 3c
       0.092412785 -0.117964365 -0.13938877 0.013918646
000050 d9 27 1d 3c b4 1b 00 3e 11 bf 79 ba 25 7a cb bd
       0.00959202 0.12510568 -0.00095270673 -0.099354066
000060 eb f8 0f 3e 00 a4 f6 3b c5 01 c9 bd 59 23 1d 3e
       0.14059798 0.0075268745 -0.09814791 0.15345515
000070 65 07 1d 3d c5 40 ea bc 2e e4 99 bd 86 aa a0 bc
       0.03833713 -0.028595338 -0.07514225 -0.019612562
000080 56 02 36 3c ef 6a de bd 80 54 3f 3e a8 12 ad 3d
       0.011108955 -0.1086024 0.18684578 0.08450824
000090 1d 68 0c 3d 59 86 ae 3d d9 5b 12 3d fa 46 36 3d
       0.034278978 0.085217185 0.035732124 0.044501282
0000a0 e2 bf a5 bd 27 09 a3 bd db d5 24 3e c7 fb 29 bd
       -0.08093239 -0.0796073 0.16097204 -0.04149988
0000b0 4c 7c 4f bd 28 3f de bb eb 64 29 3d f7 3f ea bd
       -0.050655648 -0.006782431 0.04135601 -0.114379816
0000c0 52 a8 3d 3c 08 59 e1 bd 42 c0 8f 3d 6a ee 56 be
       0.011575775 -0.110033095 0.07019092 -0.20989385
0000d0 d3 03 02 3e 5e 53 0b 3e 5f d5 57 3d df 28 a1 bc
       0.12696771 0.13606021 0.05269372 -0.01967281
0000e0 bf 3f f5 3d af b1 f2 3c 11 56 3b 3d 91 43 20 be
       0.11975049 0.029625742 0.045736376 -0.15650775
0000f0 84 5c ec bd da c2 e8 bd 05 51 d8 bd e8 63 e6 3d
       -0.115410835 -0.1136529 -0.10562328 0.11249524
000100 2f c8 33 bb 82 bd 47 bd f3 89 16 3e ad 8c 3a be
       -0.002743255 -0.048764713 0.14701061 -0.18217726
000110 27 8f 34 be b0 91 ca bd 33 c4 29 3e 62 fa c7 3d
       -0.17632733 -0.09891069 0.1657875 0.097645536
000120 46 b6 a0 3d aa db c4 bc 8c be 19 3e 20 a0 a2 bd
       0.07847266 -0.024030525 0.15014094 -0.07940698
000130 7b 98 87 3d d8 bc dc bd d5 9c 00 bb 71 0c 98 3c
       0.0662088 -0.107782066 -0.001962473 0.01856062
000140 f9 d5 90 3d c7 66 12 3e d1 84 23 3e 05 0e 06 be
       0.07072062 0.14297019 0.15968634 -0.13091286
000150 7f 38 58 bc 3e 5a 90 3d f8 dd d0 bc de 3b 17 3d
       -0.0131970635 0.07048462 -0.025496468 0.03692233
000160 59 45 cc bd 29 cc d8 3d 1f a4 c4 3d 4b 61 cb 3b
       -0.099741645 0.105858155 0.09601616 0.0062066666
000170 74 9b 16 3e 30 c5 55 be 28 5a 15 be 12 0d c5 bd
       0.14707738 -0.20876002 -0.14585173 -0.096216336
000180 bc db 9d 3d 96 8a 85 ba b6 38 e7 bc c4 8d d7 bd
       0.07707927 -0.0010188397 -0.028225284 -0.105250865
000190 0e c7 99 bc 6b f0 e2 bb a5 fb 47 bd 02 9f d7 3d
       -0.018771674 -0.0069256327 -0.04882397 0.10528375
0001a0 85 8e aa bd d3 46 a7 bc f5 66 8f 3d 4f 97 6b bc
       -0.08327965 -0.020419514 0.07002059 -0.0143793365
0001b0 dd f3 c4 bd e2 ae 2f bd b3 a2 cc bd 8b f8 88 bd
       -0.09616826 -0.04289139 -0.0999197 -0.06688031
0001c0 12 e4 4c 3e 1b 78 f9 bd 02 ef 8d bc 7e a1 e2 3c
       0.20008877 -0.121811114 -0.017325882 0.027664896
0001d0 c1 63 92 3d a4 9a ee 3c 6e cb 6f bc df ea 7b bd
       0.07147933 0.029126473 -0.014635904 -0.061503287
0001e0 94 05 50 bd e2 99 22 bd 6e 30 97 bd 21 fd 82 bc
       -0.05078657 -0.039697535 -0.07382284 -0.015989842
0001f0 3a e6 39 3e c2 ec 5d 3d c0 64 c8 bd f9 1f 17 3e
       0.1815423 0.054180868 -0.097848415 0.1475829
000200 57 00 16 be bc 09 47 3e e4 4e 84 3e b9 c6 10 be
       -0.14648567 0.19437307 0.2584144 -0.14138307
000210 c0 dd 15 3d 20 00 70 3e 8a 69 1e 3e 89 82 bb bd
       0.03658843 0.23437548 0.15469947 -0.09155757
000220 ad 7e f7 3c e2 fe a3 bd 39 73 84 3e e2 0d 88 bd
       0.03021177 -0.080075994 0.25869158 -0.06643273
000230 e0 e1 eb 3d 26 09 aa bc f7 91 f2 bd b2 2b 06 bd
       0.115176916 -0.020756315 -0.11844247 -0.032756515
000240 15 66 66 bd 57 e0 23 3d 58 24 91 bd 83 0f 86 3d
       -0.056249697 0.04000887 -0.0708701 0.065459274
000250 06 d6 95 bd 3f 58 98 bd 4e 82 1d 3e 52 29 ba bd
       -0.07316212 -0.074387066 0.15381739 -0.090899125
000260 ed 41 ad 3d 40 16 3a be be bb af 3d f0 08 98 bd
       0.0845984 -0.1817255 0.08580731 -0.0742358
000270 7c e8 b4 3c a3 c4 2f bd f6 b2 5a 3d 24 82 0a be
       0.022083513 -0.042912137 0.053393327 -0.13526207
000280 9b 45 04 3c e1 1d 6d 3d 00 29 af bd a8 7d 6a 3b
       0.008073236 0.057889823 -0.08552742 0.0035780463
000290 66 da d7 bd 33 01 9d 3d 78 b6 b0 3d 8d aa 7c bd
       -0.10539703 0.07666244 0.08628553 -0.061686087
0002a0 f1 bb eb 3d cd d0 bb 3d e9 f8 1a be 22 c9 9e bb
       0.11510456 0.09170685 -0.15134014 -0.0048457542
0002b0 40 bb 86 3c b8 ce 93 bd 9a e8 94 3d ff dc 69 bd
       0.01644671 -0.07217163 0.07270928 -0.057095524
0002c0 34 78 c5 3d 38 7c 63 3d 01 5d 06 3e 6e b9 68 bd
       0.096420676 0.055538386 0.13121416 -0.056817465
0002d0 82 5c 83 3d c3 b8 83 bd e0 3c 38 bd 56 bf a8 3d
       0.06414129 -0.06431725 -0.04497993 0.082396194
0002e0 79 6f 66 3b 4f 56 b0 bd 40 94 c7 bc a3 4e e8 3d
       0.0035161658 -0.08610212 -0.024362683 0.11343124
0002f0 26 12 99 3d 1f 03 06 3e 2a c7 0e 3d f8 e3 35 3d
       0.07474165 0.13087128 0.034857906 0.04440686
000300 9f 74 95 bd bb a8 a1 bd 7a ed 72 bd 77 f1 4f be
       -0.07297634 -0.07893511 -0.059308507 -0.20306955
000310 83 28 53 bd c9 9a f0 3d 7e 54 59 3d b4 b0 96 bc
       -0.051552307 0.11748273 0.053059094 -0.018394805
000320 e2 41 77 bb a2 a6 3d bc 03 13 c1 bd fe d3 59 be
       -0.0037728478 -0.011575373 -0.09427454 -0.21272275
000330 13 9a e4 bc 0f de 87 bd 8f 07 28 be d5 c2 e0 3d
       -0.0279055 -0.06634151 -0.16409133 0.10974661
000340 50 70 57 bd 68 df 2a 3e b9 ef de 3d 4f e8 60 3d
       -0.052597344 0.16686785 0.10885567 0.054909047
000350 6d 0b 98 bd 99 af 37 bd a7 f9 61 bd 47 81 2b 3d
       -0.07424054 -0.044845197 -0.055169728 0.041871335
000360 4c bf 40 bc 2c c0 e7 3c 12 07 18 3e 6b cb c4 3d
       -0.011764359 0.028289877 0.14846447 0.096091114
000370 4e b4 02 bd 72 9c 3b 3d e0 f7 d4 bd 41 55 8e be
       -0.031910233 0.045803495 -0.10398841 -0.2779942
000380 9a 52 3c 3b 40 f0 41 3e 84 9c 13 be b6 0a 20 3e
       0.0028735758 0.18939304 -0.14415175 0.15629086
000390 87 23 57 be 37 a7 14 3c 0d d9 93 bd 95 29 d6 3c
       -0.21009646 0.00907307 -0.072191335 0.026142875
0003a0 dd 24 06 bd c3 a8 06 3e cd ce 97 bd 50 36 97 3d
       -0.03275 0.13150315 -0.07412491 0.07383406
0003b0 72 ca d0 bb 30 cb 5a 3d a2 8f b5 bd 1d cd da bd
       -0.0063717896 0.05341643 -0.088652864 -0.106836535
0003c0 7b 79 c4 3d 30 3e 4b 3d 24 8f 39 ba f3 dd 03 be
       0.09593483 0.049619853 -0.00070785196 -0.12877636
0003d0 e7 4b d2 3c 8e 92 97 bd 48 23 16 be 9e f4 c4 3d
       0.025670959 -0.07401 -0.14661896 0.096169695
0003e0 5a 8b be bd 94 8e 13 be f6 0e 7a bd da 5a d9 3d
       -0.09303923 -0.14409858 -0.061049424 0.10613032
0003f0 05 c8 1a 3d fb 0f 41 3e 05 93 8a bc 5e 57 56 bb
       0.03778841 0.18853752 -0.016915808 -0.0032705883

enc.fe.FC4.bias f4 [16]
000000 43 13 a8 3d 54 95 21 bc ac e2 90 3c 0f a9 09 be
       0.08206799 -0.009862263 0.01768621 -0.13443397
000010 91 6f 9d bd 69 98 8e bd ea 7e 77 bd 3b 64 e1 bd
       -0.07687295 -0.06962664 -0.06042377 -0.110054456
000020 08 cb 84 3d c5 5f 8f bd d7 1e c5 3d 4d 97 28 3d
       0.06484038 -0.070006885 0.09625023 0.041159917
000030 a5 98 11 3d 75 6d 2a 3e 51 6f 63 3d 88 1f a1 bd
       0.035545964 0.16643317 0.05552608 -0.07867342

enc.norm.weight f4 [16]
000000 0b c4 49 3f 6f 6c 7b 3f 56 b4 2d 3f 67 10 4d 3f
       0.7881476 0.9821233 0.67853296 0.80103153
000010 8d 0c 7d 3f 50 97 6a 3f 1b 74 70 3f 7e 5c 5f 3f
       0.98847276 0.91637135 0.9392716 0.87250507
000020 16 cc 75 3f ea 4a 6a 3f c8 43 7f 3f 72 c9 81 3f
       0.96014535 0.9152056 0.997128 1.0139601
000030 b5 2d 2d 3f bc 64 5b 3f 09 34 6c 3f b5 d9 69 3f
       0.6764787 0.85700583 0.922669 0.9134782

enc.norm.bias f4 [16]
000000 ba 93 b9 3c 42 02 17 be e1 16 9b 3a 63 58 b9 3c
       0.02265345 -0.14746955 0.001183238 0.022625154
000010 3a 71 db 3d 0d d7 85 3d a9 d0 c2 3d 13 3b fd bc
       0.10714956 0.06535158 0.09512455 -0.030911958
000020 5d 3e 6e bd aa 98 19 3d 8f 24 c8 bd 37 07 f1 3d
       -0.058164943 0.037499107 -0.09772598 0.11768954
000030 8e 71 1c bc 2d e0 e3 bb a3 f9 5a bd af 1d 99 3d
       -0.009548558 -0.006954214 -0.05346073 0.07476365

enc.enc_out1.weight f4 [4, 16]
000000 cd 3c 20 3e dc 13 63 3d f5 c3 87 3d 0b ff f8 3d
       0.15648194 0.05543886 0.06629173 0.121580206
000010 7f 87 8d 3e 6e 2f ae 3d 4b 15 46 3e dc 1e 46 be
       0.27642438 0.0850514 0.1934406 -0.1934771
000020 dd 73 42 bd 12 ff de bd f5 07 02 be ed ee 8f bc
       -0.047473777 -0.108884946 -0.12698348 -0.017569983
000030 34 ff 98 3d ed a2 cd 3d 7e 02 0c be a8 9b 2b 3c
       0.07470551 0.10040841 -0.13672826 0.010474123
000040 df 40 c1 3d cf 3f 38 3e 73 12 20 3c 50 e6 4a be
       0.09436201 0.17993091 0.009770024 -0.1981442
000050 b9 14 ff bd 8e 91 70 3e 75 6f 75 be cb e8 3b be
       -0.124551244 0.23493025 -0.23968299 -0.18350522
000060 25 88 55 3e 26 af 00 3e e0 ea e0 3d 62 a7 94 be
       0.20852716 0.12566814 0.10982299 -0.29033953
000070 d3 c4 99 3b 2c 8a b8 bc f0 80 6e 3c b9 64 55 be
       0.0046926527 -0.022526823 0.014557108 -0.20839204
000080 8e 94 8b bd f7 4a 87 3e 6b 43 4a 3e 0e 02 11 3e
       -0.06815444 0.2642438 0.1975228 0.1416094
000090 99 a2 4c be 86 ca 71 bd 12 83 22 bd bd c7 5a 3e
       -0.19983901 -0.059031032 -0.03967578 0.21365257
0000a0 c9 82 41 be 91 00 25 be f4 80 57 bd 4f 82 95 be
       -0.18897547 -0.16113497 -0.052613214 -0.2920098
0000b0 e7 bb 22 3e 70 bb aa 3d 21 93 14 3e 5d 8a 12 3e
       0.15891992 0.08336532 0.1450925 0.14310594
0000c0 10 f7 c9 3d 6a 52 70 3e 64 29 4d bd 6e cc 4c 3e
       0.098615766 0.23468938 -0.0500883 0.19999859
0000d0 45 f3 11 be 81 88 62 be f9 a5 b3 3d a1 31 5d be
       -0.14252956 -0.22122385 0.08771891 -0.21600963
0000e0 cb b3 89 3d 5b 64 72 be 02 c1 39 3e 41 1d 46 be
       0.06723746 -0.23671095 0.18140033 -0.19347097
0000f0 74 40 0b bd 42 66 01 3e 49 67 e8 bc 55 68 23 be
       -0.033997014 0.12636665 -0.028369563 -0.15957768

enc.enc_out1.bias f4 [4]
000000 6a 9c 76 3e ec f2 78 be 60 57 19 be e8 3c fd bd
       0.24083105 -0.24311417 -0.14974737 -0.123651326

enc.enc_out2.weight f4 [1, 4]
000000 a0 eb 6e be c4 b3 67 3e 93 3e 29 3e 8c 95 85 3e
       -0.23332071 0.22627169 0.16527776 0.26090658

dec1.fe.FC1.weight f4 [32, 5]
000000 10 10 c1 be 62 22 01 be 98 2b 7d be 79 b9 2c be
       -0.37707567 -0.12610772 -0.24723661 -0.16867627
000010 ea 75 a2 bd b4 17 ac bd 8b f1 cf bd e1 ee 28 be
       -0.079326466 -0.084029585 -0.101534925 -0.16497375
000020 bb 3d 37 3e a6 fd 3d 3e 25 4a b2 3e 58 4d a1 be
       0.17894642 0.1855379 0.34822193 -0.3150432
000030 3d 79 45 bd ad 50 f6 bd 5c ed 13 3e 12 9e ab 3e
       -0.048211325 -0.120271064 0.14446014 0.33519036
000040 9d 32 09 be 6d 6d aa ba f3 08 66 3e f6 92 cf 3d
       -0.13398214 -0.0013002582 0.22464351 0.101354524
000050 08 4a 8d be ab 91 bc be 21 16 68 be d8 91 17 be
       -0.27595544 -0.36829886 -0.22664692 -0.14801729
000060 dd a7 c9 bd 5b 39 91 3e c3 76 12 3d 50 ec 78 be
       -0.098464705 0.2836407 0.03575779 -0.24308896
000070 fa d3 b1 be 99 81 4d be 34 5b 90 be 54 a1 57 3e
       -0.34732038 -0.20068969 -0.28194582 0.21057636
000080 78 31 dc 3c 79 07 3e be 6e d5 90 3e c9 71 0a bd
       0.026879057 -0.18557538 0.28287834 -0.03379992
000090 01 b5 98 3e 0a d9 fd bd c8 8d 2a 3c ed 23 c0 bc
       0.29825595 -0.123949125 0.01040978 -0.02345463
0000a0 85 9a f3 3e f9 49 c7 3e 0c 6c 91 3e 48 ee 88 bd
       0.47578827 0.38923624 0.28402746 -0.066860735
0000b0 d7 5e 0a bc ae 61 ec 3e 18 1a f5 3d 64 45 cd bc
       -0.008445463 0.46168274 0.119678676 -0.025057502
0000c0 e3 1a 92 be 1f 0d 0b bd 9a 00 dd bd 55 16 3e be
       -0.28536138 -0.03394806 -0.1079113 -0.18563206
0000d0 be e9 67 be 91 f3 96 3e ec 6b 81 3c a7 8b f5 3b
       -0.2264776 0.294827 0.015798531 0.0074934545
0000e0 31 be d0 bd b7 84 f4 3e ef 98 a1 3e 2f 3a 52 3e
       -0.10192526 0.47757503 0.31561992 0.20530008
0000f0 3e bf b1 3e fc 22 c4 3e 74 23 b9 be 64 36 e3 bd
       0.3471622 0.3830794 -0.3615986 -0.110943586
000100 9f c0 b3 bd cb 0f 81 3e 6a 55 93 3e 8c 0f ed 3e
       -0.08776974 0.25207362 0.28776103 0.46300924
000110 89 f2 ae 3e c5 e0 00 3e de 51 9f be 71 aa 91 be
       0.34169415 0.12585743 -0.31117147 -0.2845035
000120 51 76 1f be 15 72 27 3d fd d5 9f 3d 4c 8e 8b 3e
       -0.15572478 0.04088028 0.07804487 0.27257
000130 4b 43 66 3e 5b 9d 86 3d 8a ca 3d bd 3e 67 61 bc
       0.22486608 0.06572982 -0.046335734 -0.013757525
000140 78 d4 0a bf 6c 1f 90 be 4b 40 20 3d 52 35 34 3e
       -0.5423045 -0.28148973 0.039123815 0.17598465
000150 7a f3 26 3d ba e1 b0 bd 7c cb 7f 3e 49 5b 8e 3e
       0.04075954 -0.08636804 0.24979967 0.2780402
000160 e5 ec f8 3d 93 93 4d 3d 34 f7 18 3d 18 c3 f2 be
       0.12154559 0.050189566 0.037345126 -0.4741447
000170 28 6b 84 be ea 06 f1 bb 6b c7 af 3d a8 3c 06 bf
       -0.25863004 -0.0073555605 0.08582958 -0.52436304
000180 90 26 d6 be 8a 76 8c be 78 a0 06 3d 0f a1 7a 3d
       -0.41826296 -0.27434188 0.03286788 0.061188754
000190 60 0b 2a be fb 10 8c 3e cf 7d 35 3e 45 0c 4f 3e
       -0.16605902 0.27356705 0.17723773 0.20219524
0001a0 9e 59 11 3e 49 9f ff ba 48 81 92 3c 05 bc 57 bd
       0.14194342 -0.0019502427 0.017883912 -0.052669544
0001b0 5b 95 ba 3d e0 9b 8b 3e e1 cd ed be d3 8e fc be
       0.091105185 0.2726736 -0.46446136 -0.49327716
0001c0 af 86 8d be a1 c3 0d be 57 1f 3a bd 9e 6c 8d 3d
       -0.27641818 -0.13844158 -0.045440044 0.06905483
0001d0 04 5c f1 be 88 30 91 be 25 5c 26 be 79 ca cd bd
       -0.47140515 -0.2835734 -0.16246088 -0.10048384
0001e0 43 33 89 be 9c 84 c6 be 8c ea 54 bd 83 9d 66 3b
       -0.26796922 -0.38773048 -0.051981494 0.00351891
0001f0 18 e5 b9 3c f5 93 a8 bd d1 e0 96 be ae 56 5a bd
       0.022692248 -0.082313456 -0.29468396 -0.05330532
000200 90 f9 20 be 64 bf 41 be b5 37 b4 3e ed 5e 52 be
       -0.157202 -0.18920666 0.3519875 -0.20544024
000210 4d 57 df bd 21 98 bc 3d 0a 13 82 bd 57 b7 bc be
       -0.10905323 0.09208704 -0.06351288 -0.36858627
000220 09 a9 50 3d 20 16 18 3e 92 79 39 3d c3 cf f8 3c
       0.050942454 0.1485219 0.045281954 0.030372506
000230 38 02 ed 3d 84 34 83 be f6 bd 96 be 3b 50 e3 bd
       0.11572689 -0.25626004 -0.29441804 -0.11099287
000240 37 7e 16 3e 8b 4b 73 bd d9 71 75 be 12 0a d3 be
       0.14696585 -0.059398215 -0.2396921 -0.4121862
000250 57 eb 2f be 2f eb af bd b6 9c a1 be 80 95 c3 be
       -0.17179619 -0.085897796 -0.31564873 -0.38199997
000260 00 8c 80 be ae 3a 18 be f4 17 75 bd 98 25 a2 be
       -0.25106812 -0.14866135 -0.059837297 -0.31669307
000270 11 79 54 3d fc 9a e2 3e 87 78 aa 3e b9 6e c6 3d
       0.05187327 0.4425887 0.3329508 0.096890874

dec1.fe.FC1.bias f4 [32]
000000 8e 0d 0f 3c a6 d5 06 3f 51 82 8c 3e 4f 6d 45 be
       0.008731259 0.5266975 0.27443174 -0.19279979
000010 c5 95 94 be fc 3d 11 3c 5d c7 96 3e 77 c6 a8 3e
       -0.29020515 0.008864876 0.29448977 0.32963917
000020 95 5a b3 be 98 bf 7a be 47 2f 47 3e 5c d2 a0 bd
       -0.35030046 -0.2448715 0.19451629 -0.07852623
000030 6b e8 e4 be e4 45 30 be 82 7d ef 3e 71 c8 0a 3f
       -0.4470857 -0.17214161 0.46775442 0.542121
000040 54 40 7b be 95 3d b7 3e ef d1 84 3d 37 2e ca 3d
       -0.24536258 0.3578917 0.06485354 0.09872096
000050 83 fb 5e 3e 98 8c b3 be 0e 89 70 3e 85 70 9a bd
       0.21775632 -0.35068202 0.23489782 -0.07540993
000060 0c 16 65 3e 03 ff 7e 3e a7 95 9d 3e de 83 9d 3c
       0.22371691 0.24901967 0.30778238 0.019227918
000070 92 39 73 be be 10 8d be 4e 45 d6 bd e4 8a 96 3e
       -0.2375243 -0.27551836 -0.104624376 0.2940284

dec1.fe.FC2.weight f4 [32, 32]
000000 61 e5 1c 3d e6 ba 22 bd 22 1c 79 3d ba ba 2f 3e
       0.03830469 -0.03972902 0.060817845 0.17161074
000010 09 4f 81 bb cf e0 73 be 02 db a6 3c d3 73 fc 3d
       -0.0039461893 -0.23816226 0.020368103 0.12326779
000020 ba cb 9b be fa 7d 32 3e 3a fb 26 be 04 86 08 3e
       -0.3042887 0.17430869 -0.16306773 0.13332373
000030 81 7a 00 be 62 6f d8 3c 99 99 d4 3d f4 ad 82 be
       -0.12546732 0.026420299 0.10380859 -0.2552334
000040 5d a5 42 3e 74 61 c9 be b2 24 3c 3d 04 da 8a 3d
       0.19008394 -0.39332163 0.045933433 0.067798644
000050 d8 2c 58 bd 11 2a b3 be b2 6e 7e 3d 37 16 86 bc
       -0.05277714 -0.34993032 0.062117286 -0.016368015
000060 3d 9d dc 3d 51 c2 37 3e 57 60 29 be 8b 35 9f 3d
       0.10772178 0.1794522 -0.16540657 0.077738844
000070 08 3c 23 be b9 e3 6e be 08 02 bf bc dc fc 98 bd
       -0.15940869 -0.23329057 -0.023316398 -0.07470104
000080 71 0b 1e be c3 bd 28 3e 27 f6 e1 3d cf 5d b2 bb
       -0.15434052 0.16478638 0.11033278 -0.0054433118
000090 88 db 5c be 0a 6c d8 3d 9f 18 50 bc ee 16 81 be
       -0.2156812 0.10567482 -0.012701183 -0.25212806
0000a0 60 7f 82 be df b4 62 be f8 72 d5 bc b8 84 a3 bb
       -0.25487804 -0.2213931 -0.026055798 -0.0049901865
0000b0 7e 50 4c be 3b 2e 89 be 19 c2 94 3e e1 44 cc bd
       -0.1995258 -0.26793084 0.29054335 -0.09974075
0000c0 2a d6 0d 3e 69 ad b1 be 4b f7 07 3e 87 de af bb
       0.13851228 -0.34702614 0.13277929 -0.0053671035
0000d0 ad 88 f1 bc 0a 77 09 be 5c 45 8b 3d 8f d7 a1 3c
       -0.029484117 -0.13424316 0.068003386 0.019756107
0000e0 35 d4 1c bd 00 86 1d bc c2 23 ef 3c 15 67 5f 3d
       -0.038288314 -0.009614468 0.029191855 0.054541666
0000f0 96 79 87 3d 8f 96 c4 3d 93 19 91 3d 1a b0 7a bd
       0.066149876 0.09599029 0.07084956 -0.0612031
000100 e4 33 8f bf b6 72 3e 3e 4a f9 8f bd 14 fe 19 3e
       -1.1187711 0.18598446 -0.0702997 0.1503833
000110 05 76 9b bd a1 0b ed bd 6a e8 c9 bd 37 aa 8e 3b
       -0.0759087 -0.11574484 -0.098587826 0.0043537873
000120 34 d0 a0 be b8 5c 00 be fe 9c 81 bd e9 44 31 3e
       -0.31408846 -0.1253537 -0.06328772 0.17311443
000130 85 89 15 bf d1 ad 9d bd 3f 99 15 bd 5a 8b 1a 3e
       -0.58412963 -0.076991685 -0.0365231 0.15092221
000140 56 8f 1d be 33 9a 93 3e f1 28 04 be 3b c9 35 be
       -0.1538671 0.28828582 -0.12906243 -0.17752545
000150 c3 76 93 3e 2e d5 89 3e dd 6e 1a bf 38 12 0c bf
       0.28801546 0.26920456 -0.60325414 -0.547153
000160 cf 61 67 be 38 3c 0f be dd 62 91 3d 25 79 93 be
       -0.22595905 -0.13987815 0.07098935 -0.28803363
000170 e2 62 97 bd 57 0a 0a be 70 a0 4a be 64 df cc bc
       -0.07391907 -0.13480507 -0.19787765 -0.025008865
000180 19 63 09 3e a3 d0 78 3c 77 67 e2 3d 5b 68 d7 3d
       0.13416709 0.015186462 0.110548906 0.10517951
000190 6c d9 e5 be 58 96 30 3d cc d3 c0 3d 8c e9 55 3d
       -0.44892442 0.04311213 0.09415397 0.05222468
0001a0 a5 5e 3c be 69 98 53 bd f0 c7 47 bd 0c 39 74 3e
       -0.18395479 -0.05165902 -0.04877466 0.23849887
0001b0 3b 87 d0 be 97 fb 2c be c9 ad 00 be a6 bf 27 bd
       -0.40728173 -0.16892849 -0.12566294 -0.040954255
0001c0 8a 3e 18 3b f9 ed 48 3d d6 25 1c 3e 5e e9 b7 3a
       0.0023230636 0.049055073 0.15248808 0.0014031341
0001d0 7c 4b 09 3e 0f 57 a9 bc 9e 95 1f be 0d 90 21 be
       0.13407701 -0.020671396 -0.15584418 -0.15777607
0001e0 ab 67 18 be ea 1e 26 3e 41 ac 18 3e e3 3c d9 bd
       -0.14883296 0.1622273 0.1490946 -0.10607316
0001f0 38 28 e1 bd d9 dc 7c bd 49 d9 ae be 63 16 b1 3c
       -0.10993999 -0.061734054 -0.3415015 0.02161712
000200 89 f8 50 bd 55 8a 1c 3d 0e 05 82 be 51 04 b6 bd
       -0.05101827 0.03821786 -0.2539448 -0.08887542
000210 f5 13 c6 3e bd 68 72 3d 99 a3 31 be d5 02 db bc
       0.386871 0.059181917 -0.17347564 -0.026734749
000220 94 35 60 3c 03 b9 16 be 7b 2d 07 3e de 7b 0f be
       0.013684649 -0.14719014 0.13200943 -0.14012095
000230 08 c8 b3 3d 4c 65 7e 3c e3 18 02 bd ea af 8a be
       0.08778387 0.015527081 -0.031762015 -0.27087337
000240 18 20 92 bd 48 71 89 bd 83 ef 6e be 95 9a 5f be
       -0.07135028 -0.0671106 -0.23333554 -0.21836312
000250 ed f7 d8 bd c7 bf 2b be b0 f0 2e bd 89 95 37 3e
       -0.10594163 -0.16772376 -0.042710006 0.17928137
000260 8a 04 49 bd 42 da d5 3d 6c 6b c3 bd 23 fc ed bd
       -0.049076594 0.1044202 -0.095419735 -0.11620357
000270 27 d9 2a be 2e 5a 30 3e a4 e2 2a 3e e1 f1 93 3d
       -0.166844 0.17221901 0.16688019 0.07223869
000280 45 81 80 bc 87 7f 2d be 67 52 ac bd 61 04 6d 3e
       -0.01568664 -0.16943179 -0.084141545 0.23146202
000290 43 a9 87 3e 0a 65 94 3c 00 e8 cc 3c f4 08 83 be
       0.26496324 0.018114585 0.02501297 -0.25592768
0002a0 78 c5 9c 3d e3 44 8a bc bb 8b 7a 3d e8 4d 54 3d
       0.07654852 -0.01687855 0.061168414 0.05183211
0002b0 ec da 1e be 96 79 46 3b 97 b5 0f be 64 75 26 3e
       -0.155132 0.0030284873 -0.14034115 0.16255718
0002c0 d7 c4 2f 3e c7 4c 81 3d 16 e5 2b 3d cb 24 52 3e
       0.17164932 0.06313472 0.04196652 0.20521848
0002d0 6f c6 43 3d c1 77 f8 3b 14 fe a7 3d 6e ac 64 3e
       0.047796663 0.007582635 0.082027584 0.22331402
0002e0 a0 57 db bd 7d 10 cb bd ed 82 d1 3c 84 b7 34 3e
       -0.107100725 -0.09915254 0.025575126 0.1764813
0002f0 50 1a 96 bd 65 b1 f0 3d 6d 48 47 3e 67 fd c1 ba
       -0.073292375 0.11752585 0.19461222 -0.0014800251
000300 7e 93 20 be 99 1e 23 bd 95 a7 af 3d c6 f7 8b bc
       -0.15681264 -0.039824102 0.085768856 -0.017085921
000310 85 de f6 be e3 4d 92 bd f5 25 cb 3d b1 9a 59 3d
       -0.48216644 -0.07143762 0.09919349 0.05312604
000320 ed 54 6d be fc f0 ce bd f1 f8 48 3b 41 92 71 3d
       -0.23176928 -0.10104558 0.0030665959 0.05897737
000330 0d ad 6d 3e db 34 70 be 1e 26 30 be a9 7d a4 3c
       0.23210545 -0.23457663 -0.1720204 0.02007945
000340 a5 0f 15 3e 37 64 bb bd ee a6 ab 3d dc 0e 39 be
       0.14556749 -0.09149974 0.08381449 -0.18072075
000350 4f 7d 6d 3d 4f d4 7f bc db 1d 87 3d 4e 5c 53 be
       0.05798083 -0.015614583 0.06597491 -0.2064068
000360 be 36 b3 3c 05 64 17 bd f8 3a 8f 3e 38 64 a9 bd
       0.021876689 -0.03696062 0.27974677 -0.08271068
000370 d0 35 22 3e 76 86 ef bd d0 9e 08 bf c0 d8 27 be
       0.1584084 -0.11695568 -0.5336733 -0.16391277
000380 ea 79 06 3e a0 f0 73 3d 8d 8a 44 bd 71 c2 69 3e
       0.13132444 0.05955565 -0.047983695 0.2282808
000390 bd 60 95 be 4d 50 84 be ec 28 47 3d de 68 50 3e
       -0.29175368 -0.25842515 0.04862301 0.20352504
0003a0 ce 72 c1 bd ad 50 42 be 9b 32 eb 3d f1 b1 0a 3d
       -0.094457254 -0.18976088 0.114842616 0.033861104
0003b0 af e1 2a 3e 75 d4 93 be 79 a1 00 be 81 47 91 3e
       0.16687654 -0.2887303 -0.12561597 0.28374866
0003c0 23 f7 ad 3a f0 38 14 3e 91 aa 6d be 78 1a 8a be
       0.0013272505 0.14474845 -0.23209597 -0.2697332
0003d0 56 bd 5d 3e b5 69 dd 3e eb d2 c6 bd 0e 1b ec be
       0.21654257 0.4324471 -0.09708198 -0.4611439
0003e0 04 1f 44 bc 76 4a ed bd e9 76 80 3d 8c 17 2b 3e
       -0.011970285 -0.11586468 0.0627268 0.16708201
0003f0 56 0c b5 3d 8c 7c f7 be 48 8b aa bd 7f 7a 89 bd
       0.088402435 -0.4833721 -0.08327347 -0.067128174

dec1.fe.FC2.bias f4 [32]
000000 c8 ca 57 be cf d9 65 3e 30 0e fa 3d 0d 61 75 3e
       -0.21073449 0.22446369 0.12209737 0.23962803
000010 a4 db 83 3d 94 1a 93 3d 2c b1 86 3e f0 38 2f 3e
       0.064383775 0.07182804 0.26307046 0.17111564
000020 9b 8c 02 be 4c 22 aa 3e 29 03 b9 bd 6d a4 2e be
       -0.12748949 0.3322929 -0.09033806 -0.17054911
000030 b7 98 c9 3d 3e 15 38 3c f6 49 18 3e aa 44 c4 bd
       0.09843581 0.011235533 0.14871964 -0.09583409
000040 16 09 21 be 4b b9 9c bd 96 4f eb bc f2 72 ba be
       -0.15726122 -0.07652529 -0.028724473 -0.3641582
000050 14 c9 02 3e 9e 61 8a bc 99 37 5c bd fb 5a 45 bd
       0.12772018 -0.01689225 -0.05376396 -0.04818247
000060 64 83 94 be 54 25 b9 bd a3 72 11 bd 49 af 41 3d
       -0.29006493 -0.09040323 -0.035509717 0.047286306
000070 8a df 49 3d 2b 4a 85 be 23 06 37 3e c5 17 4d be
       0.04928545 -0.26033148 0.17873435 -0.20028599
