Lightcode/single/rate35/lightcode_single_rate35_snr3.pt (torch, 36244 bytes, 26 tensors)

enc.fe.FC1.weight f4 [32, 11]
0	0x3e87ff58	0.26562
1	0x3e7454c7	0.23860465
2	0xbdc2892b	-0.09498819
3	0xbe44686d	-0.1918046
4	0xbe4fbd36	-0.20287022
5	0xbe142b5c	-0.14469665
6	0xbc769855	-0.015050967
7	0x3e5218e7	0.20517312
8	0x3db30f90	0.08743203
9	0x3ce1ff18	0.027587458
10	0xbd576254	-0.052584007
11	0x3e914d11	0.2837911
12	0xbd3b7bb6	-0.045772277
13	0x3eb972c9	0.36220387
14	0x3e53bbf6	0.2067717
15	0x3bb53b31	0.005530738
16	0xbd1f0bd3	-0.038829636
17	0xbe2a0529	-0.16603531
18	0xbe4fdfc9	-0.20300211
19	0x3d19e14e	0.037568383
20	0xbc774ff0	-0.015094742
21	0x3c8f5675	0.01749728
22	0x3e345318	0.17609823
23	0x3e162bf0	0.14665198
24	0xbe0e12f9	-0.13874425
25	0xbd832023	-0.06402614
26	0x3e3a4a82	0.18192485
27	0x3e366871	0.17813279
28	0x3dc53c6f	0.096306674
29	0xbe7ce5de	-0.24697062
30	0xbe1065bb	-0.14101307
31	0xbe6f40df	-0.2336459
32	0xbe2b422c	-0.16724461
33	0xbdc221a2	-0.09479071
34	0xbe57423b	-0.21021359
35	0x3da4d2c9	0.080480166
36	0xbcf63b97	-0.030057712
37	0x3c928e04	0.017889984
38	0x3dca5cc4	0.09880975
39	0x3ea10046	0.3144552
40	0x3da6f76e	0.08152662
41	0xbe00c8ef	-0.1257665
42	0xbddb677c	-0.107130975
43	0xbe42dc1f	-0.19029282
44	0xbe23ac48	-0.15983689
45	0xbe9d59cd	-0.30732575
46	0xbea7c364	-0.3276626
47	0xbe99f91d	-0.3007287
48	0xbe32eae9	-0.17472424
49	0x3e638854	0.22219974
50	0x3e053e4a	0.13012043
51	0xbd5a90b0	-0.05336064
52	0x3b4154c1	0.002949998
53	0xbdc8c36c	-0.09802899
54	0xbd2032bd	-0.039110888
55	0x3db953cb	0.09049185
56	0xbebcbb5f	-0.36861703
57	0xbdea227d	-0.11432359
58	0xbdf14f8b	-0.1178275
59	0x3d68f13e	0.05687069
60	0x3e9ce429	0.30642822
61	0xbe747686	-0.23873338
62	0x3e48a5fd	0.1959457
63	0x3cc17869	0.023616986
64	0xbe2104de	-0.15724513
65	0x3e01484d	0.12625237
66	0xbe0b8e98	-0.13628614
67	0xbe4b2b7e	-0.1984081
68	0xbcd6e8e8	-0.026234105
69	0xbe8a948a	-0.2706645
70	0xbde2f244	-0.11081365
71	0xbd86f0a3	-0.065888666
72	0x3d2ea72e	0.042639904
73	0x3e6f193d	0.23349471
74	0xbe1d5490	-0.1536429
75	0xbbd19a67	-0.00639658
76	0xbd736fbb	-0.059432726
77	0x3b8ee1a5	0.004360395
78	0x3d944fec	0.072418064
79	0xbe060aa6	-0.1309
80	0xbcdb2478	-0.026750788
81	0x3e249d34	0.16075593
82	0xbe2ac0bb	-0.16675083
83	0xbf2a6c0d	-0.6657112
84	0x3cbd44c2	0.023104075
85	0xbe0dd68c	-0.13851374
86	0x3d1a7cc3	0.03771664
87	0x3eeb8175	0.45997205
88	0x3dc94eab	0.09829458
89	0xbe94460a	-0.28959686
90	0x3cd2c8db	0.025730541
91	0xbea130cc	-0.31482542
92	0x3d81cbe7	0.063377194
93	0xbe6afea2	-0.22948697
94	0xbe8d5bc4	-0.27609074
95	0xbd40f312	-0.04710681
96	0xbcacc75a	-0.021091152
97	0x3df0bf80	0.11755276
98	0x3e3f0de9	0.1865765
99	0xbe26d36b	-0.16291587
100	0xbe923b3b	-0.28560814
101	0x3e94da1b	0.2907265
102	0xbdf768d8	-0.12080544
103	0x3d986f0f	0.07443058
104	0x3e2db107	0.16962062
105	0x3e9bc05b	0.30420193
106	0x3e068f26	0.13140544
107	0x3c9eea79	0.019398915
108	0xbda56900	-0.08076668
109	0xbe0a9fcd	-0.13537522
110	0x3e80b6c6	0.25139445
111	0x3cb2f0f4	0.021843411
112	0xbe72e27e	-0.23719212
113	0x3e173c29	0.14769043
114	0xbe03bbb7	-0.12864576
115	0x3e94f27f	0.2909126
116	0x3de108c8	0.10988003
117	0xbde8d077	-0.113678865
118	0xbe2cd3b5	-0.16877635
119	0x3db95b0a	0.090505674
120	0x3e15f8bb	0.14645664
121	0xbd82d4b8	-0.06388229
122	0xbda56579	-0.08075995
123	0x3e3a0908	0.18167508
124	0x3c92962d	0.017893875
125	0x3e0b7483	0.13618664
126	0xbe1fc212	-0.15601376
127	0x3dfbdcd6	0.122979805
128	0xbd12e967	-0.03586712
129	0xbd96926a	-0.07352145
130	0xbe2f38d2	-0.17111519
131	0x3dddf1f7	0.10837167
132	0xbea16c42	-0.31527907
133	0x3de88005	0.11352543
134	0x3e1243bf	0.14283656
135	0xbca2cc9f	-0.019872962
136	0xbd047315	-0.032336313
137	0x3e26ea95	0.16300423
138	0x3c07e814	0.008295078
139	0x3d14ab16	0.036295973
140	0xbdd558f9	-0.10417361
141	0x3c3680c2	0.011139097
142	0xbdec63dc	-0.11542484
143	0x3e36d5fb	0.17855065
144	0xbe851236	-0.25990456
145	0x3db5a3dc	0.08869144
146	0x3e2f9827	0.17147885
147	0xbdfd903c	-0.12381026
148	0xbdbbca5a	-0.09169455
149	0xbcc049ff	-0.023472784
150	0x3e47d91f	0.19516419
151	0x3e0098e2	0.1255832
152	0xbd674141	-0.056458715
153	0xba5ccdcd	-0.00084230007
154	0xbe4aab16	-0.19791827
155	0x3ea829eb	0.3284448
156	0xbea78cc3	-0.3272458
157	0xbe681939	-0.22665872
158	0x3e29fa3f	0.16599368
159	0x3dea44a7	0.11438876
160	0xbce226b6	-0.02760635
161	0x3e967bad	0.29391232
162	0x3d9990a2	0.0749829
163	0xbe80d4a0	-0.2516222
164	0xbe09f249	-0.1347133
165	0x3d01fbdd	0.031734336
166	0xbe49a4ce	-0.19691774
167	0xbe41bf0e	-0.18920538
168	0xbebe38f1	-0.37152818
169	0xbd684810	-0.05670935
170	0x3d76955b	0.06020103
171	0xbda19d63	-0.07891347
172	0xbdc23e77	-0.094845705
173	0x3dbbb304	0.09165004
174	0x3de648d2	0.11244358
175	0x3e65664c	0.22402304
176	0x3db0ea1d	0.086384036
177	0x3e8a6a98	0.2703445
178	0x3e1d0c38	0.15336692
179	0x3e17eb08	0.14835751
180	0xbe8b6cc9	-0.27231434
181	0x3e26a3f7	0.16273485
182	0xbbd391af	-0.006456576
183	0x3e3f4eca	0.186824
184	0x3ea7cb80	0.32772446
185	0x3d819a53	0.06328263
186	0x3d7276ec	0.059195444
187	0x3cfbe479	0.030748593
188	0x3d6e25a5	0.05814137
189	0x3e9d8659	0.30766562
190	0xbc982590	-0.018572599
191	0x3e7f45ba	0.24928942
192	0x3de02106	0.10943799
193	0xbe82d573	-0.25553474
194	0x3e38fe3c	0.18065733
195	0xbe64588d	-0.22299404
196	0xbd81cc1a	-0.063377574
197	0x3d9fa786	0.077956244
198	0xbbc5b962	-0.0060340622
199	0x3d8360b7	0.06414931
200	0x3e0882a1	0.13331081
201	0xbdfe6395	-0.124213375
202	0xbdb9de92	-0.09075655
203	0x3eac10ec	0.3360666
204	0xbd931e36	-0.07183497
205	0x3d61964b	0.05507497
206	0x3dfeffcc	0.12451133
207	0x39cf2eb3	0.0003951691
208	0x3d2c54d5	0.04207309
209	0xbe8c46b6	-0.27397698
210	0xbe93b1c7	-0.2884657
211	0xbee4b080	-0.4466591
212	0xbec0256a	-0.37528545
213	0xbe717bba	-0.23582354
214	0x3c0bdb94	0.008536238
215	0xba7dde49	-0.0009684307
216	0xbe14bd0a	-0.14525238
217	0xbd632b04	-0.055460945
218	0xbcbf30e4	-0.023338743
219	0xbd260109	-0.04052833
220	0x3b9513f5	0.004549498
221	0x3eb33b2b	0.3500608
222	0xbdd76b66	-0.105185315
223	0x3cde901f	0.027168332
224	0xbcd3fad9	-0.02587645
225	0x3b6fb536	0.0036576516
226	0x3eab4946	0.3345434
227	0x3e1edd58	0.15514123
228	0xbc75ed0d	-0.015010131
229	0x3c298aa0	0.010347992
230	0xbe052ded	-0.130058
231	0xbe89cc2a	-0.26913577
232	0xbde1716b	-0.11007961
233	0x3eb913f5	0.36148039
234	0x3dadee8e	0.08492766
235	0x3e3eefae	0.18646118
236	0x3de2556d	0.1105145
237	0xbd93e15a	-0.07220717
238	0xbe42a736	-0.19009098
239	0xbe072240	-0.13196659
240	0xbd8ff116	-0.07028405
241	0xbd0331cb	-0.03202991
242	0xbd3fac74	-0.046795323
243	0x3c2122f4	0.009834994
244	0xbd6bda60	-0.057581306
245	0x3dfb0b18	0.12257975
246	0x3da2a472	0.07941522
247	0x3e86231a	0.26198655
248	0x3e7b29fb	0.24527733
249	0xbd6ed720	-0.058310628
250	0xbdee6f6c	-0.11642346
251	0xbe9ff720	-0.3124323
252	0xbddedb5d	-0.10881684
253	0xbe9e6256	-0.309344
254	0xbe2b62e2	-0.1673694
255	0x3dec7298	0.115452945

enc.fe.FC1.bias f4 [32]
0	0xbd73683d	-0.05942558
1	0x3dfdf4a2	0.12400176
2	0xbd6e3205	-0.05815317
3	0x3df9da90	0.121998906
4	0xbd3d36be	-0.046194784
5	0x3e0e3f02	0.13891223
6	0x3c58fa1f	0.013243227
7	0x3e401321	0.18757297
8	0x3d912faf	0.07089173
9	0xbe56c9a4	-0.20975357
10	0x3e241a6d	0.16025706
11	0x3c2076b2	0.009793924
12	0x3e00732a	0.12543932
13	0xbda479a2	-0.08031012
14	0x3e587029	0.21136536
15	0xbd665800	-0.056236267
16	0xbdcb1562	-0.09916188
17	0xbe220587	-0.15822421
18	0x3e8ac7e6	0.27105635
19	0xbdcfa80f	-0.101394765
20	0x3e0c6931	0.13712002
21	0x3df6cbde	0.12050603
22	0xbe5b1c8a	-0.21397606
23	0xbdc8c0b8	-0.09802383
24	0x3e840879	0.25787714
25	0xbd9881af	-0.0744661
26	0x3e4e7129	0.20160355
27	0x3e06e47f	0.13173102
28	0xbea87559	-0.3290203
29	0x3eba38a4	0.36371338
30	0x3e3a87ba	0.18215838
31	0xbe2cc534	-0.16872102

enc.fe.FC2.weight f4 [32, 32]
0	0x3da81a7a	0.08208175
1	0x3e930ef3	0.28722343
2	0x3e6fbbc8	0.23411477
3	0x3d64fbac	0.055904076
4	0xbd0fa9c9	-0.03507403
5	0xbdcd7e39	-0.10033841
6	0x3cf71f77	0.03016637
7	0xbb93fcff	-0.0045162435
8	0xbd84aa5f	-0.06477808
9	0x3d49ccf1	0.049267713
10	0x392a44da	0.00016238113
11	0xbc7ebe81	-0.015548349
12	0xbd78171e	-0.06056892
13	0x3d828e19	0.06374759
14	0x3cc7ba53	0.024380838
15	0xbe2893ca	-0.16462627
16	0xbe20962f	-0.1568229
17	0x3e9e9406	0.30972308
18	0xbb82d45f	-0.0039926018
19	0x3e6a0716	0.22854266
20	0xbd8ef687	-0.06980615
21	0x3dec287d	0.1153116
22	0x3d42fece	0.047606282
23	0x3e19a6be	0.15005013
24	0xbe960a24	-0.29304612
25	0xbe71c45f	-0.23610066
26	0xbdec6dd6	-0.11544387
27	0xbe88b604	-0.26701367
28	0xbcbde64d	-0.023181105
29	0xba8c5543	-0.0010706562
30	0xbdd35767	-0.10319405
31	0xbd7581a2	-0.05993808
32	0xbe0d2d41	-0.13786794
33	0x3e0cff8a	0.13769355
34	0xbde41a0a	-0.11137779
35	0x3be5ee9f	0.0070169712
36	0x3ddf6511	0.10907949
37	0xbdd28bd2	-0.10280575
38	0xbd71785e	-0.05895268
39	0x3d93b95e	0.0721309
40	0x3e3463f5	0.17616256
41	0x3c072f64	0.008251045
42	0xbe3ec995	-0.18631585
43	0xbda48a68	-0.080342114
44	0x3e132844	0.14370829
45	0x3e78d4ef	0.24299978
46	0xbd8aafa4	-0.06771782
47	0x3c6d545b	0.014485444
48	0x3bb763e1	0.0055966233
49	0xbe21cfab	-0.15801875
50	0x3de3cb36	0.11122744
51	0x3dcbff78	0.09960836
52	0x3e28b603	0.16475682
53	0xbe54e5d8	-0.20790803
54	0xbb35a02b	-0.0027713876
55	0x3dc497a9	0.095992394
56	0x3cdfdd79	0.027327286
57	0xbd2072ae	-0.039171867
58	0x3d511a34	0.05105038
59	0x3d4a8c37	0.049450126
60	0x3ef1677e	0.4714927
61	0x3d48823b	0.048952322
62	0x3dd116e4	0.10209444
63	0x3dd7750d	0.105203725
64	0xbe06f7c1	-0.13180448
65	0x3e612352	0.2198613
66	0xbdad29c0	-0.08455229
67	0x3e166618	0.14687383
68	0xbe90d4c8	-0.2828734
69	0x3d1a64f7	0.037693944
70	0xbf00add2	-0.5026523
71	0x3dec2bd8	0.115318
72	0x3c1db347	0.009625263
73	0xbee7cca7	-0.45273325
74	0x3d1b4a10	0.03791243
75	0x3e0f8910	0.14017129
76	0x3ddb9369	0.10721476
77	0xbdc2864a	-0.0949827
78	0x3e87dcac	0.26535547
79	0xbdc4059f	-0.09571385
80	0x3e505427	0.20344602
81	0xbe4f480f	-0.20242332
82	0xbcc720c5	-0.024307618
83	0x3de62191	0.11236871
84	0xbe342d6f	-0.17595457
85	0xbd3e92fb	-0.04652689
86	0x3c9566cc	0.018237494
87	0x3cdfb484	0.027307756
88	0xbe0369eb	-0.12833373
89	0xbe41057e	-0.18849751
90	0xbeb29be3	-0.34884557
91	0x3e994c28	0.29940915
92	0xbdb1d9e2	-0.08684136
93	0xbd8cd824	-0.06877163
94	0x3e3a5ad6	0.18198714
95	0xbee46079	-0.44604853
96	0x3d8c7a23	0.06859233
97	0xbdc0f0b9	-0.09420914
98	0x3ea3d414	0.3199774
99	0x3d8afe9b	0.067868434
100	0xbe23c2d0	-0.15992284
101	0x3d7d68d2	0.061867543
102	0x3d4cde0a	0.05001644
103	0x3c0046d5	0.007829388
104	0xbe45c5aa	-0.19313684
105	0xbe2983d5	-0.16554196
106	0x3e1a08ea	0.15042463
107	0x3d798381	0.060916428
108	0x3cfa346a	0.030542571
109	0xbdf4bd7f	-0.11950206
110	0xbe90c256	-0.28273267
111	0xbd76173e	-0.06008076
112	0xbdc0d7f5	-0.094161905
113	0xbe3481ae	-0.17627594
114	0xbe9939fb	-0.29927048
115	0xbdbc128b	-0.09183224
116	0x3e205430	0.15657115
117	0x3da17aed	0.07884774
118	0x3e56e78f	0.2098677
119	0xbd665cfe	-0.056241028
120	0xbe297251	-0.16547514
121	0xbd418f2d	-0.047255684
122	0x3e5b0054	0.21386844
123	0xbc392540	-0.011300385
124	0xbe12f784	-0.14352232
125	0x3e09ad4e	0.13445017
126	0xbdbe6b5a	-0.092978194
127	0x3e07a7a7	0.13247548
128	0xbe0b703b	-0.13617031
129	0xbdd35649	-0.10319192
130	0x3e9be989	0.3045161
131	0xbe583ecd	-0.21117707
132	0x3d8171ad	0.0632051
133	0x3db93042	0.090424076
134	0xbe50120e	-0.20319387
135	0xbeabfbf6	-0.33590668
136	0xbd5bb8ab	-0.05364291
137	0x3e6cffad	0.23144408
138	0xbdecc777	-0.115614824
139	0x3d9c35d3	0.07627454
140	0xbe1c0b65	-0.15238722
141	0x3d82c271	0.06384743
142	0x3cc36960	0.023853958
143	0x3d18efc8	0.03733805
144	0x3df48574	0.11939517
145	0x3db885e4	0.090099126
146	0x3e8206c6	0.25395793
147	0x3e58b2fb	0.21162026
148	0xbbbc806c	-0.005752614
149	0xbee96e18	-0.45591807
150	0xbed65e47	-0.41868803
151	0x3dce8671	0.100842364
152	0x3d331343	0.04371954
153	0xbdd5befb	-0.10436817
154	0xbe1c99ec	-0.15293092
155	0xbe1c0961	-0.15237953
156	0x3dce342c	0.10068545
157	0xbd5a2062	-0.05325354
158	0x3d8eef38	0.06979221
159	0xbe3b84d8	-0.18312395
160	0xbe18c1ab	-0.14917628
161	0x3db79ee4	0.08965853
162	0x3e4b39db	0.19846289
163	0x3c406983	0.011743906
164	0xbb8c728d	-0.0042861165
165	0x3db3fa21	0.08787943
166	0x3e264b60	0.16239691
167	0xbcb87517	-0.02251677
168	0xbe6e1ffb	-0.23254387
169	0x3e27cee7	0.1638752
170	0x3cd6a4e4	0.026201673
171	0xbcdb232a	-0.026750166
172	0x3bcce5d3	0.006252983
173	0x3d023c35	0.0317957
174	0xbd023d1c	-0.03179656
175	0xbd7bfea6	-0.06152215
176	0x3e9c0e2f	0.3047957
177	0x3d583cf8	0.05279252
178	0xbdc82297	-0.097722225
179	0x3e63d492	0.22249058
180	0x3db5b68a	0.08872707
181	0x3e34a7aa	0.17642084
182	0xbdaf03f2	-0.085456744
183	0xbd97eba8	-0.07417995
184	0xbd19b2d4	-0.03752406
185	0xbe002c91	-0.12517
186	0x3be1ea3e	0.006894379
187	0xbe92941b	-0.2862862
188	0x3cf6b073	0.030113434
189	0x3d8ce299	0.068791576
190	0x3e35e57c	0.17763323
191	0xbd54092c	-0.05176656
192	0x3e1ef12b	0.15521686
193	0x3ea2bcfe	0.31784815
194	0x3e4a305c	0.1974501
195	0x3dbb34d6	0.09140937
196	0x3e192e1b	0.14958994
197	0xbe01304b	-0.12616079
198	0x3e4d4e32	0.2004936
199	0x3dac132d	0.08402095
200	0xbe87bce7	-0.2651131
201	0xbebba1cc	-0.3664688
202	0x3d3d761d	0.04625522
203	0x3dc418f5	0.09575073
204	0x3d5c55f3	0.053792905
205	0xbe452865	-0.1925369
206	0x3e13f566	0.14449081
207	0xbe1e46df	-0.15456723
208	0xbef805fe	-0.48442072
209	0x3e868809	0.26275662
210	0x3e130a08	0.14359295
211	0xbcef977b	-0.029247036
212	0x3e6ae23e	0.22937867
213	0x3e26096e	0.16214535
214	0x3dd9353f	0.10605859
215	0xbe9eb078	-0.3099401
216	0xbeb85c29	-0.36007813
217	0xbe67ebb9	-0.22648515
218	0xbe537a1e	-0.20652053
219	0x3c02374d	0.007947755
220	0x3d8b1bb9	0.06792397
221	0xbe7f437e	-0.2492809
222	0x3e9f0f66	0.31066436
223	0xbe125efb	-0.14294045
224	0x3cfc118f	0.030770091
225	0xbebc2a52	-0.36751038
226	0x3e7ebb9a	0.24876252
227	0x3e3a30d2	0.18182686
228	0x3d0a3aed	0.033747602
229	0xbe8beb91	-0.2732816
230	0xbee12bb2	-0.4397865
231	0x3b135ee7	0.0022486986
232	0xbdb5c5cd	-0.08875618
233	0xbd12752e	-0.035756283
234	0x3d8d635d	0.06903718
235	0x3ddbfd9b	0.10741731
236	0xbdc62202	-0.09674455
237	0xbe364ad6	-0.17801985
238	0xbdd3c9b2	-0.10341205
239	0x3e100375	0.14063819
240	0x3e2fbd4a	0.17162052
241	0x3b67d20f	0.0035373007
242	0x3d2227a0	0.03958857
243	0x3db0679f	0.08613514
244	0xbe2fc32f	-0.171643
245	0x3ea18cd7	0.31552765
246	0x3d62a2a1	0.055330876
247	0xbdd098ea	-0.10185416
248	0x3df1c9be	0.118060574
249	0x3c1a04fe	0.009400604
250	0x3df6ebe9	0.12056715
251	0xbde7b119	-0.113130756
252	0xbeb6f7ce	-0.35735935
253	0x3c3917f1	0.011297212
254	0xbe214e88	-0.15752614
255	0xbd83f47e	-0.064431176

enc.fe.FC2.bias f4 [32]
0	0x3db4b10f	0.08822834
1	0x3dcf5c5f	0.1012504
2	0xbdb1d7c5	-0.08683733
3	0x3e1e00fb	0.15430062
4	0x3d9bfd3a	0.076166585
5	0xbe46b89c	-0.1940636
6	0xbe2645be	-0.16237542
7	0x3d887979	0.06663794
8	0x3dad2fca	0.08456381
9	0x3da78271	0.081791766
10	0x3d016045	0.03158595
11	0x3d9b78d5	0.07591406
12	0x3da9203c	0.08258101
13	0x3e184a26	0.14872035
14	0x3d8763b8	0.06610817
15	0xbc0153a1	-0.007893474
16	0xbd6b35d1	-0.05742437
17	0xbe1d7046	-0.1537486
18	0xbdf92fc1	-0.121673115
19	0x3e1bafdc	0.15203804
20	0xbd1be8c4	-0.03806378
21	0x3df8cd56	0.1214854
22	0xbc34182b	-0.01099209
23	0x3d0000e2	0.031250842
24	0xbe0dfc35	-0.1386574
25	0xbd722903	-0.059121143
26	0xbd04e752	-0.032447167
27	0x3e4113a3	0.18855147
28	0xbe051355	-0.12995656
29	0x3e2a3e89	0.16625418
30	0x3e7388b2	0.23782614
31	0xbe0fe438	-0.14051902

enc.fe.FC3.weight f4 [32, 32]
0	0xbb468048	-0.0030288864
1	0x3dd571d6	0.10422103
2	0xbda0ce89	-0.078518935
3	0xbd99eda8	-0.075160325
4	0xbe14bcbb	-0.1452512
5	0xbe7e6831	-0.24844433
6	0x3e74623e	0.23865601
7	0x3cb718a9	0.022350626
8	0x3e0b321c	0.13593334
9	0x3ce743cd	0.028230572
10	0xbddf2c4b	-0.1089712
11	0x3e2cbf00	0.16869736
12	0x3d592b89	0.053020034
13	0x3c8e6c60	0.017385662
14	0x3e867a55	0.26265207
15	0xbd1c1d8b	-0.038114112
16	0x3e08bf2d	0.13354178
17	0x3d2ed0d6	0.04267963
18	0xbe1cbc12	-0.15306118
19	0x3d101d67	0.03518429
20	0x3e353afc	0.17698282
21	0x3c87a0b0	0.016556114
22	0x3d7df991	0.062005583
23	0xbda812a9	-0.08206684
24	0xbec1bffb	-0.37841782
25	0xbc92ed7e	-0.01793551
26	0xbde426d6	-0.1114022
27	0x3da567b6	0.08076422
28	0x3de379bc	0.11107203
29	0x3af32ac1	0.001855217
30	0x3ca37743	0.01995433
31	0x3d484498	0.04889354
32	0xbd379660	-0.044821143
33	0x3e56e78a	0.20986763
34	0xbe9a33b7	-0.3011758
35	0xbde9b452	-0.114113465
36	0xbe5f630e	-0.2181513
37	0x3ce1a4f6	0.02754448
38	0x3ed2cecc	0.41173398
39	0x3e108f3a	0.14117137
40	0xbcfaa752	-0.030597363
41	0xbeacad13	-0.33725795
42	0x3e77eecb	0.24212186
43	0xbcaad6e5	-0.020854423
44	0xbb9cb327	-0.004782099
45	0xbcfcf4ad	-0.03087839
46	0xbd6ddfd4	-0.058074787
47	0x3dec9fe8	0.11553937
48	0x3ddbad79	0.10726447
49	0xbd731d90	-0.059354365
50	0xbdd045bb	-0.1016955
51	0xbb45bf70	-0.003017392
52	0xbb8396a6	-0.0040157614
53	0x3e422836	0.18960652
54	0xbda4b6aa	-0.08042653
55	0x3d54704a	0.0518649
56	0xbd6eb15c	-0.05827461
57	0xbdb444a4	-0.08802155
58	0x3e40a89d	0.18814321
59	0x3da5f0e9	0.081025906
60	0x3b913f25	0.0044325762
61	0xbe1e98a5	-0.15487917
62	0x3c0ee065	0.008720492
63	0xbe714bf7	-0.23564135
64	0x3df9c6ce	0.12196122
65	0x3ea5e45e	0.32400793
66	0xbe3e1d10	-0.18565774
67	0x3d1ab9a6	0.037774704
68	0xbe776202	-0.24158481
69	0x3e7c7811	0.24655177
70	0xbbe1fe6d	-0.006896785
71	0x3d242f56	0.040084206
72	0xbdaabd02	-0.08336832
73	0xbd51988e	-0.051170878
74	0xbe37f245	-0.17963512
75	0x3e58b595	0.21163018
76	0x3d5fac37	0.054607596
77	0xbd71d918	-0.059044927
78	0xbe075a32	-0.13218
79	0x3e43b93d	0.19113632
80	0x3dd2ce37	0.102932386
81	0x3f27a43b	0.6548497
82	0xbd4210d9	-0.04737935
83	0xbdb21a57	-0.0869643
84	0xbe0d55a7	-0.13802205
85	0xbbc629f9	-0.006047484
86	0xbeabd1c7	-0.33558485
87	0xbccdd0b0	-0.025123924
88	0xbe5b1745	-0.21395595
89	0xbe67c5b9	-0.22634019
90	0x3be42bc8	0.006963227
91	0x3d290393	0.041263174
92	0xbe67c09d	-0.2263207
93	0x3c96964e	0.018382218
94	0x3dd7047a	0.10498901
95	0x3c6a8708	0.0143144205
96	0xbe9e91ad	-0.30970517
97	0xbc8802d3	-0.01660291
98	0x3c3bab21	0.0114543745
99	0xbe37d9c6	-0.17954168
100	0xbe6cec38	-0.23136985
101	0xbe372773	-0.17886142
102	0x3eb0a40d	0.3450016
103	0x3dafc95e	0.085833296
104	0x3d50fe89	0.051023994
105	0xbe0186ee	-0.12649128
106	0x3e306ad1	0.17228247
107	0xbe8d7f1b	-0.27636036
108	0xbe0f37c6	-0.1398612
109	0xbe29db2a	-0.1658751
110	0xbd890184	-0.06689742
111	0xbdf94ef1	-0.1217326
112	0xbd6e37b5	-0.058158595
113	0x3df8aa47	0.12141853
114	0xbe20a313	-0.15687208
115	0x3e1d44b5	0.15358241
116	0x3e13bb16	0.14426836
117	0x3d9bd173	0.07608309
118	0x3d955e4f	0.072933786
119	0xbdee702b	-0.11642488
120	0x3e855dad	0.2604803
121	0x3f2e9418	0.68194723
122	0x3e40b9c1	0.1882086
123	0xbe17aaad	-0.14811201
124	0x3d0d01cf	0.034425553
125	0xbc96311f	-0.01833397
126	0x3dd1baa7	0.10240679
127	0xbe837bbc	-0.2568034
128	0xbe507360	-0.20356512
129	0x3c1d392f	0.009596153
130	0xbdfbeaa2	-0.12300612
131	0xbe0750fc	-0.13214487
132	0xbd9f3b5c	-0.07774994
133	0xbe2a3536	-0.16621861
134	0xbd5d1e92	-0.053984232
135	0x3d8f5086	0.069977805
136	0xbe126900	-0.14297867
137	0xbcd00836	-0.02539454
138	0x3cee705d	0.029106313
139	0xbe25130f	-0.16120552
140	0xbe75f22d	-0.24018164
141	0xbc94d846	-0.018169533
142	0x3dbfd105	0.09366039
143	0xbc54fe16	-0.013000032
144	0x3debe492	0.11518206
145	0xbdb5c4ec	-0.088754505
146	0xbdb2074a	-0.086927965
147	0x3e6159b2	0.22006872
148	0x3e462cee	0.19353077
149	0x3d35d88e	0.044395976
150	0xbc094833	-0.00837903
151	0xbddc42dd	-0.10754941
152	0x3e152f00	0.1456871
153	0x3ea4c09a	0.32178193
154	0x3e16602b	0.14685123
155	0xbe3240b2	-0.17407492
156	0xbdf14c32	-0.11782111
157	0xbe3368e2	-0.17520478
158	0x3de52734	0.11189118
159	0xbe314872	-0.17312792
160	0xbe146300	-0.1449089
161	0x3da6bce3	0.08141496
162	0xbdff5a69	-0.12468416
163	0xbd606c42	-0.054790743
164	0xbe9231fd	-0.28553763
165	0x3e90f529	0.28312042
166	0xbe9ea9b0	-0.30988836
167	0xbec61414	-0.38687193
168	0xbc2972c6	-0.0103423055
169	0x3dd69fc2	0.1047969
170	0x3df89a64	0.12138823
171	0x3e12201a	0.14270058
172	0x3dd890b4	0.10574475
173	0xbe4d6df3	-0.20061474
174	0xbe82d7e3	-0.25555333
175	0x3e0b9263	0.13630061
176	0x3e0aabec	0.13542145
177	0x3e1247e0	0.1428523
178	0xbcc86331	-0.02446136
179	0xbd3323a3	-0.043735158
180	0xbf805a40	-1.0027542
181	0xbce1a348	-0.027543679
182	0xbe6dd8d0	-0.23227239
183	0xbe7730b6	-0.24139675
184	0x3eb48b1d	0.35262385
185	0x3eee48f8	0.46540046
186	0x3e7b32e9	0.2453114
187	0xbdf49928	-0.11943275
188	0xbd9f90ca	-0.07791288
189	0xbdbe74f7	-0.09299653
190	0x3d5f0e62	0.054457076
191	0xbe47f8dd	-0.19528528
192	0x3e212007	0.15734874
193	0x3da34f24	0.07974079
194	0x3d2970bc	0.041367278
195	0x3e3d86df	0.1850848
196	0x3d67eb06	0.05662062
197	0x3e9fe9e1	0.31233123
198	0xbdaa4813	-0.08314528
199	0x3c288664	0.0102859475
200	0x3dc699b0	0.09697282
201	0x3d9084b9	0.07056565
202	0xbe4f5772	-0.20248201
203	0x3e9c8c1d	0.30575648
204	0x3e8cf763	0.2753249
205	0x3e4261b7	0.18982588
206	0xbe33f51f	-0.17573975
207	0xbdb89ff5	-0.090148844
208	0x3d9ff4b8	0.07810348
209	0xbdd14b53	-0.10219445
210	0xbd438f2a	-0.047743954
211	0xbc8d050e	-0.017214324
212	0xbe052e1c	-0.1300587
213	0x3d743e70	0.059629858
214	0xbe814a96	-0.25252217
215	0xbd8ecf09	-0.069730826
216	0xbe2936d3	-0.1652482
217	0xbec23957	-0.37934372
218	0x3d914a6f	0.07094275
219	0x3dda7248	0.10666329
220	0x3deca8fc	0.11555669
221	0x3e0e6f4b	0.13909642
222	0xbd359bc6	-0.04433801
223	0x3deb7bbe	0.11498211
224	0xbd2df9b5	-0.042474467
225	0xbcb0dace	-0.02158871
226	0x3edd1ad5	0.43184534
227	0xbe24c6a2	-0.16091397
228	0x3d277797	0.040885534
229	0xbf09cefa	-0.53831446
230	0xbe27988e	-0.16366789
231	0x3d97e859	0.07417364
232	0x3d1db182	0.038499363
233	0x3f0ebff2	0.55761635
234	0xbda10d32	-0.07863845
235	0x3e3421a6	0.17590961
236	0xbe364d55	-0.17802937
237	0xbcf83d42	-0.030302648
238	0x3dd61f5b	0.10455199
239	0xbe83304e	-0.2562279
240	0x3e00832d	0.1255004
241	0xbba9ea1b	-0.0051853782
242	0x3d74d409	0.059772525
243	0xbd9c488e	-0.07631026
244	0xbe9d76a3	-0.30754575
245	0xbdf4cb54	-0.11952844
246	0x3a2029d4	0.00061097485
247	0xbe0d5aea	-0.13804212
248	0x3eb26757	0.34844467
249	0x3eeda6dc	0.46416366
250	0xbcbbf6cb	-0.022944828
251	0xbd94f76f	-0.07273757
252	0xbe939815	-0.28826967
253	0x3d810036	0.06298868
254	0xbe22687e	-0.15860173
255	0xbd894ca1	-0.06704069

enc.fe.FC3.bias f4 [32]
0	0x3d6f5302	0.05842877
1	0xbca48ccc	-0.020086668
2	0xbcb892c9	-0.02253093
3	0x3dc51292	0.09622683
4	0xbe30f7bc	-0.17282003
5	0xbdffc26b	-0.12488254
6	0x3d3be843	0.0458758
7	0xbdf71235	-0.120640196
8	0x3dd38efb	0.10330006
9	0x3e3bd459	0.18342723
10	0x3dc05208	0.09390646
11	0x3dac99f3	0.08427801
12	0xbdfbfa4e	-0.12303601
13	0x3daa0ef6	0.08303635
14	0x3e398d2c	0.18120259
15	0x3deaffbf	0.11474561
16	0xbcbbeb66	-0.022939395
17	0x3d4b0f4d	0.04957514
18	0xbdf9f48a	-0.12204845
19	0xbe448eae	-0.19195053
20	0xbdd9e396	-0.10639112
21	0xbd1b40aa	-0.037903465
22	0x3d2371f4	0.039903596
23	0x3ddb6140	0.10711908
24	0x3c867799	0.01641445
25	0x3d4d9f2f	0.050200637
26	0x3de8098f	0.11329948
27	0x3e193078	0.14959896
28	0x3e09b47e	0.13447759
29	0x3e1c606a	0.15271154
30	0x3e1c3f0e	0.15258428
31	0x3dd46439	0.103706785

enc.fe.FC4.weight f4 [16, 64]
0	0x3c1fdcc7	0.009757227
1	0x3e056eb3	0.1303051
2	0xbe95eb7b	-0.2928122
3	0x3d2a05c9	0.041509423
4	0x3cd62f67	0.02614565
5	0xbe8c9961	-0.2746077
6	0xbe31b89c	-0.17355579
7	0x3cc6e423	0.024278706
8	0x3cabb074	0.020958163
9	0x3852323d	5.011469e-05
10	0xbe23a9c9	-0.15982737
11	0x3ea386f0	0.31938887
12	0xbd8f65c4	-0.07001832
13	0x3dfcae9c	0.123379916
14	0x3db40442	0.087898746
15	0xbdff9a15	-0.12480561
16	0x3dc2037f	0.09473323
17	0xbdfe5c7c	-0.12419984
18	0xbdf86168	-0.12127954
19	0x3ce711a9	0.028206663
20	0x3d0d9cb6	0.03457328
21	0x3e575a5a	0.2103056
22	0xbb8b0ee7	-0.00424372
23	0xbe6073df	-0.21919201
24	0x3e0c8722	0.13723424
25	0x3d203467	0.039112475
26	0xbddea6c7	-0.10871654
27	0x3e1fd045	0.15606792
28	0x3ce7a412	0.028276477
29	0xbbbec414	-0.005821714
30	0xbd800f31	-0.062528975
31	0x3d141786	0.036155246
32	0xba7f86ab	-0.0009747545
33	0xbdcdb46c	-0.10044178
34	0x3e217346	0.1576663
35	0x3db31b4d	0.087454416
36	0x3c5e2164	0.013557766
37	0x3db5795e	0.088610396
38	0x3d81e061	0.06341625
39	0x3d88409c	0.06652948
40	0xbd85fac4	-0.0654197
41	0xbd7c6a33	-0.061624717
42	0x3e36d1b4	0.17853433
43	0xbd2f5e44	-0.042814508
44	0xbcedc801	-0.029026033
45	0xbb97889e	-0.0046244403
46	0x3cbeb0c8	0.023277655
47	0xbde28289	-0.11060054
48	0x3bd3a5e3	0.006458984
49	0xbd8a0fae	-0.06741272
50	0x3d9037c5	0.07041887
51	0xbe59dece	-0.212764
52	0x3dd64c02	0.10463716
53	0x3e119b6f	0.1421945
54	0x3c5862e4	0.013207171
55	0xbcb29bf5	-0.021802882
56	0x3de70111	0.112795
57	0x3cee316e	0.029076304
58	0x3d380fda	0.044936992
59	0xbe046c0a	-0.12931839
60	0xbddd541d	-0.10807059
61	0xbde92d89	-0.11385638
62	0xbe001a97	-0.12510143
63	0x3ddfb966	0.10924034
64	0xbbcbaf74	-0.006215984
65	0xbd4fd377	-0.050738778
66	0x3e16c1ee	0.14722416
67	0xbe33c61c	-0.17556041
68	0xbe33ebb9	-0.1757039
69	0xbdb8134d	-0.08988056
70	0x3e1f85f2	0.1557844
71	0x3dbea0dc	0.09308025
72	0x3d8dc938	0.06923145
73	0xbc2ff23b	-0.010738905
74	0x3e15234b	0.14564244
75	0xbdb2deb8	-0.087338865
76	0x3d737f89	0.0594478
77	0xbdd2c735	-0.10291902
78	0xbb26eedc	-0.002547196
79	0x3cea3359	0.028588938
80	0x3d9af8ee	0.07567011
81	0x3e156a65	0.14591368
82	0x3e1f6ad5	0.15568097
83	0xbe12d609	-0.1433946
84	0xbce04e8b	-0.027381202
85	0x3d8966ba	0.06709047
86	0xbd035304	-0.03206159
87	0x3d777bdf	0.060420867
88	0xbdcd67bb	-0.10029551
89	0x3dc4c5d9	0.09608049
90	0x3dbb5653	0.091473244
91	0x3cdbd8f5	0.026836852
92	0x3e1666d6	0.14687666
93	0xbe4bcb06	-0.19901666
94	0xbe1497ec	-0.14511079
95	0xbdc56d5e	-0.09640001
96	0x3da4dc41	0.080498226
97	0xbc5e92a7	-0.013584769
98	0xbcd6d83e	-0.02622616
99	0xbdd0645a	-0.101753905
100	0xbcb9f622	-0.022700373
101	0xbc41b052	-0.011821823
102	0xbd2657b8	-0.040611
103	0x3dc40598	0.095713794
104	0xbda4e33f	-0.08051156
105	0xbc7962f4	-0.015221346
106	0x3d7cd6e1	0.061728362
107	0x3b05edc2	0.0020435904
108	0xbdca54cb	-0.09879454
109	0xbd11e82d	-0.03562181
110	0xbdb48cf7	-0.088159494
111	0xbd82e480	-0.06391239
112	0x3e4c64cf	0.1996033
113	0xbde0da71	-0.109791644
114	0xbc714615	-0.0147261815
115	0x3ca4873c	0.020084016
116	0x3da5a4f3	0.08088102
117	0x3be48597	0.006973933
118	0xbc894e74	-0.016761042
119	0xbd5309bb	-0.05152295
120	0xbd3a6962	-0.045510657
121	0xbd02db33	-0.031947326
122	0xbd8bf6a3	-0.068341516
123	0xbc5c401e	-0.013443021
124	0x3e3df71e	0.18551299
125	0x3d3fb5e5	0.046804328
126	0xbdbcea2d	-0.09224353
127	0x3e0e7382	0.1391125
128	0xbe16d48c	-0.14729518
129	0x3e40c83d	0.18826385
130	0x3e8b2020	0.27172947
131	0xbe35d84d	-0.17758293
132	0x3c695525	0.014241491
133	0x3e8126a5	0.25224796
134	0x3e1dcae4	0.15409428
135	0xbdd43421	-0.10361505
136	0x3d1837a6	0.037162445
137	0xbda15337	-0.078772
138	0x3e6400b6	0.22265896
139	0xbdc0fc51	-0.094231255
140	0x3e00399b	0.12521975
141	0xbd254aef	-0.040354665
142	0xbe159c21	-0.1461034
143	0xbd3229d5	-0.043496925
144	0xbe033279	-0.12812223
145	0x3da3623f	0.07977723
146	0xbdad45a6	-0.0846055
147	0x3d8545e0	0.06507468
148	0xbd8992a8	-0.067174256
149	0xbdb25d2f	-0.087091796
150	0x3e40dfe0	0.18835402
151	0xbe24689b	-0.16055529
152	0x3e036bb6	0.12834057
153	0xbe49d002	-0.19708255
154	0x3d100cf5	0.035168607
155	0xbda846fa	-0.08216663
156	0x3c6c2e0d	0.014415276
157	0xbd43d883	-0.047813904
158	0x3d284be8	0.041088015
159	0xbe17a9c1	-0.1481085
160	0x3be2de51	0.006923475
161	0x3d4cd391	0.050006453
162	0xbda92495	-0.082589306
163	0x3ba30899	0.00497539
164	0xbdd5a4ab	-0.104317985
165	0x3d8f998c	0.070117086
166	0x3db4bf71	0.08825577
167	0xbdab08fb	-0.08351322
168	0x3deddf43	0.116148494
169	0x3dd7ae8d	0.1053134
170	0xbe2d1b89	-0.16905035
171	0xbc82d3a3	-0.015970057
172	0x3cdbce32	0.02683172
173	0xbd86dcb5	-0.06585065
174	0x3da4f5ee	0.0805472
175	0xbd6b6935	-0.05747338
176	0x3dbf93e8	0.09354383
177	0x3d9777a0	0.073958635
178	0x3e0f357a	0.13985243
179	0xbd83c87d	-0.064347245
180	0x3d865eb3	0.06561031
181	0xbd6d157f	-0.05788183
182	0xbd6af70e	-0.057364516
183	0x3dc86f6c	0.09786877
184	0xbc4b400b	-0.012405406
185	0xbd8a95ab	-0.06766828
186	0xbca9b3dc	-0.020715646
187	0x3dd81ebf	0.10552739
188	0x3da3a2ff	0.079900734
189	0x3de3530f	0.110998265
190	0x3d29f632	0.041494556
191	0x3cb62f72	0.02223942
192	0xbdc4df20	-0.0961287
193	0xbe0b6943	-0.13614373
194	0xbd61703f	-0.055038687
195	0xbe7ce7e8	-0.2469784
196	0xbd890cd1	-0.06691898
197	0x3deee687	0.11665063
198	0x3d5eec92	0.05442483
199	0xbca96f12	-0.020682845
200	0x3cdf0366	0.0272233
201	0xbc7de146	-0.015495604
202	0xbdeeaa13	-0.11653533
203	0xbe6ab3bb	-0.22920124
204	0xbc7b7bbc	-0.015349325
205	0xbdd24ace	-0.10268174
206	0xbe395f5b	-0.18102781
207	0x3dbc0574	0.091807276
208	0xbd9ab124	-0.07553318
209	0x3e455016	0.19268832
210	0x3e1be2c9	0.1522323
211	0x3d37b9f4	0.044855073
212	0xbd97b3ca	-0.07407339
213	0xbd8507aa	-0.064956024
214	0xbcf1270d	-0.029437566
215	0x3c72d32b	0.014820854
216	0x3c302df1	0.010753141
217	0x3d34af95	0.04411276
218	0x3e11dd20	0.14244509
219	0x3db066a8	0.0861333
220	0xbcfba2aa	-0.030717213
221	0x3c6c5f23	0.014426979
222	0xbdf4bc16	-0.11949937
223	0xbea059a9	-0.31318405
224	0x3bca0bd0	0.006165959
225	0x3e31b4bd	0.17354102
226	0xbe1d8703	-0.15383534
227	0x3e183a37	0.14865957
228	0xbe517d09	-0.20457853
229	0x3c8aacce	0.016928103
230	0xbd589723	-0.05287851
231	0x3d030493	0.031986784
232	0xbca89fc9	-0.020584004
233	0x3e0ba6bb	0.13637821
234	0xbd9e815b	-0.07739516
235	0x3da058d5	0.07829443
236	0xbc22b225	-0.009930168
237	0x3d8013fa	0.0625381
238	0xbd9b442b	-0.075813614
239	0xbdb57247	-0.08859687
240	0x3dcc0bd4	0.099631935
241	0x3d493e04	0.04913141
242	0x3c1addeb	0.009452323
243	0xbe0bce8e	-0.13653013
244	0x3cc170c5	0.023613343
245	0xbd9e82a7	-0.07739764
246	0xbe16d94c	-0.1473133
247	0x3dcc8396	0.099860355
248	0xbdb0956d	-0.08622251
249	0xbe003bb5	-0.12522776
250	0xbd300495	-0.04297312
251	0x3df25e48	0.11834389
252	0x3ce3ee77	0.02782367
253	0x3e2ef385	0.17085083
254	0xbc240969	-0.010012009
255	0xbc35e16e	-0.01110111

enc.fe.FC4.bias f4 [16]
0	0x3da7fd40	0.082026005
1	0x3c88dd19	0.01670699
2	0x3ccc8c9c	0.024969392
3	0xbe0a1738	-0.1348542
4	0xbdc0711d	-0.09396575
5	0xbdbd97a5	-0.092574395
6	0xbd740416	-0.05957421
7	0xbdd6c0fc	-0.104860276
8	0x3db0edc4	0.086391
9	0xbd86ca89	-0.06581599
10	0x3ddea4b5	0.10871259
11	0x3cd866d3	0.026416218
12	0x3d5180c4	0.05114819
13	0x3e2291b8	0.158759
14	0x3d8744a3	0.06604888
15	0xbdb38261	-0.08765102

enc.norm.weight f4 [16]
0	0x3f085df3	0.53268355
1	0x3f6fad04	0.93623376
2	0x3f170dba	0.5900532
3	0x3f27a464	0.65485215
4	0x3f70f943	0.94130343
5	0x3f554a1c	0.83316207
6	0x3f615c98	0.8803191
7	0x3f4a15b6	0.7893938
8	0x3f661b60	0.8988552
9	0x3f5c4de3	0.86056346
10	0x3f7634e7	0.9617447
11	0x3f76f49e	0.96467006
12	0x3f098cdc	0.5373056
13	0x3f4cdfca	0.80028975
14	0x3f5bc4fa	0.8584744
15	0x3f59c326	0.850634

enc.norm.bias f4 [16]
0	0x3cc8ada7	0.024496866
1	0xbe264e7f	-0.16240881
2	0xbc078f11	-0.008273856
3	0x3cc1bc37	0.023649318
4	0x3e2c89e0	0.1684947
5	0x3da13eda	0.07873316
6	0x3dd9403a	0.10607953
7	0xbd07c0eb	-0.033142965
8	0xbd11305b	-0.035446506
9	0x3d216a8c	0.03940825
10	0xbe0d2786	-0.13784608
11	0x3d47b662	0.04875792
12	0xbbdfd953	-0.006831327
13	0x3c381cb1	0.011237309
14	0xbd96aafb	-0.07356831
15	0x3e0f759a	0.14009705

enc.enc_out1.weight f4 [4, 16]
0	0x3e1c3cd4	0.15257579
1	0x3d1d7e2f	0.038450416
2	0x3d84db9c	0.064872
3	0x3df0161f	0.11722969
4	0x3e8bb931	0.27289727
5	0x3d8c4008	0.068481505
6	0x3e39677a	0.1810588
7	0xbe3c6819	-0.18399085
8	0xbd44b416	-0.048023306
9	0xbdc049d3	-0.09389081
10	0xbe15ef65	-0.14642103
11	0xbb71f183	-0.0036917634
12	0x3d970847	0.07374626
13	0x3db41cce	0.087945566
14	0xbe034f56	-0.12823233
15	0x3b9289ac	0.004471978
16	0x3dab1b15	0.08354775
17	0x3e3d03ac	0.18458432
18	0x3bd7708d	0.0065746964
19	0xbe40f1ee	-0.18842289
20	0xbe045c4f	-0.12925838
21	0x3e6cd3cd	0.2312767
22	0xbe668a8c	-0.22513789
23	0xbe2d3b13	-0.16917066
24	0x3e4b3e2b	0.19847934
25	0x3de273f0	0.110572696
26	0x3e06aeff	0.13152693
27	0xbe92081d	-0.28521815
28	0x3b0e9d15	0.0021761109
29	0xbc7c0fc8	-0.015384622
30	0x3c4a6299	0.012352609
31	0xbe44ac46	-0.19206342
32	0xbd8ea794	-0.06965557
33	0x3e865963	0.26240072
34	0x3e3c4240	0.18384647
35	0x3e071043	0.13189797
36	0xbe4c033d	-0.1992311
37	0xbd3867ab	-0.04502074
38	0xbd1d2df2	-0.038373895
39	0x3e523bbd	0.20530601
40	0xbe33cd11	-0.17558695
41	0xbe238399	-0.1596817
42	0xbcad23fd	-0.021135325
43	0xbe925630	-0.2858138
44	0x3e15d8dd	0.14633508
45	0x3db106d0	0.086438775
46	0x3e0ca674	0.13735372
47	0x3e0da4a4	0.13832337
48	0x3db41118	0.08792323
49	0x3e6f3d2c	0.23363179
50	0xbd46e382	-0.048556812
51	0x3e3f4088	0.1867696
52	0xbe1599ee	-0.14609501
53	0xbe48ff1a	-0.19628564
54	0x3da6d5fb	0.08146282
55	0xbe4dd839	-0.20102014
56	0x3d86e072	0.06585778
57	0xbe6d848b	-0.23195092
58	0x3e49fd21	0.19725467
59	0xbe45aa58	-0.19303262
60	0xbd0fc190	-0.035096705
61	0x3e021e59	0.12706889
62	0xbcd8ba93	-0.026456153
63	0xbe1506be	-0.14553353

enc.enc_out1.bias f4 [4]
0	0x3e815457	0.2525966
1	0xbe7ec95c	-0.248815
2	0xbe29cd87	-0.16582309
3	0xbe094c60	-0.13408041

enc.enc_out2.weight f4 [1, 4]
0	0xbe55e6da	-0.20888844
1	0x3e61c61d	0.2204823
2	0x3e36beef	0.17846273
3	0x3e79937b	0.24372666

dec1.fe.FC1.weight f4 [32, 5]
0	0xbec3e14a	-0.3825782
1	0xbe362637	-0.17788015
2	0xbe830163	-0.25586995
3	0xbe17c548	-0.1482135
4	0xbd4cf756	-0.050040565
5	0xbe3bec4f	-0.18351863
6	0xbe2368f0	-0.15957999
7	0xbde41c3c	-0.11138198
8	0x3df9cdb7	0.1219744
9	0x3dce9298	0.10086554
10	0x3ea931ea	0.33045894
11	0xbea1690d	-0.3152546
12	0xbde4cd8c	-0.111720175
13	0xbdcce7a3	-0.10005119
14	0x3d61b288	0.0551019
15	0x3eab1a75	0.33418623
16	0xbdba5e88	-0.09100062
17	0xbacb6f2c	-0.0015520803
18	0x3e262395	0.16224511
19	0x3d9f4481	0.07776738
20	0xbe945756	-0.28972882
21	0xbeb756ad	-0.35808316
22	0xbe54801c	-0.20751995
23	0xbde6b37a	-0.11264701
24	0xbd6bea57	-0.05759653
25	0x3e950881	0.2910805
26	0x3d7288eb	0.059212606
27	0xbe5f0df5	-0.21782668
28	0xbe78a6e0	-0.24282408
29	0xbdae7cda	-0.08519907
30	0xbe2c057f	-0.16798972
31	0x3e034cbd	0.12822242
32	0x3de57740	0.11204386
33	0xbe2c9bf0	-0.1685636
34	0x3dee1d49	0.116266795
35	0xbd3b64d3	-0.04575045
36	0x3e9d6e90	0.30748415
37	0xbd9c5550	-0.076334596
38	0xbc8fc02f	-0.017547695
39	0xbca7a258	-0.020463154
40	0x3f087096	0.5329679
41	0x3ebaf6c6	0.36516398
42	0x3e56ef99	0.20989837
43	0xbc88ee7d	-0.016715283
44	0x3c036767	0.0080202585
45	0x3eed8d4a	0.46396858
46	0x3e009379	0.12556256
47	0x3d31fc51	0.04345352
48	0xbe3bd72f	-0.18343805
49	0xbd16e1fc	-0.03683661
50	0xbe46ce1b	-0.1941456
51	0xbe37494b	-0.17899053
52	0xbe11e6f2	-0.14248255
53	0x3e720939	0.2363633
54	0xbcbcf2c5	-0.02306498
55	0x3dd8aa14	0.10579315
56	0xbd599f8e	-0.05313068
57	0x3ed4bf7b	0.41552338
58	0x3e726589	0.23671545
59	0x3d978646	0.073986575
60	0x3eba6ef3	0.36412773
61	0x3eaa747c	0.33291996
62	0xbe901fcb	-0.28149256
63	0xbd896ecc	-0.06710586
64	0xbcd7d1bd	-0.026345128
65	0x3e60b964	0.21945721
66	0x3e945a36	0.28975075
67	0x3ec1083a	0.3770159
68	0x3e82fe86	0.2558481
69	0x3d82816a	0.0637234
70	0xbebc08e7	-0.36725542
71	0xbe7fb182	-0.24970058
72	0xbe12afc4	-0.14324862
73	0x3cd377c3	0.025813943
74	0x3d0fe582	0.035130985
75	0x3e9193e3	0.2843314
76	0x3e309815	0.17245515
77	0x3d9c2d3c	0.07625815
78	0xbbfcdc53	-0.0077166944
79	0xbccc0d80	-0.024908781
80	0xbf0649d4	-0.524564
81	0xbe27251d	-0.16322751
82	0x3da5441b	0.08069631
83	0x3e08ff12	0.13378552
84	0x3c116bbf	0.008875786
85	0xbdce7a00	-0.100818634
86	0x3e88133c	0.26577175
87	0x3e62228b	0.2208349
88	0x3d919325	0.07108144
89	0x3cede9cc	0.029042147
90	0x3c7a66ff	0.015283345
91	0xbed88aa4	-0.42293274
92	0xbe856acd	-0.26058045
93	0x3d9d74af	0.07688271
94	0x3c143717	0.009046338
95	0xbf1b3100	-0.60621643
96	0xbeb8fd69	-0.36130837
97	0xbe67b2a2	-0.22626737
98	0xbc381437	-0.011235288
99	0x3c80aeb1	0.0157083
100	0xbe42e42f	-0.19032358
101	0x3e87816c	0.2646593
102	0x3e15d0a1	0.14630367
103	0x3e0ae0a7	0.1356226
104	0x3d657680	0.056021214
105	0xbc4784fc	-0.012177702
106	0xbc2ba661	-0.01047668
107	0x3cf058d1	0.029339226
108	0x3dacae9e	0.08431743
109	0x3e2f7efe	0.17138287
110	0xbf03f3d3	-0.5154392
111	0xbef59bff	-0.47970578
112	0xbe83a7c6	-0.25713938
113	0xbde0a6b1	-0.10969294
114	0xbd0ba462	-0.034092315
115	0x3e1788e7	0.14798318
116	0xbed8bdcb	-0.423323
117	0xbe74229d	-0.23841329
118	0xbe0ccf53	-0.13750963
119	0xbd64137f	-0.055682655
120	0xbea97709	-0.3309863
121	0xbeaff768	-0.34368443
122	0xbc9a0b59	-0.01880424
123	0xbd1027fb	-0.03519438
124	0xbbce37ca	-0.0062932717
125	0xbd8178ab	-0.06321844
126	0xbe4503fe	-0.19239804
127	0xbd8756b0	-0.06608331
128	0xbdafd50a	-0.08585556
129	0xbdb34139	-0.087526746
130	0x3eb146f3	0.34624442
131	0xbe3a7ca1	-0.18211605
132	0xbdc43170	-0.09579742
133	0x3cb358de	0.021892961
134	0xbced8e46	-0.028998505
135	0xbe9640c4	-0.29346287
136	0x3dad7218	0.08469027
137	0x3dd086c4	0.101819545
138	0x3c14dc3b	0.00908571
139	0x3c436616	0.011926195
140	0x3e2eb028	0.17059386
141	0xbe8b1293	-0.27162609
142	0xbe805048	-0.2506125
143	0xbdce2759	-0.10066099
144	0x3dab939f	0.08377766
145	0xbde1b0d5	-0.11020056
146	0xbe929e8b	-0.28636584
147	0xbea8e001	-0.329834
148	0xbe040d41	-0.12895681
149	0xbd429fcd	-0.04751568
150	0xbeadc41b	-0.3393868
151	0xbec495e8	-0.3839562
152	0xbe5d2838	-0.21597373
153	0xbdcb7722	-0.09934832
154	0xbd143e23	-0.03619207
155	0xbeaf82fa	-0.34279615
156	0x3cbaad0b	0.022787591
157	0x3ece37ba	0.4027689
158	0x3e80ec0f	0.25180098
159	0x3d3906f3	0.045172643

dec1.fe.FC1.bias f4 [32]
0	0x3d07361c	0.033010587
1	0x3f01df16	0.5073103
2	0x3e48f40f	0.19624351
3	0xbe67a533	-0.22621612
4	0xbe8ac6a1	-0.27104667
5	0xbe29147e	-0.16511723
6	0x3e661547	0.22469054
7	0x3e9e9078	0.30969596
8	0xbeebccd3	-0.46054706
9	0xbe96b768	-0.29436803
10	0x3e4b2507	0.19838344
11	0xbe21c577	-0.15797983
12	0xbeee20ce	-0.46509403
13	0xbdfc4152	-0.12317146
14	0x3eee757f	0.46574017
15	0x3f0080fa	0.501968
16	0xbe3759b2	-0.1790531
17	0x3eab867b	0.33501038
18	0xbcd00d81	-0.025397064
19	0x3df077d6	0.11741607
20	0x3e84826f	0.25880763
21	0xbed65eab	-0.418691
22	0x3e516070	0.20446944
23	0xbe3d833e	-0.18507096
24	0x3e7f5734	0.24935609
25	0x3e96ed00	0.29477692
26	0x3e9dc92a	0.30817538
27	0x3df2d67e	0.118573174
28	0xbe571d86	-0.21007356
29	0xbe8a2f19	-0.26989058
30	0xbe222283	-0.15833478
31	0x3e2c2a3c	0.16812986

dec1.fe.FC2.weight f4 [32, 32]
0	0xbd356283	-0.0442834
1	0x3c76e47d	0.015069124
2	0x3dcff848	0.10154778
3	0xbc740029	-0.014892616
4	0xba2b2536	-0.0006528677
5	0xbe1ef9b6	-0.15524945
6	0xbca5aa11	-0.020222696
7	0x3cccc8ba	0.024998058
8	0x3e177879	0.1479205
9	0x3ce418a9	0.02784379
10	0xbe24fbaa	-0.16111627
11	0x3dd549fb	0.10414501
12	0x3f07bc84	0.53022027
13	0x3e47e345	0.1952029
14	0x3dcbe712	0.099561825
15	0xbe337678	-0.17525661
16	0x3e245aac	0.16050214
17	0xbe9950f9	-0.2994459
18	0x3dbab54b	0.0911661
19	0x3d3889f6	0.045053445
20	0x3da724df	0.081613295
21	0xbdc4d300	-0.096105576
22	0x3d7feda6	0.0624825
23	0x3dc3588c	0.09538373
24	0x3e0fcff8	0.14044178
25	0x3e324f03	0.17412953
26	0xbdf500bc	-0.11963031
27	0xbcf341c3	-0.029694444
28	0xbe5cf7fb	-0.21578972
29	0xbe91f888	-0.28509927
30	0xbbe4ed8c	-0.0069863256
31	0xbda92b9b	-0.0826027
32	0xbe3809a1	-0.17972423
33	0x3e2e8607	0.17043315
34	0x3da09e5d	0.078427054
35	0xbddd8f9b	-0.10818406
36	0xbe4e0b81	-0.20121576
37	0x3dc60857	0.096695594
38	0xbd694fb3	-0.056960773
39	0xbe7d5664	-0.24739987
40	0xbcff8ce2	-0.031195108
41	0xbe748e7e	-0.23882481
42	0x3d1c6268	0.038179785
43	0x3cd0ae4c	0.025473736
44	0xbe6b1f46	-0.22961149
45	0xbe894766	-0.26812285
46	0x3e801b32	0.25020748
47	0xbdac366c	-0.08408818
48	0x3e2c98b7	0.16855131
49	0xbea55a60	-0.32295513
50	0x3e04be1c	0.12963146
51	0x3ce2d06a	0.02768727
52	0xbc88c73c	-0.016696565
53	0xbe1a2f70	-0.15057158
54	0x3d293ac7	0.04131582
55	0x3ca09820	0.019603789
56	0xbd9e489a	-0.077286914
57	0xbc4e39f9	-0.012587064
58	0x3d34cb40	0.044139147
59	0xbd01af58	-0.03166136
60	0x3b2c200a	0.0026264214
61	0x3e2cce63	0.16875605
62	0x3de963be	0.113959774
63	0xbd83e6bf	-0.06440496
64	0xbf96b2c9	-1.1773311
65	0x3e248067	0.16064607
66	0xbd583667	-0.052786257
67	0x3de5360e	0.11191951
68	0xbd9267b5	-0.07148687
69	0xbd9648b4	-0.07338086
70	0xbd0b5beb	-0.034023207
71	0xbcab4a86	-0.020909559
72	0xbefcd41d	-0.4938058
73	0xbe0d5fe9	-0.13806118
74	0x3ae1d63a	0.0017229982
75	0x3e0f7553	0.140096
76	0xbef5d167	-0.48011324
77	0xbda5e76d	-0.081007816
78	0xbd4b63ff	-0.04965591
79	0x3dc848c1	0.09779502
80	0xbdc29c91	-0.09502519
81	0x3e813504	0.2523576
82	0xbe2454f4	-0.16048032
83	0xbea057f7	-0.31317112
84	0x3e8107d8	0.25201297
85	0x3e0465b4	0.12929422
86	0xbf44adfb	-0.76827973
87	0xbf522b6a	-0.82097495
88	0xbe855b08	-0.26046014
89	0xbd74b101	-0.059739117
90	0x3d89f6d8	0.06736535
91	0xbe8533bf	-0.26016042
92	0xbd4f5e6a	-0.05062715
93	0xbe3e16cb	-0.18563382
94	0x3d6bb0c3	0.05754162
95	0x3c948233	0.01812849
96	0x3e0b20d4	0.13586742
97	0x3c7f412e	0.015579505
98	0x3da3540f	0.07975017
99	0xbd3e143a	-0.04640601
100	0xbe977d75	-0.29587904
101	0x3d1dfd46	0.03857162
102	0x3db64139	0.08899159
103	0x3e019f9c	0.12658542
104	0xbe6e190c	-0.23251742
105	0xbd9a94f7	-0.07547944
106	0xbdaa73c3	-0.08322861
107	0x3e3edc67	0.18638764
108	0xbeb8bd20	-0.3608179
109	0xbe302d29	-0.17204727
110	0xbdf2b3a2	-0.118506685
111	0xbd09fc40	-0.03368783
112	0x3d277197	0.040879812
113	0x3d980cd5	0.074243225
114	0x3e04ab40	0.12955952
115	0xbc94ba51	-0.018155249
116	0x3e074964	0.1321159
117	0x3e057e8a	0.13036552
118	0xbe084980	-0.13309288
119	0xbe2ede19	-0.17076911
120	0xbdf0576e	-0.11735426
121	0x3e031763	0.1280189
122	0x3d8424f6	0.06452362
123	0xbd6a9673	-0.057272386
124	0xbe06ea7a	-0.13175383
125	0xbcbc62a9	-0.022996264
126	0xbebd0567	-0.36918184
127	0xbba6363b	-0.0050723827
128	0xbbe51b2b	-0.006991764
129	0xbd8c3b6f	-0.068472736
130	0xbe481b05	-0.19541557
131	0xbd13a9cf	-0.036050614
132	0x3ec2557e	0.3795585
133	0x3e0c7526	0.13716564
134	0x3d185678	0.037191838
135	0x3dd31f35	0.10308687
136	0xbf2c5415	-0.673158
137	0x3dae7f9d	0.08520434
138	0x3e18bc19	0.14915504
139	0x3dd7bf7e	0.10534571
140	0x3dc6d0ed	0.09707818
141	0xbe3cc175	-0.18433173
142	0xbdd64efc	-0.10464284
143	0xbe7a9e9a	-0.24474564
144	0xbcffb0ab	-0.031212172
145	0x3d17210b	0.036896747
146	0xbe25430c	-0.16138858
147	0xbe81a2b0	-0.25319433
148	0xbe95d50d	-0.29264107
149	0xbe6b6e0f	-0.22991203
150	0xbd35374e	-0.044242196
151	0x3e27ead1	0.16398169
152	0xbdbd93ee	-0.09256731
153	0x3dc8b3c3	0.09799912
154	0xbce4ff46	-0.027953755
155	0x3e5e2a95	0.21695931
156	0xbe24929f	-0.16071557
157	0x3e353de6	0.17699394
158	0x3e1bca82	0.1521397
159	0x3d0d6d07	0.034527805
160	0xbd465143	-0.04841734
161	0xbe0183c7	-0.12647925
162	0xbdd2d8ba	-0.102952436
163	0x3ea6c73a	0.32573873
164	0x3e4867d5	0.19570859
165	0x3c390ca2	0.011294516
166	0x3daeffab	0.085448585
167	0xbe995be8	-0.2995293
168	0x3da467b1	0.0802759
169	0xbc4bc76a	-0.012437681
170	0xbc8f54eb	-0.017496547
171	0x3e1f94fc	0.15584177
172	0xbe72a959	-0.23697414
173	0xbd1576e0	-0.03649032
174	0xbe1db662	-0.15401605
175	0x3e2a54ea	0.16633955
176	0x3e6ddc4a	0.23228565
177	0x3dc8ff8d	0.098143674
178	0x3e135b07	0.14390193
179	0x3e254c2b	0.16142337
180	0x3c9dd27b	0.019265404
181	0x3e82a81e	0.25518888
182	0x3d890a9f	0.06691479
183	0x3e531931	0.20615079
184	0xbded1278	-0.11575788
185	0xbc8aed2d	-0.016958797
186	0xbb64786a	-0.0034861811
187	0x3e52a166	0.20569381
188	0xbd40dc9b	-0.047085386
189	0x3da44b81	0.08022214
190	0x3e2d3bfa	0.1691741
191	0x3c8d077d	0.017215485
192	0xbe395f5b	-0.18102781
193	0xbc4793f5	-0.012181272
194	0x3d7fd104	0.062455192
195	0xbc817324	-0.015801974
196	0xbf0e27b8	-0.55529356
197	0xbda92df8	-0.08260721
198	0x3dbdbcef	0.09264552
199	0x3d8345a9	0.06409771
200	0xbea86719	-0.32891157
201	0xbe1271bd	-0.143012
202	0x3d6fca59	0.058542583
203	0x3d234418	0.03985986
204	0x3e5820a6	0.21106204
205	0xbe107e8f	-0.14110778
206	0xbe213deb	-0.15746276
207	0x3c81d3b8	0.015848026
208	0x3e092410	0.13392663
209	0xbd85e74d	-0.06538258
210	0x3db904a9	0.09034092
211	0xbe8066fb	-0.25078568
212	0x3d85ea1f	0.06538796
213	0xbdfb67e7	-0.12275677
214	0x3d938404	0.07202914
215	0xbe17e266	-0.14832458
216	0x3d41605b	0.047211032
217	0xbc90092b	-0.017582497
218	0x3e5cc8e4	0.21561009
219	0xbdbc817b	-0.09204384
220	0x3e2a8921	0.16653873
221	0xbe0d8da7	-0.13823567
222	0xbf1931c5	-0.5984157
223	0xbe1fc5c5	-0.15602787
224	0x3e170ecf	0.14751743
225	0x3d0ae7f6	0.03391262
226	0xbd89dca0	-0.06731534
227	0x3e29300d	0.16522236
228	0xbeadd249	-0.33949497
229	0xbe3673cb	-0.17817609
230	0x3d1fa50f	0.03897577
231	0x3e123af7	0.14280306
232	0xbe9eb597	-0.30997917
233	0xbeb86464	-0.36014092
234	0x3dd5ed1f	0.10445618
235	0x3db1f70a	0.08689697
236	0x3e324e04	0.17412573
237	0xbe3812b4	-0.17975885
238	0xbd882fb0	-0.06649721
239	0x3e61e0e2	0.22058442
240	0x3cd0b75d	0.02547806
241	0x3dc10c52	0.09426178
242	0xbde40a18	-0.11134738
243	0xbeb3a65d	-0.35087863
244	0x3e3843fb	0.17994682
245	0x3e97120b	0.29505953
246	0xbde0ed19	-0.10982723
247	0xbf4054b0	-0.7512922
248	0xbca2d268	-0.01987572
249	0xbcb7aaac	-0.02242025
250	0xbdb2b4d8	-0.087258995
251	0x3dbe8c91	0.09304155
252	0x3e538959	0.20657863
253	0xbf077adb	-0.5292184
254	0x3ce144f7	0.027498705
255	0xbd654f8c	-0.055984065

dec1.fe.FC2.bias f4 [32]
0	0xbe69acd5	-0.22819836
1	0x3e52fc0c	0.20603961
2	0x3dd2367e	0.102643
3	0x3e6d191c	0.2315411
4	0x3d16ebda	0.03684602
5	0x3dae082c	0.084976524
6	0x3e85206a	0.26001292
7	0x3e1b5da5	0.15172441
8	0xbda99868	-0.08281022
9	0x3e9bce73	0.30430946
10	0xbdae3c70	-0.08507621
11	0xbe3c5e35	-0.18395312
12	0x3dbb594f	0.09147894
13	0xbcb6df40	-0.02232325
14	0x3d934669	0.07191164
15	0xbdda406d	-0.106568195
16	0xbe00459d	-0.12526555
17	0xbd85649b	-0.065133296
18	0xbd16007f	-0.036621567
19	0xbeb11f11	-0.34594014
20	0x3de31428	0.11087829
21	0xbc45c464	-0.012070749
22	0xbd4f63c8	-0.05063227
23	0xbd64a21f	-0.055818673
24	0xbe8f27f4	-0.2796017
25	0xbde6d322	-0.11270739
26	0x3a99fd6a	0.0011748497
27	0x3d2f494e	0.04279452
28	0xb9c66a5e	-0.00037844753
29	0xbe490f24	-0.19634682
30	0x3e417229	0.18891205
31	0xbe34941e	-0.17634627
