Lightcode/single/rate35/lightcode_single_rate35_snrminus1.pt (torch, 36244 bytes, 26 tensors)

enc.fe.FC1.weight f4 [32, 11]
0.17752057 -0.37933555 0.14047097 -0.05752548 0.08153042 0.009764935 0.2828371 0.04787667
0.01425004 -0.0402758 0.096596465 -0.28972512 0.11983349 0.15451893 0.017368505 -0.037220556
0.12628376 0.5442786 0.005639194 0.040914793 0.008092241 -0.23444435 0.04854183 -0.21771602
-0.17984338 0.27243555 -0.06318181 0.43730715 -0.25800636 0.12912117 0.019898051 0.03556787
0.09078331 -0.1749431 -0.11056 -0.38023156 0.11138636 -0.032580882 0.30385265 0.34996033
0.09412924 0.057622813 -0.1990849 0.14512104 -0.16971517 -0.034933634 0.15281554 -0.093101785
0.026523946 0.40103674 0.14240204 -0.106176354 -0.0031246808 0.071856886 0.112332955 -0.08289986
-0.18681882 -0.16257855 0.24511427 0.057187516 -0.15263888 0.026146932 0.30481693 0.20292029
0.04337334 0.22939472 -0.17022215 -0.028749058 0.2530186 -0.3992323 -0.10966957 0.339859
-0.2735503 0.024979962 0.13794413 0.014594097 -0.044301257 0.25469014 -0.3184866 -0.035874166
-0.26449132 0.008234166 -0.040689275 -0.024000825 -0.0016137201 -0.013272303 0.049845565 -0.2796087
-0.322689 0.11348777 0.38587016 -0.13599822 0.12094273 -0.2076239 0.11942101 0.18128952
0.13804588 0.122356184 0.11742213 -0.08557581 -0.14034037 -0.2840248 0.13343649 0.066143975
0.05467025 0.017562812 -0.31063595 -0.068963796 -0.03256349 -0.19331457 0.23758861 0.05259102
-0.24879198 -0.015964666 0.22133407 -0.08848127 -0.0056012925 0.02821643 -0.24140544 -0.077188864
-0.0077606235 -0.1774999 0.031117663 -0.23053111 0.12715344 -0.03543731 -0.22716649 -0.3928816
-0.12330628 -0.03757855 0.22547458 0.14780411 0.047098517 -0.12762879 -0.01726202 0.10908997
-0.16670011 -0.5242282 0.69946784 -0.017378675 0.02132303 0.07980043 0.05392409 -0.059849057
0.31774095 -0.30411866 0.21447119 -0.101727724 0.18327962 -0.31618783 -0.10554491 0.011341795
-0.1775632 0.121826716 0.2923891 -0.011536448 0.29785776 -0.26951516 -0.42652944 -0.12143839
0.25931728 -0.061999153 -0.014527099 -0.008625511 0.009011123 -0.20708732 0.045696042 0.122424565
0.011446958 -0.15140785 0.81000143 -0.45745865 -0.04390986 0.0011181713 0.017609535 -0.20887001
0.035097074 -0.046618883 0.22287677 0.29332548 -0.1479519 0.07384291 0.04334615 -0.069101594
-0.10486255 0.2275281 -0.18097009 -0.30257222 -0.1473725 0.31883934 -0.19036447 -0.25638422
0.07621137 -0.075270556 0.19464897 -0.020365927 0.007725155 0.11356482 0.1063083 0.0070667327
0.08882566 0.33577737 0.16434959 -0.003237575 -0.21328507 0.1527704 0.13496174 0.18503101
0.09819178 -0.23704785 0.027366687 -0.29028523 -0.18786354 0.22390354 -0.19000271 0.347337
0.07543381 -0.0904064 0.03956953 -0.08649913 0.006712071 0.0086735375 0.30467048 0.043007586
-0.04720904 1.2081294 0.030805469 -0.04301264 -0.046458375 0.0017335422 0.009668999 0.26779106
-0.10590771 -0.07576759 0.19592997 0.24380772 -0.1460341 0.52258307 0.00826067 -0.036346186
-0.06525194 -0.068796456 -0.22619851 0.13058737 0.015662635 0.01568038 0.39460704 0.06924193
0.18593018 -0.014919716 -0.18855448 -0.0021376773 -0.023872843 -0.31367785 0.20067383 -0.07966023
00000000: f4c7 353e 4538 c2be 9fd7 0f3e d69f 6bbd
00000010: 6cf9 a63d 1bfd 1f3c 06d0 903e 541a 443d
00000020: 0079 693c 3df8 24bd 5ed4 c53d da56 94be
00000030: 436b f53d 363a 1e3e 6548 8e3c 9574 18bd
00000040: 8850 013e d855 0b3f fdc8 b83b 4596 273d
00000050: 5295 043c 2e12 70be ccd3 463d f3f0 5ebe
00000060: dd28 38be ac7c 8b3e 7765 81bd b9e6 df3e
00000070: 6919 84be 5738 043e 3d01 a33c 9daf 113d
00000080: 9aec b93d 4924 33be 486d e2bd b6ad c2be
00000090: 881e e43d 8873 05bd 9392 9b3e 002e b33e
000000a0: d5c6 c03d e605 6c3d e9dc 4bbe 9c9a 143e
000000b0: d0c9 2dbe 9216 0fbd ad7b 1c3e 26ac bebd
000000c0: bf48 d93c b054 cd3e d7d1 113e fd72 d9bd
000000d0: 72c7 4cbb b429 933d d20e e63d 67c7 a9bd
000000e0: 6f4d 3fbe fe7a 26be 3cff 7a3e 753d 6a3d
000000f0: 5e4d 1cbe 1732 d63c f710 9c3e 56ca 4f3e
00000100: 3ea8 313d 73e6 6a3e b74e 2ebe 2583 ebbc
00000110: a78b 813e 2d68 ccbe 719a e0bd 0002 ae3e
00000120: c90e 8cbe c7a2 cc3c 3a41 0d3e 141c 6f3c
00000130: 3c75 35bd bf66 823e ad10 a3be caf0 12bd
00000140: 686b 87be 98e8 063c cca9 26bd 619d c4bc
00000150: 7683 d3ba 1374 59bc dd2a 4c3d df28 8fbe
00000160: 7e37 a5be 476c e83d c690 c53e 1e43 0bbe
00000170: d2b0 f73d 5c9b 54be 0193 f43d f6a3 393e
00000180: e65b 0d3e e195 fa3d 047b f03d 5f42 afbd
00000190: 63b5 0fbe b36b 91be 93a3 083e 7e76 873d
000001a0: e9ed 5f3d e3df 8f3c ad0b 9fbe e43c 8dbd
000001b0: 4b61 05bd 41f4 45be 6e4a 733e ae69 573d
000001c0: 53c3 7ebe 55c8 82bc 66a5 623e ab35 b5bd
000001d0: 0c8b b7bb 2526 e73c fd32 77be 3215 9ebd
000001e0: d44c febb 89c2 35be 78ea fe3c 5910 6cbe
000001f0: 8334 023e b626 11bd 559e 68be c727 c9be
00000200: 0188 fcbd f7eb 19bd cfe2 663e f659 173e
00000210: 60ea 403d 1fb1 02be 1469 8dbc 906a df3d
00000220: 6fb3 2abe d233 06bf 5310 333f b95d 8ebc
00000230: a3ad ae3c 686e a33d 82df 5c3d 4924 75bd
00000240: f1ae a23e 71b5 9bbe 569e 5b3e a056 d0bd
00000250: a7ad 3b3e 5fe3 a1be ee27 d8bd f0d2 393c
00000260: 21d3 35be 4980 f93d 06b4 953e 5f03 3dbc
00000270: d080 983e e4fd 89be 1162 dabe b1b4 f8bd
00000280: 3cc5 843e d3f2 7dbd 1203 6ebc 0452 0dbc
00000290: 64a3 133c b30e 54be c62b 3b3d bbb9 fa3d
000002a0: 068c 3b3c a90a 1bbe 415c 4f3f 0538 eabe
000002b0: d3da 33bd 9a8f 923a df41 903c 05e2 55be
000002c0: f3c1 0f3d 71f3 3ebd cf39 643e c22e 963e
000002d0: b480 17be f43a 973d bc8b 313d 2385 8dbd
000002e0: 2dc2 d6bd 20fd 683e 3950 39be bfea 9abe
000002f0: d1e8 16be e93e a33e e7ee 42be cb44 83be
00000300: b514 9c3d 7327 9abd 0f52 473e 72d6 a6bc
00000310: 4c23 fd3b ac94 e83d 2ab8 d93d 0d90 e73b
00000320: 3aea b53d 03eb ab3e 424b 283e 7f2d 54bb
00000330: 6767 5abe d86f 1c3e 6933 0a3e c578 3d3e
00000340: c618 c93d acbc 72be 1a30 e03c 44a0 94be
00000350: 4d5f 40be f846 653e 1290 42be 28d6 b13e
00000360: 0b7d 9a3d fe26 b9bd a913 223d 7526 b1bd
00000370: eff0 db3b 741b 0e3c c5fd 9b3e b928 303d
00000380: 445e 41bd fca3 9a3f c05b fc3c 062e 30bd
00000390: 234b 3ebd 0638 e33a b96a 1e3c e91b 893e
000003a0: 24e6 d8bd 0a2c 9bbd dea1 483e bba8 793e
000003b0: f789 15be 01c8 053f c357 073c bddf 14bd
000003c0: cfa2 85bd 28e5 8cbd 95a0 67be b2b8 053e
000003d0: ed4e 803c 2474 803c ef09 ca3e b7ce 8d3d
000003e0: 7b64 3e3e d371 74bc 6d14 41be 4618 0cbb
000003f0: fb90 c3bc 629a a0be 717d 4d3e e724 a3bd

enc.fe.FC1.bias f4 [32]
0.21708953 -0.15108451 -0.13276468 -0.12912051 -0.29203245 -0.10714886 0.10492736 0.1286471
0.071258724 0.10397304 -0.034675367 -0.06157173 0.029935224 -0.01896879 -0.04830148 0.017558316
0.11885495 -0.10114805 0.02397211 -0.20263511 -0.23973303 0.1276604 -0.070731975 0.11268782
0.34545112 0.01841895 -0.14024912 -0.129863 -0.018857827 -0.16451333 -0.3148621 -0.03829318
00000000: b84c 5e3e e6b5 1abe 77f3 07be 2b38 04be
00000010: 4785 95be dd70 dbbd 28e4 d63d 11bc 033e
00000020: 18f0 913d d1ef d43d c207 0ebd a332 7cbd
00000030: b73a f53c 7064 9bbc c6d7 45bd 75d6 8f3c
00000040: 396a f33d b526 cfbd 2961 c43c 947f 4fbe
00000050: 937c 75be 68b9 023e eddb 90bd dfc8 e63d
00000060: f8de b03e 56e3 963c 779d 0fbe cefa 04be
00000070: bb7b 9abc 2f76 28be 9b35 a1be 4fd9 1cbd

enc.fe.FC2.weight f4 [32, 32]
-0.27454007 0.06028003 -0.2786878 0.14548393 0.15650955 -0.06815148 0.088706665 -0.037490364
-0.24317141 0.09834594 0.3111128 0.14760636 -0.6220121 0.04535948 -0.065907955 0.24067914
0.015198087 0.21535073 -0.094463244 0.003078779 -0.02068319 -0.6222579 0.15070848 0.041091435
-0.06643001 -0.17128459 -0.09300268 -0.05752781 0.15286091 -0.024739394 -0.21894662 0.16190399
-0.272765 -0.45712042 -0.18040754 -0.012891389 -0.23762092 0.20699452 -0.4288915 -0.1069359
-0.054698873 -0.049379878 -0.015032455 0.25202578 -0.18374719 0.1324005 0.056885686 0.26226372
0.08340435 -0.16949935 0.21302794 0.2831715 -0.18441117 -0.078892246 -0.012616986 -0.19669071
-0.034814954 0.06910588 -0.19346967 -0.015261151 0.08300148 -0.14939107 -0.06816232 -0.041752174
0.014090001 -0.10586451 0.04967955 -0.035843976 0.021722596 -0.0013678517 -0.049921047 -0.053936258
-0.15673886 0.045607653 0.07734403 -0.11552054 0.08382648 0.0845861 -0.32411915 0.11950577
0.042351793 -0.083869606 0.23238921 -0.15526387 0.078814276 -0.07101745 0.16686639 0.05370515
0.12519054 0.05871574 0.15743798 -0.020925311 -0.08145357 0.10536489 0.019189123 -0.008956755
-0.22274196 0.027497472 0.0657498 0.008428695 -0.26541606 -0.07820949 -0.18405385 -0.15586388
0.17533743 0.1600184 -0.24405767 0.044545792 0.0073634908 0.1695132 0.027713507 -0.009528506
0.09126986 -0.074907534 -0.06511203 0.12941693 -1.2177964 -0.42658696 0.23353721 0.057783123
0.09549033 0.07615625 0.46804124 0.10652761 -0.17077239 -0.12442358 0.07966913 0.082762845
-0.12441702 0.25209102 0.060049098 -0.10652947 0.12638909 0.26402244 0.040349714 -0.1315988
-0.013748014 -0.0017711257 -0.0025194658 0.22576256 0.061924018 -0.045717403 0.01183631 -0.09262909
-0.024105377 0.104896285 0.22377633 -0.13612188 -0.011304633 -0.1091982 -0.07533775 -0.0018737834
-0.13558508 0.011897384 0.28517142 -0.81631136 -0.12035939 0.054938294 0.06971641 0.047025375
-0.021661416 -0.6769702 0.18574993 -0.0070925895 -0.19816387 0.20496117 0.18714422 0.0012691914
0.2848265 0.35746005 0.0113176815 -0.063936174 0.01574065 -0.5160372 -0.1259302 -0.1729669
-0.09030377 -0.06745018 0.16979939 -0.8875468 0.12737872 -0.15182342 -0.35267767 -0.06722244
0.0069972705 -0.51990294 0.17021546 -0.75337434 -0.12987314 0.30036426 -0.15663391 -0.27305123
-0.046794243 -0.44732505 0.043952394 -0.014610493 0.06475738 0.15944017 -0.11619677 -0.020247994
-0.62184644 0.15647827 0.06811575 -0.20388393 0.00018650142 -0.1833849 -0.21150613 0.3228056
-0.09904657 -0.07358423 0.23116794 0.3441164 -0.19574799 0.12825398 0.08892748 0.05801401
0.059225198 0.0027736314 -0.44029903 -0.16329324 0.16592254 -0.018486332 0.14109817 0.10269171
0.10985573 -0.06804703 0.15539035 0.14676724 -0.00782556 0.05349555 -0.10410962 0.035218786
0.038607657 0.04376968 0.17289478 -0.17204651 0.12872979 0.18525277 -0.15152773 -0.102548726
-0.022986744 0.1288322 -0.075429305 -0.28952166 0.046155572 0.11799411 0.30592185 0.057407133
-0.08491529 -0.17195822 0.3656401 0.118316926 0.0635391 0.17925462 0.08500861 0.08553802
00000000: 8490 8cbe 31e8 763d 2bb0 8ebe bdf9 143e
00000010: 0a44 203e 0193 8bbd d7ab b53d 7f8f 19bd
00000020: ed01 79be 9969 c93d 2d4a 9f3e 1f26 173e
00000030: 2f3c 1fbf ddca 393d c0fa 86bd 9874 763e
00000040: 6601 793c e784 5c3e f275 c1bd 57c5 493b
00000050: cb6f a9bc 4b4c 1fbf 5353 1a3e 7e4f 283d
00000060: 750c 88bd 3a65 2fbe 3078 bebd 48a2 6bbd
00000070: 9287 1c3e 45aa cabc 8b33 60be 29ca 253e
00000080: dba7 8bbe b00b eabe c1bc 38be 6836 53bc
00000090: e652 73be 5ff6 533e ab97 dbbe 3601 dbbd
000000a0: ed0b 60bd 8e42 4abd b04a 76bc 8609 813e
000000b0: 3928 3cbe ff93 073e f700 693d 6e47 863e
000000c0: e6cf aa3d 3d91 2dbe ff23 5a3e dbfb 903e
000000d0: 48d6 3cbe 4292 a1bd 7ab7 4ebc 4a69 49be
000000e0: 209a 0ebd 6287 8d3d ea1c 46be e809 7abc
000000f0: aefc a93d f9f9 18be b098 8bbd 5404 2bbd
00000100: bfd9 663c 7ecf d8bd c97c 4b3d 22d1 12bd
00000110: 96f3 b13c 7d49 b3ba 037a 4cbd 44ec 5cbd
00000120: 2780 20be 17cf 3a3d 8c66 9e3d 0896 ecbd
00000130: 38ad ab3d 7a3b ad3d f2f2 a5be 71bf f43d
00000140: 1379 2d3d d4c3 abbd 70f7 6d3e 7efd 1ebe
00000150: 6169 a13d 9971 91bd 06df 2a3e eef9 5b3d
00000160: f331 003e ea7f 703d 6c37 213e 8f6b abbc
00000170: 21d1 a6bd 8cc9 d73d 8232 9d3c 5abf 12bc
00000180: 7816 64be 6142 e13c d5a7 863d 8218 0a3c
00000190: 9de4 87be 4c2c a0bd 9d78 3cbe c89a 1fbe
000001a0: a88b 333e dddb 233e 41ea 79be a675 363d
000001b0: 7049 f13b de94 2d3e 7007 e33c 731d 1cbc
000001c0: b1eb ba3d 1f69 99bd 7559 85bd df85 043e
000001d0: c1e0 9bbf 9b69 dabe 6124 6f3e ffad 6c3d
000001e0: 6f90 c33d cff7 9b3d 1aa3 ef3e 262b da3d
000001f0: f5de 2ebe cad1 febd 9229 a33d 917f a93d
00000200: 5ace febd 1312 813e 0bf6 753d 1f2c dabd
00000210: 246c 013e f32d 873e be45 253d d6c1 06be
00000220: 5a3f 61bc 1e25 e8ba 9f1d 25bb 4d2e 673e
00000230: 0aa4 7d3d 2c42 3bbd 15ed 413c 52b4 bdbd
00000240: a478 c5bc ddd3 d63d 9f25 653e 8963 0bbe
00000250: 1137 39bc 4ea3 dfbd ae4a 9abd bd99 f5ba
00000260: d1d6 0abe 3fed 423c fd01 923e c8f9 50bf
00000270: fc7e f6bd fa06 613d 7ac7 8e3d ae9d 403d
00000280: 4873 b1bc eb4d 2dbf 3b35 3e3e f468 e8bb
00000290: 78eb 4abe 57e1 513e bca2 3f3e ff5a a63a
000002a0: c7d4 913e 0105 b73e cc6d 393c f8f0 82bd
000002b0: 89f2 803c 041b 04bf d9f3 00be 3c1e 31be
000002c0: 2ff1 b8bd 5223 8abd e4df 2d3e 4436 63bf
000002d0: 916f 023e 9977 1bbe 2b92 b4be ebab 89bd
000002e0: 5c49 e53b 5c18 05bf f64c 2e3e 24dd 40bf
000002f0: 77fd 04be 58c9 993e a464 20be 5fcd 8bbe
00000300: 52ab 3fbd ca07 e5be 6d07 343d d960 6fbc
00000310: 849f 843d 4944 233e 92f8 edbd 1fdf a5bc
00000320: 5431 1fbf d73b 203e 4580 8b3d f3c6 50be
00000330: 988f 4339 40c9 3bbe 1095 58be c746 a53e
00000340: eed8 cabd 54b3 96bd 4ab7 6c3e 0630 b03e
00000350: 2972 48be 0355 033e 9c1f b63d 19a0 6d3d
00000360: 1f96 723d d0c5 353b e06e e1be 5836 27be
00000370: 99e7 293e a670 97bc 0a7c 103e 0850 d23d
00000380: 0afc e03d 3e5c 8bbd a61e 1f3e 274a 163e
00000390: c736 00bc 261e 5b3d 6d37 d5bd 9341 103d
000003a0: 1023 1e3d d647 333d 540b 313e f62c 30be
000003b0: bed1 033e e7b2 3d3e 162a 1bbe 1105 d2bd
000003c0: b24e bcbc 97ec 033e ae7a 9abd 2f3c 94be
000003d0: a00d 3d3d e5a6 f13d caa1 9c3e be23 6b3d
000003e0: 11e8 adbd d115 30be 2e35 bb3e 2550 f23d
000003f0: ca20 823d 868e 373e fe18 ae3d 8f2e af3d

enc.fe.FC2.bias f4 [32]
-0.029346855 -0.07215905 0.043403838 0.021892425 -0.12354608 -0.22875403 -0.14912772 -0.049482804
-0.099139705 -0.2166727 0.07016235 0.11413844 0.08758711 -0.16909166 0.1021832 -0.08679702
-0.007891919 0.08850075 -0.108348414 -0.16562885 -0.11065135 -0.21017265 0.10301178 0.059390496
0.08157239 -0.01656397 0.01846234 -0.10208244 0.18988273 -0.041604713 -0.17063153 -0.17285
00000000: d168 f0bc 20c8 93bd 39c8 313d be57 b33c
00000010: ba05 fdbd 7f3e 6abe f0b4 18be 7bae 4abd
00000020: c209 cbbd 73df 5dbe 47b1 8f3d 6ac1 e93d
00000030: df60 b33d 5d26 2dbe 6d45 d13d a3c2 b1bd
00000040: 1c4d 01bc e23f b53d c6e5 ddbd 9c9a 29be
00000050: 2d9d e2bd 8037 57be d7f7 d23d 7343 733d
00000060: 6d0f a73d 2ab1 87bc 553e 973c 9910 d1bd
00000070: 9e70 423e b469 2abd 08ba 2ebe 97ff 30be

enc.fe.FC3.weight f4 [32, 32]
-0.18277846 0.15876296 0.029880023 -0.26009637 0.0073225386 -0.09714321 -0.13498053 -0.09963928
0.0061284127 0.02430718 -0.26587108 -0.14927389 0.08990722 -0.04892609 0.23324811 0.21140687
0.0029255517 0.10746618 -0.04880682 -0.060615573 0.06746084 0.03374776 0.17763476 -0.26467088
0.09858602 -0.05241314 -0.14228256 0.16476725 0.169089 -0.3191312 0.19348066 0.121989585
-0.13153467 -0.04225609 0.02336633 -0.3045497 0.08173997 0.0858912 -0.22584857 0.12768659
0.031280894 0.11027768 -0.14079125 -0.27559453 -0.091093354 0.00825308 0.06822553 0.24653417
-0.37743548 0.09231146 -0.14345637 -0.14608845 0.15490896 -0.07223324 -0.0040465808 -0.1939958
0.03805119 -0.21063937 0.024621429 -0.1571922 0.20457144 -0.14011139 0.10445299 -0.08614257
0.03400781 -0.61730856 0.07878677 -0.012276839 -0.16629694 0.15510803 0.07760234 0.20913564
0.14568639 0.20239379 -0.059268344 -0.2469921 -0.15279692 0.09180829 0.08626625 0.27247632
-0.13266246 0.11477454 -0.09795578 -0.12067305 0.15084566 0.043706942 -0.04315384 0.092508495
0.27517772 -0.03204502 -0.019282127 -0.33052358 -0.034085315 -0.2523791 0.11402593 0.0973143
-0.2876178 0.63575536 -0.15008704 -0.046999253 -0.032787886 0.07504595 -0.3536077 0.13491525
-0.027512195 0.34591576 -0.20017254 0.024935674 0.087098606 -0.08975347 0.1439469 -0.09520047
0.11487167 -0.14300685 -0.021880073 -0.23700814 -0.014766582 0.03187093 0.1505187 -0.5272588
-0.014661763 -0.52735144 -0.14540875 0.29489422 0.15929091 0.18185821 0.006862028 -0.07072729
0.2969056 -0.46207604 0.009515644 0.093544416 0.19451317 0.19357866 0.17813379 -0.08146159
-0.21812451 -0.15588872 0.22528462 -0.033597652 -0.06448064 0.09747502 -0.09233379 -0.10730972
0.10152373 0.11232261 -0.027767079 0.22888717 -0.06379119 0.088582166 -0.14795281 0.1324958
-0.17921817 0.2335193 0.16216353 -0.43235758 -0.2404387 -0.03452786 -0.049413864 -0.043173056
0.08616036 0.91805136 -0.039433148 -0.12689349 0.8465828 0.044687096 -0.14213595 -0.007927893
-0.23820102 -0.036324706 -0.16865288 -0.06936126 0.25650495 -0.037932925 0.0799988 0.07286462
-0.1494935 0.010734111 0.123776175 0.29105636 -0.054874238 -0.14278656 0.023820521 -0.18395773
-0.16800234 -0.19441865 0.09815812 -0.23995857 0.2749645 -0.23769648 -0.26098678 -0.1567179
0.10338178 -0.482709 0.081512906 0.20774777 0.38144368 0.06427975 0.16184977 0.05590555
-0.045196615 -0.033616032 -0.12308478 -0.25023857 0.07778105 -0.059346266 0.054050956 -0.07103368
-0.12956345 -0.050109003 0.08472707 0.20131963 -0.23911223 -0.04724945 -0.20002457 -0.096633166
-0.23246369 0.27016512 0.05204223 -0.4323817 -0.18037133 -0.11786903 0.034579802 0.08499874
-0.30295172 0.10782704 0.016547663 -0.24109007 -0.2640862 -0.2726815 -0.27263647 0.10074602
0.052129917 0.13429518 -0.30696318 0.086684175 -0.030027548 -0.15672956 0.18619815 0.16793774
-0.033357196 0.022656316 -0.23991491 0.02899031 0.07986404 0.086432636 0.11246999 -0.118447885
0.23817115 -0.17138642 -0.21451871 0.40213582 0.18726747 -0.12202314 0.18126994 0.06394931
00000000: 472a 3bbe c292 223e f3c6 f43c 5a2b 85be
00000010: e8f1 ef3b 05f3 c6bd 5638 0abe ae0f ccbd
00000020: dad0 c83b da1f c73c 4120 88be 41db 18be
00000030: 4721 b83d b966 48bd 98d8 6e3e 0b7b 583e
00000040: 9dba 3f3b 3b17 dc3d a9e9 47bd 0948 78bd
00000050: e928 8a3d 173b 0a3d e3e5 353e f182 87be
00000060: 78e7 c93d 29af 56bd 85b2 11be bfb8 283e
00000070: ab25 2d3e 2a65 a3be cb1f 463e add5 f93d
00000080: 06b1 06be b914 2dbd bf6a bf3c f0ed 9bbe
00000090: 4967 a73d bae7 af3d d944 67be 46c0 023e
000000a0: 6520 003d 44d9 e13d 952b 10be ba1a 8dbe
000000b0: 278f babd ed37 073c d4b9 8b3d 7473 7c3e
000000c0: 393f c1be ca0d bd3d 3ae6 12be 3698 15be
000000d0: 74a0 1e3e 05ef 93bd 2e99 84bb d6a6 46be
000000e0: 91db 1b3d d9b1 57be e1b2 c93c fef6 20be
000000f0: 2d7b 513e 5c79 0fbe 73eb d53d 846b b0bd
00000100: c64b 0b3d ef07 1ebf f55a a13d cc24 49bc
00000110: bf49 2abe a4d4 1e3e faed 9e3d a727 563e
00000120: d02e 153e 5140 4f3e 5dc3 72bd 7feb 7cbe
00000130: cc76 1cbe fc05 bc3d 5cac b03d 0482 8b3e
00000140: abd8 07be ea0e eb3d 0a9d c8bd 6f23 f7bd
00000150: 4977 1a3e 0d06 333d 15c2 30bd 1875 bd3d
00000160: 18e4 8c3e a441 03bd 8df5 9dbc 633a a9be
00000170: 0b9d 0bbd d537 81be 6d86 e93d b84c c73d
00000180: a442 93be ddc0 223f 6bb0 19be 4a82 40bd
00000190: 974c 06bd b1b1 993d 120c b5be 3927 0a3e
000001a0: 4161 e1bc df1b b13e 08fa 4cbe e645 cc3c
000001b0: c160 b23d abd0 b7bd d166 133e 77f8 c2bd
000001c0: d741 eb3d 6370 12be d73d b3bc 43b2 72be
000001d0: 89ef 71bc 188b 023d 9321 1a3e 6ffa 06bf
000001e0: e437 70bc 8100 07bf 08e6 14be 60fc 963e
000001f0: 281d 233e 0a39 3a3e ddda e03b 78d9 90bd
00000200: 0304 983e 3b95 ecbe 81e7 1b3c 3794 bf3d
00000210: 762e 473e 7c39 463e b468 363e 56d5 a6bd
00000220: 085c 5fbe 4ba1 1fbe 03b1 663e b19d 09bd
00000230: 6d0e 84bd fca0 c73d 8019 bdbd 33c5 dbbd
00000240: aceb cf3d 6609 e63d c977 e3bc 6661 6a3e
00000250: f5a4 82bd 916a b53d f180 17be fbac 073e
00000260: f884 37be af1f 6f3e 320e 263e f95d ddbe
00000270: 9035 76be 166d 0dbd 3166 4abd 3bd6 30bd
00000280: d874 b03d 6a05 6b3f a784 21bd 5ef0 01be
00000290: a6b9 583f d109 373d 168c 11be fee3 01bc
000002a0: f8ea 73be 37c9 14bd 57b3 2cbe 470d 8ebd
000002b0: 9e54 833e 8e5f 1bbd 69d6 a33d 0c3a 953d
000002c0: d314 19be 20de 2f3c 5d7e fd3d 5705 953e
000002d0: cfc3 60bd a436 12be 4123 c33c 6a5f 3cbe
000002e0: ce08 2cbe af15 47be 2007 c93d b3b7 75be
000002f0: 26c8 8c3e b566 73be 0fa0 85be a87a 20be
00000300: d4b9 d33d a225 f7be 3df0 a63d d5bb 543e
00000310: 964c c33e 1aa5 833d f2bb 253e 38fd 643d
00000320: 1620 39bd f7b0 09bd e013 fcbd 451f 80be
00000330: ac4b 9f3d 1215 73bd 8964 5d3d 1b7a 91bd
00000340: 48ac 04be 193f 4dbd 6385 ad3d bc26 4e3e
00000350: d6d9 74be a488 41bd 3ed3 4cbe 9ce7 c5bd
00000360: f60a 6ebe 1553 8a3e 3c2a 553d 2261 ddbe
00000370: 43b3 38be 5165 f1bd 8da3 0d3d d213 ae3d
00000380: 7d1c 9bbe 6cd4 dc3d f78e 873c 51e0 76be
00000390: 4e36 87be e99c 8bbe 0297 8bbe ee53 ce3d
000003a0: 2e86 553d ad84 093e 472a 9dbe 7987 b13d
000003b0: 55fc f5bc b77d 20be baaa 3e3e dff7 2b3e
000003c0: 8ea1 08bd bd99 b93c 41ac 75be 167d ed3c
000003d0: c28f a33d 9803 b13d ab56 e63d ce94 f2bd
000003e0: 23e3 733e ec7f 2fbe cbaa 5bbe bfe4 cd3e
000003f0: 0bc3 3f3e 45e7 f9bd d49e 393e dbf7 823d

enc.fe.FC3.bias f4 [32]
0.099717826 0.0820202 0.036227908 -0.055829678 0.12679122 0.029371079 0.13293368 -0.1229607
-0.094677806 -0.10800787 0.0148331765 0.10900729 -0.0121359285 -0.033492714 -0.017246973 0.2061143
0.036295384 -0.14670135 -0.044097237 -0.1573958 0.0030726478 0.02048709 -0.101252176 -0.013412932
0.012706855 -0.08365393 0.04524815 0.033435386 -0.018058674 0.044602018 0.060352705 0.11252041
00000000: dc38 cc3d 35fa a73d b763 143d a9ad 64bd
00000010: 8fd5 013e 9e9b f03c c41f 083e d2d2 fbbd
00000020: 70e6 c1bd 3b33 ddbd da06 733c 373f df3d
00000030: c6d5 46bc a82f 09bd 8649 8dbc a10f 533e
00000040: 78aa 143d e138 16be 4e9f 34bd 5d2c 21be
00000050: 7a5e 493b 8bd4 a73c 4d5d cfbd eac1 5bbc
00000060: 6a30 503c c052 abbd 2056 393d 8bf3 083d
00000070: c9ef 93bc 9bb0 363d 6634 773d 1a71 e63d

enc.fe.FC4.weight f4 [16, 64]
-0.3436507 -0.31901288 0.18607464 -0.08481785 0.04637876 -0.3345534 -0.28402996 -0.12343234
-0.21153119 0.49372318 -0.5931945 -0.63649744 -0.19294567 -0.08539058 -0.12855726 -0.4685437
-0.5616089 -0.34044337 0.19928563 0.278763 -0.07235107 0.40996313 0.16811796 -0.26079535
0.20489304 -0.168474 -0.37291813 -0.42639384 -0.39292812 -0.13289204 0.17465046 0.20069818
0.08478603 0.12147801 -0.23249808 -0.18314394 -0.22978698 -0.21768272 0.16202828 0.3332823
-0.046703342 0.06850097 -0.04760006 -0.52384484 -0.010256868 -0.19922832 0.115621105 0.1388723
0.04073586 0.0015195375 -0.24169827 0.059925497 -0.15988806 0.06925879 0.23527278 -0.08576519
0.10487634 -0.10261629 0.15097833 -0.1340263 -0.17293544 -0.11462779 -0.097379796 -0.030767519
-0.18194601 -0.014889638 0.05150945 -0.07964794 0.06736438 -0.09255472 0.07653646 -0.2542315
0.020555539 -0.060456295 -0.15178944 -0.072085455 0.3018299 -0.07236333 0.038091224 -0.041443236
-0.048569296 0.020872297 -0.23568243 0.13663311 0.23662935 -0.055474747 -0.17994122 -0.028294783
-0.017687188 -0.00021462496 0.15759 0.024698962 -0.051169448 -0.07050365 -0.015417543 0.17624941
-0.011846417 0.022384873 -0.042063534 -0.071009636 -0.06999149 -0.114283875 -0.06711706 0.12269098
-0.13539602 0.119163066 0.14793654 -0.030958021 -0.01633063 0.05239187 0.012061374 -0.06369658
-0.100923106 -0.13865 0.016635997 -0.05686303 -0.03256053 -0.055838216 0.070044346 0.02847108
0.05814299 0.11421692 0.07168949 0.10324024 0.07292984 -0.037342407 0.073706895 0.11314041
0.2070113 0.3272867 -0.07205887 0.17244036 -0.082555234 0.22560519 0.28912655 -0.05992702
0.05090285 -0.21223934 0.22498392 0.14225245 -0.044463735 0.26922604 0.34758955 0.055828594
0.38185284 0.13557598 -0.006476634 0.04864242 0.115601294 -0.040026378 0.023480577 0.20904659
-0.13442054 -0.0030520165 0.020705037 0.09949461 0.071540944 -0.35394928 -0.03481394 -0.43798685
-0.17037392 -0.14989458 0.030900126 0.09335073 -0.27179167 0.09705832 -0.13067639 -0.044295385
-0.04042999 0.06020031 0.2201738 -0.018163128 -0.06641109 0.086581945 -0.24498485 0.05376226
-0.19472772 -0.01590258 0.07963312 0.08313466 -0.32142788 0.12645386 0.05176852 0.17094441
0.1451964 -0.20546304 -0.039709453 -0.24360679 -0.12795782 -0.15617248 -0.13795851 0.033359163
0.17495248 0.008871677 -0.13261092 -0.021662442 -0.16935983 -0.017355194 -0.13112453 0.109065205
-0.045214385 -0.09912994 -0.00028977246 0.13063188 -0.18944122 0.10068654 -0.025665043 0.03049327
0.11994889 -0.048146687 0.11922094 -0.144079 -0.043270282 0.12630825 0.1302304 0.20149772
0.08658943 0.005121745 -0.051865682 0.21467404 0.07840262 0.051491886 0.15009691 -0.010074332
0.020104477 0.0287838 0.08231929 -0.087253876 0.011906833 -0.019059375 0.0043613175 -0.059074868
0.06161157 -0.1203149 -0.0807345 0.053568043 -0.036727235 0.07531724 -0.05254439 0.032726765
0.06357507 0.10787382 0.1294252 -0.08670541 0.119383365 -0.024672266 -0.07677051 0.027946247
-0.09052475 0.057102542 -0.04668287 -0.014480634 -0.11816879 0.05777813 -0.009123782 0.06375026
00000000: fcf2 afbe a855 a3be 5a8a 3e3e fbb4 adbd
00000010: a8f7 3d3d 954a abbe 606c 91be 18ca fcbd
00000020: a29b 58be 49c9 fc3e 98db 17bf 7ff1 22bf
00000030: 8d93 45be 42e1 aebd 84a4 03be f6e4 efbe
00000040: 9ac5 0fbf 984e aebe 8811 4c3e 06ba 8e3e
00000050: cc2c 94bd b0e6 d13e 1d27 2c3e f886 85be
00000060: 7bcf 513e 7384 2cbe 20ef bebe 4b50 dabe
00000070: e02d c9be da14 08be 92d7 323e d383 4d3e
00000080: 4ca4 ad3d 77c9 f83d fa13 6ebe 168a 3bbe
00000090: 474d 6bbe 38e8 5ebe beea 253e faa3 aa3e
000000a0: 014c 3fbd 3d4a 8c3d 48f8 42bd b21a 06bf
000000b0: 6c0c 28bc 8202 4cbe c2ca ec3d 8a34 0e3e
000000c0: a5da 263d 382b c73a c07f 77be 7074 753d
000000d0: b2b9 23be 8dd7 8d3d 59eb 703e a9a5 afbd
000000e0: 68c9 d63d 7d28 d2bd 109a 1a3e 313e 09be
000000f0: fd15 31be fac1 eabd 0f6f c7bd 2a0c fcbc
00000100: 0e50 3abe abf3 73bc 93fb 523d 761e a3bd
00000110: 56f6 893d 548d bdbd 26bf 9c3d a22a 82be
00000120: 1764 a83c 05a1 77bd b16e 1bbe 8aa1 93bd
00000130: 7389 9a3e 3a33 94bd 8b05 1c3d 62c0 29bd
00000140: 99f0 46bd 61fc aa3c bc56 71be 8de9 0b3e
00000150: f74e 723e 7d39 63bd 8342 38be 76ca e7bc
00000160: b9e4 90bc f30c 61b9 465f 213e 7a55 ca3c
00000170: 0e97 51bd 3864 90bd dd99 7cbc ba7a 343e
00000180: 7917 42bc 7b60 b73c d04a 2cbd 806d 91bd
00000190: b357 8fbd aa0d eabd ab74 89bd 6945 fb3d
000001a0: 41a5 0abe c40b f43d ad7c 173e ad9b fdbc
000001b0: d0c7 85bc dc98 563d 129d 453c 5a73 82bd
000001c0: c6b0 cebd 44fa 0dbe 3748 883c 35e9 68bd
000001d0: 315e 05bd 9db6 64bd 6973 8f3d 2f3c e93c
000001e0: 5827 6e3d 90ea e93d f0d1 923d 9e6f d33d
000001f0: 3d5c 953d 5af4 18bd a4f3 963d 29b6 e73d
00000200: c5fa 533e 1f92 a73e 9a93 93bd 3594 303e
00000210: b812 a9bd 0c05 673e 6508 943e 0976 75bd
00000220: 827f 503d 4555 59be 2f62 663e a0aa 113e
00000230: 9b1f 36bd ffd7 893e 42f7 b13e 86ac 643d
00000240: 3782 c33e 6ed4 0a3e f239 d4bb 463d 473d
00000250: 5fc0 ec3d b3f2 23bd 575a c03c 4f10 563e
00000260: 8aa5 09be 5704 48bb 9c9d a93c d5c3 cb3d
00000270: 0f84 923d d738 b5be 1099 0ebd d03f e0be
00000280: 8076 2ebe f77d 19be 4322 fd3c ab2e bf3d
00000290: 4728 8bbe 83c6 c63d 08d0 05be 146f 35bd
000002a0: eb99 25bd 9a94 763d 3e75 613e d7ca 94bc
000002b0: 8a02 88bd e051 b13d 4fdd 7abe d135 5c3d
000002c0: b466 47be 2146 82bc b016 a33d 8142 aa3d
000002d0: 3292 a4be 1f7d 013e 3a0b 543d 0d0c 2f3e
000002e0: 5dae 143e e764 52be 61a6 22bd 0f74 79be
000002f0: 6007 03be aeeb 1fbe ff44 0dbe 9ea3 083d
00000300: be26 333e 835a 113c 28cb 07be 6f75 b1bc
00000310: aa6c 2dbe 7b2c 8ebc 8245 06be 945d df3d
00000320: b832 39bd a304 cbbd 9aec 97b9 5dc4 053e
00000330: e1fc 41be bf34 ce3d 7f3f d2bc 06cd f93c
00000340: c3a7 f53d 7635 45bd 1c2a f43d 7289 13be
00000350: 2e3c 31bd f356 013e 1e5b 053e 6b55 4e3e
00000360: cd55 b13d 50d4 a73b 1c71 54bd 83d3 5b3e
00000370: 8e91 a03d 28e9 523d 01b3 193e d00e 25bc
00000380: 25b2 a43c 01cc eb3c 0497 a83d 29b2 b2bd
00000390: e114 433c 6822 9cbc 62e9 8e3b 7df8 71bd
000003a0: 6a5c 7c3d a967 f6bd 2158 a5bd 2a6a 5b3d
000003b0: 4c6f 16bd ed3f 9a3d c938 57bd 800c 063d
000003c0: a533 823d f3ec dc3d 0a88 043e 9b92 b1bd
000003d0: 447f f43d 7e1d cabc db39 9dbd 87ef e43c
000003e0: 0a65 b9bd 5be4 693d 8936 3fbd 2e40 6dbc
000003f0: 7b02 f2bd c3a8 6c3d ea7b 15bc 7f8f 823d

enc.fe.FC4.bias f4 [16]
-0.011984787 -0.10214318 -0.015158893 0.014019777 0.19323362 -0.16025454 0.11737092 -0.0010978683
0.11734357 0.047077436 0.049394112 -0.08552702 0.039787784 -0.053559437 0.095478155 -0.06141224
00000000: d75b 44bc 7230 d1bd 015d 78bc 35b3 653c
00000010: 09df 453e c419 24be 2a60 f03d 59e6 8fba
00000020: d351 f03d 45d4 403d 7b51 4a3d ca28 afbd
00000030: 84f8 223d 2461 5bbd 0d8a c33d 678b 7bbd

enc.norm.weight f4 [16]
0.71027124 0.9607165 0.6103779 0.8804396 0.5737364 0.70804507 0.95441055 0.854175
0.63545907 0.7176403 1.0333114 0.48949972 0.97800255 0.83192915 0.8084241 0.6055811
00000000: 56d4 353f 84f1 753f ba41 1c3f 7d64 613f
00000010: 64e0 123f 7142 353f 4054 743f 36ab 5a3f
00000020: 72ad 223f 46b7 373f 8c43 843f b59f fa3e
00000030: 605e 7a3f 4ff9 543f e2f4 4e3f 5d07 1b3f

enc.norm.bias f4 [16]
-0.009687295 -0.07201338 0.00919484 0.11922862 0.019027483 -0.010197654 -0.14788632 -0.0113561
0.034521546 0.06663816 0.11198079 -0.014480272 0.18253818 -0.09296261 0.10682665 0.020677185
00000000: 76b7 1ebc c07b 93bd f4a5 163c 222e f43d
00000010: 86df 9b3c 1014 27bc 836f 17be f00e 3abc
00000020: 7766 0d3d 9679 883d 2f56 e53d aa3e 6dbc
00000030: 4aeb 3a3e 2e63 bebd eec7 da3d 3363 a93c

enc.enc_out1.weight f4 [4, 16]
0.1761242 0.2669168 -0.040717714 -0.2403785 0.076009 0.02207021 0.19659223 0.027117401
-0.1431399 -0.115151495 -0.39286128 -0.12301154 -0.33678666 -0.14208975 -0.042788006 0.15531738
0.040242773 -0.21141797 -0.08323666 0.11710089 0.109755404 -0.022237977 -0.3152165 -0.17817421
-0.037072 -0.012019052 0.22533618 -0.07182656 0.32660562 -0.08750334 0.09934319 0.08294421
-0.15415889 0.24502662 -0.15546949 -0.111950025 -0.0032053671 0.07983389 0.041343868 -0.079902954
-0.017069554 0.23101228 -0.025186455 -0.014387288 -0.06368414 0.046616204 -0.22873306 -0.01891165
-0.024375105 0.101281114 -0.14878173 -0.08517706 0.095919035 -0.020575091 0.3110378 0.16326864
0.0063214945 0.07263466 -0.23188977 0.0053986534 -0.06716301 0.20610973 -0.016645497 -0.07090381
00000000: e759 343e 52a9 883e 9ec7 26bd c825 76be
00000010: 9baa 9b3d 96cc b43c 794f 493e 5025 de3c
00000020: 4493 12be 8cd4 ebbd 1d25 c9be 79ed fbbd
00000030: 4d6f acbe fa7f 11be 7a42 2fbd 850b 1f3e
00000040: 9bd5 243d f47d 58be fb77 aabd 97d2 ef3d
00000050: 71c7 e03d 6b2c b6bc 0f64 a1be 4d73 36be
00000060: cfd8 17bd 8feb 44bc 87be 663e ce19 93bd
00000070: da38 a73e f334 b3bd 7174 cb3d a7de a93d
00000080: d4db 1dbe 42e8 7a3e 6533 1fbe 0e46 e5bd
00000090: 2311 52bb f37f a33d 3058 293d 29a4 a3bd
000000a0: 73d5 8bbc 7c8e 6c3e d353 cebc a9b8 6bbc
000000b0: d56c 82bd a2f0 3e3d 0039 6abe 9bec 9abc
000000c0: 4dae c7bc 796c cf3d 3d5a 18be 4f71 aebd
000000d0: 3371 c43d 188d a8bc 5940 9f3e e52f 273e
000000e0: 8a24 cf3b 7bc1 943d 8374 6dbe 30e7 b03b
000000f0: c38c 89bd 6e0e 533e 235c 88bc 0436 91bd

enc.enc_out1.bias f4 [4]
0.06474124 0.2528652 0.06631788 0.06310248
00000000: 0e97 843d 8c77 813e abd1 873d df3b 813d

enc.enc_out2.weight f4 [1, 4]
-0.2610607 0.4638499 -0.0003583192 -0.2506753
00000000: c0a9 85be bc7d ed3e cadc bbb9 8358 80be

dec1.fe.FC1.weight f4 [32, 5]
-0.29533634 -0.28911346 0.072420344 -0.31112647 -0.19013305 -0.35747033 -0.022728115 0.3203677
-0.04794431 -0.025731994 -0.009804485 0.11356102 -0.004693512 0.14636813 -0.17835249 -0.090650275
-0.1151695 -0.14520335 0.015630873 -0.22487806 0.0037939867 -0.36660463 -0.37476942 -0.12242845
-0.10980328 0.39549842 0.2751156 0.06947327 -0.030005869 -0.037248224 -0.050733916 0.060301635
-0.137867 0.19814423 0.094527766 -0.31359068 -0.18019423 -0.25435472 -0.12382388 0.07742932
-0.046178058 0.20041439 -0.3789837 0.052889954 0.007028995 -0.00529613 0.28020558 -0.12666497
0.06979061 0.042322926 0.4092432 0.35441518 0.26246136 -0.023725031 0.027880441 -0.10282943
0.17101207 -0.10276322 -0.29309177 -0.25927463 -0.36264434 -0.41271663 -0.19817421 0.06957598
0.041069962 -0.4797237 0.23807806 0.04923656 0.02530371 -0.019044088 -0.3864282 -0.19350955
0.15573862 0.15627442 0.12058894 0.34950766 0.21114111 0.32165423 0.17012788 -0.16147563
0.17806442 -0.03196448 -0.051446725 0.17727983 -0.14257163 0.30173135 0.10932874 0.37419033
-0.14213575 -0.12312354 0.15758984 0.27155602 0.34802887 -0.019389024 0.2103928 -0.10305996
0.10190348 0.14784233 0.079507165 0.044241413 -0.04235476 -0.58249474 0.020610198 0.00041875316
0.022764238 -0.017638922 -0.23607385 -0.2616366 0.21284021 0.08499265 -0.109350085 0.20866385
0.04616931 0.115341984 0.12676148 -0.017261513 0.18213162 0.37881854 -0.17837387 -0.14859885
0.3700006 0.40941945 0.09011675 0.1859544 0.11833221 0.08191797 -0.009717116 -0.3010072
-0.2734423 -0.008114255 -0.26513666 -0.23252764 0.0021757532 -0.23006603 0.12378536 -0.28737643
-0.082511015 -0.060706142 -0.21701935 -0.19099423 0.2813804 -0.14913332 -0.110769264 0.095831245
0.0800501 0.4154246 0.3505673 0.20661132 0.3019524 0.2364951 0.040033218 0.0738706
0.15099579 -0.10848238 0.26531014 0.33018818 0.122435085 0.019833354 0.24145348 0.21352866
00000000: 5336 97be ae06 94be 1e51 943d f84b 9fbe
00000010: 3db2 42be 5a06 b7be 5030 babc 3c07 a43e
00000020: 4161 44bd e7cb d2bc fea2 20bc ae92 e83d
00000030: 08cc 99bb 87e1 153e 09a2 36be daa6 b9bd
00000040: fddd ebbd 30b0 14be 510c 803c 6f46 66be
00000050: 89a4 783b 9ab3 bbbe c7e1 bfbe c4bb fabd
00000060: 8be0 e0bd c57e ca3e f4db 8c3e 0048 8e3d
00000070: dece f5bc 9891 18bd 5ece 4fbd d9fe 763d
00000080: 022d 0dbe 52e6 4a3e c697 c13d f58e a0be
00000090: d684 38be c83a 82be 6097 fdbd 4393 9e3d
000000a0: 3425 3dbd 6e39 4d3e 270a c2be 23a3 583d
000000b0: 7c53 e63b 298b adbb 1b77 8f3e 76b4 01be
000000c0: 61ee 8e3d ce5a 2d3d 5388 d13e e875 b53e
000000d0: 5661 863e ff5a c2bc 8665 e43c 3c98 d2bd
000000e0: ca1d 2f3e 8675 d2bd 2010 96be a5bf 84be
000000f0: 85ac b9be 984f d3be 2eee 4abe da7d 8e3d
00000100: fa38 283d 589e f5be bcca 733e 46ac 493d
00000110: ba49 cf3c 5902 9cbc ebd9 c5be 5e27 46be
00000120: f279 1f3e 6706 203e 56f7 f63d abf2 b23e
00000130: 6035 583e ddaf a43e 0136 2e3e de59 25be
00000140: 8556 363e 30ed 02bd cdb9 52bd d888 353e
00000150: 4cfe 11be 887c 9a3e bfe7 df3d e095 bf3e
00000160: 098c 11be 3228 fcbd 3b5f 213e 6409 8b3e
00000170: d730 b23e bbd5 9ebc 3671 573e 1a11 d3bd
00000180: c6b2 d03d fb63 173e a7d4 a23d 7c36 353d
00000190: 2f7c 2dbd 601e 15bf b8d6 a83c 198c db39
000001a0: 117c ba3c 807f 90bc 58bd 71be 3cf5 85be
000001b0: c9f2 593e a010 ae3d f0f2 dfbd faab 553e
000001c0: 081c 3d3d 6b38 ec3d c3cd 013e 0468 8dbc
000001d0: b680 3a3e 81f4 c13e a4a7 36be 4c2a 18be
000001e0: b870 bd3e 6d9f d13e 218f b83d d56a 3e3e
000001f0: 2858 f23d 9cc4 a73d 8a34 1fbc 9e1d 9abe
00000200: a100 8cbe a7f1 04bc febf 87be ba1b 6ebe
00000210: 1597 0e3b 6e96 6bbe 2e83 fd3d 0123 93be
00000220: 89fb a8bd 01a7 78bd 523a 5ebe fe93 43be
00000230: 1711 903e 68b6 18be ffda e2bd 2c43 c43d
00000240: 4ff1 a33d 88b2 d43e 8f7d b33e eb91 533e
00000250: 8199 9a3e c62b 723e dff9 233d 7849 973d
00000260: a49e 1a3e 032c debd bbd6 873e 6d0e a93e
00000270: 3fbf fa3d 8f79 a23c 953f 773e 42a7 5a3e

dec1.fe.FC1.bias f4 [32]
-0.15864222 0.4261337 0.33418787 -0.1571733 0.17586057 0.4769416 0.19742732 0.17452051
-0.30744672 -0.053520408 -0.017311687 -0.24167815 -0.2021787 -0.44463214 0.085907 -0.1035797
0.32842943 -0.27083397 -0.11288322 0.3966879 -0.10231229 -0.13586733 0.141929 0.1295989
-0.3677661 -0.40040028 0.088896714 -0.1504281 0.2541788 -0.38996542 0.13493046 0.12663434
00000000: 1b73 22be 322e da3e ac1a ab3e 0af2 20be
00000010: cb14 343e b031 f43e 632a 4a3e 81b5 323e
00000020: a869 9dbe 3738 5bbd 3dd1 8dbc 7a7a 77be
00000030: ef07 4fbe d3a6 e3be 02f0 af3d 9821 d4bd
00000040: e727 a83e c0aa 8abe 512f e7bd ad1a cb3e
00000050: 1b89 d1bd ce20 0bbe d655 113e 93b5 043e
00000060: d74b bcbe 4401 cdbe 7b0f b63d d309 1abe
00000070: b923 823e 8ca9 c7be 362b 0a3e 6fac 013e

dec1.fe.FC2.weight f4 [32, 32]
-0.016935637 -0.07539479 0.21217643 -0.28656262 -0.10205494 0.11405216 -0.004609032 -0.13069314
-0.02485599 -0.014282825 0.10434541 0.06095828 -0.13981132 -0.16695222 -0.017686987 0.11073206
0.18668999 -0.26188043 0.09248565 0.06625839 -0.2175447 0.0479867 -0.05084109 0.12526537
-0.32308698 0.17242955 -0.08964461 0.004064383 0.121619046 -0.13770449 0.29439798 0.09179333
0.1829638 0.004243118 -0.08352967 0.20163286 0.1871052 0.10638921 -0.1466198 0.03463994
-0.022944115 0.11084581 0.16847865 0.057882033 0.24770468 -0.046263494 -0.1099141 0.079098605
0.041884698 -0.06451663 0.078533135 -0.22508806 0.09766827 0.2362229 -0.038081888 0.14710176
-0.10359602 -0.31450304 0.12109555 0.02814818 -0.04728615 -0.025232906 0.05018055 0.1808248
-0.067956656 0.18021522 -0.12598068 0.16601056 -0.09396835 -1.0080873 -0.05976366 -0.36100978
0.040122226 0.5125647 0.25044167 0.11751787 0.36709902 0.0124621 0.1542698 0.28175697
-0.16107605 -0.1066752 0.2119635 0.034776874 0.2943476 -0.006190867 -0.23998484 0.08815042
1.1274371 0.109389074 0.10619965 -0.24249673 -0.23907594 -0.46804744 -0.20536412 -0.141334
-0.11796825 -0.17813225 -0.033930346 -0.06517768 0.12634972 0.13397568 -0.12959325 0.20833449
0.39164224 0.15496413 0.052524243 0.13905488 -0.21483001 0.36280918 -0.17283878 -0.20113903
0.15560968 -0.22334254 0.057577547 0.0092051895 -0.26820964 0.05755837 0.02692921 0.16729619
-0.018364353 0.34115875 -0.14514437 -0.23979776 0.078171164 -0.13920246 0.13956991 -0.053684656
-0.11877542 -0.12464065 0.17693478 -0.10882859 -0.16664156 0.23692872 -0.063207716 -0.12138908
-0.16942759 0.10985239 0.15714267 0.053528048 -0.10648829 0.08210758 0.08356809 -0.018322004
0.09099621 -0.05411713 -0.03591909 0.048296873 0.11011078 -0.08939039 -0.05483788 -0.16768934
0.096740276 -0.040714484 -0.0726218 -0.5792015 0.27798313 0.021322131 0.07584436 0.2710234
0.27123848 0.04764943 -0.3189279 0.15174788 -0.016484817 -0.003704157 0.19527236 -0.0818814
-0.031285603 -0.14629693 -0.42844275 0.28544897 -0.49227333 -0.14067483 -0.15436456 -0.005987588
0.026511898 0.18741813 -0.13833566 -0.043094978 -0.046350896 -0.076170586 -0.03612728 -0.040425032
-0.2774181 -0.08075208 -0.031178482 0.26596513 0.2606592 -0.16886061 -0.06787068 0.038795706
0.16346432 -0.0258746 0.17800324 0.041387618 0.23403421 -0.39919505 0.015758032 -0.24391218
0.004742328 0.1300896 0.23259914 0.12688851 -0.30384874 0.062322795 0.14038327 0.11179405
0.1128575 0.15893719 0.012535743 -0.06898915 0.032583684 0.20548162 0.14973217 -0.053654376
-0.06950987 -0.21354765 0.22091968 0.062311742 -0.034442723 0.097827174 0.15356791 -0.24487366
-0.11105203 -0.2453987 -0.0430623 -0.31665272 -0.39575186 -0.14178987 -0.102141 0.04167521
-0.14882171 0.008563677 0.18218425 -0.09242703 -0.22446652 -0.013605979 -0.042549793 0.12452676
-0.07993208 0.033170287 0.052319784 -0.21493885 0.1368173 0.06443556 0.041803442 -0.0054268516
0.5182163 -0.07262597 0.03584337 -0.49673814 -0.058055192 0.24046774 -0.16571502 0.21920817
00000000: 9bbc 8abc 9568 9abd c744 593e 56b8 92be
00000010: 2e02 d1bd 2e94 e93d 5d07 97bb 6cd4 05be
00000020: ca9e cbbc 8302 6abc 0cb3 d53d 64af 793d
00000030: b32a 0fbe 86f5 2abe 4de4 90bc 7ec7 e23d
00000040: a92b 3f3e 3115 86be 1e69 bd3d 7bb2 873d
00000050: 0ac4 5ebe b48d 443d bf3e 50bd 9145 003e
00000060: a86b a5be 5f91 303e 9897 b7bd 842e 853b
00000070: 6813 f93d 6802 0dbe 55bb 963e 24fe bb3d
00000080: dd5a 3b3e db09 8b3b 9b11 abbd d878 4e3e
00000090: 8198 3f3e 96e2 d93d 8023 16be 9ce2 0d3d
000000a0: 4cf5 bbbc 2103 e33d ab85 2c3e b615 6d3d
000000b0: 4ca6 7d3e ca7e 3dbd a51a e1bd 73fe a13d
000000c0: 4a8f 2b3d 4b21 84bd fbd5 a03d 7c7d 66be
000000d0: 4d06 c83d 6ae4 713e c1fb 1bbd d8a1 163e
000000e0: 262a d4bd 8b06 a1be f200 f83d 0397 e63c
000000f0: 1faf 41bd 3db5 cebc 1f8a 4d3d 232a 393e
00000100: dc2c 8bbd 578a 383e 1401 01be acfe 293e
00000110: 7a72 c0bd 0109 81bf bdca 74bd 46d6 b8be
00000120: 3457 243d 7137 033f e439 803e 36ad f03d
00000130: 67f4 bb3e d62d 4c3c e7f8 1d3e 7342 903e
00000140: 1ff1 24be 8778 dabd f60c 593e 3272 0e3d
00000150: bbb4 963e c2dc cabb 96be 75be 3588 b43d
00000160: dc4f 903f 6107 e03d 347f d93d 1051 78be
00000170: 53d0 74be eaa3 efbe f94a 52be dcb9 10be
00000180: 5699 f1bd 4d68 36be 8cfa 0abd e07b 85bd
00000190: d261 013e ec30 093e 18b4 04be a355 553e
000001a0: 5585 c83e ebae 1e3e a923 573d 6764 0e3e
000001b0: 66fc 5bbe 20c2 b93e a6fc 30be 64f7 4dbe
000001c0: 2558 1f3e e8b3 64be 6fd6 6b3d 5dd1 163c
000001d0: c652 89be 53c2 6b3d a69a dc3c b14f 2b3e
000001e0: d770 96bc 5cac ae3e baa0 14be 8b8d 75be
000001f0: 3418 a03d 178b 0ebe 6aeb 0e3e 71e4 5bbd
00000200: 8740 f3bd 9943 ffbd 642e 353e 86e1 debd
00000210: 16a4 2abe 719d 723e 0c73 81bd d79a f8bd
00000220: 6d7e 2dbe 4afa e03d 02ea 203e 3a40 5b3d
00000230: 8816 dabd 0528 a83d bf25 ab3d 0718 96bc
00000240: 395c ba3d eca9 5dbd e51f 13bd f1d2 453d
00000250: c381 e13d 4f12 b7bd af9d 60bd c1b6 2bbe
00000260: c41f c63d 3bc4 26bd bdba 94bd 8d46 14bf
00000270: ce53 8e3e c0ab ae3c 4a54 9b3d 94c3 8a3e
00000280: c5df 8a3e 0c2c 433d 854a a3be cc63 1b3e
00000290: 2b0b 87bc 71c1 72bb 7af5 473e 6fb1 a7bd
000002a0: 5525 00bd ddce 15be d95c dbbe 5e26 923e
000002b0: 400b fcbe 100d 10be be11 1ebe 8733 c4bb
000002c0: 7b2f d93c 8aea 3f3e dda7 0dbe 5c84 30bd
000002d0: 70da 3dbd 53ff 9bbd 33fa 13bd b894 25bd
000002e0: bf09 8ebe 5961 a5bd 046a ffbc 952c 883e
000002f0: 1f75 853e cce9 2cbe c8ff 8abd 3fe8 1e3d
00000300: 3163 273e f8f6 d3bc 7b46 363e 1086 293d
00000310: aaa6 6f3e 4b63 ccbe fd16 813c 1dc4 79be
00000320: 8865 9b3b 3536 053e 782e 6e3e 10ef 013e
00000330: 1092 9bbe 3046 7f3d a2c0 0f3e 47f4 e43d
00000340: d521 e73d 6ec0 223e b862 4d3c 2f4a 8dbd
00000350: 7876 053d c669 523e 6453 193e b1c4 5bbd
00000360: 315b 8ebd 3cac 5abe c538 623e 993a 7f3d
00000370: d013 0dbd 9d59 c83d e840 1d3e 29c0 7abe
00000380: 3f6f e3bd cc49 7bbe 1862 30bd 4e20 a2be
00000390: fd9f cabe 5d31 11be 4d2f d1bd a0b3 2a3d
000003a0: b864 18be aa4e 0c3c 828e 3a3e 624a bdbd
000003b0: 8dda 65be 9deb 5ebc b148 2ebd e307 ff3d
000003c0: 6eb3 a3bd 91dd 073d 454d 563d ee18 5cbe
000003d0: d619 0c3e caf6 833d 163a 2b3d bbd3 b1bb
000003e0: d3a9 043f edbc 94bd 7fd0 123d 7654 febe
000003f0: 48cb 6dbd 2d3d 763e 33b1 29be 1b78 603e

dec1.fe.FC2.bias f4 [32]
0.089899585 -0.113617525 -0.23567085 0.02509998 0.0020179767 0.44700193 -0.20086913 -0.45478114
-0.048295014 0.40268263 0.2723725 0.06603281 -0.030781567 -0.29160693 -0.33000684 0.253093
0.02571556 0.37450638 -0.3692855 -0.30028674 0.1930107 -0.13853006 0.057569392 0.29216403
0.079144195 -0.22684796 -0.17900214 0.095617056 0.055858366 0.20321903 0.13044299 -0.189975
00000000: 461d b83d 4eb0 e8bd b353 71be 799e cd3c
00000010: 0840 043b 70dd e43e a3b0 4dbe 13d9 e8be
00000020: fed0 45bd 6b2c ce3e 6974 8b3e 363c 873d
00000030: a029 fcbc 814d 95be a8f6 a8be 6895 813e
00000040: 70a9 d23c 4dbf bf3e fd12 bdbe 2fbf 99be
00000050: 99a4 453e d3da 0dbe e2cd 6b3d 8696 953e
00000060: 5a16 a23d d54a 68be 564c 37be e0d2 c33d
00000070: becb 643d a618 503e d992 053e ce88 42be

dec1.fe.FC3.weight f4 [32, 32]
-0.12715663 -0.18187633 -0.44410387 -0.033216774 0.28903154 0.2519315 -0.09662694 -0.4691357
-0.109023675 0.15575139 -0.20618397 -0.23939551 0.09071362 0.17223449 0.14341338 0.034930203
0.014778835 0.28745726 -0.082816765 1.0288328 -0.009895073 0.0982302 -0.04532199 -0.13591734
0.16492501 0.2728016 -0.31362242 0.16409169 0.2626255 -0.13896005 0.42721158 0.062297493
0.2207569 -0.055129733 -0.17988215 -0.0767043 -0.18470918 0.070830874 0.28665632 0.022019736
0.12227194 0.3151086 -0.29135647 0.26502466 0.03743301 0.34219956 0.055146385 0.15671578
0.022764897 0.11852044 -0.17205821 -0.3682195 -0.15962802 -0.23289934 -0.024963327 -0.05314947
0.094996 -0.07679437 -0.028515954 0.05489662 0.05559782 -0.1649672 0.13019362 -0.14327109
-0.19846465 -0.07406285 0.05999607 0.03842873 -0.14349325 0.21184506 0.167766 0.050481733
-0.25667864 0.067004554 -0.22390017 -0.050840538 -0.28856546 -0.16586198 0.011880532 0.048750788
0.07952194 -0.17125313 -0.10751858 0.47660023 0.055064738 -0.19271633 -0.036387406 0.037350748
0.1016007 -0.22760959 -0.056709357 0.27257672 -0.05279375 -0.07640182 0.20385866 -0.08279312
-0.013780532 0.2228393 0.23527575 -0.11873062 0.24190965 -0.013282624 0.17156796 -0.33472568
0.36167398 0.0001220125 0.038606778 -0.15367879 0.25943223 0.11993267 0.39519748 -0.08531489
-0.03839547 -0.16266215 0.36044633 -0.2778068 0.1319256 0.23967154 0.06655695 -0.13291429
0.14860117 -0.111584686 0.10246126 -0.24288185 0.13444708 -0.17293529 0.08793678 -0.056314047
0.105711885 -0.11320125 -0.15096568 -0.11583307 -0.030612309 -0.29362455 0.018794995 0.7100472
-0.10719737 -0.23399861 0.36357594 -0.12433821 -0.0065632276 -0.45284593 -0.34089902 0.0339558
-0.39944333 0.027771108 -0.24433559 0.20580555 0.1441881 0.08355875 -0.18332896 -0.19300167
-0.39095646 0.30853644 0.18368539 -0.10902965 0.13734388 0.048464943 -0.018604703 0.09946167
0.07971736 -0.11726453 -0.2752642 0.20182464 0.14247058 0.05120308 -0.62932456 -0.27466115
-0.10003236 0.10802896 -0.25323707 -0.11879128 -0.02657019 -0.27980086 0.021703025 0.008775385
-0.15044032 -0.05074012 -0.09930546 0.821426 -0.16829981 -0.09782353 -0.07767636 0.09638534
-0.09745935 -0.05550105 0.15125035 0.14045931 0.09869941 0.20205317 0.26191568 -0.15844855
0.15951224 0.085856594 -0.27267316 0.10469856 -0.13610123 0.07194623 0.12149498 0.2979355
0.044509407 0.18890367 -0.269166 0.104852416 -0.23374242 -0.1074033 -0.4276493 -0.124996126
-0.026846234 0.24932839 -0.20450118 0.09918435 -0.11045839 -0.30293912 -0.053306837 -0.3241535
0.0647076 -0.11308575 0.20655607 0.10683451 0.25233504 0.020234099 0.25399712 -0.28761864
-0.02033532 0.065736555 0.099107206 -0.18076223 0.19211029 -0.018979086 0.20910673 -0.06067101
0.44380277 -0.2778984 0.119252495 -0.19743007 0.2954417 0.3013143 0.5093124 -0.37954113
-0.054898314 -0.0786465 0.24342674 -0.061299935 -0.11346766 0.22886191 -0.043136757 -0.08094972
0.19771133 0.022385659 0.19241115 -0.1915125 0.17973183 -0.21980299 -0.012836312 -0.014875832
00000000: 5935 02be ca3d 3abe 9561 e3be 500e 08bd
00000010: f1fb 933e 2afd 803e 58e4 c5bd 8e32 f0be
00000020: ce47 dfbd 4b7d 1f3e e421 53be 1924 75be
00000030: 10c8 b93d 3d5e 303e f5da 123e f912 0f3d
00000040: ed22 723c 992d 933e d69b a9bd cbb0 833f
00000050: f21e 22bc ea2c c93d 8da3 39bd ea2d 0bbe
00000060: 1ae2 283e a7ac 8b3e 1e93 a0be a707 283e
00000070: d976 863e 8b4b 0ebe 7abb da3e a82b 7f3d
00000080: 190e 623e b7cf 61bd 0733 38be 2517 9dbd
00000090: 6724 3dbe c70f 913d 9ec4 923e bc62 b43c
000000a0: b669 fa3d ea55 a13e ad2c 95be 50b1 873e
000000b0: 5b53 193d c834 af3e 2de1 613d 1a7a 203e
000000c0: 737d ba3c d8ba f23d 0730 30be 4487 bcbe
000000d0: 8775 23be 2a7d 6ebe e47f ccbc 42b3 59bd
000000e0: 438d c23d 5e46 9dbd 4a9a e9bc 47db 603d
000000f0: 8aba 633d 29ed 28be 7a51 053e a8b5 12be
00000100: 513a 4bbe 43ae 97bd 70be 753d 7267 1d3d
00000110: e5ef 12be e9ed 583e daca 2b3e efc5 4e3d
00000120: 626b 83be af39 893d 1646 65be 2b3e 50bd
00000130: dabe 93be b9d7 29be 90a6 423c e8ae 473d
00000140: 66dc a23d fb5c 2fbe b432 dcbd f204 f43e
00000150: 908b 613d 6e57 45be f60a 15bd 19fd 183d
00000160: 0714 d03d 7d12 69be 1248 68bd 2d8f 8b3e
00000170: 423e 58bd 8f78 9cbd 53c0 503e 708f a9bd
00000180: bec7 61bc fc2f 643e 20ec 703e 0a29 f3bd
00000190: 2ab7 773e 5d9f 59bc 83af 2f3e 2a61 abbe
000001a0: 552d b93e f6e0 ff38 2422 1e3d f95d 1dbe
000001b0: 4dd4 843e 429f f53d 5357 ca3e 93b9 aebd
000001c0: 9144 1dbd e890 26be 6c8c b83e b13c 8ebe
000001d0: 8117 073e 756c 753e 034f 883d af1a 08be
000001e0: e82a 183e 8386 e4bd 36d7 d13d 05b6 78be
000001f0: 7fac 093e f315 31be 3318 b43d 8fa9 66bd
00000200: 797f d83d 0fd6 e7bd bf96 1abe e339 edbd
00000210: aac6 fabc f555 96be f6f7 993c a7c5 353f
00000220: 4b8a dbbd 559d 6fbe a026 ba3e 08a5 febd
00000230: 5810 d7bb 6cdb e7be 518a aebe 3d15 0b3d
00000240: d683 ccbe 3c80 e33c 1c33 7abe b1be 523e
00000250: 0ca6 133e da20 ab3d 96ba 3bbe 3ba2 45be
00000260: 722b c8be 7df8 9d3e 0618 3c3e f04a dfbd
00000270: e0a3 0c3e 2d83 463d e468 98bc 8fb2 cb3d
00000280: db42 a33d 6328 f0bd 6eef 8cbe 1eab 4e3e
00000290: cfe3 113e 52ba 513d 6a1b 21bf 63a0 8cbe
000002a0: c4dd ccbd 4a3e dd3d 4aa8 81be d848 f3bd
000002b0: baa9 d9bc 0f42 8fbe 8bca b13c a2c6 0f3c
000002c0: 070d 1abe dfd4 4fbd a960 cbbd f948 523f
000002d0: c956 2cbe b457 c8bd c914 9fbd ad65 c53d
000002e0: c598 c7bd 1255 63bd 5fe1 1a3e 91d4 0f3e
000002f0: eb22 ca3d 07e7 4e3e d019 863e 5640 22be
00000300: 2d57 233e 95d5 af3d d19b 8bbe 336c d63d
00000310: 1f5e 0bbe 8c58 933d 5cd2 f83d 008b 983e
00000320: 7f4f 363d f76f 413e 20d0 89be ddbc d63d
00000330: 2c5a 6fbe 43f6 dbbd d9f4 dabe f8fd ffbd
00000340: a2ec dbbc f14f 7f3e c268 51be 2a21 cb3d
00000350: 0238 e2bd d61a 9bbe 4558 5abd 73f7 a5be
00000360: 6b85 843d 8099 e7bd 6f83 533e 0dcc da3d
00000370: 0f32 813e fbc1 a53c e90b 823e c042 93be
00000380: 4296 a6bc e3a0 863d b8f8 ca3d bc19 39be
00000390: 8fb8 443e 077a 9bbc 1320 563e 2a82 78bd
000003a0: 1e3a e33e b348 8ebe a73a f43d 1c2b 4abe
000003b0: 2244 973e de45 9a3e 4c62 023f 3753 c2be
000003c0: 0edd 60bd 6b11 a1bd dc44 793e a415 7bbd
000003d0: bc61 e8bd c75a 6a3e 2bb0 30bd f8c8 a5bd
000003e0: d774 4a3e 2162 b73c 6e07 453e da1b 44be
000003f0: 9f0b 383e 0914 61be 654f 52bc c3b9 73bc

dec1.fe.FC3.bias f4 [32]
-0.12282516 0.070531085 0.23681435 -0.14357068 0.09424092 0.20701915 0.13345738 -0.14715096
-0.0019310855 0.11881922 -0.0937778 0.15039025 -0.07162412 0.07726712 0.07311639 -0.049019385
-0.08357026 0.13480885 -0.108112104 -0.009422403 0.06398475 0.017122032 0.18054709 0.06867714
0.12852871 -0.14662898 -0.045774546 -0.010880986 0.08527235 0.049477186 0.20319004 -0.096482605
00000000: c28b fbbd 9a72 903d 767f 723e 3104 13be
00000010: 6201 c13d d4fc 533e 0da9 083e beae 16be
00000020: 7a1c fdba 7e57 f33d 930e c0bd e7ff 193e
00000030: abaf 92bd 393e 9e3d 0cbe 953d 8dc8 48bd
00000040: e226 abbd 550b 0a3e e169 ddbd 6c60 1abc
00000050: 700a 833d 8143 8c3c 56e1 383e 9aa6 8c3d
00000060: 089d 033e e825 16be 177e 3bbd 2a46 32bc
00000070: 45a3 ae3d 97a8 4a3d 0d11 503e ac98 c5bd
