Lightcode/single/rate35/lightcode_single_rate35_snr1.pt (torch, 36244 bytes, 26 tensors)

enc.fe.FC1.weight f4 [32, 11]
0	0x3e52f91b	0.20602839
1	0xbea3a124	-0.31958878
2	0x3e3e222f	0.18567728
3	0xbd711515	-0.058857996
4	0x3da0e2ec	0.07855782
5	0x3dc366e9	0.09541113
6	0x3ec441ef	0.38331553
7	0x3d075e06	0.033048652
8	0xbd18ace3	-0.037274253
9	0xbd01c463	-0.03168143
10	0x3d76a9e4	0.060220614
11	0xbeaf3c9c	-0.3422593
12	0x3e187751	0.14889266
13	0x3db608ec	0.088884205
14	0x3d0f2060	0.034942985
15	0xbc6bc3ec	-0.014389973
16	0x3dc3fd72	0.09569825
17	0x3eb922b7	0.36159298
18	0x3bfb4c2e	0.0076689934
19	0x3d331255	0.043718655
20	0x3d3d3f80	0.046203136
21	0xbe794733	-0.24343567
22	0x3d539fe6	0.051666163
23	0xbe4dbbbb	-0.20091145
24	0xbe30864c	-0.1723873
25	0x3e27fe25	0.16405542
26	0xbe12d1df	-0.14337872
27	0x3e93c301	0.28859714
28	0xbe652070	-0.22375655
29	0x3e3a44b3	0.18190269
30	0x3d5eaab9	0.054362033
31	0x3e0cdb3f	0.13755511
32	0x3d8ba919	0.06819362
33	0xbe055506	-0.13020715
34	0xbdb59ec0	-0.0886817
35	0xbeb621d6	-0.3557269
36	0x3e4e7551	0.2016194
37	0x3ba19f49	0.0049323183
38	0x3e597a0e	0.21237966
39	0x3ecc773e	0.39934725
40	0x3d9c907e	0.07644747
41	0x3d187d83	0.037229072
42	0xbe3f1d42	-0.18663505
43	0x3e310c9b	0.17289965
44	0xbe436d01	-0.1908455
45	0xbdd143c9	-0.10218007
46	0x3e26d462	0.16291955
47	0xbc726968	-0.014795639
48	0x3de9cc76	0.11415951
49	0x3eb7d5ea	0.3590539
50	0x3e3ad781	0.1824627
51	0xbde3ee22	-0.111294046
52	0xbcccb111	-0.024986776
53	0x3d4bcbe4	0.049754992
54	0x3e26194d	0.16220589
55	0xbd640d5a	-0.055676796
56	0xbe421816	-0.189545
57	0xbe30273f	-0.17202471
58	0x3e787c85	0.2426625
59	0x3c0e8fa1	0.008701236
60	0xbdde132c	-0.108435005
61	0x3c94cf57	0.018165274
62	0x3ea1ccf4	0.3160168
63	0x3e49f78b	0.19723336
64	0x3c51ac0b	0.012797366
65	0x3e7c6638	0.24648368
66	0xbe17375c	-0.14767212
67	0xbc01caa4	-0.007921848
68	0x3e734bc7	0.23759376
69	0xbeacc661	-0.337451
70	0xbd1aa19e	-0.037751786
71	0x3ead8f34	0.33898318
72	0xbe86aa18	-0.26301646
73	0x3d02d3bc	0.031940207
74	0x3e1064fa	0.1410102
75	0xbc9f92da	-0.019479204
76	0xbda25775	-0.07926837
77	0x3e86b082	0.2630654
78	0xbeab3d0a	-0.33445007
79	0xbcca7768	-0.02471514
80	0xbe498bbf	-0.19682215
81	0x3d3cb3d3	0.04606993
82	0xbcecb4e2	-0.028894845
83	0xbd5350bf	-0.051590677
84	0xbb05607f	-0.0020351706
85	0xbc6d88f9	-0.014497989
86	0x3daec5fe	0.08533858
87	0xbeb46982	-0.35236746
88	0xbe8462aa	-0.25856525
89	0x3e08292b	0.13296954
90	0x3eb9bc77	0.362766
91	0xbe5f26d0	-0.2179215
92	0x3df182e3	0.11792543
93	0xbe4a7050	-0.19769406
94	0x3dfe3e94	0.124142796
95	0x3e63d5f7	0.2224959
96	0x3e1ae6c8	0.15127099
97	0x3e16ba29	0.14719452
98	0x3dbf1150	0.09329474
99	0xbe0cc481	-0.13746835
100	0xbe210d74	-0.15727788
101	0xbe8475c0	-0.25871086
102	0x3e0dae42	0.13836005
103	0x3e040f8e	0.12896559
104	0x3dd05d82	0.10174085
105	0x3ca71052	0.020393524
106	0xbeb5eeb0	-0.35533667
107	0xbd9e259c	-0.07722017
108	0xbc4036ce	-0.011731816
109	0xbe8044d7	-0.2505252
110	0x3e5d08a5	0.21585329
111	0x3ca654fe	0.0203042
112	0xbe81926b	-0.2530702
113	0xbcde21de	-0.027115759
114	0x3e6bbc85	0.23021133
115	0xbd7749e4	-0.060373202
116	0x3baecf8d	0.0053348006
117	0x3db4fd74	0.08837405
118	0xbe8e3506	-0.2777483
119	0xbdb85d05	-0.09002117
120	0x3d096468	0.03354302
121	0xbe5be989	-0.21475805
122	0x3c846a51	0.016163977
123	0xbe7c0ab7	-0.24613462
124	0x3e40c5dd	0.18825479
125	0xbce3ee20	-0.027823508
126	0xbe459f26	-0.19298992
127	0xbeaab671	-0.33342317
128	0xbe064575	-0.13112433
129	0xbd6605f8	-0.056158036
130	0x3e593ef7	0.21215425
131	0x3e5e21c4	0.21692568
132	0x3d8adc4b	0.06780299
133	0xbe110521	-0.14162113
134	0xbd73fefb	-0.05956934
135	0x3e32fcd4	0.17479259
136	0xbe5950fa	-0.21222296
137	0xbebba21b	-0.36647114
138	0x3eaddb74	0.33956492
139	0xbca14c13	-0.019689595
140	0x3da9212b	0.082582794
141	0x3d9054bf	0.07047414
142	0x3e047f5d	0.1293921
143	0xbd4a5fdf	-0.049407836
144	0x3eb1d96e	0.34736198
145	0xbe99b15a	-0.3001812
146	0x3e721f95	0.2364486
147	0xbd60972f	-0.05483168
148	0x3e4093ca	0.18806377
149	0xbe6cadf0	-0.23113227
150	0xbe2631cf	-0.16229938
151	0xbcaeb5f7	-0.021327002
152	0xbe5cf72b	-0.21578662
153	0x3dff0ae2	0.124532476
154	0x3e8fbd5f	0.28074166
155	0xbd0d4131	-0.034486
156	0x3e9c3a7a	0.30513364
157	0xbe689097	-0.22711407
158	0xbeb12fa4	-0.3460666
159	0xbe0d8d51	-0.13823439
160	0x3e6e0b1b	0.23246424
161	0xbe19aa38	-0.1500634
162	0xbde177dc	-0.110091895
163	0x3d070223	0.032961022
164	0xbc61a044	-0.01377112
165	0xbe358b0b	-0.17728822
166	0x3daaf1d6	0.08346908
167	0x3de12319	0.109930225
168	0xbc1ed113	-0.009693402
169	0xbe1e4cf4	-0.15459043
170	0x3efa123a	0.4884203
171	0xbed5b40e	-0.41738933
172	0xbdb7a16a	-0.08966334
173	0x3c429016	0.011875173
174	0x3a07da9c	0.00051824166
175	0xbe386777	-0.18008219
176	0xbad97801	-0.001659155
177	0xbdc1396e	-0.09434782
178	0x3e81b248	0.2533133
179	0x3e854376	0.2602803
180	0xbcce087f	-0.025150536
181	0x3e834488	0.25638223
182	0xbb3f09e3	-0.002915018
183	0xbdb56176	-0.0885648
184	0xbe134f0a	-0.1438562
185	0x3e44e786	0.19228944
186	0xbea1d375	-0.3160664
187	0xbe8f30ef	-0.2796702
188	0xbe323746	-0.17403898
189	0x3eaa7c0a	0.3329776
190	0xbe3f9558	-0.18709314
191	0xbe6ff5f2	-0.23433664
192	0x3deb2ef1	0.11483563
193	0xbe12626d	-0.14295359
194	0x3e74ac19	0.23893775
195	0xbca53648	-0.020167485
196	0x3dd807ac	0.10548338
197	0x3e320ca1	0.1738763
198	0x3df3e03b	0.11908003
199	0xbcc9179d	-0.024547393
200	0xbd270446	-0.04077556
201	0x3ea3d7c4	0.32000554
202	0x3dcd36e0	0.10020232
203	0xbdd6f9ed	-0.10496888
204	0xbe583fc3	-0.21118073
205	0x3e3a563d	0.1819696
206	0x3e1e57d9	0.15463199
207	0x3e7161ce	0.23572466
208	0x3d4e8f6f	0.050429758
209	0xbe71efcc	-0.23626631
210	0xbc59e29b	-0.013298656
211	0xbe8a3d65	-0.26999965
212	0xbe55e071	-0.20886399
213	0x3e0c7d79	0.13719739
214	0xbdc3c7d4	-0.095595986
215	0x3ea6fbc0	0.32613945
216	0x3d97996d	0.074023105
217	0xbdaf4e84	-0.085598975
218	0x3dad55b2	0.08463611
219	0xbe0381a7	-0.12842427
220	0x3d80d323	0.06290271
221	0x3d7634b7	0.060108867
222	0x3e86035a	0.26174432
223	0x3d2e2b2e	0.042521648
224	0xbd9fc74a	-0.07801683
225	0x3f4991f3	0.78738326
226	0x3db79ae2	0.089650884
227	0xbda911c4	-0.08255342
228	0xbdc05508	-0.093912184
229	0x3c456090	0.012046948
230	0x3d2892d1	0.04115564
231	0x3e869d71	0.26291993
232	0xbddc2a6f	-0.10750281
233	0xbd6c1974	-0.05764146
234	0x3e8128fa	0.25226575
235	0x3e7b8269	0.24561466
236	0xbe1f29ec	-0.15543336
237	0x3e68305d	0.22674699
238	0x3cc22cda	0.023703028
239	0xbd23e78b	-0.04001574
240	0xbd944703	-0.07240107
241	0xbc2a5658	-0.0103965625
242	0xbe7db49d	-0.2477593
243	0x3dc1f6c9	0.09470899
244	0x3cfd89b1	0.030949445
245	0xbc099cbb	-0.008399184
246	0x3ec3aad0	0.38216257
247	0x3c2f6f0e	0.01070763
248	0x3e2cda72	0.16880205
249	0x3cf95585	0.030436287
250	0xbe65d94a	-0.2244617
251	0xbb8a7266	-0.004225063
252	0xbd4488bf	-0.047981974
253	0xbebe8dc2	-0.37217528
254	0x3e403f41	0.1877413
255	0xbca2fcd3	-0.019895947

enc.fe.FC1.bias f4 [32]
0	0x3e90ae3f	0.2825794
1	0xbdd999ce	-0.10625039
2	0xbdb05709	-0.08610351
3	0xbdb931b7	-0.090426855
4	0xbe844b16	-0.25838536
5	0xbd95fb4b	-0.07323321
6	0x3e051b31	0.12998654
7	0x3e3dae9e	0.18523642
8	0x3e34e703	0.17666249
9	0x3d6a0243	0.057131063
10	0xbd3142bd	-0.043276537
11	0xbd9fe983	-0.07808211
12	0x3e289107	0.16461574
13	0x3c34a7d4	0.0110263415
14	0xbb8e7305	-0.0043472075
15	0x3c8b005e	0.016967949
16	0x3dea10af	0.114289634
17	0xbde521a1	-0.11188055
18	0xbce2a36d	-0.027665818
19	0xbe57ffa1	-0.21093608
20	0xbe3bcc53	-0.18339662
21	0x3e2f6f2a	0.1713225
22	0xbc7ab359	-0.015301549
23	0x3d92f0c0	0.07174826
24	0x3ecbfd2b	0.3984159
25	0xbc21e5bf	-0.009881436
26	0xbe1e9bc7	-0.15489112
27	0xbda778d8	-0.08177346
28	0xbc1952af	-0.009358092
29	0xbde1d44e	-0.11026822
30	0xbe8f6637	-0.2800767
31	0xbc3c4842	-0.011491837

enc.fe.FC2.weight f4 [32, 32]
0	0xbdc122ad	-0.09430442
1	0x3e40f363	0.18842845
2	0xbdf88027	-0.12133818
3	0x3d92f7e0	0.07176185
4	0x3e2ee659	0.17080058
5	0xbe090bfa	-0.13383475
6	0x3dcd34f1	0.100198634
7	0xbda61b0a	-0.08110626
8	0xbe500ae5	-0.20316656
9	0x3e08531e	0.13312957
10	0x3eae5948	0.3405249
11	0x3de2cb2a	0.11073907
12	0xbea8fb0e	-0.3300404
13	0x3a5ac04b	0.0008344694
14	0xbab606bf	-0.0013887509
15	0x3e5dd93c	0.216649
16	0xbda73c67	-0.08165818
17	0x3e02043d	0.1269693
18	0xbe23cc45	-0.15995891
19	0x3de0f5cb	0.10984381
20	0x3d35b7db	0.04436479
21	0xbeddd1d1	-0.4332414
22	0x3db590f8	0.08865541
23	0x3dd0d78f	0.101973645
24	0xbda3e669	-0.080029316
25	0xbe17bffd	-0.14819331
26	0xbdf21359	-0.118200965
27	0xbbc6d720	-0.0060681254
28	0x3cd92966	0.026508998
29	0x3d5b50c6	0.05354383
30	0xbe898360	-0.26858044
31	0x3dfdd778	0.12394613
32	0xbea07a91	-0.3134351
33	0xbeea5752	-0.45769745
34	0xbdb27876	-0.08714382
35	0x3d42f602	0.047597893
36	0xbc6abff9	-0.014327996
37	0x3e387955	0.18015034
38	0xbe483faa	-0.19555536
39	0xbd9e016c	-0.07715115
40	0xbb8ecae9	-0.004357685
41	0xbc85d3cb	-0.016336342
42	0xbdbbcd3e	-0.09170006
43	0x3e2056e9	0.15658154
44	0xbe2e94bb	-0.17048924
45	0x3e279461	0.16365196
46	0xbd805356	-0.06265895
47	0x3dbefd6c	0.0932568
48	0x3d8d9d22	0.06914736
49	0xbba0bf4a	-0.004905616
50	0x3e61fb88	0.22068608
51	0x3e6df90f	0.2323954
52	0xbe4d26f5	-0.20034392
53	0xbe55183c	-0.20810026
54	0xbda20412	-0.079109326
55	0xbe980798	-0.29693294
56	0xbd151985	-0.03640129
57	0x3d14d93b	0.03633998
58	0xbe0fdb76	-0.14048561
59	0x3da66626	0.08124952
60	0x3dfe9b25	0.12431935
61	0xbe0609d9	-0.13089694
62	0xbc86369d	-0.016383464
63	0x3d40cbcc	0.047069356
64	0xbc5ef612	-0.013608472
65	0x3dcedb2b	0.10100397
66	0x3d9aba26	0.07555036
67	0xbd2e555b	-0.04256187
68	0x3ce9e342	0.028550748
69	0x3b54fcc1	0.0032499286
70	0xbc9b1d5a	-0.018934894
71	0xbcab8bb6	-0.020940643
72	0xbe192bcb	-0.14958112
73	0x3dc13e1e	0.09435676
74	0x3c77825b	0.015106763
75	0xbe161c8c	-0.14659327
76	0x3dfa1a56	0.122120544
77	0x3d4279af	0.047479328
78	0xbe32296b	-0.17398612
79	0x3dadb5a0	0.08481908
80	0x3d91a3c6	0.071113154
81	0xbdc7ae3a	-0.09750028
82	0x3d34636c	0.04404013
83	0xbdb90521	-0.090341814
84	0x3dc42f4a	0.09579332
85	0xbdc0c7bd	-0.09413097
86	0x3dd0d7da	0.101974204
87	0x3e284383	0.16432004
88	0x3e114e75	0.14190085
89	0xbcf7765f	-0.03020781
90	0x3d7db108	0.06193641
91	0x3cca8d7e	0.024725672
92	0xbd3af326	-0.04564204
93	0x3dab6004	0.08367923
94	0x3d93b391	0.07211984
95	0x3d82846a	0.06372912
96	0xbe849f49	-0.25902775
97	0xbd232a90	-0.039835513
98	0x3c7c81f5	0.015411844
99	0x3ccb3a86	0.02480818
100	0xbe8768f0	-0.26447248
101	0xbdf6b29f	-0.12045788
102	0xbe4f7d83	-0.20262723
103	0xbe862ef9	-0.26207712
104	0x3e446488	0.19178975
105	0x3dea5780	0.114424706
106	0xbe7a11f7	-0.24420916
107	0x3e06f767	0.13180314
108	0x3caa5534	0.020792581
109	0x3e4f7714	0.20260268
110	0x3d9eeae3	0.07759645
111	0x3c6619bb	0.014044221
112	0x3da7cc7f	0.081933014
113	0xbd69f155	-0.057114918
114	0xbe269e9c	-0.16271442
115	0x3e2afad2	0.16697243
116	0xbf1b5625	-0.6067832
117	0xbede612a	-0.43433505
118	0x3e7c816d	0.24658747
119	0x3d807f9b	0.06274339
120	0x3db521bc	0.08844325
121	0x3d78b72b	0.060721558
122	0x3f011044	0.50415444
123	0x3df4dea4	0.11956528
124	0xbd940b25	-0.07228688
125	0xbe010a95	-0.12601693
126	0x3e26b6e5	0.16280706
127	0xbd083c11	-0.03326041
128	0xbdf33073	-0.11874475
129	0x3e755f7e	0.23962209
130	0x3d9c92e8	0.07645208
131	0xbdf5cdce	-0.12002145
132	0x3dde8d60	0.10866809
133	0x3e82d7b8	0.25555205
134	0xbddc6506	-0.10761456
135	0xbe6f192b	-0.23349445
136	0x3be0ed9e	0.0068642637
137	0x3b07b5f7	0.0020707825
138	0xbd081d60	-0.03323114
139	0x3e01b326	0.12665996
140	0xbc8e9383	-0.017404323
141	0xbe3eb6eb	-0.18624465
142	0xbc8d8503	-0.017275339
143	0x3d8863f6	0.06659691
144	0x3d690b32	0.056895442
145	0x3d7ae05e	0.06124913
146	0x3e14f648	0.14547074
147	0x3d15997b	0.036523324
148	0xbdbbc569	-0.091685124
149	0xbddce9b3	-0.10786762
150	0xbdeb2af7	-0.11482804
151	0xbcaceeec	-0.02111002
152	0xbe015d68	-0.12633288
153	0xbd80588f	-0.06266891
154	0x3ec2d04d	0.38049546
155	0xbf137511	-0.57600504
156	0xbd8b176c	-0.06791577
157	0x3d08a0d1	0.03335649
158	0x3ddfec8a	0.10933788
159	0x3d53c615	0.051702578
160	0xbdc20edb	-0.0947549
161	0xbf3859c8	-0.72011995
162	0x3e17debc	0.1483106
163	0xbd7e95e5	-0.06215467
164	0xbdc3dd69	-0.09563715
165	0x3e8ea3da	0.27859384
166	0x3e602cb9	0.2189206
167	0xbcec2ad5	-0.028829018
168	0x3ea86a36	0.32893533
169	0x3eab00ac	0.3339895
170	0xbd85e436	-0.065376684
171	0xbd26f094	-0.040756777
172	0x3d13ee1d	0.036115754
173	0xbefd3df4	-0.4946133
174	0xbec308b1	-0.3809257
175	0xbde978ba	-0.1139998
176	0xbe0d2045	-0.13781841
177	0xbb317ae3	-0.0027081303
178	0x3e25768c	0.16158503
179	0xbee5af16	-0.44860142
180	0x3e167924	0.14694649
181	0xbddb20bf	-0.10699605
182	0xbe6f3ed8	-0.23363817
183	0xbd3ea834	-0.04654713
184	0xbcd834f2	-0.026392434
185	0xbebf8ea7	-0.37413523
186	0x3e8e70ca	0.27820426
187	0xbf81226b	-1.0088629
188	0xbcb61b7c	-0.022229902
189	0x3d66f622	0.056387074
190	0xbdd77e58	-0.10522145
191	0xbd9a4ab3	-0.07533779
192	0xbca15729	-0.019694882
193	0xbf139311	-0.5764628
194	0x3cf5cc44	0.030004628
195	0x3d6af04f	0.057358082
196	0x3e281f5e	0.16418216
197	0x3de87c00	0.11351776
198	0xbdbe7b01	-0.09300805
199	0x3d360b6c	0.044444486
200	0xbedf290e	-0.4358601
201	0x3e4c9667	0.19979249
202	0x3cb4f6f1	0.022090407
203	0xbe45e223	-0.19324546
204	0x3c164375	0.009171356
205	0xbe320632	-0.17385176
206	0xbe51ed70	-0.20500731
207	0x3e4ff289	0.20307364
208	0xbd915e41	-0.07098056
209	0xb8cc4fb0	-9.742321e-05
210	0x3e47db68	0.1951729
211	0x3eda90b4	0.42688525
212	0xbdafdd5d	-0.085871436
213	0x3e0e3226	0.13886318
214	0x3d0b3f5a	0.033995964
215	0x3dac5f9c	0.084166735
216	0x3d28d368	0.041217238
217	0x3c187594	0.009305377
218	0xbf195da4	-0.5990851
219	0xbe1b2b8d	-0.15153332
220	0x3d98311d	0.074312426
221	0x3cd7933a	0.02631532
222	0x3e058c5d	0.13041826
223	0x3df12b0c	0.11775789
224	0x3db18a2e	0.08668934
225	0xbe3f4d2e	-0.18681785
226	0x3e19171c	0.14950222
227	0x3d8cd068	0.06875688
228	0xbcd80d2b	-0.026373466
229	0x3dc36504	0.095407516
230	0xbdd1f4d4	-0.102517754
231	0xbc78bc8d	-0.015181673
232	0x3d04fffc	0.03247069
233	0x3c530629	0.012879887
234	0x3e42bd3b	0.19017498
235	0xbe140fc9	-0.14459147
236	0x3e133c18	0.14378393
237	0x3e4c823b	0.19971554
238	0xbd807d0e	-0.06273852
239	0xbe00ee75	-0.12590964
240	0xbd1bc847	-0.038032796
241	0x3e3d36cf	0.18477939
242	0xbde50229	-0.11182053
243	0xbe2785e7	-0.16359673
244	0x3d52035a	0.051272728
245	0x3e1db066	0.15399322
246	0x3e008f65	0.125547
247	0xbb9cbed8	-0.0047834925
248	0xbd5b0642	-0.053472765
249	0xbde9b46b	-0.11411365
250	0x3eb4278f	0.3518643
251	0x3da99003	0.08279421
252	0x3d4c7e0f	0.049924906
253	0x3e2b6fef	0.16741918
254	0x3e1114dd	0.14168115
255	0x3dfc067f	0.123059265

enc.fe.FC2.bias f4 [32]
0	0xbd56d997	-0.052453604
1	0xbce03e71	-0.027373524
2	0x3dd15986	0.10222153
3	0x3cc28705	0.023746023
4	0xbd888956	-0.0666682
5	0xbe5fe366	-0.2186409
6	0xbdea2198	-0.11432189
7	0xbd910c33	-0.07082405
8	0xbd76ba29	-0.06023613
9	0xbe3ffa46	-0.18747815
10	0xbc92a2a2	-0.017899815
11	0x3d5ef9ed	0.054437567
12	0x3dbcbc8c	0.0921565
13	0xbd24cc55	-0.04023393
14	0x3d379162	0.044816382
15	0xbdeeb6e2	-0.11655976
16	0x3c8fa191	0.017533096
17	0x3ddc68d0	0.10762179
18	0xbdf863d0	-0.12128413
19	0xbe2b8284	-0.16749007
20	0xbe02e1d3	-0.12781458
21	0xbe6ddd15	-0.23228867
22	0x3e000184	0.12500578
23	0x3da90646	0.0825315
24	0x3db1d52d	0.08683238
25	0xba18552a	-0.000581103
26	0x3cfdc0d6	0.03097574
27	0xbe237311	-0.15961863
28	0x3e361257	0.17780434
29	0xbcdb419f	-0.026764689
30	0xbe3f3114	-0.18671066
31	0xbdd37858	-0.10325688

enc.fe.FC3.weight f4 [32, 32]
0	0xbe451571	-0.1924646
1	0x3db7f746	0.089827105
2	0x3ca03d0f	0.019560365
3	0xbe46794c	-0.19382209
4	0xbc98bcfc	-0.018644802
5	0xbda713c1	-0.08158065
6	0xbe0962dc	-0.13416618
7	0xbdee4200	-0.11633682
8	0x3c6b8d4a	0.014376948
9	0x3c9d96c5	0.019236932
10	0xbe536fd6	-0.20648131
11	0xbe1af639	-0.15132989
12	0x3d790dbf	0.060804125
13	0xbcab0417	-0.020875974
14	0x3e618bf9	0.22026052
15	0x3e5ad24b	0.21369283
16	0x3d09f40e	0.033680014
17	0x3c82430c	0.015901111
18	0xbc5e4d70	-0.013568267
19	0xbd9f7842	-0.07786609
20	0x3d79d7d4	0.060996845
21	0x3d18c6d6	0.037299
22	0x3e0a6f48	0.13519013
23	0xbe36a7da	-0.17837468
24	0x3d832d15	0.06405083
25	0xbb8d514a	-0.004312669
26	0xbe3fe7eb	-0.18740813
27	0x3e1d335f	0.15351628
28	0x3e15970b	0.146084
29	0xbea71399	-0.3263214
30	0x3e44fa43	0.19236092
31	0x3e0f3c60	0.13987875
32	0xbdc80d14	-0.097681195
33	0x3d2832d2	0.04106409
34	0x3c4fc395	0.012680908
35	0xbe721161	-0.23639442
36	0x3d3eabfc	0.046550736
37	0x3dea72b9	0.11447663
38	0xbe70561a	-0.23470345
39	0x3dfb7f05	0.122800864
40	0x3d43bf0b	0.047789615
41	0x3dac3e9e	0.08410381
42	0xbd0e0366	-0.03467121
43	0xbe85b688	-0.26115823
44	0xbde681ca	-0.11255224
45	0x3d3795c3	0.04482056
46	0x3d992203	0.0747719
47	0x3e765eb6	0.24059567
48	0xbec530b8	-0.38513732
49	0x3c367f59	0.0111387605
50	0xbe05c7df	-0.13064526
51	0xbe29ec88	-0.16594136
52	0x3e09be7f	0.13451575
53	0xbda38023	-0.079834245
54	0xbd212d87	-0.03935006
55	0xbdf9f187	-0.12204271
56	0xbd0cf548	-0.034413606
57	0xbe4d9189	-0.20075049
58	0x3cfdba01	0.030972483
59	0xbc58ffdc	-0.013244595
60	0x3e540bda	0.20707646
61	0xbde22f0d	-0.110441305
62	0x3dcc9efd	0.09991262
63	0xbdadcd41	-0.08486415
64	0xbcc6bb00	-0.02425909
65	0xbe2badcb	-0.16765516
66	0x3de21924	0.110399514
67	0x3c65cd64	0.01402602
68	0xbe65b033	-0.22430496
69	0x3e27fe25	0.16405542
70	0x3e1a3573	0.15059452
71	0x3e8a7c74	0.27048075
72	0x3e1a434d	0.15064736
73	0x3d949d0e	0.07256518
74	0xbc17fee3	-0.009277078
75	0xbe02432a	-0.12720934
76	0xbd700fab	-0.058608692
77	0x3d91353c	0.07090232
78	0x3e38d690	0.18050599
79	0x3e4075fb	0.18795006
80	0xbd6c86b6	-0.057745658
81	0x3d84ef0a	0.064909056
82	0xbd8336b0	-0.06406915
83	0xbdfc8d01	-0.12331582
84	0x3e1330b1	0.14374043
85	0x3d45dc8a	0.048306026
86	0xbb77b399	-0.0037796258
87	0x3deaaf71	0.11459244
88	0x3db7b44d	0.089699365
89	0xbe404a89	-0.18778433
90	0x3cbbed66	0.022940349
91	0xbe2ddd3b	-0.16978924
92	0xbd52a882	-0.051430233
93	0xbcd4dc29	-0.025983887
94	0x3da7cab6	0.08192961
95	0x3ded91c6	0.1160007
96	0xbd9439d9	-0.07237596
97	0x3ec33e00	0.3813324
98	0xbdc83ad7	-0.09776848
99	0xbd77109b	-0.06031857
100	0xbcf4e15a	-0.029892612
101	0xbe33dee5	-0.17565496
102	0xbe74c0e5	-0.23901708
103	0x3e025901	0.12729265
104	0xbd5aeaf4	-0.053446725
105	0x3ea40ac6	0.3203947
106	0xbe2458a5	-0.1604944
107	0xbc46d9e6	-0.012136912
108	0x3d3a68a4	0.04550995
109	0xbd9fc267	-0.07800751
110	0x3dcaf861	0.09910656
111	0xbc46b9ea	-0.012129286
112	0x3de378b2	0.11107005
113	0xbd799694	-0.060934618
114	0x3d9eeece	0.07760392
115	0xbc7297ad	-0.01480667
116	0x3c12eb15	0.008967181
117	0x3d1047b6	0.03522464
118	0x3dbc7860	0.09202647
119	0xbd84e0d1	-0.06488193
120	0x3d56ef15	0.0524741
121	0xbdde1080	-0.10842991
122	0xbdcfa359	-0.10138578
123	0x3d8e86c5	0.06959299
124	0x3e0af13c	0.13568586
125	0x3db4c58e	0.08826743
126	0xbbfba113	-0.0076791137
127	0xbda31c72	-0.0796441
128	0x3e7fde50	0.24987149
129	0xbec77d9b	-0.38963017
130	0xbcf3d26b	-0.029763421
131	0x3d3e6c2f	0.04648989
132	0x3e7d2cc7	0.24724112
133	0x3e8805ca	0.26566917
134	0x3e009ca1	0.12559749
135	0xbd9203ba	-0.07129617
136	0xbe5a7545	-0.21333797
137	0xbe07fb1c	-0.13279384
138	0x3e36dd8e	0.17857954
139	0xbd5f2d95	-0.05448683
140	0xbd8aea5d	-0.067829825
141	0x3dc1985b	0.094528876
142	0xbd709b2a	-0.058741726
143	0xbddf7150	-0.109102845
144	0x3deea1ec	0.11651978
145	0x3e259bff	0.16172789
146	0xbdc188d1	-0.09449924
147	0x3e5879a1	0.21140148
148	0xbd418ee6	-0.04725542
149	0x3dc88183	0.097903274
150	0xbe015722	-0.12630895
151	0x3db531cb	0.08847388
152	0xbe319929	-0.17343582
153	0x3e3ac24a	0.18238178
154	0x3e0c5735	0.13705142
155	0xbea2a25d	-0.31764498
156	0xbe82219a	-0.2541626
157	0xbd71e1c4	-0.059053198
158	0xbcccb787	-0.024989856
159	0xbd68bd56	-0.05682119
160	0x3e07f6c7	0.13277732
161	0x3ecf9f3a	0.40551168
162	0xbd2c6ef4	-0.042098
163	0xbc5b6e06	-0.013392931
164	0x3f580ebb	0.84397477
165	0x3df26d02	0.11837198
166	0xbe56d723	-0.20980506
167	0x3c74d42f	0.014943167
168	0xbe3bb14c	-0.18329352
169	0x3d289050	0.041153252
170	0x3c8edf76	0.017440539
171	0xbdc3a8f6	-0.09553711
172	0x3e6b5b9f	0.2298417
173	0x3ce29db8	0.027663097
174	0xbd01595e	-0.031579368
175	0x3e076341	0.13221456
176	0xbdd7ed80	-0.105433464
177	0xbce39f80	-0.027786016
178	0x3ca262cf	0.019822506
179	0x3cf4bd80	0.029875517
180	0xbcd6c63f	-0.026217578
181	0xbe219964	-0.1578117
182	0xbcad2851	-0.021137388
183	0x3eba46c7	0.36382124
184	0xbe02f29d	-0.12787862
185	0xbcdf4064	-0.027252384
186	0x3d8f3bdc	0.06993839
187	0xbe34275d	-0.17593141
188	0x3e6748e9	0.22586407
189	0xbe919a38	-0.28437972
190	0xbea2161d	-0.31657496
191	0xbe36048f	-0.17775176
192	0x3d5753a6	0.052570008
193	0xbeab478e	-0.3345303
194	0x3d31c31d	0.043398965
195	0x3e5c3ede	0.21508357
196	0x3ee5f022	0.4490977
197	0x3e16cf98	0.14727628
198	0x3d4e6d37	0.050397124
199	0x3dc2c2f8	0.095098436
200	0xba9ba729	-0.0011875379
201	0x3c962aaf	0.0183309
202	0xba915dae	-0.0011090541
203	0xbe734c6d	-0.23759623
204	0x3d8952cf	0.067052476
205	0xbd452b95	-0.048137266
206	0x3da07a8a	0.078358725
207	0xbd996aeb	-0.07491096
208	0xbde03c84	-0.109490424
209	0xbd670267	-0.056398775
210	0x3c886097	0.01664762
211	0x3df0600b	0.11737069
212	0xbe760489	-0.24025168
213	0xbd55e623	-0.05222143
214	0xbe3772d2	-0.17914894
215	0x3eab3f3f	0.3344669
216	0xbe612aad	-0.21988936
217	0x3e0abb84	0.13548094
218	0x3c6e3d67	0.014541007
219	0xbe9ee744	-0.31035817
220	0xbe5ebbf0	-0.2175138
221	0xbdc2b564	-0.09507254
222	0x3d724850	0.059150994
223	0x3dbc4a33	0.0919384
224	0xbe88206b	-0.26587233
225	0x3daad5a1	0.08341528
226	0x3cf3219a	0.029679108
227	0xbe56a3d0	-0.20960927
228	0xbe9efed2	-0.31053787
229	0xbe9911de	-0.29896444
230	0xbe75dabf	-0.24009226
231	0x3daa18d3	0.08305516
232	0x3cf6f3b1	0.030145498
233	0x3de40875	0.111344256
234	0xbe96757e	-0.29386514
235	0x3debdbcf	0.115165345
236	0xbd2571e0	-0.040391803
237	0xbe1331ca	-0.14374462
238	0x3e3caee7	0.18426095
239	0x3e1e8f57	0.15484367
240	0xbce46de9	-0.02788444
241	0xbcb35229	-0.021889763
242	0xbe4f2b32	-0.20231321
243	0x3d8b4065	0.06799392
244	0x3d61f670	0.05516666
245	0x3dc3a405	0.095527686
246	0x3db4388d	0.08799849
247	0xbde94cdf	-0.11391615
248	0x3e5097bf	0.20370387
249	0xbde57aed	-0.11205087
250	0xbe54489b	-0.20730822
251	0x3e9583f7	0.29202244
252	0x3e482083	0.19543652
253	0xbdf9f525	-0.12204961
254	0x3e3b90a1	0.1831689
255	0x3dadd4c6	0.08487849

enc.fe.FC3.bias f4 [32]
0	0x3dc0c619	0.09412784
1	0x3dbdd0b3	0.09268322
2	0x3ac1b554	0.0014778771
3	0xbd415e62	-0.04720915
4	0x3e08f7ef	0.13375829
5	0x3cecd4cd	0.028910065
6	0x3e13594a	0.1438953
7	0xbe061f6d	-0.13097925
8	0xbdc235f9	-0.09482951
9	0xbddde7ce	-0.10835229
10	0x3c94c607	0.018160833
11	0x3e137dae	0.14403412
12	0xbca719cc	-0.020398043
13	0xbce2f2c5	-0.027703652
14	0xbcd6e07a	-0.026230086
15	0x3e50bac9	0.20383753
16	0x3d51b81f	0.051200982
17	0xbe1cb17f	-0.15302084
18	0xbd404392	-0.04693944
19	0xbe45127c	-0.19245332
20	0x3b507ab8	0.0031811427
21	0x3d2075eb	0.039174955
22	0xbdedb11b	-0.11606046
23	0xbd07779f	-0.033073064
24	0xbb814c2f	-0.0039458494
25	0xbddc7a4f	-0.10765516
26	0x3d51ff79	0.05126903
27	0xbadee3ef	-0.0017005185
28	0xbcde2c56	-0.02712075
29	0x3bd6a39f	0.006550267
30	0x3d9784eb	0.07398399
31	0x3de57299	0.112034984

enc.fe.FC4.weight f4 [16, 64]
0	0xbe906a39	-0.2820604
1	0xbe7b29e9	-0.24527706
2	0x3df6fb0b	0.120596014
3	0xbd783fc9	-0.060607705
4	0x3dbc57f4	0.09196463
5	0xbe4dc05d	-0.20092912
6	0xbe65afea	-0.22430387
7	0xbdd91580	-0.10599804
8	0xbdf3a058	-0.118958175
9	0x3ea0cc10	0.31405687
10	0xbec11aec	-0.37715852
11	0xbedc2761	-0.42998794
12	0xbe101116	-0.14069018
13	0xbdd0d8d4	-0.10197607
14	0xbdbf58f7	-0.093431406
15	0xbea13db0	-0.31492376
16	0xbebddb72	-0.37081486
17	0xbe8be2ff	-0.27321622
18	0x3dbb3980	0.09141827
19	0x3e51f825	0.20504816
20	0xbbd1857c	-0.0063940864
21	0x3e82e2a0	0.25563526
22	0x3dc16143	0.09442379
23	0xbe2a2dbb	-0.16619007
24	0x3e1fb690	0.15596986
25	0xbdfaa628	-0.12238723
26	0xbe356174	-0.17712957
27	0xbe50fa2b	-0.20407932
28	0xbe8c4fe6	-0.27404708
29	0xbbdf56c4	-0.006815763
30	0x3dc9c925	0.098528184
31	0x3e6b4f99	0.22979583
32	0x3dd8e970	0.105914
33	0xbd069915	-0.032860834
34	0xbe258f3f	-0.16167925
35	0xbe761411	-0.24031092
36	0xbe3a18bf	-0.18173502
37	0xbe214965	-0.15750654
38	0x3df26199	0.118350215
39	0x3e4551e4	0.1926952
40	0xbc590897	-0.013246677
41	0xbcaff8ff	-0.021481035
42	0xbdf2965e	-0.118450865
43	0xbe8cd3a9	-0.27505234
44	0x3dccc27c	0.099980325
45	0xbe2ec945	-0.17068966
46	0x3e00533c	0.12531751
47	0x3d9ca62c	0.07648882
48	0x3e19a5dd	0.15004678
49	0x3c981baa	0.018567879
50	0xbe2425d8	-0.16030061
51	0xbbe478c7	-0.0069724056
52	0xbdf7e383	-0.12103941
53	0x3d68797c	0.05675648
54	0x3e1bc43e	0.15211579
55	0xbd54d836	-0.051964007
56	0x3d94fccd	0.072747804
57	0xbe2066ef	-0.15664266
58	0x3d95629a	0.072941974
59	0xbe0bbb1c	-0.13645595
60	0xbe0c779f	-0.13717507
61	0xbdc6caac	-0.09706625
62	0xbb3dbe54	-0.0028952556
63	0xbce7cb19	-0.028295087
64	0xbe3e48d8	-0.18582475
65	0x3c3a2a07	0.011362559
66	0x3d41e19f	0.04733431
67	0xbdd3038e	-0.103034124
68	0x3d126768	0.035743147
69	0xbdc506cc	-0.09620437
70	0x3d871416	0.06595628
71	0xbe593965	-0.212133
72	0x3d0fb0b4	0.035080627
73	0xbdb4e110	-0.0883199
74	0xbe19c0df	-0.1501498
75	0xbd9157ac	-0.070968
76	0x3e93da56	0.28877515
77	0xbdbed1d0	-0.09317362
78	0x3d13008a	0.035889186
79	0xbd500338	-0.05078432
80	0xbcdaf8e6	-0.026730012
81	0x3d11d220	0.03560078
82	0xbe5bee79	-0.21477689
83	0x3db40b9c	0.08791277
84	0x3e690942	0.22757438
85	0xbd66d785	-0.05635788
86	0xbe235ec3	-0.15954117
87	0xbcd7e631	-0.026354881
88	0xbbdeb99f	-0.00679703
89	0x3d029f44	0.03189017
90	0x3e1b2518	0.15150869
91	0x3d86034b	0.06543597
92	0xbd4c85fd	-0.04993247
93	0xbdb4bf5b	-0.08825561
94	0xbc1c0c31	-0.009524391
95	0x3e0be337	0.13660894
96	0xbc56469e	-0.01307836
97	0x3c0254ed	0.007954818
98	0xbd53ad22	-0.051678784
99	0xbd841a25	-0.06450299
100	0xbd9d15c6	-0.076701686
101	0xbdd412fb	-0.10355183
102	0xbd6a0f06	-0.057143234
103	0x3d8ae968	0.067828
104	0xbdc67011	-0.09689344
105	0x3db2d168	0.08731347
106	0x3e0fbf39	0.1403779
107	0xbc0de2a3	-0.008659991
108	0xbbbbae22	-0.0057275454
109	0x3dd1ed74	0.10250369
110	0x3aea2fed	0.0017867066
111	0xbdb21d2d	-0.08696971
112	0xbde15a3f	-0.11003541
113	0xbde60c3b	-0.112328015
114	0x3caea841	0.021320464
115	0xbda8caf3	-0.082418345
116	0xbcbd4e97	-0.023108764
117	0xbd79b487	-0.06096318
118	0x3cdb8eef	0.026801554
119	0x3cd94cfe	0.02652597
120	0x3da25cc1	0.07927848
121	0x3da108ba	0.078629926
122	0x3d2b2588	0.04178384
123	0x3dbfc029	0.093628235
124	0x3d68c8b2	0.056832023
125	0xbd337886	-0.043816112
126	0x3d93c4d7	0.072152786
127	0x3dbb2546	0.09137969
128	0x3d682b45	0.05668189
129	0x3e0a10a6	0.13482913
130	0xbd865ce5	-0.06560687
131	0x3d9b65c0	0.07587767
132	0xbd18b98f	-0.037286337
133	0x3e7d9ddb	0.24767248
134	0x3e84dcd4	0.25949728
135	0xbdba05c3	-0.0908313
136	0x3e2e5833	0.17025833
137	0xbdeab248	-0.11459786
138	0x3e2d0c16	0.16899142
139	0x3e00e9ee	0.12589237
140	0xbb1ea956	-0.0024209819
141	0x3e0084a6	0.12550601
142	0x3e904f1d	0.2818536
143	0x3d9c13b9	0.07620949
144	0x3ea36537	0.31913158
145	0x3e0e9505	0.13924034
146	0xbde54188	-0.1119414
147	0x3dbbd6ab	0.09171804
148	0x3e25f5e2	0.16207078
149	0xbdbd7b78	-0.092520654
150	0xbc3005ae	-0.010743542
151	0x3e2925c8	0.16518319
152	0xbda036ff	-0.0782299
153	0xbdc06ed3	-0.09396138
154	0x3dc9879e	0.0984032
155	0x3dcdccfd	0.10048864
156	0x3e072632	0.13198164
157	0xbe05871a	-0.13039818
158	0xbdb6a144	-0.08917478
159	0xbea41b08	-0.32051873
160	0xbe131ce0	-0.14366484
161	0xbe3ac0ff	-0.18237685
162	0x3d6e4c1e	0.05817806
163	0x3da0a7ae	0.07844482
164	0xbe5c7568	-0.21529162
165	0x3c885241	0.016640784
166	0xbda7bd49	-0.081904
167	0xbd1bdb42	-0.038050897
168	0xbdc22030	-0.094787955
169	0x3ca1951a	0.019724417
170	0x3e55b182	0.20868495
171	0xbdba02d6	-0.09082572
172	0xbdbc22a0	-0.09186292
173	0x3d93ff1d	0.07226393
174	0xbe11fa7b	-0.14255707
175	0x3deba67f	0.11506366
176	0xbdfe1a17	-0.1240732
177	0x3c8a72ba	0.016900409
178	0x3d810069	0.06298906
179	0x3d6caf7c	0.057784542
180	0xbe252203	-0.16126256
181	0x3dc71d0d	0.09722338
182	0xbda0b4c1	-0.07846976
183	0x3dcd69f3	0.10029974
184	0x3e3cd23d	0.18439575
185	0xbd843eb1	-0.0645727
186	0xbd0f7210	-0.035020888
187	0xbe16208d	-0.14660855
188	0xbe183b5c	-0.14866394
189	0xbe050745	-0.12991054
190	0xbe0e44a5	-0.13893373
191	0xbc027f3c	-0.007964905
192	0x3e488c7b	0.19584839
193	0x3c1bc16c	0.009506565
194	0xbdbe8538	-0.09302753
195	0x3d1ae713	0.037818026
196	0xbe3a4655	-0.18190892
197	0xbc7f0a81	-0.015566469
198	0xbe02eb8d	-0.12785168
199	0x3d988bdb	0.0744855
200	0xbdaacdd9	-0.083400436
201	0xbdcbdaa3	-0.09953811
202	0xbc258ae6	-0.010103917
203	0x3e0783c1	0.13233854
204	0xbe3a87fc	-0.18215936
205	0x3e144271	0.1447847
206	0xbca203b7	-0.019777162
207	0x3ce7f337	0.028314216
208	0x3df5ba84	0.11998466
209	0xbd9ce6c6	-0.07661204
210	0x3de8ee6c	0.113736
211	0xbdda64ed	-0.10663781
212	0xbd17fc42	-0.037105806
213	0x3e214932	0.15750578
214	0x3dfb4e40	0.122707844
215	0x3e5dc6d6	0.21657881
216	0x3d96a96b	0.07356533
217	0xbb9f81db	-0.004867775
218	0xbd88ea63	-0.06685331
219	0x3e3e4c7c	0.18583864
220	0x3d7b92c3	0.06141926
221	0x3aaa1822	0.0012977163
222	0x3e3f226b	0.18665473
223	0x3c44e69b	0.012017871
224	0x3a3f2bc5	0.0007292594
225	0x3d5a7214	0.05333145
226	0x3dacdcf7	0.08440583
227	0xbdf25511	-0.118326314
228	0x3c8059b6	0.015667778
229	0xbd346f83	-0.04405166
230	0x3c1ea0d8	0.009681903
231	0xbcfee262	-0.031113807
232	0x3d599d51	0.053128544
233	0xbdcfe9a0	-0.10151982
234	0xbdc3a7f0	-0.09553516
235	0x3d5bc9af	0.053659137
236	0xbd7788f4	-0.060433343
237	0x3d418b51	0.047252003
238	0xbd52bf49	-0.051451955
239	0x3d74aaf5	0.05973335
240	0x3d6603c5	0.05615594
241	0x3de6f36e	0.11276899
242	0x3e094843	0.13406472
243	0xbd93b3d7	-0.07212036
244	0x3ddec916	0.10878198
245	0xbd638815	-0.0555497
246	0xbcf2ecbe	-0.029653903
247	0x3d424d24	0.04743685
248	0xbdcba5a9	-0.099437065
249	0x3dd10bad	0.10207305
250	0xbcf8744f	-0.030328898
251	0xb95bffd7	-0.00020980775
252	0xbe0d6b7d	-0.13810535
253	0x3d4919ca	0.04909686
254	0xbd094a78	-0.033518285
255	0x3dd0142f	0.101601

enc.fe.FC4.bias f4 [16]
0	0xbc348019	-0.011016869
1	0xbde4ac0a	-0.11165626
2	0xbc6e9263	-0.0145612685
3	0x3b5753f7	0.0032856443
4	0x3e114da1	0.1418977
5	0xbdcf9168	-0.10135156
6	0x3de0263a	0.10944791
7	0x3c0c7ecf	0.008575155
8	0x3e02bc33	0.12767105
9	0x3d926bfc	0.07149503
10	0x3d9fd61d	0.07804511
11	0xbd21d514	-0.039509848
12	0x3da4102f	0.08010899
13	0xbd7a5e04	-0.061124817
14	0x3db52bd2	0.08846249
15	0xbd17ff7c	-0.037108883

enc.norm.weight f4 [16]
0	0x3f626b0a	0.8844458
1	0x3f771662	0.9651853
2	0x3f620d43	0.88301486
3	0x3f7745ec	0.9659107
4	0x3f5be71d	0.85899526
5	0x3f66faf8	0.902267
6	0x3f7a8077	0.9785227
7	0x3f707933	0.93934935
8	0x3f5628d0	0.83656025
9	0x3f6d8ac5	0.9278987
10	0x3f81fa98	1.01546
11	0x3f5fdb81	0.8744431
12	0x3f7e245d	0.99274236
13	0x3f771729	0.96519715
14	0x3f714aca	0.94254744
15	0x3f543234	0.82889104

enc.norm.bias f4 [16]
0	0xbc5cdf62	-0.013480993
1	0xbd76c8ef	-0.06025022
2	0x3c2a1ec9	0.010383316
3	0x3d9fa974	0.077959925
4	0x3c060880	0.0081807375
5	0xbc91bed6	-0.017791193
6	0xbdb4868f	-0.088147275
7	0xbce40c3c	-0.027837865
8	0x3c5f0f26	0.0136144515
9	0x3d58a0e5	0.052887816
10	0x3d63a2af	0.05557507
11	0xbc5f0211	-0.0136113325
12	0x3dc5b210	0.09653103
13	0xbd876124	-0.06610325
14	0x3d96449e	0.073373064
15	0x3c8e6a43	0.017384654

enc.enc_out1.weight f4 [4, 16]
0	0x3e3e71bd	0.18598075
1	0x3e41bfd2	0.1892083
2	0xbd4a77ee	-0.04943078
3	0xbe77d58a	-0.24202552
4	0x3d9dc04a	0.07702692
5	0x3d3448fd	0.04401492
6	0x3e0f94ed	0.14021654
7	0x3c8da470	0.017290324
8	0xbe2c3083	-0.16815381
9	0xbe459c4b	-0.19297902
10	0xbe9c40e8	-0.3051827
11	0xbdff7c0a	-0.124748304
12	0xbe8f7191	-0.28016332
13	0xbe1d947f	-0.15388678
14	0xbda6b1cd	-0.081393816
15	0x3e3dba45	0.18528087
16	0x3d4921c9	0.049104486
17	0xbe0663b2	-0.13123968
18	0xbdb5fb8a	-0.08885868
19	0x3de9dc77	0.114190035
20	0x3e055a6e	0.13022777
21	0xbd3cc618	-0.046087354
22	0xbe87bc72	-0.2651096
23	0xbe34232f	-0.17591546
24	0xbd2bc7a3	-0.041938435
25	0x3d6eaa48	0.05826786
26	0x3dec7a6f	0.1154679
27	0xbdc08003	-0.09399416
28	0x3e893db7	0.26804897
29	0xbdde67e8	-0.10859662
30	0x3e16de62	0.1473327
31	0x3db1a5b9	0.08674187
32	0xbe4ac201	-0.19800569
33	0x3e0cf814	0.1376651
34	0xbe3b83a0	-0.1831193
35	0xbe107de1	-0.14110519
36	0xbdab8097	-0.08374136
37	0x3e170cba	0.14750949
38	0x3d99a6c0	0.07502508
39	0xbe01ebb4	-0.1268757
40	0x3cf6d5ec	0.030131303
41	0x3e32acc1	0.17448713
42	0x3da7a85b	0.08186408
43	0x3b0eb06a	0.0021772631
44	0xbc19f43d	-0.00939661
45	0x3dcc1ad6	0.09966056
46	0xbe830a39	-0.25593737
47	0xbcaa7ee9	-0.020812469
48	0xbcfb4fda	-0.030677725
49	0x3c51cb99	0.012804889
50	0xbe307140	-0.17230701
51	0xbd9933cc	-0.074805826
52	0x3dca5b03	0.0988064
53	0xbacbce45	-0.0015549144
54	0x3e86f922	0.26361948
55	0x3e2885b6	0.16457257
56	0x3bc6bf24	0.006065266
57	0x3c24ddfb	0.01006269
58	0xbdf879a1	-0.12132574
59	0x3cb41fa2	0.02198774
60	0x3ca67f77	0.020324452
61	0x3e72e781	0.23721124
62	0xbd5db9ef	-0.0541324
63	0xbd994254	-0.07483354

enc.enc_out1.bias f4 [4]
0	0x3df711ea	0.12063964
1	0x3e61a963	0.22037272
2	0x3d98126c	0.07425389
3	0x3dfaebe4	0.12252024

enc.enc_out2.weight f4 [1, 4]
0	0xbe8681a1	-0.26270774
1	0x3efc4b0c	0.49276006
2	0x3a8efdef	0.0010909418
3	0xbe9c6f96	-0.30553883

dec1.fe.FC1.weight f4 [32, 5]
0	0xbe8a7d68	-0.27048802
1	0xbe9ca524	-0.30594742
2	0x3e0a8d0b	0.13530366
3	0xbed993d0	-0.42495584
4	0xbe8a5a95	-0.27022234
5	0xbec9a5cf	-0.39384314
6	0xbcc37f51	-0.02386442
7	0x3eca9753	0.39568576
8	0xbdc6d306	-0.09708218
9	0xbdfcd572	-0.12345399
10	0x3b1026e5	0.002199584
11	0x3e2adbc5	0.16685398
12	0xbb1f2cb9	-0.0024288131
13	0x3e48739d	0.19575353
14	0xbe189d15	-0.14903672
15	0xbe744dff	-0.23857878
16	0xbe3d2801	-0.18472292
17	0xbe4531bb	-0.19257252
18	0xbd1461fb	-0.036226254
19	0xbe57d7ce	-0.21078417
20	0xbc8547be	-0.01626956
21	0xbeb15479	-0.3463476
22	0xbed25f93	-0.41088542
23	0xbd8745fb	-0.066051446
24	0xbd314650	-0.043279946
25	0x3ed28654	0.4111811
26	0x3eb787dd	0.35845843
27	0x3c6e6cf2	0.014552342
28	0xbd5e3996	-0.054254137
29	0xbc6ea5f4	-0.0145659335
30	0xbd2a7d0c	-0.04162316
31	0x3dc60c75	0.09670345
32	0xbd9b9b9a	-0.07598038
33	0x3eb14d83	0.3462945
34	0x3e00674d	0.12539406
35	0xbeedbca2	-0.46432978
36	0xbd44e0a9	-0.048065815
37	0xbe5e7140	-0.21722889
38	0xbdeb8131	-0.11499251
39	0x3e277c0b	0.16355912
40	0xbd0b5e30	-0.03402537
41	0x3e3c22e8	0.1837269
42	0xbef6f70e	-0.48235363
43	0x3d85b1cc	0.06528053
44	0xbcf5143b	-0.029916873
45	0x3d8b1c94	0.0679256
46	0x3e680f3c	0.22662061
47	0xbdea41ac	-0.11438307
48	0x3df0a5e5	0.11750392
49	0x3e22663b	0.1585931
50	0x3ef95984	0.48701108
51	0x3ec4d221	0.38441566
52	0x3e620921	0.22073795
53	0xbd243b3f	-0.040095564
54	0x3c634ba1	0.013873012
55	0x3c17b196	0.009258648
56	0x3e881d8c	0.26585042
57	0xbe1b9c70	-0.15196395
58	0xbe8df533	-0.27726135
59	0xbe8f1e74	-0.2795292
60	0xbec292b8	-0.38002563
61	0xbee233af	-0.44180056
62	0xbe37fc7b	-0.17967407
63	0x3de7286d	0.112870075
64	0x3dfb6aff	0.12276267
65	0xbf163578	-0.58675337
66	0x3e82b715	0.25530306
67	0x3da9b25e	0.08285974
68	0x3da6004e	0.08105527
69	0xbc60d927	-0.013723648
70	0xbee54f4c	-0.4478706
71	0xbe7f9aa1	-0.2496133
72	0x3d96e0d0	0.07367098
73	0x3e21d5ab	0.15804164
74	0x3e17d8c1	0.14828779
75	0x3ee89013	0.4542242
76	0x3d8be9d8	0.068317115
77	0x3e5ff14f	0.21869396
78	0x3e1079d3	0.14108972
79	0xbe52a8d4	-0.20572215
80	0x3e204c50	0.15654111
81	0xbbeb6554	-0.00718371
82	0xbd26e7b6	-0.04074832
83	0x3e46a59a	0.1939911
84	0xbdf7a3aa	-0.12091763
85	0x3ec4088d	0.38287774
86	0x3e3cae8a	0.18425956
87	0x3eb55efe	0.35424036
88	0xbd8906fc	-0.06690785
89	0xbe057559	-0.13033046
90	0x3e649d35	0.22325595
91	0x3e24b156	0.16083273
92	0x3ea85337	0.32875988
93	0xbdbc0ab5	-0.0918173
94	0x3e44f9a1	0.19235851
95	0xbdf48556	-0.11939494
96	0x3ddb7874	0.10716334
97	0x3e28ba76	0.16477379
98	0x3d9a4187	0.075320296
99	0xbc2be06c	-0.010490518
100	0xbb7044ab	-0.0036662023
101	0xbf1fda91	-0.6244288
102	0x3da3582a	0.079758
103	0xbdb62550	-0.088938355
104	0x3d9fd6c3	0.078046344
105	0xbdcb887f	-0.09938144
106	0xbeacd5aa	-0.33756763
107	0xbe5bfbf0	-0.21482825
108	0x3e81ad92	0.25327736
109	0xbd230fdb	-0.039810043
110	0xbe4ed7c9	-0.20199503
111	0x3e767ab9	0.24070252
112	0xbd6d03b5	-0.057864863
113	0x3e520d2b	0.20512836
114	0x3e48c743	0.19607262
115	0x3d065d67	0.03280392
116	0x3e970d3f	0.29502293
117	0x3eee5a9c	0.46553504
118	0xbe45fbaf	-0.19334291
119	0xbd917ece	-0.07104264
120	0x3ec7f645	0.39055076
121	0x3ed675b8	0.41886687
122	0x3d6c181c	0.05764018
123	0x3e4465e5	0.19179495
124	0x3e3434c0	0.17598248
125	0x3c80f9e0	0.01574415
126	0x3ca3f84c	0.020015858
127	0xbecae3db	-0.39626965
128	0xbe8228b2	-0.25421673
129	0xbb0b414e	-0.0021248641
130	0xbeb4c3c4	-0.35305607
131	0xbe8f463c	-0.27983272
132	0x3d471db4	0.04861231
133	0xbeb5a000	-0.35473633
134	0x3de35131	0.110994704
135	0xbeabb92d	-0.33539715
136	0xbdbc1c55	-0.091850914
137	0xbe1cfe29	-0.1533133
138	0xbe642584	-0.22279936
139	0xbe06c259	-0.13160075
140	0x3ea45107	0.3209307
141	0xbe87a3ad	-0.26492062
142	0xbdee9cda	-0.11651011
143	0x3e1d1d6c	0.15343255
144	0x3d8c2b59	0.068442054
145	0x3ebf9b46	0.37423152
146	0x3ed1fa75	0.41011396
147	0x3e5364ac	0.20643872
148	0x3ec2ba07	0.38032553
149	0x3e5bdacf	0.21470188
150	0xbcd93ca2	-0.02651817
151	0x3c23c2a7	0.009995139
152	0x3e94cbc0	0.290617
153	0xbdeec5f3	-0.116588496
154	0x3e81ddf0	0.25364637
155	0x3e954dca	0.2916091
156	0x3dec5e11	0.11541379
157	0xbc64265f	-0.013925164
158	0x3e82d514	0.2555319
159	0x3e6f999b	0.2339844

dec1.fe.FC1.bias f4 [32]
0	0xbdd36ed1	-0.10323871
1	0x3ecc66af	0.3992209
2	0x3ebb184e	0.3654198
3	0xbd9c0c3d	-0.07619522
4	0x3e33cbc7	0.17558204
5	0x3ec17428	0.37783933
6	0x3e72e01e	0.23718306
7	0x3d9454c8	0.07242733
8	0xbe5f5f6f	-0.21813749
9	0x3d3deddf	0.04636943
10	0xbd937927	-0.07200842
11	0xbe26fc7f	-0.16307257
12	0xbe2c1fab	-0.16808955
13	0xbe98e36b	-0.29861006
14	0x3db21cb3	0.0869688
15	0xbd30a76c	-0.043128416
16	0x3ea4ee78	0.32213187
17	0xbe7ee662	-0.24892572
18	0xbe405311	-0.18781687
19	0x3ebd9cb8	0.3703363
20	0xbd028fd7	-0.031875458
21	0xbd8249d8	-0.06361741
22	0x3e274894	0.1633628
23	0x3c200794	0.009767432
24	0xbec07f5e	-0.37597173
25	0xbecfbbea	-0.40573055
26	0x3e0128a3	0.12613158
27	0xbe00b030	-0.1256721
28	0x3e9d3db2	0.30711132
29	0xbebd1762	-0.36931902
30	0x3e3b6300	0.18299484
31	0x3e01c222	0.12671712

dec1.fe.FC2.weight f4 [32, 32]
0	0xbd584785	-0.05280258
1	0xbd8181a0	-0.06323552
2	0x3dd11e57	0.10210865
3	0xbe76af0d	-0.24090214
4	0xbd5a2a0e	-0.053262763
5	0x3dc4f998	0.09617919
6	0x3afbe0b6	0.0019216749
7	0xbd47b182	-0.04875327
8	0xbdf8d498	-0.12149924
9	0xbbbab584	-0.005697908
10	0x3e060cec	0.13090867
11	0x3cb9d3b8	0.022683963
12	0xbd16be6c	-0.036802694
13	0xbd9f8270	-0.07788551
14	0xbd4f6785	-0.050635833
15	0x3e1c58c6	0.1526824
16	0x3e5556bf	0.20833872
17	0xbe39e20a	-0.18152633
18	0x3e206d0e	0.15666601
19	0xbc479f5c	-0.01218399
20	0xbe220f94	-0.15826255
21	0x3d7682aa	0.060183205
22	0xbcb1d60a	-0.021708507
23	0x3e169fc6	0.14709386
24	0xbe7b34cb	-0.24531858
25	0x3e2c57ea	0.16830412
26	0xbde6a350	-0.11261618
27	0x3dc9db0d	0.09856234
28	0x3e23efea	0.16009489
29	0xbe32824b	-0.17432515
30	0x3e67f0b8	0.2265042
31	0xbaa79785	-0.0012786245
32	0x3e42f2a0	0.19037867
33	0xbc4cd2d3	-0.012501436
34	0xbdc22d6b	-0.09481319
35	0x3e1aab73	0.15104465
36	0x3e738006	0.23779306
37	0x3da3e02e	0.08001743
38	0xbd1f529a	-0.038897134
39	0x3d26f1da	0.04075799
40	0xbd3d9a71	-0.046289865
41	0x3e0bd998	0.13657224
42	0x3e6a125c	0.22858566
43	0xbbf01fea	-0.007328023
44	0x3e9680a2	0.29395014
45	0x3b9a7d8d	0.004714674
46	0xbe2c1870	-0.16806197
47	0x3dc62a7b	0.09676071
48	0x3aa4222b	0.001252239
49	0x3d225640	0.039633036
50	0x3dc237d9	0.09483308
51	0xbdc98954	-0.098406464
52	0x3daf8871	0.08570946
53	0x3e47cd00	0.19511795
54	0xbbff7bfe	-0.0077967634
55	0x3e07a11e	0.13245055
56	0xbc2b6e08	-0.010463245
57	0xbe16cbce	-0.14726183
58	0x3cb6810b	0.02227833
59	0x3c914663	0.017733758
60	0xbda9dbf6	-0.08293907
61	0xbd30a45b	-0.04312549
62	0xbc971795	-0.018443862
63	0x3e4ea352	0.2017949
64	0xbdef5975	-0.116869844
65	0x3e25db44	0.16196924
66	0xbdaaf896	-0.08348195
67	0x3e18bff8	0.1491698
68	0xbe4d1a8b	-0.20029657
69	0x3db78c2d	0.08962283
70	0xbd6f9a24	-0.05849661
71	0xbe96db75	-0.29464307
72	0x3d56b1b1	0.052415553
73	0xbd9947ec	-0.07484421
74	0xbd526f06	-0.05137541
75	0xbe8fe788	-0.28106332
76	0x3ec850ec	0.39124238
77	0xbd8e7fb0	-0.06957948
78	0x3df46646	0.119335696
79	0x3e003ea3	0.12523894
80	0x3c90cc8c	0.01767566
81	0xbe5e74d9	-0.21724261
82	0xbded8200	-0.11597061
83	0x3db291de	0.08719228
84	0x3e827398	0.25478816
85	0x3dd26ed0	0.10275042
86	0xbe9ccc4a	-0.3062461
87	0xbb8bb878	-0.0042639337
88	0xbc73a829	-0.0148716355
89	0xbe897633	-0.2684799
90	0x3e18d0ae	0.14923355
91	0xbe962ddc	-0.29331863
92	0xbeccb9a8	-0.39985394
93	0xbe64b875	-0.2233599
94	0xbe218ae3	-0.15775637
95	0xbedd917f	-0.43275067
96	0xbe09a293	-0.13440923
97	0xbe997fa2	-0.2998019
98	0xbda4ecbe	-0.080529675
99	0xbe34153d	-0.17586227
100	0x3cc6120a	0.024178524
101	0x3e1cbde6	0.15306816
102	0xbd80fe6d	-0.06298528
103	0x3e1dccdb	0.15410177
104	0x3eabd50d	0.33560982
105	0xbc9c2d1f	-0.019064484
106	0x3dce7894	0.10081592
107	0x3e25bd55	0.16185506
108	0xbd846143	-0.06463864
109	0x3e55ec30	0.2089088
110	0xbb76563c	-0.003758802
111	0xbe0dcffb	-0.1384887
112	0x3d3aabb6	0.045573913
113	0xbe1211f3	-0.1426466
114	0xbd76387c	-0.06011246
115	0x3d21a023	0.03945936
116	0xbddb5718	-0.10709971
117	0xbe17911e	-0.14801452
118	0xbd02711a	-0.031846143
119	0x3e336958	0.17520654
120	0xbd90d8f2	-0.07072629
121	0x3eb5ce8b	0.35509142
122	0xbe0b4c50	-0.1360333
123	0xbe0ea8ed	-0.13931628
124	0x3dee1a7f	0.116261475
125	0xbe08b295	-0.13349374
126	0x3dc6ed24	0.097132
127	0x3c231556	0.009953817
128	0xbe94b082	-0.29040915
129	0xbe02e436	-0.12782368
130	0x3e5ed8a2	0.21762326
131	0xbdfac810	-0.1224519
132	0xbe2d51f0	-0.16925788
133	0x3e575e16	0.21031985
134	0xbd672cc1	-0.056439165
135	0xbd76ef07	-0.060286548
136	0xbe2c4b83	-0.1682568
137	0x3cd31809	0.025768297
138	0x3e419416	0.18904147
139	0x3b560aed	0.003266032
140	0xbe05fbd9	-0.13084354
141	0x3cae4301	0.021272184
142	0xbd5bc3fe	-0.05365371
143	0x3b997a19	0.0046837446
144	0x3d11cdef	0.035596784
145	0xbd2b6dad	-0.04185264
146	0xbca0f418	-0.019647643
147	0x3e23756e	0.15962765
148	0x3ced792f	0.028988449
149	0xbe402da3	-0.18767409
150	0xbd85dea4	-0.06536606
151	0xbe448778	-0.19192302
152	0x3e4d8681	0.2007084
153	0xbe3d4d77	-0.18486582
154	0xbdba1c07	-0.09087377
155	0xbe7a98d7	-0.24472366
156	0x3e86cc00	0.26327515
157	0x3d360df2	0.044446893
158	0x3ca835a6	0.020533394
159	0x3e864cbd	0.26230422
160	0x3eab51c2	0.33460814
161	0xbceebc67	-0.029142572
162	0xbe8b45c7	-0.27201673
163	0x3e8eb070	0.27868986
164	0x3d2f6f93	0.042831015
165	0xbe0b0ac4	-0.13578326
166	0x3b4dc42f	0.0031397452
167	0xbcd9099d	-0.026493842
168	0xbd3d01a8	-0.046144158
169	0xbe3b7b1d	-0.18308683
170	0xbf1b4f80	-0.6066818
171	0x3ea1c18f	0.31592986
172	0xbf137208	-0.5759587
173	0xbe4b244c	-0.19838065
174	0xbe4696d6	-0.19393477
175	0xbddcc901	-0.10780526
176	0xbdbe0842	-0.09278919
177	0x3d717223	0.05894674
178	0xbe0c5822	-0.13705495
179	0xbdf2bf46	-0.11852889
180	0xbd8f87e1	-0.07008339
181	0xbdf1a720	-0.11799455
182	0x3bc0899b	0.005875779
183	0xbd69d314	-0.057086065
184	0x3dd68460	0.10474467
185	0xbca12083	-0.019668823
186	0x3d0b53c3	0.03401543
187	0x3e78232e	0.2423217
188	0x3e99dfa6	0.30053443
189	0xbec0f153	-0.37684116
190	0xbd0c26a6	-0.034216546
191	0x3cca6640	0.02470696
192	0x3d0f763d	0.03502487
193	0x3d165432	0.03670139
194	0x3d5dac52	0.054119416
195	0x3ce39392	0.027780328
196	0x3d7fc7fe	0.062446587
197	0xbe860ca9	-0.26181534
198	0xbcdb5901	-0.026775839
199	0xbe09c20c	-0.1345293
200	0x3dfb97f2	0.12284841
201	0xbe4b928e	-0.19880125
202	0x3dad1f31	0.08453215
203	0x3ec32a58	0.38118243
204	0xbdbd644b	-0.09247645
205	0x3d155d4b	0.036465924
206	0x3d8dac9a	0.06917687
207	0x3db9caea	0.09071906
208	0xbcec61d7	-0.028855247
209	0x3dd0a603	0.10187914
210	0x3c1fd344	0.0097549595
211	0xbd2708f6	-0.04078003
212	0x3dd160f4	0.102235705
213	0x3ea30c3e	0.31845278
214	0x3df5b3ef	0.1199721
215	0x3cd10a44	0.02551759
216	0x3c92a765	0.017902086
217	0xbd90e068	-0.07074052
218	0xbb88bc9c	-0.0041728746
219	0x3b82333c	0.003973393
220	0xbd5c920a	-0.05385021
221	0x3dc42936	0.09578173
222	0x3e1fc846	0.15603742
223	0xbead8860	-0.33893108
224	0xbea49b67	-0.32149813
225	0xbe6b51da	-0.22980443
226	0x3c223c31	0.009902046
227	0xbd90f6f0	-0.070783496
228	0xbe6fe140	-0.2342577
229	0xbdae4309	-0.0850888
230	0xbe0d51a7	-0.13800679
231	0xbe0a2c28	-0.13493407
232	0xbda87d08	-0.08226973
233	0xbd100821	-0.035164002
234	0x3e7af1a7	0.24506246
235	0xbcdbc412	-0.026826892
236	0xbd6b7dac	-0.057492897
237	0x3d831840	0.0640111
238	0x3d91e829	0.07124359
239	0x3e1e3f5f	0.15453862
240	0x3cabf6ac	0.020991646
241	0x3db95c3d	0.09050796
242	0x3d38cf7f	0.04511976
243	0xbe49fc35	-0.19725116
244	0x3dd1658a	0.10224445
245	0xb9951b83	-0.00028439992
246	0xbc090c95	-0.008364816
247	0xbc855485	-0.016275654
248	0x3f077194	0.5290768
249	0xbd3414ed	-0.04396527
250	0xbbd18346	-0.006393823
251	0x3deaec78	0.11470884
252	0x3c22dbc7	0.009940094
253	0x3e4e1951	0.20126845
254	0xbe54cb33	-0.2078064
255	0x3e684222	0.22681478

dec1.fe.FC2.bias f4 [32]
0	0x3db33edc	0.08752224
1	0xbdcab37c	-0.09897515
2	0xbe407c48	-0.1879741
3	0x3e00da59	0.12583293
4	0xbc998978	-0.018742308
5	0x3ec9f8c8	0.39447618
6	0xbe263b15	-0.16233476
7	0xbecbddd9	-0.39817694
8	0xbcd796a2	-0.026316945
9	0x3e905491	0.2818952
10	0x3e85fc03	0.26168832
11	0x3d83a9e1	0.06428886
12	0xbdf57ade	-0.11986326
13	0xbe08febe	-0.13378426
14	0xbe838821	-0.25689796
15	0x3e57d275	0.21076377
16	0x3d1ac7d0	0.037788212
17	0x3e97899c	0.29597175
18	0xbe57162d	-0.21004553
19	0xbe4c6ce3	-0.19963412
20	0x3e203a10	0.15647149
21	0xbe5d80ed	-0.21631213
22	0x3d8a13f0	0.06742084
23	0x3e2c40e3	0.16821627
24	0x3d951e30	0.072811484
25	0xbe8b6186	-0.27222842
26	0xbd63ea1a	-0.05564318
27	0xbc97bbb1	-0.018522115
28	0xbcf6cdbf	-0.030127404
29	0x3e124414	0.14283782
30	0x3d9a6e85	0.07540611
31	0xbe0fd87e	-0.14047429
