Lightcode/bc/rate310/light_bc_rate310_snr0.pt (torch, 179968 bytes, 38 tensors)

enc.fe.u1_FC1.weight f4 [64, 27]
00000000: bcbd 8738 c1e2 30b7 f87a fe39 da43 b1be
00000010: 83cc a73d bac2 bdbf e24b d0be 5357 5ebe
00000020: 8469 f5be 9a33 8738 c73a 5eb7 a485 0eb8
00000030: 5522 8a3d 4447 67bd 135b 2a3e 081a 8c3d
00000040: d750 4b3b 99f3 cb3e 94d2 2436 f8a3 01b7
00000050: 7dad 44b9 e2d0 a63c c618 433d ea37 2e3f
00000060: adab 233e 0950 0bbe caea 123e f04f 18be
00000070: 9e58 06be c221 9a3b dc35 903e 5023 4f3e
00000080: e347 763e 60d4 193e 6bbc 99be 9f03 a2bb
00000090: 74fb 833d b1e5 2a3b 5a52 94bc 0219 13bd
000000a0: c1df 6f3c cf63 abbd a756 e73c c383 e43d
000000b0: 99a3 7c3d 2d02 c53a 2b0b 803d 577b 37bd
000000c0: a192 16be 4ff3 25be 4552 3bbe fc41 2dbe
000000d0: 4a16 443e 97bf 243e 8a35 f13e ef15 993c
000000e0: 3eeb b83c 3b64 a53c 04c3 37bd 08ba f83c
000000f0: 38e6 30bd 3a27 4ebd 49d5 22bc c0ea 373e
00000100: e518 92b9 d55c 3cbd 3684 23bd bee6 df3d
00000110: 1177 83bd 5d60 313d 8326 373d 046c 753c
00000120: 9530 45b9 cf27 f0bb dfa1 3ebb c224 15bc
00000130: fdd8 9a3b 5ecf 48bb c5da 1e3c 396a 3a3b
00000140: a48a 433b 2b83 2f3e c9db 0e3e 2261 883d
00000150: 9437 453d b9e8 073d bbde afbc 2dec eabc
00000160: ccf6 23bd d1bf d7bb 3e57 b3be 3bfe dcba
00000170: 6f8f a93d 486e 853d 2747 28be 1446 a23d
00000180: 40a7 51bc 3d0b 763c 6482 f83b 80bc 1d3a
00000190: 737b 7bbd 50fe 8d3c 3afc 90bb fdde 69bc
000001a0: 32f9 5cbb 3bc1 d43b 85ce 483b edd5 733a
000001b0: 111d bd3a e2b8 7a3b 13f1 ea39 82b1 163a
000001c0: f23a 1a3b ed43 203f 816f bf3e 9d88 e7bd
000001d0: 8c07 e0be e934 f4b8 7b74 89b9 3c81 1238
000001e0: 11f0 cbb9 28d1 563a 8c2f d2bf 9658 933d
000001f0: bca3 1a3e ed1c c6be 504e 0ab8 ec6f efba
00000200: 0581 e53a 11e8 e13a a439 77ba f931 9e3e
00000210: 1f83 bf3d 8b92 903e 56b2 25be aacf d1bc
00000220: 2c06 d93e 3562 1e3c 5a48 af39 d764 5b3d
00000230: 6be5 0c3d e26f 893c 92bc a7bc 6ce4 92bc
00000240: e9fa 4b3c c2ba 5fb9 e118 83bb 5e80 21bb
00000250: 996a 0cbc 7431 91bb a5bd dbba ddc1 b63b
00000260: fe76 ba39 c11a a737 42ff cb3d fdf5 4ebd
00000270: b17b ebbc 217a 1cbd 82fe 05bd a02c 07bd
00000280: 17e3 063d fb53 6a3d c3e4 293d 4068 aa3e
00000290: 888f a73b 231b 78bd 5bcd 85be 0ce4 773e
000002a0: ff39 3cbd 2a24 c3bd 7eeb 2d3c eb56 5fbc
000002b0: d339 36ba 11f4 9f3b 8818 b0ba d88d 7ebd
000002c0: c51c ddbc 7aa9 583d 8aeb b23d 95ad f53b
000002d0: b882 ac39 0f1c 17be 2fd6 d63d 9356 683d
000002e0: 0155 a33e f84f 023e 97d6 c8bc 2fb4 463d
000002f0: d5e5 303c 9c30 bebe c2e7 43bd 65fd ddbc
00000300: 75df 2f39 f820 5a3c 8232 f2bc 359b 1d3d
00000310: dcb6 f33c 4d69 ae3b c7e8 8dbe d94b 3e3a
00000320: 55e7 903d 1291 823d bd60 10be 38a2 a93d
00000330: 1907 6cbd d0cb 25bd f16f 38bc 2cd5 68b9
00000340: 400b a23c f4ee 93bb 9b49 96bb b439 86bb
00000350: 96f6 f339 77b2 e3bb 45cc d83a 8a50 25bb
00000360: 71a2 073e c745 733e d696 18bd e222 753c
00000370: b8b2 943d 451d 0e3e 8c76 323f a46e dc3d
00000380: 533a 0d3f 2544 8abd 08e1 07ba cb49 b13c
00000390: 4dc2 863c 7a61 96bd 6777 e73b bab2 b6be
000003a0: 22ba 60be cb96 cabe eb77 7837 dce9 efbd
000003b0: 6e37 cc3d 563a 933d 2aae 1b3d 1500 55bc
000003c0: b926 0cbe a15f b23d 817b d13c d612 fe3e
000003d0: 353b 44bd 94d8 1f3c 0abc 3c3d 8215 85be
000003e0: a50c 143d fd15 353e 5379 5e3e b999 0d3c
000003f0: 0531 89be 06cd d53a 4459 903d 87d1 a93d
6.4726424e-05 -1.0543213e-05 0.00048538274 -0.3462208 0.081933044 -1.4825051 -0.40682894 -0.21712999
-0.47932065 6.446913e-05 -1.3245916e-05 -3.39799e-05 0.067448296 -0.05646445 0.16636305 0.068409026
0.0031023526 0.39834288 2.4560477e-06 -7.727176e-06 -0.00018756646 0.020363275 0.047631048 0.6805407
0.15983458 -0.1360475 0.14347377 -0.14874244 -0.13119742 0.0047037313 0.2816609 0.20228314
0.2405086 0.15022421 -0.30026564 -0.0049442793 0.06444445 0.0026076848 -0.018105675 -0.03591252
0.014640749 -0.08368646 0.028239561 0.11157944 0.061679456 0.0015030556 0.0625213 -0.04479536
-0.14704372 -0.16206096 -0.18293102 -0.16919702 0.19149128 0.1608871 0.4711116 0.018687217
0.02257311 0.020189395 -0.044863716 0.030362144 -0.043188304 -0.050330378 -0.009938546 0.17960644
-0.00027865838 -0.04598697 -0.039921008 0.109326825 -0.064191945 0.04330479 0.044714462 0.014979366
-0.00018805482 -0.0073289643 -0.0029088182 -0.009103002 0.004725574 -0.0030641179 0.009695713 0.0028444661
0.0029837275 0.1713988 0.13951029 0.066591516 0.048148707 0.033180926 -0.02146851 -0.02867707
-0.040030286 -0.0065841456 -0.35027498 -0.0016860435 0.08279311 0.06515175 -0.16433392 0.079235226
-0.012796223 0.015017328 0.007583903 0.00060171634 -0.061397027 0.01733318 -0.004424599 -0.014274356
-0.0033717868 0.0064927614 0.0030640673 0.0009301592 0.0014428218 0.0038257171 0.00044811572 0.00057484966
0.002353367 0.62603647 0.37389758 -0.11305354 -0.43755758 -0.00011644682 -0.0002621746 3.492947e-05
-0.0003889804 0.0008194619 -1.642076 0.07194631 0.15101522 -0.38693944 -3.2974698e-05 -0.0018267608
0.0017509764 0.0017235299 -0.00094308914 0.308975 0.09351181 0.28236803 -0.16181311 -0.025611717
0.4238752 0.009666969 0.00033432507 0.053562965 0.034398478 0.016776983 -0.02047566 -0.017931186
0.012449958 -0.0002133651 -0.0040007685 -0.0024643163 -0.008570337 -0.004430944 -0.0016764892 0.0055773095
0.0003556534 1.992041e-05 0.09960796 -0.05052756 -0.028745504 -0.03820241 -0.03271342 -0.033001542
0.032931414 0.057208996 0.04147793 0.3328266 0.005113546 -0.060572755 -0.26133236 0.24208087
-0.045953747 -0.09528382 0.010615228 -0.013631563 -0.00069513655 0.00488139 -0.0013435045 -0.06214699
-0.026991257 0.052896 0.08736332 0.007497499 0.0003290379 -0.14756797 0.10490071 0.05672319
0.3190079 0.12725818 -0.024516387 0.04851168 0.010796984 -0.3714646 -0.047828443 -0.027098367
0.00016772545 0.013313524 -0.0295651 0.038478095 0.02975028 0.0053226114 -0.27716658 0.0007259227
0.07075373 0.06375326 -0.14099403 0.08282894 -0.057623956 -0.040477574 -0.011257158 -0.00022204657
0.019780755 -0.0045145694 -0.004586411 -0.004096234 0.00046532293 -0.006948765 0.0016540369 -0.0025225007
0.1324556 0.23757087 -0.037253223 0.01496193 0.072606504 0.13878353 0.6971214 0.107632905
0.5516712 -0.06751279 -0.00051833736 0.021641633 0.016450072 -0.07342811 0.0070637944 -0.35683233
-0.21946004 -0.3956817 1.48098725e-05 -0.11714527 0.0997151 0.07188861 0.038007893 -0.013000508
-0.13686647 0.08709646 0.025571587 0.49623746 -0.047908027 0.009756226 0.046077766 -0.25992972
0.03614487 0.17684169 0.21725969 0.008642607 -0.2679521 0.0016311712 0.07048276 0.08291917

enc.fe.u1_FC1.bias f4 [64]
00000000: 1ea3 0ab9 8731 87bd 1828 30bf 9d63 df3e
00000010: 3753 a1bb 9be7 05bf b446 4c3d 85ab 1fbf
00000020: 0467 38bc 81f8 043e 8e40 dcb8 2e53 1b3c
00000030: 9d80 e5be e1b8 af3b 600f 1e3e 2b29 0cbf
00000040: bed5 7c3d e385 2bbd 6f34 c53e a420 f93d
00000050: ea1d d4be 8d40 243e 8beb cebd f06d 9f3c
00000060: 0c4d 1bbe cf3f 34bd a6d0 723d 740e 033e
00000070: 3a77 bf3d 4398 8abd 91bb c7bc c138 aa3d
00000080: b11c 61bb 2454 81be 7e31 873e 4c97 343e
00000090: eaa9 01bf 1c6d 10bc 979f 67be e928 88bb
000000a0: d38b aabc 5467 a8bd 6ba1 4abe e71b 88be
000000b0: 7506 fb3a 0295 43be f2cf 3b3e 5d9a c1bd
000000c0: 23e8 973e d6fd c33d 17d8 263e 75bd a53e
000000d0: bc57 0e3f 09c1 7c3e ef90 263c d5e6 fc3e
000000e0: fd41 123e ed3f 8eb8 2029 85bc bc4a bcbe
000000f0: ec46 d8bb b62b 043f a27e 3e3e 5380 cfbd
-0.00013221471 -0.066012435 -0.6881118 0.43630686 -0.00492325 -0.52306527 0.049872115 -0.62371093
-0.01125503 0.12985422 -0.00010502442 0.009480281 -0.44824687 0.0053626155 0.15435553 -0.5475032
0.061727278 -0.04187573 0.38516566 0.12164429 -0.41429073 0.16040249 -0.1010352 0.019461602
-0.1516611 -0.044006165 0.059281014 0.12798482 0.093489125 -0.06767323 -0.02438143 0.08311606
-0.0034349377 -0.25259507 0.26404947 0.1763584 -0.50649893 -0.008815076 -0.22619472 -0.0041552675
-0.020818627 -0.08222833 -0.19788139 -0.26583788 0.0019151705 -0.1909981 0.18341044 -0.094532706
0.29669294 0.095699 0.16293369 0.32371107 0.5560262 0.24683012 0.010166391 0.4939486
0.14282985 -6.782995e-05 -0.016254961 -0.36775768 -0.0066002514 0.516292 0.18602994 -0.10131898

enc.fe.u1_FC2.weight f4 [64, 64]
00000000: 4732 6a3d 1a0b bb3b 082f a33d 20a7 c43b
00000010: 44b7 013b 73a1 68bf 5ee0 07bd 87dd ef3c
00000020: 199e 14bf 37d9 0dbe ab95 763a e5a7 213d
00000030: dfb2 e4bf 579c a03d a667 d53d 006a 853d
00000040: 31e7 57be af4f 8abe 3f9c 793e 9c38 04bd
00000050: 02ed 1bbf c630 9839 062b e13e 767a b03d
00000060: a283 76be 0968 10c0 bd22 283e 1496 c63d
00000070: 27fb dd3c a01f d7be 0d9c 3dbc 2f62 513d
00000080: 7200 21bd 74e9 163d a6e2 843d 481d 9ebc
00000090: 30e9 fb3e c053 1bc0 3ddf 5dbe 2812 ca3b
000000a0: 2ce2 523e 759f 5cbe c9b1 0a3d 072e 28bd
000000b0: 6718 043b 51e4 9a3d 2faa cabd fb9a c5bd
000000c0: 6aad 4fbe af19 62bf 452f 0b3d e232 f3bc
000000d0: e9a0 b93d 8cd5 873e eb53 53bd 132e e53d
000000e0: d09f 92bd 8545 5fb9 6f4a cfbe c1b2 823c
000000f0: 406a d63b a448 a3be e983 71be b32d d3bd
00000100: abbc b13d 3426 90bd 82c3 32bd e007 2bbe
00000110: 14bb 2dbd 2e86 debd 2c5a 42bd d0c6 9ebd
00000120: 4324 49bc d64f 66bd 324b a2bd 9ef9 09be
00000130: cf3a 293d 8416 edbd acb1 05be d81a 27be
00000140: 91b5 e93c d697 3fbe 1417 13be 9347 32bd
00000150: 09c9 16be a68c 203d 3c17 9abd bdb6 1bbe
00000160: 5940 f9bb 9ecb 0a3b f5e3 14be 8e3d 21be
00000170: dc31 91bd 2110 2bbe 7df3 5ebd 07f8 9bbd
00000180: d833 1dbe 5aa9 70bd 46b8 e6bd 6d56 8cbd
00000190: c57c 013d edb9 10bd 7c0f b33d 9cb6 57be
000001a0: c9f9 f93c e5c8 23be 54f7 02be 6d7c a0bc
000001b0: 4326 cfbc 8c79 20be b8d8 1cbe a049 d2bd
000001c0: 12a4 9dbc 7984 833d 5082 a03b c081 a13c
000001d0: 392c cb3c cabe c63c 59c2 15be 8fed 06be
000001e0: 5052 1cbe bdd2 bebd d07f 4c3d b1b6 5c3b
000001f0: f859 8ebc 0914 8abc d86f 19be 9a52 fbbd
00000200: 8903 d5bf bc5b cd3d 4a77 a53d c35b 213d
00000210: 1caa febf 47a2 cb3d 6ed8 823e 7673 f8bc
00000220: 9c40 f1ba 3c25 85be abfc 19bf 2b75 483e
00000230: 7942 56be 0834 203e 784c 9dbd 5aa6 1dbe
00000240: d5ca 943d 03e5 19be 453c acbc 5c9e 77bd
00000250: d17f 8cbe 9efc 3a3e 7e76 a83d 25ce c43e
00000260: cc5a bc3e 111c 18bf 3dc6 143c 1436 ab3c
00000270: dbfb 5abc 578a 103e bfee a13b 2fd2 b2bd
00000280: 5d9b b43e 2e6b 7a3e 5542 6c3d 7398 48be
00000290: faf7 a23c 7d0d 86bf 17e6 633d c909 d73e
000002a0: 4e0e 0bbe 1915 66be d573 a73c ed9b 84bd
000002b0: 37ce 7a3e 41d6 a3be bd10 43bd bb6e 00bd
000002c0: 1e23 ad3d b9d0 4abd 89ea 4b3e 9bc4 3b3d
000002d0: 2c48 13be 34ef d93c e121 263e c476 97bd
000002e0: 95ec 2bbe 974d bbbf 462e 3abe f808 c4be
000002f0: 1b50 05c0 9065 adbb 7981 28bd fd0a 23be
00000300: 31be 90bd b408 78bd 639b a8be 9e0e 70be
00000310: fcaa 793d 605c 3cbd 63be 993c 20bc 0c3f
00000320: 6664 98bd 14c4 a4bd 2dc0 51ba f491 2fbb
00000330: 2e1f 1c3e 841f 733d 862b f1bd 5d3e 51bc
00000340: eb4c 803d 7e50 993d dc4e 4d3e 9f7a ecbd
00000350: b3d7 913d a3bc 36be 4051 1cbe b08b cdbb
00000360: cff5 393e e347 b13d 9eb3 7d3d 0360 6a3e
00000370: 5202 09be 981c 02bd 61c7 2d3c 2429 073e
00000380: 2db3 2d3d d2a8 443b 77ad 843d bf5a 09be
00000390: b7b7 953e 0574 003e a04f 913d 9a98 793c
000003a0: 96f1 253d f121 22bd 4ac5 2abd 08cc 033d
000003b0: a29e e33b 6808 66bd 549b 763d e09e 143d
000003c0: 0325 7c3d a83d 203d 08d5 31bd c413 02bd
000003d0: df93 853d 0f0a 993d fb19 1fbe 423c 453e
000003e0: 1be5 443c 6ef3 ca3b 1155 dc3d 1751 04bd
000003f0: 4d00 003d 0eca 94bd 7bcd 6f3d 15cd c63d
0.057176854 0.0057081105 0.07967955 0.006001368 0.0019793073 -0.9087135 -0.033172958 0.029280437
-0.5805374 -0.13852392 0.00094064575 0.039466757 -1.7867087 0.078423195 0.1042016 0.065143585
-0.21084286 -0.2701392 0.2437601 -0.03228055 -0.6090852 0.00029028038 0.43978137 0.086171076
-0.24073651 -2.2563498 0.16419502 0.09696594 0.027097298 -0.42016315 -0.01157285 0.051119026
-0.039307065 0.036843732 0.06488542 -0.019301072 0.49201345 -2.4269867 -0.2166719 0.006166715
0.2059409 -0.21545203 0.033860955 -0.04105952 0.0020156146 0.07563079 -0.09895741 -0.09648701
-0.20280996 -0.8832044 0.033980627 -0.029687349 0.09063894 0.2653011 -0.051593702 0.111904286
-0.07159388 -0.00021292835 -0.40486476 0.015954377 0.0065434277 -0.31891358 -0.23585476 -0.10311451
0.08678564 -0.07038537 -0.043643482 -0.16702223 -0.04241474 -0.108654365 -0.047449276 -0.07752764
-0.012276712 -0.05622848 -0.079244986 -0.13474128 0.04131585 -0.1157656 -0.13056058 -0.16318834
0.02852896 -0.18710265 -0.14364272 -0.04352529 -0.14725126 0.039196633 -0.07523963 -0.15206428
-0.007606548 0.0021178494 -0.14540084 -0.15746137 -0.07089588 -0.16705371 -0.054431427 -0.07615667
-0.15351808 -0.058755256 -0.11265616 -0.06852422 0.03161313 -0.035333563 0.08743188 -0.21065754
0.030514615 -0.15994604 -0.1278966 -0.01959058 -0.0252868 -0.15671366 -0.15317047 -0.10267949
-0.019243274 0.064217515 0.004898347 0.01971519 0.02480136 0.024260897 -0.14624919 -0.13176559
-0.15265775 -0.09317539 0.04992658 0.0033678229 -0.017376885 -0.016855257 -0.14984071 -0.122716144
-1.6641704 0.100272626 0.08079393 0.03939415 -1.9895663 0.09943061 0.25555748 -0.030328494
-0.0018406096 -0.2600497 -0.60151166 0.19575946 -0.20923795 0.15644848 -0.07680601 -0.1539549
0.0726525 -0.15028767 -0.021024833 -0.060453758 -0.27441266 0.18260428 0.082257256 0.38438526
0.36788023 -0.59417826 0.009080467 0.02089981 -0.013365711 0.14115272 0.004941791 -0.087314956
0.35274783 0.24454948 0.057680447 -0.19589405 0.019893635 -1.0472866 0.055639353 0.41999653
-0.13579676 -0.22468986 0.020440975 -0.06475053 0.24492727 -0.319994 -0.047623385 -0.0313556
0.08453964 -0.04951546 0.19913687 0.045841794 -0.14383 0.026603319 0.16223861 -0.073956996
-0.16789468 -1.4633054 -0.18181714 -0.38288093 -2.0830142 -0.005291648 -0.0411391 -0.1592216
-0.07067526 -0.060555175 -0.3293105 -0.23443076 0.06095408 -0.045986533 0.018767541 0.54974556
-0.074410245 -0.080452114 -0.00080013537 -0.0026789876 0.15246269 0.059356228 -0.117758796 -0.012771216
0.06264671 0.07486056 0.20049614 -0.115468256 0.071212195 -0.17845397 -0.1526537 -0.0062727556
0.18160175 0.086562894 0.061938874 0.22888188 -0.13379791 -0.03176555 0.010606618 0.13199288
0.042407203 0.0030007851 0.06478398 -0.13413523 0.29241726 0.12544258 0.070952654 0.015234137
0.040513597 -0.03958315 -0.041692056 0.032177 0.0069464007 -0.05616036 0.060206726 0.036284328
0.061558735 0.0391213 -0.043416053 -0.03175713 0.06522345 0.07472622 -0.15537255 0.19261268
0.012017514 0.00619357 0.10758413 -0.032303896 0.031250287 -0.072651014 0.05854557 0.09707085

enc.fe.u1_FC2.bias f4 [64]
00000000: cff5 04bc b3ea 21be d90b dc3d b2c0 b53c
00000010: cb37 783c eaee 533e a76f 723d ab78 3bbe
00000020: 80b8 843d 6e74 63be d5a9 59bc 19c0 38be
00000030: d4b1 48be dcb0 533d 1e05 6dbe 4288 f7bc
00000040: 3f8d e5bd 1ee7 77bd a151 acbe 9db1 0abe
00000050: efe9 e0bc a86d a73c 365b 37bc a34d 17be
00000060: 4824 aebb bb5e 933d c78f 16be 0fc1 c3bd
00000070: e497 98be 93b6 abbb 181e 44be b64e a73c
00000080: 0fc3 bb3d 6367 ff3e 2f9a 623d 5b0d afbd
00000090: 41ad 62be 745a 14be d23d 9fbe 26e9 00bb
000000a0: 5467 a73d 8d0a 0e3f d1e2 4a3c 12b3 c4bd
000000b0: b1e3 9fbd e5f8 c1bc 72ab 7fbe df34 bc3d
000000c0: 04f7 9d3e f6a6 6ebd 8b50 29be 9dff afbe
000000d0: fb19 093f 3d55 e33d 06b7 b3bd 520d 2f3c
000000e0: 13d9 b73d c97c 143f f993 e53d c5a7 d53c
000000f0: 1437 1fbd a517 46be 9d50 45be 9b8c 6c3d
-0.008115246 -0.15812187 0.10744447 0.02218661 0.015150021 0.20696607 0.05918851 -0.1830775
0.06480503 -0.22212383 -0.01328512 -0.1804203 -0.19599086 0.051682338 -0.23146483 -0.03021634
-0.11208581 -0.060523145 -0.33656028 -0.13544317 -0.027455298 0.02043803 -0.01119118 -0.1477571
-0.0053143837 0.07195803 -0.14703284 -0.095583074 -0.29803383 -0.0052402704 -0.19152105 0.020423274
0.09168064 0.49883565 0.055322822 -0.08547469 -0.22136404 -0.1448763 -0.31101853 -0.0019670217
0.08174005 0.5548485 0.012383179 -0.096044675 -0.078071006 -0.023678252 -0.24967745 0.09189772
0.3085252 -0.058264695 -0.16534631 -0.34374705 0.5355527 0.11100242 -0.08775143 0.010684328
0.089769505 0.5800291 0.11209864 0.026080975 -0.038870886 -0.19344957 -0.19269033 0.05775128

enc.fe.u1_FC3.weight f4 [64, 64]
00000000: fce4 343f 6fde e7bd 683a c03e c74b 57be
00000010: 9fd0 78be 33c8 8fbd 169c 0d3e 436c 093d
00000020: cf6f b63e daeb f03e 607e a3be b7db a2bd
00000030: cbc4 653e 18ee 8cbe 6af4 133e 44b3 53bc
00000040: dd3c 293f 1d0b 843e 5914 b1be 527b 363d
00000050: 0194 38bf d00b bb3e 40cd e43d f974 2dbe
00000060: d74c 403b 1ab5 eabd da55 1c3f ac71 6f3c
00000070: d7a6 9abd 896f 90bd 8730 043f 57f6 81bd
00000080: 362d 3abe a2e9 2ebd 7aa7 e3be 8bc5 72be
00000090: 4ca2 e7ba 951f 393d f9c4 5b3c 2635 8cbd
000000a0: 6433 a73c 58cc 3e3d 2f50 573d ff83 933e
000000b0: 6e45 d53d de66 3bbd 3b7b a83e 8166 303d
000000c0: b3c3 3dbe 531e ff3d 0dc5 203e 3fdd 64be
000000d0: 9eda 9ebc ba96 83bd aad4 713c 9bfc 0fbe
000000e0: 8449 9dbd 5e0a 063d e798 b63e ea9e 563e
000000f0: 7e74 92bc 70ff 933d d100 633f 3771 753e
00000100: b617 0b3e 53b2 5ebd c111 2dbf 5d33 ba3d
00000110: 2443 8f3c d20b b8bc f856 fcbd 4576 8e3d
00000120: b4fd 393e 8aa7 903d 484c 5f3f 0bff 50bd
00000130: ccac 6dbe b658 cdbc 1d68 893d a141 9a3e
00000140: 4c1f 0e3e ef36 bbbd b1d4 dd3b 6746 da3d
00000150: 636e 153d 4913 cfbd a6b9 9e3d faaf 153d
00000160: 5301 0e3e 084c 05be e9c6 f2bd 2a35 b5bd
00000170: 2739 9a3d 41c2 9abc 03b5 953d 3967 113e
00000180: a6c4 5b3d 492b d03c 468d 7dbc 4242 87bd
00000190: 448a 8f3d 4e0d a4be b8eb 01be 06e9 7c3e
000001a0: c620 05be d77f aa3c e504 9c3d be8c 423c
000001b0: 68fd 973c eea8 3dbd 0015 143e 76a4 d93e
000001c0: 2a63 babd 1444 7cbd 437c a33c ac9b 6dbc
000001d0: 789b 503d bd67 563e e752 303d 7943 c83d
000001e0: 1974 c5be 0c39 2a3d 47f4 dcbc 2dfb 39be
000001f0: 1454 413d bb77 d0bd 0b51 b93d cc70 233e
00000200: b5d9 5abe 7762 28bc 8594 1cbf e0fb 163e
00000210: 7dc9 2bbe 8401 90bd e72a d13e b6ef 333d
00000220: f112 ebbd 50cb 80be dad3 923e a99d fd3d
00000230: e66e 0f3e d775 86bd 6bae 5639 d01a bfbd
00000240: b60c 22bf 8fce 2ebd a283 a83e be7e a8bd
00000250: e3d6 6abd dbe6 d2be 7a03 85be 1259 383e
00000260: bf4e a93d 7595 b2bb 8a4e 1a3e dc88 a3bc
00000270: b325 faba 244e 583d bf4f 42be 6fe7 073f
00000280: 5e84 2abe 01e9 0abe 2409 9d3e de80 5f3e
00000290: 9d48 bfbc c629 dc3d 5c6d 68be 6d0e eebd
000002a0: efbb 8f3e 9905 94bd 76a0 f73d 179e e53c
000002b0: 873d ba3d 5f35 90bd 2aae 843c af5c 443e
000002c0: 2baf 9abc acca 543d c9b4 d23c 1a3c 343e
000002d0: 8cf5 14be 7180 0bbf 450b 413d 5bae 5e3d
000002e0: dffc 283e 6aa6 dcbc 1889 febc 938f 44be
000002f0: bd8b 8d3d aedf b43b a948 c5bc b92e 77be
00000300: 6ca5 60be 01d2 04bc 7e44 57bf 96e4 a2bd
00000310: bcdb ffbd 6242 c4bd f2b1 8ebe dca7 a13b
00000320: cd20 94bd db52 bc3e 718f 473f 4b0d bc3c
00000330: 4a70 433d 664f 1cbe 0c2a 0b3e 0a1b 463d
00000340: 9d36 163e 6eb7 663d 0ed8 313e badd 19bd
00000350: a6df afbd f09a 84bc aee5 a6bd 0c5d 613d
00000360: 7e6a b1bd e379 39be 1504 7b3e cd44 b73d
00000370: e7d3 cdbd 43a1 013d 5472 f33d f504 69bd
00000380: db58 a73d 0e9a f5bd 97ea fbbd 7713 5bbe
00000390: 310a 203e 7079 32bd ecc3 4dbe 89c8 a03c
000003a0: 84fa 7c3d 28fe 1dbe 3e96 3cbc 6bcd bbbc
000003b0: f788 aebd 7da5 a83c e166 413c 10f8 b33e
000003c0: 55fb 6dbd eb25 c1bc 0402 883e 3075 96bd
000003d0: a193 423d 880e 1a3e 11e8 143d 7b84 df3d
000003e0: c5e9 47bd 404a a83d 4225 8ebd 19e2 93be
000003f0: 2674 3dbd 7bbf 073d e1c2 02be cff6 303e
0.706619 -0.11321723 0.3754456 -0.21025 -0.24298333 -0.07020607 0.13829073 0.033550512
0.35632178 0.4705494 -0.31932354 -0.079520635 0.22438352 -0.275254 0.14448705 -0.012921158
0.66108495 0.2578973 -0.34585837 0.0445512 -0.72100836 0.3653245 0.11171961 -0.16939153
0.0029342675 -0.11460324 0.610685 0.014614504 -0.075513534 -0.07052524 0.51636547 -0.06345814
-0.18181309 -0.04270328 -0.44463712 -0.23708169 -0.001767227 0.045196135 0.013413661 -0.06846075
0.020410247 0.046581596 0.052566703 0.28811643 0.10413633 -0.0457524 0.32906517 0.043066505
-0.18531685 0.12456956 0.15700169 -0.22350024 -0.019391354 -0.06425233 0.014760176 -0.14061205
-0.076800376 0.03272473 0.3566353 0.20959058 -0.017877813 0.07226455 0.8867312 0.2396897
0.13583264 -0.054369282 -0.67605215 0.09091828 0.01748807 -0.022466574 -0.123212755 0.06956152
0.18163186 0.070632055 0.8722577 -0.051024478 -0.23210448 -0.025066715 0.06709311 0.30128196
0.13879126 -0.09141337 0.0067697396 0.106579594 0.036482226 -0.101111 0.077502534 0.036544777
0.13867693 -0.13017285 -0.11854345 -0.08848031 0.07530432 -0.018891456 0.07309916 0.14199533
0.053654335 0.025411265 -0.015475577 -0.066044345 0.07008794 -0.320414 -0.12687576 0.24698266
-0.13000783 0.020812912 0.07618121 0.011874376 0.01855345 -0.046303682 0.14461136 0.42508286
-0.09100945 -0.06158836 0.019956714 -0.014502447 0.050929517 0.2093801 0.04304781 0.097784944
-0.38565138 0.04155831 -0.02697195 -0.18162222 0.047199324 -0.10179087 0.09048661 0.15960997
-0.21372111 -0.010277382 -0.6116412 0.1474452 -0.1677608 -0.07031539 0.40853044 0.043929778
-0.11478222 -0.25155115 0.28677255 0.12383587 0.14007148 -0.06565445 0.00020473606 -0.09331286
-0.63300645 -0.04267746 0.32912928 -0.08227299 -0.05733384 -0.41191754 -0.25979215 0.18002728
0.08266973 -0.0054499456 0.15069023 -0.01996272 -0.0019084722 0.052808896 -0.18975733 0.53087515
-0.16652057 -0.13565446 0.30671036 0.21826503 -0.023350054 0.10750155 -0.22697967 -0.11623845
0.2807307 -0.0722763 0.12091152 0.028029485 0.09093767 -0.0704143 0.01619633 0.19175981
-0.018882355 0.051951095 0.02572097 0.17601052 -0.14546794 -0.5449286 0.047129888 0.054365497
0.16502713 -0.026934821 -0.03107123 -0.19195394 0.069114186 0.0055198288 -0.024082499 -0.24138917
-0.21938103 -0.008106709 -0.84088886 -0.079537556 -0.12493083 -0.09582974 -0.27870136 0.0049333405
-0.07232819 0.36781964 0.7795325 0.022955557 0.04771451 -0.15264663 0.13590258 0.04836563
0.14669271 0.056327276 0.17367575 -0.03756497 -0.085875794 -0.016187161 -0.08149277 0.055020377
-0.0866289 -0.18112902 0.24513276 0.089486696 -0.10050183 0.03164793 0.11887041 -0.056889493
0.08171245 -0.11992274 -0.12300604 -0.21394144 0.15628888 -0.043572843 -0.2009427 0.019626873
0.061762348 -0.15428984 -0.01151043 -0.0229251 -0.08522218 0.020586723 0.011804313 0.35150194
-0.058101017 -0.023577651 0.26564038 -0.073465705 0.04750407 0.15044606 0.03635413 0.109139405
-0.048806924 0.08217287 -0.069407 -0.28883436 -0.046253346 0.033141594 -0.12769653 0.1728165

enc.fe.u1_FC3.bias f4 [64]
00000000: 98d7 e73d 4136 7abd 7f6d b8be c5ea d23d
00000010: fc6f 383e 8d24 a43d 6e97 52be eed3 7ebe
00000020: 9ebe 253e 7a77 553e 10b0 bfbd 5ee3 a03e
00000030: 2c3d 44bb 7cd6 dd3e f1bb 913e 47a4 bc3e
00000040: c203 c6bd f784 c83e 5cf7 913e 6cab a13e
00000050: b7fd e13c bd58 9cbe 2dbb e7be e668 af3d
00000060: eb77 bebe 4b99 06be 1910 c23e 7bec cd3d
00000070: 71f7 27be 402b 81be b854 ae3d 09de a4be
00000080: c3d6 88bd d6cf 283d 9be3 eabd edff 473d
00000090: fbcd c23e 765e 4fbe 3fd5 bebe 2622 d3bd
000000a0: bdad 81be 961c fdbe 82e7 9e3e a09f 293e
000000b0: 76c0 df3d 2266 093f fb79 95bc f3fd 223e
000000c0: 5d06 723e a357 d73e c54d c23e b9fd 8bbd
000000d0: 072c f43e dac0 013e 3987 c83d 16e5 85be
000000e0: 2694 603d 0c80 c13d 5b6d 913e 91d2 903e
000000f0: 9dd9 453e aca0 0cbf 19f0 bfbd d1b7 7abe
0.11320418 -0.061086897 -0.3602104 0.10298685 0.18011469 0.08014784 -0.20565578 -0.24885532
0.16185996 0.20846358 -0.09359753 0.31423467 -0.0029943688 0.433277 0.284637 0.36844084
-0.096686855 0.39163944 0.28509033 0.31576097 0.027586801 -0.30536452 -0.4525999 0.0856493
-0.37200865 -0.13144414 0.37902907 0.10054871 -0.16402985 -0.2522831 0.085122526 -0.3220065
-0.066815875 0.041213833 -0.114691935 0.048828054 0.38047776 -0.20250878 -0.3727207 -0.10309248
-0.25327864 -0.49435872 0.31036 0.16564798 0.10925381 0.5367147 -0.018246641 0.15917186
0.2363524 0.4205905 0.37949958 -0.06835503 0.4768984 0.12671223 0.09791417 -0.2615134
0.054828785 0.09448251 0.28403744 0.2828565 0.19321294 -0.54932666 -0.09371967 -0.24484183

enc.fe.u1_FC4.weight f4 [32, 128]
00000000: 75f4 a73a bf61 1ebe 547e 183e eba5 b9bd
00000010: 6439 e6bd 68f8 9d3d 2f57 023e d562 bfbc
00000020: 0ac8 86bd 6f41 3fbe f9f3 2c3e faf3 32be
00000030: 1c65 1c3e 73d7 1bbe bc45 913d be86 d73b
00000040: b862 da3d 8ad0 f6bd 4286 9fbb 0938 233d
00000050: fdcd f4bc 0442 4e3d 7afe 3d3e 5339 9c3e
00000060: 5583 b73c 2212 043d 49d3 33be 6303 2e3e
00000070: 424b 073e 2229 213e 45a1 e43d 812e af3d
00000080: ddf3 2b3e 9b66 0d3e 064f a93d 9d7b 7bbe
00000090: 954b bfbc 2269 a8bd 50ef db3d 0a03 be3c
000000a0: 3c0f 073e 7946 49bd dbb5 f73d 98ea 1cbe
000000b0: 2f84 af3d 144d dcbd 4c3d 4fbe 6b49 49be
000000c0: 28ba 073e ca96 46be e5a5 18bc 8434 723d
000000d0: a2fb 2abe afd7 e1bd 55ce fcbd c989 b33d
000000e0: c062 3d3d 9891 0fbe 8fe2 00be 742a 603d
000000f0: 756f 8c3d 3c85 413e f234 683e c472 ecbd
00000100: c0a6 373c 12b8 7bbb b150 923d 1b2f 5c3d
00000110: fab6 9dbd b3c2 b1bc bb7b 8abd 8cf8 1dbd
00000120: bb16 35bc 8483 493e 2ed2 cfbd 1c57 25be
00000130: d38b b53b 188e b93b 7927 6f3c da52 483d
00000140: 8f14 493d e442 a6ba 3525 2fbe 1705 a7bc
00000150: 78ee 303d 90e4 333e c826 4c3e 387e 4c3d
00000160: 26b5 70bc 37cf 19bd b794 883d 1da4 97bd
00000170: c1d8 0f3e 57d8 a63c 80e8 7c3d 39c6 2fbe
00000180: 6b91 753a 9b50 1abd 25cb a1bd 3c60 39bb
00000190: 821a 25bd 5345 4bbd 9707 23bc 6e8b 473d
000001a0: 3ccc 52bd c502 25bd d675 d53d e4ce 2abe
000001b0: da62 163d bb16 403d 70ec cf3d 4a8d 463d
000001c0: fd2d 44bd b2ad 54bd 863d 9d3d c935 4e3c
000001d0: 5c70 1c3d ecf8 2dbc 9e18 8b3e bbe9 d0bd
000001e0: 5d71 29bd f8f1 3ebc 00e1 10bd 72ff 853d
000001f0: b756 303d 729d 633e 87ea af3d 9162 ab3d
00000200: 158d ba3c 18d1 02be 4c75 8f3d 5326 a1bd
00000210: 608c 19be 4398 303e 0a0f aa3d 4cfb 793d
00000220: 510f 0bbe a066 8bbd 720a a03d f032 3bbe
00000230: 60d1 803d 67f3 ccbd bde9 743d 950a ae3d
00000240: 8445 983d 5c39 84bd 7fad 533c 1a81 10bc
00000250: cb6b 033e 90a0 6bbc d5b8 1a3e 144c 243e
00000260: 015b 8f3d bf55 263e c7f3 5ebd 786a 023e
00000270: e190 3b3e 3a4d 0b3e 75fc 8f3d 611f 14bc
00000280: 7565 da3d 1983 cf3d db72 4b3e 9ee6 78be
00000290: a4d0 f9bd 8fe0 52be 9265 313c 66b7 073d
000002a0: f880 ff3d 5339 99bc 56b4 993c c95a 01be
000002b0: d9ee 193e fb37 c13d ec30 68be df16 10be
000002c0: 2a25 e6bc 8b50 14be a108 593d 7ef8 053e
000002d0: 6bc9 acbd 68ec cdbd 9c06 8dbd a5fd c03d
000002e0: 5e21 3e3e b0c2 9dbd 9bfe f7bd 3f94 0b3c
000002f0: 3583 25bd b060 b63d 7934 593d f4f1 5dbd
00000300: 6432 dd3c bae6 e13c 4135 ec3c a6d5 d4bc
00000310: 728d a1bd 30a9 20bd 7808 513d b719 a739
00000320: af5a c53c 0f07 463e bf37 26bd 8b87 b1bd
00000330: 32b6 3fba 4484 2d3d 0ffb 0b3d 0df4 d9bd
00000340: 8dd8 823d f152 94bd 4294 ebbd 2e0b b83d
00000350: 4492 443d afff 253e 3c89 613e 1af8 d4bc
00000360: 6240 633c c658 653d 3d25 723d bd29 e9bd
00000370: 2537 2e3d a2ee 5bbc 804d dd3c 92cf 29be
00000380: 366f 8d3c 4042 8a3c e958 0d3c 8f91 443d
00000390: e4ee f23b 4937 223d 4c79 21ba 9009 153d
000003a0: c957 79bd 4e00 9f3c 087f 513d 6e00 fdbd
000003b0: 3a92 543d 28f9 5b3c b202 95bc 08da 75bc
000003c0: 486b 8e3d 7df4 a8bc 5f50 113d d8d5 44bd
000003d0: fc55 15bc c198 7a3d a683 543e efe2 a6bd
000003e0: 5707 86bc c6b6 763c 3038 783d c9c5 15bd
000003f0: f316 d0bc b5e7 c13d be53 27bd fd29 f4bc
0.0012813943 -0.15466975 0.1489194 -0.090648495 -0.11241415 0.07713395 0.1272857 -0.023362556
-0.06581123 -0.18677305 0.16889943 -0.17475882 0.15272945 -0.15218906 0.07093379 0.006577342
0.1066336 -0.120514944 -0.0048682997 0.03984836 -0.02988338 0.050355926 0.18554106 0.30512485
0.022401491 0.032243855 -0.17561068 0.1699348 0.13212302 0.15738347 0.11163572 0.08553792
0.16792245 0.13808672 0.08267026 -0.24558873 -0.02335147 -0.082231775 0.107390046 0.023194809
0.13189405 -0.049139474 0.12095233 -0.15323865 0.08570134 -0.10756889 -0.20238227 -0.19656913
0.13254607 -0.19393459 -0.009316896 0.059132114 -0.16697553 -0.110274665 -0.12344042 0.08766515
0.046236753 -0.14020383 -0.12586425 0.054727986 0.06857196 0.18898481 0.22676447 -0.11545327
0.01120919 -0.0038409275 0.07144297 0.05375586 -0.07700916 -0.021699285 -0.06761881 -0.03856711
-0.011052783 0.19679075 -0.101475105 -0.16146511 0.00554035 0.005662691 0.014596813 0.04890714
0.04909187 -0.001268473 -0.17104037 -0.02038817 0.04319617 0.17567658 0.19936669 0.04992506
-0.014691627 -0.03755113 0.0666899 -0.07404349 0.14047529 0.02036683 0.061745167 -0.1716546
0.0009367677 -0.037674528 -0.07900075 -0.002828612 -0.040308483 -0.04962666 -0.00995054 0.048716955
-0.051464304 -0.040285844 0.10422866 -0.16680485 0.036715366 0.046896677 0.10152519 0.048474588
-0.04789542 -0.05192346 0.0767775 0.012586066 0.03819309 -0.01061843 0.2716722 -0.102008305
-0.041367877 -0.0116543695 -0.035370827 0.06542863 0.043051448 0.2222803 0.085896544 0.083684094
0.022772351 -0.12775075 0.070047945 -0.07868638 -0.14994955 0.17245583 0.0830365 0.06103067
-0.13580061 -0.068066835 0.07814492 -0.1828115 0.06289935 -0.10007363 0.059793223 0.08498112
0.07435134 -0.06456253 0.012919783 -0.008819843 0.12834089 -0.014381543 0.1510957 0.16044647
0.069997795 0.16243647 -0.054431703 0.12735927 0.18316986 0.13603678 0.07030574 -0.009040684
0.10663883 0.10132427 0.19868033 -0.24306723 -0.12197998 -0.20593475 0.010827439 0.033133887
0.12475771 -0.018704092 0.018762749 -0.12632288 0.1503252 0.094345056 -0.22674912 -0.14071225
-0.028093893 -0.1448385 0.052986745 0.13083073 -0.08436855 -0.100548565 -0.06886026 0.09423379
0.18567416 -0.07703149 -0.12109109 0.008519231 -0.040408332 0.089051604 0.053028557 -0.054185823
0.027001567 0.02757584 0.028833987 -0.025980782 -0.07888307 -0.03922385 0.051033467 0.0003187188
0.024091093 0.1933863 -0.040580507 -0.08668431 -0.0007313221 0.042362466 0.034174975 -0.10642252
0.0638896 -0.07242382 -0.11502887 0.08986507 0.047991052 0.16210817 0.22025007 -0.02599721
0.0138703305 0.055992864 0.059117544 -0.11384914 0.04253306 -0.013423594 0.027014494 -0.16583088
0.017264944 0.016877294 0.008627155 0.047990378 0.007413732 0.039603505 -0.0006159737 0.036386073
-0.060874734 0.019409325 0.051146537 -0.123535976 0.051897265 0.013426103 -0.018189762 -0.015005596
0.06954056 -0.020624394 0.03547704 -0.0480555 -0.009114739 0.061180834 0.20753345 -0.08148753
-0.016360922 0.015058225 0.06060046 -0.036565576 -0.025401568 0.09468023 -0.040851347 -0.029805178

enc.fe.u1_FC4.bias f4 [32]
00000000: ee8a 9bbd 75a0 9abd 6d8b cebc cc1e 9f3d
00000010: fe48 9fbd 7a11 af3d 1866 5c3d edac a8bd
00000020: 91e2 fabd 3cea b7bd df22 88be fa0c cc3e
00000030: 09dc c0b9 fb82 f13e dbf8 01be e623 50bc
00000040: 2724 b63b cdab 8c3b 757b 893b d6b9 83bc
00000050: a771 fcbc cb84 0abe 54ca f73c d813 0ebe
00000060: 1849 47be d2ad 853d 8a0f 003d 6383 a33d
00000070: 124d 923e 6f36 89bd a6c7 df3d 7951 d23d
-0.07594858 -0.07550136 -0.025212968 0.07769546 -0.07777594 0.08548255 0.0538083 -0.08236108
-0.12250245 -0.089802235 -0.26589105 0.3985365 -0.00036785033 0.47170243 -0.12692587 -0.012703871
0.005558509 0.004292941 0.0041956254 -0.016079824 -0.030815912 -0.13527219 0.030247845 -0.13874757
-0.19461477 0.06527294 0.03126482 0.079840444 0.28574425 -0.066998355 0.10926752 0.10269446

enc.norm.weight f4 [32]
00000000: 3d6b 4c3f 571e 5c3f b301 583f dbb2 613f
00000010: 2d20 2a3f 4f62 f83e f12b 503f 91db fc3e
00000020: 3bd1 843f 9795 3d3f bfe2 023f ab72 c03e
00000030: 4048 9a3f 9091 003f 7250 a73e a7c7 0e3f
00000040: 9eb9 493f e28e 7e3f b9ac 9e3e 96a2 1f3f
00000050: 1a56 563f a831 183f 5582 833e b5b5 4d3f
00000060: f080 3c3f 2e84 e33e 8c29 4b3f 41b0 763f
00000070: 19eb 473f 7e79 033f a33f 2a3f be66 e93e
0.7985113 0.85983795 0.8437759 0.88163537 0.66455346 0.48512504 0.8131705 0.49386266
1.0376352 0.7405638 0.5112724 0.37587485 1.2053299 0.5022211 0.32678562 0.55773395
0.78798854 0.9943677 0.30991152 0.6235746 0.8372513 0.5945077 0.25685373 0.8035539
0.73634243 0.44436783 0.7936027 0.9636269 0.78093106 0.5135726 0.6650335 0.455862

enc.norm.bias f4 [32]
00000000: 73a3 45bb 54cd aabb 032d 7dbd a22d 8d3c
00000010: c5cd 753d adf5 ccbc 3b21 2e3c 2b6a 82bd
00000020: 4cfe 033e e602 91bd d54e c1bc 22ce 10bd
00000030: 010f 1abe 23e4 11bd f62f cd3c ee25 aebd
00000040: 9160 5f3d 443b bdbd ac43 9dbc 6ebd 063d
00000050: a395 873d 0ffd f4bc 9035 863c 9adb 18bd
00000060: 24ea 62bd a219 49bc 79e1 e83d e8d0 4b3d
00000070: 28f8 0abe 483e 6a3c 29e1 ddbc 8984 5d3d
-0.0030157238 -0.0052124653 -0.061810505 0.017233673 0.06001069 -0.025019491 0.01062804 -0.06367906
0.12889975 -0.07080631 -0.02359716 -0.035352834 -0.15044786 -0.03561796 0.025047284 -0.08503328
0.054535452 -0.0923982 -0.019197308 0.032895498 0.06620338 -0.029905824 0.016382962 -0.037318803
-0.055399075 -0.012274178 0.113711305 0.049759775 -0.13571227 0.014297076 -0.027084904 0.054081473

enc.enc_out1.weight f4 [8, 32]
00000000: e639 6fbd 149b 19be e985 08be a05a 0c3d
00000010: bc30 623c 25b4 22bc 7113 f83d 31b1 eb3b
00000020: 82c0 a63e 2db5 97bd 7442 aa3d b23c bbbc
00000030: cefb febe d985 e0bd c9c1 24be 2a89 803d
00000040: 4b26 043e 8207 a2be 3461 fdbd 436a a1bd
00000050: a4b6 323e 0f67 f2bc 2faa f23d 9547 c9bd
00000060: 9e2d 8fbd d60d 133d 15dd 093e abc1 853e
00000070: 40bb e2bd ff4a b83d 09ea 883d c7d3 e43d
00000080: face 09bc 4f92 e13d 9282 c53d c890 53be
00000090: f5f9 8a3d c0b5 c13d 445a 0ebe b419 e03c
000000a0: 2884 39be 468c 7dbc 5a06 c23d 8ef6 503d
000000b0: 9a10 ed3e e8f6 f83c df6b 37bd d87e 133e
000000c0: d6a2 debd 11bd a73e d1c6 bbbd 5a89 783d
000000d0: 688e 2ebe c375 e5bc b0a2 d73d ac63 363e
000000e0: 9728 c63c 4647 403d d82b 8ebc 15eb 0dbe
000000f0: 6b56 a6bc 7684 893d 1380 af3d 1ae5 b43d
00000100: f339 51bd feff 7dbc b562 48bd 611e 473d
00000110: 5786 ad3c 2165 f53d 7327 9a3c d67d 95bd
00000120: 582e 773e 519f 5cbd 1401 383e 94cb b93d
00000130: b093 8abe cf7a 88bd c74a 2dbc 556e ddbd
00000140: cb49 e23b 1d6b 66bd 0e32 a4bd b613 c7bc
00000150: e754 b73d db8a 02be b08f 033e e130 a3bd
00000160: 9db6 dabd 1a8f efbd d6ef 513c 3fc6 0d3e
00000170: c3ff 973c 359e 6bbd 17cc 00bb 82a3 a03c
00000180: 20d1 90bd cb37 99b9 7b3b fa3c 47c3 303d
00000190: e492 c93d 91c0 e8bd de11 283e 8090 96bd
000001a0: e950 be3e 06a2 ebbb c53a 713b 2b99 f7bd
000001b0: 0e0b f1be 01b4 723d 7569 873d f08b ec3c
000001c0: 63fb c0bd b5cd 2fbe ceab 2a3e 94aa cd3d
000001d0: 2508 953d 00d0 febd bea6 2f3e 9aa6 34bd
000001e0: 91bb e53d f660 7a3c 3452 473d 20d5 7a3e
000001f0: edb4 53bd 8ccc 1dbe b23e 783c 7bb9 d63d
00000200: 3f66 f8bd 0447 f3bd 27fc 0abe 24d8 f13d
00000210: 6bdc 9ebd fc18 9e3d 1b17 7fbd 009c 123e
00000220: ff05 b03e c81d 7abc aac2 20bd 82db c3bd
00000230: 135f 72be 8296 ddbd 7c3e 823d 6799 f73c
00000240: 792e f83b 1bbc d3bd 16e8 b2bc b199 f7bd
00000250: 723b b3bd f79d c8bd ff4e 38bd 3c48 e83c
00000260: 2bf0 f3bc 95ec 1dbd 8811 693e e9fd 823e
00000270: 2d2f 4f3d f435 08be 0060 c6bd b416 3f3d
00000280: 252b c53d d506 c1bb d311 d23a 97bb 7fbd
00000290: 28a8 b53c f6f8 bbbd c141 b5bd f2d9 dc3d
000002a0: 5a3e 56be acf2 4e3d 9f0c 8dbd cb26 883c
000002b0: 4b88 c83e 7e29 3dbd 181c ccbd 8aa7 d5bb
000002c0: f25e 4dbd d38e f53d 4837 8abd 4fed afbd
000002d0: 0f3e 5d3d a601 343d c11a 933d 2aea 433e
000002e0: a755 62bd 7fd2 b0bd cae6 51be 05f2 92be
000002f0: 5e81 b33d 7e17 cabd 841b df3d e3f3 723d
00000300: f20f 5cbd a316 16be 3f31 efbd 82a6 4e3c
00000310: fd52 19bc 942d 923d a0dc ff3d 6f06 243e
00000320: e8d5 fe3d 173d 1c3c f45e 433d e405 073e
00000330: 6e13 dabe 4afd 07bd 7601 d8bd bf82 cf3d
00000340: ec20 1fbd 08dd 3cbe d7b4 093e 74a4 a6bd
00000350: b956 adbc 2efd 0abc 6b1c 91bd a51f acba
00000360: e9b8 0abd a692 3fbd 6e0d cb3d 0050 123e
00000370: 8387 4b3c ceb0 ac3b 08d3 51bd c134 e139
00000380: fd8f ac3d ec14 0dbe 5e4c 163b b094 033e
00000390: 082d fc3d 97eb 323c df16 7b3c 3436 be3d
000003a0: cba1 bf3d 40f2 14bd 541d 2a3d 9007 9c3c
000003b0: 4787 80be 153a 3fbd f762 0fbe 3f13 363d
000003c0: a962 eb3d 8a68 5fbe 271f da3d 71c1 933d
000003d0: ba73 0fbe 6b34 8cbc 019c 0b3c 8bdf cdbd
000003e0: 578f 99bc 8fc2 263d e061 a03d ca6e aa3d
000003f0: 146c 19bd 3f78 6dbd 4a6b eebd c5b9 4ebd
-0.058404826 -0.15000564 -0.13332333 0.034266114 0.0138055645 -0.009930645 0.12113083 0.0071927537
0.32568747 -0.074076034 0.08313456 -0.02285609 -0.49801487 -0.109630294 -0.16089548 0.06276162
0.12905233 -0.31646353 -0.12372056 -0.07881596 0.17452484 -0.029590158 0.11848866 -0.09828106
-0.06991123 0.035901867 0.13463242 0.2612432 -0.11070871 0.08998679 0.06685264 0.11173206
-0.008411163 0.11014234 0.09644045 -0.20660698 0.06785957 0.09458494 -0.13901621 0.027356006
-0.1811682 -0.015475338 0.09473868 0.051016383 0.46301728 0.030391172 -0.04478061 0.14403856
-0.10870902 0.32761434 -0.091687806 0.060677864 -0.17046511 -0.028010255 0.10529077 0.1781146
0.024189277 0.04694297 -0.01735489 -0.13859208 -0.02030488 0.06714718 0.0856935 0.0883276
-0.051080655 -0.015502928 -0.04892226 0.048612956 0.021182222 0.119821794 0.018817639 -0.07299392
0.24138772 -0.053862873 0.17969161 0.090720326 -0.27065802 -0.06664049 -0.01057691 -0.1081206
0.0069057695 -0.056254495 -0.0801736 -0.024301391 0.08951741 -0.12748282 0.12847781 -0.07968307
-0.10679362 -0.11697216 0.012813529 0.13845156 0.018554574 -0.057523925 -0.0019652897 0.019609217
-0.070711374 -0.00029224003 0.03054594 0.04315498 0.0984247 -0.11364854 0.16413066 -0.0735178
0.37171105 -0.0071909456 0.003680871 -0.12089761 -0.47078747 0.059253696 0.06611911 0.028875321
-0.09422948 -0.17168315 0.16667101 0.10042301 0.07276944 -0.124420166 0.17153451 -0.044104196
0.11217416 0.015281906 0.04866238 0.24495363 -0.051686216 -0.1541006 0.0151516665 0.10484596
-0.12128877 -0.118787795 -0.13572751 0.11808804 -0.07756885 0.07719609 -0.062277894 0.14317322
0.34379575 -0.0152658895 -0.039248146 -0.09563352 -0.2366908 -0.10819723 0.06359574 0.030224515
0.0075738993 -0.10338613 -0.021839183 -0.12089861 -0.08751573 -0.097957544 -0.04499721 0.028354757
-0.029777607 -0.0385557 0.22760594 0.25584343 0.0505821 -0.13301831 -0.09686279 0.04665251
0.0962737 -0.005890707 0.001602704 -0.06243476 0.02217491 -0.09178345 -0.08850432 0.10783757
-0.20922223 0.0505244 -0.06887173 0.01662006 0.39166483 -0.04618215 -0.09966296 -0.0065202164
-0.050139375 0.11990132 -0.06748825 -0.08590185 0.05401426 0.043946885 0.07182837 0.19132295
-0.055257466 -0.08633899 -0.20498195 -0.2870027 0.08764909 -0.09867762 0.1089392 0.05931462
-0.053726144 -0.14657073 -0.11679315 0.012612941 -0.009358165 0.071375996 0.12493253 0.16018079
0.12443143 0.009536049 0.047697976 0.13185841 -0.4259295 -0.03320054 -0.10547154 0.1013236
-0.038849756 -0.18443692 0.13447891 -0.08136836 -0.021159517 -0.008483214 -0.070854984 -0.0013131989
-0.03386775 -0.046770714 0.09914671 0.1428833 0.012422445 0.0052701 -0.051226646 0.0004295465
0.08425901 -0.13777512 0.0022933702 0.12849689 0.123132765 0.010920427 0.015325277 0.09287682
0.093570314 -0.03636384 0.041531876 0.019046575 -0.25103208 -0.04668625 -0.14002596 0.04445195
0.11493427 -0.21817222 0.10650473 0.072146304 -0.1400899 -0.017114839 0.008521081 -0.10052403
-0.018745108 0.04071289 0.07831168 0.083219126 -0.037456587 -0.057976004 -0.116415575 -0.050470132

enc.enc_out1.bias f4 [8]
00000000: 1989 2c3e 9b2e 203d 392c 88bc 7f5c ff3d
00000010: fc53 8ebc a939 8fbd 2526 e63d d27f 2c3e
0.16849174 0.039106946 -0.01662265 0.12468814 -0.017374031 -0.0699342 0.11237744 0.16845635

enc.enc_out2.weight f4 [1, 8]
00000000: 03ab 9e3e 5119 a0be 39b4 273c fbad fd3d
00000010: a267 313e 8759 01be 4a12 d23c 593c 233c
0.30989847 -0.31269315 0.0102358395 0.123867 0.17324689 -0.12631808 0.025643487 0.0099631185

dec1.fe.FC1.weight f4 [64, 9]
00000000: ac55 70be 3c85 813c c50c 353c d00e d23d
00000010: 2b65 8dbd 2a4b 4dbc 56d4 893c 116c b4ba
00000020: 0493 c43a 1247 c03e 759f edbd 0b25 0f3c
00000030: 74ba 783e b688 32be d6db 28bc 5939 553e
00000040: 2da9 f83d 8bef f93b 3be1 07be d008 2f3d
00000050: 9c0e 073d ef08 c8bd 825c 443d 278b 2e3c
00000060: f042 6bbc d8d3 c4b9 585f f03c 192e 96be
00000070: 36ba babc 985a f83d e55f 2bbe 839a 423e
00000080: 80e7 dbbd 7a23 eabc 8058 b5bd 3967 24bd
00000090: baac e1ba b5e0 c73b a29b bf3c bb7a a8bd
000000a0: 0be9 e8bc ed17 e6bb 29a1 f9bc 044a 8ebc
000000b0: 926f 2dbc afd6 bcbe 75de 02bd f170 d43d
000000c0: bfd5 3bbe b5f8 863e 5d11 21be 3217 08bd
000000d0: 1ff6 63bc 519e 08be 9720 5b3e 6138 afbd
000000e0: fa53 87bd 0663 2b3e 3b3d 25be 0245 543e
000000f0: 5725 033e 9f77 1dbd 05fa b53d 1ee6 913d
00000100: 2940 dbbb adc1 4cba c6dd c0bc f487 673d
00000110: 5294 a6bd 7bff 9abd 9f15 95bd c645 84bd
00000120: cffb 8c3d a864 84bc 37f6 28bc 3c9a 673d
00000130: 8acb 4fbd cfe8 13be d465 93bd c1b3 b0bc
00000140: dcf6 203c 2a44 67be 3e72 153e 8ffc aa3d
00000150: cca4 58be b0de 873d 1e1d eeb8 3a61 f0ba
00000160: fec3 08be 96f1 ebbd 6a78 913e 4fa4 9dbd
00000170: dbb8 7bbd 37b4 1b3e 69a7 90bd 90d1 af3c
00000180: 27a2 3a3c 5802 f439 d3d4 103c 47cc 08bd
00000190: 7b66 5f3d 06b2 153b ec05 1bbd 83e7 863c
000001a0: 8da9 85bd e3a5 1bbd 1d64 983d 2b40 2c3d
000001b0: 6558 f03e 50fc 1c3d c5b2 44be a247 873e
000001c0: c1dc 9fbe ccd4 373e 1906 293d 62e6 0e3e
000001d0: 30a4 7f3d aa33 80bc e667 363a c72c e73a
000001e0: 1c0d 2dbc fbd3 1ebc 6a49 ccbc 27f0 643d
000001f0: dbb8 cfbc 926a 5f3e 58e6 943e 2d5a afbd
00000200: 6dae 74bd 2fd7 353e 3400 dabd f8d3 8e3d
00000210: 0a56 693d 9049 c13c 6d88 e73a 16fe 13be
00000220: 5aee 193d 8351 f43c 68fc b0bd 6410 393d
00000230: 36b2 293c be45 203c 723c 433c f4dd 333c
00000240: e3f4 bc3e 1e83 f1bd a121 81bd 5b7a 783e
00000250: d8ec 4bbe 453e 483e b1c5 363e a327 8e3d
00000260: d6fc ae3d 8aeb a3be 6108 af3d 360c 633d
00000270: 1c61 4ebe 1fc2 1e3e 7240 72be 233a bebd
00000280: 23ed 8a3d 8f5b 78bd dee1 8a3c 8e99 5f3c
00000290: ee8e 053a da01 70bd d6f2 593c 294b 2abb
000002a0: b530 29bd d41a 3abc f833 4d3d ca53 103e
000002b0: fe0a 2abd bdbb 4bbd b5d8 f23d 0937 75bd
000002c0: c8c2 43bc 592c 093d 435d 7c3d f19a b83b
000002d0: 0789 e6bd bce4 213d c901 393d d8c3 fabd
000002e0: de9f ec3d 346d 00be a2c7 d9bd e11d 9abd
000002f0: 1896 9cbd a4ef 95be 0e88 ab3d 2add 9d3d
00000300: dc62 4abe 51d0 143e 3fbb f4bd 16d3 cfbd
00000310: 1340 cfbd e8b0 9bbc 8bb4 28be 004c b43c
00000320: fba7 fa3b 22fc c43c 1528 b2bd af73 113e
00000330: 9c56 063e 54ca e83d c07f c63d 065b 8f3c
00000340: 8a3c 6fbd c2b1 153c a0d9 b53c cb89 34bc
00000350: c10f b73c 38a0 eabb 52f8 863c 0b15 483c
00000360: a5fb 5d3e c638 78bd 07a2 1fbd 993b 0b3e
00000370: 51de d3bd 64b8 273e c551 6a3d 0bd7 48bd
00000380: 5f80 343d b260 03bf a9aa 0e3e 6bc7 d03d
00000390: 84d4 8bbe 55a1 2a3e ddd6 26be 2cbf e4bd
000003a0: e024 10be c017 cabd dbb9 8f3e c0e5 92bc
000003b0: a9c9 f8bd 9da2 493e 728a 1fbe a59b 6e3d
000003c0: 7cbb 423d 3b7a ab3d db70 563c 9822 793e
000003d0: 7fab 97bd f7c2 9fbd 534e 5e3e 4916 3abe
000003e0: 9d63 163e 847f de3d 7de8 a03d 42ea 933d
000003f0: 4e9d 913d 0232 1bbd 5212 8fbd 9668 133e
-0.23470181 0.015810601 0.011050408 0.102567315 -0.06904062 -0.012530128 0.016824882 -0.0013765116
0.0014997427 0.37554222 -0.1160268 0.008736859 0.24289876 -0.17434964 -0.010306319 0.20822658
0.12141643 0.0076274327 -0.13269512 0.042733014 0.032972917 -0.09767329 0.047939785 0.010653294
-0.014359221 -0.0003754187 0.029342338 -0.29332045 -0.02279387 0.121266544 -0.167358 0.19004254
-0.107375145 -0.02858137 -0.08854771 -0.040137503 -0.0017217614 0.006099785 0.023389641 -0.08226534
-0.028431436 -0.007021895 -0.030472355 -0.017369278 -0.0105856825 -0.3688254 -0.031950433 0.10373104
-0.18343256 0.26361623 -0.1572928 -0.033225246 -0.01391366 -0.13341643 0.21399151 -0.08555675
-0.06607814 0.16736993 -0.16136639 0.2072945 0.12807213 -0.038444158 0.08885578 0.071239695
-0.006690998 -0.00078108424 -0.02354325 0.05652614 -0.081337586 -0.0756826 -0.072795145 -0.06458621
0.06883966 -0.016161278 -0.010312608 0.056543574 -0.05073122 -0.14444278 -0.071971565 -0.021570088
0.009824481 -0.22584596 0.14594361 0.08348953 -0.21156615 0.06634271 -0.00011354148 -0.0018339523
-0.13356015 -0.11520688 0.2841218 -0.07697355 -0.06145559 0.15205465 -0.07063181 0.021462232
0.011391199 0.00046541053 0.008839804 -0.03339794 0.054541092 0.0022841706 -0.037847444 0.016467815
-0.0652648 -0.038 0.0744097 0.042053383 0.4694244 0.03832656 -0.1920882 0.2642184
-0.3122311 0.1795227 0.04126558 0.13955072 0.06241244 -0.015649635 0.0006958231 0.0017637246
-0.010562208 -0.009694095 -0.02493735 0.05589309 -0.0253567 0.21817997 0.29081988 -0.085621215
-0.059736658 0.17757867 -0.1064457 0.069740236 0.05696682 0.023594648 0.001766456 -0.14452395
0.037580825 0.029824024 -0.08641893 0.045181647 0.01035743 0.009782253 0.011916267 0.010978211
0.36905584 -0.11792587 -0.06305242 0.24265425 -0.19914567 0.19555004 0.17848851 0.06941154
0.085443184 -0.3201564 0.0854652 0.055431567 -0.20154232 0.15503739 -0.23657396 -0.092884324
0.067835115 -0.060634192 0.016953405 0.01364745 0.00050948455 -0.058595516 0.0133025255 -0.002598474
-0.041306216 -0.011358935 0.05009839 0.14094463 -0.04151439 -0.049739588 0.1185774 -0.05986694
-0.011948295 0.03348956 0.06161238 0.005633705 -0.11256605 0.03952478 0.045167718 -0.122443855
0.1155393 -0.12541658 -0.1063378 -0.0752523 -0.076458156 -0.29284394 0.0837556 0.07708199
-0.19764274 0.14532591 -0.11949777 -0.10147683 -0.10119643 -0.019005254 -0.16475122 0.022008896
0.0076494194 0.024046008 -0.08699051 0.14204286 0.13118976 0.11366716 0.09692335 0.017499458
-0.058407344 0.009136619 0.022198498 -0.0110191805 0.02234638 -0.007160213 0.01647583 0.012212048
0.21678026 -0.06060102 -0.03897288 0.13596953 -0.10345138 0.16378933 0.057206888 -0.049033206
0.044067737 -0.5131942 0.13932289 0.10194286 -0.27310574 0.16663106 -0.16292901 -0.11169276
-0.14076567 -0.09867811 0.28071484 -0.017931819 -0.121478386 0.19690938 -0.15580156 0.058253903
0.04754208 0.08372923 0.01308843 0.24329603 -0.07405757 -0.078008585 0.21709566 -0.18172564
0.14686437 0.108641654 0.078568436 0.072224155 0.071100816 -0.037889488 -0.06985916 0.14395365

dec1.fe.FC1.bias f4 [64]
00000000: d525 b5be 6139 0e3e dbf6 e93b 2fb3 1a3e
00000010: 4819 b43d f4ee 203b 822a b53e a28e b13e
00000020: e787 a0be 9a1a 503d 32cf 1abe 6fb4 d93e
00000030: 928e 6ebe 750e acbe 6440 93be e2ee 6d3e
00000040: 11d8 97be 8391 9cbe 46f7 ad3e 2c2d 073f
00000050: 5050 95be 60a2 a5be 2169 09bd e14a d23e
00000060: 9079 4e3e a0bd b6be d55e d6bd 9dad 6cbd
00000070: 126a 0d3f e7b3 2bbe 9caa edbd 86d8 453e
00000080: ffe0 11be c5b2 4cbe 1bfd 4c3e bbce 49be
00000090: f4ea 583d dc53 f63d b703 ba3e ffa8 7d3e
000000a0: 3e2a 233e a882 42bc 05f9 a7be 10b4 1e3e
000000b0: 23ec d6be 1831 363d 3be5 1dbe 3872 0fbe
000000c0: cd1b 643e 2191 c9bd 00f1 f3bd cff1 183e
000000d0: 9f55 a9be 1682 fbbd fde2 7cbd e2bc 453d
000000e0: d600 86be f4cf 36bd 0fea 43be b849 b0be
000000f0: 2759 803e 8eef 77be 945b 1b3e 2011 973d
-0.35380426 0.13889076 0.007140023 0.15107416 0.087938845 0.002455649 0.35383993 0.34679133
-0.31353685 0.05080662 -0.15118101 0.42520472 -0.23296574 -0.3360478 -0.28760064 0.23235658
-0.29657033 -0.30579767 0.33977717 0.528033 -0.29162836 -0.32350445 -0.033547524 0.41072753
0.2016356 -0.35691547 -0.104673065 -0.057782758 0.55239975 -0.16767846 -0.11604807 0.19320878
-0.14245985 -0.1999007 0.20018427 -0.19707768 0.052958444 0.12027714 0.3633096 0.24771498
0.15934083 -0.011871971 -0.32807174 0.15498376 -0.41977033 0.044480413 -0.15419476 -0.14008415
0.2227623 -0.09842134 -0.119112015 0.14935993 -0.33073136 -0.12280671 -0.06173991 0.048275836
-0.26172513 -0.044631913 -0.19132255 -0.34431243 0.25068018 -0.24212477 0.15171653 0.07376313
