Lightcode/bc/rate310/light_bc_rate310_snr2.pt (torch, 177136 bytes, 38 tensors)

enc.fe.u1_FC1.weight f4 [64, 27]
00000000: 77f8 09bc aba2 cb3c fe24 6dbc c19d 22be
00000010: 14cc 6a3d dfaf 88bf fc4c d8be ac0b 8ebe
00000020: 0385 0ebf c89b a13b 09ab 683a 44dc 053a
00000030: ccd9 f73a d7e8 0b3c 0395 20bd 39c6 683d
00000040: 720d 9f3c d973 023f e4a7 48ba 44a7 87bc
00000050: 3457 983c 55a1 d23d 6e62 69ba ad74 213f
00000060: 7713 a4bc 7446 2f3d db3e 933d 1a48 40be
00000070: 9f21 96bd 7081 613d 7ec8 f83d 3f91 4c3e
00000080: 60a1 7d3e bcb6 053e e6ec 5fbe 3118 0abe
00000090: fe57 fa3d 50af 843b fef4 abbb ce11 f3bb
000000a0: 0ed7 e1bc 0112 70bd 181f d73a b704 2d3e
000000b0: df0e 683d 8898 9b3a 80a5 3d3d acd0 62bd
000000c0: 6fb8 c1bd 0565 0bbe 85a3 6abe 2387 f1bd
000000d0: c7b5 603d 6b8c c0bd e8bf e83e 8764 ccbd
000000e0: 9a86 3dbc 4a77 6e3d e2a2 e9bc 1f34 74bb
000000f0: 5793 6abc 6b63 90bd 722e 773c c97b 0f3e
00000100: 36e8 a8bb e0d3 8d3a 4761 ad3a a5b8 fc3c
00000110: 6f32 8bbd e74c 323d 49cf 713d 41c0 753b
00000120: cb7f 65bb 9f3c 8c3d f9f1 0dbd 83e6 65bd
00000130: dd27 69bc 0981 14bb b269 a3bb 5ab6 2e3b
00000140: 9763 f8bb dfdb e53d 6293 713e 50a4 463d
00000150: 9e8f 2b3d cf1e b83d f394 d4bc e1ab febb
00000160: 3e25 2dbd 0750 c53c f7f2 97be c829 0bbc
00000170: eff5 7239 6ece b6bb cd3d 8ebd b50d 093e
00000180: 2cd5 c0bd e9ba 20bc ef4e abba 3d08 9cbb
00000190: 1b03 05be b173 633d 5dd8 263c 2b92 19bd
000001a0: c206 93bb 723c 1bbc 01f1 46bb 5ae9 90bc
000001b0: 0ac5 ac3a 65ec 84bc 581e 8bbc 38b5 343b
000001c0: bbb2 95bb 5971 1b3f 487e c53e 2661 ccbd
000001d0: 6eea 04bf 29f1 b2ba a63e 2ebb a380 ae39
000001e0: 1d57 1339 dbb4 183c dc0c c5bf 0864 b43d
000001f0: 622b 3f3e 27e7 e4be 87b1 5438 6b7b fd3b
00000200: 4f15 0a3b ea61 073a df3f c0ba 73d8 a93e
00000210: df27 f33d 051c 733e f114 53be a202 04bc
00000220: 2144 ba3e a12f fb3b a4ef d43c eeb9 8e3c
00000230: 3ba9 303d 550b 9a3c 13f4 993c d3ed 16bd
00000240: 66e3 d23b 1ef5 18ba dc38 8f39 5486 1f3b
00000250: 5736 023b 30f9 6abc 4052 c43c 393f a03b
00000260: d2ba 7f3d 5578 94ba c389 6e3d 5b6d f6bc
00000270: a0ff cbbc 644b abbc 9f33 3bbd 0b87 70bd
00000280: 42b7 113c d116 a13c 8267 91bd 8519 a63e
00000290: dd9d ad3d 1491 d3bc b131 c6bd 0468 6c3e
000002a0: ec3d b9bd acf8 d8bd 0b0d 71bd 6462 153d
000002b0: 12de 5b3b 7498 9dba e428 c23b 9f3c d1bd
000002c0: 23ca 883b b0c7 3e3d 2321 543e ae78 c2bc
000002d0: 589a 093c 4941 47be 5827 963d 255d 743d
000002e0: a5ce 553e 69a3 393e 8dde b7bd eca4 263e
000002f0: ee06 e43b 6e5e 87be e7ac 57be da32 35bd
00000300: 1ff2 aa3c 348f 92bc 11a5 763c f756 123c
00000310: 096f d43d e42d b2bc de9e 93be 9fee 5e3b
00000320: 66c3 8aba f24f 2ebc d2b3 85bd 47eb 063e
00000330: 7ba1 aebd f5c3 b3bd a3fc 0c3c 94d9 d1bb
00000340: bb89 ff3d 3b55 63bd 5f4b 38bd 0134 31bc
00000350: d1c4 27bc 9368 bd3b 1811 0cbc 6938 cfbb
00000360: b03a 043e a850 9c3e e99a a0bd 9b30 993c
00000370: 02d7 31bc 30fb 003e 09a9 bc3e 9adf 0a3e
00000380: da6e 113f 86ea aebd 2167 2fbb fa78 603a
00000390: 37d9 a3ba 1b3d 8cbc 88dc e23b 9d91 41be
000003a0: 77e3 46be 91cf 04bf 6dae b1bb cef7 4bbe
000003b0: 0b65 323e 850f c73d 6c6f 843d a08b cfbc
000003c0: b86d 3fbd 6b4c 893c 8f29 873b a251 e53e
000003d0: 6014 46bd 1783 0a3c 969e 31bb d3a2 51be
000003e0: 596e 343d 81a4 453e f00a 733e 1835 0e3d
000003f0: 2934 97be 8d29 823c b641 983b 0342 5cbc
-0.008421055 0.02485784 -0.014474152 -0.15880491 0.05732353 -1.0678672 -0.42246234 -0.2774328
-0.5567171 0.0049319007 0.0008875584 0.00051063695 0.0018909513 0.0085394 -0.03920461 0.056829665
0.01941559 0.5095802 -0.0007654412 -0.01655925 0.01859627 0.10284678 -0.0008902912 0.6306866
-0.020028813 0.0427918 0.07189723 -0.18777505 -0.073306315 0.05505508 0.12147616 0.19977282
0.24768591 0.13057989 -0.21867713 -0.13485791 0.122238144 0.004049219 -0.005247711 -0.007417894
-0.027568366 -0.05861092 0.0016412465 0.1689633 0.056654807 0.0011871019 0.04630041 -0.055374786
-0.09459006 -0.13612755 -0.2291394 -0.117933534 0.054860856 -0.094017826 0.45458913 -0.099801116
-0.011567736 0.05821923 -0.028520051 -0.0037262512 -0.014317355 -0.070502125 0.015086757 0.14012064
-0.005154635 0.001082059 0.0013227843 0.030849764 -0.06796729 0.04353037 0.059035573 0.0037498625
-0.0035018797 0.068475 -0.03465459 -0.056128036 -0.014230696 -0.0022659919 -0.004986965 0.0026658983
-0.0075802314 0.11223578 0.23591378 0.048496544 0.04188501 0.08990251 -0.02594993 -0.0077719544
-0.042271845 0.024086012 -0.29677555 -0.008493848 0.00023170536 -0.0055788076 -0.06945381 0.13384135
-0.09415659 -0.009810188 -0.0013069789 -0.0047617243 -0.12989466 0.055530254 0.010183421 -0.037492912
-0.0044868896 -0.0094748605 -0.0030356052 -0.017689396 0.0013181281 -0.016226003 -0.016982242 0.0027573835
-0.0045684255 0.6071983 0.38572907 -0.09979467 -0.5192021 -0.0013652194 -0.0026587634 0.00033283708
0.00014051465 0.009320463 -1.5394549 0.08808142 0.18668893 -0.44707605 5.0710074e-05 0.00773566
0.002106983 0.00051644316 -0.0014667473 0.3317295 0.11872839 0.23741157 -0.20613457 -0.008057268
0.36380103 0.00766559 0.025993176 0.017422643 0.04313014 0.018804232 0.018793141 -0.0368479
0.0064357994 -0.0005834865 0.0002731745 0.002434154 0.0019868815 -0.0143416375 0.023965001 0.004890349
0.062434025 -0.0011327366 0.05823685 -0.030081442 -0.024902165 -0.020909972 -0.045703527 -0.058722537
0.00889379 0.0196642 -0.07099821 0.32441345 0.08477376 -0.025826015 -0.09677447 0.23086554
-0.09045014 -0.105943054 -0.05885033 0.036470786 0.0033549112 -0.0012023584 0.0059252847 -0.10216641
0.004174487 0.046577156 0.20715766 -0.023739185 0.008398615 -0.19458498 0.07331723 0.059659142
0.2087961 0.18128742 -0.08977995 0.1627385 0.006958834 -0.26439232 -0.21062051 -0.04423795
0.020867405 -0.01789055 0.015054003 0.008931867 0.10372741 -0.021750398 -0.28832144 0.003401674
-0.0010586798 -0.010639178 -0.06528439 0.13175689 -0.08526894 -0.0877761 0.008605155 -0.006404111
0.12477442 -0.055501204 -0.044993754 -0.010815621 -0.010239796 0.0057802885 -0.008548997 -0.0063238633
0.12913013 0.30530286 -0.07842047 0.018699935 -0.0108544845 0.1259582 0.36847714 0.1356186
0.5680977 -0.085408255 -0.002676435 0.0008562949 -0.0012500648 -0.017118981 0.006923262 -0.18903203
-0.19422708 -0.5187922 -0.0054224045 -0.19918749 0.17421357 0.09719757 0.064665645 -0.025335133
-0.046735495 0.016760072 0.004124827 0.44788843 -0.048359275 0.008454106 -0.0027102581 -0.20472269
0.04405055 0.19301035 0.23734641 0.034718603 -0.29531983 0.015888954 0.004646505 -0.013443473

enc.fe.u1_FC1.bias f4 [64]
00000000: c075 95bb c108 94bd 3fde 27bf 9ebf b43e
00000010: 8223 83bc a827 dabe 397a 513d 23b5 03bf
00000020: 4d33 9abb 98e1 33bd 4be7 c43b 1082 d53d
00000030: 12a3 bebe 8971 29bd aa53 003e 662b c8be
00000040: e9f5 21bd 3647 8cbc 5ed4 983e dbc4 993d
00000050: ea6c bbbe 918b 443e 4eb2 7cbd 52c8 13be
00000060: 7908 4dbe c6c7 d9bc 6721 c03d 2b4a c83d
00000070: 096e 693e bc74 b5bc 6faf 5ebd d8aa 903c
00000080: 44f5 87bb dc1d 4cbe 332e 8d3e 5663 113e
00000090: efe5 c2be 7805 03bd 7a30 2fbd e45e feba
000000a0: 5da6 f53d aea1 f5bd 2639 23bb 157d 24be
000000b0: bdb0 92bc f008 fcbd cbb4 663e 998f 613c
000000c0: 7541 923e c96a ff3c b72b 563e 1ecd ce3e
000000d0: 7700 0f3f 23c1 6e3e e63d 9d3c 08c9 013f
000000e0: 6ffd 483e da01 dcbb c359 bf3d 9d97 18be
000000f0: 0436 82bc 835a 0a3f 1970 2f3e 36d1 2ebd
-0.004561156 -0.07228232 -0.65573496 0.35302442 -0.016008142 -0.4260838 0.05114195 -0.5144827
-0.0047058226 -0.043916315 0.0060090176 0.10425198 -0.37233788 -0.04136804 0.12531915 -0.3909561
-0.03954116 -0.0171238 0.29849523 0.0750825 -0.36606532 0.19193865 -0.061693482 -0.14431885
-0.20022763 -0.026584517 0.09381371 0.097797714 0.22795881 -0.02215039 -0.054366525 0.01765959
-0.004149111 -0.19933265 0.2757431 0.1419805 -0.3806605 -0.031987637 -0.04277084 -0.0019406942
0.11994622 -0.119937286 -0.002490589 -0.1606334 -0.017906541 -0.12306392 0.22529905 0.0137671465
0.28565565 0.031178849 0.20915113 0.40390867 0.55860084 0.23315863 0.019194555 0.50697374
0.19627927 -0.006714088 0.093432926 -0.14901586 -0.015894897 0.5404436 0.17132606 -0.042679988

enc.fe.u1_FC2.weight f4 [64, 64]
00000000: aced 1b3e 6781 98bd 5422 ca3c 6112 11bd
00000010: eba1 e33b 01cf dfbe 88cf 9ebb 792b 6b3d
00000020: 596e 07bf ca21 8dbe bd21 04be 434a 6b3e
00000030: 5ee6 59bf c7de 883d 33b6 fa3d 69c6 a1bc
00000040: c55a cbbd cb05 febe c91f 4f3e 1524 8cbd
00000050: 0d5c f9be 7b98 0dbd c7c0 de3e 50b0 34bd
00000060: 1e1a f0be 9fd6 b7bf a42c 403e 176d 3b3e
00000070: 625f d2bc 12d2 3fbe be00 0e3d e394 f53d
00000080: b4ff 95bd 5eb5 6e3d 4bb3 16bd dddf 45be
00000090: 5400 bc3d e954 02c0 4b7e 823b eea6 973c
000000a0: ba46 8f3e 3257 8dbe 6150 6c3c 11bc 60bc
000000b0: c788 833d f325 013d 496d d5bd 9209 a2bd
000000c0: d944 c0be 8133 febd 36e5 d2bc a183 90bc
000000d0: e817 ab3c 292b 863e d93e 543d b606 7e3d
000000e0: 0eaf 25bd 156b 90bb 4476 43bc 5e08 1b3d
000000f0: 1e99 b13a 569e e5be 5f34 66be c39f 1f3e
00000100: 83a1 be3d 6d9b 9abd 71bb 3fbd 3b70 37be
00000110: a555 3abd 0eab eebd c573 50bd 7f4b aabd
00000120: ebbb 57bc d704 77bd 3511 aebd 06fc 13be
00000130: d181 353d 5349 febd 9564 0fbe 4b3a 33be
00000140: 03ab fa3c ee7d 4dbe d1c2 1dbe 7136 3fbd
00000150: 5bb9 21be 5632 2c3d 1045 a5bd c602 27be
00000160: d4aa 05bc 7add 143b 2bb1 1fbe 1af0 2cbe
00000170: 8bba 9bbd 1079 37be 0020 6fbd c148 a7bd
00000180: 939b 28be 7d0f 81bd 3775 f7bd af84 96bd
00000190: ace1 0a3d de39 1bbd f60c c03d df5c 67be
000001a0: 4c0e 063d 9aaa 2fbe be77 0cbe 0821 acbc
000001b0: 832d debc f91d 2cbe c939 28be 168b e1bd
000001c0: b513 a9bc 200f 8d3d 5027 ac3b 2539 ad3c
000001d0: 86e9 d93c d629 d53c a89f 20be 69b7 10be
000001e0: 77a9 27be a0aa ccbd d555 5b3d f3b9 6c3b
000001f0: caad 98bc 9118 94bc 6691 24be 1ec7 06be
00000200: 6bf6 82bf d6fa 18bd 2e04 133d 718b bc3d
00000210: 3fc7 b6bf 4e60 c73e c0e6 a23c ba7b 86bd
00000220: 5232 a3bd 77b2 71be c4d7 4cbe 01dc 503d
00000230: b2b9 0b3f 4e65 8c3d 3487 d8bd b3f8 5cbe
00000240: 1a6b 8cbd 7a89 87be ca60 f9bc 6519 1dbe
00000250: 97f2 95be 5eb5 3d3e 2b6d b43d ba28 a53c
00000260: 8892 323e 944b 10bf 3344 5e3e ecc2 463d
00000270: 16a3 b13c b38a 143e 5de9 59bc ee1a 03be
00000280: b0e0 a83e 6e0a d63d 4b55 0bbd fb25 b9be
00000290: b749 823e 673c 55bf 64d4 c7bc 579f a23e
000002a0: 186b 01be 475d 13be eb1c 253d f94f a2bd
000002b0: daa6 f73d daf1 a1be 3309 2abe e4ae 60bd
000002c0: 0302 163e 2035 bdbc 76bc 8f3d 876c c63b
000002d0: 073f 46bd 4732 abbc 3e73 343e 18ea 96bd
000002e0: 9316 f0bd f41e a0bf f8ef 81be 72ae abbe
000002f0: f963 84bf 9572 02bd b718 893b e28b b2be
00000300: 1410 4fbd 4849 d7bc 8206 fabd f4a8 3dbe
00000310: 317c 833d a386 95bd 34a3 063c dd8b 9f3e
00000320: 63ac d8bd 7653 d0bd 9d05 acbb b828 143d
00000330: f7f3 2d3e 9ab7 5b3d 23fb f9bd 5ed9 e4bc
00000340: 2106 693c a500 c73d 0212 723e 4539 d2bd
00000350: e6d8 b33d e7c8 38be b898 45be 9111 3a3d
00000360: 8093 5a3e a6c2 cb3d 70dc e63d 48ae 403e
00000370: 9bea 11be fba3 0dbd f72c fc3c 88cb f73d
00000380: f69a ec3c 25eb 923b 4666 903d e497 fdbd
00000390: 8432 ae3d 5919 183e b0bb be3d 3030 c63c
000003a0: 7168 ee3c 810b a2bd 9b8d 94bd 046d 683c
000003b0: 0d06 98bc 662d 7cbd 7273 b0bb 7f9a ef3b
000003c0: 6ed8 af3d b9f5 0e3d a77d 8e3c 6a06 49bc
000003d0: ded6 c73d 8ca6 bb3d 0081 2bbe d228 4f3e
000003e0: 4400 a33b 0207 843c 3d64 e53d 9dab 0ebd
000003f0: 7640 233d f01d c3bd b197 653d a14f 983d
0.15227383 -0.074465565 0.024674572 -0.035417918 0.0069467924 -0.4371262 -0.004846517 0.057414506
-0.5290275 -0.27564842 -0.12903495 0.22977547 -0.8511714 0.066831164 0.12241783 -0.01974793
-0.09929422 -0.49613795 0.20226969 -0.068428196 -0.48703042 -0.034569245 0.43506452 -0.044113457
-0.46894926 -1.4362372 0.18767029 0.18303333 -0.025680248 -0.18732479 0.034668677 0.119912885
-0.07324162 0.058278434 -0.03679208 -0.19323678 0.0917975 -2.0364325 0.0039823405 0.018512215
0.27983648 -0.27605587 0.014423461 -0.0137167135 0.064225726 0.03153033 -0.10421235 -0.07911982
-0.37552527 -0.12412167 -0.025744062 -0.01764089 0.020885423 0.26204804 0.05181775 0.06201812
-0.04045015 -0.0044072964 -0.011930052 0.037849776 0.0013549661 -0.44847363 -0.22480915 0.15588288
0.0930815 -0.07549176 -0.046809617 -0.17913906 -0.045491833 -0.1165372 -0.050891656 -0.08315181
-0.013167362 -0.06030735 -0.08499376 -0.14451608 0.044313256 -0.12416329 -0.14003213 -0.17502706
0.030599123 -0.2006757 -0.15406348 -0.04668278 -0.15793364 0.04204019 -0.08069813 -0.16309652
-0.008158404 0.0022715018 -0.15594928 -0.16888466 -0.076039396 -0.17917275 -0.058380127 -0.081681736
-0.16465597 -0.06301782 -0.12082904 -0.07349526 0.033906624 -0.037896983 0.09377472 -0.22594021
0.03272848 -0.17154923 -0.13717553 -0.021011844 -0.027121311 -0.16808309 -0.16428293 -0.11012857
-0.02063928 0.068876505 0.00525371 0.021145413 0.02660061 0.026020925 -0.15685904 -0.14132465
-0.1637324 -0.09993482 0.053548653 0.0036121577 -0.018637557 -0.01807812 -0.1607109 -0.13161895
-1.0231451 -0.03734859 0.035892658 0.09206284 -1.4279555 0.38940662 0.01988542 -0.06566568
-0.07968582 -0.23603235 -0.20004183 0.050991062 0.54580224 0.0685526 -0.10572663 -0.21579246
-0.068563655 -0.26472074 -0.03044166 -0.15341718 -0.29286644 0.18526217 0.08809885 0.020161022
0.1743871 -0.56365323 0.21705703 0.048525736 0.02168421 0.14506035 -0.013300267 -0.12803242
0.32983923 0.10451208 -0.03401689 -0.3616179 0.25446865 -0.8329529 -0.024393268 0.31762192
-0.1263851 -0.14391051 0.04031078 -0.0792541 0.12092371 -0.3162983 -0.16605072 -0.05485429
0.14649205 -0.023096621 0.07018368 0.006055418 -0.04839995 -0.020897998 0.17622086 -0.073688686
-0.11723056 -1.2509446 -0.25378394 -0.3353153 -1.0343009 -0.031847555 0.0041838544 -0.34872347
-0.050552443 -0.02628006 -0.122082725 -0.18521482 0.06420172 -0.073010705 0.008217622 0.31161395
-0.10579755 -0.10172169 -0.0052496926 0.036171645 0.16987596 0.053641893 -0.12206104 -0.02793568
0.014222653 0.0971692 0.23639682 -0.102648295 0.087816045 -0.18045388 -0.19296539 0.04542691
0.2134533 0.099492356 0.11272514 0.18816483 -0.14249651 -0.034580212 0.03078316 0.120993674
0.028882485 0.004483598 0.07050757 -0.123824865 0.08505729 0.1485342 0.09313142 0.0241929
0.029102536 -0.079123504 -0.072535716 0.014186148 -0.018557573 -0.061566733 -0.005384856 0.0073121185
0.085862026 0.034902308 0.0173939 -0.012269596 0.097577795 0.09162626 -0.16748428 0.20230415
0.004974397 0.016116623 0.112007596 -0.034831632 0.039856397 -0.095271945 0.056052867 0.07437063

enc.fe.u1_FC2.bias f4 [64]
00000000: f8b2 83bd f0a9 2dbe 8158 093e 1753 1e3d
00000010: 95ea bebd 4a91 763e fa8e 053d 1d46 1cbe
00000020: eb42 e9bc 1a4c 4bbe 1a76 efbc 3b27 fdbd
00000030: fd70 26be 2b09 e6bd cb74 77be 383a 823c
00000040: a657 6bbd b9ec bcbc 9453 b4be 64c1 14be
00000050: a68d 7ebd 8611 9cbc 75f5 28bd 3dae 07be
00000060: b778 b7bd c1ad 793d 4b19 cdbd 73e9 acbd
00000070: 133d acbe 0a62 163c 18cc 8abe 5ef8 953d
00000080: 987e 223c 1ffe 0d3f 5d7c a73c 9cc1 89bd
00000090: 81bb 1dbe d4a6 15be 0c01 8abe 160d 0ebc
000000a0: d005 8b3d b869 123f b31f ae3a 31f0 dcbd
000000b0: 1a21 83bd da46 aabb 64dc 6dbe 2efa bd3d
000000c0: bdf0 1a3e 82f3 abbc 3520 edbd 426c a9be
000000d0: a03f 183f 7313 b43d 595b 66bd 7001 cc3c
000000e0: a394 813d c11a 0e3f 4e2a cf3d 361d 34ba
000000f0: 479c adbc b3bd 23be d283 1dbe b4b6 7d3d
-0.0643062 -0.16959357 0.13412668 0.03865346 -0.09322087 0.24078861 0.032607056 -0.15261121
-0.028474292 -0.19853249 -0.02923112 -0.12360998 -0.16254039 -0.112322174 -0.24165647 0.015896901
-0.057456635 -0.023062097 -0.35220015 -0.14526898 -0.062146805 -0.019051325 -0.04124971 -0.1325006
-0.089585714 0.06095672 -0.1001459 -0.084429644 -0.33640346 0.009178648 -0.27108836 0.07322763
0.009917878 0.55465883 0.020445043 -0.06726381 -0.15403558 -0.14614421 -0.26953924 -0.008670112
0.06788218 0.57192564 0.0013284594 -0.107880004 -0.06402798 -0.0051964344 -0.23228604 0.092762336
0.15130897 -0.020990137 -0.11578409 -0.33090407 0.59472084 0.08792772 -0.05623946 0.02490303
0.06327178 0.55509573 0.10115491 -0.0006870808 -0.021192683 -0.15990333 -0.15382317 0.061941817

enc.fe.u1_FC3.weight f4 [64, 64]
00000000: eb04 133f 83b0 f8bd 5288 143d fc95 25be
00000010: b518 99be 5d12 febd f847 203d 6bdf 133d
00000020: c8c9 c13e afc4 f93e 6892 19bd 78a8 e7bd
00000030: 5c11 b1bd 3ef1 71be 7b51 053e fb9d d93d
00000040: 2b52 ec3e 56f7 593d d0fd 88be 47b8 433d
00000050: 0fac 3bbf 468a 133d fc9e 1d3e 30c0 08be
00000060: 514c 9b3b cb2f 2dbd be6c d13d 7faa 883c
00000070: 4ed7 ed39 c031 9abd 9f6e 113f 28f9 1a3d
00000080: cad1 72be 44ff 7cbd bde5 a6be 0f69 76be
00000090: 2fbb a3bc 4436 273d 942d 623e 6f53 d2bc
000000a0: 8777 a1bd 609b 34bd 8e09 d7bd 6466 983e
000000b0: 23ab e63d 5897 4cbd 5173 b73e 8cec 083d
000000c0: 336c 3bbe 5b7d 99bd a115 123e b4ce 08be
000000d0: 88c5 25bc a9ea faba 2d39 873c e9c3 72bc
000000e0: a3ca 9abd ba67 38bc 8140 6f3e 541b 8d3d
000000f0: 4892 9dbc 322e 753d 10d7 163f ff9f 833e
00000100: a8ff 753e 2dda 6ebd a0d2 80be 4a0a ca3d
00000110: 20a6 ebba cdcf d0bc 8b46 9dbd a588 993d
00000120: 57ea 583e c540 e83c 4298 a93e 3639 82bc
00000130: a4cd 2bbe 2f94 f5bc 69f9 a73d bfd6 983e
00000140: 8059 a03e 1aae fbbd f1c7 673b 2e1c ea3d
00000150: 4946 62bd e577 0cbe 5a9a 583d 7b77 b13d
00000160: 9f7a 063e 8211 013e a117 03be f96d cabd
00000170: 9b44 693d 0229 9dbc 0a4e 803d 1fff 223e
00000180: 32e1 133d 8e94 a53c 95bf 25bd fdcd abbd
00000190: 50ee df3d 731e 9bbe 2d0a 56be 24f3 8e3e
000001a0: 65fe cbbd 19f9 3a3d 8136 c53d 5696 443c
000001b0: 1bd4 8d3c eb49 41bd 6120 1e3e 4075 bb3e
000001c0: 249e c3bd e46a 2ebc d06f 803d 203e edbc
000001d0: f36a 883d fdef 0c3e 3dc9 363d 2bc7 963d
000001e0: a7bf cfbe 59ad 3e3d 078b 4b3d ba36 b8bd
000001f0: 2a76 503d ec48 a9bd ba85 6a3e 2e4c 2f3e
00000200: e060 b0bc db99 34bc 9de3 a5be 30f2 cd3d
00000210: 1ac0 dabe 0d95 973d 9994 3c3e 3719 413d
00000220: 0341 a73e 9470 33be d9a0 06be c885 0c3e
00000230: dbbf 2f3e 0381 d6be a018 af3d b4f0 34be
00000240: c01e 64bf 81ea a6bc 8e3b a73e 17b8 b4bd
00000250: ec0a eb3d db3c cabe 9375 70be 397d 633d
00000260: a342 313e c4f1 9c3d 09cf 6f3e e000 c2bc
00000270: 2bc7 a6be 4d8e 6b3d 078c febd 95a8 b93e
00000280: 4cf1 e0bd bc3b 66bd 6508 b43d e928 7e3e
00000290: aa4a 18bc b24d 7fbd c3ed 3dbd 26e3 67bd
000002a0: 906c 323e 8192 90bc da50 4e3e 2fdf 9f3a
000002b0: 3738 c73d e959 9abd f6b5 2f3c 5d5c f73d
000002c0: e62e 6cbd 8faa 403e 1e1f 233d 9272 f13b
000002d0: 0bb7 17be 588a 59be 906b 4e3d fa78 e0bd
000002e0: 8647 6ebd cf1e a4bc 5fe3 fbbd d6a3 82bd
000002f0: 51e2 973d 2947 953c 7eb6 8abc ec8e 84be
00000300: 8ab8 05be c074 0ebc 661f 6bbe 7689 aabd
00000310: 2b3a 32be 390f d7bd 8f9b 37be c03e b13b
00000320: 48cb 3dbd 2c83 b63e 1a6f 193d 202d 663d
00000330: 940b 7f3d 6338 10be a28b 233e fc0c a83d
00000340: 3af9 ab3e cedb 333b 1fe1 473e 6e07 25bd
00000350: 801b 5ebe cd7b 2ebe 1814 f8bd 1cf2 0d3e
00000360: 3418 98bd b803 0f3e b588 8b3d 59be c03d
00000370: 5ec5 0ebe f535 0d3d ef1c 0e3e 76cf 32bd
00000380: 1747 503d 7b0c 0dbe 2ae6 14be 5346 74be
00000390: 17e9 443e 21f1 893c 1b24 95be 2999 c93c
000003a0: b0a0 c53d bdb4 10be 7949 8fbc 36d7 8dbc
000003b0: a5b7 bebd 362e c23c 9529 033c 4b8f a33e
000003c0: 6f6a 8cbd fe6d a83c 9dc2 a13e 2987 83bd
000003d0: 9059 993d 042a 383e 24b9 1b3d 7d20 bb3d
000003e0: 1fc1 5dbd f4ac ca3d 04ae 2f3b d340 30be
000003f0: d59a 4abd fdca 603d dc43 e13c 51cd 3d3e
0.5742938 -0.12143042 0.036262818 -0.16170496 -0.29901662 -0.12405846 0.039131135 0.03610174
0.3784926 0.4878287 -0.03749314 -0.1131143 -0.08645889 -0.23627183 0.13019364 0.106258355
0.4615644 0.053214394 -0.26756144 0.047783162 -0.73309416 0.03602054 0.15392679 -0.13354564
0.0047393222 -0.042281907 0.10225819 0.016682861 0.00045364577 -0.0752902 0.5680942 0.03783527
-0.2371284 -0.061766878 -0.3259715 -0.24063514 -0.019986717 0.040823236 0.22087699 -0.02567455
-0.07884126 -0.04409349 -0.10499869 0.29765618 0.112631105 -0.04994902 0.35830167 0.033428714
-0.18302993 -0.07494613 0.14266063 -0.13360101 -0.010117896 -0.001914342 0.016506756 -0.014817216
-0.07558181 -0.011255199 0.2336445 0.06889978 -0.019234791 0.05985851 0.5892191 0.25708005
0.24023306 -0.058313537 -0.25160694 0.09865244 -0.0017978586 -0.025489712 -0.07679471 0.07496766
0.21183144 0.028351197 0.33123976 -0.01589642 -0.16777664 -0.029977886 0.08201868 0.29851338
0.31318283 -0.122890666 0.0035366977 0.11431156 -0.05524281 -0.13717611 0.052881576 0.08665367
0.13132714 0.12604335 -0.12801982 -0.09884257 0.056950193 -0.019184593 0.06264885 0.15917633
0.036103435 0.020212438 -0.04046591 -0.083888985 0.109341264 -0.30296668 -0.20902319 0.27919877
-0.09960631 0.045647714 0.096295364 0.0119987335 0.017313054 -0.047189634 0.15442039 0.36612892
-0.09551647 -0.010645602 0.062713265 -0.028960288 0.06661024 0.13763423 0.04462551 0.07362207
-0.40575907 0.046552036 0.049693134 -0.08994813 0.05089394 -0.08265862 0.22902575 0.17118904
-0.021530569 -0.01102301 -0.32400218 0.10055959 -0.42724687 0.07401476 0.1841606 0.047143187
0.32666788 -0.17523414 -0.13147296 0.13722908 0.17163031 -0.41895303 0.08549619 -0.17669946
-0.8910942 -0.020375492 0.32662624 -0.08824175 0.114766926 -0.39499554 -0.23482351 0.055539344
0.17310576 0.07663301 0.23418821 -0.023682058 -0.32573828 0.057508755 -0.12429052 0.3626143
-0.10983524 -0.05620931 0.08790664 0.24820293 -0.009295145 -0.062329955 -0.046369325 -0.05661311
0.17424226 -0.017647984 0.2014803 0.0012197251 0.09727519 -0.0753668 0.010724535 0.12078164
-0.057661913 0.18815063 0.039824598 0.007368394 -0.14815919 -0.2124418 0.05039555 -0.109605744
-0.05817368 -0.020034222 -0.12299227 -0.063789055 0.07416213 0.018222408 -0.016932722 -0.2589029
-0.13058677 -0.008694828 -0.22961196 -0.08327 -0.17405002 -0.1050095 -0.17930435 0.0054090917
-0.046336442 0.3564695 0.03745947 0.05619538 0.0622669 -0.1408401 0.15971234 0.082056016
0.33588582 0.0027444246 0.1951947 -0.04029029 -0.21690178 -0.17039414 -0.121132076 0.13861889
-0.074264914 0.13966262 0.06813184 0.09411306 -0.13942477 0.034475286 0.13878225 -0.04365488
0.050849047 -0.13774292 -0.14540926 -0.23854952 0.19229542 0.016838612 -0.2912911 0.024609165
0.09649789 -0.14131446 -0.01749109 -0.017314535 -0.09312371 0.023703676 0.008005519 0.3194526
-0.06856238 0.02056026 0.3159379 -0.06422264 0.07487786 0.17984778 0.03801836 0.09137056
-0.054139253 0.098962694 0.0026806602 -0.17212228 -0.049464066 0.054881085 0.027498178 0.18535353

enc.fe.u1_FC3.bias f4 [64]
00000000: c093 6e3c c027 4dbd 8541 ccbe 10da f43d
00000010: bf73 503e 4494 b03d 0113 61be 2f61 99be
00000020: de8b 2f3e 223a 753e 99a9 e2bd cacf 9a3e
00000030: 1219 38bb ca56 053f 0fdc 913e 23c8 d73e
00000040: d78d b5bd 8da3 e73e e9dd 9f3e 2fd3 d43e
00000050: a3e5 7d3a cdd0 d8be 6ce9 f0be cc2f 053e
00000060: cfb0 e2be b5a6 13be 173c d13e 9a39 013e
00000070: 0b15 40be e14a 8fbe 2e30 de3d b0f9 8ebe
00000080: fea7 abbd 0ea9 443d 74ce f9bd d625 653d
00000090: 3389 df3e d5ee 56be 5185 ddbe c65d 9bbd
000000a0: 6879 6bbe b2b6 09bf c8cb cb3e 75f7 473e
000000b0: 4ec0 ed3d 155b 153f 4756 b8bb 99af 393e
000000c0: caf4 913e bb02 ec3e 0bf1 c73e a2e3 9fbd
000000d0: 83b4 1b3f 68d2 f83d a126 a73d 0685 8fbe
000000e0: 2101 763d 9fd4 893d a21f a03e 5f2a b33e
000000f0: 93e6 893e 0b2a 30bf b80e f4bc 5b39 84be
0.0145615935 -0.050086737 -0.39893737 0.119556546 0.20356654 0.086220294 -0.21979906 -0.29956958
0.17143199 0.23947957 -0.110675044 0.30236655 -0.0028091115 0.52085555 0.28488204 0.4214488
-0.088649444 0.45241967 0.31223992 0.4156737 0.00096854026 -0.42346802 -0.47053087 0.13006514
-0.4427552 -0.14419062 0.40866157 0.1261963 -0.18758027 -0.27986816 0.10849033 -0.2792487
-0.08381651 0.048012786 -0.12197581 0.055944286 0.43659362 -0.20989545 -0.43265775 -0.07586245
-0.22995532 -0.53794396 0.3980391 0.19527991 0.11608945 0.58342105 -0.0056255194 0.18133391
0.28507072 0.46095833 0.3905109 -0.078070894 0.60822314 0.12149507 0.08161665 -0.28031176
0.06005967 0.067300074 0.31274134 0.34993264 0.26933727 -0.6881415 -0.029792175 -0.2582501

enc.fe.u1_FC4.weight f4 [32, 128]
00000000: 3da4 2b3d 534a 1ebe a00a dc3d d029 a6bd
00000010: 509c a5bd 3f8a cf3c b34a e33d e969 c4bc
00000020: 69f4 51bd a1e1 35be b61f 083e 11b8 d8bd
00000030: 7b09 fe3d 426e c2bd 0e30 a13d ae2b d7bb
00000040: 51c1 a43d be5c 05be dddb 803c 8bb5 8c3b
00000050: fc64 3bbd 65d4 9d3d 7bad 193e a27e 3a3e
00000060: 70c6 313b 4fec 0d3c bb55 22be 6edb 383c
00000070: f0b6 a53d de11 ff3d b537 b43d e3e3 9f3d
00000080: ef21 283e caeb 003e dc43 df3c ee31 35be
00000090: bc85 1f3d ea14 243c a4d8 d63d 08a2 1ebd
000000a0: 2455 083e 50a6 67bd 6af7 323d 6c98 e1bd
000000b0: 4c55 3e3d 8cca efbd 6577 24be 6c44 3cbe
000000c0: db90 f23d 86ec 2cbe 19e8 943b 77ea 343d
000000d0: 374d 0bbe fce0 bfbd 6999 e4bd a8a7 023b
000000e0: ad19 923c 122b 95bd 2bef fdbd 4ed7 31bd
000000f0: 6f0e 8c3d bbdd 463e fbc8 133e b12b c3bd
00000100: 8bd8 9f3a 211c 413b a872 8c3d 074e c93d
00000110: 5c5b cfbd 19f1 5abd fa7a cbbd 4f01 4ebd
00000120: 6660 e9bc 4b81 193e ec43 91bd 6e92 13be
00000130: 871a 5a3c 0c5a 873c bbbe 8bbc defe 753d
00000140: 3149 833c d2eb 90ba c535 c4bd 6f86 103c
00000150: c740 583d 59e2 1a3e 8800 333e 0d2b 1c3d
00000160: f75e 08bd 3b9f 36bd ec93 b23d b572 8dbc
00000170: a0a6 243e e6c6 ab3c e301 b73d 7691 07be
00000180: 6d25 84bc 39ed 70bc 7f93 89bd 3020 1abc
00000190: 9447 12bd 20e1 69bd 9a53 e6bc 2c8f 823d
000001a0: 4c09 6abd 1b27 54bd 3622 e53d 69cd 21be
000001b0: 6cd9 fa3c 0b06 2c3d 4e56 fb3c a41c 443d
000001c0: 3242 2ebd b31c 39bd e931 8a3d aa42 a13a
000001d0: c805 803c 6145 ad39 5035 7d3e 59df 6cbd
000001e0: 91ae b4bd 93b0 cbbc 98c1 b5bc d3d7 b63d
000001f0: 988b 893d 2d17 5b3e 7dae 4d3d b2b4 ea3d
00000200: 4dc7 ac3c 8598 d5bd 95b5 173d c469 78bd
00000210: fb5f edbd d226 df3d 94f5 543d c48a 533d
00000220: 5fd4 ddbd c7cb 1fbd 50d4 063d f24f d5bd
00000230: 10f5 cb3c 34ce b4bc ea52 533d 30e1 7d3d
00000240: 6e58 0a3d f05e aabd 4f6e dc3c ad86 41bd
00000250: 5fa9 e03d a035 13bb 324b ce3d 4c58 4c3d
00000260: ff46 683d 58ca 0e3e f140 8ebc f6da 943c
00000270: 9eb8 fb3d 6dbf b03d 0918 413d f750 5a3c
00000280: a565 bd3d d0b2 873d b511 133e fd4a 26be
00000290: b5f7 93bd 1088 dbbd 6042 1d3c 316e 19bc
000002a0: 8b83 e43d 1a5d d9bc aaa2 19bd 186a 93bd
000002b0: de59 f03d 107f bd3d f09f 1cbe e058 e8bd
000002c0: 9b9d 37bd 48c5 e5bd 2619 623d fab8 d63d
000002d0: 2318 5bbd 05a8 afbd 5318 27bd eb5e 993c
000002e0: 4d02 1b3e 06aa abbc 1f33 b8bd 5fbd a3bd
000002f0: 944d 0ebd b5f8 c43d 7e98 84bc 836d 88bc
00000300: d947 ab3c 8e5b e33c 08b2 fb3c 4335 7b3c
00000310: 3d9f c7bd 95cc 74bd 3d0e 943c a6bb abbc
00000320: cd01 d23c 2bdf 223e 5bff 03bc 74f4 40bd
00000330: a9fe c63b 831d 433d 4c94 5f3c c8f1 f9bd
00000340: 0786 ec3c e86c 8bbd 6a5f 07bd 8c18 e23d
00000350: ddf4 5d3d 0c01 0b3e bd0c 543e bb9c 15bd
00000360: 6047 52bc 3970 923d bca1 943d f597 92bd
00000370: e2f1 733d ec1a e8bc ed13 0f3d 962c 0dbe
00000380: c341 eb3b e470 3e3d b23c cd3c dfab 143d
00000390: dfbb fa3a 6634 f33c 29ff 8cbb 6a30 2d3d
000003a0: dd41 5bbd 7f38 b73c 6e0c 613d a402 04be
000003b0: c357 383d cb09 1e3c 3059 cdbd d184 8cbc
000003c0: 5472 bf3d 297a de39 be92 3d3d f64b 3dbd
000003d0: 77e6 e5bc e501 b93d eadb 493e 3881 34bd
000003e0: fc41 84bd c92b c13c b79a bf3d cc67 07bd
000003f0: 9122 d8bc 40b1 b23d b16a b1bd 0d23 d03b
0.041904677 -0.1545804 0.10744214 -0.08113444 -0.08086455 0.025334476 0.11098232 -0.023976283
-0.05125848 -0.17761852 0.13293347 -0.10581983 0.12404152 -0.09493686 0.07870494 -0.0065664863
0.08044685 -0.1302366 0.015729839 0.0042941025 -0.045750603 0.07706527 0.15007584 0.18212369
0.0027126335 0.008662297 -0.15853016 0.011282785 0.08091533 0.1245458 0.08799688 0.07807138
0.16419195 0.12589946 0.027254038 -0.17694828 0.0389459 0.010014752 0.1049054 -0.038728744
0.13313729 -0.056555092 0.043692984 -0.110154 0.046468064 -0.117085546 -0.1606117 -0.18385476
0.11844035 -0.16887102 0.0045442698 0.044168916 -0.13603674 -0.09369084 -0.11162073 0.0019936357
0.017834509 -0.07283606 -0.12399133 -0.04341822 0.068386905 0.19420521 0.14432137 -0.09529818
0.0012195272 0.002946623 0.068578064 0.09829336 -0.10124847 -0.053452585 -0.09935565 -0.050294217
-0.02848835 0.14990728 -0.07093033 -0.14411327 0.013311989 0.01652243 -0.01705872 0.060057513
0.016026111 -0.0011056608 -0.09580568 0.008821114 0.05279615 0.15125407 0.17480671 0.038126994
-0.03329369 -0.044585448 0.0871962 -0.01726661 0.16079187 0.020968866 0.08935907 -0.13239083
-0.016131127 -0.014704996 -0.06717586 -0.009407088 -0.035712793 -0.05709946 -0.028116036 0.06374964
-0.057137772 -0.051795106 0.11188166 -0.15801014 0.030621253 0.04199795 0.030680802 0.047878876
-0.042543598 -0.045193385 0.06747801 0.0012303193 0.015627757 0.00033048823 0.24727368 -0.05783019
-0.088223584 -0.02486447 -0.02218704 0.08927884 0.067160785 0.2139556 0.050215233 0.11460246
0.021091128 -0.104294814 0.037038404 -0.06064774 -0.115905724 0.10896076 0.051992014 0.05164601
-0.10831522 -0.039012697 0.03291732 -0.10415639 0.024897128 -0.022070982 0.051592745 0.061982334
0.03377574 -0.08318889 0.026908068 -0.047247577 0.10969805 -0.0022462383 0.10072936 0.049888894
0.056708332 0.13944376 -0.01736495 0.018170815 0.12291072 0.086302616 0.047142062 0.013324968
0.09247903 0.06625903 0.14362223 -0.16239543 -0.07224981 -0.10719311 0.009598345 -0.009364651
0.11157902 -0.026533652 -0.037508644 -0.0719797 0.11735891 0.09252751 -0.15295386 -0.113450766
-0.04482804 -0.11219269 0.055199765 0.104845 -0.053489815 -0.08576969 -0.04079468 0.018722018
0.15137596 -0.020955097 -0.089941256 -0.07995104 -0.034741953 0.096177496 -0.016185995 -0.016653782
0.020908283 0.027753618 0.03072454 0.015332523 -0.09747169 -0.059765417 0.018073196 -0.020963501
0.025635624 0.15905444 -0.008056487 -0.04710813 0.0060728383 0.047635566 0.013646197 -0.12204319
0.028872503 -0.068078816 -0.03304998 0.11039838 0.054188598 0.13574618 0.20707984 -0.036526423
-0.0128344 0.07150311 0.07257411 -0.0715789 0.05955685 -0.02833315 0.034931112 -0.1378654
0.0071794703 0.04649438 0.025053356 0.03629672 0.0019129476 0.029688071 -0.0043028784 0.0422825
-0.05352961 0.022365807 0.054943494 -0.12891632 0.04500557 0.0096458895 -0.10026777 -0.017153176
0.09347978 0.00042434156 0.046282522 -0.04621502 -0.028063996 0.090335645 0.19712797 -0.044068545
-0.06457898 0.023580449 0.093556814 -0.033057973 -0.02638367 0.08725214 -0.08662928 0.0063518346

enc.fe.u1_FC4.bias f4 [32]
00000000: 8053 b3bd ce63 01be bb4c 54bd c29b fd3d
00000010: 7fbc a4bd 1fa6 3a3d e7d8 b93d 7649 31be
00000020: 6ce7 aebd 66f1 61bd c751 ccbe 770a ee3e
00000030: e3dd 37bd f86c 273f a983 5fbe 8e55 6dbd
00000040: 30d2 433d 0018 35bd 1987 11bd f277 9a3c
00000050: 067f 013b 0714 04be 8208 a9bd 1e5c 92bd
00000060: 79b0 3cbe 6652 2abb cb48 473d cfba 063e
00000070: 3ce5 9e3e 061f 50bd 7f6b 653e 069d d8bc
-0.08756161 -0.12635729 -0.05183099 0.12383224 -0.08043765 0.04556858 0.09074574 -0.1731318
-0.08540234 -0.055161856 -0.3990614 0.4649236 -0.044889342 0.6540065 -0.21827568 -0.05794292
0.047807872 -0.04421234 -0.03552923 0.018856023 0.001975955 -0.12898265 -0.08253576 -0.07146476
-0.18426694 -0.0025989055 0.048653405 0.131572 0.31034267 -0.050810836 0.22404288 -0.026442062

enc.norm.weight f4 [32]
00000000: 9365 6c3f 5f07 723f f1f7 6e3f 007d 743f
00000010: c137 543f 44c7 503f 9b93 643f b907 423f
00000020: feb4 803f 1a3a 573f 9f1b 423f 0993 ed3e
00000030: 117c 953f ec34 183f 5a72 233f 961c 513f
00000040: 0a26 603f 4be5 813f eabb 113f 1efa 383f
00000050: e55d 6f3f 077f 473f f23d 233f 4b05 5f3f
00000060: a07d 593f 5678 233f bdff 5b3f 188a 7d3f
00000070: 2b1e 663f a76e 3f3f fa24 493f ab85 223f
0.9234249 0.945425 0.9334708 0.95503235 0.82897574 0.81554055 0.8928773 0.75793034
1.0055234 0.8407303 0.75823396 0.4640124 1.1678487 0.5945575 0.6384636 0.81684244
0.87558043 1.01481 0.5692736 0.7225665 0.93502647 0.77928203 0.63766396 0.8711745
0.84957314 0.63855493 0.859371 0.9903884 0.8988978 0.7477822 0.78572047 0.6348521

enc.norm.bias f4 [32]
00000000: a3f7 be3d dd7b c73d 724b 143d ffb8 a3bd
00000010: 1954 df3d ea94 e7bc 8aad adbd 0158 d6bc
00000020: c7ef eebc dfb2 533d 7b3d 9f3c d2dd ea3b
00000030: 75ef adbc 922c 693c b446 443c ddcf 7fbd
00000040: b9bc 61bd 6bca ce3c c6de c2bc c6fb c43d
00000050: e6a7 17bd 4e28 103d 964d 953c e6b4 3e3d
00000060: 37ad 843d 951d 9a3b 537e 0bbc 991a 90bd
00000070: a616 16bd 0845 b93c 063e f23c 0654 95bb
0.09324577 0.09740422 0.036204763 -0.079942696 0.10904712 -0.02826925 -0.084803656 -0.02616501
-0.02916707 0.051684257 0.019438496 0.0071675563 -0.021232346 0.014231818 0.011979748 -0.062454093
-0.05511162 0.025243005 -0.023787867 0.096183345 -0.037025355 0.035194688 0.018225472 0.046559237
0.064783506 0.0047032335 -0.008514005 -0.07036323 -0.036642693 0.022615924 0.02957059 -0.0045571355

enc.enc_out1.weight f4 [8, 32]
00000000: 4f5b f0bd 6bc0 32be bf73 25be 9552 053d
00000010: ff12 b9bc f9f7 a23c ca69 0d3e a156 db3b
00000020: 14d7 733e c2e1 98bd 458c 863d 85db 743c
00000030: fdf9 d0be f845 b8bd dafc 02be bc05 b63d
00000040: 9a7e 1d3e 7e4a 92be b2b0 03be 39d8 a9bd
00000050: 5df9 563e 49b2 2abd 1549 033e 5f8e c1bd
00000060: bca3 a6bd ceaf 133d ec17 0e3e 4210 6d3e
00000070: f488 2cbe b058 b53d 891d 413d fca7 fb3d
00000080: 2c60 333d 9294 0a3e db46 003e 23ac 63be
00000090: 995e dc3d 36e9 983d 577d 22be c767 f03c
000000a0: 90f3 aabd 6b35 d1bc 995a 003e b115 833c
000000b0: 20de be3e 6615 0aba 71f0 b7bd 278b 0c3e
000000c0: 65b4 06be 5003 973e 4227 c9bd 48ea 6a3d
000000d0: 3c0f 55be aa16 a9bc 40dc ef3d 2620 353e
000000e0: 7d7b e73c faa4 693d 1333 20bc 90fc d0bd
000000f0: ba0b bb3c 38f6 ad3d 2e9d e23d d007 c73d
00000100: 661d 3ebd 7388 2fbb 1ee7 49bd c36d 6e3d
00000110: 470a 8e3c 2a81 013e 728a 30bc 5225 7cbd
00000120: e6a3 173e 886e 80bd b346 303e ad07 183e
00000130: a7e2 65be 2d47 99bd 60dd ce3a 296c 08be
00000140: f669 0c3c c922 3fba bfd9 c3bd 0b01 ecbc
00000150: a1e5 123e 4901 b0bd 7bc0 173e 9414 a1bd
00000160: 1023 01be 2ca1 d1bd 47ff 79bc 8980 0c3e
00000170: b6f0 c5bc e32e 9cbd 9e96 efb8 864a 12bb
00000180: 6b4f 03be 49bc 78bc 4219 713c a143 3e3d
00000190: b2e0 9f3d 7720 d8bd d515 413e 982f a7bd
000001a0: 73c7 8f3e a251 e03b 6945 c5bc 7ec2 b1bd
000001b0: 355c c3be 306e d03d 2200 e13d 13c3 383d
000001c0: 11a3 c4bd 1796 01be 745d 2c3e 8e4f fc3d
000001d0: 0f45 d13d ff12 0ebe fffa 313e 908b c7bc
000001e0: 1dc6 ed3d 101d 283b 5647 353d 11df 5f3e
000001f0: ba3d d2bd 3f81 3abe af2d 4a3b 9d04 d83d
00000200: bfbc 42be 7cd8 0ebe 5de2 27be 82ac f73d
00000210: 4515 f7bd 8dd2 e93d d834 7cbd cdd0 253e
00000220: 509f 853e 6e29 37bc a39e 79bd 9437 82bd
00000230: 0354 f9bd b78e b0bd 7d93 e93d 215e 563d
00000240: 8b6b bc3c ae00 74bd 8f2e 52bc afbb 02be
00000250: 8ffe 8ebd 73ca 02be 3012 3ebd 6ee5 173d
00000260: a78f 24bd bf88 38bd 020e 7b3e 54fd 683e
00000270: 80f3 9a3b 6df3 23be a8a2 07be 5f58 593d
00000280: 6bc3 243e 5a69 fc3a a556 7e3c 3272 6ebd
00000290: 8530 813d 01d9 05be f68c cdbd b049 e33d
000002a0: 5a25 e8bd c3e8 553d c72f 55bd 5e8e c4bc
000002b0: 8b78 953e 228d 9dbd 90d6 1dbe 1190 f9bc
000002c0: 2185 86bd 53d3 9f3d caaf abbd e627 b8bd
000002d0: e359 153d 1868 8a3d 26d3 943d 5d9f 4d3e
000002e0: 977f 41bd 0633 bcbd 31d7 63be 5557 85be
000002f0: df07 173e 272d bfbd d391 173e 3c97 603d
00000300: b380 d9bd 5a8c 3ebe 87f0 20be 89fe b73c
00000310: c8bf 4dbd 30cc de3d 0c2e 2b3e d45e 313e
00000320: b1cb b73c f860 ba3c b545 133d 99dd 303e
00000330: a2f9 b0be ac4e 933b ebf8 73bd b48c 0b3e
00000340: 2dd7 03bd e034 0bbe 87f9 113e b371 8cbd
00000350: 84ac cabb 21fe 19bd 105b babd 11df ce3c
00000360: 20cf 20bd d622 88bd 5681 c83d 00df c63d
00000370: 7399 9ebc 75d9 7abc 879b 94bd 66da c23a
00000380: 4042 933d e136 3ebe 4cde 00bd 9851 423e
00000390: 674c f93d 2f8a d139 c0a1 d23b 8cfa da3d
000003a0: 4b58 343d 17a3 b4bd 8b41 093d 05f6 193d
000003b0: 3832 68be ce9f 243d fbb3 ffbd 8c4a ab3d
000003c0: 6667 e43d c67e 25be 4bb2 cb3d 43b7 0a3e
000003d0: c7da 99bd 0ab4 e2bd 607b ddbb b3e5 a5bd
000003e0: 2ee5 dbbd d919 c33d 299f 6e3d 8537 593d
000003f0: 45f8 6bbd d01f e8bd abd4 d7bd a19a 9bbd
-0.11736166 -0.17456214 -0.16157435 0.03254946 -0.022592066 0.019893633 0.13809887 0.0066936766
0.23812515 -0.07464935 0.06569723 0.014944916 -0.40815726 -0.089977205 -0.12791768 0.088878125
0.15380326 -0.28572458 -0.12860373 -0.08293194 0.20993562 -0.041673932 0.12820847 -0.09450983
-0.081366986 0.036056332 0.13876313 0.23150733 -0.16849118 0.088548064 0.047147308 0.122879
0.04379289 0.13533238 0.12527029 -0.22233634 0.107602306 0.074663565 -0.15868126 0.02934636
-0.08347237 -0.025538167 0.1253456 0.016001554 0.37278843 -0.0005267471 -0.089814074 0.13724957
-0.13154753 0.29494715 -0.09821941 0.057352334 -0.20806593 -0.02064069 0.11711931 0.17688045
0.028257126 0.0570421 -0.009777802 -0.102044225 0.02283274 0.08494228 0.11065136 0.09718287
-0.046414755 -0.002678421 -0.049292676 0.058210146 0.017338885 0.12646928 -0.010775195 -0.06155903
0.14808616 -0.06271082 0.1721447 0.14846678 -0.22449742 -0.07484279 0.0015782528 -0.1332251
0.008570185 -0.0007291255 -0.09563016 -0.028809091 0.14345409 -0.08593995 0.14819519 -0.07865253
-0.12611032 -0.10235819 -0.015258617 0.13720907 -0.024162631 -0.076261304 -0.00011424463 -0.0022322251
-0.12823264 -0.015181609 0.014715495 0.046451215 0.07806529 -0.10553067 0.18855985 -0.08163375
0.28081855 0.006845669 -0.024080949 -0.086796746 -0.38156286 0.101772666 0.109863535 0.045107912
-0.09601415 -0.12654911 0.16832525 0.12319861 0.1021825 -0.13874434 0.17380904 -0.02435854
0.11610053 0.0025652088 0.044257484 0.21862437 -0.1026568 -0.18213366 0.0030849983 0.10547755
-0.19017313 -0.1394977 -0.16394944 0.1209345 -0.12064604 0.114171125 -0.061573833 0.16192932
0.26098108 -0.011179311 -0.060942303 -0.06358257 -0.12174227 -0.08620971 0.11405084 0.052335862
0.0230005 -0.05957096 -0.012828483 -0.12766908 -0.06982147 -0.12772541 -0.046404064 0.037084036
-0.04017606 -0.045052286 0.24517062 0.22752887 0.0047287345 -0.16010828 -0.13245642 0.053062793
0.16090171 0.0019257471 0.015523587 -0.058214374 0.063080825 -0.13071062 -0.10036652 0.11098039
-0.11335249 0.052223932 -0.052047517 -0.023993667 0.2919353 -0.076929346 -0.1541388 -0.030464204
-0.06568361 0.07803979 -0.083831385 -0.08991985 0.036462676 0.067581356 0.07266836 0.20080324
-0.04724082 -0.091894194 -0.22250058 -0.26043192 0.14749096 -0.09334784 0.14801721 0.05483173
-0.106202506 -0.18608227 -0.15716754 0.022460239 -0.050231725 0.108787894 0.16716784 0.1732133
0.022435995 0.022751316 0.03595515 0.17272033 -0.34565455 0.0044954624 -0.05956356 0.13627893
-0.03218763 -0.13594389 0.14255343 -0.06857624 -0.0061851162 -0.03759587 -0.090994 0.02525285
-0.03926003 -0.066472694 0.09790294 0.097105026 -0.01936028 -0.015310635 -0.07256227 0.0014866113
0.071903706 -0.18575622 -0.031462 0.18976438 0.12172776 0.0003996654 0.0064279735 0.10692319
0.044029515 -0.088201694 0.033509772 0.037588138 -0.22675407 0.040191464 -0.124855004 0.08363828
0.11152534 -0.16161641 0.09946116 0.13546471 -0.075124316 -0.11069496 -0.006759092 -0.08100452
-0.10737072 0.095264144 0.058257256 0.053031463 -0.057609815 -0.11334193 -0.1053861 -0.075978525

enc.enc_out1.bias f4 [8]
00000000: f335 4e3d cb0d 1d3e a7de a2bd 58c5 cc3c
00000010: 9a13 f6bd 4a75 c43c 9751 a23d b477 f23d
0.05034442 0.15337293 -0.07952624 0.024996445 -0.120154575 0.023981709 0.07925718 0.11839238

enc.enc_out2.weight f4 [1, 8]
00000000: a6d2 8a3e 25b8 a1be 7fb1 693c ebd8 883d
00000010: b7d2 643e 7ca3 13be 2899 973d 70b6 343c
0.27113837 -0.31585804 0.01426351 0.06681999 0.22346006 -0.14417833 0.07402259 0.011029825

dec1.fe.FC1.weight f4 [64, 9]
00000000: f03a 04be c76c 4f3d 200f 633d 6229 b23d
00000010: 82e6 35be ccd3 08bd 53d0 9abd d40f b7bd
00000020: 9f4c b7bd 0064 d03e 6cf7 cfbc e685 f03d
00000030: 00be d73d d2ce 5fbe 7d5b 51bc 1b81 743e
00000040: 2ba9 0b3e f7ff 12bd 4584 0dbe c5c9 9b3c
00000050: 9815 5abd 941b 14bd 6ce6 b73d aa2e 2bb9
00000060: eb98 f4bc 7647 12bd 6e1d 603d ae6a a7be
00000070: 571a dabd a35f 783d f104 83bd 8666 6f3e
00000080: 701d 07be acca 08bd 04f1 d2bd 28be 003b
00000090: 7c3e 74ba 21b4 8db9 5a43 473b 1cc1 3abc
000000a0: 00cf 9e3c 019b 963c 515a 14b8 aacd 9abb
000000b0: 3d06 b53d 73e9 c0be f323 17be 3837 8a3b
000000c0: 52ad 0dbd a499 a03e 2a10 4abe 14b0 3ebc
000000d0: a54a bbbb e592 04be 0d48 6f3e eb94 0bbc
000000e0: b568 9d3c ff87 473d c185 44be 4da6 813e
000000f0: bd21 1d3e c985 93bd 176a 7a3d 9f14 e83b
00000100: 8221 ddbc f7c0 ef3c 946a 06bc 63c1 0d3d
00000110: 5937 27bd 5695 6dbd f1b3 7bbd 2c19 0abc
00000120: 3a44 193b caa6 e8bc 7f81 e53c b0c9 823d
00000130: 26fa 8ebd f240 36be 0182 8cbd a294 603d
00000140: ce09 c6bc 723f 8fbe 4a94 bc3d 0c7c 5bbc
00000150: ef25 ddbd 7e74 b13d 7796 9c3b 640d 8b3c
00000160: 7ade 10be 230b ebbd d0a5 8f3e f061 1abc
00000170: 3675 fb3b 2b44 b13d f5f1 d5bd 6150 c83d
00000180: a4b4 0e3d 1277 94bc 490f 06bd 08e0 85bb
00000190: f736 ad3c ae13 0dbd 3f87 c83c c6d0 b23c
000001a0: 7ba5 9ebd 2dbe 00bd f296 7a3d 2640 e03b
000001b0: a0b4 fc3e 7f3e 363e cc42 cbbd e807 ab3d
000001c0: 6bda b5be 8908 563e 60e5 2c3d 7a72 1f3e
000001d0: 78fc 10bb 9c6b 2f3c a97f ca3b 515d 233b
000001e0: 5c12 ed3b b710 71bc dc45 3e3c 979c 4b3c
000001f0: e223 e6bb a957 523e 7cb6 7e3e 8a1b a5bc
00000200: ad87 383d 2ae5 573d 592e 03be bd13 9e3c
00000210: cc34 903d 55e3 373d f4e8 6bbd 90d0 cfbd
00000220: 3933 0bbc 4f73 b03a 66f1 61bd 94a4 cc3d
00000230: 9de1 f3bc 21f7 0d3b 6dbe 9d3c e4d2 85bb
00000240: 998a ce3e baf5 57bd fd6c 973d ea6b 853d
00000250: 3af0 53be 28e4 613e 6f23 573e 903e fd3c
00000260: b364 f33c ff08 a3be e59a 1abd c62f 6abd
00000270: 9e75 5abd 0f3a 303e d654 99be 4efa a5bd
00000280: e387 c23d 9bf1 0fbd 8c38 953c 2ca2 06bc
00000290: 97d0 d9bb ce3b 0cbd 5cfb 123c d5a9 e6bb
000002a0: 56b6 84bd fcc4 fa3b 5c8f 4f3d 29ac 1a3e
000002b0: c602 96bc 49dc 9bbc da4c 503d 8c38 b0bd
000002c0: 7827 63bc badd 683d b0c7 e93d 3568 14bc
000002d0: 827f fbbd c314 043d 9647 42bd c14d 8d3b
000002e0: 499d e43d 8207 d8bd 0a5c 00be 8c4f 96bd
000002f0: 8be4 d53a a042 a6be 3bd0 b0bb 0858 94bb
00000300: dfff 70bd 068d 263e 266e 12be 55cf ccbd
00000310: 9da2 8abd 8db8 ac3c 8ed1 fcbd c711 eabb
00000320: 3e42 a83b 3666 e6bb 8dc1 ebba 2581 383d
00000330: 8baf 9d3d db8f 983d 109d 063d 6041 853c
00000340: a4e8 36bd 2d77 5e3d 7016 1bbd 166c 9abc
00000350: 4dad db3c 2779 263a 0e56 b63c b158 2fbc
00000360: 0cbc 613e b55a dc3c 2bda 263d 4034 213d
00000370: 9c8d f9bd 37d9 533e 5eed 593d d183 8ebd
00000380: 9417 af3c a08a 0dbf 1ac8 803d 455f b4bb
00000390: 6337 d7bd 89a4 223e d761 45be 4898 c5bd
000003a0: 5d1b 23be afa5 70bd 0006 933e 870e ce3d
000003b0: 91ec 8fbd ddf0 d33d 665a 7bbe edfe 323d
000003c0: d956 d33c 0045 b33d 2ddb 53bc 5867 673e
000003d0: 2503 b13b bdf8 39bb f1df ce3d 52a6 81be
000003e0: 237d 363e b9c0 f73d 1a1b 223d ddbb 93bc
000003f0: dcee 4f3d a4fc 0f3c 9516 93bd 070d f63d
-0.12913108 0.050640848 0.055434346 0.086992994 -0.17763713 -0.03340511 -0.07559266 -0.08938566
-0.08950161 0.40701294 -0.025386535 0.11744289 0.105342865 -0.2185624 -0.01277816 0.23877375
0.13638751 -0.03588864 -0.13819988 0.01901711 -0.05324325 -0.036159113 0.08979496 -0.00016325215
-0.029858073 -0.03571268 0.054715566 -0.32698578 -0.10649555 0.06063808 -0.06397427 0.23378953
-0.13194823 -0.033396408 -0.10299876 0.0019644592 -0.0009317172 -0.00027027822 0.0030405135 -0.01139858
0.019385815 0.018384458 -3.5370063e-05 -0.004724224 0.088390805 -0.37678108 -0.14759807 0.0042180084
-0.03458912 0.31367218 -0.19732729 -0.01163866 -0.0057156854 -0.12946661 0.23367329 -0.0085193915
0.019214967 0.04871368 -0.19191648 0.2532219 0.15344901 -0.07203252 0.06113633 0.0070825364
-0.026993517 0.029266817 -0.008204121 0.034608256 -0.040824268 -0.058003746 -0.061450902 -0.008428853
0.0023386613 -0.028399844 0.02801585 0.06386125 -0.06981306 -0.17798212 -0.06860734 0.054829247
-0.024174597 -0.27978092 0.092079714 -0.013396274 -0.10798251 0.08664797 0.004778679 0.016974159
-0.14147368 -0.114767335 0.28056192 -0.009422764 0.0076738847 0.0865558 -0.1044654 0.09780956
0.03484024 -0.018123183 -0.03272942 -0.0040855445 0.021144373 -0.034442596 0.024478553 0.021828067
-0.07746407 -0.031431366 0.06117911 0.0068435846 0.49356556 0.17797278 -0.0992485 0.08351117
-0.35518202 0.20901693 0.042210937 0.15571013 -0.002212314 0.010706808 0.006179769 0.0024927447
0.0072348546 -0.014713458 0.011613335 0.012427471 -0.0070233205 0.20541252 0.248743 -0.020154733
0.045051266 0.052708782 -0.12810649 0.019296521 0.0704132 0.044894535 -0.05759521 -0.10147202
-0.008496099 0.0013462099 -0.055161856 0.09992328 -0.029770667 0.0021662193 0.019255841 -0.004083978
0.40340117 -0.052724577 0.07393835 0.065147236 -0.20697108 0.22059691 0.2100961 0.030913621
0.029711103 -0.318428 -0.037745375 -0.057174467 -0.053334825 0.17209648 -0.29947537 -0.081043825
0.094985746 -0.035142522 0.01821544 -0.008217376 -0.0066471803 -0.03423672 0.008971062 -0.0070392885
-0.0648009 0.007652877 0.050673828 0.15104736 -0.01831187 -0.019025939 0.05085454 -0.086045355
-0.013864391 0.05685208 0.114150405 -0.009058048 -0.122801796 0.032246362 -0.04743155 0.0043122475
0.11162812 -0.10548307 -0.1253511 -0.07339391 0.0016318721 -0.32472706 -0.0053959168 -0.0045270957
-0.058837768 0.16264734 -0.14299831 -0.10000483 -0.06769297 0.021084094 -0.12344657 -0.0071432325
0.00513485 -0.0070312275 -0.001798676 0.045045037 0.07699498 0.07449313 0.03286463 0.016266525
-0.044655457 0.054312874 -0.037863195 -0.018850368 0.026816035 0.00063504506 0.022257831 -0.010702298
0.2204439 0.026898721 0.040735405 0.03935647 -0.12185213 0.2068833 0.053204887 -0.06958736
0.021373548 -0.5528965 0.06288166 -0.005504521 -0.10508611 0.15883078 -0.19275604 -0.09648186
-0.15928407 -0.05875176 0.28715515 0.100613646 -0.07027543 0.103486754 -0.24546203 0.043700147
0.025798248 0.08753395 -0.012930674 0.22598016 0.005401986 -0.002837702 0.10101307 -0.25322205
0.17821173 0.12097306 0.039576627 -0.018033916 0.050764903 0.008788262 -0.071820416 0.120142035

dec1.fe.FC1.bias f4 [64]
00000000: 3e82 adbe 291f 113e f20d 063d 7395 343e
00000010: 8dd2 f83d 7b76 273c 52b2 c03e 7e62 bf3e
00000020: f4a2 a5be e013 803d 28e5 a2bd 91c8 ea3e
00000030: 24b5 7cbe 9a7a d8be 860e 75be 5859 7b3e
00000040: 3675 98be 90a6 a0be d419 c53e 5858 0f3f
00000050: cf50 94be ec4b a1be 19ee 113c e3d5 de3e
00000060: 4218 613e aa50 bdbe 9eb0 21bd 7ed7 0ebd
00000070: e326 123f 2991 f0bd c155 d7bd 66e2 733e
00000080: 5dac 13be d4ca 20be 8c23 8a3e 7e3e 30be
00000090: ce67 ff3d a623 143e b614 cc3e 56e1 863e
000000a0: 85e8 373e c8ad f4bb 7999 a6be 025e 2c3e
000000b0: 5572 d8be 010c a03d 1926 17be c3c0 a4bd
000000c0: 507d 893e b8e2 afbd a422 c3bd 13ac 173e
000000d0: 4446 abbe a2c7 02be d54e 98bd ae9e bb3d
000000e0: a521 2bbe 1666 da3d 46c6 27be b14f 96bd
000000f0: 6f73 973e 8a46 73be df76 283e ce38 df3d
-0.3388843 0.14172043 0.032728143 0.17635135 0.121495344 0.010221119 0.37636048 0.3737983
-0.32350886 0.06253791 -0.07953864 0.45856145 -0.24678475 -0.42281038 -0.23931322 0.245458
-0.29776925 -0.31377077 0.38496268 0.55994177 -0.28967902 -0.31503236 0.008906865 0.43522558
0.2198191 -0.36975604 -0.039475076 -0.034873478 0.57090586 -0.11746437 -0.10514403 0.23816833
-0.1442122 -0.15702373 0.26980245 -0.17211339 0.12470971 0.14466724 0.3985955 0.26343793
0.17959793 -0.0074670054 -0.32538965 0.16832736 -0.42274728 0.078147896 -0.14760627 -0.08044579
0.26853418 -0.08588165 -0.095280915 0.14811735 -0.33452046 -0.12771466 -0.07436911 0.09161125
-0.16712053 0.106640026 -0.16384229 -0.07339419 0.29580256 -0.23757377 0.16451596 0.108995065
