Lightcode/bc/zyy_results/N_3_3_d_32_32/snr2_30/seed_777/weights/gbaf_1xfe_fy/T_9/pow_1/100000/0.002/K_3_m_3_snr1_3/model_weights120000.pt (torch, 182510 bytes, 38 tensors)

Tmodel.fe1.FC1.weight f4 [64, 24]
0	0x3f0afb69	0.5428987
1	0x3e0640b9	0.13110627
2	0x3da319a3	0.07963874
3	0xbd00bac7	-0.031428125
4	0xbbec5871	-0.0072126915
5	0x3be9ff85	0.007141056
6	0x3da1338e	0.078711614
7	0x3d5c7421	0.053821687
8	0x3e4422d0	0.19153905
9	0x3cfd4c3b	0.030920139
10	0x3e5ac265	0.21363218
11	0xbe33e1fa	-0.17566672
12	0x3e002d1a	0.12517205
13	0xbddca34a	-0.107733324
14	0xbda9420b	-0.0826455
15	0xbd8beebf	-0.068326466
16	0xbaeaa9cb	-0.0017903385
17	0xbdc1596f	-0.09440886
18	0x3c9d70d5	0.019218842
19	0x3c5eeb4a	0.013605902
20	0x3c959257	0.018258257
21	0x3c056bb1	0.008143351
22	0xbcd66093	-0.026169097
23	0xbc3607d7	-0.011110268
24	0x3cb7f0e0	0.022453725
25	0xbe42ceb7	-0.19024168
26	0xbeafb39b	-0.34316716
27	0x3c3651c5	0.011127894
28	0xbd9cd552	-0.07657875
29	0xbe194ba2	-0.14970258
30	0xbf5fb358	-0.8738303
31	0x3e73ce64	0.238092
32	0xbcd9817f	-0.026551006
33	0x3aebe720	0.0017997958
34	0x3d04e27c	0.032442555
35	0xbd436bc5	-0.0477102
36	0x3d67666b	0.056494158
37	0xbc1ddcd6	-0.009635171
38	0x3e8d46b8	0.27593017
39	0xbd82619c	-0.06366274
40	0x3bdde329	0.0067714644
41	0x3dea3960	0.11436725
42	0x3dee1909	0.11625869
43	0x3d343f8c	0.044005916
44	0x3d967e27	0.073482804
45	0x3dc86a1f	0.09785866
46	0x3eac7443	0.3368245
47	0x3cde6179	0.027146088
48	0x3bab0bc4	0.0052199084
49	0xbb469bf9	-0.003030537
50	0xbbaa147b	-0.0051904297
51	0x3f99e5ed	1.2023293
52	0xbd21ce7b	-0.039503556
53	0xbe3eac99	-0.18620528
54	0x3e23933d	0.15974136
55	0xbc79d4b2	-0.015248464
56	0xbbc8e6d1	-0.006131031
57	0x3b30403b	0.0026893753
58	0x3b1813e8	0.0023205224
59	0xbed551b9	-0.41663912
60	0x3e8e1071	0.2774692
61	0xbe0e96a4	-0.13924652
62	0xbe3936db	-0.18087332
63	0xbdf6c5b3	-0.12049427
64	0xb9cc2b58	-0.00038942206
65	0x3b9723d0	0.0046124235
66	0xbbd5827b	-0.0065157986
67	0xbf0d9800	-0.5531006
68	0xbe7f9045	-0.24957378
69	0xbdbfe0a7	-0.09369021
70	0xbe3490a6	-0.17633304
71	0x3df2c38c	0.11853704
72	0xba648f27	-0.0008718841
73	0x3cc637c5	0.024196515
74	0x38311d40	4.222733e-05
75	0xbc05a972	-0.008158075
76	0xbc15d32f	-0.009144588
77	0xbc56ca57	-0.013109765
78	0xb97813a6	-0.00023658443
79	0x3f9a8f89	1.2075053
80	0x3ba63029	0.005071659
81	0x3af940dc	0.0019016522
82	0x3b1669ef	0.0022951325
83	0x39ab51d3	0.00032676625
84	0x3c075801	0.008260728
85	0x3ba0236d	0.0048870356
86	0x3b6e751c	0.003638572
87	0x3f0e6e4f	0.5563707
88	0x3b0dde77	0.0021647492
89	0xbcad4bb0	-0.021154255
90	0x3c82b905	0.015957365
91	0x3caeacbe	0.021322604
92	0x3c7e33cb	0.015515278
93	0x3c16c8b6	0.009203127
94	0x3bab7415	0.005232344
95	0x3f0f99ae	0.5609387
96	0xba5be396	-0.00083881
97	0x3f1180e5	0.568373
98	0xbd200223	-0.039064538
99	0xbd59148b	-0.052998107
100	0xbd23ff89	-0.04003862
101	0xbdd8f4b0	-0.105935454
102	0xbda3cde0	-0.07998252
103	0xbdff3b07	-0.124624304
104	0x3b2bb723	0.0026201687
105	0x3b32f43a	0.0027306215
106	0x3c807a39	0.01568328
107	0x3c1d7a07	0.009611613
108	0x3c851473	0.016245103
109	0x3cca7a78	0.0247166
110	0x3d21ae7b	0.03947304
111	0xbc4b61e6	-0.0124134775
112	0xbc51da75	-0.012808432
113	0xbed4c445	-0.41555992
114	0x3e540252	0.2070401
115	0x3e5a2490	0.2130301
116	0x3e0be995	0.13663323
117	0x3e0525df	0.13002728
118	0x3dd50305	0.104009666
119	0xbcd89813	-0.026439702
120	0xbb86686c	-0.0041018035
121	0x3cb5e6ef	0.022204844
122	0x3bbd880a	0.0057840394
123	0x3b4f6523	0.0031645976
124	0xbbc4b7c3	-0.0060033514
125	0xb9829c94	-0.00024912192
126	0xc0372f67	-2.8622682
127	0xbd232c57	-0.039837208
128	0xbbca340c	-0.0061707553
129	0xbab07062	-0.0013461227
130	0xba01dd13	-0.0004953902
131	0x3bdd43dc	0.0067524742
132	0x3c10f547	0.008847541
133	0xbb7bf68c	-0.0038446514
134	0xc02701f1	-2.6094935
135	0x3ca5f133	0.020256614
136	0xbb73f9f4	-0.003722784
137	0xbb95b093	-0.0045681684
138	0x3af0a404	0.0018359427
139	0x3901d0cc	0.00012380182
140	0xbbe7e7d0	-0.0070771948
141	0x3ba9d0c6	0.0051823584
142	0x40c729c9	6.2238507
143	0x3d0e7fb3	0.034789752
144	0xbc73d780	-0.014882922
145	0xbeeda08e	-0.46411556
146	0xbd349bca	-0.044093885
147	0xbd8e4ba3	-0.0694802
148	0xbd54d00d	-0.051956225
149	0xbd3ee82b	-0.04660813
150	0xbd5d613d	-0.05404781
151	0xbb254fd9	-0.0025224595
152	0x3c2303c0	0.009949625
153	0x3c123348	0.008923359
154	0x3c22db00	0.009939909
155	0xbbb03e30	-0.005378507
156	0x3c9500ea	0.018188912
157	0xbac45f7a	-0.0014982068
158	0x3c7c3b94	0.015395064
159	0xbd1fe0ce	-0.03903275
160	0x3c1d57d6	0.009603461
161	0x3ede5762	0.43426043
162	0xbe142429	-0.14466919
163	0xbdaf95cc	-0.08573493
164	0xbcab8545	-0.020937571
165	0xbaf164eb	-0.0018416917
166	0x3ceae413	0.028673207
167	0x3d8f3d7f	0.06994151
168	0xbefe30b9	-0.49646547
169	0xbe8ac5b1	-0.27103952
170	0xbca5107f	-0.020149468
171	0xbd88c9bb	-0.06679102
172	0xbce04677	-0.02737735
173	0x3c984ebd	0.018592233
174	0x3d19c90f	0.03754526
175	0x3d2d3f3c	0.042296633
176	0x3db16b52	0.08663048
177	0x3c88ec57	0.016714258
178	0x3e39b455	0.18135197
179	0xbe074b73	-0.13212375
180	0x3e108b84	0.14115721
181	0xbde29c4d	-0.11064968
182	0xbd077103	-0.03306676
183	0xbce64ead	-0.028113687
184	0xbc31f996	-0.010862729
185	0x3e38d7ca	0.18051067
186	0xbd9f1c5f	-0.07769083
187	0xbd531903	-0.051537525
188	0xbcb6c960	-0.02231282
189	0xbc290d3f	-0.0103180995
190	0xbc5b5987	-0.013388044
191	0xbb28451f	-0.0025675965
192	0x398b4374	0.00026562402
193	0xbc26a54c	-0.010171246
194	0xbb313809	-0.0027041456
195	0x3b3f00e3	0.0029144816
196	0xbc99b2a7	-0.018761946
197	0xbd043ec0	-0.032286406
198	0x3c0a1e87	0.00843013
199	0xbf1eacab	-0.6198222
200	0xbc263df3	-0.010146606
201	0x3a6c9f49	0.0009026421
202	0xbadb1679	-0.0016715071
203	0xbba1c3e5	-0.0049366825
204	0x3c5f840d	0.013642323
205	0x3a039e83	0.00050208735
206	0xbb456b65	-0.0030123827
207	0xbfa49bed	-1.2860085
208	0x3b5d14f5	0.0033734415
209	0x3c383107	0.011242158
210	0xbb355772	-0.002767053
211	0x3b070239	0.002060069
212	0x3ba14de3	0.004922615
213	0x3c3eb938	0.011640839
214	0x3b8636c8	0.004095886
215	0x3f5776db	0.84165734
216	0xbee04751	-0.4380441
217	0xbdc368c6	-0.09541468
218	0xbd7e156b	-0.062032145
219	0x3c6bd394	0.014393706
220	0x3a5c210b	0.0008397258
221	0xbcd8bb1d	-0.02645641
222	0xbd0eb72f	-0.034842666
223	0xbd13074d	-0.035895634
224	0xbf0763d6	-0.5288671
225	0xbcc6f565	-0.024286935
226	0xbe65681b	-0.22402994
227	0x3e33a90c	0.17544955
228	0xbcf8bf8c	-0.030364774
229	0x3cf837f3	0.030300116
230	0xbadb9665	-0.0016753195
231	0x3d0e72cd	0.03477745
232	0x3c414007	0.01179505
233	0x3d90cc8b	0.070702635
234	0xbc2b8cb0	-0.010470554
235	0xbcda10bd	-0.02661931
236	0xbb6eb8e6	-0.0036426126
237	0x3c204af7	0.009783498
238	0x3c2427bb	0.010019238
239	0x3ba677e5	0.0050802105
240	0x3ac36594	0.0014907592
241	0x3afaa829	0.0019123602
242	0xbef4ba79	-0.47798517
243	0x3dc10f58	0.09426755
244	0x3ddf182a	0.10893281
245	0x3dcc2256	0.099674866
246	0x3d1ec04f	0.03875762
247	0xbd4be262	-0.049776442
248	0x3a41cbd3	0.0007392738
249	0xbb16e314	-0.0023023533
250	0xbf3537e3	-0.707884
251	0x3e853392	0.26015908
252	0xbceccb91	-0.028905662
253	0x3d7fc2af	0.062441524
254	0x3ce44f41	0.027869822
255	0x3da32647	0.07966285

Tmodel.fe1.FC1.bias f4 [64]
0	0xbde1ea67	-0.11031037
1	0x3e36655e	0.17812106
2	0x3aff9ccc	0.0019501685
3	0xbd29930f	-0.04140001
4	0x3afab3be	0.0019127054
5	0xbcbbd639	-0.022929298
6	0x3e82d873	0.25555763
7	0xbb0520e8	-0.0020313803
8	0xbd2c480b	-0.042060893
9	0xbb7efb21	-0.0038907009
10	0xba776712	-0.0009437661
11	0xbf388062	-0.72070897
12	0x3e006bd7	0.12541138
13	0xbb5cbcd1	-0.003368188
14	0x3f2c5181	0.67311865
15	0xbc6595bf	-0.014012753
16	0x3b9bc89f	0.0047541405
17	0xbc133a27	-0.008986033
18	0xba8390e2	-0.0010037685
19	0x3ac6e062	0.0015173072
20	0xb9ac2284	-0.00032832113
21	0xbba127b6	-0.004918064
22	0xbf237f81	-0.6386643
23	0xbb19268b	-0.002336892
24	0x3e1cd5a5	0.15315874
25	0xbea6a5cb	-0.32548365
26	0x3be106b3	0.0068672537
27	0xbce3d5b4	-0.027811863
28	0xbe8cdcab	-0.27512106
29	0x3ade8c6d	0.0016979106
30	0xbf000535	-0.50007945
31	0xbc649fc1	-0.013954104
32	0xbbafd7a8	-0.0053662844
33	0x3ed000bc	0.4062556
34	0xbdc4e6e5	-0.09614352
35	0x3bf00e6b	0.0073259375
36	0x3dc5b270	0.09653175
37	0xbbb8973b	-0.0056332625
38	0x3c077633	0.008267927
39	0x3b315c05	0.0027062905
40	0xbc853932	-0.016262624
41	0x3b114610	0.0022167005
42	0xba54762e	-0.00081047683
43	0xbc5c0733	-0.013429451
44	0xbb4d0eaa	-0.0031289258
45	0xbc7b05f9	-0.015321248
46	0x3cf7c667	0.030245973
47	0x3b8bd640	0.004267484
48	0xbf4d021b	-0.8008134
49	0xbf8fc17d	-1.1230923
50	0x3b9a7cc2	0.0047145793
51	0x3bcce932	0.006253385
52	0x3ecac65f	0.3960447
53	0xbc029631	-0.007970379
54	0x3b863a2b	0.0040962896
55	0xbbd22070	-0.0064125583
56	0x3dcdb6fa	0.10044666
57	0xbeeb46d2	-0.4595247
58	0xbbbe87ee	-0.005814544
59	0xbe6d434c	-0.23170203
60	0xbe71f9e7	-0.23630486
61	0x3ebf3895	0.37347856
62	0x3a827eec	0.0009956039
63	0xbcea7975	-0.028622368

Tmodel.fe1.FC2.weight f4 [64, 64]
0	0xbdc52ddd	-0.09627888
1	0x3cf2a8da	0.02962153
2	0xbd478d54	-0.048718765
3	0x3c60f097	0.013729236
4	0xbda55387	-0.08072572
5	0xbb6e89fa	-0.0036398158
6	0x3d9690bf	0.07351827
7	0xbe9875f0	-0.2977748
8	0x3c31be91	0.010848657
9	0xbda9947b	-0.082802735
10	0x3e123ad3	0.14280252
11	0xbe02f00d	-0.12786885
12	0xb9bbf424	-0.00035849318
13	0x3db7ac43	0.08968403
14	0x3e5ff555	0.2187093
15	0x3d8dfae4	0.06932619
16	0x3d62cd8d	0.05537181
17	0x3d9f6f30	0.07784879
18	0xbdb15a2a	-0.086597756
19	0xbd7c6a21	-0.06162465
20	0xbef0452f	-0.46927783
21	0x3e200ef7	0.15630709
22	0x3b2dbf0c	0.0026511578
23	0x3bba0710	0.0056771114
24	0xb9e1e822	-0.00043088297
25	0xbc7e5f38	-0.015525632
26	0xbebd4f28	-0.36974454
27	0xbd916cc7	-0.07100826
28	0xbb2de03b	-0.0026531357
29	0x3e7768d3	0.24161081
30	0xbca384af	-0.01996073
31	0x3cb3df65	0.021957109
32	0xbd9b1c1b	-0.0757372
33	0x3cb65571	0.022257539
34	0x3bab0542	0.0052191326
35	0x3dc23f04	0.094846755
36	0xbc7bd5bc	-0.015370782
37	0x3e8f9988	0.28046823
38	0xbcfd6f96	-0.030936997
39	0x3caba42a	0.020952303
40	0xbd810e8c	-0.06301603
41	0xbe0a4825	-0.13504083
42	0x3d6b1da0	0.0574013
43	0xbe4209f1	-0.18949105
44	0x3dce6bdd	0.10079167
45	0xbc46d23c	-0.012135085
46	0xbc61c16c	-0.0137790255
47	0x3eb671cd	0.35633698
48	0x3cd51711	0.026011975
49	0xbbbfd18d	-0.005853838
50	0x3ea80f65	0.32824245
51	0x3e981ebc	0.29710948
52	0xbaa6bb11	-0.0012720545
53	0x3d9db8be	0.077012524
54	0x3cb9bc45	0.022672782
55	0x3cf8dc32	0.030378435
56	0xbd39137b	-0.045184594
57	0xbcb727ad	-0.022357786
58	0x3d3f60f2	0.046723314
59	0xbce6c677	-0.028170807
60	0x3c6aadd3	0.0143236695
61	0x3c92a766	0.017902087
62	0x3d94fd01	0.07274819
63	0xbd052566	-0.03250637
64	0xbb95ca70	-0.0045712516
65	0x3da33d36	0.079706594
66	0xbcffb0c2	-0.031212214
67	0xc0074a9b	-2.1139286
68	0x3e4c57b8	0.19955337
69	0xbc0cd494	-0.008595604
70	0xbde962ab	-0.113957725
71	0xbd8af450	-0.0678488
72	0xc011570a	-2.2709374
73	0x3d59a0a5	0.05313172
74	0xbd0f5893	-0.03499658
75	0x3e42f678	0.19039333
76	0xbe187d63	-0.14891581
77	0x3d7434f4	0.059620813
78	0xbe3a6913	-0.18204145
79	0xbd72f08c	-0.059311435
80	0x3df6b756	0.12046687
81	0x3d8ec630	0.06971395
82	0x3d8fa912	0.070146695
83	0x3cb806f9	0.022464262
84	0x3d4eb966	0.05046978
85	0xbdcbc136	-0.099489614
86	0xbe835a57	-0.2565486
87	0xbd1d4ea5	-0.03840508
88	0x3e6ffde7	0.234367
89	0x3e65aa01	0.22428133
90	0x3d92e0cb	0.07171782
91	0x3d75c783	0.060004722
92	0x3c824afd	0.015904898
93	0xbe465a58	-0.19370401
94	0x3ead1e8d	0.3381237
95	0xbf85f992	-1.0466788
96	0xbe26b726	-0.16280803
97	0xbcd3c941	-0.025852801
98	0xbc918531	-0.017763706
99	0xbf43357b	-0.7625348
100	0xbd6fd614	-0.05855377
101	0xbd466399	-0.048434827
102	0x3c803158	0.015648529
103	0xbea50de7	-0.3223717
104	0xbbbbbe05	-0.005729439
105	0x3e1fcc3a	0.1560525
106	0xbf290328	-0.6602044
107	0xbd5661bb	-0.052339297
108	0x3d9a6b9a	0.075400546
109	0xbc5d56df	-0.013509481
110	0xbd402eec	-0.04691975
111	0x3dacfcc7	0.08446651
112	0x3dd6fdd5	0.10497633
113	0xbfe8dea9	-1.819295
114	0x3d563796	0.052299105
115	0xbcc0f9ad	-0.023556555
116	0xbb9822aa	-0.004642804
117	0xbe08d312	-0.13361767
118	0xbedbda86	-0.42940158
119	0x3aaa3a97	0.0012987432
120	0x3d351af4	0.044215158
121	0x3dbf0ab1	0.09328211
122	0xbe6a79b9	-0.22897996
123	0x3ee9e4f6	0.45682496
124	0xbe191b5b	-0.14951842
125	0x3c748a8c	0.01492561
126	0x3e063e03	0.13109593
127	0xc02ae9b0	-2.6705132
128	0xbe77e2ff	-0.24207686
129	0x3d2538c3	0.040337335
130	0x3e11e6e1	0.1424823
131	0x3b8ea071	0.004352622
132	0x3d8170cd	0.06320343
133	0x3b8b3741	0.00424853
134	0x3de4dfcd	0.11175499
135	0xbdb57922	-0.08860995
136	0xbce60eef	-0.028083293
137	0xbefd0dbc	-0.4942454
138	0x3d75de01	0.060026173
139	0xbdb29eb7	-0.08721679
140	0xbcdc8354	-0.02691809
141	0x3d82fba5	0.06395654
142	0xbd1e5b5c	-0.038661346
143	0x3e17e101	0.14831926
144	0x3d124f53	0.03572018
145	0xbc269655	-0.010167678
146	0xbd2289d6	-0.03968223
147	0x3c6129bd	0.013742861
148	0x3e2a4d24	0.1663099
149	0xbe517939	-0.20456399
150	0x3d062290	0.032747805
151	0x3c85a941	0.016316058
152	0x3ca4b4ff	0.020105837
153	0x3e10f092	0.1415427
154	0x3d0a8171	0.03381485
155	0x3cb798f5	0.022411803
156	0x3d0b720d	0.034044314
157	0x3c84cb59	0.016210245
158	0xbde16e01	-0.1100731
159	0x3e1ce5d4	0.15322047
160	0xbc596afb	-0.013270135
161	0xbbfa9942	-0.0076476643
162	0x3d2e3b83	0.042537224
163	0xbb4f5056	-0.0031633577
164	0x3c2d19ae	0.010565205
165	0xbd9f1715	-0.077680744
166	0x3e1c28c6	0.15249929
167	0x3df59389	0.11991031
168	0x3cfd1a9f	0.030896483
169	0x3d810556	0.06299846
170	0xbcc77727	-0.024348808
171	0xbdbd6873	-0.09248438
172	0xbdf19e05	-0.11797718
173	0x3c8df828	0.017330244
174	0xbe7203bf	-0.23634242
175	0xbd0348bc	-0.032051787
176	0xbdbd7b51	-0.09252036
177	0x3e76b64c	0.24092978
178	0xbca8bbed	-0.020597422
179	0xbd84856e	-0.06470762
180	0xbaa1b1ee	-0.0012336352
181	0x3ba8e2cb	0.005153989
182	0xbca10fee	-0.019660916
183	0x3c9ce4d5	0.019152084
184	0xbe7d2aa1	-0.24723293
185	0xbe2092a7	-0.15680943
186	0xbddcbaa8	-0.10777789
187	0xbdbc8259	-0.09204549
188	0xbdf23c1b	-0.118278705
189	0x3e2cd69d	0.16878743
190	0x3d93fb17	0.07225626
191	0x3d647720	0.05577767
192	0x3d8c3a91	0.06847108
193	0xbe258106	-0.161625
194	0x3cbb8b6c	0.02289363
195	0x3e729d30	0.23692775
196	0x3ce24c25	0.0276242
197	0x3c1f94a9	0.009740033
198	0xbe72a8b0	-0.23697162
199	0x3c591c18	0.013251327
200	0x3e72792c	0.23679036
201	0xbc89f0f2	-0.016838524
202	0x3d2ba130	0.041901767
203	0xbe930739	-0.28716448
204	0x3dabf278	0.083958566
205	0x3c91fa6e	0.01781961
206	0xbdaa0181	-0.08301068
207	0x3cbf6cfd	0.0233674
208	0x3d32662f	0.04355448
209	0xbd42d79c	-0.047568902
210	0x3c3694a4	0.011143837
211	0xbcb3e86f	-0.021961419
212	0xbd9d59f1	-0.076831706
213	0x3e037b75	0.12840064
214	0xbd944e01	-0.072414406
215	0x3d0a3d65	0.033749957
216	0xbdc77cba	-0.097405866
217	0xbd1f9a40	-0.038965464
218	0x3e00b055	0.12567265
219	0xbd0f475b	-0.03498016
220	0xbe5a1019	-0.21295203
221	0x3e0d42ca	0.1379501
222	0xbf128846	-0.57239187
223	0xbdd24c19	-0.10268421
224	0xbc28ea41	-0.010309757
225	0xbcd795e1	-0.026316585
226	0x3cd58cbd	0.026068086
227	0x3d1ef066	0.03880348
228	0x3e2df6d7	0.16988693
229	0x3e02aaa8	0.12760413
230	0xbd06f622	-0.032949574
231	0x3e116f41	0.14202596
232	0xbc971296	-0.01844148
233	0xbe17fcf2	-0.14842585
234	0x3e336d80	0.1752224
235	0xbcfe446f	-0.031038491
236	0xbd8b1af1	-0.06792248
237	0xba16f607	-0.0005758707
238	0x3cdc1fea	0.026870687
239	0xbe82a65e	-0.25517553
240	0x3f6ae555	0.9175618
241	0x3fb320c3	1.3994373
242	0xbe2297e7	-0.15878259
243	0xbd73ff55	-0.059569675
244	0xbc1e0123	-0.009643826
245	0x3da56ec4	0.080777675
246	0xbe5c82d4	-0.21534282
247	0xba9856cc	-0.0011622547
248	0xbc2fc43c	-0.010727938
249	0xbe9ffa94	-0.31245863
250	0x3dc5c406	0.09656529
251	0xbe35d8dd	-0.17758508
252	0xbc36ef25	-0.011165415
253	0xbb950b1d	-0.004548444
254	0xbbb06d2d	-0.0053841085
255	0x3d29b2fc	0.04143046

Tmodel.fe1.FC2.bias f4 [64]
0	0x3ebf3aa2	0.3734942
1	0xbe06d953	-0.1316884
2	0x3cbbad0f	0.02290967
3	0xbe13610c	-0.14392489
4	0xbde841ff	-0.11340713
5	0x3e8bb322	0.27285105
6	0xbe15e80e	-0.14639303
7	0xbd70309a	-0.0586401
8	0xbec4c5ca	-0.3843215
9	0x3da12cb1	0.07869852
10	0xbbe9c614	-0.0071342085
11	0xbebb707c	-0.36609256
12	0xbeec57f8	-0.46160865
13	0x3eb2a1bb	0.34889016
14	0x3e2e4888	0.17019856
15	0x3e2bed8a	0.16789833
16	0x3e094ca5	0.13408144
17	0xbd88cc20	-0.06679559
18	0x3ea2f5c9	0.31828144
19	0x3e16301d	0.14666791
20	0x3e0b092b	0.13577716
21	0xbe310d56	-0.17290244
22	0xbed64844	-0.4185201
23	0xbe4b4cd0	-0.1985352
24	0xbe5c7d6f	-0.21532224
25	0x3e888363	0.2666274
26	0x3e856fcf	0.26061866
27	0x3ed56007	0.41674826
28	0x3d25751c	0.040394887
29	0x3e1aa1c8	0.15100777
30	0xbe1a55b2	-0.15071753
31	0xbb523344	-0.0032074014
32	0x3ed791a0	0.4210329
33	0xbdc870af	-0.09787118
34	0xbdc1f04e	-0.094696626
35	0x3eeacac7	0.45857832
36	0xbec70fb8	-0.3887918
37	0xbe8d017f	-0.27540204
38	0x3cd5324b	0.026024958
39	0x3e237319	0.15961875
40	0x3f0bbd8b	0.54586095
41	0x3ed7dc79	0.42160395
42	0xbc96496f	-0.018345563
43	0x3d57dfd8	0.05270371
44	0xbe7067a2	-0.23477033
45	0xbddee919	-0.108843036
46	0xbe124f9b	-0.1428818
47	0xbe02a37c	-0.12757677
48	0x3ea9b6ab	0.33147177
49	0xbe7c1e09	-0.24620833
50	0x3e04b566	0.12959823
51	0x3cc6f237	0.024285419
52	0xbeb77082	-0.35828024
53	0xbe07dc9d	-0.13267751
54	0xbece18b1	-0.40253213
55	0xbeb90416	-0.3613593
56	0xbe5f70dd	-0.21820398
57	0x3e411435	0.18855365
58	0xbdf5dd2d	-0.120050766
59	0xbdf1a32b	-0.117987
60	0x3efac3bd	0.4897746
61	0xbf037842	-0.51355374
62	0x3da07f35	0.07836763
63	0xbefe5441	-0.49673656

Tmodel.fe1.FC3.weight f4 [64, 64]
0	0x3d80825d	0.06274865
1	0x3bb77c4d	0.0055995346
2	0xbd86795c	-0.06566116
3	0xbdb8e98c	-0.090289205
4	0xbe08f8a5	-0.133761
5	0xbe1a5e86	-0.1507512
6	0xbe2b7d1f	-0.16746949
7	0x3aed70c2	0.001811527
8	0x3d4b1f87	0.049590614
9	0xbce2c8b7	-0.027683599
10	0xbce68dc7	-0.028143777
11	0xbde15900	-0.110033035
12	0x3dab6fa2	0.08370902
13	0x3d0e7d71	0.0347876
14	0xbb12c974	-0.0022397907
15	0x3c471428	0.012150802
16	0xbc04d5ab	-0.008107583
17	0x3c899222	0.016793314
18	0x3ee16835	0.44024816
19	0x3d629b3e	0.05532383
20	0x3d9c9d7c	0.07647225
21	0xbdf4915c	-0.119417876
22	0xbef0312c	-0.46912515
23	0xbe0d5a69	-0.1380402
24	0x3d1a17ee	0.037620477
25	0xbd341ff5	-0.04397579
26	0x3f1210c6	0.57056844
27	0x3c08c80c	0.008348476
28	0x3d6dfb1f	0.058100816
29	0xbb1a2f9c	-0.0023526913
30	0x3e07c929	0.1326033
31	0x3b9556ab	0.004557451
32	0xbdd91bfb	-0.1060104
33	0xbcb3bafa	-0.021939743
34	0xbcc1f576	-0.023676615
35	0xbec41eae	-0.38304657
36	0x3d9b43eb	0.07581314
37	0x3c5beebd	0.013423619
38	0x3c689f4c	0.014198136
39	0xbc83f42e	-0.016107645
40	0x3d0f3e9e	0.034971826
41	0x3d37b86f	0.044853624
42	0x3d55b72f	0.05217665
43	0x3dea0310	0.114263654
44	0xbe801111	-0.2501302
45	0xbdcfd891	-0.10148729
46	0x3c6b334b	0.014355491
47	0xbd06f209	-0.032945666
48	0x3d7278bf	0.059197184
49	0xbd9fd56d	-0.078043796
50	0x3db70fdb	0.08938571
51	0xbde8c4a8	-0.11365634
52	0xbe2a1de4	-0.16612965
53	0x3db44b49	0.08803422
54	0xbd6a6550	-0.057225525
55	0x3db40d31	0.087915786
56	0x3d2ccff8	0.042190522
57	0x3d1b3f80	0.037902355
58	0x3e0c5317	0.13703571
59	0xbd0c3406	-0.0342293
60	0x3e8e8755	0.27837625
61	0xbe18917d	-0.1489925
62	0xbd55e4ca	-0.052220143
63	0xbe74b142	-0.23895743
64	0x3d3e3998	0.046441644
65	0xbdc4ef09	-0.09615905
66	0xbdb4d090	-0.08828843
67	0x3dfcf17d	0.12350748
68	0x3eadde29	0.33958557
69	0x3e341d77	0.17589365
70	0x3db8b599	0.09019012
71	0xbd61045a	-0.05493579
72	0xbe11c55a	-0.1423544
73	0xbe0e62f8	-0.13904941
74	0x3d86fa04	0.065906554
75	0x3e80eb9d	0.2517976
76	0x3e4a590e	0.19760534
77	0xbdc7d23b	-0.09756895
78	0x3e2b3c65	0.16722257
79	0xbe1d0591	-0.15334155
80	0x3bd5b71c	0.0065220725
81	0x3ebc5eae	0.36790985
82	0x3d819927	0.063280396
83	0x3ee244d3	0.44193134
84	0x3e2fcd59	0.17168178
85	0xbe2c2065	-0.16809233
86	0xbefafe54	-0.49022162
87	0x3ba5d9d7	0.005061369
88	0xbdb75b28	-0.089529335
89	0x3d3705b0	0.04468316
90	0xbcb67f04	-0.022277363
91	0x3e744831	0.23855664
92	0x3e141a16	0.14463076
93	0xbd9e801c	-0.07739279
94	0x3ee06077	0.43823597
95	0xbe871f8a	-0.2639125
96	0x3cbe3ad0	0.023221403
97	0xbd8eb534	-0.069681555
98	0xbe1f38f0	-0.15549064
99	0xbcdbbc56	-0.026823204
100	0x3da6c334	0.08142701
101	0xbd838732	-0.06422271
102	0xbe8d5c36	-0.27609414
103	0xbdbc8ff4	-0.092071444
104	0xbe52a16a	-0.20569387
105	0xbe23c0fd	-0.15991588
106	0xbcf26f45	-0.029594073
107	0xbded3276	-0.1158189
108	0xbd96e779	-0.07368369
109	0xbdaef904	-0.0854359
110	0xbd1b944e	-0.03798323
111	0x3e8ac231	0.2710128
112	0xbd9d932a	-0.07694085
113	0xbe0d5b7b	-0.13804428
114	0xbc25a1b5	-0.010109355
115	0xbd5fdc11	-0.05465323
116	0x3cdd5d62	0.027022067
117	0x3eb54d6b	0.35410628
118	0x3e481902	0.1954079
119	0x3dbfe122	0.093691126
120	0xbe30fa6a	-0.17283025
121	0xbd74bd2e	-0.05975073
122	0x3d8f824d	0.07007275
123	0x3df6a597	0.120433025
124	0x3b8cb812	0.004294404
125	0xbe136408	-0.14393628
126	0x3d6cf976	0.057855092
127	0xbe7e79e3	-0.24851184
128	0x3d25b6dd	0.040457595
129	0x3e4b5a77	0.19858728
130	0xbdd525a4	-0.1040757
131	0xbcc93252	-0.024560127
132	0x3ec195c8	0.37809587
133	0x3eb3931a	0.35073167
134	0x3eca99f4	0.39570582
135	0xbdb43e48	-0.08800942
136	0xbdb2a21c	-0.08722326
137	0x3e6636ba	0.22481814
138	0xbd847051	-0.06466735
139	0x3e0a752a	0.13521257
140	0xbf028356	-0.5098165
141	0x3c41a0a2	0.011818083
142	0xbde7ee30	-0.113247275
143	0x3cac1421	0.021005692
144	0xbd6fb3e5	-0.05852117
145	0xbe01503a	-0.1262826
146	0xbdc3c664	-0.095593244
147	0xbd46ba2d	-0.048517395
148	0x3e28715a	0.1644949
149	0xbe83d787	-0.25750372
150	0x39fc851f	0.00048164368
151	0xbe21a89c	-0.15786976
152	0x3d6daf5a	0.058028556
153	0x3d9969b0	0.074908614
154	0x3d86661a	0.06562443
155	0xbcd9b9b7	-0.026577814
156	0xbe1833c8	-0.14863503
157	0xbc7940dc	-0.015213218
158	0xbe4fc74c	-0.2029087
159	0xbbb2e048	-0.0054588653
160	0x3c6cebbf	0.014460503
161	0xbb7ee5cf	-0.00388943
162	0x3b398844	0.002830998
163	0xbe30bbbf	-0.1725912
164	0xbdba9bf0	-0.09111774
165	0xbdf9cc42	-0.12197162
166	0x3d661e52	0.05618126
167	0xbd624aae	-0.055247
168	0xbd129805	-0.03578951
169	0x3db0d31d	0.08634017
170	0xbd31a4ff	-0.043370243
171	0xbec037f3	-0.37542686
172	0xbb795678	-0.0038045924
173	0xbe6bd9c5	-0.23032291
174	0xbacf6a6d	-0.0015824564
175	0xbed70912	-0.41999108
176	0xbdd13689	-0.1021548
177	0x3e2ab012	0.16668728
178	0xbdfb0d5e	-0.12258409
179	0xbe33b516	-0.17549548
180	0x3ccc265f	0.02492064
181	0x3daef8cf	0.0854355
182	0x3e250a63	0.16117243
183	0x3c166a10	0.009180561
184	0xbd59c71d	-0.053168405
185	0xbb41b40e	-0.0029556784
186	0xbe7bb9c5	-0.24582584
187	0xbe4c15df	-0.19930218
188	0xbe55a573	-0.20863895
189	0xbe0a3ece	-0.1350052
190	0x3bdeba4a	0.0067971097
191	0x3e1e66da	0.15468922
192	0x3da905aa	0.082530335
193	0xbdd3fdc1	-0.10351134
194	0x3ba35e19	0.0049855825
195	0xbd57702d	-0.052597214
196	0x3c13e2cc	0.009026241
197	0xbee502fb	-0.44728836
198	0x3d1589ec	0.036508486
199	0x3c860ab5	0.016362527
200	0xbecb7e52	-0.39744812
201	0xbc5b11e3	-0.013370964
202	0xbe076bdd	-0.1322474
203	0x3e85bb98	0.26119685
204	0x3f251ac0	0.6449394
205	0x3dac4afe	0.08412741
206	0xbde63ec1	-0.11242438
207	0xbcb5c7d4	-0.022190012
208	0xbda62ee7	-0.08114415
209	0x3e5426d5	0.20717938
210	0x3e5c5424	0.21516472
211	0x3cb6f342	0.022332791
212	0x3ecdeef3	0.40221366
213	0xbe67b884	-0.22628981
214	0xbdbdd5d6	-0.092693016
215	0x3ddcb165	0.10776023
216	0xbe32b852	-0.17453125
217	0xbd310663	-0.04321898
218	0xb9c03842	-0.0003666301
219	0x3cb18526	0.021669935
220	0x3e5dd72e	0.21664116
221	0x3d229862	0.039696105
222	0xbdea9899	-0.11454887
223	0x3a661875	0.0008777448
224	0x3e3d853b	0.18507855
225	0x3b9cf90c	0.004790431
226	0x3ddd7d6c	0.10814938
227	0xbdf965ea	-0.12177642
228	0xbd8cc4f6	-0.06873505
229	0x3d19b536	0.03752633
230	0x3b0ed97c	0.0021797111
231	0x3cec24c6	0.028826129
232	0x3df273e3	0.1183851
233	0xbd5e6bb3	-0.05430193
234	0x3d8b88da	0.06813212
235	0xbebbdc71	-0.3669162
236	0x3db99ff6	0.09063713
237	0xbdf7aef0	-0.120939136
238	0xbd18463f	-0.037176367
239	0x3e40a130	0.18811488
240	0x3e45062b	0.19240634
241	0x3e192698	0.14956129
242	0x3dbb466a	0.0914429
243	0xbd24de09	-0.04025081
244	0xbe5bd68a	-0.21468559
245	0x3e801240	0.25013924
246	0xbe0cd07a	-0.13751402
247	0x3d104f15	0.03523167
248	0xbce6c246	-0.028168809
249	0x3d6cce1d	0.057813752
250	0xbc03a5a1	-0.0080350945
251	0x3e1ddb3c	0.15415663
252	0x3c232562	0.009957643
253	0x3dd62056	0.10455386
254	0x3d8e4df9	0.06948466
255	0x3e017f3f	0.12646197

Tmodel.fe1.FC3.bias f4 [64]
0	0x3e134d58	0.14384973
1	0x3d53b3d4	0.05168517
2	0x3ec7b14f	0.39002463
3	0xbe27e5d0	-0.1639626
4	0x3d066f2a	0.032820858
5	0x3ec30306	0.38088244
6	0xbf0a2cbc	-0.5397451
7	0x3ea47f33	0.32128295
8	0xbc800221	-0.015626015
9	0xbea4395b	-0.3207501
10	0x3e3b2ba0	0.1827836
11	0xbe2b613d	-0.16736312
12	0xbcc0cfa2	-0.023536507
13	0x3f249b7f	0.6429977
14	0x3ef074ba	0.46964055
15	0x3eff6adb	0.49886212
16	0xbee263e1	-0.44216827
17	0xbd2f38ab	-0.042778652
18	0xbe70bd90	-0.23509812
19	0x3d0b809d	0.034058202
20	0xbdee2645	-0.11628393
21	0x3e955b09	0.29171017
22	0x3f0c2a2d	0.54751855
23	0x3ea47d9c	0.32127082
24	0x3e710e2a	0.2354056
25	0xbddec316	-0.108770534
26	0x3db1b175	0.08676425
27	0x3e82970a	0.2550586
28	0x3dbd7f61	0.09252811
29	0x3d9167ab	0.07099851
30	0xbe932a1f	-0.28743073
31	0xbe1d1cca	-0.15343013
32	0x3d9247e6	0.0714262
33	0x3e712fbf	0.2355337
34	0xbd14d427	-0.036335137
35	0x3e3164e4	0.17323643
36	0xbe937a36	-0.28804177
37	0x3d9ff1df	0.07809805
38	0xbdb22268	-0.08697969
39	0xbbf1c687	-0.0073784026
40	0xbcb88be4	-0.022527643
41	0xbe76aad8	-0.24088609
42	0x3e049067	0.1294571
43	0x3ecab0ed	0.3958811
44	0xbe2e54df	-0.17024563
45	0xbdf88034	-0.12133828
46	0xbe0e7d7a	-0.13915053
47	0x3e99a1fc	0.30006397
48	0xbdd8254d	-0.105539896
49	0x3e94b96e	0.29047722
50	0x3e0c5792	0.1370528
51	0xbeb16b21	-0.34652045
52	0x3f077f6b	0.529288
53	0x3cf9931a	0.030465651
54	0x3d00b697	0.03142413
55	0x3ded9aef	0.11601817
56	0x3eb380df	0.35059258
57	0x3e3d3ca4	0.18480164
58	0xbe91500b	-0.2838138
59	0xbedbfda1	-0.4296694
60	0xbea5119e	-0.32240003
61	0xbd06c490	-0.0329023
62	0xbf44ced1	-0.76878077
63	0x3d8705ed	0.06592927

Tmodel.fe1.FC4.weight f4 [32, 128]
0	0xbde33ef8	-0.11095995
1	0x3ef86b7a	0.48519498
2	0x3e030196	0.12793574
3	0x3d0b11f3	0.033952665
4	0x3d121c8e	0.035671763
5	0x3e37f6b5	0.17965205
6	0xbe185d38	-0.1487931
7	0x3e59c11e	0.21265075
8	0xbdaad19a	-0.083407596
9	0xbd00130c	-0.031268165
10	0xbe2f1130	-0.170964
11	0xbdb0a882	-0.0862589
12	0x3e6b5b88	0.22984135
13	0x3d74904b	0.05970792
14	0x3e7b6380	0.24549675
15	0x3d24e62e	0.04025858
16	0xbb3f8ee4	-0.0029229457
17	0x3c8d9322	0.017282072
18	0xbd5433f4	-0.05180736
19	0x3ef27fd7	0.4736316
20	0x3e87f64b	0.26555094
21	0xbc020e3b	-0.007937963
22	0x3ecb02a9	0.39650467
23	0x3e0fc1b5	0.14038737
24	0x3e83771c	0.2567681
25	0xbdf0ab6a	-0.11751445
26	0x3d2a306a	0.041550077
27	0xbd30f37d	-0.04320096
28	0xbe09e19d	-0.13464971
29	0xbc778b9f	-0.015108972
30	0xbd12425b	-0.035707813
31	0x3e91366e	0.2836184
32	0xbe90ea3d	-0.2830371
33	0x3ede2f0c	0.4339527
34	0xbeb5ae19	-0.35484388
35	0xbe38f826	-0.18063411
36	0x3d9405c7	0.072276644
37	0x3d511468	0.05104485
38	0xbe1d1314	-0.15339309
39	0x3dd684cd	0.104745485
40	0x3e5a9f6e	0.2134988
41	0x3e2b3ca2	0.16722348
42	0x3dfae0f5	0.122499384
43	0xbe8e9445	-0.27847496
44	0xbe4a378b	-0.1974775
45	0xbdf52318	-0.11969584
46	0x3e136b61	0.1439643
47	0xbe297fbe	-0.16552636
48	0x3e907aa3	0.28218564
49	0xbcac8ba5	-0.021062681
50	0x3f24190b	0.6410071
51	0xbd22af6f	-0.039718088
52	0x3e173e5a	0.14769879
53	0xbe075ee8	-0.13219798
54	0xbde6a7c6	-0.11262469
55	0x3e4a7047	0.19769393
56	0xbd430f59	-0.04762206
57	0xbd3a434b	-0.04547433
58	0x3f0986e8	0.53721476
59	0x3d34cc06	0.044139884
60	0xbdbf8b42	-0.09352733
61	0xbdcf83a8	-0.10132533
62	0xbe1fb4a2	-0.1559625
63	0x3d5bc470	0.053654134
64	0x3caaa28b	0.02082946
65	0x3c80e9af	0.015736429
66	0x3eef9f02	0.46801
67	0xbcbc9000	-0.023017883
68	0xbd9998b5	-0.0749983
69	0xbb51d0cb	-0.003201532
70	0xbe66e5a8	-0.22548544
71	0x3e093f78	0.13403118
72	0xbe7a882c	-0.24466008
73	0x3caf981a	0.021434832
74	0xbdcdf6db	-0.100568496
75	0xbd08bb5a	-0.033381797
76	0xbd609a73	-0.054834794
77	0xbda458b3	-0.080247305
78	0x3d89aa0b	0.06721886
79	0x3d89393f	0.06700372
80	0x3cadc4ec	0.021212064
81	0x3d842cba	0.064538434
82	0xbc4ddb1a	-0.012564445
83	0x3da97b8e	0.08275519
84	0x3c584195	0.01319923
85	0x3e165a31	0.14682843
86	0x3e3c25b9	0.18373765
87	0x3dfe8c93	0.12429156
88	0x3e7dec1b	0.24797098
89	0x3eb6548c	0.3561138
90	0x3e1d3d73	0.15355472
91	0xbdc9b057	-0.09848087
92	0xbdde164f	-0.10844099
93	0xbc54295b	-0.012949313
94	0xbd9959df	-0.07487845
95	0x3d192c81	0.037395958
96	0x3e549885	0.20761307
97	0xbd251cd0	-0.04031068
98	0xbd2b2223	-0.041780602
99	0x3eed22cc	0.4631561
100	0xbe3f7def	-0.18700384
101	0x3c01b5c3	0.0079168705
102	0xbdfe32b6	-0.12412016
103	0xbe2d2e4d	-0.16912194
104	0xbdd4be0a	-0.103878096
105	0xbdbf831f	-0.09351181
106	0x3f153334	0.58281255
107	0x3e6a3e8a	0.2287542
108	0xbd03047a	-0.03198669
109	0x3d95d59e	0.07316135
110	0xbd2accb4	-0.041699126
111	0x3e819c02	0.25314337
112	0xbe67f68f	-0.22652648
113	0x3ea4a607	0.3215792
114	0x3e0dd84b	0.1385204
115	0x3da13004	0.078704864
116	0xbe5752d5	-0.21027692
117	0x3de196ef	0.110151164
118	0x3e01bc0c	0.1266939
119	0xbcf2c7f0	-0.029636353
120	0x3cf93f01	0.03042555
121	0x3e892537	0.26786205
122	0xbe19165d	-0.14949937
123	0xbcfd2eda	-0.03090613
124	0xbbf04191	-0.007332035
125	0xbca73eaf	-0.020415632
126	0xbdcf5b8d	-0.10124884
127	0x3ec47f02	0.3837815
128	0xbd511632	-0.051046558
129	0x3d0cabdc	0.034343585
130	0xbebb2938	-0.36554885
131	0x3e1ed678	0.15511501
132	0xbe0375c5	-0.12837894
133	0xbd2857d2	-0.041099377
134	0xbdce581b	-0.100753985
135	0x3ddaee10	0.10689938
136	0xbf07a4b4	-0.5298569
137	0x3e016e93	0.12639837
138	0xbe68cd98	-0.22734678
139	0x3cf4161f	0.029795704
140	0xbd4136b2	-0.047171302
141	0xbd8c26c9	-0.06843335
142	0x3d968143	0.073488735
143	0xbdd68449	-0.1047445
144	0xbd8c50b6	-0.06851332
145	0xbd8fcef2	-0.070218936
146	0x3e74d74f	0.23910259
147	0x3d93fb6b	0.072256885
148	0x3e5764aa	0.21034494
149	0xbd930a78	-0.07179731
150	0xbcf8126b	-0.03028222
151	0xbe3f3d8a	-0.18675819
152	0xbe9fec62	-0.31235033
153	0xbe6665a5	-0.22499712
154	0xbddd9c34	-0.10820809
155	0x3dc5ba29	0.09654648
156	0x3e8844c9	0.2661498
157	0xbdc2dab3	-0.0951437
158	0x3e6f7041	0.23382665
159	0x3e162649	0.14663042
160	0xbeb86773	-0.36016425
161	0xbea52f72	-0.3226276
162	0xbdaef523	-0.0854285
163	0x3ec63673	0.38713416
164	0xbe5d94fc	-0.21638864
165	0x3d68ae16	0.056806646
166	0x3da5d6bf	0.080976
167	0x3ed2632f	0.41091296
168	0xbdc2dc4d	-0.09514675
169	0x3e179336	0.1480225
170	0x3af518c1	0.0018699394
171	0xbe4aeb6f	-0.19816373
172	0x3e2e8890	0.17044282
173	0x3e3e826d	0.18604441
174	0xbe8af090	-0.2713666
175	0x3e9095ce	0.28239292
176	0xbe5e73f4	-0.2172392
177	0xbe95ed7a	-0.29282743
178	0x3db39489	0.08768565
179	0x3c76de16	0.015067598
180	0xbe0cf53d	-0.13765426
181	0x3e7805d0	0.24220967
182	0xbec1c343	-0.37844285
183	0xbde7e4d2	-0.11322941
184	0x3dd63a36	0.104603216
185	0x3eb4c012	0.35302788
186	0xbd775249	-0.060381208
187	0x3e7fca61	0.24979545
188	0xbc509e32	-0.012733029
189	0xbdf50573	-0.1196393
190	0x3d02ef26	0.03196635
191	0xbdc9db8d	-0.09856329
192	0xbc386109	-0.011253604
193	0xbf05d799	-0.522821
194	0xbdebf795	-0.11521832
195	0x3beb6d4d	0.0071846605
196	0x3e1e2ef0	0.15447593
197	0x3e14b9be	0.1452398
198	0x3c20e089	0.009819158
199	0x3c838c1d	0.016058022
200	0x3d6d2681	0.05789805
201	0x3db65c6f	0.08904349
202	0xbe4a9d43	-0.19786553
203	0x3c1def55	0.009639581
204	0x3d20ed9a	0.039289095
205	0x3dfa4e8d	0.122220136
206	0x3e2359e8	0.15952265
207	0xbd326d2c	-0.043561146
208	0xbe98b284	-0.29823697
209	0x3b2ef193	0.0026694282
210	0x3e27e12e	0.16394493
211	0x3dcf5012	0.10122694
212	0xbe0cab45	-0.13737209
213	0x3d238c7a	0.03992889
214	0x3e66022d	0.22461767
215	0x3e77c44f	0.2419598
216	0x3e49def1	0.19713952
217	0x3e94a0b8	0.2902887
218	0x3ce5ac26	0.028036188
219	0x3e496ab4	0.1966961
220	0xbceca57e	-0.028887507
221	0x3d88b53e	0.06675194
222	0x3dd9388a	0.10606487
223	0x3e314186	0.17310151
224	0x3ee4888b	0.44635424
225	0xbde9bca4	-0.114129335
226	0x3e235ad3	0.15952615
227	0xbe3c9676	-0.18416771
228	0x3e237a2c	0.15964574
229	0xbb06c8e9	-0.002056653
230	0xbe2adaa2	-0.16684964
231	0x3eac63f3	0.33670005
232	0xbdebdc30	-0.11516607
233	0xbe13d70f	-0.14437507
234	0x3ddbded2	0.10735859
235	0x3d885882	0.066575065
236	0xbcf81907	-0.030285371
237	0x3e9fee2b	0.31236395
238	0xbc20f808	-0.00982476
239	0xbef4e079	-0.4782751
240	0xbe91a3e5	-0.28445354
241	0xbc2ceadf	-0.0105540445
242	0xbe7e0442	-0.24806312
243	0x3d48115e	0.048844688
244	0xbefa1997	-0.48847649
245	0x3ee4057f	0.44535443
246	0xbd376722	-0.04477609
247	0xbe84c1d9	-0.25929144
248	0xbe6afd81	-0.22948267
249	0x3e8972c9	0.26845387
250	0x3d6f37ea	0.058402933
251	0xbdb2e98f	-0.08735954
252	0xbda5bc55	-0.08092562
253	0xbd04dd4d	-0.03243761
254	0x3e2cf75e	0.16891238
255	0xbe201d5e	-0.15636203

Tmodel.fe1.FC4.bias f4 [32]
0	0x3e0f0672	0.13967302
1	0xbdd2372d	-0.1026443
2	0xbc27d253	-0.010243016
3	0xbe14caef	-0.14530538
4	0x3dfcc0a4	0.12341431
5	0x3e1a2a2a	0.15055147
6	0xbcf00c1b	-0.029302647
7	0xbdd18543	-0.10230496
8	0xbecc7278	-0.39931083
9	0x3ece4213	0.40284786
10	0xbe2a0ae9	-0.16605724
11	0xbe538466	-0.20655975
12	0xbd868f69	-0.06570322
13	0x3e037476	0.12837395
14	0x3ebec816	0.37262028
15	0x3d098678	0.033575505
16	0x3c818b8e	0.015813615
17	0xbcd72b6b	-0.02626582
18	0xbe170163	-0.14746623
19	0xbd67da3d	-0.056604613
20	0x3ef88b71	0.48543885
21	0x3da607b3	0.08106937
22	0xbd7082e6	-0.058718584
23	0x3f0a90c2	0.5412713
24	0x3bc8e444	0.006130727
25	0x3e28425e	0.16431567
26	0xbe4e25e9	-0.20131649
27	0xc0135e4f	-2.3026311
28	0x3df37e2c	0.118893
29	0x3da12ba3	0.07869651
30	0xbe05fd20	-0.13084841
31	0xbe88b775	-0.26702467

Tmodel.norm1.weight f4 [32]
0	0x3e3fe8f9	0.18741216
1	0x3edb7e72	0.42869908
2	0x3eee68bc	0.4656428
3	0x3eff5c16	0.49874943
4	0x3ee019b6	0.43769616
5	0x3e99eb8d	0.30062523
6	0x3eb9f989	0.36323193
7	0x3ea00c8f	0.3125958
8	0x3f202b7b	0.62566346
9	0x3eb1ecc1	0.3475094
10	0x3ef35b4b	0.47530589
11	0x3eea581b	0.45770344
12	0x3ee0b681	0.4388924
13	0x3ea2570f	0.31707045
14	0x3ec24185	0.37940612
15	0x3eec8455	0.4619471
16	0x3ec68b38	0.3877809
17	0x3ee54c98	0.44785
18	0x3ee40011	0.445313
19	0x3ebe1f92	0.3713346
20	0x3ebeb032	0.372438
21	0x3ee9058e	0.4551205
22	0x3ef7c31a	0.48391038
23	0x3e3852cf	0.18000339
24	0x3f2feca1	0.6872044
25	0x3e92f4d1	0.28702405
26	0x3f0fbe4b	0.5614974
27	0x3dfd79d6	0.12376754
28	0x3f0c2c60	0.5475521
29	0x3edae12a	0.42749912
30	0x3ee8ad47	0.454447
31	0x3f0d5c52	0.55218995

Tmodel.norm1.bias f4 [32]
0	0xbe073490	-0.13203645
1	0xbd77400e	-0.06036382
2	0x3d529908	0.051415473
3	0xbdb86d61	-0.09005237
4	0xbd4fa282	-0.05069209
5	0xbd2b5181	-0.041825775
6	0xbbf8db29	-0.0075944853
7	0x3d10f008	0.03538516
8	0xbe0538a4	-0.13009888
9	0x3d4735db	0.048635345
10	0xbd8987c6	-0.0671535
11	0xbde87a4d	-0.11351452
12	0xbd46a092	-0.048492976
13	0xbe05a5a8	-0.13051474
14	0xb97994d7	-0.00023801938
15	0xbc76cf70	-0.015064105
16	0xbd171adb	-0.036890846
17	0xbca8b89a	-0.020595837
18	0xbd3fe9fc	-0.046854004
19	0xbd166198	-0.036714166
20	0x3df7ca42	0.120991245
21	0xbcaa7cda	-0.020811487
22	0xbb47656f	-0.003042545
23	0xbe08be97	-0.13353954
24	0xbd68d206	-0.05684092
25	0xbdc07d40	-0.093988895
26	0xbdb3bed6	-0.087766334
27	0x3ec9079e	0.39263624
28	0xbc791feb	-0.015205364
29	0xbd80b9f2	-0.06285466
30	0xbd37a299	-0.0448328
31	0xbdc29774	-0.09501544

Tmodel.out1.weight f4 [32, 32]
0	0x38ecc32c	0.000112897105
1	0xbbd32e77	-0.006444748
2	0xbb3b0bae	-0.0028540897
3	0xbbaf6dab	-0.0053536496
4	0xbb6b0b7a	-0.0035864995
5	0xbb8c47c8	-0.004281018
6	0x3c609122	0.013706477
7	0x3c2fd491	0.010731832
8	0xbc42fbea	-0.011900881
9	0xbca06201	-0.019577982
10	0x3b88a34d	0.0041698576
11	0x3cb9a43d	0.022661323
12	0x3bafa272	0.005359941
13	0x3bd95b70	0.0066332147
14	0xbc419f82	-0.011817815
15	0xba94344c	-0.001130709
16	0x3be65482	0.007029117
17	0xbbdf1d04	-0.006808879
18	0xbcca3a76	-0.02468608
19	0x3cbc88fc	0.023014538
20	0x39dfa345	0.0004265552
21	0x3a529c42	0.00080341485
22	0xbc62616a	-0.013817171
23	0xbb3dd339	-0.002896501
24	0xbd89405d	-0.067017294
25	0xbc086b44	-0.008326355
26	0xbcba71b9	-0.022759305
27	0x3c352ac9	0.011057564
28	0x3b2ca4b4	0.0026343288
29	0x3d040ee3	0.03224076
30	0xbbfac1b2	-0.007652485
31	0xb9e50b05	-0.00043686494
32	0x3d163554	0.03667195
33	0x3d251321	0.040301446
34	0x3e84385b	0.25824246
35	0xbd2a69a0	-0.041604638
36	0x3b9cc0f0	0.004783742
37	0x3d5f1ba1	0.05446971
38	0xbe1a5e7c	-0.15075105
39	0x3dd4827c	0.103764504
40	0x3f0a11fa	0.5393368
41	0xbe6ea5ef	-0.23305486
42	0x3e2e4420	0.17018175
43	0xbe696b5d	-0.22794862
44	0xbe185a0d	-0.14878102
45	0x3dbcc19c	0.092166156
46	0xbd14e33d	-0.036349524
47	0x3e0e7be5	0.1391445
48	0xbcdd2baa	-0.02699836
49	0x3de1cf6e	0.11025892
50	0x3eb6912a	0.35657626
51	0x3e441840	0.19149876
52	0xbe27ac27	-0.16374265
53	0x3e2c5a81	0.168314
54	0xbe5e916c	-0.21735162
55	0xbc6aa845	-0.014322345
56	0xbea9719f	-0.330945
57	0x3ddf098e	0.10890494
58	0xbda5ba26	-0.080921456
59	0x3f1cceb7	0.6125292
60	0x3d917188	0.071017325
61	0x3dcd3871	0.10020531
62	0x3c646327	0.013939655
63	0x3e9f66a6	0.31133002
64	0xbdc2b4c8	-0.095071375
65	0xbcccbe6e	-0.024993148
66	0xbe6f478e	-0.2336714
67	0xbee00c35	-0.43759313
68	0x3e2ab1af	0.16669343
69	0xbdc8227d	-0.09772203
70	0x3d95982c	0.07304415
71	0x3d3f3445	0.046680707
72	0xbe1f5077	-0.15558039
73	0x3e0d86bf	0.13820933
74	0x3c1f895d	0.00973734
75	0xbeabd252	-0.335589
76	0xbc797f6d	-0.015228135
77	0x3d8980e9	0.06714041
78	0x3e0210ca	0.12701717
79	0xbdb5e147	-0.08880859
80	0xbcb2b03c	-0.02181255
81	0xbe1e79d5	-0.15476163
82	0xbdcf9ea1	-0.10137678
83	0x3ca419e3	0.020031875
84	0x3ea2a45f	0.3176603
85	0x3d3a0d6f	0.045422968
86	0x3e3a37f3	0.18185405
87	0x3dc88abf	0.09792089
88	0xbf47e75a	-0.7808739
89	0x3e2e23a2	0.1700578
90	0xbf69a873	-0.9127266
91	0x3e215e3b	0.15758602
92	0xbdcadcb0	-0.09905374
93	0x3d4826db	0.04886518
94	0x3e382202	0.17981723
95	0x3cd8e869	0.02647801
96	0x3e891752	0.26775604
97	0xbdf025d4	-0.11725965
98	0xbcedb47e	-0.02901673
99	0xbe568b72	-0.20951632
100	0x3e7bce36	0.24590382
101	0x3c8e3cba	0.017362941
102	0xbef9fd59	-0.488261
103	0x3d1509a1	0.036386136
104	0x3ec43434	0.38321078
105	0x3d4552e4	0.048174754
106	0x3e0059f4	0.12534314
107	0xbeb7a235	-0.35865942
108	0xbeb405a1	-0.35160545
109	0xbef86880	-0.48517227
110	0xbcb505ab	-0.02209743
111	0x3e294b03	0.16532521
112	0x3abcb9d4	0.0014398643
113	0x3da152fb	0.078771554
114	0x3e4289e9	0.18997921
115	0xbe547511	-0.20747782
116	0x3ddf9545	0.10917143
117	0x3b5241a2	0.0032082577
118	0xbeac2023	-0.33618268
119	0x3d3ef6da	0.046622135
120	0x3e96106a	0.29309398
121	0xbe6f53a3	-0.23371749
122	0xbeaf2802	-0.3421021
123	0xbd7613fe	-0.06007766
124	0xbdcbeae6	-0.09956913
125	0xbd8179d4	-0.06322065
126	0x3e83e67a	0.25761777
127	0x3e02da8d	0.12778683
128	0xbeb6bb9c	-0.3569001
129	0x3badae40	0.0053003132
130	0x3e05130b	0.12995546
131	0xbe325cdd	-0.17418237
132	0x3e03beda	0.12865773
133	0xbe3c3c68	-0.18382418
134	0xbc2c2256	-0.010506233
135	0xbd8f2d30	-0.06991041
136	0x3e62f59b	0.22164004
137	0xbe12f1d9	-0.1435007
138	0x3e4e2d2f	0.20134424
139	0xba8e32e1	-0.0010848903
140	0x3dc6820d	0.09692774
141	0xbefd3ef1	-0.49462083
142	0xbdbf0ef4	-0.09329024
143	0x3d7f59db	0.062341552
144	0x3bf20ebf	0.007387012
145	0xbc78cf71	-0.015186177
146	0x3e679671	0.22615983
147	0x3e131726	0.14364299
148	0xbeaf80e6	-0.3427803
149	0x3e42e4a1	0.19032528
150	0xbe71cc8e	-0.23613188
151	0xbeb6f1cb	-0.35731348
152	0x3e8ea359	0.27859
153	0xbf454eab	-0.7707316
154	0x3e0128e1	0.1261325
155	0x3f93f413	1.155886
156	0x3ddc1da2	0.107478395
157	0xbe65eb7b	-0.2245311
158	0x3e26d2e3	0.16291384
159	0x3e5272d5	0.20551617
160	0xbc3f1723	-0.011663231
161	0x39986448	0.00029066415
162	0x3b75ff01	0.0037536027
163	0xbc964f89	-0.018348472
164	0xbc66a40e	-0.0140772
165	0xbc0237c1	-0.007947863
166	0xbca2d34b	-0.019876143
167	0xbb5294e5	-0.0032132205
168	0xbcd4ff0a	-0.026000518
169	0xbb438e8b	-0.00298396
170	0xbab39360	-0.0013700537
171	0x3c951a49	0.01820101
172	0x39f487f6	0.00046640605
173	0x3b195bc5	0.0023400646
174	0xbce04c3a	-0.027380098
175	0x3bb5f89e	0.005553319
176	0xbad8c69d	-0.0016538684
177	0xbc3c744d	-0.011502338
178	0xbb60b5d5	-0.0034288068
179	0x3c1327b4	0.008981634
180	0xbc325979	-0.01088559
181	0x3c37b2fb	0.011212106
182	0x3c71f5de	0.014768092
183	0x3c9b13f9	0.018930422
184	0x3cc5847b	0.024111023
185	0x3a3e4191	0.0007257695
186	0xbbd48e35	-0.006486679
187	0xbccb40d1	-0.02481118
188	0x3c8e5a5d	0.017377073
189	0x3cae31d7	0.021264
190	0x3c96da8c	0.018414758
191	0xbcd55ee4	-0.026046224
192	0xbd731477	-0.05934569
193	0x3ed55dd8	0.4167316
194	0xbc3c93b7	-0.011509827
195	0xbe9d60bc	-0.30737865
196	0xbd2b9175	-0.041886766
197	0xbc73ae4e	-0.0148731
198	0x3e4e193c	0.20126814
199	0xbe0dd023	-0.13848929
200	0xbeb42c8c	-0.35190237
201	0x3e4b4675	0.19851096
202	0xbf7393bf	-0.9514732
203	0xbe288aa1	-0.16459133
204	0x3e38332a	0.17988268
205	0x3e27c7a6	0.16384754
206	0x3df209b0	0.11818254
207	0xbd83a0b3	-0.06427135
208	0xbe067394	-0.13130027
209	0xbe4c389c	-0.1994347
210	0x3f04a8b8	0.51819944
211	0x3da29133	0.07937851
212	0x3da682a1	0.08130384
213	0x3bcf8020	0.0063324124
214	0xbd98ae77	-0.074551515
215	0xbe56a5b0	-0.20961642
216	0xbf29fff9	-0.6640621
217	0xbd8433e8	-0.06455213
218	0xbed96c41	-0.42465404
219	0x3e089409	0.13337721
220	0x3c17aa65	0.009256934
221	0x3dd0d69f	0.10197186
222	0x3d300d19	0.04298124
223	0xbfc96925	-1.5735213
224	0x3e3d831a	0.18507043
225	0xbdc784db	-0.09742137
226	0xbed1b079	-0.4095495
227	0xbe8baf83	-0.27282342
228	0x3daa1295	0.083043255
229	0xbd2688f8	-0.040657967
230	0x3e305559	0.17220058
231	0x3b10fcab	0.0022123258
232	0x3e88fdfb	0.26756272
233	0x3e1c47a3	0.15261702
234	0xbdc11369	-0.0942753
235	0xbd4fde1d	-0.050748933
236	0x3d1874ec	0.03722088
237	0x3c4f72f2	0.012661682
238	0x3d31e783	0.043433677
239	0xbdf87c44	-0.12133077
240	0x3cfe7f1b	0.031066468
241	0xbdce9498	-0.10086936
242	0x3d2d9194	0.042375162
243	0xbe2ca330	-0.16859126
244	0x3e6f5b9c	0.2337479
245	0x3de2329e	0.11044811
246	0x3e9041bd	0.28175154
247	0x3ddf51ee	0.10904299
248	0xbed7385c	-0.42035186
249	0x3d3fee55	0.04685815
250	0xbd3d3d6c	-0.046201155
251	0x3f0b289b	0.54358834
252	0xbb3cef57	-0.002882918
253	0x3d1b5d43	0.03793074
254	0x3ce91340	0.028451562
255	0x3e1771a3	0.14789443

Tmodel.out1.bias f4 [32]
0	0xbd095dd9	-0.033536766
1	0xbc9c4014	-0.019073524
2	0xbd37cb7e	-0.0448718
3	0xbbbd4d8d	-0.005777067
4	0xbe351ac0	-0.17685986
5	0x3ec69ed6	0.38793057
6	0x3cdea12d	0.027176464
7	0xbd8a0cac	-0.06740698
8	0x3f6964f2	0.91169655
9	0xbd6b1b68	-0.057399184
10	0xbc0d61dc	-0.0086292885
11	0xbd16f878	-0.036858052
12	0xbb1be454	-0.0023787217
13	0xbe4c2b7e	-0.19938466
14	0xbd2608b4	-0.040535644
15	0xbd72ca48	-0.05927494
16	0xbd8060de	-0.06268476
17	0x3bfbbc1d	0.007682337
18	0xbe1242b9	-0.14283265
19	0x3d0fcca1	0.03510726
20	0xbd2ea8f0	-0.04264158
21	0xbcf0e11a	-0.029404212
22	0xbd62a417	-0.05533227
23	0xbdf74ced	-0.12075219
24	0xbc1bb676	-0.009503951
25	0xbaea13e2	-0.0017858709
26	0xbdac1d3a	-0.08404012
27	0x3d49132d	0.049090553
28	0xbe3d69e2	-0.18497422
29	0x3d0d72a3	0.034533154
30	0xbd85d23e	-0.06534241
31	0x3efaf0a7	0.49011728

Tmodel.out2.weight f4 [1, 32]
0	0x3a2643b1	0.0006342484
1	0xbd61f698	-0.05516681
2	0x3da5d5a2	0.08097388
3	0x3d6e843f	0.05823159
4	0xbdc9de84	-0.098568946
5	0xb8a89353	-8.0383055e-05
6	0x3dc8da4d	0.098072626
7	0x3d51831c	0.051150426
8	0x3ea1a52c	0.3157133
9	0xbd0326ce	-0.03201943
10	0xbe9f9d71	-0.31174806
11	0xbdf38aff	-0.11891746
12	0x3dfce0c3	0.123475574
13	0xbd406f60	-0.046981215
14	0x3da673c0	0.08127546
15	0x395be432	0.00020970477
16	0xbe407925	-0.18796213
17	0xbda4fe84	-0.080563575
18	0xbc68888d	-0.0141927125
19	0x3ed5877c	0.4170493
20	0x3e2887cd	0.16458054
21	0xbee8804a	-0.45410377
22	0x3d9f11ec	0.0776709
23	0x3e3498dd	0.17636438
24	0x3da751d6	0.08169906
25	0xbd6a23d3	-0.05716307
26	0xbd981c86	-0.074273154
27	0xbe3ea5a0	-0.18617868
28	0xbcd3c35e	-0.025849994
29	0x3ed738b3	0.42035446
30	0x3d28fde8	0.04125777
31	0x38c8bd8a	9.5720476e-05

Rmodel1.fe1.FC1.weight f4 [64, 9]
0	0x3e919d69	0.28440407
1	0x3cd8acbe	0.026449557
2	0x3e758738	0.23977363
3	0xbe5cce66	-0.2156311
4	0x3e011116	0.12604174
5	0xbdb9ec0d	-0.09078226
6	0xbd4326cd	-0.047644425
7	0xbd302838	-0.043007106
8	0xb9100d40	-0.00013737846
9	0x3d0fb5df	0.035085555
10	0x3c76dde0	0.015067548
11	0x3d841002	0.06448366
12	0xbc81e18f	-0.015854625
13	0xbdde7263	-0.10861661
14	0x3db8e7e5	0.09028605
15	0x3db5ecb7	0.088830404
16	0x3de66707	0.1125012
17	0x3d35f732	0.044425197
18	0x3e15a3be	0.14613244
19	0xbc97e32e	-0.018540945
20	0xbe9575ae	-0.29191345
21	0x3e9dd99e	0.3083009
22	0xbe8c03fd	-0.27346793
23	0x3e553fd1	0.20825125
24	0x3df2f7fa	0.11863704
25	0x3dc3b6d2	0.095563546
26	0x3d227243	0.03965975
27	0x3cbe6136	0.023239713
28	0x3d7dd075	0.06196638
29	0xbbb28014	-0.005447397
30	0x3cbcdeb7	0.023055417
31	0xbc3b7dda	-0.01144358
32	0x3d25380c	0.040336654
33	0xbca7b579	-0.020472275
34	0x3e174d4f	0.14775585
35	0x3df2c032	0.118530646
36	0xb81c7d9a	-3.7310274e-05
37	0x3a3490db	0.000688804
38	0x3d771c05	0.060329456
39	0x3e07581d	0.13217206
40	0xbd602ad7	-0.054728355
41	0xbcb8b196	-0.022545617
42	0xbc5f1291	-0.013615266
43	0x3c3c68a1	0.011499555
44	0xba905588	-0.0011011818
45	0xbc24534f	-0.010029628
46	0x39f8e3fd	0.0004747211
47	0xbc8f9f3d	-0.017531985
48	0xbafd1327	-0.0019308076
49	0xbc58f89b	-0.013242866
50	0xbccfc785	-0.025363693
51	0xbacd3230	-0.0015655216
52	0x3ca51f8c	0.020156644
53	0x3e098322	0.1342893
54	0x3d8bd00d	0.06826792
55	0xbc9ef1b7	-0.019402368
56	0xbe6f3555	-0.23360188
57	0x3e5ee551	0.21767165
58	0xbe05f68e	-0.13082334
59	0x3dcb8bb4	0.09938756
60	0x3d6992b6	0.05702468
61	0x3d463b7c	0.048396572
62	0x3c638787	0.013887293
63	0xbb9d4eef	-0.0048006694
64	0xbc0f1fd4	-0.008735616
65	0xbdae07ec	-0.08497605
66	0x3dfbf6e7	0.12302952
67	0xbe378d59	-0.17925014
68	0x3e05cfb5	0.13067515
69	0x3dbeb744	0.09312299
70	0x3dc506d4	0.09620443
71	0x3d0546f4	0.03253837
72	0x3f217860	0.630743
73	0x3d186317	0.037203874
74	0x3e9f6201	0.3112946
75	0xbe81a85e	-0.25323766
76	0x3df3ce09	0.119045325
77	0xbd9d7d48	-0.07689911
78	0xbd14b8c7	-0.03630903
79	0xbcc2fb61	-0.023801507
80	0x3b49a640	0.0030769259
81	0xbe96c8a8	-0.29449964
82	0x3bd89af4	0.0066102687
83	0x3d7a6f10	0.061141074
84	0xbcae5ebe	-0.021285411
85	0xbdd05763	-0.10172918
86	0x3da5f862	0.08104016
87	0x3d807016	0.06271379
88	0x3d7c6afa	0.06162546
89	0x3c97e5c9	0.018542187
90	0x3b8d7de0	0.004317984
91	0xb98cbf75	-0.00026845527
92	0x3d562426	0.052280568
93	0xbd062358	-0.03274855
94	0xbe84980f	-0.25897262
95	0x3e320d2c	0.17387837
96	0x3d6f75e5	0.058462042
97	0x3ac07437	0.0014683072
98	0xbaf43bee	-0.0018633583
99	0xbe82083c	-0.25396907
100	0x3bd38390	0.0064548925
101	0xba5f7829	-0.000852468
102	0x3c1d073f	0.009584247
103	0x3d9f2148	0.0777002
104	0xbc6b2f0a	-0.014354477
105	0x3cc4491a	0.023960639
106	0x3d863191	0.06552423
107	0x3cabc530	0.02096805
108	0x3eb06b5c	0.3445691
109	0x3ad07ddd	0.0015906651
110	0x3c4e2593	0.012582201
111	0xbcf2c2b7	-0.029633863
112	0x3de3db67	0.11125832
113	0xbdb6a81b	-0.08918782
114	0xbd78eac1	-0.060770754
115	0xbd6796ca	-0.056540288
116	0xbcbce654	-0.023059048
117	0x3ed8ce07	0.42344686
118	0x3cb2d567	0.021830274
119	0x3e489126	0.1958662
120	0xbe21a9d2	-0.15787438
121	0x3db183df	0.086677305
122	0xbd8b7126	-0.06808691
123	0xbd71709e	-0.05894529
124	0xbd921c46	-0.07134299
125	0xbd0d9756	-0.034568153
126	0x3ed3fd7f	0.4140434
127	0x3b7c0336	0.0038454062
128	0xbc9c220f	-0.01905921
129	0x3ccd3e71	0.025054188
130	0xbc835b16	-0.016034644
131	0x3c225444	0.009907786
132	0x3bfe6716	0.0077637536
133	0x3cab814c	0.020935677
134	0x3c384b10	0.011248365
135	0xbebe2ee8	-0.37145162
136	0x3ce8b10c	0.028404735
137	0x3eba4dec	0.36387575
138	0xbeb1e0c2	-0.3474179
139	0x3e594389	0.21217169
140	0xbe237383	-0.15962033
141	0xbdc565c5	-0.096385516
142	0xbda95ae4	-0.08269289
143	0xbcd1cf9b	-0.02561169
144	0xbd021dcd	-0.0317667
145	0x3a684647	0.000886057
146	0xbca14f0a	-0.01969101
147	0x3baa72b5	0.0052016624
148	0x3d37f7fe	0.04491424
149	0x3e2608d5	0.16214307
150	0x3d2217f8	0.03957364
151	0x3d2e6d2b	0.04258458
152	0x3a5b7e73	0.00083730294
153	0x3ca4efe9	0.02013393
154	0x3be37938	0.0069419406
155	0xbe2354b6	-0.15950283
156	0x3c6ab4aa	0.0143253
157	0x3c33fe9b	0.010985996
158	0xbc75868e	-0.014985694
159	0xbc207439	-0.009793335
160	0xbc982dd6	-0.018576544
161	0xbc0d9a55	-0.008642753
162	0x3ee6e989	0.45100048
163	0x3d055639	0.03255293
164	0x3e9ce198	0.30640864
165	0xbe8806ff	-0.26567838
166	0x3e277c5f	0.16356038
167	0xbdf9f582	-0.1220503
168	0xbd871429	-0.06595642
169	0xbd58862c	-0.05286233
170	0xbc9d7218	-0.019219443
171	0xbd86d173	-0.06582918
172	0xbafeb325	-0.0019432051
173	0xbcf0aa97	-0.029378219
174	0x3d0e1fd3	0.03469832
175	0xbc8d4b8c	-0.017247938
176	0x3c2948c8	0.010332294
177	0x3b841888	0.0040312447
178	0x3c7a2de9	0.015269735
179	0xbdaf49c6	-0.08558993
180	0x3e4e232a	0.20130602
181	0xbc5bf116	-0.013424179
182	0xbe4fd43d	-0.20295806
183	0x3e445397	0.19172512
184	0xbddb37e0	-0.10704017
185	0x3da2ca65	0.0794876
186	0x3d7dc09b	0.06195126
187	0x3d7d49dd	0.06183802
188	0x3c9ff1a9	0.019524412
189	0x3eb01687	0.34392187
190	0x3ca52605	0.02015973
191	0x3e3140ab	0.17309825
192	0xbe12af0a	-0.14324585
193	0x3d91b2c5	0.07114176
194	0xbd3421e7	-0.043977644
195	0xbccf258d	-0.02528646
196	0xbcc43d38	-0.023954973
197	0x3d28e24f	0.04123145
198	0xbdd8fbd6	-0.10594909
199	0xbb2637c1	-0.0025362822
200	0xbd09710e	-0.033555083
201	0x3d1e8f07	0.03871062
202	0xbcc0f977	-0.023556454
203	0x3cf78660	0.030215442
204	0x3d48cd33	0.04902382
205	0x3d445844	0.04793574
206	0x3d4736b9	0.048636172
207	0x3e5af3a8	0.2138201
208	0x3c48771a	0.012235427
209	0x3e078a47	0.13236342
210	0xbe178e46	-0.14800367
211	0x3e56fc95	0.2099479
212	0xbe21ef87	-0.15814029
213	0xbda2454e	-0.07923375
214	0xbd6092e5	-0.05482759
215	0xbca5b7f2	-0.020229314
216	0xbd861d21	-0.06548525
217	0xbd04c56e	-0.032414846
218	0xbec3c703	-0.3823777
219	0x3eb9fa34	0.36323702
220	0xbe80de4e	-0.25169605
221	0x3e41ad50	0.1891377
222	0x3dd90c3b	0.10598036
223	0x3db54d66	0.08852653
224	0x3cd2213f	0.025650619
225	0xbd6d5066	-0.057938002
226	0xbc4dde9e	-0.012565283
227	0xbcbc3228	-0.022973135
228	0xbdd02448	-0.1016317
229	0x3ce29cc6	0.027662646
230	0x3d790f2b	0.06080548
231	0x3d8d4b1c	0.068990916
232	0x3d16ed93	0.036847662
233	0x3b679603	0.0035337217
234	0xbd0b2720	-0.03397286
235	0x3c823480	0.015894175
236	0xbce55d96	-0.027998727
237	0x3c47ca22	0.012194188
238	0xbca2fdb6	-0.01989637
239	0x3d4fb141	0.050706152
240	0xbe492b9b	-0.1964554
241	0x3ad12366	0.0015955984
242	0x3d1f3014	0.03886421
243	0xbe2643ad	-0.16236754
244	0xbb5420fb	-0.003236829
245	0xbd1fc29f	-0.039003965
246	0x3d874095	0.06604115
247	0xbe33b97f	-0.1755123
248	0x3e005866	0.12533721
249	0x3d932f58	0.071867645
250	0x3d74c82d	0.059761215
251	0x3c932228	0.017960623
252	0x3e286bae	0.16447327
253	0x3c8885c8	0.016665354
254	0x3e473ae7	0.19456063
255	0xbe54076a	-0.20705953
