Lightcode/bc/rate38/light_bc_rate38_snr2.pt (torch, 174576 bytes, 38 tensors)

enc.fe.u1_FC1.weight f4 [64, 21]
00000000: d77a 293c 6192 7e3e 78bf cdbd 47e7 163d
00000010: 1ac5 643e 5c87 1abe 75b4 313f 6e13 babc
00000020: 8111 0a3c 4263 e43c 9ce7 023d eb4e 723c
00000030: 3f76 fc3d bc21 cfbc 1c6e ff3a 47a7 02be
00000040: 6e05 d13d 9687 0dbe ab13 a4bd e242 353d
00000050: 7820 493e 5c2c 2ebe 1d76 b03e b299 5e3e
00000060: 187c 003e 5ed7 063e 821a f2bc 1b8a ed3e
00000070: a8ff a53d 15f5 293c fa0c 2fbd 6ee2 98bd
00000080: 03f1 24be a746 393d 552b 81be b1a4 913c
00000090: dfc1 49be dabb 8a3d a954 dbbd 2f59 b33d
000000a0: 9450 f93d e711 3abe f26e 313b 0ad8 09bb
000000b0: 55c1 d5be 6f78 b2bd 1611 023e 0147 6d3f
000000c0: 67aa 87bd 71fb cbba d45f 36b6 dede 2d3e
000000d0: 4e05 293e b5fc 7d3d f179 263f 9583 09be
000000e0: ce52 3b38 6500 9b3a d855 e43d f188 a6bd
000000f0: 526a 303c c1d6 50bf f315 03bf 0669 2bbe
00000100: 275b 0b3d 8a5e 31bb 8049 0f3d 8c32 663f
00000110: 2d8f b3be 96c3 34bd cbc8 d93d a034 af3a
00000120: 19cc 813d 022a 0f3d 6e0e cc3e 52b4 833e
00000130: 2433 95be aedd 563a b835 aabc 3a32 303c
00000140: 949d a7bc 85f2 893f 5baa 283e 2922 723d
00000150: f8fb 703e c785 d1be 1808 d5bd 9e3f 1c3d
00000160: 9999 b3bc 922e f9bc 00e3 ebbe ddcd 20be
00000170: e3d1 edbb 3290 66bd 033b 93bd 97c5 263d
00000180: 0c5d 38bd 2811 96be 91b3 a73b c783 863e
00000190: e08c acbd 97c3 dc3d 2b4f 16be ba25 0f3e
000001a0: 1ca0 dbbd 6d9e 73be dcf1 d63d 8b04 a73c
000001b0: 6a5e 0a3d 4d4c 9fbd 2b00 883e 4659 533f
000001c0: 8748 143e 089f 5cbb 597d 8a3d 2227 7d3d
000001d0: 8edf 833d e574 d3bd 7f99 01be f727 3fbb
000001e0: a2b4 54bd 132d fe3c fb61 2fbd c677 5d3d
000001f0: 4722 bc3c f406 0cbe 16e4 c4be 7233 ef3b
00000200: 6853 98be 84c9 2cbe 1454 58be be9c 74be
00000210: 9875 e2be b917 833e 0e90 3fba 4cbb 873e
00000220: ca68 913e 3ec6 883e e395 03be 3303 283c
00000230: c678 053a 5b69 61bc f2cc a93d b405 0cbd
00000240: f70e b83d 7096 313e 284f c43e 5e77 15be
00000250: 4aaa 7f3d 4765 b23c fa0e 873c 0c9a 273d
00000260: ece4 8f3f 755a b2bd ef27 ac3d db29 b3ba
00000270: 016b 293d 07ca e63c 4da4 453b 69b6 1cbf
00000280: 145b de3d 864e cc3a b7d6 0fbd ca8f 103c
00000290: b9a2 86bc 92b1 39b9 4c02 af3f 8bf0 553c
000002a0: 2ab2 3439 e193 4c3a 090c 3b3b 7b44 47b9
000002b0: 4683 253f f256 b23e 52d0 513d 35b6 b33a
000002c0: 4ead b6b8 0dcc 16b8 ec34 a0ba 4d3a 1d3e
000002d0: 9d32 a2bd 8c62 1d3e d6d7 f4b8 3d85 a7ba
000002e0: a3ca 203a 9a78 61ba 55f0 53bf f8ba 033e
000002f0: a8af 8c3e e7d4 353d 6dbc 83be e534 ca3d
00000300: f8bd 803d 01d0 8f3d aa27 cdbd f51b 08bf
00000310: 7bb0 69bd 35bb 2a3d b798 28be 527a 9fbd
00000320: a228 96bc 313c 953d 152b a3be 3870 8f3c
00000330: f8eb 313e ba1b 273d 4546 613a 0422 a73c
00000340: bcdc 4d3d 0b67 e83d 3856 d1be 11fb 963b
00000350: 0a6f da3d e081 9b3d 4689 e93c 765b 17be
00000360: c27d f73d 7fad ccbd edb3 ec3a 0d72 63bd
00000370: 62d5 4fbd c7cf 09bd 0878 3b3e 9fb0 67bd
00000380: c4b9 b9b9 e88f f1ba aa70 debc ee80 7f3a
00000390: c76e 1bbc acc4 0bbc 970a b7bd f7c9 59bc
000003a0: d64a c23b 0d03 063c 6d17 e03a 5557 15ba
000003b0: 501e 09bf 49bf 4bbd 3206 063c 93ad 3aba
000003c0: dd70 823a 2530 163a a080 473a 8837 81bf
000003d0: f5cb 873d f674 8736 699b 99ba 90bc ddba
000003e0: b0a4 ac39 b5d8 2439 aab7 82bf 31e1 3bbd
000003f0: 9d0d 06be 4c39 513e bc60 103e 9c20 3b3d
0.010344229 0.24860527 -0.100462854 0.036841657 0.22340813 -0.15090698 0.6941598 -0.022714343
0.008427025 0.027879361 0.03195916 0.014789323 0.12327241 -0.02528464 0.0019487771 -0.12759124
0.10206114 -0.13821253 -0.08011564 0.044253238 0.19641292 -0.1700911 0.34465113 0.21738318
0.12547338 0.13168094 -0.029553656 0.4639443 0.08105403 0.0103733735 -0.042736985 -0.07465063
-0.16107564 0.045233395 -0.25228372 0.017778726 -0.19702862 0.06774111 -0.10709507 0.08757245
0.12173572 -0.18170892 0.0027074185 -0.002103331 -0.41749063 -0.08714377 0.1270183 0.9268647
-0.066242985 -0.0015562606 -2.7175893e-06 0.16979548 0.1650593 0.06200858 0.6502982 -0.13429101
4.4661392e-05 0.0011825679 0.11149186 -0.08131588 0.010767536 -0.8157769 -0.51205367 -0.16739282
0.034022477 -0.0027064406 0.034982204 0.8992088 -0.35070172 -0.044131838 0.10634001 0.0013367124
0.06337757 0.03495217 0.3985476 0.2572351 -0.2914058 0.0008196485 -0.020777568 0.010754162
-0.020460881 1.0777136 0.16471235 0.05911461 0.23533618 -0.40922377 -0.104019344 0.038146608
-0.021923827 -0.030417714 -0.46071625 -0.1570353 -0.0072576865 -0.05628986 -0.0718899 0.04071578
-0.04501061 -0.29309964 0.0051178415 0.26272413 -0.08425307 0.10779493 -0.14678638 0.13979235
-0.10723898 -0.23790903 0.1049535 0.020387908 0.033781447 -0.07778225 0.26562628 0.82558095
0.14480792 -0.0033664126 0.067621894 0.061804898 0.06439124 -0.1032503 -0.1265621 -0.0029168108
-0.051930077 0.031027352 -0.04281805 0.054069303 0.022965563 -0.13674527 -0.38455266 0.007299834
-0.29751134 -0.16873747 -0.21125823 -0.23887917 -0.44230342 0.25604036 -0.00073075376 0.26510084
0.2840026 0.26713747 -0.12850146 0.010254669 0.0005091544 -0.013758029 0.08291043 -0.034185126
0.08987229 0.17342544 0.3834164 -0.14596316 0.06241826 0.021776808 0.016486634 0.040918395
1.1241736 -0.087086596 0.08406054 -0.001366909 0.041361813 0.028172506 0.0030157745 -0.61215836
0.108572155 0.0015587367 -0.035116877 0.0088233445 -0.016435014 -0.00017709125 1.3672576 0.013057838
0.00017232509 0.0007804018 0.002854111 -0.0001900363 0.6465343 0.3483196 0.05122406 0.0013710918
-8.710717e-05 -3.5952824e-05 -0.0012222803 0.15354271 -0.0791981 0.15369624 -0.00011675029 -0.0012780797
0.0006133711 -0.000860104 -0.8278859 0.12864292 0.27477765 0.044392493 -0.25729695 0.0987337
0.06286234 0.070220955 -0.10017331 -0.5316766 -0.05705307 0.04168244 -0.16464506 -0.077870026
-0.018329922 0.07286871 -0.31868806 0.017509565 0.17375171 0.040797926 0.000859354 0.020401962
0.050259337 0.11347779 -0.40886092 0.004607566 0.1066571 0.07593131 0.02850784 -0.14780983
0.12084533 -0.09994029 0.0018058993 -0.05552869 -0.050740607 -0.033645418 0.18307507 -0.056564923
-0.00035424356 -0.0018429728 -0.027153332 0.000974669 -0.009486861 -0.008530777 -0.08937567 -0.013292781
0.0059293313 0.008179438 0.0017096825 -0.00056969124 -0.5356188 -0.04974297 0.008180188 -0.00071212015
0.0009951849 0.000572922 0.0007610414 -1.0095072 0.066306986 4.0369296e-06 -0.001171929 -0.0016917158
0.00032929098 0.00015720988 -1.02123 -0.045869056 -0.1309113 0.20432013 0.14099401 0.045685396

enc.fe.u1_FC1.bias f4 [64]
00000000: 045c 1dbf cd5c 50bd 0d4e fbb8 f7b7 f2bc
00000010: ffde 3839 385f 9bbe 5a90 cdbc c0f6 1dbd
00000020: ed29 d4bb 7dc5 1e3e 93c1 cbbe b092 e6bb
00000030: 75c5 abbc 75f9 513e 4b1b 8f3d cd66 0d3b
00000040: dd47 0dbc 83d2 57be 21a3 03bf 9a4c 2a3e
00000050: 2424 e53d dfb5 80b8 d005 00bf 1d4b b4bb
00000060: a78c 66bf befe f53e 5575 d73e 3738 f83d
00000070: 109f aa3d a103 dcbc 7b41 18bf f6ef efbd
00000080: 9f59 6f3b da47 0a3b 8e38 603e 0b4c 833e
00000090: 17a1 363a 3fd6 6bbb 74d5 173e 697b 31bf
000000a0: 8cd4 40ba 5383 6f3d e989 03bf 40e8 e2bd
000000b0: 6f97 2b3e 7d99 f13d dbab 96bd 18f0 b6bd
000000c0: 244c 09bc 6eb5 21be d15c 11bd b4e2 f0bd
000000d0: 52de 15bd b590 5a3e 1346 5ebf 4966 25bd
000000e0: 62e2 b03d f02d 2f3f f522 d6bd fb5a 09be
000000f0: 444d 43bf ee8b 963a 1146 253e 90d1 0e3f
-0.6146853 -0.05086975 -0.00011983151 -0.029628737 0.0001763068 -0.30346084 -0.025093246 -0.038565397
-0.0064747245 0.15505023 -0.39796123 -0.0070365295 -0.020968178 0.20505317 0.069876276 0.0021576167
-0.008623091 -0.21076398 -0.5142079 0.16630784 0.11188534 -6.137392e-05 -0.5000887 -0.0055021183
-0.9005837 0.48045915 0.42081705 0.12120097 0.0833112 -0.0268572 -0.59474915 -0.11715691
0.0036521924 0.0021099956 0.21896574 0.25643954 0.0006966753 -0.0035985855 0.1482752 -0.69328934
-0.00073558907 0.05847485 -0.5138231 -0.110794544 0.16756986 0.11796854 -0.073569976 -0.08932513
-0.00837997 -0.15791866 -0.035488907 -0.1176199 -0.036588974 0.21344264 -0.86825675 -0.04038075
0.08636929 0.6842947 -0.10455886 -0.13413613 -0.76289773 0.0011485794 0.1614001 0.55788517

enc.fe.u1_FC2.weight f4 [64, 64]
00000000: cff4 1dbe 138a f4bd f3d1 2b3d 788e 5b3d
00000010: f7e4 9f3d 92d8 91bd 1e0a 8fbe 9b3a 383d
00000020: 6ad1 28bd 41ca cfbd 72f5 86bd 80fc 63bb
00000030: 6ecc ba3d 4560 4bbe d36b d9bc 72fd a93c
00000040: de85 1c3d 98da 683d 9084 14bc 5a98 0f3d
00000050: c08f e0bd df33 4cbd f74e ca3d 87fb dc3d
00000060: dfde 033e 0508 2f3e 6e0c bb3d e20b c83c
00000070: b9b8 3f3e dc56 fcbd 67e9 9cbe ae0b 8f3b
00000080: f13d 783d ae45 383d 0206 8c3d 90a2 cf3d
00000090: e5dc 623b d4ea 1e3d 1d36 8dbd 8eb6 a9bd
000000a0: baf3 9abd af2b 87bb cd0b 163e 87bf c03c
000000b0: acc5 1d3d 153a 24be bb8e 3b3d 7b3b ba3c
000000c0: cbc7 013d fb98 3cbe 3cca 31bd 7fd9 a5be
000000d0: 5a1e 523d 7581 533d ae2f 933d db65 85bc
000000e0: 2c9f 95bd 60e2 a6bd 4479 d83b 04cc 343d
000000f0: 3a1e 3a3f 99bd 303d aa1e aabd 4e17 7fbd
00000100: 5c27 5dbe f98d 28bd 5bdf d0bd c914 07be
00000110: 8984 7cbe 1a2e ed3d ec97 bf3d 845c 9d3d
00000120: 1086 3e3d 22dd f33b 4463 8abd 475a cdbd
00000130: d1ff 0ebe 28f9 cfbd eb6e 9abd d9f0 c7bd
00000140: b4ce 13bc 7c9e 90bc 2699 1cbe 7dc7 9e3d
00000150: 2c52 55be 1f5a fabd 22e4 acbd e1f4 b1bd
00000160: 306c d93c 46ad 5c3d 24ef b93d 8ac9 31bb
00000170: 041b b6bd d325 55be 23b0 6fbd 6ae9 04bc
00000180: b7ab 14be a061 efbd eb8d 73be b7ed 0bbe
00000190: 5933 81be 3b94 ef3c 833e c7bd a6fd 1ebe
000001a0: 83a0 c5bd 227b 3b3d 40cc 3b3b 10c0 44be
000001b0: ed8e 0e3d d8aa d43c 3b81 89bd c3b4 19bb
000001c0: 8272 3bbe 68c6 62bd c88c 02be ae0a c43b
000001d0: 0f95 943c 3e1d 0ebd f5d7 22bd 0147 5a3c
000001e0: 2610 48be e882 49bd a8a3 5bbe cafa d6bb
000001f0: bbe7 0e3e 729e 1bbd feed f53d 0f8b 4fbe
00000200: 560f f9bc ba69 093c e8f8 41bd d169 f63c
00000210: f7d1 b6bd 2c79 fcbc acfc d2bd 57e6 15be
00000220: bacb 8dbc 4715 9dbc 9b2a 833d 82e5 f6bc
00000230: 1f70 b9bd 090d ccbc 5a13 243c dcb2 abbc
00000240: 0aff 95bd 66cc 91bd d94a 2a3d d4c2 22bd
00000250: da98 76bd 3c83 5fbd a231 c4bd b38b c4bd
00000260: d211 3fbc e8fb 6fbd 302f 17be 1a8e 0cbe
00000270: 1ed1 73bd 8713 9abd 82e9 2ebe 4ec4 02be
00000280: 5661 77bd d531 67bd 0eaa 80bd ae82 11bd
00000290: b965 02bd 3dc2 a2bd b85c d7bc 4db1 d9bb
000002a0: 3034 c8bd 1c1d 22be 668f 88bd 3411 49bd
000002b0: a116 f2bd 800c 05be 3c22 35be 32f5 09be
000002c0: 2159 c8bd 9bd1 eabd d819 09be 1466 1cbc
000002d0: ee89 90bd 87a9 8eba 6ed7 22bd 47ef 11bd
000002e0: d97d 6f3d 0441 f4bd 1a21 8bbd 0ddb 91bd
000002f0: 2415 3bbd 5198 55bd b2a7 51bc 664d 22be
00000300: ccef 73be 00b2 d83d 25aa 5f3e 2b78 b6be
00000310: 6278 4f3e 1857 b33c e581 bc3c a686 d1bd
00000320: f844 17bf f968 92bd cdc6 6fbe a58b cbbe
00000330: 3000 153e 0409 93bc d52b 893d ea37 a43d
00000340: 3a22 72bf e861 4cbc bc3c 663e fb75 593d
00000350: b8e4 a5bc f372 12bd 3e0c 7a3b 0d4a 48bf
00000360: fd6c 93be 6931 e5bd c49a 97be a58e 453d
00000370: c43e 8a3d bc54 2e3e 2394 6bbe 316f 68bd
00000380: 838f 813d 344d 95bc 9d79 b23d 6f05 9cbd
00000390: 3f35 0ebe 01a7 96bd 7173 503d e1c6 ab3d
000003a0: c08a a2bc aef7 083d fb15 5d3e d8f0 4a3d
000003b0: fb9a fabd d981 6d3e 84d4 a83d 3578 4f3e
000003c0: c23b 31bf d613 353e 25ef ea3d a529 4f3e
000003d0: ae80 e5be bbd3 abbc eb2b 1a3f 2222 783c
000003e0: 1089 b33e 366e 453e e3f1 14be 31bb 753d
000003f0: 744c c53c 52c7 82be 657a 1dbd 84d3 b33c
-0.15425418 -0.11940398 0.04194827 0.053602666 0.078073435 -0.07121386 -0.27937406 0.044977766
-0.041215338 -0.10145999 -0.06589784 -0.0034787953 0.09121023 -0.19860943 -0.026540672 0.020750735
0.038213603 0.056849092 -0.0090648085 0.035057403 -0.10964918 -0.049854156 0.098783426 0.107901625
0.12877987 0.17092903 0.0913323 0.024419729 0.1872281 -0.123212546 -0.30646822 0.004365406
0.060605947 0.044988327 0.068370834 0.10138428 0.0034616527 0.03879817 -0.06895087 -0.08286773
-0.075660184 -0.0041250805 0.14652939 0.023528827 0.038518593 -0.16037782 0.045790415 0.02273344
0.031684678 -0.18417732 -0.043405756 -0.323925 0.051298477 0.05163713 0.071868286 -0.01628392
-0.0730575 -0.08148646 0.006606253 0.044139877 0.7270237 0.043149564 -0.0830663 -0.062278084
-0.21597046 -0.04115102 -0.10198852 -0.13191523 -0.24659933 0.11581059 0.09355149 0.076836616
0.04651457 0.0074421326 -0.06757215 -0.10026985 -0.13964774 -0.10154945 -0.07540687 -0.09762735
-0.00902145 -0.017653696 -0.15292796 0.07752893 -0.20832127 -0.122242205 -0.084419504 -0.08689285
0.026540846 0.053876184 0.090788156 -0.0027128183 -0.088918716 -0.2081521 -0.058517586 -0.008112291
-0.14518629 -0.11688542 -0.23784606 -0.136649 -0.25234488 0.029245486 -0.0972872 -0.15526447
-0.09649756 0.045771725 0.0028655678 -0.19213891 0.034804273 0.02596037 -0.06714102 -0.002345369
-0.183054 -0.055364996 -0.12749016 0.0059827184 0.018137483 -0.034695856 -0.039756734 0.013322593
-0.1953741 -0.049197108 -0.21449149 -0.006560658 0.13955586 -0.037992902 0.12008284 -0.2026789
-0.03040282 0.008387024 -0.047356516 0.030079754 -0.08926766 -0.030819498 -0.103020996 -0.14638649
-0.017309058 -0.019175185 0.06404611 -0.030138735 -0.090545885 -0.02490856 0.010014379 -0.02095931
-0.073240355 -0.07119064 0.041575287 -0.039736584 -0.060204364 -0.054568514 -0.09579779 -0.09596958
-0.011661964 -0.058589846 -0.14764094 -0.13726082 -0.0595256 -0.07523256 -0.17081264 -0.12770197
-0.06039556 -0.056444008 -0.06282435 -0.035525016 -0.03183529 -0.07947204 -0.026289329 -0.0066434504
-0.09775579 -0.15831417 -0.06667976 -0.04908867 -0.11820722 -0.1299305 -0.1768884 -0.13472441
-0.09782625 -0.1146576 -0.13388765 -0.009545822 -0.07057558 -0.0010884263 -0.03975623 -0.035628583
0.058469627 -0.11926463 -0.06793423 -0.07121859 -0.04567446 -0.052147213 -0.012796329 -0.15849838
-0.23821944 0.10580826 0.21842249 -0.35638556 0.20260766 0.021892115 0.023011157 -0.1023076
-0.5908961 -0.07148928 -0.2341568 -0.39754978 0.14550853 -0.017948635 0.066978134 0.08018477
-0.94583476 -0.012474515 0.22484106 0.05309103 -0.020250663 -0.035754155 0.003815427 -0.7823799
-0.2879409 -0.11191065 -0.29610264 0.04823174 0.06750253 0.17024511 -0.23005728 -0.056746665
0.06326201 -0.01822529 0.08714602 -0.07618224 -0.138875 -0.07356072 0.050891344 0.083875425
-0.019841552 0.03343933 0.21590416 0.049546093 -0.122365914 0.23194064 0.08243659 0.20260699
-0.6923181 0.17683348 0.114713944 0.2023073 -0.44824737 -0.020974984 0.60223264 0.015144857
0.35065508 0.19280323 -0.14545397 0.059992973 0.024084307 -0.25542694 -0.038446803 0.021951444

enc.fe.u1_FC2.bias f4 [64]
00000000: e489 023f 072d 0abe ae4b 6cbe 785c 50bd
00000010: 247a 01be 201a c13e e1e2 cbbd a6bb b63d
00000020: e75c 01be 7ab4 8c3d 3225 203e 58ae 9d3d
00000030: d20b a63a f94f 48be e949 6fbd 159d c6bd
00000040: d63c 123e 8243 60bd 7ddd 49be ff3a 313d
00000050: df69 2bbd c348 81be 7328 f6be 7ea2 fa3d
00000060: 0fb9 62bd 4412 063c d4ef 83be 0529 6d3e
00000070: 687b 53be 8ec7 93bd d0c3 6f3b 8d9e 85be
00000080: a60a 26be 367c 85bd cce7 cebc cfca b33d
00000090: 0983 9fbe 5342 093f a3aa 91be 2207 52be
000000a0: 4c2b d83c a25b ce3e 41e3 89bd b2ec 1e3d
000000b0: d430 fdbd 9f48 adbe 44c3 5abe cebc 90bd
000000c0: dcea 19be bd9b 63be 5cc3 24bd 8260 b1be
000000d0: 9295 e63a ccf5 3dbb 5a7f 73be 6505 063e
000000e0: 7284 2cbe 213a 13be 7342 c5bd 98d9 c5bc
000000f0: 1a8d 09be 6841 6bbe 5bd8 9cbe 2a04 a4bd
0.50991654 -0.13493739 -0.23075745 -0.050869435 -0.12644249 0.37715244 -0.09955383 0.0892251
-0.12633096 0.06870361 0.15639189 0.07699269 0.0012668318 -0.19561757 -0.058420096 -0.0969793
0.1428102 -0.05475188 -0.19713397 0.043269154 -0.041849013 -0.25250825 -0.48077735 0.12238024
-0.055352267 0.008183066 -0.25768912 0.23160179 -0.20652544 -0.072157964 0.003658522 -0.26097527
-0.16215 -0.06517832 -0.025257014 0.08778917 -0.3115466 0.5361683 -0.28450498 -0.20510533
0.026387833 0.40304285 -0.06732798 0.03879995 -0.12362829 -0.33844468 -0.2136355 -0.07067262
-0.15030998 -0.22227378 -0.04022537 -0.34643942 0.0017592183 -0.0028985618 -0.2377905 0.13087995
-0.16847399 -0.14377643 -0.09631815 -0.024151608 -0.13432732 -0.22974169 -0.30633816 -0.08008607

enc.fe.u1_FC3.weight f4 [64, 64]
00000000: c11d 53be b6fd 273d 888f 7d3d 57ed 253e
00000010: 4a68 28bc 9998 163e e3ce 693e 17f9 07be
00000020: 89fb c83c 48f7 a53d 25e4 1abb 19aa a13e
00000030: dd72 26bf fc20 c33d 1c08 ddbe a875 04be
00000040: 8b0a af3d 03d9 713d 78d9 0a3e 5dd2 2bbd
00000050: 09da 833e adf2 1f3e e489 9cbe 8da8 9cbe
00000060: 6afb 33bb bd6a 8ebf a3a2 c63d a4f3 74be
00000070: 294a 933d c5a1 93be 77f9 453d f64a 16bf
00000080: 4819 c0bb c98c 9c3d 053e b6bd acf5 73be
00000090: 578d 9f3d a64c a3bd bf4e 653e 7386 4f3d
000000a0: 84b4 9e3c 6363 14bd cacd 7fbe 72c5 04bc
000000b0: ddb9 0dbe 85dc 8e3d dff5 c3bc 5a13 093c
000000c0: eece b63d c792 debc ad0b 15bf 96e9 df3d
000000d0: 6719 f43c b7ed 66bb 10f6 ccbd ca71 8ebe
000000e0: 8778 86bd d002 9dbe 5f53 24be ed7e 903c
000000f0: 501b b2bd 2e87 2abe c1de e5bb 9b9e 6fbd
00000100: 0b94 313e 3eaa 8b3c 9465 1bbe 94d0 56be
00000110: 9e86 033e 1847 1fbe 1d7c afbe 69a1 08be
00000120: 7748 90be 7422 813d 3561 19be 5ef3 11bf
00000130: a8ab e93e 3e36 cabe a552 d03d 7ba3 75bd
00000140: 6d06 0bbe 1af7 c0bc 7b70 32be 406e 98bb
00000150: 08da 013d 46de 9dbd 8fec 883e c507 e13d
00000160: 8ac4 b23c 15c8 3c3f 5ed8 00be dbad 483e
00000170: 668b 9ebc a6bc 0e3d 1456 083f 93e1 563f
00000180: 3c51 e3bc 5869 d8be e3da 2f3d e0b3 443e
00000190: 7fcb cc3c 4413 c73d 6686 4fbd 9add 4b3d
000001a0: cc63 97bd a14c b0bb 0a7b 823e 00a3 69bd
000001b0: b3a3 87bc 419c 8c3c 179f b2bd 5b5b ce3d
000001c0: d564 92be 52b7 37be 32e4 d03e 5ac7 3cba
000001d0: 1d70 06be 1256 8dbd cfd1 0dbd 7b5d 543e
000001e0: b7e8 723d 313b 33bd c62d 193d 7c05 0bbe
000001f0: efe8 773e 42eb bdbd 4a1e 0a3e 6979 b7bd
00000200: 45ad 6cbd c577 a83d 42c9 1a3e 0173 e23d
00000210: c351 3c3d 97cd 12be c7a4 a03c 116f 053f
00000220: 2df4 463e 6ae0 e7bd cb9a 833d a269 0c3f
00000230: ce19 d73d 3206 e33e 70ad 88bd 830a 31bd
00000240: 2dad 68be b029 77bd 16ed 063e b2fd 853d
00000250: 56c8 03be 498b 95bd f36c 7c3e 56ed 6c3f
00000260: 7158 cc3d 5fb5 443f ae19 d13e 9a85 eebd
00000270: f699 58bd 4385 9f3e 1a8b 14bf a5f4 51bf
00000280: 7022 2b3e 0f89 253f 21b5 dd3d 946d bf3e
00000290: e144 82be 0026 82be 0896 a0bb fcc2 b03d
000002a0: c82b 333d 9ad3 27be 8c51 40be 9776 0dbe
000002b0: 2e2c ffbd 3794 963e 7d13 09bd 7d78 d4bd
000002c0: 3ccf b2bd a173 813d 3b44 9e3e 9c1d a03d
000002d0: 5fe3 78bd 96d0 093e a077 16bd 0c65 b33c
000002e0: b99f 07be a630 843e f103 043d a48a 3a3e
000002f0: 879c 3c3e 126b 09be 1435 31bf 3a2f 513e
00000300: 6ebe 973d bfda 4b3d fcfb 0b3e a78f a5bd
00000310: 749e bd3d 3cc5 1f3e bf76 aabd 50ee f43d
00000320: 67aa dcbe 7161 ea3d b176 983c 7f23 05be
00000330: 6a9c 7b3f 1857 c8be 4dea 753c b6f6 393d
00000340: 92ad 543d a51c babd 7750 bdbd 114a de3d
00000350: fd8a 423f d3e4 dcbb a704 ebbd 1b51 18bd
00000360: 8850 eb3d c5fe 8fbf 9bc1 89bd 7e33 64bc
00000370: 921d 863c 670a ccbe ba12 4d3f 7fa3 2cbd
00000380: d5f0 4e3e 7761 3bbd d453 3e3a 9944 53be
00000390: 836c 293e 602d 563e ef26 8abd b780 bcbd
000003a0: bb26 ba3d f761 523d eaee e53b fb5e 063e
000003b0: a2ca 0bbd 429a d5bd e7fd 8a3c d409 d13c
000003c0: 273d 183d 9325 e03d 61da b5be bad9 9ebd
000003d0: 9457 40be b7ba 13ba 66f5 27be eca8 37bd
000003e0: f9e9 fe3d 5e76 c9be edfa 91bd eb9c 763d
000003f0: 1c76 303d ca6d db3d fe93 6e3e f988 01bd
-0.20616819 0.041013442 0.06190446 0.16203819 -0.010278771 0.14706649 0.22832827 -0.13278614
0.024534004 0.08103806 -0.002363452 0.31575087 -0.6501902 0.09527776 -0.4317025 -0.12935507
0.08546933 0.05904485 0.1355952 -0.041948665 0.25752285 0.15619917 -0.30573952 -0.30597344
-0.0027463087 -1.1126324 0.09698989 -0.23921067 0.07191879 -0.28834358 0.04833361 -0.5870813
-0.0058623888 0.0764404 -0.08898548 -0.23824185 0.0779063 -0.07973604 0.2239332 0.05066533
0.019373186 -0.036227595 -0.24980846 -0.008103715 -0.13840432 0.069756545 -0.023920951 0.00836643
0.089261875 -0.027169598 -0.5822094 0.10933225 0.029797269 -0.0035236904 -0.1000787 -0.2782119
-0.065659575 -0.30666208 -0.16047429 0.017638648 -0.08696616 -0.1665313 -0.0070150797 -0.058500867
0.1734163 0.017048951 -0.15175468 -0.20978004 0.12844321 -0.15554464 -0.34274378 -0.13342823
-0.28180286 0.063053995 -0.14978488 -0.57011974 0.45638776 -0.39494509 0.10172013 -0.05997036
-0.1357667 -0.023555327 -0.1742572 -0.0046518147 0.03170207 -0.07708411 0.2674298 0.1098781
0.021822233 0.737428 -0.12582538 0.1959757 -0.01935358 0.034847878 0.53256345 0.8393795
-0.027748697 -0.4226787 0.042933356 0.19209242 0.024999378 0.097204715 -0.05066528 0.049771883
-0.073920816 -0.0053802286 0.25484496 -0.057040215 -0.01655755 0.017164351 -0.0872175 0.100760184
-0.28592554 -0.17941025 0.407991 -0.00072013366 -0.13128705 -0.06901182 -0.034623917 0.20738785
0.059303965 -0.04375762 0.03739717 -0.13576311 0.24209951 -0.092733875 0.13488117 -0.08958704
-0.05778243 0.08225969 0.15115836 0.110570915 0.04597641 -0.14336239 0.019609822 0.521226
0.19429083 -0.113221005 0.06426009 0.5484868 0.10502969 0.44340664 -0.066737056 -0.043222915
-0.22722311 -0.06034249 0.13176379 0.06542529 -0.12869391 -0.07301957 0.24650936 0.92549646
0.09977806 0.7683925 0.40839905 -0.11646576 -0.052881204 0.31156358 -0.5802475 -0.8201392
0.16712356 0.6466226 0.10825563 0.3738829 -0.25443175 -0.25419617 -0.0049006976 0.0863094
0.043742925 -0.16389313 -0.18781108 -0.1381477 -0.124595985 0.29409954 -0.03346585 -0.10374544
-0.08730933 0.063208826 0.3091143 0.078181475 -0.060763713 0.13458475 -0.036735177 0.021898769
-0.13244523 0.25818366 0.03223032 0.1821695 0.18419085 -0.1341975 -0.69221616 0.20428172
0.074093685 0.04976916 0.13670343 -0.0808404 0.09258738 0.15602583 -0.0832343 0.11959517
-0.43098757 0.11444367 0.018611284 -0.13001822 0.98285544 -0.39128947 0.015009475 0.045401298
0.051923342 -0.09087495 -0.09243863 0.10853971 0.7599333 -0.006741145 -0.11475497 -0.037186723
0.114899695 -1.1249624 -0.067263804 -0.013928292 0.016371522 -0.39851686 0.801067 -0.04214811
0.20209058 -0.045747247 0.0007260416 -0.20631637 0.165453 0.20915747 -0.06745707 -0.09204238
0.090894185 0.051362958 0.007017006 0.1312217 -0.034128793 -0.10429813 0.016966773 0.025517382
0.037167694 0.10944667 -0.35518172 -0.07756372 -0.18783408 -0.00056354277 -0.16402206 -0.04483883
0.124469705 -0.3934812 -0.071279384 0.060208242 0.043081388 0.107143 0.23298642 -0.031624768

enc.fe.u1_FC3.bias f4 [64]
00000000: cdd6 04bf 8f56 e33e ef45 8f3d 2bb1 683e
00000010: af79 e73d eabb ca3e 956c 3cbe 83d0 a0bd
00000020: 8088 7bbe 6d84 933e c789 3cbe 8d36 34bf
00000030: a4fc c2be 9e44 76bd b817 0cbd 6315 60be
00000040: 3900 27bc 42d7 b8bc 276d 58be 034a 093f
00000050: 749a d63e f56c 68be 320b cabe 344c c43e
00000060: defb 1fbf 5fb5 283e 55ab de3e 12fd ad3d
00000070: 72d0 7e3e 0e5b 0d3f 70f6 9dbe 2675 86bd
00000080: 7b9d 15bf 1a86 27bf 8f50 6fbe 8bf4 0f3f
00000090: a1ee f63d 90b2 97be 550e 12be d779 8f3e
000000a0: 67b1 923d e89b dfbd b596 283d 00ee 2cbe
000000b0: a372 90be 80b6 d0bd 1d32 873e dd2b 40be
000000c0: e802 fabd e7f5 3c3e 856c dfbc 7afc 72be
000000d0: b999 b73e 5819 633e 601a f03e 75fa 8ebd
000000e0: e5b9 e3be a5c0 033f e529 dabe f765 f4be
000000f0: bfce 83be 85a5 88be f1ba 3b3e c30e 303e
-0.5189026 0.44401976 0.06995761 0.22723834 0.11302506 0.39596492 -0.18400796 -0.078522705
-0.2456379 0.2881197 -0.18411933 -0.7039574 -0.38083375 -0.060124032 -0.034202307 -0.21883158
-0.010192924 -0.02256358 -0.21135388 0.5362856 0.41914713 -0.22697814 -0.39461666 0.38339388
-0.62493694 0.16475438 0.4349009 0.08495535 0.24884203 0.55217063 -0.3085208 -0.06565313
-0.5844342 -0.65439 -0.23370574 0.5623252 0.120572336 -0.2962842 -0.1426328 0.28022644
0.07162743 -0.10918409 0.04115935 -0.16887665 -0.2821246 -0.10191059 0.2640542 -0.18766733
-0.122075856 0.1845318 -0.027273426 -0.23729125 0.3585947 0.22177637 0.46895123 -0.06981365
-0.44477764 0.5146583 -0.42610088 -0.47734043 -0.25743672 -0.2668878 0.18333031 0.17193131

enc.fe.u1_FC4.weight f4 [32, 128]
00000000: a6c8 b13c 0f9f c83d 55a3 663b 36a5 68be
00000010: c0ff 833c 3bcd 8f3e 35ac 5e3d 4d9e 553e
00000020: 0ae2 63be e038 db3d 534c 6bbd be78 3dbd
00000030: a1df 00be 6a38 01bd 6941 9fbd d2a8 553b
00000040: 206d 15bc 1379 4bbe 331d 993e a32e 923d
00000050: 56e5 533e 849d 753e ea47 da3d 77ab 6dbe
00000060: 65d4 0c3e faea 683d 3992 3d3e 6131 933d
00000070: 798e a4bc 1471 1f3e 4c2d 973a c04b a9bd
00000080: 2f04 63bd 68bc a6bd 2f02 efbd 98f9 1b3d
00000090: 6efc debc 06d9 d43c 2959 a1bd 7ceb 003c
000000a0: 9d77 39be 2515 1cbe 462e 433e 332e cebe
000000b0: f427 b6bc 8f26 3e3e 33c3 17be 716e 94be
000000c0: b9f7 67be 280c 253e 3401 0f3d 98f2 ff3d
000000d0: 3e7c 203e ebb0 78be 1a13 733c 36ff a4bd
000000e0: c401 23bd a3a1 aabd 1dd5 513d 6ee1 053e
000000f0: 6a4c 6b3e e09a d03d 5434 09be 41d1 033e
00000100: 6b21 89bd ab7c ddbd 7008 1ebd 7bcd 84bd
00000110: 295e 973e 7310 5ebd 7bf2 eebd 1802 d0bc
00000120: 66ae 01bd 7a14 073e 3543 30bd 9d83 48bd
00000130: 9bad 2abd a35d 23bd d832 96be d238 b5bd
00000140: e0f7 18bd 9c1a 59bc 1e2d 683d 0c59 873e
00000150: 9f0b 49bd c459 733d a8fb abbd 9db2 203d
00000160: 9257 e7bc 5672 7a3d 00e8 ee3d ed7b acbd
00000170: 7ec4 59bd 219b 0fbe d1f0 b93b 6d83 8e3d
00000180: 1005 87bd 127a 20bd eef5 1ebd 2a4f debc
00000190: 36c5 083c 6bee 0a3c f704 f93c d7f9 5fbd
000001a0: 8b8e 7bbd a459 b9bb 8223 27bc 025a 09be
000001b0: f3d4 953d 9e98 0fbc 256c 98bc c867 86bd
000001c0: 8626 553d 0fa5 26bd 5d4b 02bd 6561 25bd
000001d0: 7c29 3fbd 6ecf 7cbd f39d 5a3d 6a40 cfbc
000001e0: a01b 993d b254 8abd 3917 873d a5b7 08be
000001f0: fc0c f53c 4e79 083d 818c 363e b26b c6bd
00000200: d29d 103e 0aad b6be f527 db3d fffb 553a
00000210: a1a4 e0bd 8588 8cbe abe5 c3bc 1a50 73be
00000220: aab8 5d3e 098a 13be f346 063e a5b1 473e
00000230: 6e11 d93d 2a72 d7bd 5c15 a03d 272d 933d
00000240: c73f 1f3c ebb3 893d 3903 12be 230e 03be
00000250: db83 50be 21f2 033d 63f7 293e 09d1 bd3d
00000260: 654b ef3d c01d 5dbd 49f8 98be c666 413d
00000270: e4bd 85ba 08b0 e9bd 090c 83bc f844 a63c
00000280: 7b1e 4b3e c945 563e 1410 003e 9f0e 9dbd
00000290: 687d c4bd d3eb 383e 4ff8 1abd 6a06 c6bd
000002a0: aa35 8f3d 70dd c83d 43f6 a23d 4eb7 5f3e
000002b0: f72b 67b9 7380 dfbd f318 a0bd 4a7f de3d
000002c0: d451 cb3d 6591 bbbd 8848 903d 0dd3 df3c
000002d0: 1a43 06bd de07 1cbd c910 acbe 2a06 15bd
000002e0: a1fa b33d ce3b 11bd c822 533d f595 eabc
000002f0: b526 b83d d5be ae3c 2ea3 f13c c809 ddbb
00000300: f9c5 743d 2c85 c23d ab61 b43d 49b3 e73c
00000310: 4118 b3bd 2f92 d63d c4f1 a7bd c69a 34bc
00000320: ab52 cb3c 8283 95bc 5eaa 6f3c f3b8 c03c
00000330: c7c7 e83c e49c 863d 20e2 953e 951e cdbc
00000340: 0289 2dbd 061e b4bc 76ea 4bbc bec5 f6bd
00000350: 7576 2e3d 8165 eebb 2539 903c 88c6 64bd
00000360: 0c7f c93c fe90 12bd e943 58bd 8f6b 043d
00000370: 9874 c5bc 00cc 1f3e bb31 1b3d 1fdd 79bc
00000380: ef62 fa3d 659d 033d 4891 093e b1f6 f63c
00000390: f2c7 7dbd ced3 c73d 5421 1d3c ae1c 943c
000003a0: c05e 013e 3471 143d a415 6f3d 765f b33d
000003b0: d3a6 823d 3b6c 34bd 9d9b fcbb 0ed8 083e
000003c0: ca02 2b3d d8a0 273d b570 27bd cd97 71bd
000003d0: 00b2 03bd 51cf 053e 3895 21bd 6f5c 1cbc
000003e0: a7d9 01be ed77 233e b0b4 1cbd 1cf3 e23d
000003f0: 4f50 e3bd 76a0 1dbd ec96 7abd 5dbf d43d
0.021702122 0.09795963 0.0035192568 -0.22719273 0.016113162 0.28086266 0.05436345 0.20861168
-0.22254196 0.107042074 -0.057445835 -0.046257727 -0.12585308 -0.03154794 -0.07776148 0.0032601845
-0.009120256 -0.19870405 0.2990509 0.071378015 0.20692953 0.23985869 0.10658248 -0.2320994
0.13752897 0.056864716 0.18512811 0.07187153 -0.020087468 0.1557048 0.0011533885 -0.08266401
-0.05542391 -0.081414044 -0.11670338 0.038079828 -0.027219977 0.025982391 -0.07878334 0.007868644
-0.18112035 -0.15242441 0.1906062 -0.40269622 -0.022235848 0.18569396 -0.14820556 -0.2899051
-0.22653092 0.16117918 0.034913257 0.12497443 0.15672395 -0.24286239 0.014836097 -0.0805649
-0.039796606 -0.08331611 0.05122863 0.13074276 0.22978368 0.1018579 -0.13398868 0.12872793
-0.06695827 -0.10814794 -0.038582265 -0.06484505 0.29564026 -0.054214906 -0.11667343 -0.025391623
-0.03166046 0.13191405 -0.043032844 -0.04895364 -0.04166947 -0.03988422 -0.29335666 -0.08848728
-0.037345767 -0.013250973 0.056683652 0.26435125 -0.04908335 0.05941178 -0.08397609 0.03923284
-0.028239999 0.061144195 0.11665344 -0.084220745 -0.053165905 -0.1402402 0.0056744595 0.06958661
-0.065927625 -0.039178915 -0.038808756 -0.027137358 0.0083478 0.008479695 0.030397875 -0.054681625
-0.061415236 -0.005656438 -0.010201337 -0.13413242 0.073160075 -0.008764414 -0.018606255 -0.065627635
0.052038692 -0.040684756 -0.031810153 -0.040376086 -0.046670422 -0.061721258 0.05337329 -0.02529927
0.07475972 -0.067544356 0.06596226 -0.13351305 0.029913418 0.03331881 0.17827035 -0.0968851
0.14122704 -0.35678893 0.107009806 0.00081628555 -0.109689005 -0.27447906 -0.023913225 -0.23761025
0.21652475 -0.14408125 0.13113002 0.1950136 0.105990276 -0.10519822 0.07816574 0.071863465
0.009719796 0.0672377 -0.14259042 -0.12798361 -0.20362799 0.032213334 0.16598277 0.09268386
0.11684302 -0.05398345 -0.29876927 0.047217153 -0.0010203687 -0.114105284 -0.01599695 0.020296559
0.19835846 0.20925058 0.12506133 -0.076688044 -0.09594232 0.1805871 -0.03783446 -0.09669192
0.069926575 0.09807861 0.07957127 0.21847269 -0.00022046255 -0.109131716 -0.07817259 0.10864122
0.09927717 -0.09158591 0.07045084 0.027322317 -0.032778837 -0.03809344 -0.33606556 -0.03638283
0.08788038 -0.035457425 0.05154684 -0.028635958 0.08991758 0.02133123 0.029496755 -0.006745551
0.059759114 0.09498057 0.08807691 0.028283732 -0.087448604 0.10477101 -0.0820041 -0.011023229
0.024819693 -0.018251184 0.014628021 0.02352569 0.028415574 0.06572893 0.29274082 -0.025038997
-0.04236699 -0.021986973 -0.012446037 -0.12049435 0.04259344 -0.007275284 0.017605374 -0.055853397
0.024596713 -0.035782807 -0.05279914 0.03232914 -0.024103448 0.15605164 0.037889224 -0.015250473
0.12225901 0.032132525 0.13434327 0.030146929 -0.06195826 0.097571954 0.009590466 0.018080082
0.126338 0.03624077 0.058370247 0.08758442 0.063794754 -0.04404853 -0.0077089802 0.13363668
0.041750707 0.040924877 -0.04087897 -0.05898266 -0.032152176 0.13067366 -0.039448947 -0.009543522
-0.12680684 0.15963717 -0.038258255 0.11081526 -0.11099302 -0.038483106 -0.061179087 0.10388062

enc.fe.u1_FC4.bias f4 [32]
00000000: 9cc4 9dbd ba9a d43d 2db5 673e 086e 8fbc
00000010: db25 523e dd66 87be 773b a0be baec 4ebd
00000020: 1367 b73e b5a4 803e 42a0 bc3d 999a 133f
00000030: a51d 44be ef8c 373e 33f5 a53e a901 5f3e
00000040: ecff 08be 67c0 423d fb2e b7be 4953 98bd
00000050: f175 2c3d e5a2 263c f5da 5b3d ce87 a73d
00000060: 0c01 973e 82fe bf3d 0239 b9be e208 313d
00000070: fc00 74be 3e8a 883c 5646 0e3e 9edc 263e
-0.07703516 0.10381074 0.22627707 -0.017508522 0.20522253 -0.26445666 -0.31295368 -0.05051873
0.35820827 0.25125661 0.09210254 0.5765777 -0.19151933 0.17924856 0.32413635 0.21777977
-0.13378876 0.04754677 -0.3577803 -0.074377604 0.042104665 0.010170673 0.05367561 0.081801996
0.29492986 0.093747154 -0.36176306 0.043221362 -0.238285 0.016667482 0.13894019 0.16295096

enc.norm.weight f4 [32]
00000000: c5ac 643f 45db 5e3f 2a29 3f3f 940d 3f3f
00000010: e3ad 213f 1368 4c3f 29ae 343f 22b2 093f
00000020: b928 513f 56ac 3c3f a066 5c3f 0d81 623f
00000030: f05d 123f 88d6 263f 8a81 1e3f e92b 473f
00000040: 84a5 463f 78b7 e33e 40f6 403f 8b3a 9b3f
00000050: 3b6d 9e3e 5ab7 5f3f 85e2 453f fce6 8d3f
00000060: 15f5 953f 22d0 5a3f edc8 293f 72fa 393f
00000070: f5df 663f e928 503f 51d3 5f3f 9909 623f
0.89326125 0.8705333 0.74672186 0.74630094 0.63155955 0.79846305 0.7057825 0.53787434
0.8170276 0.73700464 0.86094093 0.88478166 0.5717459 0.651711 0.6191641 0.77801377
0.77596307 0.44475913 0.7537575 1.2127241 0.3094271 0.8738915 0.77298766 1.1086116
1.1715418 0.85473835 0.66322213 0.72647774 0.9018548 0.81312424 0.8743182 0.88295895

enc.norm.bias f4 [32]
00000000: 2021 b0bd 06a8 7e3e eaf5 9fbd 84d8 39be
00000010: bfd1 843d 1af7 a1bd 4dc1 673d 956a d23d
00000020: 26b5 05be 773d ddbd 5dad 513e 503c 11be
00000030: ea6b cb3c 062d c73c d499 06be f095 77bd
00000040: d150 c83d 6471 933d 10a8 6b3d 76ed 733e
00000050: 6cd4 0bbd 2dca 2cbe 4956 f6bd 5476 903e
00000060: 09d2 9dbe efd5 c63e 9a14 583d bf89 c53d
00000070: 61ea fa3d e1e3 bf3d 930b aa3e 8762 51be
-0.08600068 0.24868783 -0.07810576 -0.18149 0.064853184 -0.07908459 0.05658083 0.10274235
-0.13057384 -0.10802739 0.20476289 -0.14183164 0.02483173 0.024313461 -0.13144618 -0.060445726
0.097810395 0.07199362 0.057533324 0.23821053 -0.03413813 -0.16873999 -0.12028176 0.28215277
-0.30824307 0.38835093 0.052754022 0.096454136 0.122517355 0.09369636 0.33211955 -0.20447741

enc.enc_out1.weight f4 [8, 32]
00000000: f927 41be 4919 313d 9649 d03b 042c debd
00000010: b3df 94bc 408f 38be e1e5 c53c 581b f5bd
00000020: e230 3d3d cb30 b9bd a79c a6bd a44f 90be
00000030: 7c97 d63d 4e20 e33d 7fa4 fc3c 73eb debd
00000040: baba 863d 6065 b5bc 376b 83bc e687 b73e
00000050: 2142 80bd c79e f5bc 8d08 f53d be1c ab3e
00000060: 74d0 96be fffa d9bd c47a 043e c036 0dbd
00000070: 7dd2 253e 280d 07be 017e 10bc 219c fabd
00000080: ebc8 cdbb 23cc 7c3d 0145 b7bc 9804 1bbe
00000090: be0f a7bd b234 843d 832c 983c a745 eb3d
000000a0: 594b 2f3e 2e76 2ebc 8d3c 423b 8275 1a3e
000000b0: 2232 7bbd 213d 11bd 8497 fe3d b5b2 fc3d
000000c0: a99a 10be 1d34 a23d 4477 f2bd beb8 d9be
000000d0: e85a 1fbd a7e3 343e 1d9d 75bb 87e0 91be
000000e0: 10f4 853e dd56 063d a63b d2bd 630e 083e
000000f0: c9bd 5ebe 867c 143c 2560 44be 5f84 373e
00000100: 33f1 cfbd 17a7 a7bc fa85 90bd 2f81 80bd
00000110: 627c 113e 3fb2 5bbd 8e25 3d3c b0c5 3f3d
00000120: 3ac6 6cbd 62c4 8abd 5d39 e9bc 759d 4bbd
00000130: d3fa 31bc 0d4d 81bd 66d2 1fbe 2bde e2bc
00000140: f730 213e b9f8 c4bd f792 e53d e5c7 133e
00000150: b1c4 913c 2299 24be a597 923c 6f48 da3d
00000160: 6980 64be 39fe 103e 95f3 34bd 43bb 15bb
00000170: 9770 ca3b 0379 e9bd ed64 653d 4d9b 5d3d
00000180: fcd1 39be 1d67 413c 9acc e3bc 6817 babd
00000190: 5a8e 21be cc2d a6bd acfd 00bd 2165 b83d
000001a0: 1075 34be 2073 0d3d 513e 103e a6e3 bbbd
000001b0: 30f6 ffbd 7729 8cbb a621 40be 9bf3 28bd
000001c0: 9024 c9bc ab57 8e3d 5e15 443e bb98 d53e
000001d0: beaa f4bd 25ff d53b 4dad 19be 137d a43e
000001e0: 129b 8fbe 2eef c53d 1366 373c 0767 91bd
000001f0: 99db f43d 7aa6 d93d a929 9d3d c6a2 51bd
00000200: af77 ab3c 8417 80bd c9fc 89bb 1652 3bbe
00000210: 9654 5c3c 0f80 043d 3a82 543c f9b3 63bd
00000220: fc61 1ebd c72f 1cbd f461 62bd daec f93d
00000230: 84b5 89bc b653 bdbd 7de8 7abd f2f6 8abd
00000240: 068b f4bd 5d2c 563d e3d0 7dbd 75c4 9dbe
00000250: 2040 9a3d 4b80 4e3d d2cf b43d e595 a6bd
00000260: 547a 983e 121a 14be 02c0 3bbd f779 313d
00000270: 4683 38be 5393 f1bd 9cd1 80bd d408 bd3d
00000280: 60f6 373c dc59 bb3d 6ac9 23bd fe25 07bd
00000290: 57f4 883d 3ccb 9abd d35b 1a3e b696 b13d
000002a0: 8586 50be 02a5 9cbb 859c f63d ce57 4cbd
000002b0: 32b7 db3c 7ae5 e5bd 04b0 edbd 57ef 1bbe
000002c0: f4a2 863d 8dcf 0dbd 0836 0c3e a53a d53e
000002d0: 779e 063d 5fee 59bd a47c 07be 34b5 8a3e
000002e0: edfe 5cbe ac58 733d cfeb 313d 5bf1 b63d
000002f0: 2d54 583b 13df 523d 683b 593e 2b1c 76bd
00000300: 03ca f5bd 9202 48bd 8f0f 09be eb17 e73c
00000310: 3183 e63b b3c5 d1bb 95bc 443c e409 313d
00000320: cf3f a63d 2515 71be bf47 dc3d 4039 04be
00000330: 7604 8fbc 7187 293e 1934 0fbd 75b9 24be
00000340: ccee 383b f2f5 de3d 7fa6 b73c 70b5 c23e
00000350: caeb 0c3e aa7c 6fbd e8ae d13d 84b7 ae3e
00000360: 9784 abbe cc74 133e d19b e7bc d4b4 2b3e
00000370: 3984 0d3e 5f66 a63d 9443 fdbb 06d2 56bd
00000380: 0ea2 2d3e 4c66 163d b66c 9dbd 1fc0 4abb
00000390: 455c a23d 2e41 973d 1e75 c5bc 16d1 e63d
000003a0: 38f6 313e 7e50 30bd 4d43 0d3c e371 293e
000003b0: d92b 063e 8727 6abc ce01 9b3c b0b9 323d
000003c0: 396e 3b3d 9851 3f3d 3ff8 e1bb f5a1 a5be
000003d0: 62e9 99bd c210 a4bd 2857 cabc f65b 45be
000003e0: 1213 ca3d 2254 29bd 25dd e7bd a8d7 d2bc
000003f0: ab44 19be 4144 0f3d d125 febd d00c 0c3d
-0.18862905 0.043237004 0.0063564284 -0.10848239 -0.018173074 -0.18023396 0.024157466 -0.11968106
0.046189196 -0.0904251 -0.08135348 -0.2818576 0.10478112 0.11090146 0.030840157 -0.10884752
0.06578584 -0.022143066 -0.016042335 0.3584587 -0.06262613 -0.029982937 0.119645216 0.33420366
-0.29455912 -0.10643577 0.12937456 -0.03447604 0.16193576 -0.13188612 -0.008819104 -0.122368105
-0.006280055 0.061718117 -0.02237177 -0.15138471 -0.081572995 0.06455363 0.018575912 0.114878945
0.17118587 -0.010648293 0.0029638142 0.15083888 -0.061327107 -0.035458688 0.12431243 0.12338773
-0.14121498 0.07920096 -0.11839154 -0.4252376 -0.038905054 0.17664967 -0.003747768 -0.28491613
0.26162767 0.032797683 -0.10265283 0.13286738 -0.21752085 0.009062892 -0.19177301 0.1792159
-0.10153427 -0.020465417 -0.07056804 -0.0627464 0.14207605 -0.053636786 0.011544598 0.04681939
-0.05780623 -0.06775738 -0.028469736 -0.04971071 -0.010863024 -0.063135244 -0.15607604 -0.027693829
0.15741335 -0.096177526 0.11209672 0.14431722 0.017793985 -0.1607404 0.017894575 0.10658347
-0.2231461 0.14159478 -0.04417761 -0.0022847212 0.0061779725 -0.11400034 0.056004453 0.054103184
-0.18146509 0.011804369 -0.027807523 -0.09086496 -0.15776959 -0.08114204 -0.03149192 0.09003664
-0.17622781 0.03453362 0.14086272 -0.0917428 -0.124981284 -0.004277404 -0.18762836 -0.041247945
-0.024553567 0.06950315 0.19148776 0.41718087 -0.11946629 0.0065306597 -0.15007515 0.32126674
-0.28047997 0.096647605 0.01119377 -0.07099729 0.119559474 0.10627456 0.07673962 -0.051180623
0.020931093 -0.06254485 -0.0042110425 -0.18293032 0.013447901 0.03234869 0.012970502 -0.055591557
-0.038667664 -0.0381315 -0.055269197 0.12203379 -0.016810186 -0.09244482 -0.061256874 -0.06785382
-0.11940579 0.052288402 -0.061966788 -0.30813947 0.07531762 0.05041532 0.08828701 -0.08134059
0.2978083 -0.1446307 -0.04583741 0.043329205 -0.18018827 -0.11795678 -0.0628998 0.092301995
0.011228174 0.09147999 -0.039987005 -0.032995217 0.06687229 -0.07558295 0.1507409 0.08671324
-0.20363815 -0.0047804127 0.120415725 -0.049888425 0.026820753 -0.1122541 -0.11605838 -0.1522802
0.065740496 -0.034621764 0.13692486 0.41646305 0.032865968 -0.053205844 -0.1323114 0.27091372
-0.21581621 0.059410736 0.043437775 0.08932754 0.0033009157 0.05148227 0.21214068 -0.060085457
-0.12001421 -0.048830576 -0.13384841 0.028209647 0.007034682 -0.0064017414 0.012007852 0.043222323
0.08117639 -0.23543222 0.10755872 -0.12912464 -0.017458182 0.16555573 -0.034961794 -0.16086371
0.0028218506 0.10886754 0.022418259 0.3802905 0.13761821 -0.0584685 0.10238439 0.34124386
-0.33499596 0.14400023 -0.028272541 0.16768199 0.1381997 0.081249945 -0.007729003 -0.052446388
0.1695635 0.03671865 -0.076867506 -0.0030937267 0.07927755 0.07385479 -0.024103697 0.11270349
0.17379081 -0.043045513 0.008622003 0.1654735 0.13102664 -0.014291651 0.018921759 0.043634117
0.045759413 0.046708673 -0.0068960483 -0.32350126 -0.07515217 -0.08011009 -0.024699762 -0.19273362
0.098669186 -0.04134 -0.11321477 -0.025737599 -0.14967601 0.0349772 -0.12409557 0.034191906

enc.enc_out1.bias f4 [8]
00000000: a02b c73e 0b1f c9bd e11e 5c3e 23fb dd3d
00000010: 59e5 dbbe 99ac 133f 99ea 973e f8e9 4d3d
0.3890047 -0.09820374 0.21496154 0.10838916 -0.42948416 0.5768524 0.2967117 0.050271958

enc.enc_out2.weight f4 [1, 8]
00000000: 328b 963e 3e7e 26be b744 453a 60d6 333e
00000010: d923 4fbe 0272 b63e 25a1 fe3d ae2d 9ebc
0.29403073 -0.16259095 0.0007525193 0.17562246 -0.20228519 0.35633856 0.1243308 -0.019308891

dec1.fe.FC1.weight f4 [64, 7]
00000000: 1e28 dabe 9ba7 7dbe ed15 35be f276 36be
00000010: 2f11 e33d d65e fcbc c611 0cbd d86b 963e
00000020: 0e4c 6c3e 0f65 fc3d c74a e93d e4c6 99bd
00000030: 37bd 5e3d ccc7 e83c c908 d83e fc07 5a3e
00000040: f293 383e 8184 f93d dc35 08be 0654 d43d
00000050: 163e 5d3d 6aa0 91be 98b8 35be 95e8 51be
00000060: 7d9f 08be 7edb 983d e628 9fbd d6d5 cabc
00000070: 6760 b6bd b111 b1ba 0cd9 97bc e5d3 4cbd
00000080: e90a 4a3d 8a4e 133c be24 31bd 0ba4 ea3e
00000090: 904c 863e f6f8 443e bb3e 1c3e be8c f2bd
000000a0: 6aec e83d 45fd bb3d 4ba9 c73c 37db e63d
000000b0: 20e1 1abc b5f3 24be 0f2c b13d 1177 98bd
000000c0: fcea 28bd 41d2 d83e 6ee4 203e 4c85 853e
000000d0: 7935 003e 460f 14be b6a0 113c 7a02 f5bb
000000e0: fffe 723e 2715 43bd 8619 c3bd 3ba1 e5bc
000000f0: 827f fd3c fefe e1bc 5f35 debc c6f7 ccbe
00000100: a2ff 8fbe 919a 71be e1c8 b53c f632 54bd
00000110: 4a66 213b e027 02be 5ce6 f13d 47d1 41bd
00000120: e587 a8bc 4e00 0c3d 9267 8abd b1e3 683d
00000130: b631 16bd 86e6 863e d9c7 173d 8b36 1b3d
00000140: 36e3 9abd 9ef1 bc3d db5f 3abd b391 f5bc
00000150: eb21 f83e b009 6d3e 9800 513e 3641 183e
00000160: bf8f c3bd 3af7 433d af1d e83c cc52 ed3e
00000170: bb68 923e fc1c 013e 4c92 4b3e 01dd fabd
00000180: b927 133e 004e 213d 3f4c 403c 3efb 3abc
00000190: 9276 cb3b 0467 8db9 136f c7bc e5bf 68be
000001a0: e796 4ebe dc6d fe3e 91de 9c3e 68f5 2c3e
000001b0: 9db2 473e 4b6f 28be 1d8f 253e 9829 943d
000001c0: dd82 ab3d b61d d4bd 57eb d73d d2ab ac3d
000001d0: 58ff 0ebe c5ab c93d 9306 8c3d e9f5 16bd
000001e0: b152 aa3c da96 483d 99ff 083e b66d e9bd
000001f0: 1261 a93d c74f 253d 14b8 a53e ae7e 3b3e
00000200: 0666 313e 8977 ab3d 47be 82bd f383 af3d
00000210: 069a 663d 49f7 98be 0e3c 19be 8601 1fbe
00000220: f137 68bd 3442 523d d65d 33bd f57c 85bd
00000230: a751 c53e d17a 423e 6c3d 283e 6da4 df3d
00000240: c155 4fbe 720a 283e 8717 4d3d 460c 9abe
00000250: 0fec ffbd ff04 bcbd 510f 0dbe 8dbb fe3d
00000260: 0b03 d4bd 7fdd 37bd b742 dabd 4723 e7bc
00000270: fea5 3cbd afdb c33d 0933 9abd 6d2b 86bb
00000280: eb60 263d 46ad e4be d6b4 13be f3e4 c8bd
00000290: 3221 75bd 607c de3c d626 b6bc 5111 bebc
000002a0: 2207 99bd 6d77 0f3e f0a6 153e fab5 4f3d
000002b0: d4a2 8ebd e1af fe3c d590 4a3d 65e8 983d
000002c0: 9bf1 af3c ad54 54bd 8165 b5bd e2f1 7abd
000002d0: 2882 8abd 9305 da3b 1ab5 22be ae3d 93bc
000002e0: dd7d 4cbd 9861 32bd 9591 fabd 68e4 ac3d
000002f0: 3758 773c 4215 d6be b148 82be 7e18 11be
00000300: ac8e 28be 2a41 0e3e 8293 09be f69b 73bd
00000310: 426f 143e 0315 8cbd 094f 2abe ae8f 0abe
00000320: a616 283e a784 03be f9e8 bdbd 9a1a 99be
00000330: e29e 2abe a1b8 23be 6673 c6bd 7646 953d
00000340: c0d9 8ebd 5eb8 7cbd 7d14 f23e d1b6 c43e
00000350: c484 933e 5441 043e 3ab7 f6bd 1ed4 80bc
00000360: 1d01 54bc 5c36 abbd 9df9 28bc 91fc b53d
00000370: 7e73 913c e2c4 033c f481 083d 974c b8bb
00000380: 5bb3 0fbf 4646 e8be 6ad8 afbe 5759 1bbe
00000390: 97f4 0b3e c0aa 7e3c 18d8 863c 7287 173e
000003a0: 964d 92bd eef0 493c d911 9d3d 2a9d 783d
000003b0: f6a4 87bd bc70 49bc 96d5 143f eb95 9f3e
000003c0: d076 7a3e d9ff 263e 3578 fcbd fd66 053e
000003d0: 2826 8c3d f5c7 99bc bc03 4d3d 41c3 353e
000003e0: bea9 eb3d 1e42 85bd 32f7 d13d 02ad 073d
000003f0: 7933 8abe 9f69 80bd 10c5 d7bd c631 c1bd
-0.42608732 -0.24770968 -0.17684145 -0.17818812 0.11087262 -0.03080694 -0.034196638 0.29379153
0.23075888 0.12323963 0.11391216 -0.075086385 0.054379668 0.028415583 0.42194203 0.21292108
0.18025187 0.12183476 -0.13301796 0.10367589 0.054014288 -0.284427 -0.17746198 -0.20498879
-0.1334209 0.0746374 -0.07771473 -0.024760168 -0.08905106 -0.0013509301 -0.018536113 -0.050006766
0.04932681 0.008990893 -0.04324793 0.4582828 0.26230288 0.19235596 0.15258305 -0.11843251
0.113732174 0.09179167 0.024372717 0.11272281 -0.009453088 -0.16108592 0.08650982 -0.07444585
-0.041239724 0.4234791 0.15712139 0.2607826 0.12520398 -0.14458951 0.008888414 -0.007477102
0.23730086 -0.047627594 -0.095263526 -0.028030982 0.03094459 -0.02758741 -0.027125059 -0.40032786
-0.2812472 -0.23594119 0.022190513 -0.051806413 0.002462762 -0.12710524 0.11811516 -0.047318723
-0.020572612 0.034179978 -0.06758036 0.05685777 -0.0366685 0.2634775 0.037055824 0.037893813
-0.07562868 0.09225772 -0.04550157 -0.029976701 0.48463377 0.23148227 0.20410383 0.14868626
-0.09548902 0.047843195 0.028334467 0.46352232 0.28595528 0.12608713 0.19880027 -0.122491844
0.14370622 0.039381027 0.0117369285 -0.01141244 0.006209203 -0.00026970368 -0.024344957 -0.22729452
-0.20174752 0.4969319 0.30638555 0.1689049 0.1950173 -0.16448705 0.16167875 0.07234496
0.083745696 -0.103572294 0.105429344 0.084312096 -0.13964593 0.098472156 0.068371914 -0.036855612
0.020791383 0.04897199 0.13378753 -0.11397879 0.08270468 0.040359285 0.32367003 0.18310043
0.17324075 0.08372409 -0.06383949 0.08570089 0.056299232 -0.29876164 -0.14964315 -0.15527925
-0.056693975 0.051332667 -0.04379066 -0.06517974 0.38538858 0.18992163 0.1642968 0.109200336
-0.20247556 0.16410235 0.050071266 -0.3008749 -0.124961965 -0.091806404 -0.13775374 0.12438116
-0.10352143 -0.04488897 -0.10657256 -0.028215064 -0.04605674 0.09563386 -0.075292654 -0.004094532
0.040619772 -0.44663447 -0.14424452 -0.098092936 -0.05984611 0.027158916 -0.022235315 -0.023201616
-0.074720636 0.14010401 0.14614463 0.050710656 -0.06964651 0.031089725 0.04945453 0.07466201
0.021477511 -0.051838566 -0.08857251 -0.061265834 -0.067631066 0.0066534965 -0.15889397 -0.017973747
-0.04992472 -0.043550104 -0.12234799 0.084420025 0.015096716 -0.41813093 -0.25446084 -0.141695
-0.16460675 0.13892046 -0.13435176 -0.059474908 0.14495566 -0.06839945 -0.16631712 -0.13531372
0.1641489 -0.12843572 -0.09272952 -0.29903108 -0.16662171 -0.15988399 -0.09689979 0.0728883
-0.06975126 -0.061699264 0.47281256 0.38420728 0.2881223 0.12915546 -0.120466664 -0.015726145
-0.012939719 -0.083599776 -0.010313419 0.08886064 0.017755266 0.008042546 0.033327058 -0.0056243646
-0.5613305 -0.45366114 -0.34344798 -0.15170799 0.13667522 0.01554364 0.016460463 0.14797762
-0.071437046 0.0123255085 0.0766942 0.06069676 -0.06623261 -0.012294944 0.58138406 0.31169066
0.24459386 0.16308536 -0.12327615 0.13027568 0.06843215 -0.018772105 0.05005239 0.17750265
0.11506985 -0.065067515 0.10252227 0.033123977 -0.26992396 -0.062701456 -0.105356336 -0.09433322

dec1.fe.FC1.bias f4 [64]
00000000: 9bc8 9dbe a1c5 66be b3d2 c7be 2e53 94be
00000010: 5682 e53e f500 3bbe ddde 9fbe b589 a13e
00000020: fe04 a53e e9e4 4ebe dd14 f33e 77ed 0b3f
00000030: 1771 0abe 826c 6a3e 558d 9fbe 998a 93be
00000040: cee5 a83e 652e 823e f443 36be 870b d33c
00000050: 3f3d 32bd 5152 e73e a567 b53e 4a44 a7bc
00000060: f873 b03e 2cfd 643d 536e 103f 9ab6 7d3e
00000070: 0241 4a3e f196 8dbe 3f8e cc3d 2187 263e
00000080: f04c f5bd 0ee4 953e 4014 093e 6d79 acbd
00000090: 736d aa39 0a93 b0be afc8 bbbe caa0 bdbd
000000a0: fa96 52be d5f6 e43d 8531 a0bd 050d cdbe
000000b0: e45b 033e 0bc8 96be f27e a8be 0b5c cc3e
000000c0: becc acbe a6a0 59be bd01 b03e 49cd e2be
000000d0: 69d3 b63e a25e 833e 1986 d7bd 116b 2ebe
000000e0: 77b4 4dbe 0ef0 003f bf7b a3be c156 65bc
000000f0: 1253 e53e 9679 56be 5038 a6be 279b a83e
-0.30817112 -0.22536327 -0.39027938 -0.2896971 0.44826 -0.18262084 -0.3122472 0.31550375
0.3223037 -0.2020451 0.47476855 0.5465922 -0.13519703 0.22892955 -0.31162515 -0.2881668
0.32987827 0.2542602 -0.1779936 0.025762333 -0.04351544 0.4517999 0.35430637 -0.020418305
0.34463477 0.055905506 0.5641834 0.24776688 0.19751361 -0.27654222 0.09988069 0.16262485
-0.11977565 0.29275554 0.13386631 -0.08421598 0.00032506473 -0.34487182 -0.36676547 -0.09259184
-0.20565405 0.11179892 -0.07821945 -0.40048996 0.12828022 -0.29449496 -0.32909352 0.39913973
-0.33749956 -0.21252689 0.34376326 -0.44297245 0.35708168 0.25658137 -0.10523624 -0.1703303
-0.20088373 0.50366294 -0.31930348 -0.0139977345 0.4478994 -0.20944819 -0.32464838 0.32930872
