Lightcode/single/lightcode/jsac_results/N_3_3_d_16_16/snr2_100/seed_101/weights/gbaf_fy/T_4/pow_1/100000/0.001/K_3_m_3_snr1_3.0/model_weights120000.pt (torch, 38786 bytes, 26 tensors)

Tmodel.fe1.FC1.weight f4 [32, 6]
00000000: d495 19be 07d7 1cbd 33c3 1bbd 8882 123e
00000010: 2101 fb3d f1cc cf3d b94a 30bd 9ab1 2cbb
00000020: 7154 d23d d901 91be f326 d13d 8ec9 243e
00000030: f6dc 95bd af25 403e 911b 033e f596 31be
00000040: 9320 733e 2a8b 8c3d 75dc 07be f631 efbc
00000050: 1bcd 8fbe 23bf 96be 0a31 02be 7c88 e03b
00000060: 7ea4 803c 09f0 633e 22c4 9d3c 3f88 843c
00000070: bc28 9cbe b855 123d d2b3 07bb b510 8f3d
00000080: 866e 5bbe 8e97 59be e404 08be 8301 5fbe
00000090: 36d1 b03d 04d0 a4bd efa3 66bc f7e4 aabd
000000a0: 30d2 35bd f3e9 053e 9ff3 ac3d 58cd cf3c
000000b0: 4fb8 31bd 1709 463e 5d31 f03d 3376 5b3d
000000c0: 3eae 2a3e 336d 013e 0a0a 493e 16cd 143e
000000d0: 78dd 8e3e 741f 46bd f8a3 0fbe e3c0 16be
000000e0: 4a38 873d 4ff3 cf3d e1f7 6c3e 9701 853d
000000f0: 0fdf 493e 9e36 7dbe 04ef 443d 6247 603e
00000100: 712c 83bd ed9a 03be ab4b 8d3d b38f 2cbe
00000110: 2d1b 58be 875f b3bd 1ee1 63bd 1282 4bbd
00000120: f95e 2b3e 25f1 dc3d f8c1 93bd 9ab4 4e3e
00000130: 71fa 3fbe 4258 24be f1c4 3b3e 7dfc 583e
00000140: 6cb5 f53b 37d2 e43d 867a 8b3e 0c44 e33d
00000150: c0b8 293d 4da8 44be 771f ebbd 2d23 923e
00000160: d0f1 613e 2d5b 073e a666 713e 9dd5 6d3e
00000170: 7092 38be e021 5cbc 8b62 18be c1c2 043c
00000180: a0f4 20be c4dd 3abe 03bf 5fbe 7492 823d
00000190: 5eff 9bbe 9eee c13b c692 d5bd 7e40 67bd
000001a0: 0f8b 783d b7c9 d33e e634 f1bd c95e be3c
000001b0: 5084 f63d b974 e03d bded b4bb 90e6 733d
000001c0: 0e4c 6f3e 0518 0fbe dc7f 833e 0768 a83a
000001d0: ce3b 813e 0d88 3ebf 916c 98ba a7ad 49bb
000001e0: 9a83 0c3e 8db0 f9bd c125 edbd 30d6 17be
000001f0: d9e8 9b3e 9674 3d3e f9af 97bd 746c 98bd
00000200: 5bac 45be 2a78 893d b98d b23d 8100 58be
00000210: f048 62bd dd32 05be de25 513d 656a 85be
00000220: e1dc 873e 19ac 06bd 4d17 13bd 3610 26be
00000230: c6f3 c3bd 93d4 e33d dde3 69be 4b75 e6bd
00000240: f5d5 6dbc 3fbf 8cbe 7d81 34be 0356 c4be
00000250: e510 32be 78e5 80bd 723c 593e 7285 b6bc
00000260: 9777 323c 5624 f7be 322b 65bd 3c82 deba
00000270: d7ea 4f3e 2f84 0a3d 3248 aabc 10f5 9ebc
00000280: 8091 863e 5a96 8ebe 1d15 41bd a154 1a3e
00000290: 29ef 6c3e a2e1 8c3e f35a fd3d 1e59 0f3d
000002a0: 104e cb3d 3e6a de3d 13bb 873b a808 9e3e
000002b0: 0ca2 4d3e 47ce 9abd 505c 4dbe 4ee6 993e
000002c0: 9567 a23e b89e 8dbd b766 4bbe c4d8 e53c
000002d0: dea4 05be 3d93 2b3e f26a bf3c 2869 ef3e
000002e0: 79c5 1dbe 0a65 51bd f67d 41be 14c7 8ebe
000002f0: 1db8 d93d de5b 51be af4c 32be 9dfa 43bd
-0.14998561 -0.038291004 -0.038027953 0.14307606 0.12256075 0.10146511 -0.04304001 -0.0026350976
0.10270012 -0.28321722 0.10212507 0.16092512 -0.073175356 0.18764375 0.12803484 -0.17342742
0.23742895 0.06862481 -0.13267691 -0.029198628 -0.2808617 -0.294427 -0.1271402 0.0068522077
0.015703436 0.22259535 0.019258562 0.016178248 -0.30499828 0.03572628 -0.0020706546 0.069856085
-0.2142888 -0.2124922 -0.13283116 -0.2177792 0.08633654 -0.08047488 -0.014077171 -0.08344453
-0.044389904 0.13077526 0.084449045 0.02536647 -0.04338866 0.19339405 0.11728165 0.05357952
0.1666803 0.12639312 0.19632736 0.14531359 0.27903342 -0.04836984 -0.14027393 -0.14722018
0.06602533 0.10153829 0.23141433 0.06494444 0.19713996 -0.24727866 0.048079506 0.2190223
-0.06404961 -0.12852068 0.06899198 -0.16851692 -0.21104117 -0.08758455 -0.05563461 -0.04968459
0.16735448 0.10788182 -0.07214731 0.20186082 -0.1874788 -0.16049293 0.18336846 0.21190067
0.007498434 0.11172908 0.27241915 0.11096963 0.041435957 -0.19204827 -0.11480611 0.28542462
0.220649 0.13218375 0.23574314 0.23226018 -0.18024611 -0.013435811 -0.14881341 0.008103074
-0.15718317 -0.1824866 -0.21850209 0.0637559 -0.30468267 0.005918338 -0.104283854 -0.05645799
0.06067949 0.41364834 -0.11777668 0.023238556 0.12036955 0.10959763 -0.0055215047 0.059546053
0.23368856 -0.13974006 0.25683486 0.0012848385 0.2524094 -0.74426347 -0.0011629035 -0.003077367
0.13722077 -0.121918775 -0.115794666 -0.148278 0.30451086 0.18501505 -0.07406611 -0.07442561
-0.1930403 0.067123726 0.08718438 -0.21093942 -0.05524534 -0.13007684 0.051061504 -0.26057735
0.26535705 -0.03287897 -0.035910893 -0.16217121 -0.095679805 0.1112453 -0.22840829 -0.112528406
-0.014516343 -0.2748966 -0.17627521 -0.38346872 -0.17389257 -0.06293768 0.21214464 -0.022280429
0.01089277 -0.4826991 -0.055949397 -0.0016976069 0.20304428 0.033817466 -0.020786379 -0.019403964
0.26282883 -0.27849084 -0.047139276 0.15071346 0.23138107 0.27515894 0.12370863 0.0349971
0.099269986 0.10860108 0.004142174 0.3086598 0.20081347 -0.075588755 -0.20054746 0.3005852
0.31719652 -0.06915039 -0.19863401 0.028057463 -0.13051173 0.16755386 0.023366425 0.46759915
-0.15407361 -0.05112175 -0.18895707 -0.2788626 0.1063082 -0.20445201 -0.17412065 -0.047846425

Tmodel.fe1.FC1.bias f4 [32]
00000000: 31ba fa3c 7fef 17be f4b7 613e afe4 f7bd
00000010: 2856 64be 7e56 25be f582 3c3e 4fe1 1c3e
00000020: 04cf 333e 738b 95bd c060 efbd 3c83 d63d
00000030: 1968 4c3c b536 dabc f9e2 ce3d be49 30be
00000040: f8a9 79be 78a6 39be ba47 03bc f7cb 41bb
00000050: 5f3d 063e 077c 363d cce3 d83a 91f7 e43d
00000060: e7b4 e7bd 799e c83d 8d91 32be 0796 09bd
00000070: 0dbb 5c3c df93 3fbe 7a0b 603c 1d08 06bd
0.030606361 -0.14837454 0.22042829 -0.12104165 -0.22298491 -0.16146275 0.18409331 0.15320323
0.17559439 -0.073019885 -0.116883755 0.1047425 0.012475991 -0.026637414 0.10101885 -0.1721563
-0.24381244 -0.18129909 -0.008012706 -0.0029571035 0.13109349 0.044551875 0.0016547381 0.11180032
-0.11313801 0.09795851 -0.17438336 -0.033590343 0.013472331 -0.18708752 0.013674611 -0.03272258

Tmodel.fe1.FC2.weight f4 [32, 32]
00000000: 004a b5bd db23 adbd 7b85 a2bc c2e9 70bd
00000010: 2fec 9b3e 4e0c e13d 0ff6 c7bc 569a 923c
00000020: ab28 debd b5f7 12bc 31e8 3bbd bacc 42bd
00000030: 8d78 043c 6155 11bd db18 1a3e face 9d3d
00000040: b0e9 d33d 6ce4 513e 4480 8f3d 6b15 583d
00000050: 995e 293e 9e6f 76bd 6e85 c5bd acb7 023e
00000060: c6e2 6abd 7f04 97bd d628 c53d ebd6 813d
00000070: 72d8 0bbe 7fc8 09bf 3684 c2bd acd3 1fbe
00000080: 0036 463d 9d6f 18be f264 e8bd 229f 743c
00000090: ba17 0ebe 976b 73bc a3f1 bcbc 4a2e 2dbe
000000a0: 6243 57bd b2d7 133e e434 aebd 43df a6bd
000000b0: cca8 6d3d 2b72 9a3d efac debd b1ad 0f3e
000000c0: 53f4 983e 82d5 eabd 4cba 293e 7346 143e
000000d0: 7c8c 0a3b 8241 cabc 9339 b2bd e1f7 b33c
000000e0: ab5e 283c 2c3f 5fbe d0d0 4b3e 98cc a0bd
000000f0: 53ff 8e3c 0cc5 593d 3b27 793e 0756 dbbe
00000100: a02f 0f3b e26c 57be 1824 2cbe 84b5 1abe
00000110: 7de2 c3bd 7f60 833d 8597 813d 451a aa3d
00000120: bf59 58be b7cd 8fbe 6f5b 28be c688 053e
00000130: 4f81 3e3e 82b5 3d3d 60ab cbbd 8177 de3d
00000140: 5bee 6b3e 7db0 d4bc b89f 4bbd 7780 4abf
00000150: 20b6 1ebe 9473 093e ad08 06be 5ded 01bd
00000160: 3963 883d 9dcd 5abd 9ee9 703d 914d ae3e
00000170: b64e 01be bcbc 433e 5ece ecbd 40f2 8abf
00000180: c2f3 ad3d 80a1 1b3e 982a 4a3d 61db 1cbc
00000190: 0e1a b0bd d2d3 10be a25c 8d3d c491 673d
000001a0: 10ba 1bbe cc93 68be 85f5 c1bc 55a6 bb3d
000001b0: 3784 373e 9251 d5bd 2426 7b3d f978 33be
000001c0: 4956 d53b d7e6 83bd e187 083e 0131 abbd
000001d0: fb12 133d cd3a b3bd 3254 803e 89f2 bbbd
000001e0: 4da3 863e 3953 8ebe 4906 d7bb 5847 febe
000001f0: de11 8abb dedc e03d 9394 cf3d 576e 1f3e
00000200: 062a 783d 65a5 ec3d d11f f53c 2d30 dd3d
00000210: a760 f33e 264e de3d 323c 9bbd a921 223d
00000220: a949 243e 5bfc 143d 3087 babf 77d9 83be
00000230: 0302 a2be 7fd8 cdbd a1ae 7cbe 748d 2fbf
00000240: 4c95 53be 39fa f73e 0013 6b3d 383d 99bc
00000250: 5378 0cba 5552 0bbe baa8 533d 8a1f bb3c
00000260: 79dd 923e b0cb 0bbf 93ac 063e 9313 0c3e
00000270: 53bf 6cbe da9f cbbe 02ba 97bd 6959 cdbd
00000280: 243b 3abd 7202 a33e 4906 dabd efb8 b9bd
00000290: 8940 fcbd b53c 50be c8f4 183e 748c ccbc
000002a0: 13d9 523d 3af3 a93d bfd2 8c3b b62b 123d
000002b0: 156d 333e 5f3d 46be 6639 9b3c 3ef2 a4be
000002c0: c7dd a4bd 54a7 593e b25b 003c adf6 403d
000002d0: 8ed6 a3bd fa47 de3b f389 353e 5bb4 653d
000002e0: 8f39 843c d56b 863d 70c5 a7bd 9271 593d
000002f0: fbab 90be b074 88be f01a 9a3b 06b0 b13d
00000300: 2627 69bd 63a3 693e 9d26 da3d 508b b13d
00000310: 9d24 f1bd 3356 f43c 1cf7 3e3e 7fbc c6bd
00000320: c6c7 013e e826 7fbd 200c 953d 9d76 2bbe
00000330: 2c5c 91be d727 90bd b7ec d5bd 99e3 ffbe
00000340: 9b52 c7bc e5de d13d bc46 ecbc b457 dcbd
00000350: db27 61bb cc54 e6bc 3ecd ea3d 1f74 8b3d
00000360: 5390 893e 3dbe 70be 8ee0 a4bd 2164 623e
00000370: 0e4c 1abe d83a d6bd 1690 293e 03b2 aebc
00000380: 4f41 783e 38db 6c3d 9e4e 98be 9e4d 3cbe
00000390: 2ce7 23bd 7d79 a0bd 0081 fcbb 4fa6 66be
000003a0: ce75 dabc 1f12 923e 2490 debd 272d 233e
000003b0: d541 833c 796a b83d e945 cd3c 59a8 243e
000003c0: 938f 833d 4479 6dbc 47c0 61be 2930 2d3d
000003d0: 284e e8bc 7c14 a53b d769 413e e18d bb3d
000003e0: 4642 53be 61fa 473e ced8 7abe f08e c2be
000003f0: e283 2a3e 4f1e 8b3d 162d 8fbc c58d cabd
-0.08852005 -0.084541045 -0.01983904 -0.05881668 0.3045363 0.10988675 -0.024409322 0.017895859
-0.108476005 -0.008970191 -0.04587573 -0.047558524 0.008085382 -0.035481814 0.15048544 0.07705493
0.10347307 0.20497292 0.070068866 0.0527548 0.16539992 -0.06016504 -0.0964459 0.12765378
-0.057345174 -0.073739044 0.096269295 0.063398205 -0.13656786 -0.5382156 -0.094978735 -0.1560809
0.048391342 -0.14886327 -0.11347379 0.014930518 -0.13876238 -0.014857194 -0.02306444 -0.16912189
-0.052554496 0.1443775 -0.08506182 -0.081480525 0.058022305 0.07541307 -0.10872828 0.14031102
0.29873905 -0.11466505 0.16574973 0.14479999 0.0021140864 -0.02468944 -0.08702388 0.021968784
0.010276477 -0.21801442 0.19903874 -0.07851523 0.017455732 0.053166434 0.24331371 -0.4283907
0.0021848455 -0.21037629 -0.16810644 -0.15108305 -0.095646836 0.064148895 0.06327728 0.08305792
-0.21127985 -0.28086635 -0.16441129 0.13040456 0.18604015 0.046315677 -0.099447966 0.10862637
0.23040144 -0.025963062 -0.049712867 -0.7910227 -0.15499163 0.13422996 -0.13089247 -0.031720508
0.0665955 -0.053418744 0.058816545 0.34043553 -0.12627682 0.19114965 -0.11562799 -1.0855179
0.08493759 0.15198326 0.049357027 -0.009573788 -0.085987195 -0.14143303 0.06902434 0.056535497
-0.15207696 -0.2271263 -0.023676643 0.09162585 0.1792153 -0.10415949 0.06131567 -0.17526616
0.00651053 -0.064405136 0.13333084 -0.08358956 0.035906773 -0.0875145 0.25064236 -0.09177119
0.26296464 -0.2779787 -0.0065620285 -0.49663806 -0.0042135557 0.10979627 0.1013576 0.15569435
0.06058695 0.11554984 0.029922398 0.108002044 0.47534677 0.108547494 -0.07579841 0.039582882
0.16043724 0.036373477 -1.4572506 -0.2575185 -0.3164216 -0.10051059 -0.2467599 -0.68575215
-0.20662421 0.48433092 0.057391167 -0.01870595 -0.0005358506 -0.13605626 0.051674582 0.022842187
0.28684595 -0.5460768 0.1315177 0.13679342 -0.2311986 -0.39770395 -0.07408525 -0.10026819
-0.045466557 0.31837803 -0.1064573 -0.090684764 -0.123169966 -0.20335658 0.14937127 -0.024969317
0.05147655 0.08298345 0.004297584 0.035686217 0.1752208 -0.19359349 0.018948268 -0.32216066
-0.08050113 0.21255237 0.007834362 0.04711025 -0.079999074 0.0067834826 0.17728405 0.056080204
0.016140727 0.06563536 -0.08191955 0.053086825 -0.2825621 -0.26651525 0.004702918 0.08676152
-0.0569221 0.22816233 0.10651896 0.0866915 -0.117745616 0.02982626 0.18648952 -0.097039215
0.12673864 -0.062292963 0.07277703 -0.16744466 -0.28390634 -0.07038849 -0.104455404 -0.4997833
-0.024331382 0.10247592 -0.028842323 -0.107589155 -0.003435603 -0.028116606 0.11464928 0.06809258
0.26867923 -0.2351007 -0.08050643 0.22108509 -0.15068075 -0.10460442 0.1655887 -0.021325117
0.24243663 0.05782625 -0.2974748 -0.18388984 -0.040015385 -0.07835672 -0.0077058077 -0.22524379
-0.026667502 0.2852945 -0.108673364 0.15935193 0.016022602 0.09004683 0.02505775 0.16079845
0.06423869 -0.014494244 -0.22046004 0.042282257 -0.02835758 0.0050378423 0.18888031 0.09157921
-0.2063075 0.19529106 -0.24496767 -0.37999678 0.16651872 0.0679289 -0.017477553 -0.09890322

Tmodel.fe1.FC2.bias f4 [32]
00000000: 4811 f43c 9a2c 41ba d2a7 803d 3d57 49bd
00000010: 0a41 b53c 7930 b93d d1bd 99bd a68d 00bd
00000020: 6330 d43d 4648 92bd 9362 15bd 78a4 4dbd
00000030: f1fa 023d 2cd0 48bc f827 683d 80c7 8d3d
00000040: f109 cb3c 14c9 8c3d f044 673c 3e22 c3bc
00000050: 7988 bbbc 2adc d2bb 21ba b7bc 5b6a 933c
00000060: fd8c 14bd 6039 3abd 1d20 eb3c 30ea e0bc
00000070: 88c9 a8bd 6a9e 17bd dfae 223d 9559 643d
0.029793397 -0.0007369012 0.06282009 -0.049155463 0.02212574 0.090424486 -0.07506908 -0.031385086
0.103607915 -0.07142691 -0.03647096 -0.050205678 0.031977598 -0.012256663 0.056678742 0.06922817
0.024785014 0.0687429 0.014115557 -0.023820039 -0.022892224 -0.006434937 -0.02242762 0.01799505
-0.03626727 -0.045464873 0.028701836 -0.02745542 -0.08241564 -0.03701631 0.03971755 0.055749495

Tmodel.fe1.FC3.weight f4 [32, 32]
00000000: 63d6 c93d c4ae 4dbd 427e 0a3e 76a7 693d
00000010: 2d13 3bbd a48b 98bc 11a4 963c a982 5a3e
00000020: 6700 e8bd ffec e03d 0c96 5bbd 1931 63be
00000030: 4262 2c3e 15af dc3e 5c44 5bbe 4c06 18be
00000040: 6e21 173e bfe4 433e 998f 95bd c3dc a1bc
00000050: 1ff9 093e 805f a43d bf95 16be 119e 77be
00000060: 9ac7 59be ae9f 08be 8768 9bbd 44e8 9dbd
00000070: 42ed 2e3e c989 b93e 136a ed3d 1f15 6b3c
00000080: 23a8 d13a 1258 d4bd 86c4 003e 25fa 7e3e
00000090: cdad 803e 3e79 a33c 5623 523e 4518 83bd
000000a0: 487d d7bd 8b18 a13d cae3 4bbe 8cfa ec3c
000000b0: 3e4e ae3d ae49 3d3e 2560 5cbe 21ac 94bd
000000c0: 08f7 dc3e 6eed 4e3e 78d0 86be cfee 11be
000000d0: 9c90 e13d b774 0e3e b309 78bd 4009 0d3e
000000e0: 5dd0 24be 4d59 a2be 75d3 1bbd c528 fa3b
000000f0: b10b e73d 775d 5e3e 01c7 35bc 57ee 273d
00000100: da4e 8ebd 31af 093c 1875 a4bd 9adc 9bbd
00000110: 79da 3dbd d3a8 2c3d 4a5b 9ebd 66e0 03be
00000120: 9bc3 683d e6c1 cdbd eb2c 573d 527c af3d
00000130: 3704 ccbd 56eb a1be 7be2 3b3e 589f 033e
00000140: 14b5 41be c0a7 29be 54be 223e 9f56 c7bc
00000150: b599 a8bd 9ff3 e0bd d5a0 083e 2d1a 2c3e
00000160: 59c5 323e 74d1 633e 28c6 8a3d 160d e93d
00000170: 2d61 30be e9ff 99be 92bb bbbd c78d 42bd
00000180: c2ea c5bc 7851 293c 48f2 15be 133b cebc
00000190: 8ae4 27be a3fc 393e 65a7 1fbe e24a cbbd
000001a0: a92e 52bc f3e9 3cbe 6a1a 973d 54c2 8e3e
000001b0: 7a36 6cbe f8f8 0ebe 845f 4f3e 31cc 923e
000001c0: a53c 28be 063f 073e fa7f 8ebe 0050 ffbc
000001d0: 33b8 563b f304 c9bd d3cb 953d f1c6 a0bd
000001e0: 5a44 d53e b202 aebc a61e 803e 097f 5c3e
000001f0: 69f5 7ebe 2e10 59be 57c3 403d fac9 13be
00000200: 7374 7ebd 8d8c 753d 00ab 13be 9abc 66bd
00000210: 96d2 33bd bbca 7d3d d24f f3bd 5d97 04be
00000220: 242e be3d 4703 02be 1fa1 d33b ed19 083e
00000230: a016 7abd 745e bcbe d2f0 f73d f79a 433e
00000240: 1a82 02be 217e 72bd 5483 9e3d f25f 6f3d
00000250: 3ae4 87bd 8c2a 09be 62da 143e cdd1 683e
00000260: 408b 8b3e aa0b fb3d c217 073e 7862 0b3e
00000270: c7c1 59be 7689 42be 6d45 75bd 2dd9 4abd
00000280: 47a8 513d 2a11 e0bd 9b3e 403e 3fcd 093e
00000290: 8bcf 733d 332c c7bd 2ccc c33d cf1f 983d
000002a0: 1486 41bd 20c3 003e aa46 b5bd c41a 5bbe
000002b0: 0058 163e 01c0 c23e b375 3cbe 88e0 6fbe
000002c0: b0a3 c63d a361 623d c912 f13c 7945 25bd
000002d0: 50fc 803d 6a9f e63d fa93 fdbd abc6 efbc
000002e0: f71e 8cbe c723 12be 5699 23be a664 15be
000002f0: bff6 6b3e 3b9f 8d3e 6861 c23d d39e d83d
00000300: e7d4 cdbd 62bd a63d e97a 4dbd 153d fdbd
00000310: bd8d 46be 746a 943d 6ef9 69be 7a1e 40be
00000320: eeae 953d cb02 19be 7384 cc3d 46d4 143e
00000330: f6f0 f7bd e96f 8ebe 92ab 263e 9bd7 583e
00000340: 7f19 bdbd fce2 c7bd c363 023e 167c e23d
00000350: baba fbbd 2514 21be 5038 043e fa9e 8b3d
00000360: a5b6 863e 561c 293e e261 003e 12a7 c73d
00000370: 4e80 f5bd f13e 41be a39b 27bd 738c 9dbd
00000380: 8462 90bd 30bb bd3d 271f 13be c0f1 5dbe
00000390: 6ff8 4f3c e729 523c d790 c1bd c8a5 37be
000003a0: 15ad 0f3e 0685 a4bd e07e ec3d 5c31 cf3d
000003b0: 9c09 523c 63cb 8abe 1406 c53d d53f b73d
000003c0: aee1 27be 9e95 4bbe 38f0 5f3e 96c0 feba
000003d0: 2e66 52be 0bd8 ddbd eef3 5c3e 15cd c23e
000003e0: 44d6 2d3e 4401 843e 4f18 39bd b2db d53d
000003f0: f886 dabd 2812 a8be 0a77 bfbd a227 083d
0.09855344 -0.050215498 0.13524726 0.05704447 -0.045672584 -0.018621273 0.01838878 0.21338905
-0.11328202 0.109827034 -0.053609893 -0.22186698 0.16834357 0.43102327 -0.21412796 -0.14846152
0.14758846 0.19130228 -0.0730278 -0.019758588 0.13473938 0.08026028 -0.14705561 -0.24181391
-0.21267548 -0.13342163 -0.075882964 -0.07710317 0.17082694 0.36237934 0.11592498 0.014348297
0.0015995543 -0.103683606 0.12574968 0.2490011 0.251326 0.019955274 0.20521292 -0.064011134
-0.105219424 0.07866009 -0.19911113 0.028928064 0.08511017 0.18485138 -0.21521051 -0.072593935
0.4315722 0.2020776 -0.26330924 -0.14251254 0.1101391 0.1391171 -0.060556125 0.1377306
-0.1609511 -0.31708756 -0.038043458 0.0076342546 0.11281527 0.21715342 -0.0110948095 0.040998783
-0.069486335 0.008403585 -0.08030146 -0.07610436 -0.04635093 0.04215319 -0.07732256 -0.1287857
0.05682717 -0.10046749 0.05253307 0.08568634 -0.099617414 -0.3162486 0.18348114 0.12853754
-0.18916732 -0.16567898 0.15892917 -0.024333296 -0.08232442 -0.10983967 0.13342603 0.1680686
0.17458095 0.22247869 0.067760766 0.11379449 -0.1722457 -0.30078056 -0.091666356 -0.04749849
-0.024159793 0.010334365 -0.14643204 -0.025174653 -0.16395774 0.1816278 -0.155912 -0.09926392
-0.012828507 -0.1844862 0.07378085 0.27882636 -0.23067656 -0.13962162 0.2025128 0.2867141
-0.16429384 0.13207635 -0.27832013 -0.031166077 0.00327636 -0.09815397 0.07314267 -0.07850445
0.4165371 -0.02124152 0.25023383 0.21532835 -0.24898304 -0.21197578 0.04706129 -0.14432517
-0.062122773 0.059948493 -0.144207 -0.05633221 -0.043902002 0.061960917 -0.11880459 -0.12948366
0.092861444 -0.12696563 0.006458416 0.1329114 -0.061056733 -0.36790812 0.1210648 0.19102083
-0.12744942 -0.059202317 0.077398926 0.05844111 -0.06635328 -0.13395137 0.14536431 0.22736283
0.27254677 0.12258084 0.13192657 0.13611782 -0.21265326 -0.1899775 -0.059880663 -0.04952352
0.051185872 -0.10940774 0.18773882 0.13457201 0.0595241 -0.09725227 0.09560427 0.07427942
-0.047247007 0.12574434 -0.08851369 -0.21396929 0.14682007 0.38037112 -0.18404274 -0.23425496
0.0969919 0.055268895 0.029427903 -0.040349457 0.06298125 0.112608746 -0.1238174 -0.029269537
-0.27367374 -0.1427146 -0.15976462 -0.14589176 0.23043345 0.27660546 0.09491235 0.10577168
-0.100503735 0.08141591 -0.050166044 -0.12365166 -0.19390006 0.07246867 -0.22849056 -0.18761626
0.07308756 -0.14942472 0.099862 0.14534101 -0.121065065 -0.27819756 0.16276386 0.21175997
-0.092333786 -0.09760091 0.12733369 0.11058824 -0.12291475 -0.15730341 0.12912107 0.06817432
0.26311222 0.16514716 0.1253734 0.09748663 -0.11987363 -0.18871666 -0.04091991 -0.07692804
-0.0705004 0.09264219 -0.14367352 -0.21674252 0.0126935085 0.012827373 -0.09451454 -0.17934334
0.1403087 -0.08033185 0.11547637 0.101168364 0.012819674 -0.27108297 0.096203 0.08947722
-0.16394684 -0.19881293 0.2186898 -0.0019436057 -0.20546791 -0.108322226 0.21577427 0.3804709
0.16976267 0.25782216 -0.045189198 0.10442294 -0.106702745 -0.32826352 -0.09348877 0.03324092

Tmodel.fe1.FC3.bias f4 [32]
00000000: e6e2 1ebd 2c55 56bc 29aa ef3c 9c93 513a
00000010: e225 4a3c a91c bbbc 3502 ae3c 4131 8f3c
00000020: 2018 46bc bd64 b2bc a662 f73c 3471 ae3c
00000030: 988b 7b3b 2683 acba 6d37 c53c d2ef d93c
00000040: 7aae e1bc e899 44b9 a7fa 11bd 460f cc3c
00000050: 6275 0fbd 1249 1f3c aa06 063c 59fd ecbc
00000060: 57a1 6fbc 96f0 823c e818 8a3c 2602 22bd
00000070: fc9b d6bb 2854 703a 922b efb9 9c57 20bd
-0.038790606 -0.01308183 0.029255943 0.0007994713 0.0123381335 -0.022840815 0.021241287 0.01747954
-0.012090713 -0.021776551 0.030198406 0.021294214 0.0038382765 -0.0013161644 0.02407428 0.026603613
-0.027549017 -0.00018749351 -0.03563943 0.024909627 -0.035024054 0.009722011 0.0081803 -0.0289294
-0.014625869 0.015983861 0.01685758 -0.03955283 -0.0065493565 0.00091678137 -0.00045618095 -0.03914605

Tmodel.fe1.FC4.weight f4 [16, 64]
00000000: 5f17 f73c 279b a03d a875 b03c 6672 be3c
00000010: 14f4 123b f9e5 ac3c cc22 18bb 6d26 c33b
00000020: ece2 3bbd 7d37 6ebd 0005 06bc ae11 933c
00000030: b388 be3c cb22 9abd 9c30 623d 8c2d 01bd
00000040: 9fbb 293d c268 c73d bf03 93bd 04b7 42be
00000050: d37f 8f3e f8bb 81be cbee acbe 801d 01be
00000060: 2095 523d 15b3 30bd f206 aa3d 3f60 6d3b
00000070: a433 aebc 8e8e fbbd fa13 7c3c b09d 8b3d
00000080: 89cb 17b9 6470 ec3c 39b7 83bc ccb0 e43b
00000090: 9072 49bd 24d8 de3c b7fc 593d b533 ff3c
000000a0: 55b2 453d cf7a f73c 3329 9a3d 6c18 483d
000000b0: 7f0c a4bc 18be 9bbc 011a 3d3d d9b8 d13c
000000c0: 467e a73c 7884 4d3c 8412 1e3d 164b ecbc
000000d0: 12c9 b4ba 5748 a13d 35b5 0b3c 45b3 a33c
000000e0: cba4 213d 7f07 ebb7 1bdb d33c b616 25bd
000000f0: e163 cebc 00fc ce3c 64dd 94ba 7995 4b3d
00000100: e036 01bd 641d 6f3e 4e03 4cbd a8cb 99be
00000110: e734 4e3c 286f 713e 7132 c83c ac33 673e
00000120: bfb5 afbc 0d61 f1bd 877a 753e 4e6b 133d
00000130: f847 bfbd 6d6b 8ebd bb42 18be 39b9 2f3e
00000140: c725 493f 60bd 0a3f 268c 0abd 13da 61bf
00000150: 2d65 0a3f 2dfe cabe bb95 23bf f57d ba3f
00000160: dd1f 613d ac77 ae3e f449 053c 30b5 103f
00000170: 78e2 8a3c b14a cb3e 9d6f 96bd bab6 5abd
00000180: 0482 1ebd 5fda 2fbe e578 2bbd a9c3 013d
00000190: 2a30 b2bd e57c 433e 13ac 3ebe 1157 7abd
000001a0: 6bb9 ba3d 9e99 353d 289d e13d afa2 a13d
000001b0: a65a 3e3d e005 23be f40b a0bd d30f b2bd
000001c0: 2e52 b7bb 8331 9a3b 441a 1b3e 01ea 87bc
000001d0: dd31 1dbe 92aa 933e 7220 033d f21a f23d
000001e0: 68bc c4bb 3b8a d9bd 96fe 833e 8be8 fa39
000001f0: 60b2 41bc 1663 ffbc 6c3c ffbb 5d10 a2bc
00000200: 0371 983d 1c6d 15be 20f8 13bd 19dd 8dbd
00000210: d2f2 abbd dc54 d13d 59bc b83d 8053 55bd
00000220: d802 d53d 2df7 80bd 9323 91bd 845c b7bd
00000230: 4608 78bd daae 753d ed7e 6e3d a42e 4a3d
00000240: febc 803e ab74 c43e 55d8 fe3c 5591 49be
00000250: 3222 f83e 91b6 56be c6c9 793e 3702 92be
00000260: 5c90 643e 8f70 20be 8dbf 00bd 78a3 7f3c
00000270: b3d0 5dbd 068f f3bb 69d9 fbbe 8035 e13d
00000280: 9971 0cbd 0ba0 b03b e622 8ebd 455a a7bc
00000290: 0d8b 9abd 5342 5fbd 756a ee3d 3913 473d
000002a0: 7351 f3bc 7529 ca3c 7fe9 f33d 6b5a 883d
000002b0: 7a14 8d3d 5ba5 a3bd becb 2a3c 55a6 89bb
000002c0: f7df 9c3c 1990 393d 071a abbd 5559 ccbc
000002d0: 539d 9bbc d413 5f3d 2d1b c3bb 0e81 b03d
000002e0: 5d68 5b3d dfcf 383b 5846 a4bc 0ab1 343c
000002f0: 28ff bbbc e035 8bbd 3c89 1dbd dce7 93bb
00000300: d2a8 043e cef3 933e d5f5 03be 37d2 043f
00000310: 804e a53d aff3 36be a343 d83b 5b9f a9be
00000320: 49ee ddbd 0f2b d9bd 9d65 53be 2894 393d
00000330: 4af5 293d dd8f 99bd bb37 32bd 4c64 e0be
00000340: b9ad 86bf 6002 c4be 04c9 ae3d bfd0 f1be
00000350: fcd3 9fbe 3382 29be 4640 53bf eb88 89bf
00000360: 4487 b93e fdc2 2ebf 89f9 913d d23c f2bd
00000370: bdcd 523d f519 40bf 2e3a e93d 72a7 0cbe
00000380: 23d8 993c 9b9d d33c c945 5cbc 2e12 613d
00000390: 3054 8abe fb66 8abd e2b0 303d fe21 443d
000003a0: b9e6 243b 561e c63d 4f25 28bc be14 e33c
000003b0: f992 4dbd 80cd a9bc ce87 203d 97e2 1bbd
000003c0: 7e89 ab3c b90a 54bd 856c a83b 1d8d b53d
000003d0: 749f 2a3e f116 85bd 1b1a aa3d a027 843c
000003e0: 3653 d33d 8687 5e3d bb9e e4bd 7163 98bd
000003f0: e221 b3bc 9b62 a3bd 68b6 dcbd 47a6 1d3d
0.030162511 0.07842093 0.021540478 0.023247909 0.0022423314 0.021105753 -0.00232141 0.0059555084
-0.045870706 -0.058158386 -0.008179903 0.017952766 0.023258543 -0.075261675 0.05522214 -0.031537578
0.041438695 0.09736778 -0.07178449 -0.19015127 0.2802721 -0.2533872 -0.33775935 -0.1260891
0.051411748 -0.043139536 0.08302106 0.0036220697 -0.021264859 -0.122830495 0.015385622 0.06817186
-0.00014476305 0.028862186 -0.016078578 0.0069790836 -0.04918152 0.027202673 0.053219523 0.031152586
0.048265774 0.030209927 0.075273894 0.048851416 -0.02002549 -0.019011542 0.046167377 0.025600838
0.020445954 0.01254379 0.038591877 -0.028844398 -0.0013792834 0.07875126 0.00852709 0.019982943
0.0394638 -2.8017674e-05 0.025861314 -0.040304862 -0.02519411 0.025266647 -0.0011357483 0.049703095
-0.031546474 0.23351055 -0.04980784 -0.3003819 0.012585855 0.23577559 0.024438115 0.22578305
-0.021448968 -0.11786089 0.23972522 0.035991006 -0.09339899 -0.069540836 -0.14869206 0.171605
0.7857327 0.54195213 -0.033825062 -0.8822338 0.5406063 -0.39647046 -0.63900346 1.4569689
0.054962028 0.34075677 0.008135308 0.5652647 0.016953692 0.39705423 -0.07345507 -0.053396918
-0.03869821 -0.17173146 -0.04186334 0.031680737 -0.08700593 0.19090612 -0.18620329 -0.06111819
0.09117397 0.044335954 0.11016303 0.078923576 0.046473168 -0.1592021 -0.0781478 -0.086944245
-0.0055945134 0.0047056093 0.15146738 -0.016591074 -0.15351053 0.28841072 0.032013364 0.11821546
-0.006003905 -0.106220685 0.2578017 0.00047856974 -0.011822313 -0.031175178 -0.0077891853 -0.019783193
0.0744343 -0.14592403 -0.036125302 -0.06926937 -0.08395924 0.10221264 0.090202995 -0.052081585
0.10400933 -0.06297145 -0.07086863 -0.08953193 -0.060554765 0.059981205 0.058226515 0.049360886
0.2514419 0.3837026 0.031109015 -0.19684346 0.4846359 -0.20968081 0.24393377 -0.28517315
0.22320694 -0.15667938 -0.031432677 0.015602939 -0.05415411 -0.007432821 -0.49189308 0.109965324
-0.034288023 0.0053901724 -0.0694025 -0.020428786 -0.07546053 -0.05450661 0.11641399 0.048602317
-0.029701924 0.024677971 0.1190977 0.06657871 0.06888671 -0.079905234 0.0104245525 -0.0042007365
0.019149764 0.045303438 -0.08354574 -0.02494494 -0.018995916 0.05446227 -0.0059541673 0.08618365
0.053566325 0.0028200073 -0.020053074 0.0110285375 -0.022948816 -0.06797385 -0.038460955 -0.004513724
0.12955025 0.28896946 -0.12886746 0.5188326 0.08071613 -0.17866395 0.00659986 -0.3312939
-0.10836465 -0.10603916 -0.20644231 0.04530731 0.04149369 -0.07498143 -0.04351018 -0.4382652
-1.0521766 -0.38283062 0.085344344 -0.47229573 -0.3121642 -0.16553573 -0.8251995 -1.0744909
0.36236012 -0.6826628 0.07127673 -0.11828007 0.05146574 -0.7503961 0.1138805 -0.1373575
0.01877982 0.025831988 -0.013444372 0.054948978 -0.27017355 -0.06757923 0.04313744 0.04788398
0.0025161935 0.09673755 -0.010262801 0.027719852 -0.050188992 -0.020727873 0.039192013 -0.03805789
0.020939585 -0.05176804 0.0051398897 0.08864806 0.16662389 -0.06498516 0.083057605 0.016132176
0.103186056 0.054328464 -0.11163088 -0.07440842 -0.021866743 -0.07977792 -0.10776979 0.038488653

Tmodel.fe1.FC4.bias f4 [16]
00000000: aaad f0bc b0b9 b5bc a3bb 01bd 8c91 d9bc
00000010: 4425 383d c36c c9bc e1c0 5bbb 5233 efbc
00000020: 5cd1 123d aaa0 63bc a1f3 cc3d 46f5 e2bc
00000030: ada8 05bd 8396 86bc af8a 463c 6dc5 e53c
-0.029379684 -0.02218327 -0.031673085 -0.02655866 0.044957414 -0.024587994 -0.0033531713 -0.029199276
0.035844192 -0.013893286 0.10007406 -0.027704846 -0.032631565 -0.016429191 0.012118026 0.028048242

Tmodel.norm1.weight f4 [16]
00000000: 0400 693e ac8f efae e894 873e 030b c0ad
00000010: 8dc5 e63e c964 fb3e 1189 c23e 0fd1 fc3e
00000020: da07 e13e 879c d63e f48e b33e fb54 7e3e
00000030: 4fed a13e a410 b93e ea63 cc39 19bb 083f
0.22753912 -1.0893983e-10 0.26480794 -2.1832763e-11 0.45072594 0.4910033 0.37995198 0.4937825
0.43951303 0.41916296 0.35070002 0.24837105 0.31626365 0.36145508 0.00038984354 0.5341049

Tmodel.norm1.bias f4 [16]
00000000: a037 06bd 8023 d639 2bdd a6ba 16ff 5b39
00000010: 23f4 87bc 0d5c 993c 23de fe3c 1ae3 19bd
00000020: ac8b 093d 6163 c5bd 227b edbc 6bf4 fdba
00000030: 2686 4fbc 0aa5 a3bd e0f5 3f3c 12e6 9f3d
-0.032767892 0.0004084371 -0.0012730708 0.00020980494 -0.016595906 0.018720651 0.031111782 -0.037570097
0.033580467 -0.09638096 -0.028989378 -0.001937521 -0.012666261 -0.07990463 0.011716336 0.07807554

Tmodel.out.weight f4 [1, 16]
00000000: 4d99 c7bc ccde e1ae 9d05 0bbd 1d19 bfad
00000010: 2319 3abe a107 6c3e 7505 df3d 6875 63be
00000020: 8b66 0d3e af61 203e 451c 90bd 85ac d8bc
00000030: 75ca 76bd 2267 d43d 1250 cb39 c350 87be
-0.024365092 -1.0271392e-10 -0.0339409 -2.1725339e-11 -0.18173651 0.23049785 0.10889713 -0.22212756
0.13808648 0.15662263 -0.07036642 -0.026449451 -0.06025167 0.103712335 0.00038778834 -0.26428804

Rmodel.fe1.FC1.weight f4 [32, 4]
00000000: a860 5bbe e0e6 9cbd 3299 5c3d e095 8a3d
00000010: 851f 303e 0fff 15be a985 8d3d e90e 843d
00000020: c767 babe 0241 4bbd 63e0 363d 418f 053d
00000030: c687 fd3d e76b cdbe 5ab2 42ba 4929 31ba
00000040: 5b84 313e 53ef c2bd 5d0e c03d 47f1 47bd
00000050: bd8e caba 9072 97be 9901 1fbe c27e 5fbd
00000060: a1c5 a13e e927 c5bd 2077 0c3e 2116 563d
00000070: f5b0 993d 70c4 a2be bfee 05be a72c ecbc
00000080: 56f0 5f3e 0c06 9ebc 9c49 063e 9235 8c3d
00000090: bcbc c0be 8ba3 47be cad6 43bd 1b1f 1d3a
000000a0: 150a 893e a049 923d 78a3 cfbd aa05 86bd
000000b0: 4193 c63e 3766 20be a0f1 2ebc eeda f1bb
000000c0: 0cb8 6e3e e73f 0d3e ab4d 663d ce40 14bd
000000d0: 3b91 61bd 707d 4cbe a12b 543d c756 003c
000000e0: 2f6e 6cbe 68b0 743e d5cf a6bd 558d d6bc
000000f0: be36 86be 74cd 1c3d 76d6 383e 0077 c83c
00000100: 70e1 febc 1fdd b6bd 11ac 553d a15d b2bd
00000110: 7206 01be 1431 5abe fddd 0dbe 5409 87bd
00000120: 5558 01be 3e19 88be cecc febd 2487 213d
00000130: 2b50 4b3e 8b05 033e 6065 aabd 3f92 873d
00000140: 2d5a 51bd f728 b63e 4254 c93c 2273 16bc
00000150: 275f 8d3d df5e 623e d402 723b ac4d a7bb
00000160: 2c79 9cbe de69 29be 82bd c3bd e9a0 3cbd
00000170: 869c ba3d 20cc b03e c8a2 143e 3673 9b3d
00000180: 8479 2f3d a063 4abe afa3 83bc a694 81ba
00000190: c3b7 353e 49da bf3c 760c b93d 84cc dfbc
000001a0: bba7 183f f3c2 073d 44a7 3f3c cd6a 8d3b
000001b0: aa13 e9be af9e ce3d 81dd 463b ae56 653b
000001c0: 168b 6b3e 09a9 7d3e 6b41 133e 37cb 233d
000001d0: 4f1d 103e 32b1 973e 41f8 0a3d d091 413c
000001e0: 7683 0bbe a5a8 0fbe edf5 613d d092 543d
000001f0: c792 fa3e 823a 7dbc 5cd6 083d ec45 2e3c
-0.2142359 -0.076612234 0.053857036 0.06766868 0.17199524 -0.14648078 0.06910259 0.064481564
-0.364073 -0.049622543 0.044647586 0.03260732 0.12379412 -0.40121385 -0.0007427089 -0.0006758166
0.17335646 -0.09518304 0.093777396 -0.048814084 -0.0015453916 -0.29579592 -0.15527953 -0.054564245
0.3159609 -0.09626753 0.13717318 0.052267198 0.07504455 -0.31790495 -0.13079356 -0.028829886
0.21869025 -0.019289993 0.13114017 0.06846155 -0.37643993 -0.1949598 -0.04781226 0.000599371
0.26765504 0.07142949 -0.10138601 -0.06544049 0.3878422 -0.15663992 -0.010677725 -0.007380835
0.23312396 0.13793908 0.056226414 -0.036194615 -0.055070143 -0.19969726 0.05179942 0.007833189
-0.23088907 0.23895419 -0.081451096 -0.02619044 -0.2621364 0.038281873 0.1805056 0.024470806
-0.031113356 -0.08928894 0.05216605 -0.087092645 -0.12600115 -0.21307784 -0.13854213 -0.06593576
-0.12631352 -0.26581758 -0.12441407 0.03943552 0.198548 0.12795083 -0.08320117 0.06619691
-0.05111139 0.3557813 0.02457631 -0.009182723 0.069029145 0.22106503 0.0036927955 -0.0051056948
-0.30561197 -0.16544291 -0.0955763 -0.046051893 0.09111886 0.34530735 0.14515221 0.07590334
0.042840496 -0.19764566 -0.016069261 -0.000988622 0.17745881 0.023419516 0.0903558 -0.0273192
0.59630936 0.033144902 0.011697594 0.00431571 -0.45522815 0.1008886 0.003034443 0.0034994292
0.23002276 0.24771513 0.14380424 0.039988723 0.1407368 0.29627377 0.03392816 0.01181455
-0.13624367 -0.14029177 0.055166174 0.051897824 0.48940107 -0.015455844 0.033407554 0.010636788

Rmodel.fe1.FC1.bias f4 [32]
00000000: e712 f93d 73e5 c0bd 7ab1 1bbe ff11 ef3c
00000010: ff4c 30be 7b60 4a3e 0c4d 40be 89e3 f43c
00000020: d183 a93d dec7 523e 306c ef3c 630e a8bd
00000030: 0921 f23c 1bcf 013d f176 413e 2d9d c1bc
00000040: 2b84 2c3d f35f dbbd 7d21 10bc 12da c8bd
00000050: 3796 303d 719d 87be 5819 563e c0c8 153d
00000060: b071 93be 02f4 853d fdbd 773d 874d 85bb
00000070: a6f1 0ebe 061b cfbc 8dc5 12bd 8934 31be
0.121618085 -0.09418764 -0.1520442 0.029183386 -0.17216872 0.19763367 -0.18779391 0.029893653
0.08277095 0.20584056 0.029226393 -0.08205869 0.029556768 0.03169165 0.18893029 -0.023634518
0.042118233 -0.1071166 -0.008797047 -0.098072186 0.043112006 -0.26487306 0.20908105 0.036568403
-0.28797674 0.065406814 0.06048392 -0.00406808 -0.13959369 -0.02528144 -0.03583293 -0.17305197

Rmodel.fe1.FC2.weight f4 [32, 32]
00000000: 515b 3b3e 8ad9 81bd 9733 34bd b574 42be
00000010: 4bb0 423e a010 183e 6225 b6bc 9a6b d7bc
00000020: 611c cebd 4a2e 983d 7890 7b3b e82a 2b3e
00000030: f845 56be 7622 86bd d0ae 20be 29c8 9abc
00000040: d2a4 b3bd 5b8f 8ebe 80ac 4bbe 9648 bcbd
00000050: e404 103d 9cba e2bd 9570 273e 2f09 063e
00000060: 6537 873e 99c4 dcbd ee7d c33d 63dc 003d
00000070: c1ef 173e b382 b23d 1ead 563e acda 76be
00000080: 7fab 043e 2341 b83c 1a26 b6be 4801 e3bc
00000090: 38f7 c03e bb83 5dbe 18fa bc3d 5150 613c
000000a0: 8d7c acbd efe5 213d c912 94bd 7459 ad3d
000000b0: f940 2fbe 51e6 883e 5e24 5c3e e56c 44bd
000000c0: 448c 643d ed8c 0cbf 2335 85bd 0ed9 e3bd
000000d0: 9dfc c83d 575c 7e3e 8d49 b4be 8661 3bbd
000000e0: 4933 053c 6617 bb3c 2257 b13a 9530 0ebe
000000f0: 1d17 2e3d ba3f 89be c1de dabd 6b13 d13c
00000100: 7db9 38be 2163 c6be bf7b 943e ed41 3cbe
00000110: b2aa d63e b134 70be 003a 92bd d047 67bd
00000120: f412 273e ec8a 9dbc 83d7 17be 2b19 09be
00000130: f4f0 5abe 8604 233e e4be 9c3d efdd 93bb
00000140: ab67 d0bc 4b44 8b3e e602 2f3e 7c77 b5bd
00000150: 7784 bb3d 11b8 d23c e651 4dbd ff06 d13d
00000160: d330 b83e d958 c93d b0ed 95bc 0679 653e
00000170: 3bcb babd 56fb 06be 569b 403e 19ff 913c
00000180: 01c1 2b3d 2305 12be 4409 bdbd c62c 263e
00000190: 3682 b03c ef2c 03bd 6512 8c3e 7c59 193e
000001a0: db5e 843d d776 f73c 94d7 a4bd b7a0 413e
000001b0: 595a 8a3c dae8 82bd 2ad3 7d3e 2fef 2ebe
000001c0: 362a bebd 1d5e 23be 8df1 42be 0d25 893c
000001d0: 2fb4 30be b7fb 083e f1c1 dc3c 4b4d bcbd
000001e0: 7f9d d6bd b4a1 2d3e 7080 85bc 7882 703e
000001f0: 6557 90be b118 80be cc97 80bd 6db2 41ba
00000200: b9db 69bd 47eb 073d b4cd b4be 7915 73bd
00000210: 26df 91bc 6ee6 893d 9097 cabd 0b1c dbbd
00000220: a05a 9c3e 07b4 913e c408 1f3e e3e2 37be
00000230: c792 af3b 6e80 a53d 108e 25bd b8bb 79bd
00000240: f490 7f3d 9093 0a3e ec28 6cbd d4fe 38bc
00000250: 365c e9bc 1dc1 b23c 329c cf3d f526 a6be
00000260: 99ce ebbd b1cc d5bd a317 883e d33f 56be
00000270: 32e8 17bd 6008 f63d 9f35 983d 1486 e73d
00000280: 5c74 bc3d 08ec 99bd f1de 8e3e f571 cdb9
00000290: f572 aebd 5a95 f7bd fedf cd3d 9039 2c3e
000002a0: 5e79 9c3d b6cb 193e a1f8 72bd 5bb1 0b3e
000002b0: 718b 07be 90f0 1bbe 2ceb 13bc 003c a63d
000002c0: d6d2 473d e4e1 9fbe 1d4d 22be a1c8 c7bd
000002d0: 6ff3 aa3e 7d52 a0be 0aee 00be a3d4 2ebd
000002e0: 8157 e13e 6728 b83c 2231 42bd fdbd 2c3e
000002f0: 1ffb 8bbe 14a8 a4bd d996 333c 735b a4be
00000300: 70e6 c93d 5d07 03bd e7fb 653e 8c32 c2bd
00000310: 900d f8bc 87a8 e9be 2b21 423d 3479 55bd
00000320: 3a8d a83e 699a 733e 58af 3ebf 9bcb 853e
00000330: 6155 b93b f818 f53d 3f02 83bd 1809 51be
00000340: 1366 94bd 89a7 a4be 9ca2 803d 91d5 a63c
00000350: 8d98 373d b097 b03d 1eea 443e a98d a7bd
00000360: 5239 4d3e 1b40 373d c7fd 1bbe 5466 8e3c
00000370: 1461 933e a806 cd3d 4137 53be 50e5 ccbe
00000380: 4566 24bd a0d6 febd 5790 72bd 2d61 0f3e
00000390: 8035 6fbd f9a5 e23d 38b2 86bd fb45 78be
000003a0: 0696 81bd 6abe 3a3e 4a19 743e 062c 5bbe
000003b0: e915 e439 d95c cc3c 9163 f8bd 3658 8b3e
000003c0: 4552 133d 00cb 253e f116 e53d 982f a73c
000003d0: f0e5 5c3e 7e45 8bbe d4a0 2d3e 229e 0abd
000003e0: fce9 22bf c363 f4bd 911d 26be 2221 9bbd
000003f0: 22e6 abbd af4a 933d 98c1 c2bd 8917 383e
0.18296553 -0.063403204 -0.043994512 -0.18989833 0.19012563 0.14850092 -0.022234622 -0.026296426
-0.100640066 0.07430704 0.003838567 0.16715586 -0.20925128 -0.06549542 -0.15691686 -0.018894272
-0.08771671 -0.27843747 -0.19890022 -0.09193532 0.035160914 -0.11070749 0.1635154 0.13089441
0.2640945 -0.107796855 0.095455036 0.031460177 0.14837553 0.08716335 0.20964476 -0.24106854
0.12956046 0.022491997 -0.35575944 -0.027710572 0.37688613 -0.21632282 0.09227389 0.013752059
-0.08422194 0.039525922 -0.072301455 0.084643275 -0.17114629 0.26738217 0.21498248 -0.047955412
0.05579783 -0.54902536 -0.06504276 -0.11125384 0.09813807 0.24839912 -0.35212365 -0.045747302
0.008129903 0.022838306 0.0013529996 -0.1388572 0.04250251 -0.26806432 -0.10687018 0.025521955
-0.18039508 -0.38747504 0.2900066 -0.18384524 0.41927105 -0.234576 -0.07139969 -0.05646497
0.16315824 -0.019231282 -0.14828305 -0.13388507 -0.21380979 0.15919694 0.07653597 -0.0045125405
-0.025440058 0.2720054 0.1709095 -0.088606805 0.09156125 0.025722535 -0.050126933 0.102064125
0.3597475 0.098313995 -0.018301815 0.22409448 -0.091207944 -0.13181815 0.18809256 0.017821835
0.04193211 -0.14259772 -0.09230283 0.16228017 0.021546464 -0.032025274 0.27357784 0.14975542
0.06463405 0.030208034 -0.08048931 0.18908964 0.016888784 -0.06392069 0.24787584 -0.17083429
-0.09285395 -0.1595387 -0.19037457 0.0167413 -0.17256235 0.13377272 0.026947947 -0.0919443
-0.10479259 0.16956216 -0.016296595 0.2348727 -0.28191677 -0.25018838 -0.06278953 -0.0007388953
-0.05709431 0.033183362 -0.3531319 -0.05934665 -0.0178066 0.06733404 -0.098921895 -0.10698708
0.3053789 0.28457662 0.15530688 -0.17957644 0.0053580734 0.08081137 -0.040418684 -0.06097004
0.062394097 0.13532853 -0.057656214 -0.0112912245 -0.028486352 0.0218206 0.10137214 -0.32451597
-0.11514015 -0.104394324 0.26580533 -0.20922785 -0.037086673 0.12013316 0.074321024 0.1130487
0.09201881 -0.075157225 0.27904466 -0.00039185552 -0.0851802 -0.120890334 0.10052489 0.16818833
0.076403365 0.15019116 -0.059319142 0.13641874 -0.13236786 -0.15228486 -0.009028237 0.08116913
0.048785053 -0.31227028 -0.15849729 -0.09755064 0.3338885 -0.31312934 -0.12590805 -0.042683255
0.44012073 0.022480203 -0.047410138 0.1686935 -0.27340028 -0.08039871 0.010961258 -0.3210102
0.098584056 -0.031989444 0.22459374 -0.09482297 -0.030279905 -0.4563639 0.047394913 -0.05211754
0.32920247 0.23789372 -0.74486303 0.261319 0.00565593 0.11967653 -0.06396913 -0.20413625
-0.072460316 -0.3215907 0.06281015 0.020365508 0.044823218 0.08622682 0.19229934 -0.081813164
0.20041397 0.04473887 -0.15233527 0.017382778 0.28785002 0.10011035 -0.20626546 -0.40018702
-0.040136594 -0.1244328 -0.059219684 0.14001913 -0.05840063 0.11066813 -0.06576961 -0.24245445
-0.06327443 0.182367 0.23837772 -0.21403512 0.00043503873 0.024946617 -0.12128366 0.27215737
0.03596713 0.1619072 0.11186016 0.020408437 0.21572089 -0.27201456 0.16955882 -0.033842213
-0.6363828 -0.119330905 -0.16222216 -0.07574679 -0.08393504 0.07191979 -0.09509581 0.17977728

Rmodel.fe1.FC2.bias f4 [32]
00000000: 7139 f53c 4d6b dd3d 488f 873d c4ff 373d
00000010: 5b6d 33be f4dd 113e f2b5 46be 4255 babd
00000020: b12c b6bd bf11 2e3d a015 863b cf1c 9bbd
00000030: 032c dc3c e0a1 3fbd b796 883b 115b a33d
00000040: 4241 4cbe a93f 8f3d 928b 653d e583 613e
00000050: 8cba c63d 402e 1c3e 9205 8b3c 6c3b 833d
00000060: f663 f8bb 8083 8fbc 25f5 593c 7b02 21bd
00000070: f4a0 8cbc 38a7 36be 9fa1 383d d09a 553e
0.029934617 0.108114816 0.066191256 0.04492165 -0.17522185 0.14244825 -0.19405344 -0.09098293
-0.08895243 0.042497393 0.0040919334 -0.07573854 0.026876455 -0.046785235 0.0041683572 0.07976354
-0.19946769 0.06994564 0.056041308 0.2202297 0.0970355 0.15252018 0.01697043 0.06407818
-0.0075802756 -0.017518759 0.013303076 -0.039309006 -0.017166592 -0.17837226 0.04507601 0.20859838

Rmodel.fe1.FC3.weight f4 [32, 32]
00000000: 9dc8 67be 1540 7f3e a0a4 b0be 8343 8bbe
00000010: 9868 553e d12d c2bb 800f 643f ea23 36bd
00000020: baf6 2b3e 7ce7 123e 2e79 b6be 42db 1dbd
00000030: 1f91 d6bd 9213 df3d 3f95 ccbc a9ff 963d
00000040: 67dd 33be e7ab 1bbd 0dff 323e 9634 d03a
00000050: 02ca ac3d cae9 123e c01c 4cbe aae9 08bd
00000060: bda4 0b3c 60b5 a7bd 707e b33c 87e9 f6bc
00000070: 31d3 05be e594 1c3e e64f dfbd baed a23e
00000080: 7ecc 2b3e a1e4 93bd 2cb1 f1bc e655 223e
00000090: 687b c93d 5e72 953b 0939 bdbe 346e be3b
000000a0: 1bbf 32be 56e9 29bd a1eb 073e a7c2 7ebc
000000b0: c698 d93d ddd3 a0be df89 24bd 8b91 3d3e
000000c0: 284b 643d 0621 473e ca87 2f3e 489a 8cbd
000000d0: f025 94be 11a5 a0bd 36a9 ac3e 9d0e 2b3e
000000e0: 2f34 963d 5336 5abd b85f 3abd 80d8 31be
000000f0: 43a2 663e 360e 3bbd e4e4 01be 6c1b aa3d
00000100: 47e8 88be ce7c 633e 4b3e dabd 2f47 1ebe
00000110: 7457 503e 6e56 a43e 5248 133f d1e9 73be
00000120: 155d 173e d934 193e 25fe 2abe 253e a4bd
00000130: 6762 3dbd 5286 793b 781c 31bd 9262 5cbc
00000140: 0aad 823d 4cd8 15be 8226 503e f34a dfbd
00000150: 76fb 85bc 0d8b c13e d387 9e3d 5649 97bd
00000160: edc1 91bd 2a8c 98bd 1948 f5bc 5dca c53d
00000170: 4cd0 503e 3932 833e 6624 133c 4caf 573d
00000180: 649f e93d a932 94be 7583 3c3e 57f8 543e
00000190: bbda 88be 894e d7bc ae32 6cbf 61c1 bfbc
000001a0: a958 55be bc52 70bd 4007 e23d 4d86 d0bd
000001b0: bfda d23d 38fa 4cbe e6fe ecbd 027c a83d
000001c0: e717 2abd 8acd de3d 7b9b 00bd 6062 213b
000001d0: c0c7 60be 6c69 71be b3e9 463e 736b 073e
000001e0: 9c44 61bd 041f 413d 3d70 69bb f37b 4a3c
000001f0: 6bc6 193e ca40 8ebc c124 a0bd a9da ba3c
00000200: bc6d 52be 0f7f 323e c755 d63d 6369 8fbd
00000210: 1bfe e43d 5359 1b3d 8b57 983d 7456 92bd
00000220: d39d 963d 9311 f13d dd29 03be a8ae e0bd
00000230: 345a a83c aabb 813e 413f 653d 47fb febd
00000240: a6c6 2cbd dd77 02be 418d 0cbd c791 bb3c
00000250: 4d03 803e 94d4 133e a0a0 98be 5bb0 7abe
00000260: 148c 9cbd 25a4 143d 232b f73c 6599 833e
00000270: e8de a9be 46c7 693d d24a 533d 72ff 7c3c
00000280: 2bc2 b7bc 9df2 94bd c8b0 14bd 93fe 52be
00000290: 9255 c5bd 1f50 bf3c 3300 dfbd 7acd 95bd
000002a0: 5800 beb8 eaf5 8b3e 40d6 0a3e e1be 5b3d
000002b0: f830 273e db88 9abe 3b34 0ebe 5f42 27bd
000002c0: 279f 47be 4703 40be 0047 e6ba bfa1 45be
000002d0: bd91 993e 4658 debe 8f63 d5bd 56e9 fe3e
000002e0: 5f00 0ebd fae8 9e3e 5ac3 79bd 6174 f7bd
000002f0: 5089 b93b 7de9 8fbd bc09 8d3e 473f 563d
00000300: 9458 5f3e 130c 013b 50b9 1e3e e9f0 cb3d
00000310: c5e7 bebd c0fc 163e 5aa7 17be b676 a9bc
00000320: a2ec 76be b476 65bd 3d77 7b3e 5dda 0e3e
00000330: d942 113c 6aa1 98bd fb74 9f3d 65cc 63bd
00000340: 2d48 cd3e b808 cbbd 07b6 71be ff63 34be
00000350: f4ad 043e ceb0 59bc a9aa 83bd 289a f0bd
00000360: 44c3 58bd 996a bcbd 487b 023d 468b 333e
00000370: ea72 cfbd 97f7 30bd 9582 7f3d 186f 92be
00000380: 15fa 393e cd61 e1bc bab1 243e 969b 1e3e
00000390: a592 d4bd c3a7 6f3c 17a3 5e3e 3f2f 163e
000003a0: e7d7 f13d 1927 8bbe 286a 783d 8a24 ec3d
000003b0: 1816 21be 3b57 593e 82af 5c3e 12c9 28be
000003c0: 113a 533e a23a 81bd 6243 fbbd 475b bf3d
000003d0: 0050 eebd 8ca4 363c f420 f1bd 0e82 d1be
000003e0: 7690 0a3e fe91 23be 4701 c4bc d5c6 f5bd
000003f0: d855 4abe fecc 98bd c2d5 10bc 5272 9abe
-0.22635122 0.24926789 -0.345006 -0.27199945 0.2084068 -0.005925872 0.8908615 -0.044467844
0.16793337 0.14346117 -0.35639328 -0.03853918 -0.104768984 0.108924046 -0.02497351 0.07372982
-0.17564927 -0.038005736 0.17480107 0.0015884812 0.084369674 0.14346996 -0.19932842 -0.033425964
0.008523163 -0.081888914 0.021910876 -0.030140651 -0.13068844 0.15291174 -0.10903911 0.31821996
0.16777226 -0.07221342 -0.029503427 0.1585308 0.09837991 0.004560753 -0.36957577 0.005811477
-0.17455713 -0.041482292 0.13273479 -0.015549338 0.10624842 -0.3141164 -0.040170547 0.18512551
0.055735737 0.19446191 0.17141643 -0.06865364 -0.28935194 -0.07843984 0.33722848 0.16704793
0.07334172 -0.053274464 -0.04550144 -0.17367744 0.22522835 -0.04566785 -0.12684971 0.083060116
-0.26739714 0.22215578 -0.10656413 -0.15456842 0.2034586 0.3209719 0.5753223 -0.23819663
0.14781602 0.14961566 -0.16698511 -0.08019666 -0.046236422 0.0038074446 -0.04324004 -0.013451235
0.06380661 -0.14633292 0.2032719 -0.10902967 -0.016355257 0.378014 0.0774075 -0.073870346
-0.071170665 -0.07448609 -0.029941605 0.09657738 0.20391959 0.25624254 0.008980846 0.05265741
0.114073545 -0.289449 0.18409522 0.20797859 -0.26729378 -0.026282566 -0.9226483 -0.02340764
-0.20834602 -0.05867265 0.11036539 -0.10181866 0.10295629 -0.20017326 -0.115720555 0.082267776
-0.0415267 0.10879047 -0.031398278 0.0024625286 -0.21951199 -0.23575372 0.19425087 0.13224582
-0.05499707 0.04714872 -0.0035619878 0.012358653 0.15017097 -0.017364878 -0.0781951 0.022809343
-0.20549673 0.17431282 0.104655795 -0.07002523 0.11181279 0.037926983 0.074385725 -0.07145396
0.07354321 0.1177093 -0.12808938 -0.10970813 0.020550825 0.2533849 0.055968527 -0.12450271
-0.042181633 -0.12741037 -0.034314398 0.02289666 0.25002518 0.14436561 -0.29810047 -0.24481337
-0.07643905 0.036289353 0.030171936 0.25702968 -0.33177876 0.057074808 0.051585026 0.015441762
-0.022431454 -0.07272837 -0.036301404 -0.20604925 -0.09635462 0.023353634 -0.1088871 -0.07314582
-9.05997e-05 0.27336055 0.13558292 0.053648833 0.16327274 -0.30182537 -0.13887112 -0.04083478
-0.19494306 -0.1875125 -0.0017568767 -0.19299982 0.29994002 -0.43426722 -0.1041938 0.49787396
-0.034668323 0.31037122 -0.060977317 -0.120827444 0.005662121 -0.07026956 0.2754649 0.05230644
0.21811134 0.0019691035 0.15500379 0.09958059 -0.0932155 0.14744854 -0.14809933 -0.020686489
-0.24113706 -0.056021407 0.24557205 0.13950486 0.008866035 -0.07452662 0.07785984 -0.055614848
0.40094128 -0.09913772 -0.23604594 -0.1761627 0.12956983 -0.013286782 -0.06429035 -0.11748153
-0.052920595 -0.092000194 0.03185585 0.17533597 -0.1012934 -0.04320487 0.062380392 -0.28600383
0.18161805 -0.027512455 0.16083422 0.15489039 -0.10379533 0.0146274 0.21741901 0.1466646
0.11808758 -0.27178267 0.060648113 0.11530407 -0.15731084 0.21224682 0.21551326 -0.16482952
0.2062762 -0.063100114 -0.122687116 0.09343582 -0.116363525 0.0111476295 -0.117738634 -0.40919536
0.1353167 -0.1597366 -0.02392639 -0.12000815 -0.1975931 -0.07460974 -0.008840026 -0.30165344

Rmodel.fe1.FC3.bias f4 [32]
00000000: 0100 ac3c 9d46 babc b236 87bc 46ac c73c
00000010: 8a06 7b3a 12b1 a63c 1153 a23c ffc1 e7bb
00000020: a199 b8bd 1e48 bf3a b6bf 473c 3e41 873d
00000030: e8d9 66bc f600 e8bb 5c41 fd3c 59f2 d93c
00000040: fb4b 263c d5c8 663c 9f74 7d3b d172 c8bc
00000050: a20f 8b3d ec8e 303c 061d 6cbc 570e 343d
00000060: 0411 9a38 15dd 29bc 2082 363b 5dbb f6bc
00000070: 5192 123d 1bdf 50bd dacc 393d faee 15bd
0.020996096 -0.02273875 -0.016505573 0.024374139 0.00095758645 0.020348106 0.019815 -0.0070726867
-0.090136774 0.0014593636 0.012191704 0.06604241 -0.014090039 -0.0070801927 0.030914955 0.026604818
0.010149951 0.014085968 0.0038674248 -0.024468811 0.06790091 0.010776263 -0.014411217 0.043958988
7.346462e-05 -0.0103676515 0.0027848557 -0.030118639 0.03578407 -0.05099402 0.045361377 -0.03660486
