Lightcode/bc/zyy_results/N_3_3_d_32_32/snr2_100/seed_777/weights/gbaf_1xfe_fy/T_9/pow_1/100000/0.002/K_3_m_3_snr1_3/model_weights120000.pt (torch, 182510 bytes, 38 tensors)

Tmodel.fe1.FC1.weight f4 [64, 24]
-0.020210747 -0.03761196 -0.0011171835 0.031847723 -0.015008206 -0.047291096 -0.018113526 -2.3213837
0.019518126 -0.005556201 0.013305015 0.0051109088 0.028885467 0.03095677 0.019593783 1.8742422
0.014911384 -0.0060496624 0.005855495 0.008083942 -0.008610084 0.011928337 0.019268071 0.37986812
-0.028039375 -0.44129685 0.017841503 0.0050921524 -0.0024326188 0.0020514936 -0.0008296472 0.004383581
0.009488123 -0.0017279161 -0.008515786 0.0048476374 -0.0027519572 0.00020147955 -0.0017700788 -0.0041493387
-0.0091266595 -0.21396211 0.08652663 0.08366529 0.05408047 0.050151832 -0.020216601 0.012163381
0.017215816 -0.022233244 -0.003136546 0.07019361 1.757471 0.031431433 0.1246734 -0.032480408
0.012672791 0.025680756 -0.028550591 -0.011697278 -0.8566172 0.312376 0.25207797 0.17957996
0.0060406295 -0.018342158 0.025463233 -0.021405583 -0.65560544 -0.25443566 0.19550289 -0.024813198
-0.0066825417 -0.009632152 -0.01380466 0.0057808612 -0.009367587 1.4332218 0.031140447 -0.10802437
-0.009249793 0.01799211 -0.01347061 -0.006076796 -0.011544042 -0.99552023 -0.053554118 -0.113297194
-0.027178109 -0.018755712 0.014089571 0.0069864662 -0.007012333 0.6921007 -0.009649867 0.1725632
-0.26339108 0.3050597 0.03442659 0.040578373 0.030069914 0.045679364 -0.7017262 -0.22646576
0.25153807 0.040320314 0.051695447 -0.028089626 -0.04518158 0.03382028 0.3023437 0.12619826
-0.083649226 -0.15894748 0.048977364 0.013607171 0.013225135 -0.054365028 0.22604848 0.032267954
-0.27153948 0.28697047 0.122062065 -0.08767303 0.016185883 -0.5501339 0.038714573 -0.047671124
0.18857655 -0.054644313 -0.0030226484 -0.018238584 -0.0013557818 0.20022425 0.08098814 0.1239251
-0.020318232 -0.20924674 0.050646197 0.06396438 0.037728596 0.34262004 -0.14006808 0.10693398
0.09893648 -0.46792063 -0.14097494 0.04263128 -0.08087036 -0.08165065 0.054240253 -0.20354727
-0.042971715 0.021189606 0.02112305 -0.037468664 0.009231763 0.037847783 -0.0027499183 -0.6442291
0.021675892 0.33662203 -0.12569521 -0.101398624 -0.069586694 0.018653832 -0.008538475 0.8501659
-0.100508936 -0.20658405 0.00897201 0.13038392 0.010944519 0.061194967 0.095486425 0.031499572
0.024178496 -0.022090994 0.019998414 -0.059017416 -0.06294506 -0.060622204 -0.020765979 0.08078153
0.016394667 0.2130337 -0.1270821 -0.08534662 -0.1350047 -0.15887104 0.09046934 -0.042314988
0.3961834 -0.26071352 -0.044621725 0.005809675 0.038749415 0.030720728 -0.09610925 -0.017316714
-0.3144094 0.008313934 -0.22014707 0.09700656 0.107724 -0.0986029 -0.017726442 -0.03781219
0.021302542 0.22143508 -0.110936984 -0.06670106 -0.052901193 -0.043875292 0.04716265 -0.04326574
-0.44933453 0.004446936 0.003973835 0.021105496 0.001755862 0.027928503 0.0291069 0.03677478
-0.03791113 0.023000302 -0.034375533 -0.023827046 0.0024038346 -0.0003772728 -0.027688095 0.008024104
-0.03656022 -0.022208573 -0.017821467 -0.030593269 -0.021653492 -0.0368202 0.03101363 0.018478509
-0.050187603 0.19104862 0.06632796 -0.05892449 0.046772137 -0.08767966 0.11865239 0.1809922
-0.051652413 0.069266215 0.0030478043 0.10335185 0.041700713 -0.0011268115 -0.0067246594 0.029399473
00000000: 0291 a5bc 000f 1abd 756e 92ba c272 023d
00000010: fae4 75bc 4fb4 41bd d162 94bc 8d91 14c0
00000020: 7ae4 9f3c cb10 b6bb 47fd 593c 6979 a73b
00000030: 37a1 ec3c 0d99 fd3c 2483 a03c 2be7 ef3f
00000040: e14e 743c 3f3c c6bb 74df bf3b 8372 043c
00000050: 4f11 0dbc 126f 433c 13d8 9d3c 137e c23e
00000060: d5b2 e5bc a9f1 e1be 5828 923c 12dc a63b
00000070: 926c 1fbb 5a72 063b ae7c 59ba 25a4 8f3b
00000080: 1274 1b3c 3e7b e2ba cc85 0bbc eed8 9e3b
00000090: 2e5a 34bb 4144 5339 fd01 e8ba 2df7 87bb
000000a0: fc87 15bc e218 5bbe e034 b13d b558 ab3d
000000b0: 7c83 5d3d 026c 4d3d 499d a5bc eb48 473c
000000c0: 2f08 8d3c 7e22 b6bc 828e 4dbb abc1 8f3d
000000d0: cff4 e03f 3fbe 003d c454 ff3d 2d0a 05bd
000000e0: 8aa1 4f3c 7360 d23c eee2 e9bc f1a5 3fbc
000000f0: 444b 5bbf bfef 9f3e 5d10 813e cfe3 373e
00000100: 79f0 c53b 4b42 96bc 4598 d03c c35a afbc
00000110: c2d5 27bf 6445 82be e931 483e 0c45 cbbc
00000120: 39f9 dabb 2cd0 1dbc f12c 62bc 616d bd3b
00000130: 827a 19bc d073 b73f 401a ff3c e23b ddbd
00000140: 728c 17bc 3164 933c d5b3 5cbc dc1f c7bb
00000150: 3923 3dbc 6ada 7ebf 905b 5bbd 5c08 e8bd
00000160: a0a4 debc 94a5 99bc f2d7 663c baee e43b
00000170: b6c7 e5bb 832d 313f 7a1a 1ebc 68b4 303e
00000180: 32db 86be c930 9c3e e502 0d3d 8235 263d
00000190: 2e55 f63c 491a 3b3d 54a4 33bf a4e6 67be
000001a0: 99c9 803e ea26 253d 9bbe 533d 371c e6bc
000001b0: 5210 39bd 2287 0a3d cbcc 9a3e 1e3a 013e
000001c0: 4950 abbd 21c3 22be 7d9c 483d 9df0 5e3c
000001d0: 3dae 583c ddad 5ebd 4179 673e 672b 043d
000001e0: 3907 8bbe cbed 923e adfb f93d eb8d b3bd
000001f0: 4298 843c 93d5 0cbf 2c93 1e3d cc42 43bd
00000200: 361a 413e b7d2 5fbd a017 46bb 1569 95bc
00000210: 7db4 b1ba 9607 4d3e 1cdd a53d 71cc fd3d
00000220: 6c72 a6bc c744 56be 6372 4f3d c2ff 823d
00000230: 4d89 1a3d e56b af3e 026e 0fbe 3400 db3d
00000240: 369f ca3d 4b93 efbe bc5b 10be 239e 2e3d
00000250: 5c9f a5bd 7538 a7bd 072b 5e3d b26e 50be
00000260: 1c03 30bd d395 ad3c 3f0a ad3c be78 19bd
00000270: d240 173c 4706 1b3d f937 34bb 33ec 24bf
00000280: a491 b13c b959 ac3e 3fb6 00be 15aa cfbd
00000290: 7883 8ebd eccf 983c f6e4 0bbc 79a4 593f
000002a0: a1d7 cdbd c58a 53be 56ff 123c 5d83 053e
000002b0: a450 333c 93a7 7a3d 638e c33d b205 013d
000002c0: fb11 c63c 2cf8 b4bc b7d3 a33c 3fbc 71bd
000002d0: 57e9 80bd fd4e 78bd 6a1d aabc c970 a53d
000002e0: 1c4e 863c 8225 5a3e cf21 02be 35ca aebd
000002f0: ac3e 0abe 17af 22be fd47 b93d 7b52 2dbd
00000300: 8dd8 ca3e 3e7c 85be 45c5 36bd 165f be3b
00000310: b5b7 1e3d 09aa fb3c edd4 c4bd c8db 8dbc
00000320: 45fa a0be 2b37 083c 3c6e 61be 60ab c63d
00000330: 679e dc3d 51f0 c9bd 0b37 91bc f4e0 1abd
00000340: ab82 ae3c e1bf 623e ee32 e3bd 919a 88bd
00000350: ecae 58bd 94b6 33bd 9f2d 413d 6b37 31bd
00000360: 2d0f e6be 9ab7 913b f236 823b 6fe5 ac3c
00000370: f424 e63a 51ca e43c 9871 ee3c 27a1 163d
00000380: b348 1bbd 216b bc3c 5ccd 0cbd f030 c3bc
00000390: a789 1d3b b3cc c5b9 25d2 e2bc 8877 033c
000003a0: 2bc0 15bd c1ee b5bc 53fe 91bc bc9e fabc
000003b0: aa62 b1bc c7d0 16bd 4c10 fe3c 3e60 973c
000003c0: 8491 4dbd 40a2 433e f4d6 873d ce5a 71bd
000003d0: 2494 3f3d 6591 b3bd 0600 f33d 0556 393e
000003e0: 7b91 53bd 72db 8d3d acbd 473b 22aa d33d
000003f0: 5ece 2a3d 85b1 93ba 885a dcbb 2ad7 f03c

Tmodel.fe1.FC1.bias f4 [64]
-0.07659657 -1.0113189 -0.0121499235 -0.050627425 -0.057462975 0.1490442 0.092726216 -0.62425876
0.009043351 -0.5569863 -0.42303276 -0.29373562 0.44795454 -0.018061804 0.28559673 -0.037854146
-0.4801433 -0.07271687 -0.5416826 -0.0711958 0.011691172 -0.3813204 -0.10132913 -0.0107777845
-0.09832872 -0.4808957 0.16647166 -0.024981318 -0.41953602 0.18641993 -0.7072578 -0.036810257
-0.21061568 -0.031202653 -0.10253588 0.013163229 -0.023370087 0.009173423 -0.9684154 0.1422882
-0.471129 0.0022431873 0.007649917 -0.0031500694 -0.51393557 -0.01904112 -0.4042358 -0.036257014
-0.6988262 -0.6644391 -0.082057506 -0.43794176 -0.07996587 -0.018585261 -0.24088146 -0.03997757
-0.68391335 -0.12025616 0.17788912 -0.0845936 -0.47059646 0.01231 -0.04322906 -0.057145357
00000000: aade 9cbd e672 81bf 7910 47bc b45e 4fbd
00000010: 4c5e 6bbd 0b9f 183e 3ee7 bd3d 6ccf 1fbf
00000020: 902a 143c a796 0ebf c097 d8be 8464 96be
00000030: 4c5a e53e 59f6 93bc bc39 923e f30c 1bbd
00000040: 58d5 f5be 95ec 94bd b6ab 0abf 1bcf 91bd
00000050: 548c 3f3c 6d3c c3be a685 cfbd 4e95 30bc
00000060: 9160 c9bd f637 f6be 8c77 2a3e 9fa5 ccbc
00000070: 6dcd d6be dee4 3e3e d90e 35bf 5ac6 16bd
00000080: a3ab 57be b59c ffbc 55fe d1bd 96aa 573c
00000090: a072 bfbc 204c 163c 12ea 77bf ffb3 113e
000000a0: d237 f1be 7002 133b 28ac fa3b 6571 4ebb
000000b0: 4891 03bf 1ffc 9bbc fff7 cebe 3c82 14bd
000000c0: 46e6 32bf ae18 2abf c40d a8bd e739 e0be
000000d0: 25c5 a3bd 1e40 98bc a1a9 76be 85bf 23bd
000000e0: f214 2fbf dd48 f6bd 9128 363e 693f adbd
000000f0: 05f2 f0be e2af 493c f410 31bd 4011 6abd

Tmodel.fe1.FC2.weight f4 [64, 64]
0.0881823 1.3338889 0.055540107 -0.011957738 -0.09068379 -0.12131652 0.13061512 -0.050739724
-0.1090288 -0.2997515 0.086264774 -0.07865178 0.08553088 0.055531442 -0.17987911 0.029871048
0.042169258 0.0808142 0.08814595 -0.00856003 -0.41109562 0.034824334 0.01491894 -0.020520749
0.01136678 0.15974441 0.03702887 -0.0699633 -0.09122688 -0.1209811 0.021875095 0.08245316
-0.029211218 0.026385535 -0.056828443 -0.05959001 -0.15913637 -0.029501032 0.017662352 0.0021608556
-0.24717231 -0.50464773 0.013040715 -0.20710976 -0.06470429 0.038606703 -0.1311273 -0.054059293
0.17659709 0.14077705 -0.07338699 -0.111165404 0.020774294 -0.05076874 -0.0051284735 0.05120887
-0.1508457 0.027542545 0.031487763 0.051793642 0.0006857791 -1.6339898 -0.029369213 0.054356173
0.09433803 -0.08047675 0.23153166 -0.25191844 -0.034566756 -0.259522 0.20138887 -0.52166873
-0.06340267 0.23344602 -0.13035472 -0.07588833 -0.015910873 -0.24976406 -0.05712771 -0.04609283
-0.07192021 -0.03698665 0.26946634 -0.06768713 0.1273887 0.039782178 0.042629886 0.030171879
0.08603881 -0.28459674 0.16855715 -0.15532269 0.03736371 0.08925907 -0.045395214 -0.077207394
0.127154 0.074764565 0.061360154 -0.050793786 -0.30383104 -0.21246868 0.06612366 0.020499814
-0.22758444 -0.12895365 0.22316624 -0.02858384 -0.09036831 -0.39297953 -0.16371015 -0.049949907
0.44781148 0.032084152 0.072894014 -0.29979455 -0.041709322 -0.42059615 -0.28787395 -0.018907737
-0.13562118 0.038858723 0.103477165 -0.13628678 0.08066272 0.17674896 -0.11168058 -0.11077776
-0.11522522 -0.57432497 0.07270989 0.01974195 0.15912528 -0.13200518 0.045092043 -0.06386268
-0.25987324 0.04171977 0.022313654 -0.08610314 0.2662428 0.034466002 0.012976822 0.015485538
0.10175713 0.052327152 -0.02522097 0.056580927 0.13269328 -0.115741506 0.035312574 -0.1914308
0.012023062 0.013445506 -0.15826356 -0.2677166 -0.11110769 -0.38840562 -0.054351456 0.05346859
-0.032919228 0.017630365 0.015488525 0.13182937 0.14338893 -0.15630256 -0.06865141 0.14793985
-0.1441348 -0.78033537 -0.61698806 -0.11871293 0.09668753 0.06310181 -0.07275852 -0.048885595
0.1208857 -0.10835018 -0.18624215 -0.046386037 0.013073881 -0.27111092 0.004835387 0.067093454
0.113639235 0.020023037 0.049029607 0.038960893 0.0012735438 -0.41219652 -0.029569725 0.018808916
-0.13841905 0.37361324 -0.028698435 -0.17336094 -0.02044904 -0.016221456 -0.014217122 -0.16025147
0.12345338 -0.28852293 0.020582063 -0.30590755 -0.04466626 -0.17056634 -0.003797081 -0.0953231
-0.0047026463 0.08468686 0.08659067 -0.8102688 -0.19786449 -0.027795227 -0.6741401 -0.6049307
-0.21865705 0.24217685 -0.19557072 0.06724997 0.08909931 0.17287926 0.28863144 -1.1786501
-0.19336765 -0.13181704 -0.31917587 -0.061869815 -0.06983876 0.12264499 0.23104228 0.08013423
-0.32933217 0.054245785 0.20806462 -0.01114195 -0.3030725 -0.07698392 0.020864004 0.05642993
0.038340345 -0.13136652 -0.10684869 -0.09512925 -0.0003067522 0.1184778 -0.22812137 -0.78737795
0.12967831 -0.1299313 -0.057527702 -0.05803189 -0.0033446488 -0.014796349 -0.8205493 -0.17769034
00000000: ec98 b43d dfbc aa3f 067e 633d 63ea 43bc
00000010: 6cb8 b9bd cc74 f8bd f8bf 053e 75d4 4fbd
00000020: 7e4a dfbd 0779 99be 96ab b03d 2f14 a1bd
00000030: d02a af3d f074 633d 3b32 38be 21b4 f43c
00000040: acb9 2c3d ea81 a53d dd85 b43d 5e3f 0cbc
00000050: 207b d2be f6a3 0e3d 926e 743c 211b a8bc
00000060: bb3b 3a3c 0a94 233e 96ab 173d eb48 8fbd
00000070: 29d5 babd f0c4 f7bd 6633 b33c 34dd a83d
00000080: 5d4c efbc 7a26 d83c f1c4 68bd a814 74bd
00000090: a5f4 22be 26ac f1bc a3b0 903c 249d 0d3b
000000a0: bd1a 7dbe 9830 01bf b9a8 553c 9514 54be
000000b0: af83 84bd 1022 1e3d 3c46 06be 476d 5dbd
000000c0: ded5 343e dc27 103e eb4b 96bd b0aa e3bd
000000d0: da2e aa3c e2f2 4fbd c10c a8bb 64c0 513d
000000e0: 4c77 1abe e7a0 e13c 50f9 003d 9225 543d
000000f0: dbc5 333a 9426 d1bf b497 f0bc 94a4 5e3d
00000100: 4c34 c13d ffd0 a4bd a316 6d3e 74fb 80be
00000110: df95 0dbd 11e0 84be e238 4e3e 158c 05bf
00000120: 42d9 81bd 790c 6f3e b57b 05be 576b 9bbd
00000130: 8557 82bc 26c2 7fbe bffe 69bd d6cb 3cbd
00000140: e74a 93bd 507f 17bd 7ef7 893e 8d9f 8abd
00000150: 2f72 023e a3f2 223d ad9c 2e3d 042b f73c
00000160: 1e35 b03d aab6 91be 3f9a 2c3e e90c 1fbe
00000170: b10a 193d 76cd b63d 55f0 39bd e91e 9ebd
00000180: a834 023e 2a1e 993d c954 7b3d 250d 50bd
00000190: be8f 9bbe 6491 59be d76b 873d 3aef a73c
000001a0: e50b 69be 6d0c 04be b185 643e a828 eabc
000001b0: 0513 b9bd 9d34 c9be a2a3 27be 4698 4cbd
000001c0: 8c47 e53e ac6a 033d 7549 953d ac7e 99be
000001d0: 65d7 2abd 6158 d7be 3764 93be 66e4 9abc
000001e0: 47e0 0abe 532a 1f3d d6eb d33d c38e 0bbe
000001f0: 7f32 a53d aefd 343e cab8 e4bd 73df e2bd
00000200: 33fb ebbd f606 13bf ece8 943d dfb9 a13c
00000210: bdf1 223e 5e2c 07be 6fb2 383d 70ca 82bd
00000220: 1b0e 85be 59e2 2a3d 20cb b63c d856 b0bd
00000230: fa50 883e 392c 0d3d bd9c 543c 0eb7 7d3c
00000240: 0b66 d03d ff54 563d 359c cebc 67c1 673d
00000250: bfe0 073e e209 edbd eba3 103d 7006 44be
00000260: 61fc 443c 8a4a 5c3c d80f 22be 2612 89be
00000270: 6e8c e3bd 1add c6be a29f 5ebd e101 5b3d
00000280: 50d6 06bd 8e6d 903c 95c3 7d3c 47fe 063e
00000290: 8cd4 123e c70d 20be 1c99 8cbd 8b7d 173e
000002a0: 1398 13be 0fc4 47bf eef2 1dbf c41f f3bd
000002b0: 1d04 c63d 863b 813d 6b02 95bd 433c 48bd
000002c0: ec92 f73d b3e6 ddbd 43b6 3ebe 49ff 3dbd
000002d0: d533 563c 0dcf 8abe 2b72 9e3b 4b68 893d
000002e0: b0bb e83d 5a07 a43c 45d3 483d 7595 1f3d
000002f0: 0aed a63a 6c0b d3be 353c f2bc 2815 9a3c
00000300: b9bd 0dbe 3c4a bf3e fb18 ebbc 8885 31be
00000310: bf84 a7bc dce2 84bc efee 68bc f618 24be
00000320: 20d5 fc3d 47b9 93be b79b a83c ea9f 9cbe
00000330: f8f3 36bd f1a8 2ebe 73d8 78bb c238 c3bd
00000340: a818 9abb 4e70 ad3d 7356 b13d c76d 4fbf
00000350: fd9c 4abe d1b2 e3bc 7294 2cbf bddc 1abf
00000360: a2e7 5fbe 35fd 773e b143 48be 5aba 893d
00000370: b379 b63d 4307 313e 80c7 933e 02de 96bf
00000380: 2b02 46be 0cfb 06be 056b a3be 346b 7dbd
00000390: a007 8fbd 4c2d fb3d 5996 6c3e 6a1d a43d
000003a0: 3a9e a8be d430 5e3d e40e 553e ba8c 36bc
000003b0: 522c 9bbe bfa9 9dbd fdea aa3c 1223 673d
000003c0: c40a 1d3d f284 06be 7cd3 dabd 20d3 c2bd
000003d0: 95d3 a0b9 7da4 f23d a698 69be 9a91 49bf
000003e0: 64ca 043e b60c 05be 2ba2 6bbd d9b2 6dbd
000003f0: e531 5bbb 636c 72bc 850f 52bf 75f4 35be

Tmodel.fe1.FC2.bias f4 [64]
0.3041194 -0.093958646 0.286879 0.060625978 -0.040855866 0.28176337 -0.18650167 -0.61708105
-0.42314166 -0.3950817 0.3542313 -0.2820534 0.13119046 -0.29845074 0.114683464 -0.17386253
-0.05999489 -0.46415052 -0.3523352 0.19481708 -0.18375735 -0.023182245 0.12612273 -0.2881592
-0.07511766 0.015496556 -0.22632164 -0.17465648 -0.41213578 -0.013878514 0.3897608 0.13274229
-0.14755572 -0.24389923 0.10585135 -0.19991021 -0.21672511 -0.28971654 -0.3826853 0.052869055
0.16639797 0.09240127 0.25789118 0.050008506 -0.057333607 -0.12107147 0.03726732 0.15359868
-0.6349708 -0.18338957 -0.26244155 -0.058737274 -0.121578895 0.24541867 0.42085487 -0.10283793
-0.16231382 0.10115526 -0.61820614 -0.47260422 -0.07828158 -0.5608285 -0.43511397 0.3104572
00000000: 8ab5 9b3e 646d c0bd cee1 923e f252 783d
00000010: 7b58 27bd 4a43 903e 4bfa 3ebe 06f9 1dbf
00000020: 06a6 d8be 2648 cabe ce5d b53e 4e69 90be
00000030: cb56 063e 89ce 98be 2adf ea3d 0509 32be
00000040: 34bd 75bd 23a5 edbe 4865 b4be 217e 473e
00000050: e32a 3cbe b1e8 bdbc 5126 013e 9a89 93be
00000060: 4ad7 99bd 44e5 7d3c dcc0 67be 26d9 32be
00000070: 7603 d3be b562 63bc ba8e c73e 98ed 073e
00000080: d918 17be b8c0 79be 98c8 d83d 43b5 4cbe
00000090: 30ed 5dbe ba55 94be 54ef c3be 398d 583d
000000a0: 3b64 2a3e e13c bd3d 500a 843e b8d5 4c3d
000000b0: a5d6 6abd 52f4 f7bd 9ea5 183d f948 1d3e
000000c0: 728d 22bf 7aca 3bbe bd5e 86be 7f96 70bd
000000d0: 5bfe f8bd 084f 7b3e 4a7a d73e b19c d2bd
000000e0: 9835 26be 7d2a cf3d c242 1ebf 2ef9 f1be
000000f0: 1852 a0bd 7592 0fbf 42c7 debe 3ff4 9e3e

Tmodel.fe1.FC3.weight f4 [64, 64]
0.14586192 0.079632826 0.060702275 -0.34463772 -0.03366861 -0.2759815 -0.008624599 0.09060277
-0.015380449 -0.021292308 -0.12404713 -0.0026830405 -0.057986505 0.16917169 -0.06751275 -0.04252766
0.046058018 -0.10030099 -0.107337564 0.49319917 0.052744057 0.034854427 -0.07106085 0.0677872
0.016747368 0.04418728 0.057556655 0.072162576 0.09711069 0.026279071 -0.06739104 0.17169401
0.055850297 0.05607185 -0.21162103 -0.31671813 -0.081650324 -0.006107632 0.11225816 -0.0902909
0.049244452 -0.37098947 -0.16753632 0.6669546 -0.18718773 -0.040538915 -0.08292265 -0.034255106
0.04658976 -0.11661154 0.030344693 -0.02590829 0.06333847 0.0027193553 -0.095475785 -0.007765329
0.05559343 -0.012854617 0.20762125 0.0014020926 0.043520994 0.017917963 -0.011271652 0.31285813
0.21831381 -0.21288677 0.11513196 -0.2922069 -0.003921159 0.3000317 0.29162073 -0.08270639
-0.009541679 -0.011552047 0.08701571 -0.019700482 -0.091974966 0.20751503 -0.040405653 -0.14342168
-0.041318104 0.033202108 -0.23651432 0.28263322 0.05114843 0.234141 0.17485638 -0.17258848
-0.028656574 -0.066824116 0.08533342 0.06366028 -0.061029825 0.17915735 -0.21838452 0.3432316
0.060884345 -0.12173912 -0.2108632 0.19093768 0.03229103 -0.014460704 -0.14543797 0.024315357
-0.10974238 -0.3102424 -0.07294017 0.6582815 -0.1698563 0.12703227 0.4078641 0.054508332
-0.19973478 -0.12636085 -0.13630705 -0.011218096 0.17858854 -0.24071702 0.18148874 -0.006165666
0.1792374 0.28445444 0.6170549 0.3496195 0.012689841 -0.5093022 -0.037668437 -0.03907982
0.1152725 0.03892995 -0.054336578 -0.18904954 0.025514914 0.052118003 0.12102955 0.17646886
0.15810324 -0.003201691 -0.13648815 0.08926068 -0.3326789 0.45803103 -0.019478424 0.035411548
-0.10428756 -0.10335693 -0.23773426 0.2557315 0.10596158 -0.2687352 0.15652677 0.015757132
-0.07047364 0.048193794 0.003740606 0.0067795115 -0.11040556 -0.17665456 0.059810147 -0.11947212
0.005981057 -0.15130994 -0.3507742 -0.03862613 -0.026111761 0.0066469 0.51793575 -0.16537622
-0.15123719 -0.29872352 -0.03880695 -0.47973782 -0.03948952 -0.104281045 -0.013662763 0.0054096994
0.056209743 -0.029652169 -0.13243648 0.09603364 -0.039356504 0.15379111 0.107074745 0.0014425543
0.23451406 0.21973325 0.34666845 0.16153124 0.01764249 0.43791357 0.011320192 0.18834153
0.017937943 0.029085448 -0.064313814 -0.36358115 -0.0154843265 -0.5983331 0.039108135 -0.0247431
0.021232681 0.08179494 -0.114466205 0.087746575 -0.71431106 -0.10208301 -0.047772158 -0.065276295
-0.1136612 -0.101637065 0.07790996 -0.24690594 0.06914852 0.04080227 -0.2203781 0.024554975
-0.04931537 0.0540708 0.09507951 0.081964955 0.19195114 -0.16569501 0.040388107 0.15662964
0.070834726 -0.033777047 0.2531447 -0.30319878 -0.08054136 0.027322814 0.27756304 0.027700279
0.21416663 -0.16933587 0.019182533 -0.28242952 0.13869072 0.02965897 -0.0019933789 -0.051081173
0.03348438 0.19664438 0.081990756 0.011951708 -0.13319963 -0.024618458 -0.17495354 0.020835983
0.1056748 -0.12434833 -0.6014279 0.06509046 -0.0004061005 0.19585125 0.11097975 -0.13103952
00000000: d45c 153e 8916 a33d f3a2 783d 5b74 b0be
00000010: 19e8 09bd 724d 8dbe 314e 0dbc f28d b93d
00000020: 47fe 7bbc 356d aebc 6c0c febd f3d5 2fbb
00000030: 4283 6dbd 583b 2d3e 2044 8abd 7c31 2ebd
00000040: 55a7 3c3d 9b6a cdbd ccd3 dbbd 9a84 fc3e
00000050: 270a 583d 84c3 0e3d 5a88 91bd 04d4 8a3d
00000060: c731 893c b9fd 343d 87c0 6b3d f9c9 933d
00000070: f8e1 c63d 3547 d73c 5004 8abd 8ed0 2f3e
00000080: 48c3 643d 99ab 653d 2fb3 58be e128 a2be
00000090: 4938 a7bd 8822 c8bb 9be7 e53d 6fea b8bd
000000a0: 8db4 493d 55f2 bdbe a48e 2bbe 89bd 2a3f
000000b0: 24ae 3fbe 220c 26bd 5ad3 a9bd 154f 0cbd
000000c0: e7d4 3e3d 08d2 eebd 6f95 f83c 9f3d d4bc
000000d0: 9ab7 813d 3637 323b cf88 c3bd 4d74 febb
000000e0: f0b5 633d 2c9c 52bc aa9a 543e 6cc6 b73a
000000f0: 1243 323d b1c8 923c bcac 38bc f12e a03e
00000100: a88d 5f3e fdfe 59be 4eca eb3d 259c 95be
00000110: 117d 80bb c19d 993e 504f 953e f861 a9bd
00000120: b454 1cbc cc44 3dbc 4b35 b23d e862 a1bc
00000130: 5f5d bcbd d27e 543e 6680 25bd 22dd 12be
00000140: 2c3d 29bd effe 073d cf30 72be 4db5 903e
00000150: 0481 513d a9c2 6f3e 8d0d 333e 09bb 30be
00000160: 31c1 eabc 15db 88bd 4ac3 ae3d 5260 823d
00000170: 69fa 79bd 0675 373e 31a0 5fbe 0dbc af3e
00000180: dd61 793d 5c52 f9bd 86ec 57be 2b85 433e
00000190: 9943 043d 97ec 6cbc b1ed 14be 0031 c73c
000001a0: 9dc0 e0bd 18d8 9ebe a861 95bd 2385 283f
000001b0: cfee 2dbe bf14 023e 90d3 d03e 2144 5f3d
000001c0: 4687 4cbe bd64 01be 1394 0bbe 1bcc 37bc
000001d0: eadf 363e 867e 76be 2fd8 393e 5b09 cabb
000001e0: 028a 373e 03a4 913e 4ff7 1d3f 5401 b33e
000001f0: 0de9 4f3c a161 02bf 384a 1abd 2912 20bd
00000200: fd13 ec3d 0375 1f3d 0890 5ebd 3496 41be
00000210: a704 d13c b079 553d 57de f73d 41b4 343e
00000220: d1e5 213e 76d3 51bb 8dc3 0bbe 4ece b63d
00000230: e454 aabe 0b83 ea3e 3791 9fbc b30b 113d
00000240: b794 d5bd ccac d3bd 9c70 73be 3def 823e
00000250: 6302 d93d a997 89be 8e48 203e 1a15 813c
00000260: 7c54 90bd db66 453d f424 753b aa26 de3b
00000270: 4f1c e2bd efe4 34be 7cfb 743d cdad f4bd
00000280: befc c33b fef0 1abe ad98 b3be 6f36 1ebd
00000290: 55e8 d5bc 3dce d93b 7097 043f 6258 29be
000002a0: ecdd 1abe 4af2 98be 09f4 1ebd 32a0 f5be
000002b0: c3bf 21bd 4d91 d5bd c8d9 5fbc d943 b13b
000002c0: 303c 663d 1be9 f2bc 6e9d 07be 49ad c43d
000002d0: 4934 21bd 6b7b 1d3e 014a db3d 1714 bd3a
000002e0: 7424 703e c101 613e 877e b13e 7268 253e
000002f0: fc86 903c 3536 e03e 5478 393c 9adc 403e
00000300: 98f2 923c 9b44 ee3c f6b6 83bd 4f27 babe
00000310: f9b1 7dbc 5c2c 19bf da2f 203d 0bb2 cabc
00000320: 29f0 ad3c 1b84 a73d 426d eabd 7ab4 b33d
00000330: 17dd 36bf e610 d1bd bdac 43bd 94af 85bd
00000340: 34c7 e8bd 1827 d0bd 428f 9f3d e9d4 7cbe
00000350: bd9d 8d3d 4820 273d ccaa 61be 8427 c93c
00000360: eafe 49bd 5879 5d3d 0cb9 c23d 3edd a73d
00000370: d78e 443e f4ab 29be 006e 253d 8563 203e
00000380: cc11 913d cd59 0abd 2f9c 813e df3c 9bbe
00000390: def2 a4bd 18d4 df3c be1c 8e3e b2eb e23c
000003a0: 7f4e 5b3e 6266 2dbe b024 9d3c 9a9a 90be
000003b0: f104 0e3e 5ef7 f23c 59a3 02bb 7e3a 51bd
000003c0: eb26 093d 255d 493e c5ea a73d 19d1 433c
000003d0: 7c65 08be a6ac c9bc 0527 33be 39b0 aa3c
000003e0: 086c d83d 56aa febd 2ef7 19bf 264e 853d
000003f0: e3e9 d4b9 3b8d 483e 5a49 e33d 392f 06be

Tmodel.fe1.FC3.bias f4 [64]
-0.11334658 -0.14723143 -0.05301363 -0.2635116 0.03438881 0.43156347 -0.23829803 0.7617322
-0.19147515 -0.26614618 0.14041175 0.02662088 -0.11206946 0.697402 0.36503112 0.44154194
-0.2285763 0.029920645 -0.25424048 0.08755557 0.033193275 0.310272 -0.21506923 0.366518
0.15353252 0.24548565 0.08739229 0.27613458 0.16880904 -0.06744759 0.024384283 -0.06819744
-0.21501921 0.09695235 -0.05413546 0.0714356 0.11676081 -0.21491955 -0.2436914 0.19867773
-0.078321174 -0.21864472 0.17062305 0.22739871 -0.17145234 -0.18348211 0.06491977 0.04156087
-0.12200305 0.024618452 0.056190588 -0.376741 0.08348088 -0.11249065 -0.120620206 0.09858603
0.11418492 0.28218463 -0.05099399 -0.077189796 -0.012423424 0.016463708 -0.46538028 -0.18723294
00000000: 4022 e8bd d6c3 16be d224 59bd feea 86be
00000010: 48db 0c3d e3f5 dc3e 6604 74be e200 433f
00000020: 1012 44be 5044 88be 19c8 0f3e 0814 da3c
00000030: ac84 e5bd f088 323f 5ce5 ba3e c911 e23e
00000040: e80f 6abe 241c f53c cf2b 82be 5650 b33d
00000050: acf5 073d f9db 9e3e 1c3b 5cbe 3fa8 bb3e
00000060: a137 1d3e 9760 7b3e bbfa b23d 8361 8d3e
00000070: 47dc 2c3e f621 8abd 8cc1 c73c 19ab 8bbd
00000080: ff2d 5cbe f48e c63d 25bd 5dbd d44c 923d
00000090: 4b20 ef3d df13 5cbe 3d8a 79be 2d72 4b3e
000000a0: da66 a0bd 67e4 5fbe cfb7 2e3e 35db 683e
000000b0: 3491 2fbe bce2 3bbe a8f4 843d bb3b 2a3d
000000c0: bcdc f9bd a3ac c93c 1a28 663d 32e4 c0be
000000d0: 06f8 aa3d 7f61 e6bd ba07 f7bd 79e7 c93d
000000e0: c9d9 e93d 817a 903e 13df 50bd af15 9ebd
000000f0: 9e8b 4bbc e6de 863c 5346 eebe feb9 3fbe

Tmodel.fe1.FC4.weight f4 [32, 128]
-0.0050469902 -0.42493784 -0.17605463 -0.20240992 -0.08242279 0.3318939 -0.11261551 0.05520481
0.06800164 -0.036402598 0.25197804 -0.048129916 0.12434706 0.15607466 0.020687342 -0.041916844
-0.013610582 -0.11694126 -0.22829889 -0.011350874 0.028982027 0.07893013 -0.20000517 -0.14226097
0.3098342 0.041791156 -0.34213668 0.1542783 0.0527687 0.084898576 -0.1862122 0.08954888
-0.320045 0.27189565 0.120403245 0.13789202 -0.15480508 -0.3876759 -0.14463967 0.180143
0.23422667 0.1400807 0.111600645 0.14612894 -0.14468592 0.24244122 0.022802029 0.40775335
-0.11458807 0.12243404 -0.051440217 0.05801441 -0.038742628 0.18244423 -0.052851222 -0.27448663
0.16723932 0.25272065 -0.6288427 0.14247434 0.19584963 0.268166 -0.037782203 0.11985572
0.17854188 -0.24622197 0.6179689 0.04207477 0.20883326 -0.068701 0.1863785 0.035203926
0.28890076 -0.18556413 -0.061428245 0.13978143 0.09211634 -0.05027843 0.04476739 0.10959701
0.12341808 0.2600354 0.008401128 0.033281118 -0.010905859 -0.0045118215 0.17976698 -0.14161591
0.12056648 -0.014142223 0.30248794 0.110647395 -0.094618484 0.12646963 0.25080237 0.096959025
-0.062349264 -0.07595548 -0.54599184 0.22519855 -0.22513452 0.2914812 0.33325788 -0.3473574
0.027585765 -0.5602746 0.09585872 -0.020530736 0.0037807387 -0.21705467 0.3795657 0.24030219
0.25445184 -0.066439174 0.00573989 -0.048843224 0.13362873 0.45207176 0.116268106 -0.0669787
0.038090847 0.1260242 -0.3347911 -0.06558735 0.014853024 -0.27558544 0.045511372 -0.08985657
0.024888268 0.124354534 0.31530753 0.014083786 0.000743615 0.03595162 0.021860069 -0.007294174
0.075265884 -0.16788237 -0.028337173 -0.14338449 -0.18434086 -0.07037717 0.076593116 0.00065928994
0.1695478 -0.20692389 0.047795594 -0.026531447 -0.13916922 0.10090678 0.40617892 0.13832812
-0.20334454 -0.13604355 0.16993447 -0.100439236 -0.05191648 -0.03843039 0.2579846 -0.25129476
0.27654114 -0.3342567 -0.037486266 0.18698867 -0.069169715 0.35911158 -0.19539736 -0.29038504
0.022141522 -0.2902014 -0.19372196 -0.1412425 0.0021332235 0.043391194 0.10010754 -0.00049416727
0.15436305 0.00442242 -0.0332275 0.36953038 0.10414182 0.24456316 0.17634015 -0.0100986855
0.34367058 -0.20060803 0.28360465 -8.580654e-05 -0.12771206 -0.2544095 0.06983838 0.27100265
-0.26481506 -0.10639998 -0.27205518 0.003606888 -0.17553627 0.11498128 -0.052477516 0.045508444
-0.0069433567 0.18353456 -0.07755224 -0.16737391 0.019020468 0.1471944 0.0053700223 0.06978218
-0.17098144 0.20049559 -0.10996069 0.0024398223 0.054774057 -0.21546866 -0.108792506 -0.28175384
0.2622476 0.066084825 -0.10174381 -0.108222954 -0.14994459 0.01849994 -0.13175417 0.17360845
0.058303244 0.17788953 0.19673544 0.020958336 0.008215198 -0.042541116 0.14149593 0.49257457
0.09745915 0.40472347 -0.29620495 0.20772377 0.11837443 -0.24002145 -0.19211113 -0.34466365
-0.07078033 0.010319405 0.093846 -0.10072451 -0.08963568 -0.14579085 0.05081809 0.23942843
-0.20190671 0.33253688 -0.10936252 0.15242413 -0.15479656 -0.08428768 -0.09217949 -0.18822871
00000000: 3961 a5bb 7491 d9be aa47 34be 8c44 4fbe
00000010: 48cd a8bd ffed a93e f6a2 e6bd 701e 623d
00000020: 7244 8b3d e41a 15bd 4403 813e e023 45bd
00000030: aca9 fe3d 09d2 1f3e 8078 a93c ffb0 2bbd
00000040: ebfe 5ebc e67e efbd 2fc7 69be 04f9 39bc
00000050: b76b ed3c 1fa6 a13d 28ce 4cbe dcac 11be
00000060: 97a2 9e3e 342d 2b3d 8a2c afbe 21fb 1d3e
00000070: fe23 583d 4edf ad3d 69ae 3ebe 6765 b73d
00000080: f0dc a3be e835 8b3e fa95 f63d 9133 0d3e
00000090: 3985 1ebe 757d c6be 6c1c 14be 6877 383e
000000a0: 1ed9 6f3e 5171 0f3e e18e e43d d3a2 153e
000000b0: 8c28 14be 8342 783e 52cb ba3c 0cc5 d03e
000000c0: 26ad eabd b3be fa3d fab2 52bd 85a0 6d3d
000000d0: 97b0 1ebd a9d2 3a3e 867a 58bd 8389 8cbe
000000e0: c940 2b3e 9a64 813e d6fb 20bf cbe4 113e
000000f0: ce8c 483e 0e4d 893e 83c1 1abd ea76 f53d
00000100: afd3 363e 9d21 7cbe 3633 1e3f 9856 2c3d
00000110: 63d8 553e 1cb3 8cbd 01da 3e3e fe31 103d
00000120: cdea 933e 8604 3ebe 2f9c 7bbd dd22 0f3e
00000130: 7ea7 bc3d c1f0 4dbd 035e 373d 6674 e03d
00000140: 9ec2 fc3d 5c23 853e e3a4 093c c851 083d
00000150: 7dae 32bc e7d7 93bb d614 383e c303 11be
00000160: 8feb f63d c8b4 67bc b3df 9a3e 1a9b e23d
00000170: 56c7 c1bd 4181 013e 2b69 803e 7492 c63d
00000180: f161 7fbd 8c8e 9bbd 1fc6 0bbf 739a 663e
00000190: aa89 66be 063d 953e c7a0 aa3e d4d8 b1be
000001a0: 8bfb e13c 286e 0fbf 9451 c43d 1330 a8bc
000001b0: 45c6 773b 9443 5ebe 6f56 c23e c711 763e
000001c0: 8347 823e 4311 88bd b015 bc3b d50f 48bd
000001d0: f8d5 083e f375 e73e f91d ee3d 212c 89bd
000001e0: 2605 1c3d 7d0c 013e bd69 abbe a952 86bd
000001f0: 195a 733c 8919 8dbe 226a 3a3d b906 b8bd
00000200: 7be2 cb3c 97ad fe3d fd6f a13e aebf 663c
00000210: 28ef 423a 0242 133d e313 b33c f703 efbb
00000220: 0025 9a3d 5be9 2bbe 5c23 e8bc 62d3 12be
00000230: dac3 3cbe e821 90bd dadc 9c3d 33d4 2c3a
00000240: f09d 2d3e dbe3 53be 50c5 433d 7a58 d9bc
00000250: 6082 0ebe 37a8 ce3d aff6 cf3e e3a5 0d3e
00000260: 8d39 50be 004f 0bbe 4d03 2e3e 16b3 cdbd
00000270: 60a6 54bd 2f69 1dbd 8f16 843e b5a9 80be
00000280: cd96 8d3e b223 abbe 338b 19bd f579 3f3e
00000290: daa8 8dbd 79dd b73e 3f16 48be 59ad 94be
000002a0: 2362 b53c 4795 94be 0d5f 46be e0a1 10be
000002b0: 8dcd 0b3b f7ba 313d 2f05 cd3d 018b 01ba
000002c0: 5911 1e3e f3e9 903b 8f19 08bd 1633 bd3e
000002d0: 4e48 d53d c46e 7a3e 8392 343e f574 25bc
000002e0: 97f5 af3e 316c 4dbe a134 913e 09f3 b3b8
000002f0: f3c6 02be f641 82be 6d07 8f3d dcc0 8a3e
00000300: d795 87be 3ce8 d9bd d14a 8bbe 8a61 6c3b
00000310: c8bf 33be 4e7b eb3d aaf2 56bd 1067 3a3d
00000320: 1985 e3bb 7cf0 3b3e b5d3 9ebd 1164 2bbe
00000330: d0d0 9b3c 21ba 163e 03f7 af3b f6e9 8e3d
00000340: c215 2fbe b74e 4d3e 1233 e1bd 6de5 1f3b
00000350: c35a 603d d1a3 5cbe 9bce debd 0a42 90be
00000360: 5145 863e 7b57 873d 0f5f d0bd ffa3 ddbd
00000370: 138b 19be 308d 973c 91ea 06be 6ac6 313e
00000380: 62cf 6e3d ac28 363e 0475 493e d1b0 ab3c
00000390: 0a99 063c 983f 2ebd 4fe4 103e bc32 fc3e
000003a0: aa98 c73d ea37 cf3e 2da8 97be 8ab5 543e
000003b0: 4b6e f23d 2fc8 75be c8b8 44be c177 b0be
000003c0: 47f5 90bd b912 293c 5532 c03d a748 cebd
000003d0: e992 b7bd 324a 15be a126 503d ba2c 753e
000003e0: a2c0 4ebe 4642 aa3e 75f9 dfbd 1215 1c3e
000003f0: fd82 1ebe 059f acbd 9ac8 bcbd 07bf 40be

Tmodel.fe1.FC4.bias f4 [32]
0.17027134 0.079405226 0.0058250856 -0.15358543 0.08922814 0.17842652 -0.031615525 0.03513368
-1.952508 1.1427475 0.06636471 -0.03629044 -0.15500449 0.16258785 0.09839991 0.070609905
0.12827449 0.097068965 -0.13677193 -0.08273128 0.12878728 0.28165877 -0.058845613 0.9083928
0.007897194 0.24333213 -0.045213144 0.093885265 0.3620957 0.13243277 0.15169752 0.07676283
00000000: 9c5b 2e3e 359f a23d 5ce0 be3b 8045 1dbe
00000010: 3ebd b63d 71b5 363e 487f 01bd 55e8 0f3d
00000020: c8eb f9bf 8d45 923f 39ea 873d 49a5 14bd
00000030: 7fb9 1ebe 6e7d 263e e485 c93d ed9b 903d
00000040: 635a 033e 18cc c63d f10d 0cbe 046f a9bd
00000050: d0e0 033e 9435 903e 1908 71bd 6e8c 683f
00000060: 3b63 013c 0f2c 793e 6b31 39bd eb46 c03d
00000070: 9c64 b93e 759c 073e 9856 1b3e d535 9d3d

Tmodel.norm1.weight f4 [32]
0.33759984 0.3779123 0.36512288 0.59847206 0.33827022 0.26876837 0.4114308 0.41920602
0.24193285 0.011385716 0.4425272 0.41959706 0.58304673 0.32656917 0.33994132 0.30197966
0.3556982 0.32468373 0.26081258 0.41583636 0.29440886 0.25890735 0.30203575 0.008937896
0.40827966 0.17560153 0.26536918 0.25983822 0.1428189 0.25948215 0.36589655 0.27234253
00000000: e3d9 ac3e b97d c13e 63f1 ba3e 7735 193f
00000010: c131 ad3e 029c 893e 0fa7 d23e 2ca2 d63e
00000020: 3fbd 773e 278b 3a3c ed92 e23e 6dd5 d63e
00000030: 8d42 153f 1334 a73e ca0c ae3e 149d 9a3e
00000040: 131e b63e f23c a63e 3a89 853e 81e8 d43e
00000050: c2bc 963e 818f 843e 6ea4 9a3e 4170 123c
00000060: 080a d13e e3d0 333e 78de 873e 8409 853e
00000070: 1e3f 123e d8da 843e cb56 bb3e 7b70 8b3e

Tmodel.norm1.bias f4 [32]
-0.0386765 0.09663516 0.07980107 -0.05771353 0.021805238 0.045092016 -0.033974923 -0.0072707264
0.5066558 -0.078750476 -0.02137117 -0.042340875 -0.006473835 0.04295047 0.00027661788 -0.028058443
-0.08630728 -0.009023542 -0.085763276 -0.011152446 -0.017002987 0.04067802 -0.0023923102 -0.06161745
-0.040013216 -0.0725962 -0.11525777 -0.0033569569 -0.10460968 -0.15775712 0.05774362 -0.017187709
00000000: 406b 1ebd a8e8 c53d be6e a33d 0665 6cbd
00000010: e6a0 b23c 68b2 383d 4a29 0bbd 463f eebb
00000020: 32b4 013f ee47 a1bd 9812 afbc a06d 2dbd
00000030: 7722 d4bb d5ec 2f3d 0607 9139 d2da e5bc
00000040: dfc1 b0bd 7ad7 13bc a8a4 afbd c0b8 36bc
00000050: d949 8bbc ff9d 263d 4ec8 1cbb 9462 7cbd
00000060: e6e4 23bd 51ad 94bd 440c ecbd 6400 5cbb
00000070: 9a3d d6bd 158b 21be 9384 6c3d 3dcd 8cbc

Tmodel.out1.weight f4 [32, 32]
-0.007013751 -0.014819056 -0.036004312 0.007162845 -0.042928085 -0.08163346 -0.002385649 -0.090368114
0.025077954 -0.027111204 -0.042068128 -0.053159006 -0.06339615 -0.031783532 -0.063423604 -0.053767182
0.0010919507 -0.047661647 -0.11311903 -0.07110907 -0.026425058 -0.049414914 -0.04840356 -0.062095363
-0.08015938 -0.031210365 -0.09252289 -0.021395167 -0.016410002 -0.035375055 -0.03504822 -0.039867178
-0.31079894 0.27491537 0.066006415 -0.0026664012 0.1404212 -0.34460777 -0.05536275 0.027125647
0.2353074 -0.018341823 0.03172516 -0.23003069 0.14820257 -0.26745936 0.23772727 -0.05238965
-0.04861317 -0.10250318 -0.16603519 -0.10633351 -0.07907852 -1.5841537 -0.19774833 -0.0064082313
0.108496875 -0.090863004 -0.14372258 -0.6757451 0.16426192 0.10690176 0.032771 0.22301352
0.35729015 0.27630365 -0.51593757 -0.5475258 -0.08735704 -0.0038131513 -0.1524988 -0.30277613
0.29502156 -0.0053237216 -0.21748288 -0.12582228 0.071277544 0.33431602 0.24752347 -0.02093399
-0.12890713 0.034535415 0.14791414 -0.2956865 0.027268361 0.008669676 -0.09941798 -0.029806772
0.22141244 0.05367618 -0.30782253 0.25909743 0.10144465 -0.06610624 -0.027570188 -0.10508373
-0.05499171 -0.019098455 0.039733764 -0.00072397484 -0.04852384 -0.05284347 0.023041384 -0.040616307
-0.01990976 -0.014604954 -0.04234044 -0.11752286 0.008140206 -0.05419228 -0.029840855 -0.009160269
0.015112978 -0.09056527 0.043514397 -0.0010875104 -0.017725876 -0.12590319 -0.13640654 -0.038956825
-0.01779314 -0.043592677 0.012722388 -0.051888287 -0.10062357 -0.00759633 -0.018750647 0.0005999384
-0.34513727 -0.06075196 0.057875942 -0.059857436 -0.07129082 -0.024258275 -0.12015997 0.061834525
0.6398057 -0.21714234 -0.008810658 -0.23299511 0.2400583 -0.033568483 0.002337674 0.04406814
0.09149915 -0.012162864 -0.17644751 0.06641017 -0.66015667 -0.13803595 -0.19587602 -0.45476875
0.089041725 -0.437991 -0.31304884 -0.15140703 -0.31401575 -0.3601274 -0.00025159703 -0.029160818
-0.005991195 -0.0036240916 -0.0019778078 -0.11999039 -0.011458951 0.0006964358 -0.03994713 -0.0054585966
-0.0075739995 -0.013374253 -0.0043849354 -0.06431182 -0.04798476 0.00034470644 0.0032061643 -0.04653056
-0.0010890185 0.005637366 -0.003952942 0.002180263 -0.0058407197 0.0058588926 -0.018657312 0.0008713729
-0.022204535 0.00087357266 -0.008923956 -0.012256201 0.00773154 0.014304726 0.0037712427 -0.005429627
-0.4465037 0.42152414 -0.6411956 0.37774134 0.19025424 -0.065974355 0.059518572 0.07852454
0.1291953 0.0198141 -0.5060263 0.019755602 0.076000094 0.1243939 0.029523144 0.12816443
-0.06379153 -0.029465403 -0.01466238 -0.045441244 -0.091019936 -0.016193287 -0.088406324 0.024618654
-0.1164321 0.01238248 -0.1501379 0.073364325 0.056385383 -0.08195032 0.016612383 0.012130472
0.0023347943 -0.0053518913 0.009366518 -0.04510539 -0.021315726 0.0024843905 -0.022071058 0.0059836716
0.022156766 0.013436911 -0.011427426 -0.03757205 -0.14408424 -0.030246072 -0.010172197 -0.0076625496
0.032290954 0.008498882 -0.08338384 0.003795453 -0.025224721 -0.015441464 -0.05593866 -0.010814687
-0.031260863 -0.0007556444 0.01390792 -0.02046255 -0.024910744 -0.0074392976 -0.024225842 -0.032866757
00000000: 9cd3 e5bb a0cb 72bc 4279 13bd 4db6 ea3b
00000010: 5cd5 2fbd 722f a7bd 8c58 1cbb eb12 b9bd
00000020: 4870 cd3c 5118 debc a14f 2cbd 42bd 59bd
00000030: d7d5 81bd 732f 02bd 3ce4 81bd fa3a 5cbd
00000040: c91f 8f3a dc38 43bd f3aa e7bd a2a1 91bd
00000050: 5d79 d8bc 4b67 4abd d042 46bd b557 7ebd
00000060: 9a2a a4bd e1ac ffbc a47c bdbd eb44 afbc
00000070: 456e 86bc 6fe5 10bd b98e 0fbd c44b 23bd
00000080: 0a21 9fbe b5c1 8c3e 5f2e 873d cabe 2ebb
00000090: 93ca 0f3e 6e70 b0be 0dc4 62bd 9b36 de3c
000000a0: 6cf4 703e 9741 96bc 3ef2 013d 2a8d 6bbe
000000b0: 6ac2 173e 6ff0 88be c76e 733e 8896 56bd
000000c0: 9a1e 47bd 30ed d1bd 2105 2abe 62c5 d9bd
000000d0: ebf3 a1bd 8cc5 cabf 8a7e 4abe 24fc d1bb
000000e0: 9c33 de3d 6216 babd 032c 13be a2fd 2cbf
000000f0: 4734 283e 4fef da3d e23a 063d a85d 643e
00000100: bcee b63e ac77 8d3e 7c14 04bf a72a 0cbf
00000110: 3fe8 b2bd 10e6 79bb a528 1cbe 7905 9bbe
00000120: 110d 973e 9d72 aebb d5b3 5ebe 8ed7 00be
00000130: f6f9 913d 782b ab3e cb76 7d3e c27d abbc
00000140: 3b00 04be 0275 0d3d ce76 173e 3964 97be
00000150: e661 df3c 420b 0e3c a79b cbbd 552d f4bc
00000160: f1b9 623e 8edb 5b3d ea9a 9dbe 6ba8 843e
00000170: 36c2 cf3d b562 87bd e0da e1bc 2336 d7bd
00000180: fd3e 61bd 5d74 9cbc dfbf 223d 21c9 3dba
00000190: efc0 46bd 6572 58bd 49c1 bc3c 495d 26bd
000001a0: cb19 a3bc 9e49 6fbc 2b6d 2dbd d3af f0bd
000001b0: 805e 053c b9f8 5dbd cf74 f4bc f414 16bc
000001c0: 6d9c 773c 497a b9bd 273c 323d cb8a 8eba
000001d0: db35 91bc c4ec 00be 28ae 0bbe 3191 1fbd
000001e0: ebc2 91bc 3c8e 32bd 9071 503c d088 54bd
000001f0: bb13 cebd a2ea f8bb f59a 99bc 2f45 1d3a
00000200: d5b5 b0be 0cd7 78bd 530f 6d3d 122d 75bd
00000210: ec00 92bd 4ab9 c6bc 6e16 f6bd 3346 7d3d
00000220: 4eca 233f 905a 5ebe 945a 10bc 4596 6ebe
00000230: d8d1 753e 1b7f 09bd a933 193b cb80 343d
00000240: e863 bb3d c046 47bc a8ae 34be 0e02 883d
00000250: 0700 29bf 4c59 0dbe b993 48be 73d7 e8be
00000260: 825b b63d 5b40 e0be f047 a0be 720a 1bbe
00000270: acc6 a0be 9e62 b8be c8e8 83b9 abe2 eebc
00000280: c951 c4bb 2b82 6dbb 1c9e 01bb 86bd f5bd
00000290: 53be 3bbc 0491 363a 9a9f 23bd 07de b2bb
000002a0: 502f f8bb af1f 5bbc 81af 8fbb eab5 83bd
000002b0: ab8b 44bd b7b9 b439 831e 523b d496 3ebd
000002c0: 66bd 8eba a7b9 b83b ae87 81bb bee2 0e3b
000002d0: 8263 bfbb f4fb bf3b 38d7 98bc d86c 643a
000002e0: 49e6 b5bc 7800 653a c935 12bc 3cce 48bc
000002f0: dc58 fd3b 5f5e 6a3c f426 773b 03eb b1bb
00000300: 229c e4be 03d2 d73e 6525 24bf 5067 c13e
00000310: 02d2 423e 901d 87bd bfc9 733d 79d1 a03d
00000320: c64b 043e 2e51 a23c f18a 01bf 80d6 a13c
00000330: f0a5 9b3d 3bc2 fe3d 85da f13c 893d 033e
00000340: 22a5 82bd 6e61 f1bc 7b3a 70bc 9920 3abd
00000350: a968 babd c9a7 84bc 600e b5bd 0fad c93c
00000360: f473 eebd e3df 4a3c c0bd 19be 0940 963d
00000370: 5cf4 663d 92d5 a7bd b116 883c e3be 463c
00000380: 5903 193b eb5e afbb 0676 193c 6ec0 38bd
00000390: 519e aebc 28d1 223b 5dce b4bc ad12 c43b
000003a0: 1b82 b53c 7d26 5c3c 193a 3bbc 26e5 19bd
000003b0: d28a 13be 9cc6 f7bc 49a9 26bc 2016 fbbb
000003c0: 8543 043d e53e 0b3c 26c5 aabd 23bd 783b
000003d0: 13a4 cebc 32fe 7cbc f01f 65bd 1630 31bc
000003e0: 640b 00bd 7016 46ba 0bde 633c 14a1 a7bc
000003f0: 9e11 ccbc 5ac5 f3bb 4675 c6bc 4b9f 06bd

Tmodel.out1.bias f4 [32]
-0.09226559 -0.06666295 -0.039705914 -0.08465197 -0.250229 -0.011142871 -0.04966442 -0.031403832
-0.02772068 -0.08588168 0.039741658 -0.024247935 0.037722316 -0.16106875 0.004278579 0.23870169
-0.007607244 -0.013802493 0.018689143 -0.16041549 -0.06991808 -0.009663152 -0.020897033 -0.055553105
0.008829842 -0.026331237 -0.015274819 -0.05735682 -0.09189351 0.038080513 0.025795609 -0.0112379035
00000000: bef5 bcbd 9686 88bd aba2 22bd 035e adbd
00000010: 041e 80be 9790 36bc eb6c 4bbd 4ea1 00bd
00000020: 7b16 e3bc bce2 afbd 26c8 223d 9ba3 c6bc
00000030: b782 1a3d 35ef 24be 5233 8c3b 376e 743e
00000040: 3046 f9bb da23 62bc f919 993c f543 24be
00000050: 3631 8fbd 3252 1ebc 4130 abbc a78b 63bd
00000060: 0bab 103c 9bb4 d7bc 3c43 7abc fcee 6abd
00000070: aa32 bcbd 50fa 1b3d 5051 d33c 2f1f 38bc

Tmodel.out2.weight f4 [1, 32]
0.013099153 -0.1566994 0.100584865 -0.009379055 -0.5441235 0.00038540384 0.12858939 0.007338266
-0.00038033916 -0.1426075 -0.14543533 -0.14683543 0.3931408 0.043274168 0.06282787 -0.052752372
-0.0803642 -0.03343204 -0.043554418 0.23078805 0.09178807 -0.27984232 0.16656685 -0.0040976
0.320101 -0.26869813 -0.2369428 -0.116534725 0.4922197 0.40086415 0.070919275 -0.0010495827
00000000: d49d 563c cf75 20be 70ff cd3d 9caa 19bc
00000010: ad4b 0bbf 0710 ca39 f0ac 033e d675 f03b
00000020: 4268 c7b9 b307 12be 00ed 14be 075c 16be
00000030: c049 c93e 4140 313d e6ab 803d df12 58bd
00000040: fc95 a4bd 09f0 08bd 1e66 32bd b453 6c3e
00000050: 62fb bb3d 7e47 8fbe 8090 2a3e 2945 86bb
00000060: 47e4 a33e cd92 89be 22a1 72be c2a9 eebd
00000070: 3804 fc3e 113e cd3e 203e 913d 2792 89ba

Rmodel1.fe1.FC1.weight f4 [64, 9]
-0.023615982 -0.039745215 -0.017692141 0.022737669 0.078267455 0.15111752 0.0471176 -0.012965687
0.009678211 0.012621426 0.004142217 0.023367744 0.00013294295 0.15247412 0.0049726786 0.05529094
0.05018053 0.041133933 0.054155964 -0.02485909 -0.0024307498 -0.056851435 0.008013786 -0.11176819
-0.0010657914 0.024224266 -0.024020191 0.06389165 -0.020022 0.048104454 0.042628083 0.02314413
-0.024207365 -0.09275592 0.008700531 0.056375448 -0.044060715 -0.0045477063 0.0275127 0.0012692738
-0.09454927 0.12688397 -0.08096232 -0.033532668 -0.02158997 0.052862823 0.05363618 0.0038387275
-0.021867607 0.04265139 -0.032913182 -0.0014239183 -0.005424471 -0.0055571264 -0.046941385 0.005019364
-0.0141446125 0.0154287955 0.011976991 -0.0077201994 0.004734692 -0.0005647873 0.0017471744 0.044540554
-0.01433876 0.017371586 -0.020113416 -0.010511624 0.012290607 -0.0143889 -0.06736003 0.099076584
0.4432364 -0.0042405166 0.20990175 -0.16394459 -0.10525049 0.104490645 0.040398754 -0.021609982
-0.12119628 -0.18275152 -0.020195343 -0.0793502 0.072693646 0.07237423 -0.05143631 0.03649595
0.0063416716 -0.025937244 0.0020095115 0.0020736854 0.0023116118 0.023215476 -0.0038552019 -0.015626272
-0.003392863 0.0031333652 -0.0018778787 -0.602659 0.0013411631 -0.27221748 0.21126153 0.12598681
-0.1244039 -0.06497149 -0.036848754 -0.0077966885 0.30933547 0.007420184 0.1458325 -0.11337142
-0.0631549 0.07782704 0.026615543 -0.006895724 -0.01494844 0.41822097 0.0012885105 0.18780233
-0.14393166 -0.08364938 0.08331304 0.043884095 0.023068592 0.004026106 0.6938085 -0.0033652787
0.3174191 -0.24471763 -0.14425194 0.14391084 0.07687141 0.045411352 0.012015573 -0.35678694
-0.0010965193 -0.17287883 0.14987014 0.077633284 -0.09259152 -0.03498652 -0.022917679 -0.018005015
-0.055437658 0.0044865347 -0.02580789 -0.009330099 -0.012132672 -0.0026286296 0.15120398 -0.088127956
0.0033036896 -0.028858738 0.016346747 0.03065441 -0.023909338 -0.001350708 0.021029502 0.013791687
-0.003468491 -0.0015141815 0.24684526 0.008738528 0.117356345 -0.07960832 -0.06044022 0.030119808
0.026602734 0.0016876344 -0.035407126 -0.08226601 -0.0085397875 -0.03681102 0.034137443 0.049923692
0.015252629 -0.0045413855 0.12645775 -0.05824258 0.414098 0.007862356 0.20096456 -0.15760107
-0.09406734 0.09738648 0.05564572 0.057314243 0.038707204 0.04621389 0.020769032 0.022588026
-0.022290608 -0.008152959 -0.006705893 0.034209773 -0.020519363 0.08337117 -0.07778154 0.008780842
-0.036289215 0.038129333 0.014916545 -0.015090906 -0.021855073 -0.00659227 -0.0012369376 0.14657992
-0.07404862 0.060912874 -0.036870267 -0.039422154 -0.0629022 -0.08641697 -0.025928343 -0.006875122
0.01943126 -0.0048057796 0.019878017 -0.004185722 -0.008293163 -0.008240534 0.17574686 0.062353738
-0.008285097 -0.045259356 0.035647076 0.035383943 0.049798496 -0.17364758 0.024576984 0.024384055
-0.0012553141 0.032659214 0.04704706 0.013633622 0.015185169 -0.08868538 -0.024832107 0.028668076
-0.008863046 0.008573212 0.0028290786 0.030732235 -0.0148134865 0.032057878 0.07201967 0.03540443
-0.060140237 -0.014333934 -0.014626959 -0.018395036 0.09301642 0.06084159 0.017747223 -0.011212568
00000000: 4e76 c1bc e1cb 22bd 1cef 90bc 5944 ba3c
00000010: b04a a03d 8dbe 1a3e 62fe 403d 086e 54bc
00000020: 5c91 1e3c 19ca 4e3c 6fbb 873b b66d bf3c
00000030: 9a66 0b39 2d22 1c3e daf1 a23b c178 623d
00000040: 198a 4d3d 0e7c 283d a5d2 5d3d 4aa5 cbbc
00000050: 374d 1fbb 0ddd 68bd 414c 033c b9e6 e4bd
00000060: 06b2 8bba f871 c63c fec5 c4bc a0d9 823d
00000070: 2d05 a4bc 2d09 453d c99a 2e3d c298 bd3c
00000080: 864e c6bc d1f6 bdbd ac8c 0e3c f1e9 663d
00000090: 0279 34bd ed04 95bb 5062 e13c c35d a63a
000000a0: 0ca3 c1bd dfed 013e 93cf a5bd 8d59 09bd
000000b0: 73dd b0bc b086 583d 9cb1 5b3d 2993 7b3b
000000c0: b223 b3bc 39b3 2e3d f9cf 06bd c5a2 baba
000000d0: c3bf b1bb 8e18 b6bb 9c45 40bd 7a79 a43b
000000e0: cebe 67bc 0fc9 7c3c 243b 443c baf9 fcbb
000000f0: 7a25 9b3b 3c0e 14ba 7201 e53a 2870 363d
00000100: 1eed 6abc db4e 8e3c e4c4 a4bc f238 2cbc
00000110: 8b5e 493c 6cbf 6bbc 0ef4 89bd aae8 ca3d
00000120: e2ef e23e 08f4 8abb 7cf0 563e 17e1 27be
00000130: 928d d7bd 31ff d53d 2a79 253d 6b07 b1bc
00000140: c135 f8bd 3723 3bbe b470 a5bc 5c82 a2bd
00000150: 68e0 943d f138 943d e1ae 52bd c77c 153d
00000160: cccd cf3b 587a d4bc 02b2 033b abe6 073b
00000170: 697e 173b 622e be3c 8ea7 7cbb ab02 80bc
00000180: cc5a 5ebb 2559 4d3b 2723 f6ba dc47 1abf
00000190: f7c9 af3a 1760 8bbe f154 583e b002 013e
000001a0: 79c7 febd c60f 85bd b8ee 16bd 5d7b ffbb
000001b0: 3861 9e3e 0425 f33b 1d55 153e 462f e8bd
000001c0: 5b57 81bd c863 9f3d d708 da3c 87f5 e1bb
000001d0: 4dea 74bc 0f21 d63e 3de3 a83a 414f 403e
000001e0: d262 13be 5e50 abbd 07a0 aa3d cfbf 333d
000001f0: 58fa bc3c 6ded 833b 6f9d 313f 028c 5cbb
00000200: c284 a23e 4297 7abe c8b6 13be 5d5d 133e
00000210: c26e 9d3d 4101 3a3d f7dc 443c c7ac b6be
00000220: 15b9 8fba 2607 31be 8f77 193e 33fe 9e3d
00000230: 9fa0 bdbd 064e 0fbd dbbd bbbc 417f 93bc
00000240: 9912 63bd c803 933b 116b d3bc 46dd 18bc
00000250: 1dc8 46bc 1645 2cbb 37d5 1a3e 6e7c b4bd
00000260: b782 583b 2969 ecbc 9de9 853c f51e fb3c
00000270: 84dd c3bc 3d0a b1ba 1046 ac3c 87f6 613c
00000280: 9f4f 63bb 8077 c6ba 01c5 7c3e 0b2c 0f3c
00000290: 8658 f03d b009 a3bd 2a90 77bd d1bd f63c
000002a0: faed d93c 9d33 dd3a 1007 11bd 157b a8bd
000002b0: 77ea 0bbc 27c7 16bd b4d3 0b3d c97c 4c3d
000002c0: 2ae6 793c e7cf 94bb 247e 013e c68f 6ebd
000002d0: a704 d43e 1cd1 003c a7c9 4d3e 2d62 21be
000002e0: 61a6 c0bd 9072 c73d c4ec 633d 57c2 6a3d
000002f0: 728b 1e3d c74a 3d3d d123 aa3c 860a b93c
00000300: cb9a b6bc fd93 05bc 1cbd dbbb 8c1f 0c3d
00000310: 3918 a8bc 81be aa3d ee4b 9fbd 85dd 0f3c
00000320: 00a4 14bd 812d 1c3d 8664 743c d93f 77bc
00000330: 6909 b3bc f803 d8bb bd20 a2ba 0c19 163e
00000340: cea6 97bd c77f 793d 4705 17bd 2079 21bd
00000350: ded2 80bd 61fb b0bd ad67 d4bc b448 e1bb
00000360: 4e2e 9f3c cd79 9dbb 39d7 a23c 6228 89bb
00000370: 0ce0 07bc 4e03 07bc fcf6 333e a266 7f3d
00000380: 37be 07bc e061 39bd ab02 123d c1ee 103d
00000390: 82f9 4b3d acd0 31be ac55 c93c 12c1 c73c
000003a0: 5a89 a4ba abc5 053d 6bb4 403d 8e5f 5f3c
000003b0: 37cb 783c aea0 b5bd b46c cbbc 50d9 ea3c
000003c0: 4f36 11bc a876 0c3c 1068 393b 2bc2 fb3c
000003d0: 44b4 72bc 1f4f 033d 0c7f 933d 3c04 113d
000003e0: 9c55 76bd e0d8 6abc eaa5 6fbc 30b1 96bc
000003f0: 657f be3d 0835 793d a062 913c ebb4 37bc

Rmodel1.fe1.FC1.bias f4 [64]
-0.62259567 -0.61187994 -0.6585366 -0.5000322 -0.8289644 -0.7480459 0.21093221 -0.2790167
-0.33176896 -0.53313226 -0.4969879 -0.3217546 -0.4871034 -0.46064037 0.030725952 -0.30021986
-0.5198866 -0.5109565 -0.39785746 -0.5954343 -0.39451158 -0.6929721 0.24668714 -0.550201
-0.32843953 -0.5046406 -0.7077661 -0.2048507 -0.676918 -0.72283435 -0.38144156 -0.32199988
-0.23538768 -0.77032787 -0.55425406 -0.48124418 -0.31279516 -0.49987316 -0.8501493 -0.30057573
-0.7110457 -0.87556964 -0.6164123 -0.26658896 -0.24943484 -0.7967647 -0.9281942 -0.80788225
-0.34752333 0.018766692 -0.6798608 -0.4440534 -0.47108054 -0.9723351 0.22858648 -0.7021801
-0.51102424 -0.47719672 -0.64558816 -0.6047206 -0.47102138 -0.36566657 -0.3289164 -0.5560145
00000000: 6e62 1fbf 2aa4 1cbf db95 28bf 1c02 00bf
00000010: 0337 54bf f07f 3fbf 9dfe 573e 47db 8ebe
00000020: 9fdd a9be 5b7b 08bf 3375 febe 05bd a4be
00000030: 9e65 f9be 0ed9 ebbe feb4 fb3c 6bb6 99be
00000040: 4a17 05bf 0cce 02bf f9b3 cbbe 626e 18bf
00000050: 6cfd c9be 9f66 31bf 8e9b 7c3e f9d9 0cbf
00000060: 3a29 a8be 2030 01bf 2930 35bf 62c4 51be
00000070: 804a 2dbf ac0b 39bf 4f4c c3be 2bdd a4be
00000080: 7809 71be 3534 45bf 98e3 0dbf a365 f6be
00000090: b026 a0be 60ef ffbe 62a3 59bf 10e5 99be
000000a0: 1707 36bf 5525 60bf 32cd 1dbf 597e 88be
000000b0: d96b 7fbe c5f8 4bbf 239e 6dbf 5fd1 4ebf
000000c0: 94ee b1be 9bbc 993c 5b0b 2ebf f85a e3be
000000d0: 7831 f1be f4ea 78bf 9312 6a3e 13c2 33bf
000000e0: 7cd2 02bf 2153 f4be 4445 25bf f8ce 1abf
000000f0: b729 f1be a638 bbbe bb67 a8be f756 0ebf
