Lightcode/bc/zyy_results/N_3_3_d_32_32/snr2_15/seed_777/weights/gbaf_1xfe_fy/T_3/pow_1/100000/0.002/K_1_m_1_snr1_3/model_weights120000.pt (torch, 173294 bytes, 38 tensors)

Tmodel.fe1.FC1.weight f4 [64, 6]
-0.041055605 0.3095574 0.31789967 0.020038843 0.18768695 0.34589112 -0.15556198 -0.023457836
-0.41934043 -0.06390623 -0.049355865 -0.6506938 0.29256326 0.10195698 0.035405632 -0.0070509342
-0.038972728 -0.5343467 -0.06521537 0.076734036 -0.12732238 0.012203136 0.017384062 0.4117041
0.038873844 -0.048310015 0.3796261 0.051089402 0.07127151 0.5610818 0.5977607 -0.4175723
0.035217635 -0.010386058 0.088249534 0.1604359 0.13666879 -0.074058235 -0.1676425 -0.05882355
0.03640551 0.11501087 -0.07676204 0.3074717 0.4980039 0.11377458 0.030411638 0.16164652
-0.1938687 -0.013121115 0.3032298 0.007759716 0.023284644 0.32533988 0.40785462 -0.37796488
-0.10110706 -0.01607048 -0.016312623 -0.26352194 0.18800619 0.10133653 -0.03506256 -0.004564035
-0.074469335 -0.35050064 -0.08504269 -0.096924305 0.49127275 0.040247496 0.09660642 0.63567877
-0.08055944 -0.0018660553 -0.03550148 0.34093693 -0.004654273 -0.029462934 -0.078143746 -0.093501695
-0.48483032 -0.0378201 -0.065870546 -0.78209174 0.29245597 -0.15798704 0.3627542 0.025469394
0.033389106 0.06485619 0.34944817 -0.23281027 0.35042316 0.08110114 0.034748517 -0.06978873
-0.15168394 0.13654941 -0.2922786 -0.0033173615 -0.011648412 0.30898583 0.14564307 0.023831578
0.25523794 0.05101372 0.15348984 0.11823981 0.16087347 -0.10055805 0.35920632 0.003941608
0.045208607 0.67664576 -0.06578158 0.31122187 0.17560977 0.0014528733 -0.038505875 -0.02622831
0.025996774 -0.1341041 0.062253986 0.26795506 0.005720729 0.043540273 -0.094833724 0.14954136
0.39085814 -0.010353185 -0.14803904 0.4259546 0.012543178 0.027018135 -0.039011 8.144091e-05
0.3437922 0.036977332 0.1753045 0.03834822 0.42389637 0.07140052 0.042494565 0.5893663
-0.12436517 0.30073568 -0.007107952 0.019678265 -0.048076987 -0.4966923 0.24130116 -0.17289741
0.11129159 0.10408343 0.02029292 0.093279615 -0.29859924 0.15080033 -0.6078341 -0.027519502
-0.0846065 0.1667451 -0.11078928 -0.20829749 -0.37303802 -0.15925929 -0.036236435 -0.4794049
-0.28152895 -0.05729794 -0.33471775 -0.045989912 -0.037378162 -0.7436686 0.25220114 -0.050374147
-0.3348427 -0.028717 -0.0052053183 -0.50830656 -0.12767968 0.4458894 0.2367349 0.042851187
-0.038311765 0.103930764 -0.14251088 0.002898794 -0.12279057 0.0043067196 0.311915 -0.2036803
0.2855966 0.17980672 0.46334115 0.087542765 0.09146248 0.5690795 0.054419123 -0.15428957
-0.29826796 -0.02692571 -0.019405024 -0.68152386 -0.17486355 -0.08272549 -0.33157408 -0.0009238428
-0.0025989034 -0.50738555 -0.23244989 -0.03233166 -0.20639881 -0.07141641 -0.034673367 -0.82334167
0.013171335 0.04593237 -0.4534776 0.057167895 0.03346212 -0.59195024 0.011467648 -0.110647984
-0.11646489 0.032395598 -0.032195635 -0.5691854 0.15456775 0.0554867 0.27240986 0.08896169
0.091656834 0.19079691 -0.03403866 0.24573353 0.45127463 0.050405048 -0.02667932 0.022026045
-0.032447036 0.007567327 0.0031560948 -0.006896594 0.20880674 -0.18569265 0.0027711608 0.48366913
0.002887159 -0.3386068 0.0007291215 0.029044028 0.06977236 -0.12548538 -0.29611593 -0.10396064
00000000: ec29 28bd 4f7e 9e3e bfc3 a23e 8028 a43c
00000010: 0231 403e a418 b13e a44b 1fbe a62a c0bc
00000020: cab3 d6be 45e1 82bd 6029 4abd de93 26bf
00000030: daca 953e d2ce d03d 7f05 113d 860b e7bb
00000040: dea1 1fbd f2ca 08bf a38f 85bd bc26 9d3d
00000050: cc60 02be aaef 473c 0569 8e3c e1ca d23e
00000060: 2e3a 1f3d b9e0 45bd 5a5e c23e 1f43 513d
00000070: ccf6 913d 0fa3 0f3f d806 193f 09cc d5be
00000080: 5e40 103d 492a 2abc 2cbc b43d 4f49 243e
00000090: e7f2 0b3e d8ab 97bd 7aaa 2bbe f6f0 70bd
000000a0: f21d 153d d28a eb3d 6b35 9dbd ee6c 9d3e
000000b0: 5efa fe3e a602 e93d d421 f93c aa86 253e
000000c0: 8485 46be f2f9 56bc f040 9b3e 3745 fe3b
000000d0: 70bf be3c f392 a63e 52d2 d03e 9d84 c1be
000000e0: 3811 cfbd 3da6 83bc 0da2 85bc 59ec 86be
000000f0: b284 403e 8789 cf3d c29d 0fbd e78d 95bb
00000100: 6183 98bd d274 b3be dd2a aebd 4080 c6bd
00000110: 1a88 fb3e 8fda 243d 96d9 c53d d8bb 223f
00000120: 59fc a4bd 6d96 f4ba 006a 11bd 498f ae3e
00000130: df82 98bb 405c f1bc d409 a0bd d17d bfbd
00000140: ae3b f8be 40e9 1abd 23e7 86bd 2a37 48bf
00000150: cabc 953e 5bc7 21be ebba b93e 31a5 d03c
00000160: 04c3 083d 52d3 843d dfea b23e d165 6ebe
00000170: aa6a b33e 5b18 a63d 7654 0e3d 65ed 8ebd
00000180: 0953 1bbe 9cd3 0b3e 8aa5 95be 1768 59bb
00000190: fbd8 3ebc 6433 9e3e 7523 153e 713a c33c
000001a0: 8cae 823e c3f3 503d 712c 1d3e b727 f23d
000001b0: 04bc 243e 61f1 cdbd e4e9 b73e 9b28 813b
000001c0: a92c 393d a838 2d3f 7eb8 86bd 7958 9f3e
000001d0: 0cd3 333e 576e be3a 56b8 1dbd c1dc d6bc
000001e0: 30f7 d43c 9652 09be 09fe 7e3d 6831 893e
000001f0: f474 bb3b 4957 323d 2f38 c2bd 5f21 193e
00000200: 8f1e c83e 68a0 29bc 8c97 17be b916 da3e
00000210: e781 4d3c 2355 dd3c 00ca 1fbd 41cb aa38
00000220: 8805 b03e 8b75 173d 0683 333e 0613 1d3d
00000230: f208 d93e 703a 923d c80e 2e3d b6e0 163f
00000240: 2bb3 febd 07fa 993e d3e9 e8bb 5034 a13c
00000250: 60ec 44bd 744e febe a717 773e 050c 31be
00000260: d8ec e33d b129 d53d 563d a63c 6209 bf3d
00000270: 00e2 98be 676b 1a3e 049b 1bbf 9470 e1bc
00000280: 2c46 adbd 3abf 2a3e 7de5 e2bd f04b 55be
00000290: d7fe bebe de14 23be a86c 14bd 8f74 f5be
000002a0: 9024 90be 3fb1 6abd 2060 abbe eb5f 3cbd
000002b0: d819 19bd 1161 3ebf 8220 813e 1f55 4ebd
000002c0: 8170 abbe ea3f ebbc 6091 aabb 6120 02bf
000002d0: 76be 02be 9e4b e43e a26a 723e ba84 2f3d
000002e0: ccec 1cbd a7d9 d43d 5fee 11be b1f9 3d3b
000002f0: 9f79 fbbd 621f 8d3b 53b3 9f3e 9291 50be
00000300: b839 923e 411f 383e 0d3b ed3e 9f49 b33d
00000310: ae50 bb3d 32af 113f 96e6 5e3d 16fe 1dbe
00000320: 94b6 98be 4e93 dcbc 49f7 9ebc 5978 2ebf
00000330: 6e0f 33be fb6b a9bd 14c4 a9be 0a2e 72ba
00000340: 5d52 2abb 05e4 01bf 5807 6ebe 346e 04bd
00000350: 365a 53be c442 92bd a905 0ebd 85c6 52bf
00000360: 95cc 573c 9523 3c3d 372e e8be e228 6a3d
00000370: 930f 093d 0d8a 17bf cde2 3b3c 699b e2bd
00000380: 2585 eebd 3fb1 043d 92df 03bd 22b6 11bf
00000390: 0247 1e3e 0646 633d 4e79 8b3e 8c31 b63d
000003a0: 94b6 bb3d 4460 433e 1f6c 0bbd 92a1 7b3e
000003b0: 780d e73e 8675 4e3d 978e dabc f76f b43c
000003c0: 2fe7 04bd 57f7 f73b 7cd6 4e3b d3fc e1bb
000003d0: 6fd1 553e 3726 3ebe 5d9c 353b 7ba3 f73e
000003e0: 7d36 3d3b df5d adbe 8422 3f3a beed ed3c
000003f0: d0e4 8e3d 3d7f 00be 829c 97be 51e9 d4bd

Tmodel.fe1.FC1.bias f4 [64]
-0.028788589 0.1631767 -0.08039503 0.009931458 -0.081476666 -0.077811755 0.003350239 -0.16773057
-0.32040834 -0.24318942 0.0073814685 -0.09722198 -0.16154858 0.20619838 -0.23470846 -0.16424645
-0.22832023 -0.17350371 -0.04613975 -0.024036298 -0.22046441 -0.21632895 -0.23008499 0.089349315
-0.111997 -0.06324836 -0.229414 -0.0031759136 -0.0121117225 -0.27068868 -0.038371682 -0.23608236
-0.019568514 0.027659282 0.08431465 0.013465866 -0.102384105 -0.19824988 -0.13461381 -0.23181646
-0.20642003 -0.4263649 0.070347324 0.15290198 -0.014982739 0.0018537607 0.0786965 -0.029086316
-0.19847625 -0.18553306 0.1219276 -0.10078772 0.061871592 -0.011350579 -0.23172064 -0.022664744
0.041912258 0.08824828 -0.04407317 0.16988021 -0.16040123 -0.10943319 -0.17367697 -0.037115403
00000000: 0cd6 ebbc cb17 273e 26a6 a4bd 8eb7 223c
00000010: 3ddd a6bd c55b 9fbd af8f 5b3b 90c1 2bbe
00000020: 900c a4be a606 79be 3fe0 f13b 511c c7bd
00000030: fe6c 25be ab25 533e 6a57 70be 3930 28be
00000040: c7cc 69be f5aa 31be 09fd 3cbd c5e7 c4bc
00000050: 6cc1 61be 5685 5dbe 669b 6bbe c6fc b63d
00000060: af5e e5bd 5b88 81bd 81eb 6abe fd22 50bb
00000070: 3f70 46bc b597 8abe a02b 1dbd 93bf 71be
00000080: 264e a0bc b895 e23c 29ad ac3d f09f 5c3c
00000090: c2ae d1bd 0402 4bbe 34d8 09be 4b61 6dbe
000000a0: c65f 53be 804c dabe 4212 903d 5692 1c3e
000000b0: 2a7a 75bc e3f9 f23a a12b a13d 6d46 eebc
000000c0: 5c3d 4bbe 61fc 3dbe 2db5 f93d cb69 cebd
000000d0: 116d 7d3d c7f7 39bc 2d48 6dbe 6aab b9bc
000000e0: 30ac 2b3d 84bb b43d 1186 34bd 14f5 2d3e
000000f0: 3840 24be 821e e0bd 60d8 31be 5206 18bd

Tmodel.fe1.FC2.weight f4 [64, 64]
0.016751068 -0.43256825 0.23259568 0.045160174 0.16698538 -0.8160413 -0.137354 0.109546706
0.14582218 -1.0801893 0.2846656 0.35416284 -0.14138274 -0.5528049 -0.25009152 -0.029057514
-0.020876022 -0.2868026 0.31685042 0.049201913 -0.1111618 0.31798634 -0.072436295 0.27974832
-0.028638799 -0.26580772 -0.16041455 -0.12876555 -0.34043106 0.12708032 -0.023524424 0.18868744
-0.60000134 -0.24197133 -0.069213666 -0.31714827 -0.09056662 0.09719225 -0.4153049 0.15248387
0.040150795 -0.15119296 -0.095009126 -0.3230953 0.3263559 -0.39036402 -1.3201584 0.16617893
0.15466051 -0.07151841 0.41009757 0.05648572 -0.17658587 -0.43346596 -0.07570502 -0.23662227
-0.19320464 0.1791722 -0.29115427 -0.47923765 -0.053436454 0.19400844 -0.15890333 0.16827442
0.08408763 0.16592625 0.039870746 -0.11644559 0.051840957 0.10539223 0.05386274 0.29044363
0.03466056 -0.53916824 -0.013304638 -0.1307269 0.10939865 0.15922715 -0.19800435 0.088967144
0.0627733 -0.058483224 -0.24805237 0.12491864 -0.07834791 -0.0108070355 0.36942413 0.028909087
0.19359896 -0.31583628 -0.0757035 -0.11983895 0.112777226 -0.37233824 0.28194726 0.10421562
-0.093910456 0.008538515 -0.06187422 0.19158033 -0.0680618 0.03463733 0.05901106 0.0033485356
0.06615845 -0.15888163 -0.035976425 -0.016083492 -0.13113287 -0.21632662 0.16405335 -0.18294284
-0.10388087 -0.27527034 0.08073893 -0.012172284 -0.2999125 -0.094691895 -0.12338393 0.27188691
0.047428265 -0.006370782 0.07982591 0.14759059 -0.13510233 0.24232514 -0.13577063 0.06832048
0.022510873 -0.15784246 0.1352953 0.009027991 0.036639865 -0.11426046 -0.23489974 -0.1730236
-0.2949413 -0.24506168 0.41890508 0.014142907 -0.8380098 -0.20982298 -0.42003304 -0.060405213
0.031929918 -0.053464767 0.24908526 -0.15001348 -0.08009386 0.013547317 -0.12616934 0.2405036
-0.05911797 -0.18275061 -0.17127928 -0.29072124 -0.075385965 -0.12492494 -1.0307741 -0.04862128
0.14214708 -0.0855954 -0.098290645 -0.0546162 -0.09893386 -0.13893962 0.032807697 -0.08817182
-0.17984521 -0.35400555 -0.18582676 -0.2831843 0.11393392 -0.283247 -0.23108791 0.11233657
-0.056574076 -0.036185753 0.07030329 0.2928077 -0.14892448 -0.2612998 -0.3538107 -1.0990828
-0.02161501 0.4202105 0.46434137 -0.3070004 0.10816926 -0.13076265 0.1206274 0.1310264
-4.6937523e-05 0.36002398 0.24049737 -0.1044789 -0.09672502 -0.67031693 -0.082292974 -0.616664
-0.007062966 -0.17243075 0.23276848 0.07152785 0.11375147 0.512649 -0.6867196 -0.70207113
-0.08908431 0.09397115 -0.25513378 0.001532761 -0.087973915 -0.3610845 0.15616985 -0.64722586
0.13961542 -0.1825579 -0.07157155 -0.7220627 -1.2121623 0.33042836 0.060047932 0.2832146
-0.10003989 0.09310683 0.054784372 -0.25271899 0.3817531 -0.4085151 -0.08965095 -0.2679283
0.14845094 -0.15693967 0.14505312 0.14787602 -0.14594683 -0.064198785 0.15170671 0.21184537
-0.19584647 -0.58063567 -0.64949006 -0.37797338 -0.059438355 -0.24224976 -0.003923595 -0.090761125
-0.31117517 -0.36055568 -0.3706126 0.49936262 -0.11049606 -1.2161714 0.0016605575 -0.27396244
00000000: 8939 893c 9679 ddbe 902d 6e3e e0f9 383d
00000010: 37fe 2a3e 15e8 50bf 87a6 0cbe 065a e03d
00000020: 6952 153e a543 8abf b1bf 913e d554 b53e
00000030: a3c6 10be 9f84 0dbf ff0b 80be 060a eebc
00000040: 3104 abbc cad7 92be 383a a23e f287 493d
00000050: cca8 e3bd 1bcf a23e 7b59 94bd 2c3b 8f3e
00000060: ea9b eabc f317 88be b643 24be 1edb 03be
00000070: fb4c aebe 5821 023e 4bb6 c0bc 4837 413e
00000080: b099 19bf 55c7 77be e5bf 8dbd 4261 a2be
00000090: fe7a b9bd bb0c c73d d8a2 d4be bb24 1c3e
000000a0: 2975 243d 54d2 1abe 2594 c2bd bf6c a5be
000000b0: 1f18 a73e cbdd c7be f3fa a8bf cf2a 2a3e
000000c0: 535f 1e3e 3f78 92bd 4ff8 d13e 925d 673d
000000d0: edd2 34be 40ef ddbe 3c0b 9bbd 1c4d 72be
000000e0: 70d7 45be eb78 373e 2c12 95be a35e f5be
000000f0: 2fe0 5abd 26aa 463e 8eb7 22be 2150 2c3e
00000100: 2336 ac3d 92e8 293e 824f 233d 077b eebd
00000110: 2f57 543d e2d7 d73d 2d9f 5c3d 07b5 943e
00000120: 3bf8 0d3d ee06 0abf b2fb 59bc 46dd 05be
00000130: 660c e03d 710c 233e a7c1 4abe 6834 b63d
00000140: 4a8f 803d 1b8c 6fbd 7101 7ebe 58d5 ff3d
00000150: de74 a0bd fe0f 31bc 2925 bd3e c0d2 ec3c
00000160: ce3e 463e 4bb5 a1be 700a 9bbd 206e f5bd
00000170: bff7 e63d 1ea3 bebe 645b 903e 006f d53d
00000180: 2054 c0bd 21e5 0b3c d26f 7dbd a22d 443e
00000190: fc63 8bbd dfdf 0d3d 95b5 713d 1b73 5b3b
000001a0: 157e 873d deb1 22be 045c 13bd 87c1 83bc
000001b0: b247 06be ba84 5dbe 9afd 273e 5e55 3bbe
000001c0: 7ebf d4bd 3cf0 8cbe 745a a53d 426e 47bc
000001d0: 228e 99be d3ed c1bd b7b0 fcbd c334 8b3e
000001e0: 2444 423d fec1 d0bb c47b a33d fd21 173e
000001f0: 4458 0abe 1524 783e 7507 0bbe 9ceb 8b3d
00000200: b968 b83c 74a1 21be da8a 0a3e 24ea 133c
00000210: af13 163d 6301 eabd 8f89 70be 192d 31be
00000220: 8c02 97be 73f1 7abe ba7a d63e a7b7 673c
00000230: cf87 56bf d6db 56be 920e d7be 756b 77bd
00000240: f2c8 023d dffd 5abd 3510 7f3e 229d 19be
00000250: 4008 a4bd 91f5 5d3c 8932 01be 9346 763e
00000260: af25 72bd fa22 3bbe d663 2fbe 6ad9 94be
00000270: f563 9abd a6d8 ffbd 68f0 83bf 1b27 47bd
00000280: 018f 113e a44c afbd 9b4c c9bd 3db5 5fbd
00000290: d69d cabd 3046 0ebe 5d61 063d 6d93 b4bd
000002a0: 5829 38be 3740 b5be 5f49 3ebe 88fd 90be
000002b0: 3056 e93d c005 91be 4fa2 6cbe b710 e63d
000002c0: 38ba 67bd 8337 14bd 2cfb 8f3d e4ea 953e
000002d0: a97f 18be 16c9 85be ad26 b5be bfae 8cbf
000002e0: f611 b1bc d525 d73e 27be ed3e 282f 9dbe
000002f0: d887 dd3d a5e6 05be 800b f73d c92b 063e
00000300: c8de 44b8 1055 b83e f144 763e 09f9 d5bd
00000310: c417 c6bd e499 2bbf 3889 a8bd b1dd 1dbf
00000320: 7470 e7bb b091 30be dc5a 6e3e 327d 923d
00000330: 88f6 e83d f73c 033f dbcc 2fbf efba 33bf
00000340: d671 b6bd f273 c03d e5a0 82be ede6 c83a
00000350: ab2b b4bd 11e0 b8be fdea 1f3e 98b0 25bf
00000360: 58f7 0e3e 75f0 3abe 1b94 92bd 1ad9 38bf
00000370: 2228 9bbf e82d a93e d2f4 753d 8101 913e
00000380: b7e1 ccbd cbae be3d 9465 603d 6264 81be
00000390: 2475 c33e e428 d1be eb9a b7bd e62d 89be
000003a0: 8603 183e cbb4 20be ce88 143e d06c 173e
000003b0: 1673 15be a77a 83bd 0159 1b3e feed 583e
000003c0: fa8b 48be 8aa4 14bf fb44 26bf ba85 c1be
000003d0: a275 73bd 5210 78be 8091 80bb f8e0 b9bd
000003e0: 5a52 9fbe c19a b8be efc0 bdbe 75ac ff3e
000003f0: c24b e2bd 81ab 9bbf 10a7 d93a ce44 8cbe

Tmodel.fe1.FC2.bias f4 [64]
0.06610697 -0.11976336 0.015789792 0.023589524 -0.023748256 -0.06270022 0.101314016 0.06788877
0.005482636 -0.03250682 0.13665044 0.010912465 -0.05919365 -0.12739795 0.024733592 -0.036080237
0.005339577 -0.010738336 0.20691195 -0.09528386 0.038175654 -0.2837917 0.09417025 0.17920355
0.09136245 -0.30230984 -0.024058115 -0.14421037 0.12172699 0.12543929 -0.18208694 -0.02341027
-0.20842184 0.15450256 -0.23023318 -0.050204407 -0.18200368 -0.3159994 -0.2898676 0.1462111
-0.3166828 -0.25444883 0.14993946 -0.10229624 -0.1541978 0.023890039 -0.06301863 -0.0128444275
-0.06991128 0.0018705371 -0.059421748 0.004733465 0.062012736 0.07813246 -0.005361761 0.06221189
-0.009895841 -0.41090724 -0.27496186 -0.17014277 -0.23497379 -0.15517984 0.0055238227 -0.037248205
00000000: 1763 873d 7e46 f5bd 9859 813c d13e c13c
00000010: b48b c2bc f968 80bd b97d cf3d 4409 8b3d
00000020: afa7 b33b df25 05bd 18ee 0b3e 32ca 323c
00000030: 0a75 72bd 9c74 02be 1a9e ca3c dfc8 13bd
00000040: 9ef7 ae3b d8ef 2fbc bae0 533e 2f24 c3bd
00000050: 135e 1c3d 254d 91be 55dc c03d 2381 373e
00000060: 3c1c bb3d 5bc8 9abe 8615 c5bc e2ab 13be
00000070: 004c f93d 2873 003e 0075 3abe e5c6 bfbc
00000080: 896c 55be eb35 1e3e 3fc2 6bbe 23a3 4dbd
00000090: 2c5f 3abe acca a1be 8769 94be 5db8 153e
000000a0: 3f24 a2be 1e47 82be bb89 193e b180 d1bd
000000b0: 07e6 1dbe 0bb5 c33c e90f 81bd 6f71 52bc
000000c0: a52d 8fbd cf2c f53a 3864 73bd 2f1b 9b3b
000000d0: 1101 7e3d e903 a03d b6b1 afbb e5d1 7e3d
000000e0: 2a22 22bc 6f62 d2be cdc7 8cbe e839 2ebe
000000f0: f89c 70be 77e7 1ebe 2f01 b53b 9391 18bd

Tmodel.fe1.FC3.weight f4 [64, 64]
0.3799132 0.095585115 0.13756791 0.26312935 -0.013191351 0.0426446 0.08573025 -0.08454506
-0.013741995 0.02960362 -0.20724432 0.28238136 -0.0299896 -0.1500842 -0.66787064 0.02885628
-0.24638954 -0.27023497 -0.34674573 -0.021315416 -0.17610975 0.118329965 -0.10335336 -0.34132582
-0.13610528 -0.010559735 0.01535826 -0.21667531 -0.31845507 -0.16829352 0.07971587 0.43581298
0.20436507 -0.2783379 -0.13912803 -0.028990904 -0.0166738 -0.5695248 0.23622984 -0.27611423
-0.29648384 0.17308919 -0.37825236 -0.123917304 -0.15991758 -0.08520116 -0.05198827 -0.028354054
0.12706874 -0.016169088 0.05759004 -0.09521764 -0.26769793 0.36194012 0.2137866 -0.2985419
0.026152767 0.11040399 -0.8836079 -0.07734803 -0.07417457 0.124475315 -0.08633981 -0.07328226
-0.41975847 -0.045501035 -0.090114556 0.42509627 -0.0864448 -0.0124678565 0.15061574 0.054580685
-0.009096009 -0.010612061 -0.031141726 -0.08343439 0.01042979 -0.11549265 -7.677862e-06 0.02410961
-0.17101933 -0.17290811 0.09224266 0.064519286 0.038831558 0.038867947 0.12797682 0.09953963
-0.07285118 -0.104202315 -0.013468178 -0.022159463 0.12001001 0.06571559 0.26053533 -0.43749416
-0.16360609 -0.045606684 -0.06758551 -0.19302294 0.23529841 0.12902543 -0.15993544 -0.007858347
-0.0034077503 0.26090446 -0.30053458 0.45998564 0.2141641 0.004343719 -0.054469395 0.14027715
0.49981698 0.018093336 0.07391866 0.1250524 -0.07161865 -0.3918534 0.19504791 0.06021083
-0.10107586 -0.20646495 0.07609384 0.041445967 -0.030196242 0.063464165 -0.16171364 0.21442375
0.43979305 -0.0076875603 0.010296601 0.13431884 0.12716721 0.050966322 -0.13994882 -0.19071116
0.010356045 0.013416217 -0.07928999 -0.011145404 0.010095132 0.030406253 0.027775396 -0.013620067
-0.03798848 -0.20812973 -0.22389473 -0.053652246 -0.15493692 0.35319656 -0.057195663 -0.23250072
-0.109838784 0.18268906 0.021453133 -0.36499548 -0.14658844 -0.104245886 0.07672319 0.1686589
0.12584011 -0.052492067 0.09837556 0.010190713 -0.22826062 0.100262284 0.01199975 -0.029699188
0.037517775 -0.010303455 -0.031215953 0.0737873 0.16367665 -0.05441343 -0.26423022 -0.003188107
-0.18097739 -0.015601901 -0.024994034 -9.696783e-05 0.04057532 0.34920743 0.15698397 -0.19891894
-0.006363839 0.27571005 0.08853525 0.05623316 0.14985242 0.045269724 -0.11524862 -0.2045554
-0.44048187 -0.10652348 0.24738221 -0.367547 0.07614274 -0.11834057 -0.22640662 0.1621828
-0.041746654 0.025900388 0.10643664 -0.2696007 -0.014025212 0.05785695 0.37585154 -0.01098477
0.17335553 0.34863448 0.2596858 0.03150822 0.14994496 -0.91354346 0.025273297 0.3031029
0.14966415 -0.011711392 -0.016336475 0.20323746 0.19709207 0.17655577 -0.04715237 0.39199916
-0.17355002 0.1400974 -0.07531333 0.20694391 0.33550978 -0.22188729 -0.21253066 0.14697233
0.17416611 -0.14473721 0.3175851 0.18892087 0.56605613 0.10558215 0.052332252 -0.16417614
-0.13213053 0.009832658 0.09339452 0.30603272 0.11693835 -0.19667366 -0.19494724 0.34213287
-0.031404067 -0.112676024 0.1760593 -0.084023915 0.016562602 -0.13587348 0.18689851 -0.08333482
00000000: fc83 c23e 21c2 c33d 9ade 0c3e e4b8 863e
00000010: 8920 58bc 1bac 2e3d 5793 af3d f625 adbd
00000020: 1b26 61bc 4a83 f23c db37 54be 4a94 903e
00000030: c0ac f5bc acaf 19be 92f9 2abf 0164 ec3c
00000040: 8a4d 7cbe 3d5c 8abe a888 b1be ab9d aebc
00000050: 1d56 34be fb56 f23d edaa d3bd 42c2 aebe
00000060: 2f5f 0bbe bd02 2dbc 36a1 7b3c 22e0 5dbe
00000070: 8b0c a3be 2355 2cbe 1342 a33d e122 df3e
00000080: 1445 513e 4e82 8ebe 9477 0ebe 557e edbc
00000090: 7e97 88bc 61cc 11bf 3ce6 713e d85e 8dbe
000000a0: bbcc 97be 4b3e 313e 4baa c1be 5bc8 fdbd
000000b0: 6fc1 23be f27d aebd a7f1 54bd c346 e8bc
000000c0: 4f1e 023e 0975 84bc 89e3 6b3d 7701 c3bd
000000d0: b40f 89be 3750 b93e e0ea 5a3e 7cda 98be
000000e0: 543e d63c 7d1b e23d 2134 62bf a568 9ebd
000000f0: d6e8 97bd eaec fe3d edd2 b0bd 0215 96bd
00000100: 95ea d6be 4b5f 3abd fb8d b8bd 38a6 d93e
00000110: f909 b1bd fb45 4cbc 033b 1a3e ff8f 5f3d
00000120: 6d07 15bc 36de 2dbc ef1c ffbc a6df aabd
00000130: b6e1 2a3c 6987 ecbd 2bd0 00b7 8481 c53c
00000140: b11f 2fbe d30e 31be b8e9 bc3d b022 843d
00000150: d70d 1f3d ff33 1f3d 5b0c 033e 6fdb cb3d
00000160: 0033 95bd 0668 d5bd a2a9 5cbc c387 b5bc
00000170: cfc7 f53d e595 863d e364 853e 3cff dfbe
00000180: 5b88 27be 13ce 3abd 466a 8abd cea7 45be
00000190: 11f2 703e 3e1f 043e 1ec6 23be 4cc0 00bc
000001a0: 9054 5fbb 4595 853e abdf 99be 3d83 eb3e
000001b0: d54d 5b3e c255 8e3b 4d1b 5fbd d0a4 0f3e
000001c0: 03e8 ff3e 7a38 943c ab62 973d bd0d 003e
000001d0: ccac 92bd 02a1 c8be a4ba 473e a29f 763d
000001e0: dc00 cfbd 8c6b 53be 16d7 9b3d 3fc3 293d
000001f0: 1c5e f7bc 80f9 813d 4398 25be e691 5b3e
00000200: 8e2c e13e eee7 fbbb 13b3 283c e18a 093e
00000210: 1f38 023e 10c2 503d be4e 0fbe c949 43be
00000220: 67ac 293c b1cf 5b3c ca62 a2bd 369b 36bc
00000230: 0d66 253c 8916 f93c 3a89 e33c b426 5fbc
00000240: cf99 1bbd f61f 55be a944 65be 75c2 5bbd
00000250: c9a7 1ebe 2ed6 b43e 0046 6abd ab14 6ebe
00000260: 28f3 e0bd d712 3b3e 7bbe af3c b0e0 babe
00000270: 481b 16be de7e d5bd 0c21 9d3d ebb4 2c3e
00000280: 3bdc 003e ec01 57bd 2079 c93d f3f6 263c
00000290: 27bd 69be 5056 cd3d 999a 443c b64b f3bc
000002a0: 3dac 193d d3cf 28bc 99b8 ffbc cc1d 973d
000002b0: da9a 273e 9ee0 5ebd 2f49 87be 8fef 50bb
000002c0: 2352 39be 1e9f 7fbc 4ac0 ccbc 355b cbb8
000002d0: 4f32 263d 51cb b23e 68c0 203e 68b1 4bbe
000002e0: c087 d0bb de29 8d3e f851 b53d be54 663d
000002f0: ea72 193e bf6c 393d 7807 ecbd f976 51be
00000300: d786 e1be fb28 dabd c351 7d3e 1f2f bcbe
00000310: baf0 9b3d 8a5c f2bd 23d7 67be 3f13 263e
00000320: 8afe 2abd 0d2d d43c 74fb d93d 1a09 8abe
00000330: 01ca 65bc 69fb 6c3d 9d6f c03e 77f9 33bc
00000340: 1d84 313e 3880 b23e 8af5 843e c30e 013d
00000350: 2c8b 193e fcdd 69bf f209 cf3c 4e30 9b3e
00000360: 8f41 193e 23e1 3fbc 12d4 85bc 7b1d 503e
00000370: 81d2 493e 09cb 343e d822 41bd 1db4 c83e
00000380: 19b7 31be b175 0f3e e03d 9abd 1be9 533e
00000390: f0c7 ab3e 6c36 63be a3a1 59be ea7f 163e
000003a0: 9a58 323e fe35 14be 849a a23e 7974 413e
000003b0: 0ee9 103f 743b d83d 585a 563d ca1d 28be
000003c0: 3a4d 07be 2819 213c a045 bf3d 52b0 9c3e
000003d0: 607d ef3d d264 49be 40a0 47be 0a2c af3e
000003e0: 8da1 00bd b0c2 e6bd e448 343e bb14 acbd
000003f0: 4bae 873c 6b22 0bbe 5362 3f3e 72ab aabd

Tmodel.fe1.FC3.bias f4 [64]
-0.047227647 0.19353689 -0.032496464 -0.009008461 0.110636 -0.086816646 -0.06769074 -0.0492737
0.13842535 -0.002782384 -0.023608943 -0.05238073 -0.15891755 0.02947883 0.055743877 -0.104979865
-0.082201175 0.19211082 -0.16210487 -0.18714407 -0.09254566 -0.18269631 -0.21883382 -0.20748654
0.12840429 -0.21179879 -0.16360432 0.02267726 0.10334875 -0.17080209 -0.08691472 -0.041564625
-0.07301044 0.16499934 -0.05118291 0.06429195 0.08765707 -0.047347944 0.3464077 -0.05856588
0.13362014 -0.23544003 -0.026497548 -0.32665986 0.11788219 -0.04514258 0.07468509 -0.05720028
0.0967198 0.064025946 -0.03477111 0.21059091 -0.11527317 0.04866568 0.0817193 -0.101543956
0.104025036 0.14024295 -0.010380882 -0.028922535 0.17583491 0.11439263 -0.06291121 0.015196519
00000000: c771 41bd 892e 463e 031b 05bd 3998 13bc
00000010: 2195 e23d edcc b1bd 71a1 8abd 38d3 49bd
00000020: 60bf 0d3e a858 36bb 8b67 c1bc 2d8d 56bd
00000030: 48bb 22be 967d f13c b153 643d afff d6bd
00000040: 1759 a8bd b3b8 443e d2fe 25be b2a2 3fbe
00000050: 9488 bdbd be14 3bbe f915 60be 5a77 54be
00000060: 6a7c 033e c8e1 58be e487 27be a9c5 b93c
00000070: 82a8 d33d bee6 2ebe 5800 b2bd ab3f 2abd
00000080: 7f86 95bd 96f5 283e 2ca5 51bd 7fab 833d
00000090: 8d85 b33d ebef 41bd 5a5c b13e c7e2 6fbd
000000a0: b8d3 083e 3117 71be 6311 d9bc f63f a7be
000000b0: 386c f13d 6de7 38bd 7ff4 983d d74a 6abd
000000c0: 0815 c63d 0920 833d 276c 0ebd 25a5 573e
000000d0: 5714 ecbd aa55 473d 735c a73d 47f6 cfbd
000000e0: 140b d53d d99b 0f3e 9314 2abc f4ee ecbc
000000f0: 110e 343e af46 ea3d 98d7 80bd d2fa 783c

Tmodel.fe1.FC4.weight f4 [32, 128]
0.6638998 -0.4065184 0.37021446 -0.27838832 -0.26717773 0.059605006 -0.15037373 0.6117304
-0.12509494 0.2184053 0.21608546 0.34278706 -0.06659327 0.17641145 -0.5930397 0.32987034
0.30605283 -0.23726289 0.23464963 -0.23237744 -0.107019134 -0.27554327 0.16806398 0.0014669733
-0.23459978 0.09912138 -0.18388237 -0.54394066 -0.04759221 0.32938746 0.23990043 -0.26770717
0.6472389 0.2250541 0.32085174 -0.31879634 -0.7320115 0.26188552 0.06517309 0.0805978
-0.48144266 0.3607716 0.39668587 0.10632877 -0.5681594 -0.2577192 0.31889287 0.14698994
-0.28971872 -0.37580582 0.33499724 -0.19949622 0.5704746 0.20798297 -0.18190572 0.5643959
-0.2072438 -0.1972183 -0.14665323 -0.43556547 -0.21944423 -0.26224545 -0.28348503 -0.20494737
0.21595661 0.28776065 0.049798734 -0.20862572 -0.07078182 0.102844514 -0.034446277 0.31231087
0.15950961 0.10773977 -0.13233295 0.029443704 -0.081244305 0.09038683 -0.2129878 0.015292254
0.015555586 0.052507512 0.10934288 0.1095577 -0.14956811 0.029863523 -0.004380868 -0.046474334
-0.05520004 -0.06495405 0.080455214 -0.16927007 0.0021420694 -0.15358485 0.05732215 0.13889499
0.19112124 -0.02724922 0.082512535 -0.07434756 -0.13072453 0.010603507 -0.037043095 0.068269186
0.00593252 -0.06766086 0.23189294 -0.10829105 -0.089175284 -0.15164421 -0.053408094 -0.20562597
0.05122836 0.15356526 -0.006648533 0.013011381 0.12055139 -0.16965412 -0.039231032 -0.058528554
-0.068788774 0.15726992 -0.022119913 -0.41920316 0.07028516 -0.00670999 0.093206115 0.10984305
-0.22507887 0.08786013 -0.061011028 0.17933345 0.16882396 -0.05133774 -0.004064445 -0.16717568
0.079092555 0.045759764 -0.09681577 -0.13252425 -0.19518581 0.06286611 0.17234781 -0.08218601
-0.11149642 0.15655354 -0.13616998 -0.10084333 0.10703312 -0.18214466 -0.2005889 -0.03565173
0.2829643 -0.23827039 -0.024633551 0.13672554 0.14098474 -0.079093166 0.043768525 0.03479271
-0.25339207 0.14674012 -0.08211864 0.26811066 0.24933743 -0.06529778 0.14267412 -0.018727494
0.30712727 -0.2840999 -0.069500886 -0.27256992 0.30457643 -0.031648584 0.077073365 -0.018129097
0.11212068 -0.017680828 -0.04463694 0.10719733 -0.30934355 0.08675166 0.035532676 -0.30913576
0.010671819 0.029408453 -0.07103271 0.13978264 0.13824992 0.1652454 0.018380953 0.058423128
-0.20306236 0.028225582 -0.09418036 0.11486566 0.16579929 0.045303132 -0.0029940146 -0.21948001
-0.012299262 0.03803288 0.05672534 -0.056374703 -0.23251307 -0.05566156 0.20483823 -0.2573889
-0.097093776 0.17114477 -0.20456067 -0.13341413 0.16631159 -0.11678033 -0.29186663 -0.058091577
0.25469702 -0.14906247 -0.090986155 0.15505962 0.051324993 0.005102644 0.007899391 -0.084152445
-0.21364489 0.03729763 -0.09773772 0.27458078 0.21292049 -0.08994872 0.25444916 -0.16098343
0.19905111 -0.3617021 -0.10122021 -0.32796967 0.25610664 -0.028094765 -0.029662319 -0.12623863
0.21984544 -0.011407773 -0.006326072 0.15614022 -0.23058867 0.1334145 0.010850522 -0.08211196
0.034038633 0.090182014 -0.038817342 0.17425044 0.03207631 0.07380633 0.04443481 -0.032472555
00000000: 56f5 293f 2e23 d0be c08c bd3e ea88 8ebe
00000010: 85cb 88be 6124 743d 92fb 19be 5d9a 1c3f
00000020: e318 00be a4a5 5f3e 8245 5d3e c981 af3e
00000030: 0d62 88bd 34a5 343e 73d1 17bf c4e4 a83e
00000040: f5b2 9c3e 0bf5 72be fe47 703e 5af4 6dbe
00000050: d92c dbbd 0214 8dbe f718 2c3e 7547 c03a
00000060: ed3a 70be 2600 cb3d a94b 3cbe b23f 0bbf
00000070: 0df0 42bd 79a5 a83e 75a8 753e ea10 89be
00000080: 73b1 253f 9574 663e ae46 a43e 4639 a3be
00000090: 1b65 3bbf dc15 863e 7879 853d 7610 a53d
000000a0: a77f f6be 0eb7 b83e 691a cb3e e6c2 d93d
000000b0: e572 11bf c5f3 83be ed45 a33e 8884 163e
000000c0: 0356 94be 9f69 c0be c284 ab3e bd48 4cbe
000000d0: a00a 123f 7df9 543e 7e45 3abe 407c 103f
000000e0: b837 54be 98f3 49be 442c 16be 7002 dfbe
000000f0: fdb5 60be 0945 86be f324 91be b9dd 51be
00000100: bb23 5d3e 5d55 933e c2f9 4b3d fba1 55be
00000110: 0ff6 90bd 25a0 d23d 8a17 0dbd 36e7 9f3e
00000120: 7d56 233e aba6 dc3d 4a82 07be ec33 f13c
00000130: 6a63 a6bd bb1c b93d 7919 5abe 5d8c 7a3c
00000140: dbdc 7e3c 1e12 573d 29ef df3d ca5f e03d
00000150: 6228 19be 59a4 f43c 628d 8fbb df5b 3ebd
00000160: 7019 62bd a106 85bd b4c5 a43d 2255 2dbe
00000170: f661 0c3b 5945 1dbe a1ca 6a3d 7d3a 0e3e
00000180: 49b5 433e c239 dfbc 55fc a83d 8943 98bd
00000190: a7dc 05be 55ba 2d3c 80ba 17bd b7d0 8b3d
000001a0: 9665 c23b c791 8abd 5875 6d3e b3c7 ddbd
000001b0: 88a1 b6bd 9f48 1bbe 72c2 5abd 9d8f 52be
000001c0: d4d4 513d 3640 1d3e f0db d9bb b02d 553c
000001d0: a6e3 f63d cfb9 2dbe b8b0 20bd a3bb 6fbd
000001e0: 21e1 8cbd 5e0b 213e d234 b5bc cca1 d6be
000001f0: aaf1 8f3d 7adf dbbb d9e2 be3d 65f5 e03d
00000200: 137b 66be 03f0 b33d b3e6 79bd 30a3 373e
00000210: 30e0 2c3e 8647 52bd 092f 85bb 1a30 2bbe
00000220: 47fb a13d 976e 3b3d 5947 c6bd 70b4 07be
00000230: cade 47be f2bf 803d f27b 303e 2451 a8bd
00000240: 3c58 e4bd 924f 203e 2570 0bbe f386 cebd
00000250: 2e34 db3d 2184 3abe 2d67 4dbe 8c07 12bd
00000260: b2e0 903e 27fd 73be 4dcc c9bc c801 0c3e
00000270: 4e5e 103e 99fb a1bd a046 333d cd82 0e3d
00000280: 9bbc 81be 0b43 163e d12d a8bd cd45 893e
00000290: 5052 7f3e d8ba 85bd 2a19 123e 676a 99bc
000002a0: c93f 9d3e 8b75 91be 7b56 8ebd 498e 8bbe
000002b0: 71f1 9b3e f2a1 01bd a4d8 9d3d 7983 94bc
000002c0: 879f e53d 62d7 90bc 39d5 36bd 468a db3d
000002d0: 4762 9ebe dbaa b13d b68a 113d 0b47 9ebe
000002e0: dad8 2e3c ffe9 f03c 9979 91bd 2e23 0f3e
000002f0: 6391 0d3e 1736 293e a793 963c 174d 6f3d
00000300: 94ef 4fbe 5639 e73c a2e1 c0bd b03e eb3d
00000310: 4ac7 293e c78f 393d 3b37 44bb 5ebf 60be
00000320: d882 49bc 5dc8 1b3d d558 683d 29e9 66bd
00000330: e817 6ebe 60fd 63bd 1dc1 513e 7ac8 83be
00000340: 1ad9 c6bd 9340 2f3e 5a78 51be b79d 08be
00000350: 964d 2a3e 872a efbd 8b6f 95be 6ff1 6dbd
00000360: a667 823e d5a3 18be f356 babd f3c7 1e3e
00000370: 283a 523d 1534 a73b 736c 013c 1e58 acbd
00000380: bac5 5abe 66c5 183d b72a c8bd da95 8c3e
00000390: d407 5a3e 0937 b8bd 2947 823e d7d8 24be
000003a0: 0ed4 4b3e 0531 b9be 8b4c cfbd a4eb a7be
000003b0: 6920 833e fe26 e6bc 64fe f2bc b344 01be
000003c0: 2a1f 613e abe7 3abc f04a cfbb 39e3 1f3e
000003d0: 701f 6cbe d09d 083e 63c6 313c 512a a8bd
000003e0: 186c 0b3d 59b1 b83d effe 1ebd b56e 323e
000003f0: 7362 033d c627 973d 4601 363d f101 05bd

Tmodel.fe1.FC4.bias f4 [32]
-0.027683476 0.3859773 0.36670732 -0.32678977 0.25851113 -0.69917184 0.06387728 -0.24316072
-0.024010004 0.5636889 0.05766662 -0.35848686 0.19404507 -0.19443212 0.3768009 0.14928707
-0.21067835 0.061498992 0.22069438 0.1657159 -0.4706358 0.089990504 0.21009383 0.33334985
0.41000107 0.42888653 -0.31406477 -0.17473714 -0.009916394 0.37402773 0.29802546 0.11997669
00000000: 75c8 e2bc d19e c53e 10c1 bb3e fd50 a7be
00000010: 925b 843e edfc 32bf 17d2 823d 20ff 78be
00000020: a1b0 c4bc ea4d 103f d533 6c3d 978b b7be
00000030: c0b3 463e 3719 47be 0cec c03e b6de 183e
00000040: 11bc 57be 5ee6 7b3d b5fd 613e 6eb1 293e
00000050: 2df7 f0be f14c b83d d622 573e d5ac aa3e
00000060: a9eb d13e 0497 db3e 19cd a0be 4bee 32be
00000070: 5f78 22bc 9080 bf3e cb96 983e 57b6 f53d

Tmodel.norm1.weight f4 [32]
0.5669594 0.14555767 0.08147958 0.37657326 0.38134366 0.2669672 0.5707809 0.23468678
0.31852043 0.2678677 0.10497037 0.29917312 0.100684784 0.23883265 0.060459394 0.14165455
0.16899048 0.13641721 0.1188239 0.25756967 0.32926774 0.2532196 0.11824335 0.093166955
0.45166612 0.036397215 0.40108562 0.36078134 0.11978765 0.119261034 0.043657485 0.24872163
00000000: 4024 113f 120d 153e c4de a63d 36ce c03e
00000010: 7a3f c33e edaf 883e b21e 123f bb51 703e
00000020: 1c15 a33e f525 893e b5fa d63d 382d 993e
00000030: d333 ce3d 8c90 743e 45a4 773d e40d 113e
00000040: d70b 2d3e f4b0 0b3e f259 f33d 2ce0 833e
00000050: c895 a83e 00a6 813e 9229 f23d 51ce be3d
00000060: c840 e73e 3f15 153d 185b cd3e 55b8 b83e
00000070: 3a53 f53d 213f f43d 31d2 323d e2b0 7e3e

Tmodel.norm1.bias f4 [32]
-0.4767442 -0.24561647 -0.1333837 -0.08087235 -0.09948549 0.0074061663 -0.36661214 -0.078342274
-0.49077392 -0.07975552 0.06956298 0.07948634 -0.1937864 0.11011726 -0.07695377 -0.15464851
0.036859486 -0.13646345 -0.15301836 0.018513158 0.09289132 -0.11887399 -0.02100746 -0.19727096
-0.24818452 -0.06683512 0.07204774 -0.10153787 -0.14277892 -0.23320992 -0.073973894 0.101964906
00000000: d117 f4be e282 7bbe bd95 08be 67a0 a5bd
00000010: 0cbf cbbd 6daf f23b 96b4 bbbe ea71 a0bd
00000020: b846 fbbe dd56 a3bd 0977 8e3d bcc9 a23d
00000030: f16f 46be 2885 e13d f099 9dbd 2e5c 1ebe
00000040: f9f9 163d 13bd 0bbe d8b0 1cbe e8a8 973c
00000050: ce3d be3d 3574 f3bd d617 acbc 6601 4abe
00000060: 1524 7ebe dae0 88bd c48d 933d 16f3 cfbd
00000070: a334 12be 95ce 6ebe a07f 97bd fad2 d03d

Tmodel.out1.weight f4 [32, 32]
-6.1247554 0.3028726 0.062425148 -0.08263917 0.39289382 -0.09111589 -0.12919581 -0.12767294
0.0027423205 0.5340978 -0.013479997 0.12586953 0.06674206 -0.11194872 0.012496832 0.026681585
-0.07114165 0.19631699 -0.07485119 -0.028997997 -0.49663478 -0.31743574 0.047759496 -0.039307464
0.21263713 0.020372529 -0.349984 0.63427025 -0.3364862 0.034824207 0.074304305 0.026152495
-0.019673212 0.002742114 -0.014498275 -0.041412305 -0.039564334 -0.045450967 -0.03205218 0.008608149
-0.051140007 0.029507665 -0.016250601 -0.021576243 -0.03377727 -0.030340383 -0.06657503 -0.018010654
-0.008049661 -0.03247947 -0.05086118 -0.019043142 -0.015680136 0.0116594285 0.0017631946 -0.05182043
-0.023026984 -0.056610283 0.005440799 -0.05294301 -0.04741414 -0.0039779465 -0.0623312 -0.010245483
0.056345504 0.115896985 0.06152097 -0.11299982 0.08129426 0.057012334 -6.8367777 0.0009640994
-2.9273584 0.07486547 -0.07953028 0.11683102 -0.0124580255 -0.043075293 0.08609184 -0.045212265
0.025740035 0.05705132 0.023609154 0.07043617 -0.14896461 0.05754708 -0.001609517 0.008688624
-0.2612427 0.12709057 0.0815861 0.22401986 -0.0069839763 0.07728099 0.09252544 0.13101217
0.030160882 0.22159581 0.028800577 -0.42928177 -0.13593444 0.1425451 -4.094975 0.04335648
-2.1779163 -0.055449713 -0.16076818 0.27152506 -0.15375878 -0.16307877 -0.0077842064 0.12114192
0.024514368 0.003045355 0.21777056 0.03479148 -0.22572356 -0.04291732 -0.22870177 -0.0059143454
0.25243706 -0.010810914 0.3276894 0.23163556 -0.06167068 0.1898926 0.016888848 0.045324553
0.018691 0.08229313 -0.099035844 0.01248833 0.30973828 -0.37611502 -0.24267173 -0.62647927
-0.10909518 0.18316849 0.13301802 0.26969782 -0.022112079 0.056395315 -0.14522207 -0.17981651
0.17971042 0.15285616 0.17912303 0.16608629 -0.36388323 0.35596976 0.0077959527 -0.092189044
0.1954031 -0.09758408 0.17940062 -0.24069305 -0.18349043 -0.004304972 0.060080055 0.05252711
-0.92726177 0.17453669 0.11730951 0.114145145 -0.03824231 -0.35213166 -3.5310287 0.10946294
-1.1779203 -0.1821234 -0.28015068 -0.15634239 -0.009160436 -0.6155795 0.040817443 -0.032043915
-0.111407444 -0.11247628 0.059968717 0.10492416 -0.08694768 -0.24132289 -0.2662967 0.0344149
0.16209212 -0.062704414 0.09518971 0.04268315 0.081763454 0.09295946 -0.023165295 -0.015601904
-9.201117 0.026369467 0.021535167 0.0802737 0.073360555 -0.10178225 0.029882394 0.016432106
-0.004542497 0.044342674 0.09360475 -0.11625462 0.015006257 0.09849768 0.06512514 -0.048035804
-0.09094643 0.046023205 -0.03648356 0.15398994 0.12147568 -0.16057129 0.09963027 -0.024628703
0.14019543 0.058631495 0.1393176 -0.09319932 0.07242022 0.05165114 0.07734332 -0.07286544
-0.023379426 -0.020753898 -0.01990064 -0.00012770097 -0.008876103 -0.05164704 -0.034698263 0.041097783
-0.02821017 -0.02079804 0.011536311 0.042288925 0.009287108 -0.006643758 -0.031940084 -0.010314757
-0.0068627163 -0.0041634482 -0.052566968 -0.016047409 0.026098749 -0.03285302 -0.04040466 -0.054457538
-0.009525713 0.042566646 -0.05488738 0.044758752 -0.031371724 0.039851736 -0.053573392 -0.013021427
00000000: fffd c3c0 1e12 9b3e 83b1 7f3d ba3e a9bd
00000010: 6129 c93e f89a babd e84b 04be b2bc 02be
00000020: 81b8 333b a2ba 083f 35db 5cbc f1e3 003e
00000030: 10b0 883d 5f45 e5bd 83bf 4c3c 5793 da3c
00000040: b7b2 91bd 5207 493e 954b 99bd 358d edbc
00000050: ea46 febe f086 a2be 769f 433d dd00 21bd
00000060: 8cbd 593e 4ae4 a63c 1a31 b3be 895f 223f
00000070: eb47 acbe d4a3 0e3d db2c 983d c23d d63c
00000080: b729 a1bc 0ab5 333b 2c8a 6dbc f39f 29bd
00000090: 360e 22bd cb2a 3abd 2649 03bd 3209 0d3c
000000a0: 2f78 51bd 0fba f13c fb1f 85bc a9c0 b0bc
000000b0: 095a 0abd 658c f8bc 7d58 88bd 148b 93bc
000000c0: bae2 03bc 3109 05bd d053 50bd 5d00 9cbc
000000d0: a173 80bc 3007 3f3c fe1a e73a a941 54bd
000000e0: 16a3 bcbc 2fe0 67bd bb48 b23b c5da 58bd
000000f0: 5435 42bd 6f59 82bb 004f 7fbd acdc 27bc
00000100: 8bca 663d 665b ed3d 6afd 7b3d 736c e7bd
00000110: 9b7d a63d c485 693d e2c6 dac0 9ebb 7c3a
00000120: d759 3bc0 1153 993d c5e0 a2bd 1a45 ef3d
00000130: bf1c 4cbc b86f 30bd eb50 b03d 7f30 39bd
00000140: c4dc d23c a5ae 693d fc67 c13c d740 903d
00000150: 2e8a 18be 7db6 6b3d 6ef6 d2ba bb5a 0e3c
00000160: 9ac1 85be 0824 023e 9d16 a73d 7665 653e
00000170: d7d9 e4bb 7f45 9e3d fa7d bd3d 0e28 063e
00000180: f413 f73c 03ea 623e 30ef eb3c d2ca dbbe
00000190: 6632 0bbe 58f7 113e 090a 83c0 9096 313d
000001a0: fb62 0bc0 3d1f 63bd 6aa0 24be 5505 8b3e
000001b0: f172 1dbe 1ffe 26be a812 ffbb 4119 f83d
000001c0: 5bd2 c83c 9494 473b 3fff 5e3e 8381 0e3d
000001d0: 1424 67be 12ca 2fbd cc30 6abe 20cd c1bb
000001e0: 6e3f 813e 4320 31bc e8c6 a73e df31 6d3e
000001f0: 659a 7cbd 3573 423e 7b5a 8a3c 3da6 393d
00000200: de1d 993c 4d89 a83d 4ed3 cabd da9b 4c3c
00000210: 0496 9e3e 2692 c0be f07e 78be f260 20bf
00000220: 4b6d dfbd 8590 3b3e e035 083e d515 8a3e
00000230: 6424 b5bc c6fe 663d 18b5 14be d221 38be
00000240: 0206 383e 5386 1c3e 076c 373e 8612 2a3e
00000250: e74e babe ab41 b63e 3175 ff3b 9ccd bcbd
00000260: c017 483e 2ada c7bd ccb4 373e 3d78 76be
00000270: eae4 3bbe b910 8dbb 8116 763d ab26 573d
00000280: 0761 6dbf bfb9 323e f83f f03d eec4 e93d
00000290: f8a3 1cbd 9a4a b4be 60fc 61c0 1b2e e03d
000002a0: 18c6 96bf 8e7e 3abe e96f 8fbe 3818 20be
000002b0: a715 16bc 9e96 1dbf 3130 273d 7b40 03bd
000002c0: 9629 e4bd f759 e6bd c2a1 753d 7ae2 d63d
000002d0: a011 b2bd 591d 77be 0b58 88be a3f6 0c3d
000002e0: 7afb 253e 2c6b 80bd d3f2 c23d 87d4 2e3d
000002f0: 9973 a73d 8861 be3d 25c5 bdbc 219f 7fbc
00000300: c637 13c1 c804 d83c 856a b03c 8a66 a43d
00000310: 0f3e 963d 3673 d0bd eccb f43c a09c 863c
00000320: 3ad9 94bb aaa0 353d d9b3 bf3d e716 eebd
00000330: cedc 753c 27b9 c93d 5460 853d 31c1 44bd
00000340: 1f42 babd d482 3c3d c96f 15bd 8aaf 1d3e
00000350: 3ec8 f83d cd6c 24be f40a cc3d 22c2 c9bc
00000360: 648f 0f3e 9427 703d 46a9 0e3e 49df bebd
00000370: 0d51 943d 2590 533d 2d66 9e3d 7a3a 95bd
00000380: 3686 bfbc 1404 aabc ab06 a3bc 78e7 05b9
00000390: 136d 11bc d98b 53bd c41f 0ebd 2656 283d
000003a0: 0419 e7bc a760 aabc cc02 3d3c 2737 2d3d
000003b0: f428 183c e2b3 d9bb 9bd3 02bd 3aff 28bc
000003c0: a3e0 e0bb 896d 88bb 7650 57bd db75 83bc
000003d0: 0bcd d53c e390 06bd 5b7f 25bd de0e 5fbd
000003e0: bc11 1cbc 5d5a 2e3d 97d1 60bd f454 373d
000003f0: a37f 00bd 933b 233d c66f 5bbd d357 55bc

Tmodel.out1.bias f4 [32]
0.07786875 -0.011465162 0.26743698 -0.004876775 -0.14302987 0.046876498 0.26948944 -0.050186403
-0.05906977 0.05749961 0.30745125 0.032342073 -0.017907783 -0.19237779 0.31194952 0.23168424
-0.08621703 -0.1067887 0.0063741943 -0.041803617 -0.07842083 -0.057866447 -0.15334108 -0.10312262
0.030217104 -0.0017380997 -0.06678575 -0.05946747 -0.06720652 0.32844135 -0.037881177 -0.05672699
00000000: a779 9f3d 60d8 3bbc 80ed 883e 5bcd 9fbb
00000010: 6c76 12be 9201 403d 85fa 893e 4290 4dbd
00000020: 25f3 71bd b684 6b3d 406a 9d3e 1f79 043d
00000030: 58b3 92bc affe 44be d9b7 9f3e a23e 6d3e
00000040: 8e92 b0bd 09b4 dabd 9ede d03b 453a 2bbd
00000050: 1a9b a0bd 5e05 6dbd 7205 1dbe f431 d3bd
00000060: dc89 f73c f3d0 e3ba f8c6 88bd 2994 73bd
00000070: 92a3 89bd 7729 a83e 4b29 1bbd 8f5a 68bd

Tmodel.out2.weight f4 [1, 32]
0.052947126 -0.03400992 -0.15327813 -0.055685375 0.0662054 -0.20656428 0.26266417 -0.014753215
0.030887408 -0.00342922 0.3768913 0.105645806 0.010989585 -0.13272183 -0.23411432 0.12259888
0.05281319 0.06768392 -0.81447643 -0.03447358 0.03850705 0.075149864 -0.06087666 0.07815737
-0.07724161 0.065259285 -0.0071342927 0.13252336 -0.14424971 -0.31174538 0.007937023 0.002287357
00000000: 16df 583d fc4d 0bbd f1f4 1cbe 5916 64bd
00000010: b296 873d 9685 53be eb7b 863e 78b7 71bc
00000020: 9707 fd3c c4bc 60bb e5f7 c03e d45c d83d
00000030: a90d 343c 3be8 07be aabb 6fbe 1f15 fb3d
00000040: a552 583d de9d 8a3d 8781 50bf 2b34 0dbd
00000050: 92b9 1d3d 2ce8 993d ce59 79bd f910 a03d
00000060: d930 9ebd a9a6 853d c9c6 e9bb 34b4 073e
00000070: 32b6 13be 179d 9fbe 4a0a 023c 7ce7 153b

Rmodel1.fe1.FC1.weight f4 [64, 3]
0.44798768 0.035927016 0.0143624535 -0.4212529 -0.14908724 0.18918037 0.15010917 -6.3042215e-05
0.1523321 -0.005765858 -0.0011457402 0.009262742 0.3299717 -0.20954007 -0.15484169 0.056219693
0.09177897 -0.22429198 -0.009810872 -0.019685753 0.008583649 -0.09211437 0.08654059 0.12577583
0.34336093 0.0049147736 -0.031134563 -0.47748107 -0.012400231 -0.014502355 0.024375308 0.004953026
-0.00087839045 -0.1725921 -0.019790307 0.18998533 -0.38175 -0.032344725 0.09399126 0.20049323
0.03978215 -0.027670562 0.30019206 0.019442644 0.013838323 -0.15574172 -0.10676882 -0.12043973
-0.000878175 -0.00025710734 0.00026147155 -0.1025707 -0.22471054 0.03903659 -0.024642268 -0.019935153
6.645735e-05 -0.2703453 0.27639592 0.14554235 0.02819521 0.10170743 0.16181993 0.4105825
-0.004273214 -0.009366046 -0.328926 -0.027427169 0.08610304 0.34962374 0.13625209 -0.15337288
-0.017973028 -0.0061794855 -0.0038972846 0.11764435 0.20234829 -0.04145232 -0.08362832 0.00023452182
0.12470596 -0.32332787 0.27496088 0.16134652 0.37110144 0.047039274 -0.17980085 -0.005511404
-0.011143743 0.0016173101 0.14082809 -0.03349911 0.20141976 0.33001155 -0.20394531 -0.14842618
-0.14845997 -0.017751036 0.019557552 0.06297533 -0.2087042 -0.21424417 0.18814898 0.024781274
0.027085682 0.14228046 -0.32149345 -0.08227011 -0.009462389 -0.0069134543 -0.0036907825 0.0695733
-0.107746474 0.122993104 -0.01614828 -0.0038814181 -0.15587938 0.19955674 0.03823605 -0.09399739
-0.60044396 -0.023585565 -0.0066960226 -0.001405415 -0.12214921 -0.050640363 -0.23506324 -0.021997314
0.17920078 -0.11654193 0.071146265 -0.18168344 -0.026783785 -0.03217235 0.008255867 0.00048294308
0.001532077 -0.0035211856 0.46608207 0.04995534 0.0071447436 -0.031965617 0.0027948725 0.012994973
0.2351561 0.10187086 -0.098557755 -0.085218035 -0.10044093 0.21110833 -0.23193042 0.19202465
0.059123494 -0.0013726935 -0.0073758643 -0.009740353 0.098610945 -0.010026031 -0.11977856 0.21835156
0.045205276 -0.18984026 -0.31264716 -0.06295337 0.15782382 -0.30971184 -0.001132216 -0.045808703
-0.0050243055 0.00061738753 -0.0044694846 0.104328565 -0.046855856 0.18717802 0.2891712 0.10968905
-0.06854087 0.33291996 0.019347705 -0.012668594 -0.21852285 0.040543273 -0.20596167 0.39699632
0.05438083 -0.2024022 0.14073542 0.021308562 -0.080199204 -0.5681699 -0.06379098 0.16926615
00000000: a45e e53e 3528 133d 7f50 6b3c 76ae d7be
00000010: 53aa 18be 80b8 413e 38b6 193e 8835 84b8
00000020: f2fc 1b3e 86ef bcbb a92c 96ba c1c2 173c
00000030: 0df2 a83e ac91 56be d28e 1ebe 9f46 663d
00000040: 9df6 bb3d ccac 65be c8bd 20bc 0444 a1bc
00000050: 6fa2 0c3c 75a6 bcbd 313c b13d 61cb 003e
00000060: 01cd af3e 1c0c a13b e90d ffbc 6678 f4be
00000070: 572a 4bbc 499b 6dbc baae c73c fe4c a23b
00000080: c943 66ba fcbb 30be 481f a2bc 848b 423e
00000090: bc74 c3be e77b 04bd 7d7e c03d 194e 4d3e
000000a0: 9cf2 223d 60ad e2bc c6b2 993e 2e46 9f3c
000000b0: 22ba 623c c27a 1fbe 9ca9 dabd 1ba9 f6bd
000000c0: 5435 66ba 5dcc 86b9 1e16 8939 9610 d2bd
000000d0: 851a 66be d5e4 1f3d 95de c9bc 0c4f a3bc
000000e0: 055f 8b38 b36a 8abe c483 8d3e 0e09 153e
000000f0: a4f9 e63c fc4b d03d 20b4 253e df37 d23e
00000100: 5106 8cbb 0b74 19bc fd68 a8be f1ae e0bc
00000110: ca56 b03d e201 b33e ab85 0b3e c80d 1dbe
00000120: 2c3c 93bc 487d cabb 9669 7fbb 85ef f03d
00000130: 6434 4f3e e8c9 29bd 5345 abbd f9e9 7539
00000140: d765 ff3d 3b8b a5be acc7 8c3e 0638 253e
00000150: 0201 be3e 41ac 403d b71d 38be 0299 b4bb
00000160: 3f94 36bc ecfb d33a 3d35 103e 5d36 09bd
00000170: fb40 4e3e 46f7 a83e 0ad7 50be 08fd 17be
00000180: e405 18be 9f6a 91bc 2937 a03c 36f9 803d
00000190: 8eb6 55be d362 5bbe 20aa 403e 1902 cb3c
000001a0: cbe2 dd3c f8b1 113e ca9a a4be 3b7d a8bd
000001b0: 2308 1bbc 428a e2bb 0ee1 71bb 727c 8e3d
000001c0: 2faa dcbd cfe3 fb3d 6649 84bc 645f 7ebb
000001d0: d89e 1fbe 9a58 4c3e 689d 1c3d b481 c0bd
000001e0: b2b6 19bf 8436 c1bc 4f6a dbbb e735 b8ba
000001f0: 5d29 fabd 456c 4fbd 6bb4 70be b633 b4bc
00000200: 6980 373e 89ad eebd 22b5 913d 390b 3abe
00000210: ab69 dbbc 27c7 03bd 9e43 073c 8633 fd39
00000220: f9cf c83a b1c3 66bb 4fa2 ee3e f89d 4c3d
00000230: 741e ea3b 61ee 02bd 2e2a 373b dee8 543c
00000240: c3cc 703e aba1 d03d a6d8 c9bd cb86 aebd
00000250: f9b3 cdbd c82c 583e 2b7f 6dbe 1ca2 443e
00000260: 7a2b 723d f3eb b3ba 3cb1 f1bb 0096 1fbc
00000270: 89f4 c93d 3944 24bc 764e f5bd 8d97 5f3e
00000280: 2b29 393d 7c65 42be 4a13 a0be b2ed 80bd
00000290: 919c 213e 8d92 9ebe dd66 94ba e8a1 3bbd
000002a0: eea2 a4bb 2dd8 213a c174 92bb 37aa d53d
000002b0: edeb 3fbd 98ab 3f3e 3f0e 943e a7a4 e03d
000002c0: 285f 8cbd 7c74 aa3e 147f 9e3c ef8f 4fbc
000002d0: 74c4 5fbe b410 263d 9ee7 52be 1a43 cb3e
000002e0: 6fbe 5e3d 8642 4fbe f21c 103e 4b8f ae3c
000002f0: 7b3f a4bd 9573 11bf d8a4 82bd 1b54 2d3e

Rmodel1.fe1.FC1.bias f4 [64]
-0.3387215 -0.06934453 -0.33919346 0.024363425 -0.20564115 -0.4467817 -0.11285822 0.073995
-0.35860628 0.14495414 -0.12559848 -0.5205622 0.39240888 -0.36423537 0.1748248 -0.5189115
-0.006880804 0.2032213 -0.25085154 -0.097364746 -0.3806432 -0.21177207 0.42035383 0.06397065
-0.11339049 0.12547174 -0.33878067 -0.168981 0.24380411 -0.07112792 -0.16455962 -0.301472
0.008870656 -0.28998232 -0.30785075 0.08090875 -0.07508781 -0.3206246 -0.3710118 -0.19864637
0.052810136 -0.3244956 -0.46762517 -0.39391205 -0.20076689 -0.031306718 -0.18941538 0.097343996
0.099267006 -0.48568445 -0.33558095 -0.103809685 -0.3113062 -0.38829195 0.36735964 0.16866182
-0.05713484 -0.44613037 -0.3871827 0.14215091 -0.338602 0.16426566 -0.22128437 0.0034397433
00000000: e86c adbe 8104 8ebd c4aa adbe ce95 c73c
00000010: 9893 52be 92c0 e4be 3622 e7bd b18a 973d
00000020: 3e9b b7be dc6e 143e e39c 00be 9043 05bf
00000030: d1e9 c83e 0f7d babe 4605 333e 62d7 04bf
00000040: 5e78 e1bb 3f19 503e 9d6f 80be 2b67 c7bd
00000050: aae3 c2be c7da 58be 9e38 d73e 0b03 833d
00000060: 4639 e8bd aa7b 003e a974 adbe 5b09 2dbe
00000070: c9a7 793e 84ab 91bd 5182 28be 8a5a 9abe
00000080: 3a56 113c 9078 94be 9d9e 9dbe 7db3 a53d
00000090: a3c7 99bd e828 a4be 42f5 bdbe f469 4bbe
000000a0: 714f 583d 4a24 a6be 916c efbe d7ae c9be
000000b0: d695 4dbe 793b 00bd 1bf6 41be 4a5c c73d
000000c0: 804c cb3d a2ab f8be 44d1 abbe 2c9a d4bd
000000d0: 8763 9fbe 34ce c6be 9016 bc3e afb5 2c3e
000000e0: 3906 6abd 336b e4be d03c c6be 0290 113e
000000f0: 3e5d adbe 4235 283e 5f98 62be 516d 613b
