Lightcode/bc/noisy/lightcode_bc_rate13_noisy_fb20.pt (torch, 166576 bytes, 38 tensors)

enc.fe.u1_FC1.weight f4 [64, 6]
000000 d4 3e b6 bd 04 96 00 bf eb de 00 3e b7 cf 75 3b
       -0.08898702 -0.50228906 0.12585036 0.003750784
000010 02 cd 83 3b c6 91 b2 be 98 db a9 3e 82 78 81 be
       0.0040222416 -0.3487684 0.3317535 -0.25287253
000020 3d 41 b8 3d a1 31 e3 3b 96 df ef 3c ca f7 24 bf
       0.08996818 0.0069334065 0.029281419 -0.64440596
000030 96 24 a6 3e 59 73 ec be 92 8a f4 3d d3 9a 5c ba
       0.32449788 -0.46181753 0.11940493 -0.00084154046
000040 fc 75 a4 3c a1 14 c8 bc cc 39 af be 48 f2 8f 3e
       0.02007579 -0.0244239 -0.34223783 0.28114533
000050 cf 0d dd be f4 2e 54 3c ca e7 04 3d cd 2a a1 bf
       -0.43174598 0.012950648 0.032447614 -1.2591187
000060 2e 71 86 be 63 5c 5a 3e 1e 81 43 bd c8 4b 16 bc
       -0.26258224 0.21324305 -0.047730558 -0.009173341
000070 c4 b2 8d bc c6 c2 97 be 53 50 03 3f e1 a1 31 be
       -0.017297156 -0.29640788 0.5129444 -0.17346908
000080 4b 8e ac be 6a 40 1c bc 5c 92 70 3c e0 9c 0c 3e
       -0.3370231 -0.009536842 0.014683332 0.13731718
000090 8d ea 11 bd 8b 41 6d be 0b 76 6f be cb 6e 12 bd
       -0.035624076 -0.23169534 -0.23384874 -0.03575019
0000a0 44 4a 10 3d 59 e3 13 bf a3 26 8e be 0e 1f 25 bd
       0.035227075 -0.5776878 -0.27763852 -0.04031282
0000b0 1c 12 16 3e a9 4d 8f bc 64 46 68 3c b7 fa 18 3e
       0.14655346 -0.017493086 0.014176939 0.1493939
0000c0 da a2 65 bd 9d 82 8b 3e 8b ab 8c be 2b a7 48 bc
       -0.05606351 0.27248088 -0.27474627 -0.012246887
0000d0 26 60 25 bc c0 a1 59 bd 3e 2d 75 3e 1b 6a b6 be
       -0.010093724 -0.053132772 0.2394304 -0.35627827
0000e0 6b 6f f3 bc 1d 2d c4 ba 41 70 56 3c e9 74 33 bf
       -0.029716214 -0.0014967058 0.013088287 -0.70100266
0000f0 11 d7 d6 3e e0 fb ad be d8 df 4a be 01 5f 44 3c
       0.41960958 -0.33981228 -0.19811952 0.011985541
000100 a9 a9 46 3d bb 39 ce be 92 c4 6e 3e ee 60 84 be
       0.048501644 -0.4027842 0.23317173 -0.258552
000110 1e be 5e be dc 9c 9e 3c d7 77 07 3d ee 33 3d bf
       -0.21752211 0.019361906 0.033073273 -0.73907363
000120 db 73 e2 3d 25 31 02 be de fa f9 3e ed e0 95 bc
       0.11057254 -0.1271406 0.4882421 -0.01829573
000130 06 b9 23 bd 1e 5a a9 3f 02 97 a4 3d ca c4 a3 be
       -0.039971374 1.3230627 0.08036615 -0.31986076
000140 2c eb ea 3e 39 0f 09 3d 9e 83 17 3c 39 2d 05 3e
       0.45882547 0.033461783 0.009247689 0.13005532
000150 c7 f8 eb bd 15 c8 d8 3d fd a9 5b be 26 9c 3b 3b
       -0.1152206 0.105850376 -0.21451564 0.0028627007
000160 0f a9 24 bd 64 f5 07 bf 90 24 ab 3e c4 45 92 be
       -0.04020029 -0.5310881 0.33426332 -0.28568852
000170 47 98 77 3d 5e c2 b2 3b 1b 1e ca bc 7d bb d3 3d
       0.060447957 0.0054552993 -0.024672559 0.10338495
000180 cf ee a5 3e 4d 92 b5 3e b3 7e b1 3d ce fc 70 bc
       0.3240876 0.3546318 0.08666744 -0.014708711
000190 f8 eb b8 38 cd ce a6 be 19 4b a8 3e 16 ae 03 3e
       8.817756e-05 -0.3257965 0.32869795 0.12859377
0001a0 5a f2 88 be b7 0a 33 3d 3e 17 01 3d 93 a0 36 bf
       -0.267474 0.04371139 0.031516306 -0.71338767
0001b0 8c 72 f9 bd e5 b6 91 3e f0 d8 c7 3e 00 83 59 bd
       -0.12180051 0.2845985 0.39032698 -0.053103447
0001c0 57 d7 25 bd 43 6c 71 3f 2f 36 d8 3d 0c 5f 28 be
       -0.040488567 0.9430582 0.1055721 -0.16442508
0001d0 da 24 20 3c b3 f3 b0 bc ff aa 11 bb b1 f1 5e 3e
       0.009774411 -0.02160058 -0.0022227166 0.21771885
0001e0 87 e1 85 3e 65 23 d6 be 95 cd 18 3e fc dc d5 39
       0.26148626 -0.4182388 0.14922173 0.00040791172
0001f0 13 66 6e bc c4 09 3a bf 72 71 84 bc 85 22 b9 be
       -0.014550704 -0.7267115 -0.016167376 -0.3615915
000200 74 ce 34 3d 4b 9d 61 bd e3 60 d9 bc 81 e1 94 be
       0.0441422 -0.055081647 -0.026535457 -0.29078296
000210 98 78 23 3e 65 11 e7 bc 9f 35 c9 be 3b 28 46 3c
       0.15963972 -0.028206537 -0.39298722 0.012094553
000220 7d 52 0c 3d d7 01 6b bf 81 44 8a bd de 35 49 be
       0.034258354 -0.9179968 -0.06751347 -0.19649455
000230 a3 30 a7 3e 81 e9 0a 3d 21 e3 f5 3c 1e 8e f5 3e
       0.32654294 0.033914093 0.03001553 0.4795999
000240 f9 86 98 3e 6f 2e 98 be ce 4c 8d 3e 1a b8 22 3c
       0.29790476 -0.29722926 0.2759766 0.009931589
000250 45 e2 a4 3c 49 22 13 3f f4 3f 25 be 0f db 0e bd
       0.020127425 0.5747419 -0.16137677 -0.03487688
000260 96 d3 e0 3e ab 83 71 bc 92 63 cd bb 21 f8 85 3e
       0.43911427 -0.014740865 -0.006267973 0.2616587
000270 db 17 cb be 85 8d e0 3d 4f 9e f1 3d cb aa 54 bc
       -0.39666638 0.10964493 0.11797773 -0.012980173
000280 07 4f 09 bd 95 83 93 bd 39 95 04 bf bb bd 62 3e
       -0.033522632 -0.07202832 -0.51790196 0.22142689
000290 8f 40 9e 3e ad 4a c2 bb aa d6 a3 bb 58 ce d5 bd
       0.3090863 -0.005929312 -0.004999955 -0.104397476
0002a0 cd 1b f0 3e 7a d5 f7 bd 65 c0 6d be ef 2b b9 bb
       0.4689621 -0.12101264 -0.23217924 -0.0056509892
0002b0 95 c0 f5 3c 27 a5 9d bd f0 b7 f1 3d 41 74 8c 3b
       0.029999057 -0.07697516 0.118026614 0.0042863195
0002c0 3f 6f d8 bc 7b 68 7c bd ea e4 d8 bc 45 86 0a bf
       -0.026420234 -0.061623078 -0.026476342 -0.5411113
0002d0 42 b0 61 3e 14 7c 71 3e 6f d1 24 bc 0f d8 f9 ba
       0.22039893 0.23582488 -0.0100596985 -0.0019061583
0002e0 3d 12 5d 3c e9 f3 08 3f 03 c4 1b be 5f 97 58 be
       0.013493118 0.5349718 -0.15211491 -0.21151493
0002f0 bf d6 41 3e 23 75 8b 3c 2c 4b 0c 3d ef e0 bf be
       0.18929575 0.017023629 0.034251377 -0.37476298
000300 62 95 bd be 32 28 a2 3e 6c 72 76 3e e1 9f fb 3b
       -0.37028033 0.31671292 0.24067086 0.007678971
000310 17 d7 7c bc 38 27 54 3f 96 4a 9c bc 8d 75 d7 bc
       -0.015432141 0.82872343 -0.019078534 -0.02630117
000320 54 f6 00 3f 8f 92 3a bc b4 2a 23 bd 37 43 ae 3f
       0.50375867 -0.011387481 -0.039835647 1.3614262
000330 c6 3a b5 3d 35 da a5 be 6f 50 c9 3e 0d b5 23 bc
       0.08849101 -0.3239304 0.39319178 -0.009991896
000340 c1 f7 b1 bc e8 a5 5f 3e d9 9b a7 be 4f 19 c5 3d
       -0.021724584 0.21840632 -0.3273609 0.09623968
000350 b4 3f 3c be 86 ca 27 3d 91 2c e7 3d b6 19 45 bf
       -0.18383676 0.040964626 0.11287797 -0.76992357
000360 2e bc 30 be 67 82 b4 be cd f4 a7 3e c3 d4 a2 3c
       -0.17259285 -0.3525574 0.32803956 0.019876843
000370 29 01 a6 3c b0 e0 3a bd 0e 92 1c bc 02 ff 24 bd
       0.020264225 -0.045624435 -0.0095563065 -0.040282257
000380 cc f1 b6 bc 23 00 3a bd d3 1f c7 bc c1 f2 fc 3d
       -0.022332095 -0.045410287 -0.024307167 0.12350989
000390 03 22 72 3d fd 14 49 be 3d e5 aa 3e 03 64 86 bd
       0.059114467 -0.19636913 0.3337802 -0.065620445
0003a0 07 6a c9 bc 41 b4 0f 3f 82 a1 33 be a8 53 8f 3e
       -0.02458669 0.5613442 -0.17542079 0.27993512
0003b0 fd 7d 23 3d d4 e5 8c 3d 57 19 0b 3d 65 a7 88 be
       0.039915074 0.06879774 0.033959713 -0.26690212
0003c0 6d 7c 9a be 3e 98 94 3e ab 0a f3 bc 14 4c 28 3c
       -0.30173054 0.29022402 -0.029668173 0.010272045
0003d0 f3 72 68 3c c8 c6 e1 be 2e 23 26 be 8a 62 ff 3e
       0.014187562 -0.4409697 -0.16224357 0.49879867
0003e0 e3 6f 94 be 63 86 c2 bb f9 7d 1d bc 87 e2 b6 3e
       -0.28991613 -0.0059364303 -0.009612554 0.35719702
0003f0 c4 54 c0 3e 84 03 a0 be eb fd ad 3d b1 b6 29 bc
       0.3756467 -0.31252682 0.08495697 -0.010358498

enc.fe.u1_FC1.bias f4 [64]
000000 3c c0 8c bd 6d 3e 1f be 7c 94 4a be 6a 3d 57 3e
       -0.06872603 -0.15551157 -0.19783205 0.21019521
000010 ea bd b5 bd 4b 2c 5f be 0f aa 0b bc a7 8e 0c be
       -0.08874114 -0.2179424 -0.008524432 -0.13726293
000020 af 79 4b be 07 f0 46 3d 2f 80 d5 bd 81 d9 0c 3e
       -0.19870637 0.04856875 -0.1042484 0.13754846
000030 aa 17 29 3d 1d 0d 9a be e4 95 71 be 07 a8 2e bd
       0.041282333 -0.3008813 -0.23592335 -0.042640712
000040 77 1e f4 3d 39 e9 79 be a8 64 80 be ad 43 9e be
       0.11919873 -0.24405374 -0.25076795 -0.30911008
000050 9b 8f cd 3d b2 cb c7 bd d0 a7 04 3e 0b 41 9e bd
       0.10037156 -0.09755649 0.1295464 -0.0772725
000060 52 9c af be b5 cb de bd 12 8d 5f bd 37 f8 a8 be
       -0.3429895 -0.10878698 -0.054577895 -0.33001873
000070 72 4b a6 3d 29 cf ae be dd d7 90 be 31 52 d6 be
       0.08119859 -0.34142426 -0.2828969 -0.41859582
000080 6b cf 55 3d e1 47 4d 3d d2 49 82 be 32 45 53 3e
       0.052199762 0.050117377 -0.25446945 0.20631865
000090 01 36 5b be 5d c0 a4 bd e2 18 0f 3e 0f 1f e9 be
       -0.2140732 -0.08044503 0.13974336 -0.45531508
0000a0 ca d7 ca bc 11 ad 05 bf 99 89 32 3e 02 18 cf 3c
       -0.0247611 -0.52217203 0.17435302 0.025280003
0000b0 36 6d 06 be e4 68 b6 be 35 0c 82 be c8 9b 90 be
       -0.13127598 -0.356269 -0.25399938 -0.28243852
0000c0 eb e9 bb be 8b a7 22 bd c9 ef 70 bd a7 d9 54 be
       -0.36701903 -0.039710563 -0.058822427 -0.20786153
0000d0 c8 6a b2 bd dd 02 ad bd 4d 4f 8d 3c b2 85 94 3e
       -0.08711773 -0.08447812 0.017249728 0.2900825
0000e0 1c 7e d5 bd 24 72 e3 3d 6f 5a b1 3e db 44 06 be
       -0.10424444 0.11105755 0.34639308 -0.13112204
0000f0 c3 a2 8b be a8 d9 74 be 99 29 83 bd 48 47 41 3e
       -0.27272615 -0.23911154 -0.064044185 0.18874848

enc.fe.u1_FC2.weight f4 [64, 64]
000000 98 0b 4b 3d 41 32 92 be 86 94 76 3e 59 15 b7 be
       0.049571604 -0.28553966 0.24080095 -0.35758474
000010 12 eb 36 bd b5 a6 30 3e 17 94 89 be dd e5 d0 3c
       -0.044657774 0.17251094 -0.26870796 0.025500232
000020 77 a6 0f 3b 43 22 ab be b4 35 07 bf 9e df 1d bd
       0.002191929 -0.33424577 -0.5281632 -0.038543336
000030 fb a3 1d 3f a8 af b5 3e 93 4f 05 3e 0d c2 18 be
       0.6157834 0.35485578 0.13018636 -0.14917774
000040 5a de c7 be af e7 3d be 20 fd 96 bf 0e e0 50 3e
       -0.39036828 -0.18545412 -1.1795998 0.2039797
000050 a9 a2 22 bf a8 f9 7a 3d 3d a0 ba be 3d 7b 12 3e
       -0.6352945 0.061273247 -0.36450377 0.14304824
000060 66 3e b4 bf 37 f6 81 be e9 15 be 3c 3d 97 ad 3e
       -1.4081542 -0.2538316 0.023203807 0.33904448
000070 ae 77 84 bd 1c 40 2b 3a 93 7a 03 bf 89 37 0b 3e
       -0.064681396 0.00065326854 -0.5135891 0.13595404
000080 40 2c b7 bd 8d 9b 0f 3f d1 61 32 3e a3 a5 10 be
       -0.08943987 0.56096727 0.17420126 -0.14125685
000090 b3 67 9b 3d 7f 27 6e 3d d3 62 ab 3d c0 b9 59 be
       0.075881384 0.058143135 0.083684586 -0.21262264
0000a0 89 77 04 bf ed 41 16 bd 1f 48 d6 3d 19 77 6e bd
       -0.51744896 -0.036683965 0.10462975 -0.05821905
0000b0 fb ef de be d6 40 bd 3e 7e e7 c1 be da f5 8b 3d
       -0.43542466 0.36963528 -0.37871927 0.06834002
0000c0 70 61 4b 3e 19 2a 80 3d 00 3d 42 3c f6 7f 03 3e
       0.19861388 0.062580295 0.011855364 0.12841782
0000d0 94 46 83 bd 7d de a6 3d 7c be b8 3c 30 cb 46 3e
       -0.06409946 0.08147905 0.022551768 0.19413447
0000e0 90 18 3f bd 2e a2 5a 3d 99 58 84 be ba 25 9c 3e
       -0.046654284 0.053377323 -0.25848845 0.30497533
0000f0 71 f8 cf bd 24 6a 86 bf 9f 9e ff be ff 7f 42 3e
       -0.10154808 -1.0501142 -0.49925706 0.18994139
000100 03 cc e7 3c 56 41 a7 be 1f 74 03 3e 00 15 22 3e
       0.028295523 -0.32667035 0.12837265 0.15828323
000110 f7 38 47 bd 13 0b f5 3d ec c4 8e bd 44 9d 1c 3d
       -0.04863831 0.11965003 -0.069711536 0.038235918
000120 2c b5 dc 3d 4f 44 41 be 57 57 65 bd 50 83 92 39
       0.10776743 -0.18873714 -0.055991497 0.00027945125
000130 2b 9a 01 be 8c c9 5e bd e4 b5 57 be 27 1e 14 3e
       -0.12656467 -0.05439143 -0.2106548 0.14464627
000140 49 40 35 bf 2f 32 2f bf 9b a4 18 3f de a0 11 3e
       -0.70801216 -0.6843595 0.5962617 0.14221522
000150 b1 6c 6f be 11 7e 43 bd b4 a6 0e bc 8f 5f 0f bd
       -0.23381306 -0.04772765 -0.008706737 -0.03500324
000160 55 6b b4 3e e0 9c 60 be df e4 ec 3c 8f 9b 33 3d
       0.35238138 -0.21934843 0.028917728 0.043849524
000170 5b e1 8e 3e 27 61 78 be c0 f8 ca bc e9 de d6 bd
       0.27906308 -0.2425581 -0.024776816 -0.104917355
000180 f9 84 da be 28 8b a0 be 77 87 ba 3d a8 95 ee 3d
       -0.42679575 -0.31356168 0.09107869 0.116496384
000190 26 1d 9d 3d 89 3e 52 3d 41 33 86 3d 2a f7 80 be
       0.07671575 0.05132917 0.06552745 -0.2518857
0001a0 ae d0 06 bf 40 5d 8b 3c b9 52 63 3e 0a a2 b3 3b
       -0.5266217 0.017012239 0.22199525 0.005481963
0001b0 78 a3 2e 3d 87 85 b7 bd e8 d3 95 be c9 b0 dc bd
       0.042636365 -0.08961015 -0.29263234 -0.107759066
0001c0 99 fe 7e be 96 5a 33 3e 05 ac 4f be 90 c4 20 3e
       -0.24901809 0.17515025 -0.20280464 0.15699983
0001d0 c9 4f fe 3d ab 1c bf 3c 8f 74 d4 3c 22 9a b4 3d
       0.124175616 0.0233291 0.025934486 0.08818461
0001e0 fe 88 4c 3d 3a 79 15 3e 8c ee 1b 3d 80 92 8b 3e
       0.049935333 0.14597026 0.038069293 0.27260208
0001f0 b9 b7 20 be 3d 0f c3 3e 12 3e 19 bf 4b d6 8b bd
       -0.15695085 0.38097563 -0.59860337 -0.068279825
000200 b5 84 19 bc 12 2a eb 3a f2 a2 c1 bd e6 f4 bf 3d
       -0.009370019 0.0017941615 -0.094549075 0.093728825
000210 0a 6f 26 be 42 d9 01 bc 5b f9 ef bc 75 37 3e bc
       -0.16253296 -0.007925333 -0.029293707 -0.011609902
000220 cb 3e 24 be bc ff a9 bd 8e 5c 83 bd 7b 42 3b bd
       -0.16039579 -0.083007306 -0.06414138 -0.045717698
000230 2f 2f aa bd fa 11 08 bd f3 30 68 3d 22 dd 52 3d
       -0.08309781 -0.03322027 0.056687307 0.05148042
000240 83 ea 99 3d 3e 14 4f 3e a8 6f 15 be a4 09 7c bd
       0.07515433 0.20222566 -0.14593375 -0.06153263
000250 63 36 25 be 8e 15 97 bd c5 ea ce 3d 8b 49 34 bc
       -0.16134028 -0.07377158 0.101033725 -0.011003862
000260 73 d2 41 3e e6 9e fd bd 88 09 fb bd e3 58 0f 3e
       0.18927936 -0.12383823 -0.12257677 0.13998751
000270 c8 79 c5 bc d2 b7 f8 bd 98 3b bf be 7c b0 c0 bd
       -0.024105921 -0.12144436 -0.37350154 -0.09408662
000280 2d ad a6 be 90 c1 ad be 1f 6d d4 3d 05 07 98 3d
       -0.32553998 -0.3393674 0.10372376 0.07423214
000290 7a 7b 8f bd 90 12 a7 39 6e 83 04 3c 9e d3 ad bd
       -0.07005973 0.00031866552 0.008087976 -0.084876284
0002a0 17 76 b6 bd c1 ed 49 bf ee 34 b6 bd 5e 93 03 be
       -0.089092426 -0.7887841 -0.08896814 -0.12849185
0002b0 79 2c e9 bd 24 9d 43 bd f5 cb 31 3b cb 4d 06 3c
       -0.113854356 -0.047757283 0.0027129625 0.008197258
0002c0 a1 b5 ba be d2 cb 8b be 2a 65 20 be 1e b1 56 3c
       -0.36466697 -0.2730394 -0.15663591 0.0131037515
0002d0 4b f7 d9 bd d9 40 81 3c 9c d0 17 bd 29 49 89 3d
       -0.106428705 0.015777992 -0.03706418 0.06703407
0002e0 08 cb 9e 3d 90 e7 e1 3d 14 e7 a1 bd cd 3f 1c be
       0.07753569 0.11030495 -0.07905403 -0.15258713
0002f0 5f 58 b8 3b 65 84 19 bd d8 ef 16 be 93 64 a3 bd
       0.005625769 -0.037479777 -0.1473993 -0.079781674
000300 53 dc 8d 3e 61 63 23 bc 8f 0c bc 3c ed ba 1e bf
       0.27707157 -0.009972424 0.022955207 -0.62003976
000310 dd 63 fa bd 55 5c 38 3c d1 3d aa be 0b 31 a3 3d
       -0.12226079 0.011252482 -0.33250287 0.079683386
000320 8b 54 6d be c9 81 30 be d8 64 9b 3c ba 79 28 be
       -0.23176782 -0.17237009 0.018968984 -0.16452685
000330 19 7c 46 3e 12 46 c0 bd 99 7f 29 be 17 e0 c2 3d
       0.19383277 -0.09388365 -0.16552581 0.09515398
000340 cc cc 94 3d e6 d1 14 be f3 11 62 3d af 97 ee bb
       0.072656244 -0.14533195 0.0551929 -0.0072812657
000350 51 e6 da bd fc 58 1a 3e d5 c7 33 bf 88 70 af 3d
       -0.106884606 0.15073007 -0.70226794 0.085663855
000360 0a 1b 65 3d 55 b5 33 bd e6 86 d0 3c 89 0e 26 bf
       0.05593399 -0.043874104 0.02545495 -0.6486593
000370 22 0a 3d bd 4d 97 a3 bb 39 f8 26 3e 6e b7 a1 3d
       -0.04615224 -0.0049924017 0.16305627 0.078963146
000380 2c 2b 21 3d c4 1d cc 3d 60 22 30 3d 66 b2 3f be
       0.039347813 0.09966615 0.043001533 -0.18720397
000390 a7 32 7a 3e 29 9c 6a 3d ea e1 3d 3e 98 e7 42 bd
       0.24433385 0.057277832 0.1854321 -0.047584146
0003a0 ef 59 48 bd 34 8d 82 be 6e e7 cf 3d 35 e6 8e 3c
       -0.048913892 -0.25498354 0.101515636 0.017443756
0003b0 c4 46 16 be d5 b6 95 3d 07 2a 54 3e e4 97 d5 bd
       -0.14675432 0.07310263 0.20719157 -0.104293615
0003c0 05 4c 26 be 5d 35 50 bd 15 76 7e bd 01 2a bc bd
       -0.16239937 -0.05083214 -0.06212433 -0.09187699
0003d0 f7 b4 e3 3c 91 e5 08 3e 0e 0a 8c 3d 0f 73 01 3e
       0.027796252 0.13368823 0.06837855 0.12641548
0003e0 05 88 9a 3d 9a 6c 38 bd c0 38 7a be fb 09 5f 3c
       0.07545475 -0.045025446 -0.24435711 0.013613219
0003f0 99 1a 82 3d a2 2e 3e 3e b1 10 a2 bd 36 f8 13 be
       0.06352729 0.18572477 -0.0791334 -0.14450154

enc.fe.u1_FC2.bias f4 [64]
000000 0a 5c eb 3d 3d 6d c5 3d 3b 90 7f bb 34 93 0d 3e
       0.114921644 0.09639976 -0.003899588 0.13825685
000010 3c 73 6a bd 6a 3e 3e bc 87 52 5b bd 3f 9b 0c 3e
       -0.057238802 -0.01161156 -0.0535455 0.13731097
000020 42 a7 07 bd c3 b9 c6 bd 17 69 35 3e bf 16 1f 3d
       -0.033118494 -0.097034 0.1771587 0.03884005
000030 9c 7f 1d be a4 4d 1f 3d 17 bf 07 3c 50 ed c5 3d
       -0.1538071 0.038892403 0.008285305 0.096644044
000040 51 74 9d bc 40 3e 05 be 3f a1 be 3d ab 8c af bc
       -0.019220503 -0.13012028 0.09308099 -0.02142938
000050 94 85 de 3d 89 a9 c8 bc 71 9a c5 bd 8a 6e a7 bc
       0.10865322 -0.024494903 -0.09648598 -0.020438451
000060 89 b8 6f bd 2a 9c e6 3d 95 49 fd bd 81 da 58 3d
       -0.058525596 0.11260255 -0.1236755 0.052942757
000070 84 18 42 3c c5 d4 2a 3e ed cf 02 bd 0f 03 80 3d
       0.011846665 0.16682728 -0.031936575 0.062505834
000080 ab f5 1d be 96 e5 82 bd f9 1e d4 3b b3 db cc bd
       -0.15425746 -0.06391446 0.006473419 -0.10002842
000090 6f b3 01 be f9 32 ec bd 97 7f b2 3c 7a 30 cd bd
       -0.12666105 -0.1153316 0.021789355 -0.10019012
0000a0 6d 7d 50 bb 62 eb 89 bd dd ee 72 bd 41 42 76 bd
       -0.003181304 -0.06734349 -0.05930983 -0.06012178
0000b0 11 57 f8 bd 52 6c 29 be b4 31 9f 3c d7 03 f0 3d
       -0.121259816 -0.16545227 0.01943288 0.117194824
0000c0 18 fa f7 bd cc 9d fc bd 1c 00 ab 3b 51 20 df 3d
       -0.121082485 -0.12334785 0.005218519 0.10894836
0000d0 9a 94 c3 bd 53 54 3b 3d 4c 07 36 3e 3f 80 08 3e
       -0.09549828 0.045734715 0.17776221 0.13330172
0000e0 43 c7 e5 bd 3f ae ec b9 bc 8f 03 bd f5 db 85 be
       -0.11219647 -0.0004514325 -0.032119498 -0.26144376
0000f0 8d 05 79 bd 36 c5 aa bd d1 9c 3a bd f8 66 ad bd
       -0.06079631 -0.08338396 -0.045559708 -0.08466905

enc.fe.u1_FC3.weight f4 [64, 64]
000000 4c 8c 76 3e f5 b1 f5 bd da 28 68 bd 0c 33 ae 3d
       0.24076957 -0.11996833 -0.056679584 0.0850583
000010 53 0e 03 be 50 6f e5 3d 31 d4 f9 bc 45 e0 e0 3d
       -0.12798433 0.11202872 -0.030496689 0.10980276
000020 25 ab 23 bd fe 56 c0 bd 13 ac 8b bd eb 14 78 3d
       -0.039958138 -0.093915924 -0.0681993 0.060566824
000030 08 5f b8 bc 5c 1e cd 3d 3c 34 5c 3d 67 73 e3 3d
       -0.022506252 0.10015556 0.053760752 0.111059956
000040 59 c6 b7 3d 10 98 0a 3e 7f 23 de be ca 36 0a 3e
       0.08973379 0.1353457 -0.43386456 0.13497463
000050 1c c7 1a bd 85 65 78 3d 45 74 98 3e 5c 01 85 bd
       -0.03778754 0.06064369 0.29776207 -0.064944
000060 28 6d 87 bc 1c ce 79 bd bd ae 48 3c 89 f3 18 3e
       -0.016531542 -0.060987577 0.012248692 0.14936651
000070 8f 34 84 bd 26 7e 98 3e 49 c2 4b 3e 19 25 04 bd
       -0.06455337 0.29783744 0.19898333 -0.03226194
000080 f0 d2 9b 3d 16 16 8d bd 0d 38 94 3b b6 07 6e 3c
       0.076085925 -0.06888978 0.0045232833 0.014528206
000090 ef e6 34 bd 6b 6b ef bd 5e d4 18 3d ac 92 ac 3d
       -0.044165548 -0.1169041 0.037311904 0.08426413
0000a0 85 9a 3d 3d 4f 92 b3 bd 14 0c a3 bb 53 93 49 3e
       0.04628994 -0.087681405 -0.004975805 0.19685106
0000b0 a6 80 11 bd d8 6e ca 3d a9 dc dc bd 2f ba 3a 3d
       -0.03552308 0.09884423 -0.10784275 0.045587715
0000c0 b8 7f 47 bd c1 5b 9f 3c c3 5b da 3d 1a 39 18 be
       -0.048705786 0.019452931 0.106620334 -0.14865533
0000d0 88 b6 ac 3d 5c a5 7f bd a6 1f d9 bd 44 97 7a 3d
       0.084332526 -0.06241356 -0.106017396 0.061179414
0000e0 8c c4 f7 bd 21 bd b5 3d b6 c6 b1 bc 35 8f f4 3c
       -0.12098035 0.08873964 -0.021701198 0.029853443
0000f0 42 ce 6d 3d 3b fd 60 be c6 be 31 be 43 7e da 3d
       0.05805803 -0.219716 -0.1735793 0.10668614
000100 a1 06 92 3e 57 22 02 be 56 e1 8c bd 47 77 3d 3e
       0.28520682 -0.12708412 -0.06878917 0.18502532
000110 e7 37 00 bd d3 c7 42 3d 58 33 22 bd ed 73 ce bd
       -0.031303313 0.04755385 -0.039599746 -0.10080705
000120 a4 8f 13 ba d0 35 a2 bd 17 20 66 be 83 8e 0b 3e
       -0.0005629009 -0.0792042 -0.22473179 0.13628583
000130 45 a3 48 3c 98 9c dd 3d 8c 52 06 3d a2 36 f3 bd
       0.012245958 0.108208835 0.032793567 -0.11875655
000140 b0 3e ea bd 20 ac 89 3e 97 48 cd be 7b 65 04 3e
       -0.11437738 0.26889133 -0.40094444 0.12929337
000150 3b d5 96 3c cb dd 00 bd 7f 40 da 3e e7 cb 87 bc
       0.018412223 -0.03146152 0.42627332 -0.01657672
000160 28 06 80 3d 53 00 1b 3d 49 c5 99 bc 81 23 2a 3e
       0.06251174 0.037842106 -0.01877083 0.16615106
000170 f1 54 85 3d f9 f1 03 3d 99 bc b4 3d 69 36 de 3c
       0.06510342 0.032213185 0.08825035 0.027125554
000180 2b dc 98 3d 77 c8 7f bd 34 6f aa 3d d3 9a 9f bd
       0.07463869 -0.062447038 0.083219916 -0.07793202
000190 d0 e7 dc bd 77 f8 3d bd 8f 3f 41 bc 95 c3 f6 bc
       -0.10786402 -0.046379533 -0.011794939 -0.030122558
0001a0 38 06 74 3e ad 7b 8b bd c3 52 57 be c6 28 0f 3e
       0.23830497 -0.06810699 -0.21027665 0.13980398
0001b0 f6 13 84 3d f8 de a6 bd ad 05 4a bc 69 8c b3 3d
       0.0644912 -0.08147997 -0.012330455 0.087670155
0001c0 2b bd 4e bc cc ef 27 3d 06 0e 09 3e 91 22 19 be
       -0.012618343 0.041000172 0.13384256 -0.14954592
0001d0 b8 93 7a 3b 85 b9 37 bd 8e f4 90 bd 04 60 0d 3e
       0.003823502 -0.04485466 -0.07077895 0.13806158
0001e0 f8 97 50 bd 6e fa 3c bd dd 16 a8 bc 79 f5 a2 3e
       -0.05092618 -0.046137266 -0.020518715 0.31827906
0001f0 db ca 61 3d 64 b9 8a be 42 c8 58 be ea dc 75 3d
       0.0551251 -0.27094567 -0.21170142 0.060025133
000200 7f c3 24 3e 90 78 4b 3d a0 f2 3d bc 6c 2a 3d be
       0.16090201 0.049675524 -0.011593491 -0.18473214
000210 e7 a5 59 3d f6 91 3d 3c 05 d9 51 3d 92 65 3e 3e
       0.053136732 0.011570444 0.051232357 0.18593433
000220 3c 7d 0b 3c f2 0f 9a bd df f4 a2 bd 32 21 a4 bc
       0.008513745 -0.075225726 -0.07956862 -0.02003536
000230 1c 98 ce bd 47 f1 06 bd 11 08 72 be e9 30 c5 bd
       -0.10087606 -0.032944944 -0.2363589 -0.096284695
000240 f4 5e 3e 3d 74 55 50 be d5 b3 36 be 1e 81 6f be
       0.046477273 -0.20345098 -0.17842038 -0.23389098
000250 0c e1 02 bd c2 e2 b3 bd a2 a4 c6 3e 04 f0 e9 bc
       -0.031952903 -0.08783485 0.3879748 -0.028556831
000260 1d e9 1f 3d 86 ac ab bc 74 ac b7 3b c9 d8 7e bd
       0.039040674 -0.020956289 0.005605275 -0.06221846
000270 17 72 b4 bd 0f 25 81 3e 7f 8a bc 3d 84 13 00 3d
       -0.088108234 0.25223586 0.092061035 0.03126861
000280 01 94 ab 3c e3 4f ff 3d 5c ce 25 be 4f 78 e4 3d
       0.020944597 0.12466409 -0.16192001 0.111557595
000290 6e b1 ee 3d 1d d9 70 be ee 75 89 3c 74 73 63 3d
       0.11654936 -0.23520322 0.016779866 0.055530027
0002a0 c9 86 9d 3d 90 08 57 3d de a4 50 3e 4a 9f 94 3e
       0.07691724 0.0524984 0.20375392 0.29027778
0002b0 7b 63 84 bd 2a bc d9 b9 ee b4 98 3d 60 59 59 3e
       -0.06464287 -0.00041529658 0.074563846 0.212255
0002c0 25 95 d7 bc c9 e1 db 3d fe 33 b9 bd 6a 1f f2 3d
       -0.026316235 0.107364245 -0.0904312 0.11822398
0002d0 dd 40 9e bc 5b 1f 17 bc cb db 82 be 3c 94 97 3d
       -0.019318039 -0.009223784 -0.25558314 0.0740132
0002e0 19 78 8e 3e 0f 9c 0c bd cf 9b 03 be 98 47 0f be
       0.27826002 -0.034328517 -0.12852405 -0.13992155
0002f0 cf 94 79 bd eb 81 91 3c df 17 3b bd 93 8c a1 3d
       -0.06093293 0.017762145 -0.045677062 0.078881405
000300 b7 1e a5 3c df c9 39 bd c5 e3 67 bd 06 eb 85 be
       0.020156248 -0.045358535 -0.056613702 -0.2615587
000310 cb 46 ee 3d 4d 78 31 bd 3a 03 3e bd 66 2a df 3e
       0.116345964 -0.04332762 -0.046389796 0.43587035
000320 4e 32 3d bc 5e d2 75 3c d4 bc 35 3e a5 7d 5d be
       -0.011547638 0.015003769 0.17747813 -0.21629961
000330 db ed 0f bc 5d 4a 77 bd 68 e0 86 be b7 63 92 3d
       -0.0087847365 -0.060373653 -0.26343083 0.07147925
000340 14 03 e3 3d c7 f2 e9 be d8 a6 43 3d a9 8f eb be
       0.110845715 -0.45693037 0.047766536 -0.46008042
000350 6d 29 0a 3d 40 46 85 bd 2e 2a 39 3d d5 13 9f 3c
       0.033730913 -0.0650754 0.04520624 0.019418636
000360 3c 5d a0 bd 39 4c 15 bd c1 a5 88 3d e1 cc cb be
       -0.07830283 -0.036449645 0.0667224 -0.39804748
000370 04 4b 36 3b 44 fc 67 3c 65 48 5f 3d 54 af 20 3e
       0.002781571 0.014159266 0.0545124 0.15691882
000380 31 b2 83 3c 76 7c 9c 3e e7 44 bd be 88 e4 5b 3b
       0.01607618 0.30563706 -0.3696663 0.0033552963
000390 23 0f 78 3e ad ce 94 be 65 f2 09 3d f3 44 82 3d
       0.24224524 -0.2906393 0.03367843 0.06360807
0003a0 c5 7c eb bc 69 b2 70 bc be 0b 8e 3e dc 06 16 3e
       -0.028746018 -0.014690974 0.27743334 0.14651054
0003b0 e9 dc 8d bd e3 a0 d4 3c 6a f3 e1 3d b7 bc 00 3c
       -0.06926901 0.025955623 0.11032756 0.007857493
0003c0 ca a3 63 3d 06 d5 98 3d c6 ab 73 bd 3f e0 b8 3c
       0.055576123 0.07462506 -0.059489988 0.022567866
0003d0 df ea 33 bc 80 00 ab 3d ea 82 74 be 27 93 1d 3e
       -0.010981291 0.08349705 -0.23878065 0.15388165
0003e0 e8 da c2 3e b0 8b 1e be cf 5d e8 3d 14 f7 1f bf
       0.38057637 -0.15482974 0.113460176 -0.62486386
0003f0 8e ca a3 3d 14 08 45 3e 9d 7f 4c bd 42 8b 36 bd
       0.079976186 0.19241363 -0.04992639 -0.0445664

enc.fe.u1_FC3.bias f4 [64]
000000 9e c9 27 bd 13 d1 c0 bc 45 28 21 bd c6 ab b0 3b
       -0.04096376 -0.023537194 -0.039345045 0.0053915707
000010 6c da 11 3d 99 4e 00 bd 48 ef 99 bd 2e 9f 6a 3c
       0.035608694 -0.031324957 -0.075163424 0.014320178
000020 b2 8f 31 3d e8 dd 1a 3d 8e 26 74 bd 3b 50 77 bd
       0.04334993 0.037809283 -0.05960708 -0.060379248
000030 a4 00 9c 3c 19 3d 74 3d 6e 5f 10 bd 5d bc 47 3c
       0.019043274 0.05962858 -0.03524726 0.012190905
000040 c4 e6 81 3c 63 5a 9d bd 33 d1 e4 bc aa 97 11 3d
       0.015857108 -0.076832555 -0.027931785 0.03554503
000050 4c 5f 2a 3d 64 99 87 bd 9c db e1 bc 63 43 83 3b
       0.04159479 -0.06621054 -0.027570538 0.004005836
000060 2f 16 10 3c 0b ca 36 3d dc b3 98 bc 42 d9 cb 3d
       0.0087943515 0.044626277 -0.018640451 0.09953548
000070 6e 79 b4 3b bc ce 43 3d 40 04 05 3d 9b f1 be 3d
       0.0055076396 0.04780458 0.032474756 0.09323426
000080 f7 df 88 bc 6a 6d 7a 3d eb 43 51 3d 45 ad 1a bd
       -0.016708357 0.0611395 0.051090162 -0.0377629
000090 0d c4 e9 3b c0 06 1d bd 99 ed 01 bd 54 4b be 3d
       0.007133967 -0.038336515 -0.03172073 0.092917114
0000a0 de a6 76 bd 1c 78 fc bb 47 26 02 bc 84 d8 57 bc
       -0.06021773 -0.007704748 -0.007943696 -0.01317418
0000b0 a0 61 1a 3d a8 92 75 3d c2 5e 05 3d e1 7c 1c bc
       0.03769076 0.059954315 0.03256107 -0.009551258
0000c0 2d 67 30 3d 18 ed f2 ba e0 59 b3 3b 33 a6 bd bc
       0.043067146 -0.0018533794 0.0054733604 -0.023150539
0000d0 a3 76 04 bd 36 3e 6a 3c 99 50 83 bd 06 e5 15 3c
       -0.032339703 0.014297059 -0.06411857 0.009148842
0000e0 a8 9a db bc 7c e1 1f bd 0f 75 1d 3d a4 ff 8d 3a
       -0.026807144 -0.039033398 0.038441714 0.0010833633
0000f0 9e e5 0b 3d eb 39 ee 3b 90 c6 97 bc 62 12 b5 3c
       0.034154527 0.007270088 -0.0185273 0.022103492

enc.fe.u1_FC4.weight f4 [32, 128]
000000 6a 01 4e be a9 05 3f be f5 e1 bf 3c 05 19 10 3e
       -0.20117727 -0.18654503 0.023423174 0.14072044
000010 b1 2c ec bd b9 13 39 3e 74 9a 54 bc 40 bc 73 3c
       -0.11531962 0.1807393 -0.012976278 0.014876425
000020 6b b1 f3 3d 9c 20 9e 3e d7 88 1a be e4 ca 2e 3e
       0.11899074 0.30884254 -0.15091263 0.17069584
000030 83 90 8d 3e 20 73 8b 3e cf 00 8f be 1d 3e de 3d
       0.27649316 0.2723627 -0.27930304 0.10851691
000040 0a 0e a3 bd d9 71 8c be 97 59 77 be 3f 7e a5 3d
       -0.07961662 -0.2743061 -0.2415527 0.0808072
000050 af 9a 7e bd 47 f5 e0 be 25 88 73 bd d5 14 36 be
       -0.062159237 -0.43937132 -0.05945601 -0.17781384
000060 8b f7 56 bc b2 3a 23 3e 7a cf 15 3e 11 0b 55 3e
       -0.013120542 0.15940359 0.14629927 0.20805003
000070 18 52 45 3c e8 96 3a bd 2e 83 ac bc 55 80 5d 3e
       0.012043498 -0.04555407 -0.021058645 0.21630986
000080 66 68 ac bd be fc 6f 3e b8 86 86 be 43 d2 12 3d
       -0.0841835 0.23436257 -0.26274657 0.035845052
000090 4c be 31 3e 79 1b 02 be da c6 8b bd 92 85 47 3e
       0.17357749 -0.12705792 -0.06825037 0.19484547
0000a0 f6 17 05 bd 18 8d 8f bc c7 d5 f1 3d 23 c4 86 bd
       -0.032493554 -0.017523333 0.11808353 -0.06580379
0000b0 54 e8 0f be 9f 43 0f 3e 85 d0 7e 3e c3 ee 81 bd
       -0.1405347 0.13990639 0.24884231 -0.06344368
0000c0 5d 0a a8 3d d0 aa f2 bc 0d ee 79 3c b0 f5 ab be
       0.08205102 -0.029622465 0.01525451 -0.33585882
0000d0 95 5c 45 3e 42 fc 5f be 40 3b 2d bd 4d 1d a4 bd
       0.19273598 -0.21873572 -0.042292833 -0.08013401
0000e0 63 31 82 bd 7f 93 09 3d 69 86 58 3e ed fd 0c be
       -0.06357076 0.03358793 0.21145023 -0.1376874
0000f0 f1 5a 94 3d 8c 6a 1d be f1 4e 81 3e 03 9d 66 bc
       0.07243908 -0.15372676 0.2525554 -0.01407552
000100 37 eb cc 3d 02 eb 97 3d a8 c3 6d 3d 85 48 53 bc
       0.10005801 0.07417871 0.05804792 -0.012895708
000110 c4 e7 8f bd 7b aa c7 bc cc 4f 3c bd 17 e4 ee bc
       -0.07026628 -0.024373284 -0.045974538 -0.029161496
000120 90 ef 2b bd 32 fd e1 3d 90 5d 94 3d d0 e9 39 bc
       -0.04197651 0.11034621 0.07244408 -0.011347249
000130 93 ff 24 3c 5f 01 52 3e 89 c8 e8 bc 51 da 82 3b
       0.010070699 0.20508336 -0.028415935 0.0039933105
000140 56 c7 6c 3d f2 c2 29 3c a3 2b 7c bd c0 72 57 bc
       0.05780729 0.01036142 -0.061565053 -0.013149917
000150 ae 85 85 3d 7b 22 82 3d 23 61 b5 3c ed a6 be bc
       0.06519638 0.06354233 0.022141045 -0.023272956
000160 fe 8e fc 3d 6a 84 88 3d 7a a2 3e bd c6 1d 81 bd
       0.12331961 0.06665881 -0.04654167 -0.06304507
000170 cf 05 50 3d cc 49 87 3d ee 0c 51 bd 18 fe 72 3d
       0.05078679 0.066058725 -0.05103772 0.059324354
000180 da cd 09 be f5 cd 8e 3c b1 e6 fc 3d ea 9f 8f 3d
       -0.13457432 0.017432192 0.123486884 0.07012923
000190 b3 88 10 3e 3e 03 cf 3c a2 11 04 bd 67 93 c1 3b
       0.14114647 0.0252701 -0.03224338 0.0059074643
0001a0 00 f0 08 be cb 1e 1a be fd 10 2e bd fb f6 2c be
       -0.13372803 -0.15050809 -0.04249667 -0.1689109
0001b0 46 79 9b 3c 88 ca d6 3c 1e b2 61 bc 9c fe c6 bd
       0.018978726 0.026219621 -0.013775377 -0.09716532
0001c0 64 e1 98 bc 7c c8 3c bc 74 2a b2 3b 18 c4 24 3d
       -0.018662162 -0.011522409 0.0054371897 0.040226072
0001d0 31 04 88 3c 51 3f 4c bd 26 32 59 bc a0 f4 73 3d
       0.016603561 -0.04986507 -0.013256585 0.059559464
0001e0 59 8d dd bc a2 66 ac 3c a2 1b 9c 3d b8 35 16 3d
       -0.027044939 0.021045033 0.07622458 0.036672324
0001f0 3a a5 6e 3d ec 62 01 3e 1e 97 9e bd 36 58 0f 3b
       0.05826304 0.12635392 -0.07743667 0.0021872646
000200 36 98 fe bc 49 8b 35 3d 3d 81 be bb e0 04 51 3d
       -0.03107844 0.044322286 -0.0058137462 0.05103004
000210 f4 a5 14 3e d5 38 dc bd b1 a2 8e bd 78 2b 38 be
       0.14516431 -0.10753027 -0.06964625 -0.17985332
000220 5e 42 6c be 0f 8a b6 bd b2 f3 f7 3d 43 f8 f8 3b
       -0.23072192 -0.08913051 0.12107028 0.0075979545
000230 07 92 9f bd 56 de 35 bd ed 34 fa 3d 8f 2e 29 3d
       -0.077915244 -0.04440149 0.12217126 0.041304167
000240 d5 36 ad 3d ca 73 20 3e 25 41 b9 3e c9 99 e7 3c
       0.08457724 0.1566917 0.36182514 0.028271573
000250 67 05 e0 bd 74 e7 17 3e 62 46 32 3c a4 48 a8 3d
       -0.109385304 0.14834386 0.010881038 0.0821698
000260 67 e4 0a 3e 12 fb e3 3d 62 86 58 3d cd 86 5f bc
       0.13563691 0.11131872 0.052862532 -0.013642979
000270 f3 60 b6 3d 82 93 99 bd 59 b7 52 3b f3 97 30 be
       0.0890521 -0.07498838 0.003215274 -0.17245464
000280 f8 57 e4 3d 29 d3 31 bd 80 e9 ef 3d 7a cd 93 bd
       0.11149591 -0.04341427 0.117144585 -0.07216926
000290 42 72 2b bd 7b db ef 3d 5b a8 a9 bd d0 38 6d be
       -0.04185701 0.117117845 -0.082840644 -0.23166203
0002a0 aa c9 49 3d e5 6f 38 3c 4d a1 5b bc cd 97 4d 3e
       0.049264587 0.0112571465 -0.013405156 0.20077439
0002b0 0b f2 cc 3c 8b 52 85 be c5 3d c7 bd 05 91 ab bd
       0.025017759 -0.26039538 -0.097285785 -0.0837727
0002c0 e3 84 4c bd 51 df a7 bc 8b fb 9d 3d 84 ea f3 3d
       -0.04993142 -0.020492228 0.07713994 0.11909965
0002d0 2f 6a cc bd 07 50 03 3e cf a2 80 3d ee bc 1e bc
       -0.099811904 0.12823497 0.06281053 -0.009688599
0002e0 a1 b1 4f 3d 3b 46 9b 3d eb c8 fc bc 32 1a 65 3d
       0.05070651 0.07581755 -0.030857524 0.055933185
0002f0 1d 52 91 be 27 24 88 3d a5 a7 42 be 6b fd 3f 3e
       -0.2838296 0.066475205 -0.19009264 0.18749015
000300 05 40 01 3d 10 32 c4 bc 07 35 12 3e 61 e9 67 bd
       0.031555194 -0.023949653 0.14278041 -0.05661905
000310 e9 b3 42 bd ff 1b af 3d f5 d3 ba 3c 06 c5 e3 3b
       -0.047534857 0.08550262 0.022806147 0.0069509773
000320 54 9f ab 3c 3a dc 10 3c 2f c7 e0 3d 9a 9e b0 3c
       0.020949997 0.008841569 0.10975491 0.021560002
000330 67 2a 83 3d 3d 44 92 bc b2 ad 46 bd ef 58 cb 3d
       0.06404572 -0.017854804 -0.048505493 0.09929072
000340 0b cd 20 bc 09 96 94 bc 2b f4 ce bb ca 79 98 bc
       -0.009814511 -0.018137949 -0.006315728 -0.018612761
000350 fd 5f 5d 3d e4 99 0f 3d 27 be 01 3e ae ff c8 bc
       0.05404662 0.03505887 0.12670194 -0.02453598
000360 70 c9 23 3b 5c ed 6e 3c 53 f3 a2 bd 45 fc 29 be
       0.0024991892 0.014582958 -0.07956567 -0.1660014
000370 5c 15 3c 3e 9a f4 0d 3d 16 e2 26 bd dc 06 82 bd
       0.18367523 0.0346571 -0.040742956 -0.063489646
000380 69 f1 34 bd 58 10 a5 3c ee 1a 15 bd e1 1a 4e be
       -0.04417554 0.020149395 -0.036402635 -0.20127441
000390 19 59 64 bd 7a 5f 4d bd 59 ff de 3d fd b5 cb bc
       -0.055749033 -0.05013988 0.108885475 -0.024867052
0003a0 f8 e5 91 bd d4 e1 c8 bd cf e5 32 3e b9 f4 5f bd
       -0.07123941 -0.09808698 0.17470478 -0.054676745
0003b0 30 d4 12 3e 5a 73 75 3d 1f 69 85 3c 8f 80 97 bd
       0.14338756 0.05992446 0.016285477 -0.073975675
0003c0 59 33 4d bd 81 1d 85 3d 93 62 4c bd 95 0f e6 3d
       -0.050097797 0.06499768 -0.049898695 0.11233441
0003d0 b6 dc e0 3d 58 63 f0 3b ec a9 24 3e a6 8f 05 3d
       0.10979597 0.0073360614 0.16080445 0.032607697
0003e0 c3 1c 72 3d b8 68 18 3d 1e 9a 8f bd 5a 04 3b 3d
       0.05910946 0.037209243 -0.070118174 0.045658447
0003f0 cb 1f 80 3c 99 68 d7 3d d1 64 04 be 18 fe bf 3d
       0.01564016 0.10517997 -0.12929083 0.093746364

enc.fe.u1_FC4.bias f4 [32]
000000 db 35 85 3d 86 05 8a 3d 13 d8 47 3b 51 fa ed bc
       0.06504413 0.06739335 0.003049378 -0.029050024
000010 ed e6 7d bd c7 cd 57 bc db 0e a7 3c 78 71 68 bd
       -0.061987806 -0.01317162 0.020392826 -0.056748837
000020 9f 35 c8 3c 42 49 fe 3b c0 57 d5 bc e1 3b b5 bc
       0.024439631 0.007760198 -0.026042819 -0.022123279
000030 e9 53 3e 3d 57 9d 8c 3d 56 c2 27 bd 30 5e 8c bd
       0.04646674 0.06865948 -0.040956818 -0.06853902
000040 0e fd 10 3d 6f e8 b5 bc 4b 15 f1 bc 3c 4c 75 3c
       0.03539758 -0.02220556 -0.029429099 0.014971789
000050 8e ed 8e 3d fb 90 f5 bc d0 be 40 bd 2b a0 0b 3d
       0.06978904 -0.029976359 -0.047056973 0.034088295
000060 01 40 8e bd ce 11 bf 3c e5 b2 bb bc 70 97 14 3d
       -0.069458015 0.02332392 -0.022912452 0.036277235
000070 d5 46 0a 3d de ac af 3c 0b 69 6b bd f2 af 1b bd
       0.033758957 0.021444734 -0.057473224 -0.03800959

enc.norm.weight f4 [32]
000000 92 f3 37 3f 4c f5 22 3f 1f 59 33 3f c8 b1 4d 3f
       0.71856034 0.63655543 0.70057863 0.803494
000010 d7 6b 45 3f a2 26 37 3f 7f 50 a1 3f a1 de 12 b9
       0.77117676 0.71543324 1.260269 -0.00014006581
000020 8b ff 70 3e 4d e7 41 3f 09 ed 4b 3f 19 08 62 3f
       0.23534982 0.7574356 0.7965856 0.88293606
000030 96 28 03 3f 90 74 3d 3f 52 1f 3f 3f 9f a8 aa 3f
       0.51233804 0.74005985 0.74657166 1.3332709
000040 d4 bc a2 39 2e 03 53 3f 51 5b 41 3f 4a a3 3c 3f
       0.00031039736 0.82426727 0.7552996 0.7368666
000050 7a 0b 69 3f 50 e9 5a 3f 59 4f 5a 3f 92 f8 36 3f
       0.91033137 0.85512257 0.85277325 0.7147304
000060 15 b0 42 3f c9 bc 24 3f 20 5a 05 3f 54 2e 1c 3d
       0.7604993 0.64350563 0.52090645 0.03813012
000070 79 32 24 3f a7 d7 56 3f 16 e9 24 3f 99 07 60 3e
       0.64139515 0.8392281 0.6441816 0.21877898

enc.norm.bias f4 [32]
000000 b6 a9 19 bb 4f 06 46 3c dd a2 db 39 1e 8e 23 3d
       -0.0023447103 0.012086465 0.00041892278 0.039930455
000010 36 7d b9 3c 38 50 27 bb a9 f5 d7 3d a7 3d 79 38
       0.022642713 -0.0025529992 0.10544903 5.9423644e-05
000020 f0 2c cd 3a e8 54 0b bc 86 b9 cf 3c f4 4d de bc
       0.0015653651 -0.00850413 0.02535702 -0.02713678
000030 3b 82 c9 ba 81 3c 4d 3c 4f a4 07 3c cc 0d ea bc
       -0.0015373895 0.012526632 0.00827892 -0.028571032
000040 41 14 ad 3a 69 5a 10 bd 8d 9b b9 3c 3a ec e0 bb
       0.0013204889 -0.03524247 0.02265718 -0.006864098
000050 63 04 61 3d 97 15 f5 bb 52 3d bf bc f2 e1 34 bc
       0.054935824 -0.0074793804 -0.02334467 -0.011040198
000060 1e 10 dd 3b c0 a5 bd 3a 62 7b a4 bb fb c1 23 3b
       0.006746306 0.0014468953 -0.005019591 0.0024987448
000070 03 16 ed 3b 8c 7c 10 bd b1 c2 b0 ba b1 58 1c 3a
       0.00723529 -0.035275027 -0.0013485757 0.0005964144

enc.enc_out1.weight f4 [8, 32]
000000 29 39 d3 3d ae 96 0f bd 8a 1f 19 3d 22 0a ca ba
       0.10313637 -0.03505581 0.037383594 -0.0015414397
000010 0a ce 34 bd 68 f7 d3 bd 07 2e fa be f0 b1 25 3c
       -0.044141807 -0.10349923 -0.4886324 0.010113224
000020 8a f5 af bd 77 c2 db 3d c6 c2 10 3d a3 b0 a0 3d
       -0.08591755 0.107304506 0.035342 0.07846191
000030 3f f5 f4 3d f5 63 ed 3d dc 69 d2 bd a2 35 d4 3e
       0.119608395 0.11591331 -0.10274097 0.4144717
000040 48 b0 2e bd 93 44 c4 3d fa 63 8d bc a6 37 39 bc
       -0.042648584 0.09583392 -0.017259587 -0.0113047715
000050 01 4a 48 be 80 ff 83 3d 35 4f 0c 3e a8 be 88 bd
       -0.1955948 0.06445217 0.1370209 -0.0667699
000060 d7 8e d0 bc 06 0b 53 bd 2e 02 db bc 63 6a 2a 3d
       -0.025458736 -0.051524185 -0.026734438 0.041605365
000070 01 9d c3 3c 5b a6 f1 3d 56 5f 6c bd 16 cb 95 bd
       0.023878576 0.11799308 -0.057708107 -0.07314126
000080 91 41 8e 3d 14 c4 ec bd 75 d8 8c bd d4 e6 f6 bd
       0.069460995 -0.115608364 -0.068772234 -0.12055746
000090 b8 c5 9b 3c 86 b3 1a be ba 17 09 bf 67 f8 85 3d
       0.019015178 -0.15107545 -0.5355183 0.065415196
0000a0 1f 15 2e 3d 89 dc 0c bd 3d 9b 3a be 7f 9f 00 3e
       0.04250061 -0.034390006 -0.18223281 0.12560843
0000b0 98 d3 9f 3d a8 84 18 be 40 00 37 3d ad 1a 02 3f
       0.0780403 -0.14894354 0.044677973 0.50821954
0000c0 8d 7e d1 3b d6 0b 0e bd ca fb 6d 3c 57 20 95 3c
       0.00639326 -0.034679256 0.014525363 0.018203897
0000d0 fc 2b 57 be 2e d4 f3 3d 94 69 ba bc 5f ec 8e 3c
       -0.21012872 0.119057044 -0.022755422 0.017446695
0000e0 28 88 19 bb 83 3f df 3c ca 8b d7 3d d5 42 e9 bd
       -0.0023427103 0.027251964 0.105247095 -0.113897
0000f0 d3 bc eb bd be 78 08 bd b5 52 29 3d 81 ac 8e bd
       -0.11510625 -0.033318274 0.04133864 -0.06966496
000100 22 0a 70 3d 97 9c a1 bc 10 24 f6 3c cb f5 23 3d
       0.058603413 -0.019727988 0.030046493 0.04002933
000110 94 b7 2f bd 17 9a a6 bd 4f 10 90 3e d0 94 8b bc
       -0.042899683 -0.08134859 0.28137442 -0.017038733
000120 08 f9 b4 bd b5 6e 0f 3d 8e fb 0c bd 94 97 92 bd
       -0.088365614 0.035017688 -0.03441959 -0.071578175
000130 f7 74 04 bd a0 89 d3 3d 54 f3 ca 3d 3d e7 c6 be
       -0.03233811 0.10328984 0.099096924 -0.38848296
000140 f4 e8 12 3e af 31 10 be 8b f6 f0 3d 4b 3c 39 be
       0.14346677 -0.14081453 0.11765774 -0.18089406
000150 e7 12 09 3d 71 0a 81 bd 2b ff 2e 3b d5 21 93 3d
       0.033465292 -0.0630082 0.0026702385 0.07184187
000160 26 e3 aa 3c b4 c8 f5 3d 70 f5 8c 3b 69 06 e4 3d
       0.020860266 0.12001172 0.0043017194 0.11134035
000170 b2 4b 3f 3c 8a ae 94 bd b7 4f e8 bb b3 fb a0 bd
       0.011675762 -0.07259853 -0.007089581 -0.07860508
000180 81 9a 88 bd 98 5a 04 be 99 09 ac 3d 7d 6f 41 3d
       -0.06670094 -0.12925184 0.08400268 0.047225464
000190 10 b1 0f be 5c f0 0b bd e0 22 ac be d4 bf 03 be
       -0.14032388 -0.03416477 -0.33620358 -0.12866145
0001a0 b4 58 af 3d 99 73 93 3d f7 ce 40 bd 7f ae 33 3e
       0.08561841 0.07199783 -0.047072377 0.17547034
0001b0 fd 50 19 bd 24 63 ba bd df c3 38 be be 9a 05 3f
       -0.037430752 -0.09100941 -0.18043469 0.5218924
0001c0 e8 6f 14 3d e6 f6 2c 3e 35 f0 78 bd ad 9c 92 3d
       0.036239535 0.1689106 -0.060775954 0.0715879
0001d0 24 34 39 be 0d 59 86 3d 9e 68 13 3e 79 71 07 3d
       -0.18086296 0.06559954 0.14395377 0.0330672
0001e0 6e 32 b3 bd 04 ac f0 3b ef 6a 96 bd 39 51 14 3e
       -0.08749853 0.0073447246 -0.07344615 0.14484109
0001f0 e4 92 57 3d f6 9f e3 3d 80 69 b2 39 5c 75 93 bb
       0.05263032 0.111144945 0.0003402941 -0.0045000743
000200 8d 05 ef bc b2 0d 3f 3d 97 63 00 bd 13 9a bc bd
       -0.029177452 0.04664392 -0.031344976 -0.09209075
000210 3f b2 7e bc 95 4b 7a 3d 9a ac 5b be 22 e0 13 3e
       -0.015545427 0.061107237 -0.21452561 0.14440969
000220 f7 59 73 3d d5 69 aa bd 97 57 05 be e0 9f f2 3b
       0.05941197 -0.08320967 -0.13021694 0.0074043125
000230 9a a1 84 bc 50 1b f6 bd e5 1b 9d 3c 07 01 bc 3d
       -0.016190339 -0.12016928 0.01917834 0.091798835
000240 99 19 06 be fc 8e 83 3c 10 51 6e bd 06 46 26 bd
       -0.13095702 0.016059391 -0.058182776 -0.040594123
000250 cd b3 21 3c a1 ba 0a 3e 8d 04 b7 bd 88 85 a1 3d
       0.009869528 0.13547756 -0.08936415 0.07886797
000260 d4 cb c7 bd ad 55 85 bd 7c 06 c0 3d 41 51 08 3e
       -0.09755674 -0.06510482 0.09376237 0.13312246
000270 c1 70 b3 bd 55 ca 86 bd be ec 7e bc d2 2a 7f 3d
       -0.087617405 -0.065815605 -0.015559373 0.062296696
000280 b8 ff 14 3d 21 89 b4 3d 7c 7c 2f 3e 8e bf 22 be
       0.036376685 0.08815218 0.17137331 -0.15893385
000290 46 65 75 3d 20 50 6f bd 89 15 08 bf 72 c6 35 3d
       0.059911035 -0.058426023 -0.5315786 0.044378705
0002a0 84 38 86 bd dc 75 97 3d 1a e3 98 bd 08 4c 0c 3e
       -0.06553748 0.07395527 -0.07465191 0.13700879
0002b0 19 fe 52 bd 5f e1 6e bd 41 b0 3c 3d db 0f 0f 3f
       -0.051511858 -0.0583204 0.046066526 0.5588357
0002c0 29 dc 11 be 9e 2d 9b 3c e0 76 f5 bd 5e 4d 0d 3e
       -0.1424414 0.01894265 -0.11985564 0.13799044
0002d0 35 2a 56 be 20 83 1d 3e 7b dd 06 3e 1a 3b 1a 3e
       -0.20914538 0.15382051 0.13170426 0.15061608
0002e0 94 41 cf bd e7 81 a9 3d fc 65 af ba 30 00 81 3d
       -0.1011993 0.0827673 -0.0013381834 0.06298864
0002f0 2e e3 4b bc dd 04 1a 3e 30 2c 24 3e 6a 53 09 3d
       -0.012444301 0.15040918 0.16032481 0.033526815
000300 53 bc 04 be 27 23 0f bd 15 19 a9 3c 87 1c 1a 3e
       -0.12962465 -0.034945633 0.020641843 0.15049945
000310 2b 96 07 3e bb 68 51 bd e3 26 10 3f 8a 61 bb 3d
       0.13240878 -0.05112527 0.56309336 0.091494635
000320 33 d9 0f be 71 15 03 be e9 41 6f 3d d9 30 4a be
       -0.14047699 -0.12801148 0.058412466 -0.19745196
000330 63 63 e1 3d 22 9a be 3d 17 9b ed 3d d1 5b 11 bf
       0.11005285 0.09306742 0.11601847 -0.56780726
000340 2c 4c 03 be 36 8c a9 bd a9 df b0 3c f6 fa a2 3d
       -0.12822026 -0.08278696 0.021591024 0.07958023
000350 78 3d 44 bc 2f 34 bc bc af 71 5e bc 45 e5 da 3d
       -0.011977546 -0.022974102 -0.013576909 0.10688261
000360 f3 d5 f7 3d f9 f9 2c 3e d0 0d dc bd a8 a4 ff 3d
       0.121013544 0.16892232 -0.10744822 0.124825776
000370 69 8c 19 bc 29 40 d3 bd 70 50 7d bd f5 04 0c be
       -0.009371855 -0.10314972 -0.06184429 -0.13673766
000380 56 06 47 bc 32 f9 80 3d bb e7 f2 39 11 be 58 3c
       -0.012147507 0.0629753 0.0004633049 0.013228909
000390 19 7e 37 3e 66 74 49 bd 0b 4d fa 3e 39 88 c7 bd
       0.17919196 -0.04918327 0.48886904 -0.09742779
0003a0 5c 73 99 3d d6 f1 e3 3d 81 6b e2 3d df d6 56 bd
       0.07492706 0.11130111 0.11055661 -0.05245101
0003b0 00 cf 3b 3d 9f cf c7 3c 16 d1 f8 bc a8 e2 b7 be
       0.045851707 0.024390994 -0.030373137 -0.35915112
0003c0 ad 12 ea bd 07 32 25 bd b3 75 e9 3d 30 39 02 bc
       -0.114293434 -0.040330913 0.113994025 -0.007948205
0003d0 cd c7 91 3d 55 ec e7 bd e6 6f 39 be 56 c9 cf bd
       0.07118187 -0.11324374 -0.18109092 -0.10145824
0003e0 28 23 f2 3d 63 38 11 bc 3f be d5 3c 63 48 bf 3b
       0.11823112 -0.008863541 0.026091693 0.0058374866
0003f0 43 35 00 3e 76 6f ba 3c db 20 77 3d e5 87 62 3d
       0.12520318 0.022758227 0.060334068 0.05530538

enc.enc_out1.bias f4 [8]
000000 dd 85 07 be 85 e5 c3 bd 48 49 82 3d 23 42 47 bc
       -0.13234659 -0.09565262 0.063616335 -0.012161764
000010 4d 12 bd bd 54 4e 11 be 85 a8 2d 3e b3 ed a1 3d
       -0.09232006 -0.14190036 0.16958816 0.07906666

enc.enc_out2.weight f4 [1, 8]
000000 a5 db 69 be 2e c3 8b be 79 4d 8d 3c f9 cc 7e be
       -0.22837694 -0.27297348 0.017248856 -0.24882878
000010 ec 07 0d ba 96 fb d6 be 34 df 97 3e 35 5f 51 3e
       -0.00053799036 -0.4198882 0.29662478 0.20446475

dec1.fe.FC1.weight f4 [64, 2]
000000 7c d7 93 bd b3 c5 cb 3d 9c 98 2d bf 6a 2b 54 3d
       -0.07218835 0.099498175 -0.6781099 0.051799215
000010 b4 b9 1a bf 75 a8 0e 3f 30 35 33 3f 45 86 a7 be
       -0.6043961 0.55725795 0.7000303 -0.32719627
000020 f4 a0 18 bf b2 02 60 3e b2 aa 09 3f f9 53 33 3e
       -0.59620595 0.21876028 0.53776085 0.17512502
000030 ad e0 cc be fb 1b 47 be f2 8f 81 3e e9 4a ef be
       -0.40015164 -0.19444267 0.25305134 -0.4673684
000040 3b 70 30 3f cb a5 8d 3c dc d5 34 bf f2 c8 35 be
       0.6892125 0.01729097 -0.70638824 -0.17752436
000050 9e 09 e7 3e 4e 37 91 3d a0 4b 21 3f 3a 09 05 bd
       0.45124525 0.07090627 0.6300602 -0.032479502
000060 44 7b e4 be 15 e1 8f be 06 ce f3 3e 53 5d 1f 3e
       -0.44625294 -0.2810141 0.4761812 0.15562944
000070 45 19 a9 be da 1d a5 3e 89 18 08 3d 8f a2 67 3e
       -0.33027092 0.32249337 0.033226524 0.22620605
000080 f1 0b b1 be b2 09 cb 3e 6e f7 9c 3e 8c d3 4f be
       -0.34579423 0.39655834 0.30657524 -0.20295542
000090 22 28 b4 be c6 19 4a be 69 3a 21 bf 49 00 b1 be
       -0.3518687 -0.19736394 -0.6297975 -0.3457053
0000a0 54 88 f1 be 18 f5 84 be dc 03 06 bf 0c e0 a9 3e
       -0.47174323 -0.25968242 -0.5234964 0.33178747
0000b0 5d 82 1e bf 09 a0 e2 3e c7 b0 35 3e 57 47 e7 be
       -0.6191767 0.44262722 0.17743216 -0.45171615
0000c0 fd b0 0b 3f 3c 40 9d be f5 75 a2 3e 0b 5d 61 3e
       0.5456694 -0.3071307 0.3173062 0.2200815
0000d0 c4 89 2b bf 0a fa 20 3e 0c 36 fe 3d a5 eb 07 be
       -0.6700709 0.15720382 0.124126524 -0.13273485
0000e0 51 d3 92 bd db 22 d3 bd 58 ec 84 39 b9 58 01 3c
       -0.07169212 -0.103093825 0.00025353092 0.007894688
0000f0 a5 6c d6 3e 2f b3 1b 3e be 92 9e 3e 52 71 b8 3e
       0.41879764 0.15205072 0.3097133 0.36023957
000100 40 b3 8e 3e 08 ba 6f be 34 84 b1 be 0a 53 86 3e
       0.27871132 -0.23410809 -0.34671175 0.2623523
000110 97 40 bf 3e 6a 0c c8 be 80 25 43 3e 0a b5 f2 be
       0.37353966 -0.3907197 0.19057274 -0.47403747
000120 71 c6 19 bf 7b 45 26 3e b9 7f 16 bf d4 59 be 3d
       -0.6006842 0.16237442 -0.5878864 0.09294477
000130 64 7d a6 3e 2f 85 a6 3d a2 81 22 3f 74 4b a7 bd
       0.3251754 0.081308715 0.63479054 -0.081686884
000140 43 fc e3 3e a0 ed 27 3e 08 ab 4f be 7a cc e7 3e
       0.44528398 0.1639924 -0.20280087 0.4527319
000150 5e 23 c8 3e e6 7b b8 be 72 39 0e 3f 83 f9 44 3b
       0.39089483 -0.36032027 0.55556405 0.0030055947
000160 91 e1 8b 3e 16 c0 13 be a7 97 68 3e 60 c2 42 be
       0.2732053 -0.14428744 0.22714101 -0.1901946
000170 38 89 05 3f 26 35 05 bf 96 6d 4c 3e 7c 42 b3 be
       0.52162504 -0.52034223 0.19963679 -0.3501166
000180 0e 26 01 bf c7 10 ca 3e 2a 75 ec be 0d 7e 60 3e
       -0.5044869 0.39465925 -0.4618314 0.21923085
000190 36 23 f2 bc f6 af b8 be b3 e6 3d bf 69 81 02 3d
       -0.029557806 -0.36071748 -0.74180144 0.031861696
0001a0 cb 6b 89 be 12 a4 e1 3e f8 31 0f 3f e2 31 c3 be
       -0.26840052 0.44070488 0.5593562 -0.38123995
0001b0 b8 42 18 bf 62 41 f5 3d 26 47 20 bf 5a 51 10 3f
       -0.59476805 0.119753614 -0.62608564 0.5637413
0001c0 40 7b 32 3f a0 4a cd be bf 2d 10 bf 91 0d 56 be
       0.69719315 -0.40095997 -0.56319803 -0.20903613
0001d0 dd a1 2e 3d 02 f2 06 ba 70 5b 86 be 23 57 96 be
       0.042634834 -0.00051477563 -0.26241636 -0.29363355
0001e0 e6 37 04 bf d1 f5 fb 3d db be be 3d 89 60 9b bc
       -0.51647794 0.12302745 0.093137465 -0.01896693
0001f0 d5 62 33 bf 72 f7 18 3d 0c 68 1e 3f 25 44 49 be
       -0.7007268 0.037345357 0.6187751 -0.19654901

dec1.fe.FC1.bias f4 [64]
000000 0c e0 88 3c 7a 20 0d be 98 3c 17 3d 14 60 9b 3e
       0.016708396 -0.1378192 0.03692302 0.3034674
000010 d0 72 91 bd 4c 2b 6a 3e 8f 87 d2 be fe 04 b5 bd
       -0.07101977 0.22868079 -0.41119048 -0.08838843
000020 dd a9 d4 be ab f8 13 be 0f 77 e2 3d f3 99 ad 3d
       -0.41535845 -0.14450328 0.11057865 0.08476629
000030 c4 dd 51 be 69 d7 9f 3e 7a a5 9b 3e 34 c0 57 3e
       -0.20494753 0.31219032 0.30399686 0.21069413
000040 c8 29 48 be 73 17 c0 be 4d 3f 96 3e be 90 eb 3d
       -0.19547188 -0.3751789 0.2934517 0.11502217
000050 5b ee 3d 3e 37 44 5a 3e b7 33 a6 3e 72 f1 e9 be
       0.18547957 0.21315084 0.3246133 -0.4569202
000060 fa cb fe 3d 81 4d ad 3e 6c 05 13 3f 87 ea d0 bd
       0.12441249 0.33848193 0.5743015 -0.102009825
000070 2a 17 ea be 30 d9 d5 bb 19 49 ab be 45 0d 19 bf
       -0.45720798 -0.006526135 -0.33454207 -0.5978587
000080 d0 70 db bd 5e 7e be be b6 ef 53 be 06 e9 71 3c
       -0.10714877 -0.37205786 -0.20696911 0.01476503
000090 00 f2 89 3e 20 ae ba 3d a6 69 2f bf 6e 18 99 3d
       0.26942444 0.09115243 -0.6852058 0.07475363
0000a0 fc 6c 03 bf c9 92 83 3d af d6 6d bd ee 68 9f be
       -0.5133817 0.064244814 -0.058066066 -0.31134742
0000b0 94 fb ef 3d 63 3a 1a 3d 39 b1 d8 be bb da ed be
       0.117179066 0.03765334 -0.4232271 -0.4645594
0000c0 0a 61 e0 be 30 7a 93 3e c6 50 cb 3e 09 7c ab be
       -0.43824035 0.2880416 0.39710063 -0.3349307
0000d0 f4 7a fe 3e f4 b8 e8 3e 6e 7a b7 bd 80 24 cf be
       0.4970318 0.45453608 -0.089588985 -0.40457535
0000e0 ec 72 31 3e 9f 92 10 bf 94 ba 6d bd d8 b1 1d bf
       0.17328995 -0.56473726 -0.058039263 -0.61599493
0000f0 42 3e 42 be 4b c8 2e bd cd 46 f3 be 34 84 f1 3e
       -0.18969062 -0.042671483 -0.47514954 0.47171175
