Lightcode/bc/noisy/lightcode_bc_rate13_noisy_fb15.pt (torch, 166576 bytes, 38 tensors)

enc.fe.u1_FC1.weight f4 [64, 6]
0	0xbd949a44	-0.07255986
1	0xbf03c99e	-0.5147952
2	0x3df6fe4a	0.120602205
3	0x3ca44d6a	0.020056445
4	0x3bb597bf	0.005541771
5	0xbeae3e52	-0.34031922
6	0x3e97545f	0.29556558
7	0xbe917059	-0.28406027
8	0x3dc738cb	0.09727629
9	0x3919013e	0.0001459168
10	0x3aa983e0	0.0012932979
11	0xbf24d245	-0.64383346
12	0x3ea29556	0.3175456
13	0xbefe6bee	-0.4969172
14	0x3e02a831	0.12759472
15	0xbcc99797	-0.024608416
16	0xbcbc6bae	-0.023000564
17	0xbd170308	-0.036868125
18	0xbeb882e0	-0.3603735
19	0x3e6cf1e0	0.23139143
20	0xbef8472d	-0.48491803
21	0xbcea382c	-0.028591238
22	0xbd036777	-0.032081094
23	0xbf9755c7	-1.1823052
24	0xbe966b2b	-0.29378638
25	0x3e569f02	0.20959094
26	0xbcb7dad6	-0.022443216
27	0x3ca7e31f	0.020494042
28	0x3c6cec3c	0.01446062
29	0xbe873851	-0.26410154
30	0x3f03cd18	0.51484823
31	0xbe491cff	-0.19639967
32	0xbeca685e	-0.3953275
33	0xbb8839ba	-0.004157272
34	0xbb96a17b	-0.0045968867
35	0x3e10ac34	0.1412819
36	0xbd0bbae4	-0.03411378
37	0xbe5a9900	-0.21347427
38	0xbe7988a5	-0.24368532
39	0x3bb796bc	0.0056026857
40	0x3c2234e5	0.009900306
41	0xbf0e6d9f	-0.5563602
42	0xbe8934cb	-0.2679809
43	0xbd993f8a	-0.07482822
44	0x3dd258b5	0.10270826
45	0xbca5d473	-0.020242905
46	0x3bd49b25	0.006488221
47	0x3e1aca4a	0.1511623
48	0xbdb8d0c0	-0.09024191
49	0x3e896ba7	0.26839945
50	0xbe8c4290	-0.27394533
51	0xbbcf33fd	-0.006323336
52	0xbb8cb191	-0.0042936285
53	0xbd684795	-0.05670889
54	0x3e8b1704	0.27165997
55	0xbeaab02b	-0.3333753
56	0xbb9d342f	-0.0047974805
57	0xbbd383aa	-0.0064549046
58	0xbb3bc0cd	-0.0028648854
59	0xbf3847bf	-0.71984476
60	0x3ece36fd	0.40276328
61	0xbec4d321	-0.3844233
62	0xbe3fd0ee	-0.18732044
63	0x3ca8d057	0.020607157
64	0x3c2a03b8	0.010376863
65	0xbeadb0a2	-0.33923823
66	0x3e22cf4e	0.15899393
67	0xbe9bc70f	-0.30425307
68	0xbec7bb76	-0.3901021
69	0x3cda2cca	0.026632685
70	0x3bfc7222	0.0077040354
71	0xbf139b01	-0.5765839
72	0x3e24d5e9	0.16097225
73	0xbd912d42	-0.0708871
74	0x3f10c339	0.56547886
75	0x3cae31dc	0.02126401
76	0x3d00acc3	0.03141476
77	0x3f9ef84c	1.2419524
78	0x3de8e707	0.1137219
79	0xbe863e82	-0.26219565
80	0x3ef0b161	0.4701033
81	0x3b653295	0.0034972776
82	0x3a9026a1	0.001099784
83	0x3df58d51	0.119898446
84	0xbe1b94ba	-0.15193453
85	0x3db8867f	0.09010028
86	0xbe5b7524	-0.21431404
87	0x3cb17fc0	0.021667361
88	0x3bbf7be1	0.005843625
89	0xbf09a158	-0.53761816
90	0x3eac032c	0.3359617
91	0xbe8d60c4	-0.2761289
92	0x3dd3af8f	0.103362195
93	0x3aa953e4	0.0012918678
94	0xbc2031a9	-0.009777465
95	0x3df1f77d	0.11814783
96	0x3e9e89d7	0.30964538
97	0x3eb15420	0.34634495
98	0x3da3da88	0.08000666
99	0x3c294cbd	0.010333237
100	0x3b619d17	0.0034425908
101	0xbebecd2f	-0.37265918
102	0x3ea251ed	0.3170313
103	0x3e09306f	0.13397382
104	0xbe84d82d	-0.2594618
105	0xbc5715d7	-0.013127766
106	0x3adbbf47	0.0016765379
107	0xbf3eb81a	-0.74499667
108	0xbdc15509	-0.09440047
109	0x3e96fea9	0.29491165
110	0x3ec151e1	0.3775778
111	0xbd249d7a	-0.040189244
112	0xbce3abca	-0.027791876
113	0x3f62c74d	0.8858536
114	0x3e263b6c	0.16233605
115	0xbe40bd86	-0.18822297
116	0xbd72eb78	-0.05930659
117	0x3c1758ae	0.0092374515
118	0xba09e29f	-0.00052599044
119	0x3e510b67	0.20414506
120	0x3e830d1a	0.25595933
121	0xbedb1ec7	-0.4279692
122	0x3e0c88e5	0.13724096
123	0xbc120529	-0.008912363
124	0xba9aa3cf	-0.0011798086
125	0xbf39b6a6	-0.72544324
126	0xbc7ced61	-0.015437455
127	0xbebc6077	-0.36792347
128	0xbbd22136	-0.0064126505
129	0x3cb45a9f	0.022015868
130	0x39d25e5f	0.00040124633
131	0xbe6c2bd1	-0.2306359
132	0x3dbca5e3	0.09211328
133	0xbdaaf9b6	-0.0834841
134	0xbeeb8186	-0.45997256
135	0xbc9ed21b	-0.019387295
136	0xbcc4667c	-0.02397465
137	0xbf601e36	-0.875461
138	0xbdfce779	-0.123488374
139	0xbe5e290a	-0.21695343
140	0x3ed7fd36	0.42185372
141	0xbbc452ad	-0.005991301
142	0xbb8b79d5	-0.004256467
143	0x3ee2c984	0.4429437
144	0x3eb94686	0.36186618
145	0xbe9cc1a8	-0.30616498
146	0x3eafc2f2	0.3432842
147	0xbc593a9c	-0.0132586025
148	0xbc93a0ac	-0.01802095
149	0x3f04b737	0.51842064
150	0xbe2f78ba	-0.17135897
151	0xbd89bc8f	-0.06725418
152	0x3effac1d	0.49936
153	0xba24dc17	-0.00062888995
154	0x3ad01071	0.001587404
155	0x3e87f698	0.26555324
156	0xbed91dac	-0.4240545
157	0x3d8619ca	0.065478876
158	0x3df13eee	0.11779581
159	0xbce34692	-0.027743611
160	0xbcad7c9d	-0.021177584
161	0xbc8b9a0f	-0.017041234
162	0xbf069e52	-0.5258533
163	0x3e650fb4	0.22369272
164	0x3e9254bd	0.28580275
165	0x3c7dab21	0.015482695
166	0x3c17176b	0.009221892
167	0xbdd030ee	-0.101655826
168	0x3ee7b21b	0.4525307
169	0xbe0ee2ab	-0.13953654
170	0xbe664fe4	-0.22491413
171	0x3beaebb0	0.0071692094
172	0x3a9d5f08	0.0012006471
173	0xbd46e57b	-0.048558693
174	0x3dca213a	0.09869619
175	0x3cb6b3d1	0.02230254
176	0x3d350e4b	0.044203084
177	0xbbb382dc	-0.005478246
178	0xbc86d1d4	-0.016457476
179	0xbf12672b	-0.5718867
180	0x3e89e30e	0.2693104
181	0x3e80bdb4	0.25144732
182	0x3c948a60	0.018132389
183	0x3ce3bcd1	0.027799996
184	0x3cdde3b3	0.027086115
185	0x3f0cee35	0.55050975
186	0xbe2c448a	-0.1682302
187	0xbe49687b	-0.19668762
188	0x3e6bfa0d	0.23044606
189	0x3cabd431	0.020975204
190	0x3cb6f419	0.022333192
191	0xbec08ae1	-0.37605956
192	0xbe99b6a0	-0.30022144
193	0x3ebc1604	0.36735547
194	0x3e956459	0.29178122
195	0x3d85c9d4	0.06532636
196	0x3d916cd4	0.071008354
197	0x3f4642fd	0.77445966
198	0x3ccc39f3	0.024929976
199	0x3cc1b17c	0.023644201
200	0x3f12f334	0.5740235
201	0x3c8cbc0d	0.017179513
202	0x3c92a3f3	0.017900443
203	0x3fa508d4	1.2893319
204	0x3d8d16f4	0.068891436
205	0xbeb10977	-0.34577534
206	0x3ed00f4d	0.40636674
207	0xbbb6daa2	-0.0055802623
208	0xb9119129	-0.00013882354
209	0x3e84d96f	0.2594714
210	0xbebe72b0	-0.37196875
211	0x3d1da2d0	0.03848535
212	0xbe8bcc04	-0.2730409
213	0x3cea85f2	0.028628323
214	0x3d7fc06e	0.062439375
215	0xbf2dad83	-0.6784288
216	0xbe35ef27	-0.1776701
217	0xbec3a1c6	-0.3820936
218	0x3ec39fad	0.3820776
219	0x3c42a88e	0.011881007
220	0x3b3e3d5a	0.0029028268
221	0xbd6efa2c	-0.05834405
222	0x3bf9da39	0.007624891
223	0xbd07ea1f	-0.03318226
224	0xbd000fe4	-0.031265154
225	0x3c94a914	0.018147029
226	0x3cadee1f	0.021231709
227	0x3de1b1b6	0.11020224
228	0x3daca86d	0.08430562
229	0xbe2c2474	-0.16810781
230	0x3ec1a62d	0.37822095
231	0xbd6e98f0	-0.05825132
232	0xbc87b14e	-0.016564038
233	0x3f07a86d	0.5299137
234	0xbe708ec5	-0.23491962
235	0x3e71b850	0.23605466
236	0x3ccfe25e	0.025376495
237	0x3c1555ff	0.009114741
238	0x3c17df7c	0.009269591
239	0xbe9e46cd	-0.30913392
240	0xbe9b0749	-0.30278996
241	0x3e96777d	0.29388037
242	0xbce5546f	-0.027994363
243	0xbc9b6c1c	-0.018972449
244	0xbceb318d	-0.028710151
245	0xbef186e6	-0.47173232
246	0xbe3079d2	-0.17233971
247	0x3ef76291	0.48317388
248	0xbec35860	-0.38153362
249	0xb92d64d1	-0.00016536123
250	0x3bbae317	0.0057033408
251	0x3eaad42b	0.33364996
252	0x3ee9e6c8	0.45683885
253	0xbe7898e6	-0.24277076
254	0x3de62a9d	0.112385966
255	0x3d49a2d9	0.04922757

enc.fe.u1_FC1.bias f4 [64]
0	0xbcc7b171	-0.024376603
1	0xbe7ddb07	-0.24790584
2	0xbe2f3718	-0.1711086
3	0x3e8be3ea	0.27322322
4	0xbda30b2b	-0.079611145
5	0xbdd9b781	-0.10630704
6	0xbb5a6038	-0.003332151
7	0xbe3db62c	-0.18526524
8	0xbe687574	-0.22701055
9	0x3d5d3ba1	0.054011945
10	0xbdfe6442	-0.124214664
11	0x3de2cb68	0.11073953
12	0xbc5ecea5	-0.013599073
13	0xbe964bb4	-0.29354632
14	0xbe451052	-0.19244507
15	0xbdf1a041	-0.11798144
16	0x3e02bced	0.12767382
17	0xbe7e75d0	-0.2484963
18	0xbe97bf32	-0.29638058
19	0xbec10b84	-0.37704098
20	0x3cbb4d16	0.022863906
21	0xbda65ccd	-0.08123169
22	0x3e3b33f1	0.18281533
23	0xbd9466c9	-0.07246167
24	0xbec6ced5	-0.38829675
25	0xbd93c268	-0.072148144
26	0xbd0a7d09	-0.03381065
27	0xbeb7602e	-0.35815567
28	0x3d0c115d	0.034196246
29	0xbebb0cc7	-0.36533186
30	0xbe80ffad	-0.25195065
31	0xbecd10e7	-0.40051958
32	0xbd2db43c	-0.042408213
33	0x3be90dd5	0.0071122446
34	0xbe74ba6e	-0.23899242
35	0x3e490fb2	0.19634894
36	0xbe3ccbb4	-0.18437082
37	0xbe3343ed	-0.1750638
38	0x3d5ca85e	0.053871505
39	0xbedcf414	-0.43154967
40	0xbccb515f	-0.024819074
41	0xbefe2690	-0.49638796
42	0x3d815274	0.06314555
43	0xbcee8451	-0.029115828
44	0xbe4a0996	-0.19730219
45	0xbebe24f0	-0.37137556
46	0xbe642508	-0.22279751
47	0xbe792fe5	-0.24334677
48	0xbec3c4ae	-0.38235992
49	0xbd2b5166	-0.041825674
50	0xbddcba12	-0.107776776
51	0xbe5b5f22	-0.21423009
52	0xbdd4ae4b	-0.10384806
53	0xbe2e2213	-0.17005186
54	0xbd04bf1f	-0.03240883
55	0x3e8fd621	0.28093055
56	0xbe3138ab	-0.17306773
57	0x3d25aabe	0.040446036
58	0x3e9e8ce5	0.3096687
59	0xbe0b510a	-0.13605133
60	0xbe89ddf7	-0.26927158
61	0xbe531ddb	-0.20616858
62	0xbd6ce93f	-0.05783963
63	0x3e65f2c0	0.22455883

enc.fe.u1_FC2.weight f4 [64, 64]
0	0x3d6d9e11	0.058012072
1	0xbef4c985	-0.47809997
2	0x3eb22a33	0.3479782
3	0xbee42124	-0.44556534
4	0xbe805b34	-0.25069582
5	0x3df1a240	0.11798525
6	0xbe6182b2	-0.22022513
7	0x3d8cf633	0.06882896
8	0x3cccec37	0.02501498
9	0xbe8c755a	-0.27433282
10	0xbf32f901	-0.699112
11	0xbde10529	-0.10987312
12	0x3f263ccc	0.6493652
13	0x3ec2527a	0.3795355
14	0xbd367353	-0.044543575
15	0xbed556fa	-0.4166792
16	0xbf293ef6	-0.66111696
17	0xbe67301b	-0.22576945
18	0xbf8bf645	-1.093453
19	0x3e44c52a	0.19215837
20	0xbef68ed8	-0.48155856
21	0x3d7132cb	0.05888633
22	0xbf0f4014	-0.5595715
23	0x3e619a86	0.22031602
24	0xbfc25cbb	-1.5184549
25	0xbe043e85	-0.12914474
26	0x3d6b2407	0.057407405
27	0x3e958716	0.29204625
28	0xbbfa7b1a	-0.0076440694
29	0xbdfd78cb	-0.12376555
30	0xbf17f96e	-0.59364974
31	0x3ec9c0d7	0.39404938
32	0xbe034f43	-0.12823205
33	0x3f14d872	0.5814277
34	0x3e44adc6	0.19206914
35	0xbe3d2e67	-0.18474732
36	0x3e18d48b	0.14924829
37	0x3dd3c261	0.10339809
38	0x3e2d2a6e	0.16910717
39	0xbecfa711	-0.4055715
40	0xbedac62b	-0.42729315
41	0x3dfc838d	0.12329779
42	0x3d82904d	0.063751794
43	0xbd05e96b	-0.032693308
44	0xbf3426f7	-0.70371956
45	0x3f1030fe	0.56324756
46	0xbf98ec4a	-1.194711
47	0x3e24bbb9	0.16087236
48	0x3dfe48dd	0.12416241
49	0x3dfcf4f0	0.123514056
50	0xbe838f9e	-0.2569551
51	0x3e0368d3	0.12832956
52	0xbea187c2	-0.31548887
53	0x3d8e7dd9	0.06957597
54	0xbc94eaa2	-0.018178288
55	0x3e10d51a	0.14143792
56	0xbd9512b1	-0.07278956
57	0x3d6c6a02	0.057718284
58	0xbe52ef6b	-0.20599143
59	0x3eb862b7	0.36012813
60	0xbd636325	-0.055514473
61	0xbf7caad3	-0.9869816
62	0xbefb4b7b	-0.49081025
63	0x3dc134e8	0.09433919
64	0x3c2cbb70	0.010542735
65	0xbe97910f	-0.29602858
66	0x3e32fcc8	0.17479241
67	0x3e513939	0.20431985
68	0x3cf90508	0.030397907
69	0x3e2c8df1	0.16851021
70	0xbd9c28ce	-0.076249704
71	0xbd74e049	-0.059784207
72	0x3d7351b4	0.05940409
73	0xbe143da3	-0.14476638
74	0xbdaa1a1b	-0.083057605
75	0x3d1f23e4	0.038852587
76	0xbdcf3f0b	-0.10119446
77	0xbb9c5182	-0.0047704587
78	0xbe9d51bd	-0.30726424
79	0x3e551c69	0.20811619
80	0xbf15c893	-0.58509177
81	0xbf58e6da	-0.8472725
82	0x3f0372ac	0.5134685
83	0x3ea039be	0.31294054
84	0xbe557ef5	-0.20849212
85	0xbd3f312e	-0.04667776
86	0x3d9f6522	0.077829614
87	0xbe2079e0	-0.15671492
88	0x3ed9e259	0.42555502
89	0xbeb55437	-0.35415813
90	0xbcd9957d	-0.02656054
91	0x3d907d0c	0.07055101
92	0x3e5268e2	0.20547822
93	0xbddcd39c	-0.10782549
94	0xbd84a615	-0.0647699
95	0xbd94b068	-0.07260209
96	0xbecec52a	-0.403848
97	0xbea1cd60	-0.31602
98	0x3decca13	0.1156198
99	0x3df6e7f5	0.12055961
100	0x3d49879d	0.049201597
101	0x3cb59e76	0.022170287
102	0xbc4ec73a	-0.0126207415
103	0xbe7557f9	-0.2395934
104	0xbecd4a61	-0.4009581
105	0xbc363132	-0.0111201275
106	0x3e884188	0.26612496
107	0xbe0934d9	-0.13399066
108	0x3db5b168	0.08871728
109	0xbe2a690e	-0.16641638
110	0xbe752519	-0.23939933
111	0xbe980e69	-0.29698494
112	0xbe07a431	-0.13246228
113	0x3e42f8ac	0.19040173
114	0x3da39fad	0.0798944
115	0x3e5236f2	0.20528772
116	0x3e442f2d	0.19158621
117	0x3ce1254b	0.027483603
118	0xbd6c22d4	-0.057650402
119	0x3df3b236	0.118992254
120	0x3dc909fc	0.098163575
121	0x3da33840	0.07969713
122	0x3d2bafd2	0.041915722
123	0x3e5dd640	0.21663761
124	0xbe28d798	-0.16488492
125	0x3ed72ffd	0.420288
126	0xbf2e6aff	-0.68132013
127	0x3cc4263a	0.02394401
128	0xbd69d652	-0.057089157
129	0xbdaf9675	-0.08573619
130	0xbe22b5d2	-0.15889671
131	0x3d9aaf9f	0.07553028
132	0xbe2e30f8	-0.17010868
133	0xbde0e02b	-0.10980257
134	0xbd73e5e5	-0.059545416
135	0x3cc51ac2	0.02406061
136	0xbdea79ac	-0.11448988
137	0xbe095c22	-0.13414052
138	0xbdbab304	-0.09116176
139	0xbd9e50d6	-0.07730262
140	0xbd298a29	-0.041391525
141	0xbd97db5c	-0.07414886
142	0x3cee68a6	0.029102635
143	0xbd69ebc9	-0.057109628
144	0x3d8f5607	0.0699883
145	0x3e50c62f	0.20388101
146	0xbe29a3e1	-0.16566421
147	0xbdd27fd9	-0.10278291
148	0xbe72c5ee	-0.23708317
149	0xbd91ed50	-0.07125342
150	0x3d9cb4d4	0.07651678
151	0xbe5b6be8	-0.21427882
152	0x3e385d46	0.18004331
153	0xbe239757	-0.159757
154	0xbdf4f468	-0.11960679
155	0x3e9881f6	0.29786652
156	0xbcef7670	-0.02923128
157	0xbe7ddc2c	-0.2479102
158	0xbecdd5a2	-0.4020205
159	0xbe356bf1	-0.17716958
160	0xbebac2d3	-0.36476764
161	0xbe9316a1	-0.28728202
162	0x3e560808	0.20901501
163	0x3d79bbf7	0.060970273
164	0xbe019932	-0.12656096
165	0x3d8347c8	0.064101756
166	0xbd2090b7	-0.03920051
167	0xbdc2db6f	-0.0951451
168	0xbda6b0cb	-0.08139189
169	0xbf34b2d2	-0.7058536
170	0xbde395b6	-0.111125395
171	0xbe14d382	-0.14533809
172	0xbe14d0e4	-0.1453281
173	0xbd60bf3e	-0.054869883
174	0x3ccf76ba	0.025325168
175	0xbbddf749	-0.0067738635
176	0xbef329f0	-0.47492933
177	0xbe88ff7e	-0.26757425
178	0xbe1532a7	-0.14570104
179	0xbe1eea69	-0.15519108
180	0xbe25d712	-0.16195324
181	0x3d28a139	0.04116938
182	0xbd54573d	-0.05184101
183	0x3d97bbc5	0.07408861
184	0x3ddbee53	0.10738816
185	0x3dd10ab0	0.102071166
186	0xbdc8f0f1	-0.09811581
187	0xbe8b5717	-0.27214882
188	0x3baf599b	0.005351258
189	0xbd8e71b5	-0.06955282
190	0xbe879994	-0.26484358
191	0xbde97ed1	-0.114011414
192	0x3eadf88c	0.3397869
193	0xbdeb5b2a	-0.114919975
194	0x3c3642d8	0.011124335
195	0xbf2661ff	-0.6499328
196	0xbe89ffa0	-0.2695284
197	0x3d00ff15	0.031493265
198	0xbe92cf6f	-0.28673884
199	0x3d924386	0.07141785
200	0xbe4fc98b	-0.20291726
201	0xbe3132ae	-0.17304489
202	0x3bad058e	0.005280203
203	0xbdfdc49f	-0.12391018
204	0x3e4388a6	0.19095096
205	0xbda6be1c	-0.08141729
206	0xbe213a3e	-0.15744874
207	0x3d28f3b2	0.04124803
208	0x3da0feca	0.07861097
209	0xbe11cc0b	-0.14237992
210	0xbba8bb41	-0.0051492755
211	0xbd648fdb	-0.055801254
212	0xbdc6464d	-0.096813776
213	0x3e338461	0.17530967
214	0xbf4818c3	-0.78162783
215	0x3dd5507a	0.1041574
216	0x3d0b0c24	0.033947125
217	0xbb4ac616	-0.0030940822
218	0x3ddfb334	0.10922852
219	0xbf1c87d9	-0.6114479
220	0x3ba522d6	0.005039553
221	0xbe03681b	-0.12832682
222	0x3e2b3ee1	0.16723205
223	0x3e9da78d	0.30791894
224	0xb9670d9b	-0.00022034945
225	0x3dcc66bf	0.09980535
226	0x3d757b22	0.05993188
227	0xbddd5650	-0.108074784
228	0x3ec09671	0.37614778
229	0x3cb042a8	0.02151616
230	0x3e38eb43	0.18058495
231	0xbc80d092	-0.015724454
232	0xbd0b50ea	-0.034012713
233	0xbe8e5be6	-0.27804488
234	0x3d9db595	0.0770065
235	0xbafe0a0b	-0.0019381655
236	0xbde37054	-0.11105409
237	0x3d478b13	0.048716616
238	0x3e524b78	0.20536602
239	0xbdf71a5b	-0.12065574
240	0xbe7dc893	-0.24783544
241	0xbcb63850	-0.022243649
242	0xbbebb1c6	-0.007192823
243	0xbe0bf3c4	-0.13667208
244	0xbd0edd9c	-0.034879312
245	0x3dae4b6e	0.08510481
246	0x3e01c134	0.12671357
247	0x3da685c6	0.08130984
248	0x3dcca84d	0.09993038
249	0x3c90bd02	0.017668251
250	0xbe6d6e14	-0.23186523
251	0x3e00e613	0.12587766
252	0xbc578e40	-0.013156474
253	0x3e3ee2d2	0.18641213
254	0xbdb7eb59	-0.08980436
255	0xbe4ccec2	-0.20000747

enc.fe.u1_FC2.bias f4 [64]
0	0x3d897c04	0.06713107
1	0x3df2990b	0.11845597
2	0xbc1c59b2	-0.009542869
3	0x3e147b2b	0.1450011
4	0xbd5f02b0	-0.054445922
5	0x3d0bcbce	0.03412991
6	0xbd509ed6	-0.050932728
7	0x3e30aaa8	0.172526
8	0xbd4b10f8	-0.04957673
9	0xbdbd0766	-0.09229927
10	0x3e4c881c	0.19973797
11	0x3b23ba6a	0.0024982938
12	0xbe15d03d	-0.14630218
13	0x3d9f7469	0.07785875
14	0x3d3f4cd0	0.046704113
15	0x3df0a607	0.11750417
16	0xbc95c56d	-0.018282617
17	0xbe03a959	-0.1285757
18	0x3df7425a	0.120732024
19	0xbd33af6f	-0.04386848
20	0x3dc3bd18	0.09557551
21	0xbcbededf	-0.023299633
22	0xbe0a7ad2	-0.13523415
23	0xbd5e8a3d	-0.054331053
24	0xbd73f300	-0.059557915
25	0x3dc32ea0	0.095303774
26	0xbdf0eda1	-0.11764074
27	0x3d86ae84	0.06576255
28	0xbd037c92	-0.03210122
29	0x3e3019df	0.17197369
30	0xbd4ffb01	-0.050776485
31	0x3c7e065b	0.015504445
32	0xbe204d05	-0.1565438
33	0xbd69982a	-0.05702988
34	0x3c8c8cb2	0.017156933
35	0xbe2263f4	-0.15858442
36	0xbe296823	-0.16543631
37	0xbdf090de	-0.11746381
38	0xbd169b3d	-0.03676914
39	0xbe291861	-0.16513206
40	0xbc948df8	-0.018134102
41	0xbd833081	-0.06405736
42	0xbd7e4f65	-0.062087435
43	0xbda02e59	-0.0782134
44	0xbdec38fe	-0.11534308
45	0xbe3e3fb0	-0.18578982
46	0x3c1611e8	0.009159543
47	0x3e0ee9aa	0.13956323
48	0xbe47f82c	-0.19528264
49	0xbe05716d	-0.1303155
50	0x3d325e89	0.043547187
51	0x3e107de2	0.1411052
52	0xbdba0972	-0.09083833
53	0x3c2450fd	0.010029075
54	0x3e51a396	0.2047256
55	0x3dfcbd29	0.12340767
56	0xbdb6f7a6	-0.08933954
57	0xbd882816	-0.06648271
58	0x3bb467d6	0.0055055423
59	0xbe8ef922	-0.27924448
60	0xbd6cde98	-0.05782947
61	0xbe12289b	-0.14273302
62	0xbd0af8aa	-0.03392855
63	0xbda4f0ea	-0.08053763

enc.fe.u1_FC3.weight f4 [64, 64]
0	0x3e6aa2c8	0.22913659
1	0xbe00092d	-0.125035
2	0xbbea4e96	-0.0071504815
3	0x3dbe5595	0.09293667
4	0xbdf9526b	-0.12173923
5	0x3ded767a	0.11594863
6	0xbceda37a	-0.029008616
7	0x3db986f2	0.09058942
8	0xbd0de4ca	-0.03464202
9	0xbdb6f469	-0.08933336
10	0xbd97fc84	-0.074212104
11	0x3d9054f5	0.07047454
12	0xbcaf5ffc	-0.021408074
13	0x3daad46f	0.083413
14	0x3d6c8d8a	0.05775217
15	0x3d9a008a	0.07519634
16	0x3daeceb9	0.08535523
17	0x3e07624f	0.13221096
18	0xbee1080e	-0.43951458
19	0x3e039711	0.12850596
20	0xbd39975b	-0.04531036
21	0x3d6c46cc	0.057684705
22	0x3ea3bf45	0.31981865
23	0xbcdfc330	-0.027314752
24	0xbc09c9e5	-0.008409952
25	0xbd3bf524	-0.04588808
26	0x3c3ee3ce	0.011650993
27	0x3e188b3a	0.1489686
28	0xbd9abb76	-0.075552866
29	0x3e9dc06d	0.30810872
30	0x3e518304	0.20460135
31	0xbd31db1c	-0.04342185
32	0x3d024709	0.031806026
33	0xbda4f02a	-0.0805362
34	0x3c886cc0	0.016653419
35	0xbd4d42b3	-0.050112437
36	0xbd12dd6d	-0.0358557
37	0xbdc856e5	-0.09782199
38	0x3cd8af31	0.026450725
39	0x3dad930e	0.08475314
40	0x3c80c6ae	0.015719738
41	0xbdaacf3b	-0.08340307
42	0x3a021729	0.00049625576
43	0x3e43a372	0.19105318
44	0xbd0a6722	-0.03378976
45	0x3dbe8715	0.093031086
46	0xbdf0ceb6	-0.11758177
47	0x3d66c0d3	0.056336235
48	0xbd66f20a	-0.05638317
49	0x3d24b59e	0.040212266
50	0x3da9889a	0.08278008
51	0xbe1c9c8b	-0.15294091
52	0x3da4490e	0.080217466
53	0xbd706ef0	-0.05869955
54	0xbe008d3c	-0.12553877
55	0x3d49e288	0.049288303
56	0xbdca6a19	-0.09883518
57	0x3dd2fb8d	0.10301886
58	0xbc281d70	-0.010260925
59	0x3d26f62b	0.040762108
60	0x3d62338e	0.055224948
61	0xbe5ea4a6	-0.21742496
62	0xbe26993f	-0.16269396
63	0x3dcfd4fc	0.101480454
64	0x3e80fdfe	0.2519378
65	0xbe1091a5	-0.14118059
66	0xbd227fa7	-0.03967252
67	0x3e40d419	0.18830909
68	0xbcf3ec8d	-0.029775882
69	0x3d830039	0.06396527
70	0xbd1a493a	-0.03766749
71	0xbdedab7e	-0.11604975
72	0x3b24479d	0.00250671
73	0xbd9a4b8c	-0.07533941
74	0xbe767e38	-0.24071586
75	0x3e0de36b	0.13856284
76	0x3c3ed8f1	0.011648403
77	0x3dc05bfc	0.093925446
78	0x3d50c7e9	0.0509719
79	0xbe1137bf	-0.14181422
80	0xbdded06e	-0.108795986
81	0x3e86562e	0.26237625
82	0xbecfea1d	-0.40608302
83	0x3dfc2393	0.12311473
84	0x3c3b56b7	0.011434249
85	0xbcf52842	-0.029926423
86	0x3ee30c93	0.4434553
87	0x3cf4797e	0.029843088
88	0x3d73b18f	0.059495505
89	0x3d1831ea	0.037156977
90	0xbc924485	-0.017854938
91	0x3e2cd3a7	0.16877614
92	0x3d4237d5	0.047416527
93	0x3d88657c	0.066599816
94	0x3dc5feb3	0.09667721
95	0x3cb0e7dd	0.021594936
96	0x3d6cb565	0.05779018
97	0xbde049e1	-0.10951591
98	0x3dc5b855	0.09654299
99	0xbe3cb301	-0.1842766
100	0xbde8b5f5	-0.113628305
101	0xbd0782e9	-0.03308383
102	0xbcb3c617	-0.021945043
103	0xbce80f85	-0.028327713
104	0x3e5363fa	0.20643607
105	0xbd84ad3e	-0.06478356
106	0xbe58918f	-0.21149276
107	0x3e0bd7aa	0.13656488
108	0x3d7b4451	0.06134445
109	0xbdaaedb4	-0.083461195
110	0xbcce1169	-0.025154786
111	0x3dc06684	0.09394553
112	0xbcea0d02	-0.028570656
113	0x3d7fd064	0.062454596
114	0x3dd2fbbc	0.10301921
115	0xbe1bdf8a	-0.15221992
116	0x3b6e59c0	0.0036369413
117	0xbd2ed726	-0.04268565
118	0xbdb7c5d0	-0.089732766
119	0x3de074a6	0.10959749
120	0xbd149a32	-0.036279865
121	0xbcc57315	-0.024102727
122	0xbcac84c0	-0.021059394
123	0x3ea2d51a	0.3180321
124	0x3d56c65b	0.05243526
125	0xbe8797e2	-0.26483065
126	0xbe4c2d79	-0.19939221
127	0x3d69ddc2	0.05709625
128	0x3e231179	0.15924634
129	0x3d9098d1	0.070603974
130	0xbc0d26da	-0.00861522
131	0xbe2a5e92	-0.16637638
132	0x3d4f0722	0.05054391
133	0xbb52de6d	-0.0032176033
134	0x3d479bb8	0.04873249
135	0x3e3812f7	0.17975985
136	0x3c92963f	0.017893909
137	0xbd928b6d	-0.071554996
138	0xbd8630d9	-0.06552286
139	0xbccb92cc	-0.024850272
140	0xbdc48377	-0.095953874
141	0xbcba1045	-0.022712836
142	0xbe80000d	-0.2500004
143	0xbdcffa01	-0.10155106
144	0x3d3514fa	0.044209458
145	0xbe472dcc	-0.19451064
146	0xbe557ca8	-0.20848334
147	0xbe731d98	-0.23741758
148	0xbcfaca14	-0.030613936
149	0xbdab1bb8	-0.08354896
150	0x3ec9ddc7	0.39427015
151	0xbd5c2280	-0.05374384
152	0x3daea7ae	0.08528076
153	0x3a327a03	0.00068083423
154	0x3baeb616	0.005331765
155	0xbda87bcf	-0.082267396
156	0xbd995870	-0.07487571
157	0x3e6ebce1	0.23314239
158	0x3dc76026	0.09735136
159	0x3b5a8b1c	0.0033347076
160	0xbcc908d9	-0.024540352
161	0x3e109d75	0.14122565
162	0xbe276642	-0.16347602
163	0x3dd0dea6	0.10198717
164	0x3df5193e	0.11967705
165	0xbe621edb	-0.22082083
166	0x3c8e4c04	0.017370231
167	0x3db54804	0.088516265
168	0x3d3ab13e	0.045579188
169	0x3d4c8a71	0.049936716
170	0x3e5cc478	0.21559322
171	0x3e913b4f	0.2836556
172	0xbd7bdb97	-0.061488714
173	0xbc0ce155	-0.008598645
174	0x3d75ec71	0.06003994
175	0x3e4fb2b3	0.20283012
176	0xbc6940d9	-0.014236652
177	0x3df76588	0.120799124
178	0xbdb78ec1	-0.08962775
179	0x3e00c74d	0.12576027
180	0xbc968801	-0.018375399
181	0xbbae2be0	-0.005315289
182	0xbe8c5830	-0.27411032
183	0x3d926359	0.07147855
184	0x3e8ec384	0.27883542
185	0xbd32ed22	-0.04368318
186	0xbe1106e1	-0.1416278
187	0xbdfb6b31	-0.122763045
188	0xbd6d671e	-0.05795967
189	0xbc89977e	-0.01679587
190	0xbd39bf35	-0.045348365
191	0x3d99aa9a	0.07503243
192	0x3ce95b73	0.02848599
193	0xbc7f0443	-0.015564981
194	0xbd84b00c	-0.06478891
195	0xbe7f1c4c	-0.24913138
196	0x3de2a672	0.11066903
197	0xbdbcbd2c	-0.09215769
198	0xbd34bdb3	-0.044126224
199	0x3ee3a6d1	0.44463208
200	0xbb7485eb	-0.0037311267
201	0x3c69d3a8	0.014271654
202	0x3e4a3f88	0.19750798
203	0xbe6de0a3	-0.23230223
204	0xbc08e800	-0.008356094
205	0xbd270ce3	-0.040783774
206	0xbe9e00ed	-0.3086008
207	0x3d9d967c	0.07694718
208	0x3dd7ef59	0.10543699
209	0xbee383f1	-0.444366
210	0x3ca8c5e6	0.020602178
211	0xbefd2ced	-0.49448338
212	0x3d6239a0	0.055230737
213	0xbd7d8a7a	-0.06189964
214	0x3b906a16	0.0044071777
215	0xbd5cfb65	-0.053950686
216	0xbcc997c6	-0.024608504
217	0xbb3f39c9	-0.002917873
218	0x3d81fac9	0.063466616
219	0xbefe5b33	-0.49678954
220	0x3d2bb49f	0.0419203
221	0xbc030cb5	-0.007998635
222	0x3d4c17fe	0.04982757
223	0x3de57b07	0.11205106
224	0xbde9b9ba	-0.11412378
225	0x3eac4988	0.3364985
226	0xbed7ef3b	-0.42174706
227	0x3d44e8b0	0.04807347
228	0x3e7cbffa	0.24682608
229	0xbea0f942	-0.3144017
230	0x3d92711f	0.071504824
231	0x3dd935a3	0.106059335
232	0xbd6defb7	-0.058089938
233	0xbc64f3d4	-0.013974149
234	0x3e9eab94	0.3099028
235	0x3e1e8db4	0.15483743
236	0xbd86f0ca	-0.065888956
237	0x3c2d9063	0.0105935065
238	0x3dd7bca2	0.10534026
239	0xbbcf6cd6	-0.006330113
240	0x3dd8b746	0.10581832
241	0x3d58c2ff	0.052920338
242	0xbd37855c	-0.044804916
243	0x3d27c1ef	0.040956434
244	0xbc2b2371	-0.010445462
245	0x3da6eec4	0.0815101
246	0xbe7b505e	-0.24542376
247	0x3e3a7a7c	0.18210787
248	0x3ebada11	0.36494496
249	0xbe6d31c8	-0.23163521
250	0x3da5c576	0.08094303
251	0xbf130268	-0.57425547
252	0x3d9bcc8b	0.07607373
253	0x3e21d9dc	0.15805763
254	0xbd60af7f	-0.054854866
255	0xbd2da305	-0.042391796

enc.fe.u1_FC3.bias f4 [64]
0	0xbcf22fa4	-0.029563732
1	0xbcc553dc	-0.024087839
2	0xbd14f683	-0.036367904
3	0x3b5d1953	0.0033737018
4	0x3ce32fc3	0.027732735
5	0xbccc26d6	-0.024920862
6	0xbd8f61b3	-0.070010565
7	0x3c849403	0.016183859
8	0x3d1993c8	0.03749445
9	0x3d16e064	0.03683509
10	0xbd5a8459	-0.053348873
11	0xbd6df57f	-0.05809545
12	0x3c9cb4a3	0.019129103
13	0x3d6348de	0.055489413
14	0xbce548e6	-0.027988862
15	0x3b108399	0.0022051095
16	0x3c415490	0.011799946
17	0xbd87c9c5	-0.06630281
18	0xbcb56fe3	-0.022148078
19	0x3d00a7bc	0.031409964
20	0x3d19d64b	0.03755788
21	0xbd71e35d	-0.05905472
22	0xbcbaa9b1	-0.022785993
23	0x3c09754a	0.00838978
24	0x3b2665a0	0.0025390163
25	0x3d181e17	0.03713807
26	0xbc9761a5	-0.018479178
27	0x3dbfb2b6	0.09360258
28	0x3b954b17	0.0045560705
29	0x3d3bda4f	0.045862492
30	0x3cc484f9	0.023989188
31	0x3da3c195	0.07995907
32	0xbcabf430	-0.020990461
33	0x3d58de37	0.052946296
34	0x3d4b49b4	0.049630836
35	0xbd0c9e50	-0.034330666
36	0x3c34d7da	0.011037791
37	0xbd1a77a1	-0.037711743
38	0xbce03e56	-0.027373474
39	0x3daec668	0.08533937
40	0xbd1eadd1	-0.038739983
41	0x3bef23e0	0.007297978
42	0xbc1d935c	-0.009617653
43	0xbc58a21b	-0.013222243
44	0x3d136b8c	0.035991237
45	0x3d5ba0b5	0.05362006
46	0x3c9a4d99	0.01883583
47	0xbbd632b4	-0.006536806
48	0x3cd9a229	0.026566582
49	0xbb9efb9b	-0.004851771
50	0x3c4dc27c	0.012558576
51	0xbcc39acb	-0.023877522
52	0xbcd2d5e1	-0.025736751
53	0x3c0ffade	0.008787839
54	0xbd7d6f5a	-0.06187377
55	0x3c35528b	0.011067043
56	0xbcd64ef9	-0.026160704
57	0xbd073e72	-0.033018537
58	0x3cf8391c	0.03030067
59	0x3abcd661	0.0014407152
60	0x3c76dc58	0.0150671825
61	0x3b6aea3e	0.0035845186
62	0xbc7b6223	-0.015343222
63	0x3c86cb68	0.016454414

enc.fe.u1_FC4.weight f4 [32, 128]
0	0xbe251830	-0.16122508
1	0xbe25d33f	-0.16193865
2	0x3d1af316	0.03782948
3	0x3e1fd3c2	0.15608123
4	0xbdb4e36a	-0.08832438
5	0x3e17a795	0.14810021
6	0xbd07686e	-0.033058576
7	0xbb6bfd9d	-0.003600932
8	0x3e1f10fc	0.15533823
9	0x3e91359b	0.2836121
10	0xbde650fd	-0.11245916
11	0x3e231fa4	0.15930039
12	0x3e7fada4	0.24968582
13	0x3e82b65f	0.25529763
14	0xbe81115c	-0.25208557
15	0x3de95c75	0.11394588
16	0xbdc020ed	-0.0938128
17	0xbe781af4	-0.24229032
18	0xbe597bb7	-0.212386
19	0x3d62a79b	0.055335622
20	0xbce9ae4a	-0.02852549
21	0xbecd66d3	-0.4011751
22	0xbcdbfa79	-0.026852833
23	0xbe2649d9	-0.16239108
24	0x3c6976ad	0.014249486
25	0x3e2e66a3	0.1703134
26	0x3df9736e	0.121802196
27	0x3e3f1e9f	0.18664025
28	0x3ca374de	0.019953188
29	0xbd079d0b	-0.033108752
30	0x3c9ddfc4	0.019271739
31	0x3e38b241	0.18036748
32	0xbde5bb0e	-0.112173185
33	0x3e626ff2	0.22113016
34	0xbe60f739	-0.21969308
35	0xbb0e74e2	-0.0021737148
36	0x3e232f25	0.15935953
37	0xbe1c7da2	-0.152823
38	0xbd9a154b	-0.075235926
39	0x3e270169	0.16309132
40	0x3d0234a2	0.031788476
41	0xbd0e9459	-0.034809444
42	0x3e11da29	0.14243378
43	0xbdce4689	-0.10072047
44	0xbe249f7d	-0.16076465
45	0x3de0953d	0.10965965
46	0x3e505483	0.20344739
47	0xbd373705	-0.044730205
48	0x3d04cd41	0.032422308
49	0xbd80cdcf	-0.06289255
50	0xbd03a484	-0.032139316
51	0xbe96ccf5	-0.29453245
52	0x3e35a022	0.17736867
53	0xbe4850d8	-0.1956209
54	0xbd7694ac	-0.06020038
55	0xbdb6686e	-0.08906637
56	0xbdbd4f12	-0.09243597
57	0x3d845594	0.06461635
58	0x3e19fb26	0.15037212
59	0xbe0ad9eb	-0.13559692
60	0x3d44abc1	0.04801536
61	0xbe0eaf28	-0.13934004
62	0x3e5bd0e9	0.21466412
63	0xbbb3754b	-0.005476629
64	0x3dae2515	0.085031666
65	0x3d80f529	0.062967606
66	0x3d725b0a	0.059168853
67	0xbcce1c1f	-0.025159894
68	0xbdd23d40	-0.10265589
69	0xbc30c0a7	-0.010788119
70	0xbd521a95	-0.05129488
71	0xbd5fa90f	-0.054604586
72	0xbd1c0fb1	-0.038100902
73	0x3dcbb684	0.099469215
74	0x3d41a50a	0.047276534
75	0xbc233758	-0.009961925
76	0x3ca05a5d	0.019574339
77	0x3e66e578	0.22548473
78	0xbd2b3e21	-0.041807298
79	0x3bb8c586	0.005638781
80	0x3d88ba87	0.06676202
81	0x3b987e49	0.0046537262
82	0xbd1adf00	-0.037810326
83	0xbc9311c5	-0.01795281
84	0x3d805abf	0.062673084
85	0x3d5d8c18	0.054088682
86	0x3c2c8257	0.010529122
87	0xbc9ab284	-0.018883951
88	0x3e08902f	0.13336252
89	0x3da8b6e6	0.0823801
90	0xbd6f9de0	-0.05850017
91	0xbd9e2a42	-0.07722904
92	0x3d6b640b	0.057468455
93	0x3d796fa0	0.06089747
94	0xbd07c8db	-0.033150535
95	0x3d35a267	0.044344332
96	0xbe08961f	-0.13338517
97	0x3cd3b043	0.025840884
98	0x3de2c398	0.11072463
99	0x3d3b542d	0.045734573
100	0x3df75ea7	0.120786004
101	0x3d06a936	0.032876216
102	0xbc7d697c	-0.015467044
103	0x3c4e02c5	0.0125739025
104	0xbe060081	-0.1308613
105	0xbe123ccb	-0.14281003
106	0xbd438c06	-0.04774096
107	0xbe1e1c81	-0.15440561
108	0x3d17395c	0.036919937
109	0x3d1d4eea	0.038405336
110	0x3b869038	0.0041065477
111	0xbded1c12	-0.115776196
112	0xbc207df2	-0.009795653
113	0xbaed2b52	-0.0018094575
114	0x3d1b4f15	0.037917215
115	0x3d42eeff	0.047591206
116	0x3c2d94a8	0.010594524
117	0xbd28ecc3	-0.04124142
118	0xbcb65bfe	-0.022260662
119	0x3d3a0d6f	0.045422968
120	0x3ac2c761	0.0014860445
121	0x3ceeff2d	0.029174412
122	0x3d8b909f	0.06814694
123	0x3cd964a2	0.026537243
124	0x3d1d6487	0.03842595
125	0x3e09e27b	0.13465302
126	0xbd937853	-0.072006844
127	0xbbf0bff9	-0.0073471037
128	0xbd8af17a	-0.06784339
129	0x3cf615e2	0.030039731
130	0xbc27fd8f	-0.010253324
131	0x3d66ddcd	0.05636387
132	0x3e02b755	0.12765248
133	0xbdecd3af	-0.11563813
134	0xbd94837f	-0.072516434
135	0xbe491ad1	-0.19639136
136	0xbe901a24	-0.28144944
137	0xbd7c1a77	-0.061548676
138	0x3e018f9a	0.12652436
139	0x3cce7763	0.025203412
140	0xbd924132	-0.07141341
141	0xbd1890aa	-0.037247337
142	0x3dc1e6c2	0.09467842
143	0x3d333a43	0.043756735
144	0x3d6bec28	0.057598263
145	0x3e04fe62	0.12987664
146	0x3eb9e883	0.36310205
147	0x3c799c21	0.015234978
148	0xbde7186f	-0.11283957
149	0x3e1e13d9	0.15437259
150	0x3b845c6f	0.0040393393
151	0x3d597bbb	0.053096514
152	0x3e10fe42	0.14159492
153	0x3dc943ce	0.09827386
154	0x3d75debd	0.060026873
155	0x3c681908	0.014166124
156	0x3dd01349	0.10159928
157	0xbdfe8b42	-0.12428905
158	0xbcad42bd	-0.021149987
159	0xbe188ec5	-0.14898212
160	0x3e206955	0.15665181
161	0xbd047bc5	-0.0323446
162	0x3dd21488	0.10257822
163	0xbd6b9559	-0.057515476
164	0xbd681277	-0.056658234
165	0x3dc92d5b	0.09823104
166	0xbdba52ba	-0.0909781
167	0xbe50d62a	-0.20394197
168	0x3d24dc12	0.040248938
169	0x3b210d5a	0.0024574609
170	0xbbafbc92	-0.0053630555
171	0x3e51e3c2	0.20497039
172	0x3b81d07c	0.003961621
173	0xbe83b853	-0.25726566
174	0xbda4e9af	-0.08052384
175	0xbdad208e	-0.08453475
176	0xbca7b514	-0.020472087
177	0xbd1fc291	-0.039003912
178	0x3dc0e23f	0.09418153
179	0x3da07bc3	0.07836106
180	0xbd82fadd	-0.063955046
181	0x3deb8d9a	0.11501618
182	0x3d752a81	0.059854988
183	0xbc42d250	-0.011890963
184	0x3d47763b	0.048696738
185	0x3da766a0	0.08173871
186	0xbc15e34d	-0.009148431
187	0x3d78ecc5	0.060772676
188	0xbe906203	-0.28199777
189	0x3d563ca3	0.05230392
190	0xbe3bffc7	-0.1835929
191	0x3e61c880	0.22049141
192	0x3d4c8d9e	0.049939744
193	0xbbc96618	-0.0061462037
194	0x3e1a0fa9	0.15045036
195	0xbd97a5f2	-0.074046984
196	0xbd8b08a3	-0.06788757
197	0x3dc90ee3	0.098172925
198	0x3d407c08	0.046993285
199	0xba6a4721	-0.00089369906
200	0xbb053402	-0.0020325189
201	0x3d057b4e	0.032588296
202	0x3e2d811e	0.16943786
203	0x3d014b27	0.03156581
204	0x3d797f28	0.06091228
205	0xbbaab919	-0.0052100536
206	0xbd3589e9	-0.044320974
207	0x3d5fd1c5	0.05464341
208	0xbca064d9	-0.019579338
209	0xbcc02e16	-0.023459475
210	0xbdae2305	-0.08502773
211	0xbc81c200	-0.015839577
212	0x3d8929de	0.06697439
213	0x3d183190	0.03715664
214	0x3dfff0e5	0.12497119
215	0xb981f247	-0.00024785308
216	0x3bfa819c	0.007644845
217	0x3b2c0d81	0.0026253166
218	0xbdcabafa	-0.09898944
219	0xbe352561	-0.1769004
220	0x3e5b19b9	0.21396531
221	0x3cfcd103	0.030861383
222	0xbccbca90	-0.024876863
223	0xbd759fca	-0.05996684
224	0xbd1fa698	-0.038977236
225	0x3c3271b8	0.0108913705
226	0xbcd6539c	-0.026162915
227	0xbe2a9348	-0.16657746
228	0xbd382194	-0.044953898
229	0xbd026c57	-0.031841602
230	0x3db516a4	0.08842209
231	0xbb2e5f02	-0.0026606922
232	0xbdf5a3e1	-0.11994148
233	0xbdda41cd	-0.10657082
234	0x3e5e3313	0.21699171
235	0xbdd7a7a4	-0.10530022
236	0x3df41e0d	0.11919794
237	0x3d653c6e	0.055965833
238	0x3b3b3957	0.0028568113
239	0xbd731706	-0.05934813
240	0xbd51730c	-0.051135108
241	0x3e0109be	0.12601373
242	0xbdc044df	-0.09388136
243	0x3df4274c	0.11921558
244	0x3da9fe18	0.08300418
245	0xbaae33df	-0.0013290605
246	0x3dfc9629	0.12333328
247	0x3d179bed	0.037013937
248	0x3d4e7080	0.050400257
249	0x3caa7e2a	0.020812113
250	0xbdb4cafd	-0.088277794
251	0x3d48b367	0.048999216
252	0x3c5e7323	0.013577255
253	0x3deba257	0.11505573
254	0xbe0c69bd	-0.13712211
255	0x3db70e39	0.0893826

enc.fe.u1_FC4.bias f4 [32]
0	0x3d7c6a55	0.061624844
1	0x3d8670b5	0.06564466
2	0xbc022dc4	-0.007945482
3	0xbc760028	-0.015014686
4	0xbd39abde	-0.04532992
5	0xbb0b290b	-0.002123418
6	0x3cb487e3	0.022037452
7	0xbd7958ce	-0.060875706
8	0x3c946dbc	0.018118732
9	0xbb923bc9	-0.0044626934
10	0xbc95428e	-0.018220212
11	0xbcf65f98	-0.03007488
12	0x3d663735	0.056204993
13	0x3d90b10f	0.07065021
14	0xbd14f5e9	-0.03636733
15	0xbd8c807e	-0.068604454
16	0x3d3c20ac	0.045929596
17	0xbd06df2c	-0.032927677
18	0xbcbcc80f	-0.023044614
19	0x3c151f9d	0.0091017755
20	0x3d923a48	0.071400225
21	0xbd25bad5	-0.04046138
22	0xbd622238	-0.055208415
23	0x3d166f5b	0.03672729
24	0xbd724156	-0.05914434
25	0x3cda5454	0.026651539
26	0xbce7bb4b	-0.02828755
27	0x3cbbde12	0.02293304
28	0x3d0ee2ff	0.03488445
29	0x3c312cba	0.010813886
30	0xbd3853d9	-0.04500184
31	0xbd437dce	-0.0477274

enc.norm.weight f4 [32]
0	0x3f2763cf	0.6538667
1	0x3f1059e2	0.5638715
2	0x3f279e6d	0.65476114
3	0x3f44b85e	0.7684382
4	0x3f38f561	0.7224942
5	0x3f29ad45	0.66280013
6	0x3f9d2c86	1.2279212
7	0xb7c95603	-2.400112e-05
8	0x3dff32e2	0.12460877
9	0x3f35d020	0.710207
10	0x3f3e6ceb	0.74384946
11	0x3f57fe6b	0.84372586
12	0x3ee6f630	0.451097
13	0x3f2fb974	0.68642354
14	0x3f3246f4	0.69639516
15	0x3fa9206f	1.3213023
16	0xb8c3d2d2	-9.337593e-05
17	0x3f43fd23	0.7655813
18	0x3f303237	0.6882662
19	0x3f2eceab	0.682841
20	0x3f5ffe4a	0.8749739
21	0x3f522a4d	0.82095796
22	0x3f525a91	0.82169443
23	0x3f28d9eb	0.65957516
24	0x3f3b8d85	0.73262817
25	0x3f0be890	0.5465174
26	0x3eed308f	0.4632611
27	0xba165e74	-0.00057361205
28	0x3f0f6980	0.56020355
29	0x3f4e676d	0.80626565
30	0x3f18f847	0.5975384
31	0x3d918850	0.07106078

enc.norm.bias f4 [32]
0	0xbbbcf527	-0.005766529
1	0x3c37a9e8	0.011209942
2	0xbaaea443	-0.00133241
3	0x3d1642c3	0.036684763
4	0x3cc18d51	0.023626955
5	0xba10c789	-0.0005522897
6	0x3dbb5e3f	0.091488354
7	0x37a3525a	1.9469462e-05
8	0x3aea23a3	0.0017863404
9	0xbc676295	-0.014122625
10	0x3cc1da06	0.023663532
11	0xbcfdcdd4	-0.030981936
12	0xb988c51e	-0.00026086805
13	0x3bde1d75	0.006778414
14	0x3c3c651a	0.011498714
15	0xbd4e7c9a	-0.050411798
16	0x3ab1655b	0.0013534235
17	0xbd0e9eeb	-0.034819525
18	0x3cad4228	0.02114971
19	0xbb908390	-0.0044102147
20	0x3d522370	0.051303327
21	0xbc709851	-0.014684753
22	0xbc4860bf	-0.012230097
23	0xbc2698c5	-0.010168259
24	0x3b716e22	0.0036839326
25	0x3af0fd50	0.001838604
26	0xbbb1ec20	-0.0054297596
27	0x3b1aea8e	0.002363834
28	0x3bdd624e	0.0067561036
29	0xbd09e278	-0.033663243
30	0x3acbce8c	0.0015549227
31	0x3a04dd23	0.00050683523

enc.enc_out1.weight f4 [8, 32]
0	0x3dafc454	0.085823685
1	0xbd17073d	-0.036872137
2	0x3d284b42	0.041087396
3	0xbca0c8c3	-0.01962698
4	0xbd2bd075	-0.041946847
5	0xbdc90545	-0.09815458
6	0xbefd70d0	-0.49500132
7	0x3c10bc74	0.008833993
8	0xbdafe23f	-0.08588075
9	0x3de71248	0.11282784
10	0x3d1f88dd	0.038948882
11	0x3dabf530	0.08396375
12	0x3ddf4ce4	0.109033376
13	0x3dc5fef1	0.09667767
14	0xbdcd8e39	-0.100368924
15	0x3ee462b4	0.44606555
16	0xbd2544e4	-0.040348902
17	0x3dc4e11f	0.09613251
18	0xbcec535c	-0.028848343
19	0xbc2fbb22	-0.010725768
20	0xbe4c8b11	-0.19974925
21	0x3d9a34d2	0.07529606
22	0x3e176b0c	0.14786929
23	0xbd8b194e	-0.06791936
24	0xbd20973c	-0.03920673
25	0xbd33d565	-0.04390468
26	0xbca42439	-0.020036804
27	0x3d25af37	0.0404503
28	0x3cbe5950	0.023235947
29	0x3e03ddab	0.12877528
30	0xbd4ca38a	-0.04996065
31	0xbd99760a	-0.07493217
32	0x3d5e50d2	0.054276295
33	0xbde75dad	-0.11297164
34	0xbd79266f	-0.06082767
35	0xbe074a7e	-0.1321201
36	0x3c909ecf	0.01765385
37	0xbe136417	-0.1439365
38	0xbf0a5045	-0.5402873
39	0x3d7b6acb	0.061381143
40	0x3d15dd9e	0.036588304
41	0xbcbc0255	-0.02295033
42	0xbe2c98e2	-0.16855195
43	0x3e03703f	0.12835787
44	0x3d8f0664	0.06983641
45	0xbe1dfa35	-0.15427478
46	0x3d217041	0.039413694
47	0x3f099463	0.53742045
48	0x3bd1c853	0.0064020543
49	0xbcf15487	-0.029459251
50	0x3b2b07c4	0.0026097158
51	0x3c91e82f	0.01781091
52	0xbe5a4851	-0.21316649
53	0x3e01e86d	0.1268632
54	0xbb919422	-0.0044427076
55	0x3c4d3710	0.012525335
56	0xbc8fa884	-0.01753641
57	0x3cfad4ac	0.030618988
58	0x3dd70b79	0.10500235
59	0xbddc0b0e	-0.10744296
60	0xbddd82ec	-0.10815987
61	0xbc7fd68a	-0.015615115
62	0x3d3432bb	0.043993693
63	0xbd924fa8	-0.071440995
64	0x3d61ff22	0.055174954
65	0xbd38f405	-0.04515459
66	0x3b9f8962	0.004868672
67	0x3d3bf533	0.045888137
68	0xbd07f1ab	-0.033189457
69	0xbd8a618a	-0.06756885
70	0x3e8821b4	0.26588213
71	0xbc7a01d3	-0.015259224
72	0xbdb3749f	-0.08762478
73	0x3cca1841	0.024669768
74	0xbccdddc3	-0.025130158
75	0xbdb5f262	-0.088841215
76	0xbc548275	-0.0129705565
77	0x3da9d228	0.08292037
78	0x3dcdd561	0.100504644
79	0xbec43c35	-0.38327184
80	0x3e0f3910	0.13986611
81	0xbe1a3b52	-0.15061691
82	0x3dd3189d	0.10307429
83	0xbe3869de	-0.18009135
84	0x3d67fc08	0.05663684
85	0xbdb34cc3	-0.087548755
86	0xbcbb94bb	-0.022898069
87	0x3d9b3433	0.075783156
88	0x3d643c72	0.055721708
89	0x3dddf4ef	0.10837733
90	0x3900705a	0.00012248885
91	0x3dde5c22	0.10857417
92	0xbc6bc982	-0.014391305
93	0xbdc63b20	-0.09679246
94	0x3ca58c52	0.020208512
95	0xbd9fd5ca	-0.07804449
96	0xbd9d4adb	-0.07680293
97	0xbe022030	-0.12707591
98	0x3da82de1	0.08211876
99	0x3ce6356c	0.028101645
100	0xbe07be7b	-0.13256256
101	0xbd00e356	-0.031466804
102	0xbeb4c536	-0.3530671
103	0xbdfad9e5	-0.12248591
104	0x3d9d282c	0.07673678
105	0x3d9e2f62	0.07723881
106	0xbd1cc218	-0.03827104
107	0x3e32e2ef	0.17469381
108	0xbd20bc0d	-0.03924184
109	0xbdcad0b5	-0.09903089
110	0xbe31c782	-0.17361262
111	0x3f0d6f09	0.5524755
112	0x3d0e9a55	0.03481515
113	0x3e2577bb	0.16158955
114	0xbd8a6dc4	-0.067592174
115	0x3d8a08b4	0.06739941
116	0xbe3c628e	-0.1839697
117	0x3d978fd0	0.07400477
118	0x3e1c31d1	0.15253378
119	0x3cdec76d	0.027194703
120	0xbdc46c01	-0.095909126
121	0x3c43ea18	0.011957668
122	0xbd8460d0	-0.06463778
123	0x3e0e22d0	0.13880467
124	0x3d50687f	0.050880905
125	0x3df4c5b5	0.11951772
126	0x3be11977	0.0068694907
127	0xbc291510	-0.010319963
128	0xbc85667c	-0.01628422
129	0x3d3d1de5	0.046171088
130	0xbcf3e791	-0.029773505
131	0xbdaed61c	-0.08536932
132	0xbcb7727e	-0.022393461
133	0x3d5c4813	0.053779673
134	0xbe566355	-0.2093633
135	0x3dcedc98	0.10100669
136	0x3d7aadf1	0.06120104
137	0xbdab0858	-0.08351201
138	0xbe0707cc	-0.13186568
139	0x3bbf5a33	0.00583961
140	0xbc61b4a2	-0.013775976
141	0xbde69edf	-0.11260771
142	0x3c1f0006	0.009704595
143	0x3dd262a7	0.10272723
144	0xbe16933b	-0.14704601
145	0x3bfd52ac	0.0077308025
146	0xbd619654	-0.055075005
147	0xbd04b395	-0.032397825
148	0x3c03ff5f	0.008056491
149	0x3e04a778	0.1295451
150	0xbdab91e1	-0.083774336
151	0x3da45bf5	0.08025352
152	0xbdcccb15	-0.09999672
153	0xbd89ffe7	-0.067382626
154	0x3da946d7	0.08265465
155	0x3e07c83d	0.13259979
156	0xbda1007b	-0.0786142
157	0xbd748521	-0.059697274
158	0xbc9ddf91	-0.019271644
159	0x3d7c6602	0.06162072
160	0x3cd27e8d	0.02569511
161	0x3da74274	0.08166972
162	0x3e28bd6c	0.16478509
163	0xbe28ac20	-0.1647191
164	0x3d5b7f6d	0.05358832
165	0xbd719b58	-0.058986038
166	0xbf0909ea	-0.5353075
167	0x3d291bd6	0.041286312
168	0xbd819469	-0.06327135
169	0x3d9ba201	0.07599259
170	0xbd8d5002	-0.06900026
171	0x3e0b8378	0.1362437
172	0xbd4fa11b	-0.05069075
173	0xbd873a59	-0.06602926
174	0x3d1ab860	0.03777349
175	0x3f15ffb8	0.5859332
176	0xbe0a805e	-0.1352553
177	0x3c9484ff	0.018129824
178	0xbdfaa74b	-0.1223894
179	0x3e0a10c1	0.13482954
180	0xbe566fcc	-0.20941085
181	0x3e211668	0.15731204
182	0x3e0ead07	0.13933192
183	0x3e11ae65	0.14226682
184	0xbde45781	-0.111495025
185	0x3da43087	0.08017068
186	0x390be1ad	0.00013340144
187	0x3d7961ca	0.060884275
188	0xbc21e31b	-0.009880806
189	0x3e1ffe21	0.15624286
190	0x3e1f7c01	0.15574647
191	0x3cefea82	0.029286627
192	0xbdeb38ea	-0.11485465
193	0xbcf545cc	-0.029940508
194	0x3c9412f7	0.01807545
195	0x3e20b4f4	0.15694028
196	0x3e0519d8	0.1299814
197	0xbd370aa3	-0.04468788
198	0x3f1093f3	0.5647575
199	0x3db3a9b9	0.087726064
200	0xbe086806	-0.13320932
201	0xbe0279c5	-0.12741764
202	0x3d5d1f1a	0.05398474
203	0xbe45a588	-0.19301426
204	0x3dd7c274	0.10535136
205	0x3dce5662	0.1007507
206	0x3deff833	0.11717262
207	0xbf17dfaa	-0.5932566
208	0xbdfa30bf	-0.12216329
209	0xbda2c16e	-0.0794705
210	0x3cfb2a8c	0.030659936
211	0x3d9274e1	0.07151199
212	0xbab5fed6	-0.0013885151
213	0xbd04a11f	-0.03238022
214	0xbcd7e87e	-0.026355978
215	0x3dd04fd6	0.101714775
216	0x3e050cc1	0.12993146
217	0x3e23f1d6	0.16010222
218	0xbdd28ffc	-0.10281369
219	0x3df14438	0.1178059
220	0xbc198366	-0.009369707
221	0xbde34d60	-0.110987425
222	0xbd8040b7	-0.062623434
223	0xbe02ee92	-0.1278632
224	0xbb58955a	-0.0033048005
225	0x3d810983	0.06300642
226	0xbad6dd0b	-0.001639278
227	0x3cd48fa1	0.025947394
228	0x3e32d99d	0.17465825
229	0xbd2e9bc6	-0.042629026
230	0x3efc7f35	0.493158
231	0xbdbc61cd	-0.091983415
232	0x3d92197f	0.07133769
233	0x3dcd5838	0.10026592
234	0x3dd4668b	0.10371121
235	0xbd61c52b	-0.055119675
236	0x3d35c927	0.044381287
237	0x3d1090f9	0.035294507
238	0xbcb3b742	-0.02193797
239	0xbec9251a	-0.3928612
240	0xbdde4a74	-0.108540446
241	0xbd224b11	-0.03962237
242	0x3df2a7dc	0.11848423
243	0xbc43e281	-0.011955858
244	0x3d9f04ec	0.07764611
245	0xbdf22d4f	-0.11825048
246	0xbe3dfdaa	-0.18553796
247	0xbdc5ce53	-0.09658494
248	0x3e02461f	0.12722062
249	0xbc113239	-0.008862072
250	0x3cc78427	0.024355007
251	0x3b913bc8	0.0044321753
252	0x3df31389	0.118689604
253	0x3c1004d0	0.00879021
254	0x3d5d3766	0.05400791
255	0x3d5ea54e	0.054356866

enc.enc_out1.bias f4 [8]
0	0xbe0002c6	-0.12501058
1	0xbdba8a88	-0.09108454
2	0x3d7809c5	0.060556192
3	0xbc3fd1fb	-0.011707778
4	0xbdb3d1a9	-0.08780224
5	0xbe09935e	-0.13435122
6	0x3e26174e	0.16219828
7	0x3d9ab15d	0.075533606

enc.enc_out2.weight f4 [1, 8]
0	0xbe4e2b07	-0.20133601
1	0xbe874c06	-0.2642519
2	0x3b846843	0.0040407493
3	0xbe5f86d4	-0.21828777
4	0xba291078	-0.00064492924
5	0xbed44335	-0.41457525
6	0x3e9498f5	0.29022947
7	0x3e3d0814	0.18460113

dec1.fe.FC1.weight f4 [64, 2]
0	0xbd7083fd	-0.058719624
1	0x3d1eaf2e	0.038741283
2	0xbf29428c	-0.6611717
3	0x3d7c81fd	0.061647404
4	0xbf1c80c9	-0.6113401
5	0x3f063fe9	0.5244127
6	0x3f2f2126	0.68409956
7	0xbea0c850	-0.31402826
8	0xbf17cd6b	-0.5929782
9	0x3e5325c7	0.2061988
10	0x3f00efd7	0.50365967
11	0x3e1b756f	0.15181516
12	0xbea11280	-0.31459427
13	0xbe262bc1	-0.16227628
14	0x3e8bc3b5	0.2729775
15	0xbee067bc	-0.43829143
16	0x3f33b242	0.70193875
17	0x3d80ed3a	0.062952474
18	0xbf2df87b	-0.67957276
19	0xbe190d1f	-0.14946412
20	0x3edbeeef	0.4295573
21	0x3d841261	0.06448818
22	0x3f1dc987	0.6163563
23	0xbcfb9e61	-0.03071517
24	0xbebc9fad	-0.36840573
25	0xbe65fb51	-0.22459151
26	0x3eec17ba	0.46111852
27	0x3e196cb3	0.14982872
28	0xbead5051	-0.3385034
29	0x3e9cf59f	0.30656144
30	0xbccd8993	-0.025090015
31	0x3e43a33c	0.19105238
32	0xbeafbd79	-0.34324244
33	0x3ebebe64	0.37254632
34	0x3e9c1c22	0.30490214
35	0xbe4cd011	-0.20001246
36	0xbeb90631	-0.36137536
37	0xbe52dfd6	-0.20593199
38	0xbf165c69	-0.58734757
39	0xbe98be11	-0.2983251
40	0xbee2696a	-0.4422105
41	0xbe6381d5	-0.22217496
42	0xbf06d414	-0.52667356
43	0x3ea1a126	0.3156826
44	0xbf1ca622	-0.61191
45	0x3eda7afe	0.4267196
46	0x3e2099b3	0.15683632
47	0xbeec3d90	-0.46140718
48	0x3f0c54be	0.54816806
49	0xbe949c63	-0.29025564
50	0x3e7c3c27	0.24632321
51	0x3e4e6423	0.20155387
52	0xbf266d14	-0.6501019
53	0x3e11597b	0.1419429
54	0x3e253cdc	0.16136497
55	0xbdd1355d	-0.10215256
56	0xbce5bc38	-0.028043851
57	0xbda123c7	-0.07868152
58	0x3a9e7b60	0.0012091212
59	0xb9e2105c	-0.00043118268
60	0x3ecda91d	0.40168086
61	0x3e1e8f38	0.15484321
62	0x3e9f5643	0.311205
63	0x3ec4f6c7	0.38469526
64	0x3e9bd213	0.3043371
65	0xbe5db7e1	-0.21652175
66	0xbeaf273d	-0.34209624
67	0x3e8a9dd7	0.27073547
68	0x3ec4f30d	0.38466683
69	0xbec22fa0	-0.3792696
70	0x3e642a41	0.22281744
71	0xbeda5d56	-0.42649335
72	0xbf186201	-0.5952454
73	0x3e0d4d51	0.13799025
74	0xbf14be29	-0.5810266
75	0x3daca874	0.084305674
76	0x3eaf796f	0.34272334
77	0x3d91ba30	0.071155906
78	0x3f1f4091	0.62207896
79	0xbd991d75	-0.074763216
80	0x3ed36923	0.4129115
81	0x3e3f0ea1	0.18657924
82	0xbe7a906f	-0.2446916
83	0x3ed4925a	0.41517907
84	0x3ed1c233	0.40968475
85	0xbea927bd	-0.3303813
86	0x3f0b511c	0.5442064
87	0xbc38c1ef	-0.011276706
88	0x3e8bd335	0.27309576
89	0xbe0cb8f6	-0.13742432
90	0x3e6b4dc9	0.22978891
91	0xbe33c07c	-0.17553896
92	0x3f0876f7	0.53306526
93	0xbefed41d	-0.49771205
94	0x3e47b1a5	0.1950136
95	0xbeb5d7b4	-0.3551613
96	0xbf044168	-0.516623
97	0x3eb77dbb	0.35838112
98	0xbeed5aba	-0.4635828
99	0x3e54872f	0.20754693
100	0xbd4c1cb8	-0.049832076
101	0xbeb328fb	-0.34992203
102	0xbf383549	-0.71956307
103	0x3cfb14d2	0.030649576
104	0xbe966d4f	-0.2938027
105	0x3ed92562	0.42411333
106	0x3f0cc289	0.5498434
107	0xbebb2236	-0.36549538
108	0xbf159a16	-0.5843824
109	0x3df435ec	0.11924347
110	0xbf1be6c7	-0.60899013
111	0x3f09c680	0.5381851
112	0x3f30bd20	0.6903858
113	0xbec35867	-0.38153383
114	0xbf0ba55c	-0.54549193
115	0xbe626ff8	-0.22113025
116	0xba9fb821	-0.0012185612
117	0x3911fb00	0.00013921782
118	0xbe5f3b3a	-0.21799937
119	0xbe8427a0	-0.2581148
120	0xbf0151f6	-0.5051569
121	0x3e06102d	0.13092108
122	0x3d2e71f2	0.042589135
123	0xbcb560fc	-0.022140972
124	0xbf2394f5	-0.63899165
125	0x3d462904	0.04837896
126	0x3f1c6615	0.61093265
127	0xbe32cd4c	-0.17461127

dec1.fe.FC1.bias f4 [64]
0	0xbc25a066	-0.010109043
1	0xbe0649c0	-0.13114071
2	0x3cfdabf6	0.030965786
3	0x3e91c0a1	0.28467277
4	0xbd9553eb	-0.07291397
5	0x3e5c9f19	0.21545066
6	0xbec4c435	-0.38430944
7	0xbd9dad0e	-0.07699023
8	0xbec8f804	-0.3925172
9	0xbe05eb14	-0.13077956
10	0x3dccaefc	0.09994313
11	0x3d99aac2	0.075032726
12	0xbe3bdbbe	-0.18345544
13	0x3e987a37	0.29780743
14	0x3e939ba8	0.28829694
15	0x3e1969d7	0.14981781
16	0xbe4159ef	-0.18881963
17	0xbebd9cdf	-0.37033746
18	0x3e91674f	0.2839913
19	0x3de6e800	0.11274719
20	0x3e48fe4f	0.19628261
21	0x3e4c7535	0.19966586
22	0x3e9d71e3	0.3075095
23	0xbed673e1	-0.41885284
24	0x3de04d43	0.109522365
25	0x3e990cb9	0.2989252
26	0x3f0e2fc8	0.5554166
27	0xbdaad97f	-0.08342265
28	0xbedf99f5	-0.43672147
29	0xbb07a0f0	-0.0020695291
30	0xbea5c645	-0.3237783
31	0xbf0e7a7b	-0.5565564
32	0xbde0715b	-0.10959121
33	0xbeb2e081	-0.34936908
34	0xbe461904	-0.1934548
35	0x3cca25f2	0.024676297
36	0x3e858ee7	0.26085588
37	0x3db3e368	0.08783609
38	0xbf2a49d9	-0.6651893
39	0x3d842331	0.06452025
40	0xbf0452c7	-0.5168881
41	0x3d3d7baf	0.046260532
42	0xbd628e35	-0.0553114
43	0xbea4ea08	-0.32209802
44	0x3daa89f3	0.08327093
45	0x3d48ec25	0.04905333
46	0xbecc59f1	-0.3991237
47	0xbee12740	-0.43975258
48	0xbed7389d	-0.4203538
49	0x3e8df205	0.2772371
50	0x3eb364eb	0.35037932
51	0xbea196a1	-0.31560233
52	0x3ef216cc	0.47283018
53	0x3edaa982	0.4270745
54	0xbdaf13f3	-0.08548727
55	0xbec3e4e9	-0.38260582
56	0x3e1d9742	0.15389732
57	0xbf05b189	-0.5222402
58	0xbc105468	-0.0088091865
59	0xbf168a4c	-0.58804774
60	0xbe3594f3	-0.17732601
61	0xbc006bb6	-0.00783818
62	0xbef15bb5	-0.4714028
63	0x3ee50261	0.44728377
