Lightcode/bc/noisy/lightcode_bc_rate13_noisy_fb30.pt (torch, 166576 bytes, 38 tensors)

enc.fe.u1_FC1.weight f4 [64, 6]
-0.15425983 -0.46384346 0.1220233 -0.010978091 0.07030482 -0.3691855 0.31277576 -0.22151734
0.081522115 -0.027982917 0.0015354158 -0.56780833 0.32471764 -0.3716834 0.11086886 -0.04776593
0.030419067 -0.04725908 -0.36689466 0.30671445 -0.45302987 -0.0037976797 0.013690656 -1.1474756
-0.28046468 0.20442237 -0.019258754 -0.023845533 -0.090858705 -0.26016098 0.44688946 -0.20351994
-0.35674113 -0.017488591 0.0834946 0.18189225 0.027494939 -0.23035242 -0.22820497 0.02811805
0.07115899 -0.57395023 -0.32603383 -0.054387752 0.17303653 -0.081201404 0.04635319 0.122543916
-0.14630602 0.18999682 -0.38128477 0.005149549 0.03539948 -0.064532936 0.32043487 -0.31387183
0.036662694 -0.0375271 0.009116134 -0.64128417 0.41049328 -0.34792647 -0.1998297 0.045070797
0.12629408 -0.43439314 0.2431483 -0.30213422 -0.1904938 0.027117632 -0.015983885 -0.57716095
0.11597597 -0.12569448 0.47576863 0.006114679 -5.0351082e-05 1.1290331 0.06698213 -0.31534365
0.4336423 0.01026644 -0.0060558645 0.1735792 -0.12829104 0.029072905 -0.313114 0.12917338
-0.061753653 -0.3779069 0.3735763 -0.29352468 0.07312675 0.12437053 -0.08779945 0.10160793
0.32235003 0.41440868 0.059982203 0.0014847809 -0.031983163 -0.32664865 0.28190315 0.085363604
-0.27970514 0.01786458 0.06335808 -0.58316797 -0.10744987 0.32261533 0.29526728 0.01270289
0.06067081 0.86443865 -0.060570337 -0.22234806 0.031923134 0.042929552 0.169033 0.18516992
0.3113354 -0.37316793 0.09487763 -0.0039594974 -0.03869089 -0.72088456 -0.0578095 -0.36965996
0.044807862 -0.02389215 0.021344477 -0.287734 0.1897 0.0018567838 -0.39072812 -0.022844283
0.0012575075 -0.76461667 -0.064613804 -0.22455063 0.29826948 0.10540731 0.10872727 0.46145743
0.25311354 -0.25928926 0.36943236 -0.019293536 -0.010432481 0.4535099 -0.11299182 0.02734905
0.32804137 0.00022768871 0.00016814319 0.10199329 -0.39450693 0.13931273 0.11277974 -0.00042860242
-0.020978557 -0.05602255 -0.44233397 0.21552318 0.3613139 0.0072188815 -0.0005658669 -0.13175789
0.44547865 -0.16124445 -0.2644783 -0.034350533 0.063592434 -0.045495875 0.25386935 0.16085032
0.01836055 -0.13596912 0.06411232 -0.60552853 0.25522548 0.2907578 -0.026574694 0.063584425
0.034298673 0.4041885 -0.11462791 -0.24631646 0.24294949 0.054008964 0.079302646 -0.36110654
-0.39619857 0.3376525 0.17581366 0.046187554 -0.0058258157 0.69363284 -0.012414109 -0.007635081
0.4736782 0.006193995 -0.0063640475 1.1856866 0.16789828 -0.3248521 0.34824 -0.053696495
-0.089545324 0.16419217 -0.3923845 0.06669551 -0.18321794 0.0398301 0.15140124 -0.6246578
-0.21133925 -0.3447101 0.3451504 -0.036386024 -0.0042669163 -0.06587016 -0.0073703034 -0.03475181
0.038376257 0.03439808 -0.065808035 0.12393712 0.14522679 -0.13477157 0.35805845 -0.10920261
0.047305427 0.4587411 -0.07382053 0.41708475 0.1075287 0.106745 0.06881281 -0.28514853
-0.23763971 0.2758932 -0.100935474 0.016986756 -0.0042484137 -0.29916668 -0.21961501 0.42514682
-0.29680824 -0.011207716 0.012324434 0.39990205 0.35804483 -0.33884022 0.05940893 0.0059478725
00000000: 4af6 1dbe e47c edbe 5ae7 f93d 73dd 33bc
00000010: f9fb 8f3d e205 bdbe 2524 a03e 71d5 62be
00000020: 11f5 a63d 6e3c e5bc 0140 c93a e35b 11bf
00000030: 6441 a63e 494d bebe 360f e33d 35a6 43bd
00000040: 6831 f93c bd92 41bd 9ed9 bbbe ad09 9d3e
00000050: 88f3 e7be 7ee2 78bb c64e 603c 7be0 92bf
00000060: 1199 8fbe 1954 513e 89c4 9dbc b557 c3bc
00000070: 2114 babd d233 85be b2ce e43e 8867 50be
00000080: c6a6 b6be 3c44 8fbc 38ff aa3d f641 3a3e
00000090: 113d e13c 81e1 6bbe 90ae 69be d357 e63c
000000a0: cebb 913d 67ee 12bf e8ed a6be b1c5 5ebd
000000b0: 7d30 313e ec4c a6bd d8dc 3d3d 4ef8 fa3d
000000c0: 3fd1 15be 878e 423e c237 c3be 8cbd a83b
000000d0: 0cff 103d d829 84bd 0a10 a43e cfb3 a0be
000000e0: 9f2b 163d 04b6 19bd d65b 153c 332b 24bf
000000f0: 2d2c d23e 6b23 b2be 28a0 4cbe 289c 383d
00000100: 3c53 013e c768 debe defb 783e 56b1 9abe
00000110: cf10 43be cc25 de3c a3f0 82bc d2c0 13bf
00000120: cf84 ed3d 0eb6 00be f297 f33e a55d c83b
00000130: 1030 53b8 2884 903f ed2d 893d b974 a1be
00000140: 5d06 de3e 9234 283c 4670 c6bb bfbe 313e
00000150: ba5e 03be 4d2a ee3c 7a50 a0be 0746 043e
00000160: 66f1 7cbd 037d c1be 6545 bf3e de48 96be
00000170: 7ac3 953d fab5 fe3d 33d0 b3bd d217 d03d
00000180: 100b a53e 602d d43e e6af 753d fb9c c23a
00000190: c700 03bd 7e3e a7be 9c55 903e 1dd3 ae3d
000001a0: 8335 8fbe bd58 923c e2c1 813d 7f4a 15bf
000001b0: ad0e dcbd d62d a53e 462d 973e c81f 503c
000001c0: f581 783d da4b 5d3f 9a18 78bd 36af 63be
000001d0: d5c1 023d e6d6 2f3d fd16 2d3e 2f9d 3d3e
000001e0: 5b67 9f3e de0f bfbe 344f c23d acbe 81bb
000001f0: 577a 1ebd e48b 38bf a7c9 6cbd 1244 bdbe
00000200: 7388 373d 78b9 c3bc 9dda ae3c df51 93be
00000210: b840 423e 535f f33a 840d c8be ef23 bbbc
00000220: f3d2 a43a ebbd 43bf 3e54 84bd 9af0 65be
00000230: c7b6 983e cadf d73d 67ac de3d 2644 ec3e
00000240: 1998 813e 90c1 84be 3d26 bd3e 7a0d 9ebc
00000250: ffec 2abc 7332 e83e 4168 e7bd 1d0b e03c
00000260: 0af5 a73e b9bf 6e39 984f 3039 dce1 d03d
00000270: d0fc c9be ffa7 0e3e 10f9 e63d 0bb6 e0b9
00000280: 39db abbc e777 65bd 9979 e2be 1cb2 5c3e
00000290: 23fe b83e 5e8c ec3b af56 14ba 8aeb 06be
000002a0: c715 e43e 441d 25be b369 87be 25b3 0cbd
000002b0: c03c 823d e259 3abd 2afb 813e f2b5 243e
000002c0: dd68 963c 7d3b 0bbe 524d 833d eb03 1bbf
000002d0: eaac 823e 35de 943e 2cb3 d9bc 8d38 823d
000002e0: c47c 0c3d ccf1 ce3e 0ac2 eabd 623a 7cbe
000002f0: c0c7 783e 8138 5d3d 6d69 a23d f5e2 b8be
00000300: 8ada cabe cae0 ac3e 7f08 343e 292f 3d3d
00000310: 7ce6 bebb ec91 313f 8c64 4bbc b42f fabb
00000320: f385 f23e fff6 ca3b 8089 d0bb 94c4 973f
00000330: 87ed 2b3e 0453 a6be 834c b23e dbf0 5bbd
00000340: 8a63 b7bd fe21 283e 9fe6 c8be a897 883d
00000350: 7c9d 3bbe e324 233d ed08 1b3e 93e9 1fbf
00000360: 5169 58be d87d b0be 8eb7 b03e 8309 15bd
00000370: 7dd1 8bbb efe6 86bd 9682 f1bb ea57 0ebd
00000380: 6c30 1d3d 00e5 0c3d 5dc6 86bd bfd2 fd3d
00000390: 55b6 143e 8f01 0abe 7053 b73e 9ea5 dfbd
000003a0: 56c3 413d 1de0 ea3e 382f 97bd 228c d53e
000003b0: 0238 dc3d 1f9d da3d bbed 8c3d fdfe 91be
000003c0: d357 73be e041 8d3e 42b7 cebd cf27 8b3c
000003d0: 4736 8bbb 602c 99be c2e2 60be d8ac d93e
000003e0: 40f7 97be 91a0 37bc 6cec 493c f6bf cc3e
000003f0: a751 b73e 777c adbe c756 733d 5fe6 c23b

enc.fe.u1_FC1.bias f4 [64]
-0.08245596 -0.10710612 -0.19014893 0.18343556 -0.017022924 -0.17904311 -0.031219637 -0.11015036
-0.17363925 0.16267756 0.004421007 0.22616851 0.05832332 -0.2852906 -0.30392963 0.13039283
0.1383118 -0.27101764 -0.2507884 -0.38792884 0.01869485 -0.07386279 0.16576219 0.09857813
-0.41372874 -0.046620004 -0.03311801 -0.29640266 0.13457936 -0.17997791 -0.2621702 -0.37464017
0.12348768 0.049436186 -0.3848884 0.2611666 -0.21607652 -0.089404956 0.26709825 -0.3970511
-0.014624643 -0.5126293 0.21569058 0.16466945 -0.13476536 -0.32857454 -0.3057695 -0.21143714
-0.31481445 0.042005938 0.03764448 -0.19320132 -0.06768439 0.017252848 0.23805898 0.37144125
-0.16748764 0.2291125 0.302393 -0.04936647 -0.2742553 -0.23710768 -0.08146722 0.20845413
00000000: acde a8bd 745a dbbd 67b6 42be 88d6 3b3e
00000010: a973 8bbc 1457 37be 53c0 ffbc 8396 e1bd
00000020: 7dce 31be f294 263e 18de 903b b898 673e
00000030: 6fe4 6e3d 9c11 92be aa9c 9bbe b385 053e
00000040: 9ca1 0d3e d3c2 8abe 5667 80be 9c9e c6be
00000050: f125 993c 6045 97bd 90bd 293e 55e3 c93d
00000060: 41d4 d3be 9ef4 3ebd c0a6 07bd 17c2 97be
00000070: 2ccf 093e 214c 38be 2c3b 86be d6d0 bfbe
00000080: 1ce7 fc3d 997d 4a3d 1810 c5be a1b7 853e
00000090: 2a43 5dbe f219 b7bd 1ac1 883e 484a cbbe
000000a0: 339c 6fbc ac3b 03bf fedd 5c3e 1c9f 283e
000000b0: eeff 09be ec3a a8be d28d 9cbe fa82 58be
000000c0: 5c2f a1be 6b0e 2c3d 1931 1a3d 91d6 45be
000000d0: 1d9e 8abd d855 8d3c bcc5 733e 8c2d be3e
000000e0: e181 2bbe 789c 6a3e 41d3 9a3e 7f34 4abd
000000f0: 316b 8cbe 5bcc 72be 49d8 a6bd 0075 553e

enc.fe.u1_FC2.weight f4 [64, 64]
0.02968287 -0.2922557 -0.009316247 -0.18522806 0.15241669 -0.013338502 -0.21817508 -0.041180886
0.049889628 -0.5363044 -0.22767495 -0.040372692 0.31935874 0.28980893 -0.07977726 -0.23068288
-0.033808388 0.20015459 -0.91020626 0.12100857 -0.59674746 0.012393644 -0.09139743 0.12723191
-1.1173588 -0.24198833 0.022600146 0.020869657 -0.13648704 -0.08552933 -0.12927565 -0.07063408
-0.0733768 0.24082164 0.09773781 -0.13765585 0.051622003 0.079734266 0.03977576 -0.053722896
-0.01917544 0.08129366 0.038826536 -0.048049428 0.024187533 0.350655 -0.052889794 0.052823268
0.12410113 -0.019282665 0.058695246 0.031094816 0.058349263 0.048532166 -0.044505026 0.13315688
0.017464867 0.07169747 -0.24307504 0.3631759 0.031018317 -1.1673242 -0.31963274 0.116994485
0.018821279 -0.30825514 0.09222253 0.107842036 0.04240996 0.1760607 -0.06477106 0.035595287
0.1294305 -0.16428404 -0.13661623 -0.037664395 -0.12791024 -0.046571665 -0.074220054 0.15011404
-0.59 -0.75340384 0.49527988 -0.0057838904 -0.21600103 -0.056508683 -0.08938658 0.0141467415
0.28438273 -0.20088227 -0.0032188054 -0.010219002 0.24744669 -0.17345567 -0.14474472 -0.10006965
-0.41729173 -0.26611346 0.07380747 0.099181905 0.06945151 -0.0003952097 0.033473585 -0.27839178
-0.2914155 -0.046104882 0.22244503 -0.025171641 -0.0076288753 -0.15683477 -0.31611994 -0.08663481
-0.21256834 0.13892011 -0.07102578 0.031048914 0.08784749 -0.014840438 0.016032005 0.07645647
-0.03675215 0.14368536 0.035822798 0.2797555 -0.090925016 0.30670506 -0.61386937 -0.06809569
0.060337007 0.0626737 -0.052298203 0.11900867 -0.1010284 0.070428625 0.048381053 0.042979226
-0.15233843 -0.012183629 -0.041764088 -0.01876969 0.08977292 0.052857183 0.1123647 0.096684836
0.080858655 0.22432974 -0.16913997 0.04443831 -0.099912144 0.0079068905 0.12227015 -0.015120266
0.17758936 0.027199099 -0.030599296 0.21199104 -0.07208337 -0.043784034 -0.19889422 -0.04691893
-0.19338813 -0.12365858 0.15830958 0.09915078 0.0083582895 -0.054710045 0.02711038 0.010883869
-0.080475345 -0.8067426 -0.09183993 -0.0718002 -0.06625973 0.10428225 0.004888828 0.093062826
-0.3667088 -0.3153223 -0.11680972 0.05840034 -0.06805035 0.015815597 -0.070646316 0.08415573
0.0893246 0.1359774 -0.047469787 -0.028006343 0.06652411 0.0056834454 0.024354566 -0.051921964
0.20777704 -0.017153954 -0.04483699 -0.49772575 -0.10171601 0.024483478 -0.19098058 0.08411833
-0.104706965 -0.26321214 0.0022781799 -0.048981354 0.17387317 -0.08033949 -0.15582794 0.11646793
0.046569392 -0.11399533 0.10562142 -0.0622865 -0.119141996 0.07947542 -0.40479323 0.06501314
0.040930554 0.014659569 -0.09229346 -0.40367642 -0.026647696 -0.068735585 0.15504569 0.051998295
0.030695982 0.068661444 0.1016205 -0.23385991 0.15517728 -0.009059236 0.17128138 -0.09953429
-0.13262 -0.17954859 0.09494799 -0.023612307 -0.2071667 0.038594402 0.17378 -0.19259633
-0.20083603 -0.013470139 -0.09149474 -0.057418294 0.04501536 0.14884062 0.06756633 0.13717166
-0.007785893 -0.028450934 -0.21312886 -0.04487974 0.11814979 0.19993843 -0.04993758 -0.13279833
00000000: 7d29 f33c 8aa2 95be 2ca3 18bc 6dac 3dbe
00000010: 1f13 1c3e bb89 5abc 4a69 5fbe 4aad 28bd
00000020: 1159 4c3d 3f4b 09bf 9f23 69be d65d 25bd
00000030: fd82 a33e d661 943e 4362 a3bd 2238 6cbe
00000040: aa7a 0abd 53f5 4c3e 4703 69bf 57d3 f73d
00000050: 71c4 18bf b60e 4b3c 932e bbbd 1549 023e
00000060: 9d05 8fbf cacb 77be f123 b93c d8f6 aa3c
00000070: 42c3 0bbe 002a afbd d660 04be 9aa8 90bd
00000080: 9346 96bd f399 763e c32a c83d a8f5 0cbe
00000090: 9871 533d b84b a33d e8eb 223d 8a0c 5cbd
000000a0: d015 9dbc 4a7d a63d 9308 1f3d 7acf 44bd
000000b0: ef24 c63c 0d89 b33e f8a2 58bd 365d 583d
000000c0: bc28 fe3d aef6 9dbc 6d6a 703d 8eba fe3c
000000d0: a3ff 6e3d aac9 463d e74a 36bd 475a 083e
000000e0: 7b12 8f3c 20d6 923d aae8 78be 31f2 b93e
000000f0: 201a fe3c e16a 95bf e7a6 a3be ce9a ef3d
00000100: 152f 9a3c 9ed3 9dbe 2adf bc3d 49dc dc3d
00000110: 11b6 2d3d 4249 343e b1a6 84bd 5dcc 113d
00000120: 6e89 043e 133a 28be 20e5 0bbe fb45 1abd
00000130: e7fa 02be eec1 3ebd af00 98bd 7fb7 193e
00000140: 3d0a 17bf 13df 40bf 5395 fd3e ca86 bdbb
00000150: 602f 5dbe a675 67bd 5010 b7bd bcc7 673c
00000160: 9d9a 913e 15b4 4dbe 98f2 52bb 9a6d 27bc
00000170: aa62 7d3e 5d9e 31be f637 14be 51f1 ccbd
00000180: 43a7 d5be 0640 88be 5f28 973d e21f cb3d
00000190: 983c 8e3d 2634 cfb9 991b 093d 5e89 8ebe
000001a0: 6a34 95be 79d8 3cbd a1c8 633e c234 cebc
000001b0: a5fb f9bb 4b99 20be 79da a1be 976d b1bd
000001c0: 84ab 59be 1341 0e3e f775 91bd 4b5a fe3c
000001d0: 63e9 b33d 4f25 73bc 8d55 833c 3695 9c3d
000001e0: 6c89 16bd 4122 133e edba 123d 1d3c 8f3e
000001f0: e536 babd 7208 9d3e 8b26 1dbf c175 8bbd
00000200: f023 773d 125b 803d a436 56bd d1ba f33d
00000210: fae7 cebd e23c 903d 362b 463d fc0a 303d
00000220: 9bfe 1bbe d89d 47bc d210 2bbd e5c2 99bc
00000230: ddda b73d c680 583d 771f e63d b302 c63d
00000240: 3999 a53d b2b6 653e 0733 2dbe f204 363d
00000250: bd9e ccbd e78b 013c c668 fa3d feba 77bc
00000260: fcd9 353e a5d0 de3c 60ab fabc 2e14 593e
00000270: 72a0 93bd e356 33bd edaa 4bbe 102e 40bd
00000280: 8a07 46be b640 fdbd e81b 223e 900f cb3d
00000290: 35f1 083c a417 60bd 9616 de3c 4152 323c
000002a0: 42d0 a4bd af86 4ebf 9316 bcbd fc0b 93bd
000002b0: 2eb3 87bd ef91 d53d 7632 a03b b997 be3d
000002c0: 41c1 bbbe ed71 a1be ef39 efbd 3235 6f3d
000002d0: fb5d 8bbd b68f 813c 04af 90bd d759 ac3d
000002e0: d1ef b63d a93d 0b3e ae6f 42bd 8f6d e5bc
000002f0: cb3d 883d 323c ba3b 3a83 c73c 20ac 54bd
00000300: 81c3 543e 7386 8cbc fea6 37bd e9d5 febe
00000310: 7c50 d0bd 9391 c83c 6a90 43be 3b46 ac3d
00000320: 9b70 d6bd bec3 86be 844d 153b aca0 48bd
00000330: cf0b 323e 0889 a4bd 5c91 1fbe bd86 ee3d
00000340: 8cbf 3e3d 6276 e9bd 0b50 d83d 2120 7fbd
00000350: b800 f4bd 02c4 a23d 0f41 cfbe 9c25 853d
00000360: cca6 273d b02e 703c 5b04 bdbd adae cebe
00000370: 454c dabc 3ec5 8cbd 4cc4 1e3e 2afc 543d
00000380: 2476 fb3c 5f9e 8c3d 691e d03d f978 6fbe
00000390: cbe6 1e3e 316d 14bc 6364 2f3e a2d8 cbbd
000003a0: 8acd 07be 96db 37be 1774 c23d 996e c1bc
000003b0: 8223 54be 2a15 1e3d 62f3 313e f937 45be
000003c0: f6a7 4dbe dcb1 5cbc 9861 bbbd 722f 6bbd
000003d0: 0762 383d ad69 183e 3760 8a3d ba76 0c3e
000003e0: ce20 ffbb ef11 e9bc 743e 5abe d1d3 37bd
000003f0: 84f8 f13d a9bc 4c3e 598b 4cbd 49fc 07be

enc.fe.u1_FC2.bias f4 [64]
0.08073508 0.07356368 0.022426179 0.10795243 0.008160316 0.03422026 -0.059180014 0.091792986
0.002529629 -0.10724462 0.118832916 0.083344005 -0.16999158 0.021066204 -0.08007535 0.11201769
-0.00037028617 -0.16204263 0.022432705 -0.05978723 0.10256395 -0.016372908 -0.05844172 0.0059155696
0.011780939 0.12502243 -0.1111167 0.065048456 0.025724178 0.13760431 -0.00024772418 0.052947696
-0.04496203 -0.049748186 -0.050074413 0.009658102 -0.008789098 -0.10817028 0.12361459 0.01312214
0.012664274 -0.07442975 -0.08356057 -0.07926292 -0.13402 -0.15229712 0.005217448 0.069340296
-0.064982735 -0.083394885 0.008286503 0.049783584 -0.105547465 0.05054728 0.122751795 0.11838536
-0.09657138 0.047745492 -0.0010806804 -0.1731614 -0.06719383 -0.07152307 -0.024660753 -0.0935784
00000000: 6f58 a53d 8ea8 963d 1bb7 b73c 2a16 dd3d
00000010: d9b2 053c 8b2a 0c3d be66 72bd f6fd bb3d
00000020: 22c8 253b 11a3 dbbd ac5e f33d 43b0 aa3d
00000030: 4612 2ebe 0893 ac3c 8cfe a3bd 8869 e53d
00000040: f822 c2b9 81ee 25be cbc4 b73c 74e3 74bd
00000050: 0c0d d23d 7a20 86bc 9660 6fbd 65d7 c13b
00000060: d704 413c e105 003e 2791 e3bd 2038 853d
00000070: 83bb d23c 25e8 0c3e fae0 81b9 afdf 583d
00000080: 1b2a 38bd c1c4 4bbd d41a 4dbd 043d 1e3c
00000090: 2600 10bc 6188 ddbd a529 fd3d 3ffe 563c
000000a0: d17d 4f3c a06e 98bd ce21 abbd 9954 a2bd
000000b0: 8a3c 09be c7f3 1bbe 20f7 aa3b 4902 8e3d
000000c0: ab15 85bd f0ca aabd 1dc4 073c dfe9 4b3d
000000d0: 4529 d8bd aa0a 4f3d 4b65 fb3d 0674 f23d
000000e0: 37c7 c5bd c790 433d 9ea5 8dba 3951 31be
000000f0: eb9c 89bd b07a 92bd 5905 cabc 08a6 bfbd

enc.fe.u1_FC3.weight f4 [64, 64]
0.06961893 -0.1680939 -0.07911327 0.08215795 -0.08409271 0.14169233 -0.033706028 0.10295503
-0.03917315 -0.103798606 -0.05728103 0.040765792 -0.024874564 0.12408796 0.07618617 0.0949582
0.2077823 0.15084837 -0.384855 0.12847517 -0.010979985 0.06698688 0.25174296 -0.08451873
-0.02396063 -0.091725126 0.013518896 0.107841186 -0.07871854 0.2796737 0.18387423 -0.03458954
0.058052793 -0.05542126 -0.028896151 0.06027168 -0.02327483 -0.12947096 0.015488017 0.073613405
0.04497891 -0.096907884 -0.0018933495 0.18079501 -0.03926113 0.10898564 -0.11592376 0.02397225
-0.011062711 0.019261703 0.09765962 -0.1519389 0.09320672 -0.06898149 -0.059731822 0.071641125
-0.14003612 0.1091049 0.036709186 -0.037036162 0.06416756 -0.24960274 -0.18380722 0.11791222
0.21354234 -0.16405173 -0.07874972 0.19042653 0.01797211 0.06641322 -0.043766756 -0.1000796
0.0017734375 -0.08753878 -0.2189569 0.13292775 0.013534574 0.16509315 0.013293131 -0.15711828
-0.16807063 0.2663189 -0.36097807 0.11519663 0.047357664 -0.03479114 0.40790275 -0.02511335
0.04871235 0.02774858 -0.020760015 0.10849375 0.09432625 -0.050504234 0.07051483 0.012208744
0.051117454 -0.026301874 0.028929085 -0.008495832 -0.038772885 -0.06433207 -0.06807316 -0.04638191
0.2372769 -0.075273804 -0.19235925 0.109854706 0.071277596 -0.07330701 -0.015387176 0.096983895
0.0012881572 0.07217056 0.11578329 -0.13471113 0.0042258753 -0.049574655 -0.037731126 0.16709203
-0.057326782 -0.046762362 0.06527783 0.22661518 0.06092579 -0.3223158 -0.21683967 0.066341504
0.10562823 0.048519675 -0.014541267 -0.18563366 0.06329069 0.024218606 0.05662342 0.13566385
0.04310518 -0.08314159 -0.06560751 -0.01889642 -0.11149094 -0.076757535 -0.21779653 -0.12031267
0.13410312 -0.20505913 -0.11650403 -0.23086455 -0.0031232683 -0.09717671 0.2971772 -0.038479783
0.05899228 -0.033232506 0.006185975 -0.026446357 -0.12810802 0.29729405 0.093182415 0.069819264
-0.022940263 0.10558583 -0.13209006 0.111171626 0.08582196 -0.24052456 0.031871244 0.0060406136
0.083575696 0.058022536 0.1677783 0.25938165 -0.07144512 0.041606158 0.08325216 0.20581035
0.05040689 0.060862504 -0.10427849 0.13860802 -0.021350836 -0.010194363 -0.21890105 0.068980925
0.23274025 0.05532863 -0.14483587 -0.13047308 -0.06734461 0.07626276 -0.029415216 0.0871821
0.023317512 -0.043002363 -0.049902596 -0.22549808 -0.022889344 -0.048143867 -0.051271334 0.35432976
0.02479167 0.01658258 0.17856734 -0.21798053 -0.009709121 -0.14551696 -0.21799412 0.07401906
0.1970807 -0.43894613 0.08594645 -0.40735433 0.06583099 -0.07196882 0.025257861 -0.004598192
-0.07469975 -0.038374323 0.073758304 -0.28175616 -0.03464715 0.08905818 0.07891105 0.21212767
0.023811128 0.2329491 -0.20906232 -0.06197935 0.13399257 -0.27539846 0.108713485 0.026423426
-0.008506717 -0.016236808 0.15296231 0.115154944 -0.07655796 0.07954942 0.11926588 0.00030672943
0.1682499 -0.03195169 -0.045333337 -0.0036415479 -0.012136827 0.09228315 -0.23024882 0.14820842
0.19210175 -0.051719848 0.06293134 -0.52310216 0.08839179 0.27241674 -0.015330873 -0.049255982
00000000: 5f94 8e3d cf20 2cbe 2306 a2bd 6d42 a83d
00000010: cc38 acbd cb17 113e 550f 0abd 16da d23d
00000020: 0674 20bd 5d94 d4bd 839f 6abd 08fa 263d
00000030: bec5 cbbc d421 fe3d 7f07 9c3d 7279 c23d
00000040: e2c4 543e ff77 1a3e b70b c5be ff8e 033e
00000050: 65e5 33bc 6b30 893d 74e4 803e 2818 adbd
00000060: 1549 c4bc 62da bbbd 5c7e 5d3c d7db dc3d
00000070: 3037 a1bd 6431 8f3e 8749 3c3e c3ad 0dbd
00000080: c4c8 6d3d 6701 63bd 9fb7 ecbc 70df 763d
00000090: dbaa bebc 0994 04be 74c1 7d3c a0c2 963d
000000a0: ce3b 383d a477 c6bd 442a f8ba 5422 393e
000000b0: 47d0 20bd dd33 df3d 7069 edbd 7461 c43c
000000c0: 5f40 35bc b8ca 9d3c c401 c83d df95 1bbe
000000d0: 2ae3 be3d 2b46 8dbd 5ba9 74bd 95b8 923d
000000e0: a165 0fbe 6472 df3d 5f5c 163d 3bb3 17bd
000000f0: 486a 833d dc97 7fbe f637 3cbe f67b f13d
00000100: d8aa 5a3e 2dfd 27be 8847 a1bd 2cff 423e
00000110: 3f3a 933c a703 883d c544 33bd 89f6 ccbd
00000120: b072 e83a 8847 b3bd 3d36 60be 361e 083e
00000130: 1ec0 5d3c 2e0e 293e 6fcb 593c 9de3 20be
00000140: b51a 2cbe f35a 883e 1ed2 b8be 36ec eb3d
00000150: 1cfa 413d 2881 0ebd a1d8 d03e 83ba cdbc
00000160: 9a86 473d fd50 e33c e810 aabc f931 de3d
00000170: 1f2e c13d 87dd 4ebd 146a 903d 2f07 483c
00000180: 8960 513d 0777 d7bc b0fc ec3c 1a32 0bbc
00000190: 51d0 1ebd 88c0 83bd f169 8bbd f5fa 3dbd
000001a0: b7f8 723e 2729 9abd d3f9 44be 81fb e03d
000001b0: fdf9 913d fc21 96bd 7e1a 7cbc 7e9f c63d
000001c0: 62d7 a83a 29ce 933d ca1f ed3d b7f1 09be
000001d0: 3679 8a3b cb0e 4bbd f48b 1abd 2c1a 2b3e
000001e0: 7dcf 6abd e489 3fbd 62b0 853d cf0d 683e
000001f0: 528d 793d 9406 a5be 380b 5ebe 0ede 873d
00000200: 9d53 d83d 91bc 463d 7f3e 6ebc c016 3ebe
00000210: 8d9e 813d 1966 c63c f6ed 673d 77eb 0a3e
00000220: 0f8f 303d 2346 aabd 3b5d 86bd aacc 9abc
00000230: 5d55 e4bd 0e33 9dbd 0e06 5fbe 7d66 f6bd
00000240: 5452 093e 05fb 51be aa99 eebd c267 6cbe
00000250: bfaf 4cbb 9504 c7bd 9c27 983e fa9c 1dbd
00000260: e4a1 713d cf1e 08bd b8b3 ca3b 08a6 d8bc
00000270: c02e 03be ed36 983e 6cd6 be3d 67fd 8e3d
00000280: 38ed bbbc 623d d83d 9e42 07be f3ad e33d
00000290: 6cc3 af3d 124c 76be 6c8b 023d 57f0 c53b
000002a0: bc29 ab3d 0aa9 6d3d 13ce 2b3e accd 843e
000002b0: d251 92bd 386b 2a3d 1c80 aa3d f3bf 523e
000002c0: 7577 4e3d f64a 793d f68f d5bd 43ef 0d3e
000002d0: f3e7 aebc 4206 27bc 9927 60be df45 8d3d
000002e0: 7653 6e3e 46a0 623d db4f 14be bc9a 05be
000002f0: f9eb 89bd a62f 9c3d 2ef8 f0bc 878c b23d
00000300: 5e04 bf3c 3f23 30bd aa66 4cbd f8e8 66be
00000310: 6f82 bbbc 8132 45bd e401 52bd b66a b53e
00000320: e617 cb3c 31d8 873c 5bda 363e 4a36 5fbe
00000330: 0113 1fbc 6602 15be da39 5fbe 4e97 973d
00000340: 86cf 493e 8cbd e0be b104 b03d bf90 d0be
00000350: 66d2 863d 6464 93bd 93e9 ce3c 6eac 96bb
00000360: 2ffc 98bd 652e 1dbd 980e 973d 5842 90be
00000370: 2cea 0dbd 2364 b63d 1e9c a13d ff37 593e
00000380: 8e0f c33c 358a 6e3e 6f14 56be 0fde 7dbd
00000390: 5935 093e 0701 8dbe 2da5 de3d f175 d83c
000003a0: c25f 0bbc 0e03 85bc 27a2 1c3e 5bd6 eb3d
000003b0: 6bca 9cbd ceea a23d ab41 f43d 87d0 a039
000003c0: b449 2c3e c6df 02bd 73af 39bd 09a7 6ebb
000003d0: 8bd9 46bc f3fe bc3d 59c6 6bbe f3c3 173e
000003e0: 52b6 443e 31d8 53bd 25e2 803d 06ea 05bf
000003f0: c106 b53d 357a 8b3e 582e 7bbc a4c0 49bd

enc.fe.u1_FC3.bias f4 [64]
-0.027675236 -0.008471123 -0.025747007 0.014518536 0.084933385 -0.069443546 -0.10375883 -0.012499776
0.062757336 0.02385595 -0.055913065 -0.09440335 -0.006235713 0.043050162 -0.018352251 0.018469406
0.018162576 -0.07848178 -0.01932367 0.021604761 0.088887714 -0.056985218 -0.020730274 0.018221363
0.062445916 0.044016853 -0.04873649 0.09373407 0.022516357 0.04661047 0.07265551 0.09089659
-0.018982273 0.052797824 0.08171305 -0.07764493 -0.027058179 -0.044488266 -0.03941507 0.0827088
-0.0772789 -0.034740865 -0.017555268 -0.012410077 0.042418756 0.06360242 0.033864796 0.013290345
0.04986664 -0.011996616 0.0047765994 -0.008286835 -0.06964601 0.04098693 -0.08984229 0.023450593
-0.05231622 -0.042648982 0.01271027 0.005859212 0.043699734 0.03499696 -0.04829577 0.055125903
00000000: 2db7 e2bc 77ca 0abc 63eb d2bc 27df 6d3c
00000010: 8ef1 ad3d 6b38 8ebd 827f d4bd dccb 4cbc
00000020: eb86 803d 8e6d c33c 1905 65bd 8b56 c1bd
00000030: f454 ccbb 5e55 303d 7657 96bc 274d 973c
00000040: afc9 943c 0ebb a0bd ac4c 9ebc 78fc b03c
00000050: c30a b63d 5569 69bd 89d2 a9bc f844 953c
00000060: 4ac7 7f3d 044b 343d ea9f 47bd a6f7 bf3d
00000070: 3974 b83c 9fea 3e3d 69cc 943d fe27 ba3d
00000080: b680 9bbc 8842 583d 2c59 a73d 4e04 9fbd
00000090: 1da9 ddbc 5439 36bd b271 21bd 3b63 a93d
000000a0: 6644 9ebd 704c 0ebd 11d0 8fbc a353 4bbc
000000b0: 4abf 2d3d fc41 823d d0b5 0a3d bfbf 593c
000000c0: f640 4c3d 748d 44bc 0585 9c3b 81c5 07bc
000000d0: 91a2 8ebd e9e1 273d 3cff b7bd 751b c03c
000000e0: 8849 56bd b3b0 2ebd bc3e 503c a2fe bf3b
000000f0: 7efe 323d f958 0f3d c9d1 45bd b3cb 613d

enc.fe.u1_FC4.weight f4 [32, 128]
-0.14493649 -0.1859167 0.0190712 0.12092053 -0.11780027 0.1842902 -0.0037179722 0.016068133
0.063092 0.27695554 -0.14718734 0.17776726 0.26665473 0.25444087 -0.23740503 0.09589175
-0.042435333 -0.23916006 -0.20367774 0.09946284 -0.027792165 -0.43357584 -0.092126176 -0.16845737
-0.019741394 0.15520073 0.09202559 0.20774253 0.018920744 -0.013557398 0.00591761 0.20277843
-0.10465456 0.21313214 -0.22141615 0.049773443 0.1936019 -0.11453167 -0.09688078 0.13765012
-0.030021472 -0.03355435 0.08715296 -0.02588223 -0.113353886 0.0864468 0.15660484 -0.06656589
0.09546807 -0.012545378 0.052936036 -0.28112376 0.1459591 -0.20026495 -0.038850885 -0.10335313
-0.020206513 0.040326 0.21079245 -0.14107019 0.007700894 -0.13620508 0.24263006 -0.0049629146
0.0776828 0.08440998 0.025232872 0.0015013354 -0.034564488 -0.04573843 -0.050304104 -0.033517316
-0.018785236 0.07790722 0.06095043 -0.06557772 0.023303928 0.16126737 0.02534114 -0.0067675826
0.094785266 0.028472954 -0.050883215 -0.0574263 0.06596016 0.05289786 0.00938809 -0.040713042
0.0675462 0.085880496 -0.066224106 -0.05518144 0.027994428 0.10746127 -0.05138434 0.06592093
-0.11076194 0.029694978 0.11992812 0.039787482 0.11315123 -0.022092575 0.0015906357 0.0072828843
-0.10225617 -0.1591535 0.010901816 -0.13654703 0.03727357 0.009743848 -0.011781768 -0.10249875
-0.022445137 -0.0026168842 0.021731919 -0.025474522 0.0055123596 -0.03966612 -0.04456719 0.044661883
-0.054015752 -0.010286989 0.09857065 0.007773266 0.057241116 0.12846333 -0.074736424 -0.006989499
-0.020232027 0.015257572 -0.048271492 0.06959941 0.16373308 -0.08274068 -0.08734419 -0.12039676
-0.15130003 -0.050089933 0.08158813 0.01723418 -0.07992222 -0.0052457936 0.08018643 0.055748977
0.07166073 0.15780085 0.31956476 0.0753527 -0.11478471 0.13534735 0.0800231 0.03349792
0.06833848 0.11599114 0.06042963 0.0017051874 0.07618721 -0.044820383 0.0350802 -0.17735349
0.0094031505 -0.026408238 0.08641657 -0.06755343 0.021673394 0.07060592 -0.058838468 -0.19051039
0.032659702 0.01297416 -0.011598887 0.13497296 0.031224143 -0.16845079 -0.13260959 -0.0756376
-0.07497254 -0.02059376 0.095637515 0.06270387 -0.051720183 0.09134857 0.054173216 -0.033233304
0.0021926234 0.046211764 -0.014438063 0.04113787 -0.23318827 0.08589064 -0.1770688 0.11373432
0.022048762 -0.05167159 0.1275047 -0.030498022 -0.03857142 0.05502347 0.025939438 0.01309806
0.022751447 -0.013028091 0.07775635 -0.008243727 0.05490799 -0.032067385 -0.045865912 0.10109545
-0.017503075 -0.035600785 0.038555734 -0.019607462 0.05299361 0.017345678 0.10819708 0.029898576
0.0011812978 0.03927232 -0.042829156 -0.12546062 0.07193361 0.013178166 -0.025969643 -0.04677971
-0.0009352612 0.017156666 -0.045269366 -0.15152313 -0.045685817 -0.020303221 0.08201527 -0.006433015
-0.071120776 -0.08862218 0.102950126 -0.046080336 0.1441433 0.07808799 0.030627294 -0.09756083
-0.055615965 0.025687411 -0.023315886 0.10732318 0.14933155 0.009264662 0.1098057 0.039175075
0.097710796 0.030569449 -0.050789885 0.05658835 0.040095743 0.11538469 -0.035451308 0.10140937
00000000: 3b6a 14be f360 3ebe 353b 9c3c 2fa5 f73d
00000010: 4541 f1bd 92b6 3c3e 39a9 73bb 51a1 833c
00000020: 6136 813d 1ecd 8d3e 47b8 16be 9f08 363e
00000030: f886 883e 1346 823e 4e1a 73be e562 c43d
00000040: acd0 2dbd 60e6 74be e690 50be 2cb3 cb3d
00000050: 65ac e3bc a7fd ddbe a6ac bcbd 1780 2cbe
00000060: b4b8 a1bc f1ec 1e3e ea77 bc3d 75ba 543e
00000070: adff 9a3c d91f 5ebc 83e8 c13b 26a5 4f3e
00000080: 2155 d6bd 503f 5a3e eaba 62be 3ddf 4b3d
00000090: 943f 463e 958f eabd 6e69 c6bd 27f4 0c3e
000000a0: 97ef f5bc 4970 09bd 407d b23d f806 d4bc
000000b0: 1526 e8bd 050b b13d 055d 203e b353 88bd
000000c0: c384 c33d 218b 4dbc 75d3 583d 74ef 8fbe
000000d0: 4d76 153e 4112 4dbe 1b22 1fbd ceaa d3bd
000000e0: 2188 a5bc e02c 253d fad9 573e b474 10be
000000f0: c857 fc3b 5879 0bbe 0474 783e f29f a2bb
00000100: 2918 9f3d 24df ac3d 2bb5 ce3c 75c8 c43a
00000110: 7e93 0dbd 3858 3bbd ad0b 4ebd 7449 09bd
00000120: 7fe3 99bc d28d 9f3d 28a7 793d 9d4d 86bd
00000130: e1e7 be3c 4623 253e 3998 cf3c 99c2 ddbb
00000140: c71e c23d 1d40 e93c eb6a 50bd d737 6bbd
00000150: 1f16 873d 6dab 583d 81d0 193c b8c2 26bd
00000160: a955 8a3d 1de2 af3d 81a0 87bd ef05 62bd
00000170: 9254 e53c a814 dc3d 6378 52bd 8d01 873d
00000180: 28d7 e2bd e242 f33c e09c f53d 33f8 223d
00000190: d5bb e73d 7dfb b4bc e17c d03a 43a5 ee3b
000001a0: af6b d1bd 23f9 22be 889d 323c fcd2 0bbe
000001b0: 2cac 183d a9a4 1f3c 5108 41bc ddea d1bd
000001c0: ddde b7bc 0880 2bbb 2307 b23c f2af d0bc
000001d0: 06a1 b43b f178 22bd 168c 36bd 61ef 363d
000001e0: 9f3f 5dbd c28a 28bc 69df c93d e2b6 fe3b
000001f0: a975 6a3d e48b 033e 690f 99bd 2b08 e5bb
00000200: a3bd a5bc e5fa 793c 54b8 45bd 238a 8e3d
00000210: a5a9 273e f273 a9bd 83e1 b2bd 9492 f6bd
00000220: 65ee 1abe 1a2b 4dbd ad17 a73d b22e 8d3c
00000230: 43ae a3bd e8e4 abbb c838 a43d 0a59 643d
00000240: dcc2 923d 8c96 213e fe9d a33e 8452 9a3d
00000250: 3f14 ebbd 7f98 0a3e 27e3 a33d 1d35 093d
00000260: 0cf5 8b3d c38c ed3d 0f85 773d 9880 df3a
00000270: 0a08 9c3d 9495 37bd 41b0 0f3d 279c 35be
00000280: ac0f 1a3c 1756 d8bc 2cfb b03d 7459 8abd
00000290: 678c b13c d699 903d 9b00 71bd 2815 43be
000002a0: 2ec6 053d 9291 543c 4209 3ebc 5a36 0a3e
000002b0: c6c9 ff3c 5d7e 2cbe cfca 07be e3e7 9abd
000002c0: 348b 99bd 3fb4 a8bc 9add c33d e36a 803d
000002d0: 8bd8 53bd f614 bb3d bce4 5d3d a51f 08bd
000002e0: 1eb2 0f3b 8c48 3d3d a08d 6cbc 2f80 283d
000002f0: e8c8 6ebe 6fe7 af3d 8651 35be 8aed e83d
00000300: 9b9f b43c 97a5 53bd 9890 023e fdd6 f9bc
00000310: 11fd 1dbd 4a60 613d f27e d43c 3f99 563c
00000320: 3e61 ba3c c673 55bc b93e 9f3d b210 07bc
00000330: 33e7 603d 1759 03bd e5dd 3bbd 220b cf3d
00000340: 9c62 8fbc 21d2 11bd 9eec 1d3d d49f a0bc
00000350: d40f 593d 8618 8e3c 6e96 dd3d dced f43c
00000360: c7d5 9a3a 03dc 203d a06d 2fbd c078 00be
00000370: ee51 933d 3ce9 573c 4abe d4bc 159c 3fbd
00000380: 512c 75ba 238c 8c3c 5f6c 39bd e128 1bbe
00000390: 0d21 3bbd f152 a6bc 9ff7 a73d 0bcc d2bb
000003a0: c5a7 91bd 8c7f b5bd 84d7 d23d bcbe 3cbd
000003b0: 4d9a 133e 99ec 9f3d 17e6 fa3c f9cd c7bd
000003c0: 91cd 63bd 686e d23c f500 bfbc 41cc db3d
000003d0: 5fea 183e cfca 173c d0e1 e03d 0b76 203d
000003e0: 991c c83d c86c fa3c 0e09 50bd 30c9 673d
000003f0: 6f3b 243d cf4e ec3d 6435 11bd b7af cf3d

enc.fe.u1_FC4.bias f4 [32]
0.057327002 0.08662178 -0.0014378332 -0.023962075 -0.07309106 -0.009257191 0.035383433 -0.04813837
0.017575491 0.01313924 -0.01961704 -0.028104285 0.03494072 0.07500901 -0.03277643 -0.09278113
0.046509396 -0.03820692 -0.010302143 0.008950068 0.094625816 -0.043580476 -0.06370838 0.02642323
-0.077015065 0.038862545 -0.013741151 0.04404165 0.05543284 0.019437164 -0.07835183 -0.042110708
00000000: b8cf 6a3d c366 b13d ad75 bcba 1d4c c4bc
00000010: c4b0 95bd 79ab 17bc 38ee 103d bd2c 45bd
00000020: 7afa 8f3c f845 573c eab3 a0bc f53a e6bc
00000030: 001e 0f3d 539e 993d 9440 06bd 0804 bebd
00000040: a380 3e3d dc7e 1cbd 52ca 28bc 4ea3 123c
00000050: 2ecb c13d 7181 32bd 8a79 82bd 8875 d83c
00000060: 13ba 9dbd 552e 1f3d 9122 61bc 0465 343d
00000070: 8c0d 633d b03a 9f3c ed76 a0bd 477c 2cbd

enc.norm.weight f4 [32]
0.824178 0.8166822 0.80969244 0.91301054 0.87515324 0.8313453 1.2954044 0.36442113
0.62694275 0.8527798 0.89028335 0.97566736 0.66446996 0.87828434 0.86074823 1.2877821
0.45959833 0.95230895 0.87730974 0.85489213 1.0074592 0.9511217 0.9353801 0.83895785
0.83881384 0.8299331 0.66639847 0.71214306 0.8529111 0.93777865 0.76315117 0.7589176
00000000: 54fd 523f 1612 513f 0148 4f3f 0fbb 693f
00000010: 0b0a 603f 0cd3 543f d0cf a53f 6895 ba3e
00000020: 527f 203f c74f 5a3f 9ce9 633f 56c5 793f
00000030: b41a 2a3f 3ed7 603f ff59 5c3f 0bd6 a43f
00000040: 7950 eb3e 85ca 733f 5f97 603f 36da 5a3f
00000050: 6cf4 803f b67c 733f 1275 6f3f f1c5 563f
00000060: 81bc 563f 7f76 543f 1799 2a3f 024f 363f
00000070: 6258 5a3f 4312 703f e05d 433f 6d48 423f

enc.norm.bias f4 [32]
-0.0051662317 0.011941429 -0.0066940924 0.04015071 0.022509225 0.0062823864 0.066636935 9.723246e-05
0.0011109585 -0.008616715 0.015336327 -0.034531284 -0.0007338312 0.00465118 0.009469874 -0.025817215
0.0013190403 -0.03408133 0.030489944 -0.010326688 0.075585775 -0.018300554 -0.019395914 -0.009958799
0.005962177 0.0028290655 -0.003206798 0.0032743516 0.007454334 -0.03768319 -0.0059557967 0.00024199137
00000000: 7e49 a9bb fca5 433c 1e5a dbbb 1275 243d
00000010: 4465 b83c 7adc cd3b f278 883d 48e9 cb38
00000020: 959d 913a 1f2d 0dbc 3845 7b3c ad70 0dbd
00000030: 945e 40ba ed68 983b 8827 1b3c a07e d3bc
00000040: a6e3 ac3a dd98 0bbd 0cc6 f93c 4531 29bc
00000050: b7cc 9a3d 0beb 95bc 2ee4 9ebc 3b2a 23bc
00000060: 5e5e c33b d867 393b 2529 52bb 8196 563b
00000070: 7c43 f43b b059 1abd d828 c3bb 10bf 7d39

enc.enc_out1.weight f4 [8, 32]
0.10841213 -0.02930949 0.03215106 -0.0032707816 -0.04110019 -0.10613594 -0.44373915 0.007849545
-0.09592358 0.10266214 0.052154426 0.074901894 0.14015427 0.15094459 -0.100673 0.27839285
-0.048469245 0.10977127 -0.0018963927 -0.021243226 -0.20594923 0.059198845 0.1271068 -0.07053088
5.45268e-05 -0.062470127 -0.036595866 0.046135366 0.02517535 0.118402496 -0.07381809 -0.080275685
0.068624265 -0.12175988 -0.08439053 -0.13832651 0.031139208 -0.15606098 -0.49401343 0.07009006
0.043649673 -0.05130801 -0.18573055 0.12956473 0.092694275 -0.14559561 0.064747855 0.37751368
0.0075092604 -0.03161188 0.029104887 0.0088149095 -0.22534594 0.121952154 -0.047130093 0.020535812
0.0263711 0.02673182 0.11150696 -0.12805374 -0.13195851 -0.04628462 0.0371983 -0.07876402
0.094259016 0.003475982 0.070889555 0.06323611 -0.075168744 -0.12074569 0.25979537 -0.01715976
-0.078043655 0.04752506 -0.07600862 -0.06441758 -0.053564597 0.11896257 0.08139092 -0.29899737
0.14944367 -0.13769679 0.13547683 -0.17173496 0.033300538 -0.04285856 0.03194228 0.08256574
-0.039217766 0.12892687 0.00052057015 0.13928305 0.041497372 -0.054564185 -0.039707925 -0.06725279
-0.073202044 -0.12951751 0.091241896 0.05317305 -0.15314282 -0.03533963 -0.2658688 -0.1465852
0.098508835 0.063530385 -0.045484476 0.18203756 -0.034153227 -0.07783036 -0.19166782 0.3866655
0.03565152 0.19830169 -0.04974827 0.0758657 -0.18760136 0.064106785 0.13617298 0.04267949
-0.07620711 -0.00054308854 -0.091400355 0.16449395 0.057462998 0.11498529 -0.016479168 0.0005831148
-0.06917177 0.011134223 -0.08853533 -0.12157265 0.019704735 0.10346359 -0.2460698 0.09303025
0.039825838 -0.10106052 -0.10423488 0.012318455 -0.01975333 -0.13864394 0.059703976 0.07180144
-0.14065851 0.03887966 -0.079709135 -0.080251664 -0.03880469 0.15550257 -0.11501266 0.06649392
-0.058511775 -0.05180788 0.123220965 0.12699457 -0.10301823 -0.07395191 0.030269409 0.044181578
0.032035448 0.10485599 0.1870818 -0.18256366 0.07668537 -0.05337365 -0.48670968 0.0463999
-0.07651095 0.07194258 -0.067310356 0.14588448 -0.054722205 -0.045338713 0.06707395 0.43036786
-0.15835236 0.033960305 -0.12044663 0.1406113 -0.22640997 0.16555981 0.1281873 0.1651642
-0.08730401 0.09048999 -0.0037666636 0.067292824 -0.017521733 0.16214758 0.16564979 0.03487688
-0.13526568 -0.049208853 0.024233175 0.17215607 0.13564864 -0.06760252 0.52066123 0.103382096
-0.15114594 -0.13134302 0.0495514 -0.21365342 0.121281706 0.07938435 0.11148585 -0.44030666
-0.14108343 -0.1040476 0.008739953 0.10004613 -0.017956588 -0.021901641 0.0017012659 0.12052198
0.110973775 0.18687685 -0.11701848 0.14041898 -0.010855337 -0.1105718 -0.053997915 -0.14907688
-0.0022655332 0.06360536 0.0050404044 0.02305168 0.18468408 -0.068455234 0.4449229 -0.10563661
0.08952533 0.13185063 0.10394621 -0.053430166 0.04931463 0.007507776 -0.052307796 -0.21658093
-0.12721105 -0.054906487 0.11446337 0.0058769896 0.075481035 -0.120382786 -0.18338475 -0.10874159
0.10395327 -0.0109980935 0.02889894 0.011156487 0.14164297 0.02976035 0.07553959 0.06601479
00000000: 2e07 de3d 751a f0bc d4b0 033d 9c5a 56bb
00000010: ac58 28bd cd5d d9bd c731 e3be 619b 003c
00000020: 9573 c4bd 8740 d23d e19f 553d 2a66 993d
00000030: 9a84 0f3e 3891 1a3e a52d cebd 8289 8e3e
00000040: b087 46bd c2cf e03d 6190 f8ba 4606 aebc
00000050: 5be4 52be 7d7a 723d 4928 023e 7e72 90bd
00000060: b5b3 6438 ade0 7fbd 8ce5 15bd 70f8 3c3d
00000070: 893c ce3c 027d f23d f02d 97bd 9467 a4bd
00000080: e18a 8c3d 3e5d f9bd f1d4 acbd 77a5 0dbe
00000090: a717 ff3c 73ce 1fbe 54ef fcbe 618b 8f3d
000000a0: 00ca 323d 5928 52bd 2630 3ebe 9eac 043e
000000b0: 7fd6 bd3d 0417 15be 869a 843d 7949 c13e
000000c0: 3e10 f63b 757b 01bd 5f6d ee3c 696c 103c
000000d0: 16c1 66be 0dc2 f93d 7c0b 41bd b83a a83c
000000e0: 3508 d83c b1fc da3c c35d e43d 8520 03be
000000f0: 2220 07be f194 3dbd 3f5d 183d 084f a1bd
00000100: df0a c13d 4dcd 633b 8b2e 913d ef81 813d
00000110: 12f2 99bd 8449 f7bd e603 853e a092 8cbc
00000120: 5ad5 9fbd a3a9 423d 68aa 9bbd 5ded 83bd
00000130: 8d66 5bbd a6a2 f33d 48b0 a63d 2f16 99be
00000140: c307 193e 6300 0dbe 70ba 0a3e 4adb 2fbe
00000150: 2566 083d 758c 2fbd e8d5 023d 3a18 a93d
00000160: cfa2 20bd 6805 043e df76 083a 37a0 0e3e
00000170: 26f9 293d b27e 5fbd c7a4 22bd d5bb 89bd
00000180: f4ea 95bd 3da0 04be 08dd ba3d fccb 593d
00000190: 79d1 1cbe 4ac0 10bd f51f 88be 6e1a 16be
000001a0: 00bf c93d 381c 823d ee4d 3abd 0e68 3a3e
000001b0: 41e4 0bbd 8665 9fbd 9244 44be 05f9 c53e
000001c0: 5407 123d 990f 4b3e d8c4 4bbd 7a5f 9b3d
000001d0: 921a 40be 6b4a 833d ee70 0b3e b0d0 2e3d
000001e0: 7912 9cbd 0e5e 0eba 1c30 bbbd 1a71 283e
000001f0: 525e 6b3d 687d eb3d 52ff 86bc 2cdc 183a
00000200: eea9 8dbd 516c 363c 0352 b5bd 15fb f8bd
00000210: d36b a13c b8e4 d33d b9f9 7bbe a586 be3d
00000220: 6b20 233d d1f8 cebd 1979 d5bd 58d3 493c
00000230: bcd1 a1bc adf8 0dbe 288c 743d a20c 933d
00000240: c908 10be 4740 1f3d 8b3e a3bd fc5a a4bd
00000250: abf1 1ebd 113c 1f3e c28b ebbd f72d 883d
00000260: 0baa 6fbd 8034 54bd 465b fc3d dd0a 023e
00000270: 39fb d2bd 1974 97bd 8df7 f73c bef7 343d
00000280: 9a37 033d bdbe d63d 5f92 3f3e f8f1 3abe
00000290: 380d 9d3d 549e 5abd 0332 f9be d20d 3e3d
000002a0: c6b1 9cbd a256 933d 03da 89bd be62 153e
000002b0: 6424 60bd 16b5 39bd 115e 893d 2d59 dc3e
000002c0: 1f27 22be f619 0b3d b9ac f6bd 69fc 0f3e
000002d0: 04d8 67be 8388 293e 8843 033e ce20 293e
000002e0: 72cc b2bd d152 b93d 21da 76bb d2d0 893d
000002f0: bd89 8fbc 040a 263e 19a0 293e 0fdb 0e3d
00000300: 1683 0abe 398f 49bd a784 c63c ae49 303e
00000310: 7ae7 0a3e 3173 8abd 0e4a 053f feb9 d33d
00000320: 00c6 1abe c97e 06be 69f6 4a3d f6c7 5abe
00000330: 8b62 f83d 4394 a23d b152 e43d e06f e1be
00000340: 2d78 10be e816 d5bd 0532 0f3c fce4 cc3d
00000350: b219 93bc 126b b3bc 03fd de3a 3ad4 f63d
00000360: 3846 e33d a55c 3f3e 63a7 efbd fec9 0f3e
00000370: 95da 31bc 7873 e2bd eb2c 5dbd 9ca7 18be
00000380: 5779 14bb 8743 823d fa29 a53b e0d6 bc3c
00000390: d31d 3d3e 4232 8cbd efcc e33e 0258 d8bd
000003a0: 0e59 b73d da03 073e c0e1 d43d 97d9 5abd
000003b0: 23fe 493d ca03 f63b b340 56bd 64c7 5dbe
000003c0: 9d43 02be a0e5 60bd c56b ea3d c393 c03b
000003d0: cd95 9a3d 408b f6bd 36c9 3bbe e9b3 debd
000003e0: 74e5 d43d 5931 34bc 78bd ec3c b3c9 363c
000003f0: db0a 113e facb f33c 80b4 9a3d c332 873d

enc.enc_out1.bias f4 [8]
-0.14894243 -0.10942056 0.07073309 -0.016370483 -0.10200444 -0.16087909 0.19090487 0.08783801
00000000: 5d84 18be e317 e0bd 83dc 903d 641b 86bc
00000010: b4e7 d0bd 7dbd 24be 917c 433e 6ae4 b33d

enc.enc_out2.weight f4 [1, 8]
-0.27999273 -0.26044363 0.064290024 -0.28065866 -0.0006092874 -0.40770265 0.28594086 0.23987125
00000000: 355b 8fbe de58 85be 7daa 833d 7eb2 8fbe
00000010: 96b8 1fba 67be d0be d766 923e cfa0 753e

dec1.fe.FC1.weight f4 [64, 2]
0.33601108 0.46765605 -0.690309 -0.0036334302 -0.5610225 0.6245854 0.7050709 -0.340513
-0.58769256 0.20146388 0.57629806 0.2804157 -0.5015716 -0.35648042 0.15230954 -0.545533
0.68705857 0.059604768 -0.7404329 -0.26179257 0.48214388 0.16726032 0.6479424 0.022801483
-0.5938355 -0.47743806 0.47847039 0.20911069 -0.2683219 0.3568592 0.31867787 0.35233113
-0.33231074 0.4077244 0.2863927 -0.18794052 -0.325071 -0.21151792 -0.6928155 -0.4762266
-0.5085499 -0.36953425 -0.49917123 0.36079678 -0.6268688 0.46802646 0.17124401 -0.4665651
0.51105124 -0.32610154 0.3442351 0.30940574 -0.69504017 0.13661335 0.07120733 -0.20098613
-0.07083297 -0.052666917 0.0077697835 -0.0017500641 0.4813893 0.25260624 0.43264195 0.41531634
0.20137824 -0.25693098 -0.3146199 0.2153466 0.3271537 -0.41811976 0.07762925 -0.5722187
-0.58878124 0.17494076 -0.5777177 0.08084551 0.22979474 0.052233476 0.6496502 -0.036539927
0.46225682 0.16765487 -0.08244637 0.5573779 0.29529148 -0.4352191 0.52381814 0.039933495
0.21809305 -0.17100273 0.19764283 -0.19679067 0.48437804 -0.5637593 0.17358394 -0.36210984
-0.48774707 0.38180137 -0.44547662 0.23466596 -0.06265348 -0.39668426 -0.720238 0.019985648
-0.20873138 0.49010992 0.5377308 -0.41342023 -0.59637934 0.07493855 -0.64026946 0.58271503
0.68550885 -0.4306584 -0.612656 -0.3314688 0.21341641 0.21428075 -0.33712408 -0.39901093
-0.49778464 0.100101836 0.18399067 0.09417868 -0.70332664 0.027691573 0.61439604 -0.20656584
00000000: a509 ac3e 9d70 ef3e 17b8 30bf d81e 6ebb
00000010: 2c9f 0fbf d4e4 1f3f 877f 343f b857 aebe
00000020: 0573 16bf 8c4c 4e3e 4588 133f a692 8f3e
00000030: ff66 00bf 9a84 b6be 08f7 1b3e 0da8 0bbf
00000040: 12e3 2f3f 2124 743d 038d 3dbf ad09 86be
00000050: 90db f63e 4a46 2b3e 8edf 253f 2dca ba3c
00000060: 9a05 18bf c372 f4be 12fa f43e 1d21 563e
00000070: 7d61 89be 40b6 b63e bf29 a33e bf64 b43e
00000080: a224 aabe 41c1 d03e 10a2 923e 7b73 40be
00000090: b56f a6be 2798 58be 5b5c 31bf f9d3 f3be
000000a0: 5430 02bf 9833 bdbe 5f93 ffbe 5bba b83e
000000b0: 797a 20bf 2aa1 ef3e 975a 2f3e 9fe1 eebe
000000c0: 41d4 023f c8f6 a6be 953f b03e 6e6a 9e3e
000000d0: 27ee 31bf 5fe4 0b3e 26d5 913d 4fcf 4dbe
000000e0: e010 91bd 44b9 57bd ab99 fe3b 6862 e5ba
000000f0: a978 f63e 9b55 813e 3f83 dd3e 58a4 d43e
00000100: 1936 4e3e 758c 83be dc15 a1be d283 5c3e
00000110: b180 a73e cb13 d6be 16fc 9e3d ed7c 12bf
00000120: 5eba 16bf ac23 333e 4fe5 13bf 5592 a53d
00000130: 504f 6b3e c5f2 553d 7a4f 263f e4aa 15bd
00000140: edac ec3e b8ad 2b3e a4d9 a8bd 51b0 0e3f
00000150: 7230 973e 0ad5 debe f218 063f 4e91 233d
00000160: c953 5f3e 571b 2fbe e262 4a3e 7e83 49be
00000170: 6600 f83e 8852 10bf fdbf 313e 7666 b9be
00000180: fcb9 f9be 787b c33e 8315 e4be 464c 703e
00000190: 7850 80bd 331a cbbe 8461 38bf f1b8 a33c
000001a0: aebd 55be b0ef fa3e baa8 093f d1ab d3be
000001b0: 51ac 18bf 6279 993d b3e8 23bf d02c 153f
000001c0: 827d 2f3f 427f dcbe 06d7 1cbf 47b6 a9be
000001d0: d589 5a3e 6a6c 5b3e 879b acbe 294b ccbe
000001e0: a1dd febe 3102 cd3d 0d68 3c3e c0e0 c03d
000001f0: 370d 34bf 70d9 e23c 0f49 1d3f ff85 53be

dec1.fe.FC1.bias f4 [64]
0.1137919 -0.15962459 0.051040042 0.34416485 -0.07870374 0.27697337 -0.45515338 -0.091361895
-0.43411827 -0.17147529 0.13865708 0.100491874 -0.21062239 0.35992804 0.35489103 0.35704684
-0.22961512 -0.4157903 0.3296171 0.14230593 0.18875913 0.24765863 0.36701655 -0.51184714
0.1575068 0.441285 0.62496716 -0.14137867 -0.54322195 -0.002636518 -0.35430735 -0.64674115
-0.12414276 -0.42547393 -0.23181666 0.024859022 0.2951366 0.09339205 -0.77578586 0.08362641
-0.5205374 0.09395661 -0.05672994 -0.3241285 0.16200513 0.047680918 -0.47391903 -0.5097772
-0.49978402 0.3112095 0.50702435 -0.36554986 0.59170526 0.5156458 -0.100194454 -0.45876893
0.21362714 -0.5876444 -0.088387825 -0.68971705 -0.21515541 -0.052107867 -0.51289564 0.5300949
00000000: ba0b e93d a174 23be 5d0f 513d 6036 b03e
00000010: 6d2f a1bd 74cf 8d3e dd09 e9be f21b bbbd
00000020: c044 debe 3897 2fbe 1ffc 0d3e afce cd3d
00000030: 65ad 57be 7d48 b83e 47b4 b53e d8ce b63e
00000040: 3a20 6bbe 77e2 d4be 93c3 a83e a5b8 113e
00000050: 134a 413e 399a 7d3e 98e9 bb3e 6a08 03bf
00000060: 7649 213e 1cf0 e13e d9fd 1f3f 92c5 10be
00000070: 9810 0bbf 6fc9 2cbb c667 b5be d490 25bf
00000080: 8f3e febd b8d7 d9be 5961 6dbe 26a5 cb3c
00000090: 251c 973e 5544 bf3d e799 46bf 5344 ab3d
000000a0: f041 05bf 536c c03d a75d 68bd 2cf4 a5be
000000b0: ace4 253e 114d 433d 84a5 f2be c280 02bf
000000c0: b1e3 ffbe da56 9f3e 59cc 013f 5a29 bbbe
000000d0: ff79 173f 5d01 043f c032 cdbd c3e3 eabe
000000e0: 13c1 5a3e dd6f 16bf ad04 b5bd 4c91 30bf
000000f0: b351 5cbe 0f6f 55bd 214d 03bf 4db4 073f

dec1.fe.FC2.weight f4 [64, 64]
-0.0026353088 -0.0608386 0.049570266 0.01656882 -0.19073619 -0.12459627 -0.009951053 0.024257457
-0.06987508 0.013041558 0.068990834 0.0058129146 0.0040914654 -0.046974316 -0.03215022 -0.0058195437
-0.12716915 -0.136036 -0.2076725 -0.1040857 0.0009907965 0.0029181226 0.056436088 -0.08585363
-0.086068206 -0.08251208 -0.025972418 -0.11404528 -0.049596526 -0.09821829 -0.061236788 -0.13606696
-0.05418706 0.1038391 -0.12575822 -0.10047679 -0.05360765 -0.08099652 -0.43730545 -0.08064495
-0.14755093 0.030063204 -0.02779417 -0.16683057 -0.05610713 0.003289189 0.003335158 -0.080505244
0.009753535 -0.07298333 -0.109139964 -0.20480853 0.036319256 0.043137714 -0.020084174 -0.1086065
0.045958173 0.04555673 0.012390011 -0.116682604 0.025692903 -0.12254752 -0.049242824 0.052485418
0.069887854 -0.062449954 -0.061721783 0.11053172 0.00031583608 0.15349196 0.020829998 0.011793124
-0.15381052 0.034359094 0.0072761453 0.057620693 0.056535292 -0.0021055394 0.05696301 0.033571526
-0.46192998 0.056824226 -0.047064167 -0.07740732 -0.094134204 -0.047814835 -0.1579487 0.10680493
0.10408235 0.13415568 -0.11480719 -0.02458467 0.7804 -0.05216672 -0.11602478 -0.17490153
0.025784055 -0.17907853 -0.033689495 -0.109058216 -0.03787459 -0.17804949 -0.6140407 0.04612319
-0.22449255 -0.015792364 0.07171118 -0.022565 0.086899035 -0.11338186 0.106374934 -0.08386918
-0.21088184 -0.06392759 -0.10487276 -0.058397956 0.010476663 0.054534767 0.13773796 -0.6808725
0.06662602 -0.0708032 -0.03846488 0.062434115 -0.27950314 0.08113762 -0.5517184 0.049671832
-0.0839748 0.10468475 0.14456865 -0.13209192 0.34690678 -0.067129984 0.057765096 -0.09727123
-0.038258016 0.17188771 -0.0451106 -0.019186126 -0.0552566 -0.20740624 0.018010268 -0.008246813
0.19581525 -0.012733309 0.07561423 -0.04658746 -0.011468631 0.15814966 -0.03513288 -0.42179537
-0.28198054 -0.052778192 0.033857614 -0.2716888 -0.6548917 0.025739446 -0.0025666407 0.1167282
-0.29172462 0.47804302 -0.15567264 -0.030360425 0.120116495 0.060188252 0.06386998 -0.2191075
0.15994881 -0.06792469 -0.12502572 -0.031703297 -0.10479889 -0.03239238 0.050390888 0.20363148
0.5960816 -0.034250807 -0.09027726 0.32851568 0.078072816 -0.15191968 0.3240134 0.16240224
-0.2750184 0.00474796 0.04255064 -0.14751726 0.20827872 0.027890636 0.037372295 -0.1757665
0.0017122498 -0.053966817 0.05146331 -0.0843913 -0.11791188 -0.0068669925 0.037124835 0.030364675
-0.11894262 0.072977535 -0.10798239 -0.07644939 -0.12486206 -0.052694194 -0.057135664 0.07024405
-0.011342369 -0.010787987 -0.100315824 0.017422168 -0.09100296 0.017098825 -0.014341029 0.03033015
0.06830536 -0.011591862 0.033783156 -0.044679765 0.028219143 0.07573374 -0.011029965 -0.08392223
-0.066068664 0.014646656 -0.010088806 0.015877504 -0.02043516 -0.022164388 0.03953546 -0.05791608
-0.02076658 0.070029706 0.034675725 -0.13284257 -0.13312383 -0.088513784 -0.09017449 -0.068855256
-0.033701062 0.033901013 -0.14755148 -0.10962973 -0.111248255 -0.11416565 -0.037263624 0.043339785
-0.117870115 0.017358586 0.05779028 0.043708038 -0.04319486 -0.105245374 0.006118544 -0.016957577
00000000: 25b5 2cbb e531 79bd 310a 4b3d 56bb 873c
00000010: 5950 43be 542c ffbd be09 23bc 93b7 c63c
00000020: aa1a 8fbd 42ac 553c 114b 8d3d 437a be3b
00000030: b311 863b 2468 40bd f3af 03bd dfb1 bebb
00000040: a138 02be 054d 0bbe 1aa8 54be e22a d5bd
00000050: 9ddd 813a f93d 3f3b 8729 673d 07d4 afbd
00000060: 8744 b0bd 18fc a8bd 1cc4 d4bc 9290 e9bd
00000070: ba25 4bbd ac26 c9bd 6dd3 7abd 2355 0bbe
00000080: 40f3 5dbd 98a9 d43d c3c6 00be c6c6 cdbd
00000090: b293 5bbd 81e1 a5bd 80e6 dfbe 2e29 a5bd
000000a0: 9717 17be 1c47 f63c 99b0 e3bc a2d5 2abe
000000b0: 97d0 65bd 6f8f 573b ab92 5a3b efdf a4bd
000000c0: 4acd 1f3c 4978 95bd c684 dfbd 54b9 51be
000000d0: 80c3 143d 2cb1 303d 9187 a4bc 166d debd
000000e0: a33e 3c3d b299 3a3d 79ff 4a3c 4af7 eebd
000000f0: ec79 d23c 32fa fabd d8b2 49bd f3fa 563d
00000100: 5d21 8f3d 86cb 7fbd fbcf 7cbd 745e e23d
00000110: cd96 a539 ff2c 1d3e aca3 aa3c f237 413c
00000120: 8180 1dbe 1fbc 0c3d bb6c ee3b ad03 6c3d
00000130: 8d91 673d 17fd 09bb 0c52 693d 4c82 093d
00000140: 1682 ecbe 85c0 683d 5bc6 40bd bb87 9ebd
00000150: 6fc9 c0bd 7dd9 43bd 4ebd 21be 8bbc da3d
00000160: 2129 d53d 1b60 093e 0820 ebbd ca65 c9bc
00000170: 4bc8 473f c5ac 55bd 669e edbd 6319 33be
00000180: 1539 d33c 5d60 37be fffd 09bd ea59 dfbd
00000190: 6322 1bbd 9b52 36be c531 1dbf aceb 3c3d
000001a0: 60e1 65be fd5e 81bc 50dd 923d 3cda b8bc
000001b0: 1ff8 b13d c034 e8bd 1adb d93d 9bc3 abbd
000001c0: 69f1 57be 78ec 82bd 88c7 d6bd b232 6fbd
000001d0: 4fa6 2b3c d95f 5f3d 2e0b 0d3e a94d 2ebf
000001e0: 3973 883d 4501 91bd 5a8d 1dbd eaba 7f3d
000001f0: 091b 8fbe 7b2b a63d 6b3d 0dbf b174 4b3d
00000200: fbfa abbd f564 d63d ce09 143e 1b43 07be
00000210: c49d b13e 727b 89bd 189b 6c3d 2336 c7bd
00000220: 70b4 1cbd 5503 303e e4c5 38bd 392c 9dbc
00000230: bf54 62bd 4d62 54be 458a 933c a41d 07bc
00000240: cb83 483e 5e9f 50bc a2db 9a3d 7ed2 3ebd
00000250: ede6 3bbc fcf1 213e 7fe7 0fbd 90f5 d7be
00000260: c15f 90be f22d 58bd 48ae 0a3d cb1a 8bbe
00000270: fca6 27bf 88db d23c 1635 28bb 320f ef3d
00000280: ee5c 95be 0ec2 f43e a668 1fbe 6db6 f8bc
00000290: a3ff f53d f587 763d 44ce 823d b75d 60be
000002a0: 9fc9 233e 1a1c 8bbd be06 00be 51db 01bd
000002b0: cda0 d6bd dfad 04bd ad66 4e3d c584 503e
000002c0: ce98 183f 934a 0cbd 49e3 b8bd 3533 a83e
000002d0: a4e4 9f3d d590 1bbe 16e5 a53e c64c 263e
000002e0: 36cf 8cbe c694 9b3b 9449 2e3d c40e 17be
000002f0: 0447 553e e77a e43c b113 193d 22fc 33be
00000300: 926d e03a 4f0c 5dbd 31cb 523d 59d5 acbd
00000310: c97b f1bd 8204 e1bb 3610 183d 57bf f83c
00000320: 3098 f3bd 3f75 953d df25 ddbd 7f91 9cbd
00000330: aeb7 ffbd ded5 57bd 1607 6abd 1ddc 8f3d
00000340: 58d5 39bc 19c0 30bc 6272 cdbd efb8 8e3c
00000350: c35f babd d612 8c3c a3f6 6abc ef76 f83c
00000360: aee3 8b3d cbeb 3dbc 3560 0a3d 2102 37bd
00000370: d52b e73c 4b1a 9b3d 07b7 34bc 6bdf abbd
00000380: 024f 87bd 87f8 6f3c 854b 25bc 8a11 823c
00000390: a367 a7bc 1792 b5bc efef 213d 6939 6dbd
000003a0: ad1e aabc bc6b 8f3d 2208 0e3d e207 08be
000003b0: 9d51 08be b746 b5bd 67ad b8bd fc03 8dbd
000003c0: 200a 0abd cadb 0a3d bc17 17be 8d85 e0bd
000003d0: 20d6 e3bd aecf e9bd bea1 18bd 0f85 313d
000003e0: e365 f1bd 9833 8e3c 80b5 6c3d 3307 333d
000003f0: 18ed 30bd e38a d7bd 117e c83b 9eea 8abc
