Lightcode/bc/noisy/lightcode_bc_rate39_noisy_fb25.pt (torch, 175856 bytes, 38 tensors)

enc.fe.u1_FC1.weight f4 [64, 24]
0	0x3e1f64b3	0.15565757
1	0xbf2a3f75	-0.6650308
2	0x3d8be71a	0.068311885
3	0xbd4fce80	-0.050734043
4	0xbd0801c8	-0.033204824
5	0x3c0ad133	0.008472729
6	0xbd62bfce	-0.0553587
7	0xbd8aefcb	-0.06784018
8	0xbdd4de01	-0.103939064
9	0x3a491ecd	0.0007672131
10	0xbdc622dd	-0.096746184
11	0xbd1d0c67	-0.038341906
12	0xbc972e57	-0.018454714
13	0x3c1571dd	0.009121385
14	0x3af16a65	0.0018418549
15	0xbb426384	-0.0029661367
16	0x3b636bc7	0.0034701691
17	0x3f09c71e	0.53819454
18	0x3d9af55c	0.0756633
19	0x3db44ab3	0.0880331
20	0xbe8c9f43	-0.27465257
21	0xbe23ed9f	-0.16008614
22	0xbd8660c6	-0.06561427
23	0x3cb6736c	0.022271834
24	0xbe35a74b	-0.17739598
25	0xbd07b5be	-0.033132307
26	0x3d59482f	0.053047355
27	0x3cc97984	0.024594076
28	0x3c5502e9	0.013001182
29	0x3b0045b5	0.0019572799
30	0xbfcec9f3	-1.615538
31	0x3e2701da	0.163093
32	0x3de4aecf	0.111661546
33	0xbb9700df	-0.004608258
34	0x3d1b9c0c	0.037990615
35	0x3c271a06	0.010199076
36	0x3c0bd483	0.008534553
37	0xbc411c2e	-0.011786504
38	0xc009b3e6	-2.1516051
39	0xbcd1c9b9	-0.025608884
40	0xbb157680	-0.0022806227
41	0x3cce5e92	0.025191579
42	0x3b813b1e	0.003943815
43	0xbbabfd6a	-0.005248715
44	0xba1322a0	-0.00056127645
45	0xbb2d0bba	-0.0026404695
46	0xbfffe3ea	-1.9991429
47	0xbe19bf36	-0.15014347
48	0x3f26867b	0.6504895
49	0xbdc35ee8	-0.09539586
50	0x3e154d22	0.14580205
51	0x3d8e1812	0.06938185
52	0x3d0f324b	0.034960072
53	0x3dc60dee	0.096706256
54	0xbc40f77b	-0.011777754
55	0x3f8b9fff	1.0908202
56	0xbed79dfd	-0.42112723
57	0xbba2b802	-0.004965783
58	0xbeb0f2fe	-0.34560388
59	0xbe7c018c	-0.24609965
60	0xbe4446dc	-0.19167656
61	0x3dc9cafa	0.09853168
62	0xbd8a4567	-0.06751519
63	0xbf53b357	-0.82695526
64	0x3b04bd88	0.002025457
65	0x3d85c9b2	0.06532611
66	0x3b98f4e7	0.0046678665
67	0x3adadd73	0.0016698077
68	0xbc8c9e19	-0.01716523
69	0xbd61b01f	-0.055099603
70	0xbd3e4406	-0.04645159
71	0xbe33d21a	-0.17560616
72	0x3e93dab9	0.2887781
73	0x394c54fb	0.00019486614
74	0x3c81c2d4	0.015839972
75	0xbc043ac6	-0.008070653
76	0xbe074c51	-0.13212706
77	0x400c2026	2.1894622
78	0xbe9ae6aa	-0.30254108
79	0x3f44793f	0.76747507
80	0xbe40f092	-0.1884177
81	0xba9edeef	-0.0012120883
82	0xbe08a7e9	-0.13345303
83	0xbda20b37	-0.07912295
84	0x3c15006d	0.00909434
85	0xbf74fd31	-0.9569884
86	0x3ed7b8ca	0.4213317
87	0xbf2b8ca6	-0.6701149
88	0x3bb83ffc	0.005622862
89	0xbc66b76a	-0.014081815
90	0x3c1dd768	0.009633876
91	0x3a3e7359	0.0007265113
92	0x3d2bb48e	0.041920237
93	0xbeff0b84	-0.49813473
94	0xbe6ffc35	-0.23436053
95	0xbf4254d5	-0.75910693
96	0xbe7c211f	-0.2462201
97	0xbd09c641	-0.033636335
98	0xbd3269d5	-0.04355796
99	0x3c01ef13	0.007930535
100	0x3e006803	0.12539677
101	0xbfc93267	-1.5718507
102	0x3c77bce2	0.015120717
103	0xbeb4ed36	-0.35337228
104	0x3e11e525	0.14247568
105	0xbc1f612d	-0.009727758
106	0x3dfefe7d	0.124508835
107	0x3d91d60b	0.071209036
108	0xbccff5eb	-0.025385818
109	0x3e03b015	0.12860139
110	0x3c7577db	0.014982189
111	0x3e7438a0	0.23849726
112	0x3c4e316f	0.012585028
113	0x3d25b604	0.040456787
114	0x3cd11fe0	0.025527894
115	0x3c96e297	0.018418593
116	0xbcdc8f91	-0.026923927
117	0x3ffa293f	1.9543837
118	0x3e5225dd	0.20522256
119	0xbd4f017d	-0.05053853
120	0xbd53d5ab	-0.05171744
121	0xbee7009a	-0.45117646
122	0xbbc1838a	-0.0059055733
123	0x3c40befd	0.011764285
124	0xbd65b9ee	-0.05608552
125	0xbdb8670d	-0.090040304
126	0xbd6632a4	-0.05620064
127	0xbd14dbb3	-0.036342334
128	0x3d0865fb	0.03330038
129	0x3b417865	0.0029521224
130	0x3cdcc0fc	0.02694749
131	0x3c332f23	0.010936531
132	0x3cba33e4	0.022729822
133	0x3af26034	0.0018491806
134	0x3be980e3	0.00712596
135	0x3b17ea0e	0.002318028
136	0xbbdeab42	-0.006795318
137	0xbe9d5c5b	-0.30734524
138	0xbd2cc5a7	-0.042180683
139	0xbd5abad4	-0.05340083
140	0x3e06dc72	0.1317003
141	0x3d97707a	0.073945
142	0x3d2a43b8	0.041568488
143	0x3d02fa89	0.03197721
144	0xbf29e0d6	-0.663587
145	0x3ccf0590	0.025271207
146	0xbe158b4a	-0.14603916
147	0x3d51181a	0.051048376
148	0x3ccd7717	0.0250812
149	0x3cba3d0b	0.022734186
150	0xbbd4debb	-0.006496278
151	0x3ea34c30	0.31894064
152	0x3ed4039e	0.4140901
153	0x3ab47347	0.0013767265
154	0x3eb0d460	0.3453703
155	0x3e5b46a4	0.21413666
156	0x3e0c9e19	0.13732184
157	0xbde4e265	-0.11175994
158	0x3da921c5	0.08258394
159	0xbdfe891c	-0.12428495
160	0xbbcd59ea	-0.006266822
161	0xbc8588bb	-0.01630055
162	0xbb9c9dc8	-0.004779551
163	0x3b298909	0.0025869033
164	0xbccad82a	-0.024761278
165	0xbc8afc92	-0.016966138
166	0x3b9b3ed9	0.0047377166
167	0xbe0b7faf	-0.13622926
168	0xbd510a0d	-0.051034976
169	0x3c13e026	0.009025609
170	0x3d730ff6	0.059341393
171	0xbdc1b985	-0.09459213
172	0x3d0e8001	0.034790043
173	0xbc873aa7	-0.01650746
174	0xbae91bb7	-0.0017784749
175	0xbf94f8b3	-1.1638397
176	0x3d08dd6d	0.033414293
177	0xbb72162d	-0.0036939487
178	0xbc59de3a	-0.013297612
179	0x3d42678b	0.047462028
180	0x3bf1f2d2	0.0073836828
181	0xb94ea5e8	-0.00019707496
182	0x3b225838	0.002477182
183	0xbe7f5261	-0.24933769
184	0x3b3b19a6	0.0028549223
185	0xbc38ab0a	-0.011271248
186	0xbaeb3a1f	-0.0017946399
187	0x3ba6004a	0.0050659524
188	0xbc95f9b1	-0.018307539
189	0xbbd17c15	-0.0063929656
190	0x3a4a1cf7	0.00077100046
191	0xc01d0d61	-2.4539416
192	0x3e1613ae	0.14655945
193	0x3d01a8a7	0.03165498
194	0xbbb1e889	-0.0054293317
195	0xbd3adb12	-0.045619078
196	0x3d2659cf	0.040612992
197	0xbca3393d	-0.019924754
198	0x3cdd28dd	0.026997024
199	0x3c8d247d	0.017229313
200	0xbdac44ed	-0.08411584
201	0xbb0b4d16	-0.0021255664
202	0xbd55e481	-0.05221987
203	0xbc1d0523	-0.009583744
204	0xbc991044	-0.018684514
205	0x3cd249c4	0.02566994
206	0xbd00d8f5	-0.031456906
207	0xbc13f4d7	-0.009030542
208	0xbb5c58cb	-0.003362226
209	0x3ea99f8e	0.33129543
210	0x3d5db77a	0.054130055
211	0x3d8a0758	0.06739682
212	0xbe63db54	-0.22251636
213	0xbe263ba9	-0.16233696
214	0xbe07a703	-0.13247304
215	0xbcddce8c	-0.027076028
216	0xbd7cb16a	-0.061692633
217	0x3d70abb1	0.058757488
218	0x3d55bbb3	0.052180957
219	0x3d83b7aa	0.064315155
220	0xbe1a08a0	-0.15042353
221	0xbdda43a4	-0.10657433
222	0xbf05eb53	-0.523122
223	0x3d90a5ee	0.070628986
224	0xbda0d48d	-0.07853041
225	0x3c6d8bf1	0.014498697
226	0xbd5dc922	-0.054146893
227	0xbdc2ced2	-0.09512104
228	0xbc97a23d	-0.018509978
229	0xbcd7c454	-0.026338734
230	0xbec1ce12	-0.37852532
231	0xbe6659d3	-0.22495203
232	0xbc496858	-0.012292944
233	0xbcf16c71	-0.029470654
234	0x3ca9f076	0.020744544
235	0x3c1efd52	0.009703951
236	0xbc056526	-0.008141791
237	0x3dad476f	0.084608905
238	0x3f3a211b	0.72706765
239	0xbdeab068	-0.11459428
240	0x3e80aaed	0.25130406
241	0x3ee1a622	0.44072062
242	0xbda5842f	-0.08081853
243	0xbe6c9431	-0.23103406
244	0x3e8f13f1	0.27944902
245	0x3e5074e4	0.2035709
246	0x3e9fe3c6	0.31228465
247	0x3d32aa43	0.043619405
248	0xbe250191	-0.16113879
249	0x3c837d7f	0.016051052
250	0xbd67fde7	-0.056638625
251	0x3db5327f	0.08847522
252	0xbd6eeec9	-0.058333192
253	0xbd245ed5	-0.0401295
254	0x3d915328	0.07095939
255	0x3cd860d7	0.026413364

enc.fe.u1_FC1.bias f4 [64]
0	0x3e97bf4b	0.29638132
1	0xbd35699c	-0.04429017
2	0x3e7ab17a	0.24481764
3	0xbd7b25e8	-0.061315447
4	0xbe233f7a	-0.15942183
5	0xbf6fe14a	-0.9370314
6	0x3e6fceb9	0.23418702
7	0xbd58bec9	-0.052916322
8	0xbf740083	-0.9531328
9	0xbebc601c	-0.36792076
10	0xbd9c0e9f	-0.07619976
11	0xbf861215	-1.0474268
12	0x3e848304	0.25881207
13	0xba8f5837	-0.0010936324
14	0x3dc22274	0.09479228
15	0xbed132da	-0.4085911
16	0x3ebb5677	0.36589405
17	0x3e053fa4	0.13012558
18	0xbe1ac6a1	-0.15114833
19	0xbd2e5b7a	-0.042567708
20	0xbed66c98	-0.41879725
21	0xbc8734de	-0.016504701
22	0xbf8d6630	-1.104681
23	0xbe197f2c	-0.14989918
24	0xbe265950	-0.16245008
25	0x3ee25d85	0.44211975
26	0xbeaa22a4	-0.33229554
27	0xbf28fb88	-0.66008806
28	0x3eb61780	0.35564804
29	0xbed1208d	-0.40845147
30	0x3ede0ac8	0.433676
31	0xbb09e22b	-0.0021039348
32	0xbf64e9ab	-0.8941905
33	0xbebf1691	-0.37321904
34	0xbb4c5656	-0.003117939
35	0xbe9a043b	-0.30081353
36	0xba607f2d	-0.00085638725
37	0xbf2a36af	-0.6648969
38	0xbd2a2e77	-0.04154822
39	0x3e8ce913	0.27521572
40	0xbc98eee1	-0.018668594
41	0xbe759ee1	-0.23986389
42	0xbd6673ac	-0.056262657
43	0x3eac7e5e	0.3369016
44	0xbd764f48	-0.060134202
45	0x3e97a0f0	0.29614973
46	0xbefb01f3	-0.49024925
47	0xbe87f2da	-0.2655247
48	0xbe24c09c	-0.160891
49	0xbdb52579	-0.08845038
50	0xbda606af	-0.081067435
51	0xbe122ce0	-0.14274931
52	0xbda5079b	-0.08058091
53	0xbf3f822c	-0.74808
54	0xbdd0f35a	-0.102026656
55	0xbd5972dd	-0.053088058
56	0x3ebec94c	0.37262952
57	0xbed5b273	-0.41737708
58	0xbf8576d3	-1.0426887
59	0xbd33991f	-0.0438472
60	0xbd966dfc	-0.073451966
61	0xbd4afe16	-0.04955872
62	0xbd222f79	-0.039596055
63	0xbd2f14a4	-0.042744294

enc.fe.u1_FC2.weight f4 [64, 64]
0	0x3cd139f2	0.025540326
1	0xbf189cf2	-0.5961448
2	0xbf03adad	-0.51436883
3	0xc027592f	-2.6148183
4	0xbff8581f	-1.9401892
5	0x3e1e8e3d	0.15483947
6	0x3e0a7491	0.13521029
7	0xbe8ef3a8	-0.2792027
8	0x3eaabcda	0.33347207
9	0xbe705c95	-0.23472817
10	0xbcb527cc	-0.022113703
11	0xbc172e10	-0.009227291
12	0x3de0b6d9	0.109723754
13	0x3df273ec	0.118385166
14	0xbee660e3	-0.44995794
15	0x3e2046b2	0.15651968
16	0x3dab2f0b	0.08358582
17	0xbe611536	-0.21980748
18	0xbe11f360	-0.14252996
19	0x3c46f058	0.012142263
20	0x3de74ca6	0.112939164
21	0x3e264468	0.16237032
22	0xc0970b5d	-4.720137
23	0xbde118a8	-0.10991031
24	0xbafd913a	-0.0019345649
25	0xbe51e901	-0.2049904
26	0x3e2b0478	0.16700923
27	0xbecf5289	-0.40492657
28	0x3db0b0e0	0.08627486
29	0xbbf9d0cd	-0.007623768
30	0x3e08797f	0.13327597
31	0x3d3953c3	0.045245897
32	0x3daee62a	0.08539994
33	0xbdec1d1b	-0.11528989
34	0x3c73f2e1	0.01488945
35	0xbd4048ef	-0.046944555
36	0x3f005dd0	0.50143147
37	0xbeb9a587	-0.362591
38	0xbf40a4a6	-0.75251234
39	0xbe73cd68	-0.23808825
40	0xbeb5af3c	-0.35485256
41	0x3be7201b	0.007053388
42	0xc03a346f	-2.9094503
43	0x3e4e161f	0.20125626
44	0xbfd9a702	-1.7004092
45	0x3e76eb78	0.24113262
46	0xbecebf49	-0.40380314
47	0x3e07f854	0.13278323
48	0xbedb603b	-0.42846856
49	0x3d11e597	0.035619345
50	0xbf3b50af	-0.7316999
51	0x3f31abc4	0.6940272
52	0x3df75e67	0.12078553
53	0xbee6a84e	-0.4505028
54	0xbcf93868	-0.030422404
55	0xbf63bdf4	-0.8896172
56	0x3e898464	0.2685882
57	0xbe216692	-0.15761784
58	0xbede8f45	-0.4346868
59	0x3cc58e84	0.024115808
60	0xbede9ddc	-0.43479812
61	0xbed4e923	-0.4158412
62	0x3d172ca1	0.036907796
63	0xc0429022	-3.0400472
64	0x3da13ee1	0.07873321
65	0xbf358638	-0.70907927
66	0xbe19ac02	-0.15007022
67	0xbfb7d537	-1.4361943
68	0xc00d392d	-2.2066147
69	0x3df2ed11	0.11861623
70	0xbe62cd86	-0.22148713
71	0xbf607315	-0.876756
72	0x3ec9e716	0.39434117
73	0x3e453b39	0.19260873
74	0xbe6a4c54	-0.2288068
75	0xbebfce05	-0.37461868
76	0x3c8220ca	0.015884776
77	0x3daa4bee	0.08315264
78	0xbf2267ae	-0.6343945
79	0xbe20c0f1	-0.15698601
80	0xbcd9da64	-0.026593395
81	0xbc3c47a3	-0.011491689
82	0xbe219e7a	-0.1578311
83	0x3d71d0de	0.059037082
84	0x3d99be76	0.07507031
85	0x3e549e54	0.20763522
86	0xbf8172a4	-1.011311
87	0xbeaa8da3	-0.33311185
88	0xbda6325e	-0.081150755
89	0xbe58977c	-0.21151537
90	0xbf4b3995	-0.7938474
91	0xbeab6879	-0.33478144
92	0xbee9e02f	-0.4567885
93	0xbe3aad96	-0.1823028
94	0xbe20f7d8	-0.15719545
95	0xbdfa84cb	-0.122323595
96	0xbdb587eb	-0.08863815
97	0x3cc02d86	0.023459207
98	0xbb58d0fa	-0.0033083544
99	0xbe35718a	-0.17719093
100	0x3eca6159	0.39527395
101	0x3eabe717	0.33574745
102	0xbf0e423e	-0.5556983
103	0x3e05a49c	0.13051075
104	0xbf32e8f8	-0.6988673
105	0xbee14f6e	-0.44005913
106	0xbfa7e1ea	-1.3115819
107	0xbec882c4	-0.39162266
108	0xbf290d8f	-0.66036314
109	0x3d8a33b1	0.067481406
110	0xbe0a46fc	-0.13503641
111	0xbccef2e2	-0.0252623
112	0xbcca5f3d	-0.024703616
113	0xbf1e4042	-0.618168
114	0xbf1489cc	-0.5802276
115	0x3e64abe6	0.22331199
116	0x3ddd050f	0.107919805
117	0xbde26b8c	-0.11055669
118	0x3cf89f67	0.030349446
119	0xbf370b28	-0.715014
120	0x3e50071b	0.2031521
121	0xbe28790b	-0.16452424
122	0xbf0665b6	-0.5249895
123	0x3d97f0b0	0.07418954
124	0xbf3c76c0	-0.736187
125	0xbe6ebd2e	-0.23314354
126	0x3cb66e01	0.02226925
127	0xbf9febc1	-1.2493821
128	0xbebada02	-0.36494452
129	0xbd17178e	-0.036887698
130	0xbd375a36	-0.044763766
131	0xbdcecf6e	-0.10098158
132	0xbca1766f	-0.019709794
133	0x3d3078d4	0.04308398
134	0xbe05b428	-0.13057005
135	0xbe1f7758	-0.1557287
136	0x3e0427f3	0.12905864
137	0xbd379eed	-0.044829298
138	0xbe2a1eb3	-0.16613273
139	0xbdf442ec	-0.11926827
140	0xbcbc4a16	-0.022984546
141	0xbe1d9df2	-0.15392283
142	0xbd8a666d	-0.067578174
143	0xbd2c2097	-0.042023268
144	0xbd6707ac	-0.0564038
145	0xbd9cb9c4	-0.076526195
146	0xbd7517af	-0.05983704
147	0x3d5e121c	0.05421649
148	0xbed0b793	-0.40765056
149	0xbe1d43a8	-0.1535784
150	0xbafd7feb	-0.0019340491
151	0xbe166f0c	-0.14690799
152	0x3e081a27	0.13291226
153	0xbe15e33d	-0.14637466
154	0xbe287595	-0.16451104
155	0xbd79f351	-0.06102306
156	0xbf001499	-0.5003143
157	0xbd958635	-0.073009886
158	0x3e02e58f	0.12782882
159	0xbd9183b3	-0.07105198
160	0xbe5ab91f	-0.2135968
161	0xbd7f19ce	-0.06228047
162	0xbd869d0e	-0.065729246
163	0xbddf8688	-0.10914332
164	0xbe46c820	-0.19412279
165	0x3d8719e9	0.06596739
166	0xbe14c243	-0.1452723
167	0xbdcfbf01	-0.10143853
168	0xbd91e509	-0.07123763
169	0xbd0e4c1a	-0.034740545
170	0xbe6f2eaf	-0.23357652
171	0xbe50cc8a	-0.20390525
172	0xbda56fcc	-0.08077964
173	0xbd810f9a	-0.06301804
174	0xbddac34c	-0.10681781
175	0xbe10a08f	-0.14123748
176	0xbd54d9e4	-0.05196561
177	0x3d4bdd92	0.049771853
178	0xbd86eb8a	-0.06587894
179	0xbe880245	-0.26564232
180	0xbf07fa8a	-0.5311667
181	0x3d05d2df	0.032671805
182	0xbe0f5ebd	-0.14000984
183	0xbdc17c0e	-0.0944749
184	0x3d07f48b	0.0331922
185	0xbb0a0b0c	-0.0021063713
186	0x3e4aaa88	0.19791615
187	0xb8f11eff	-0.00011497549
188	0xbe0d82e7	-0.13819467
189	0xbe8a24a4	-0.2698108
190	0x3cddbb52	0.02706686
191	0xbe2469b9	-0.16055955
192	0xbe83fb67	-0.25777742
193	0x3cf41999	0.029797362
194	0xbfcf2405	-1.6182867
195	0x3dca5335	0.09879152
196	0x3c3e4d7c	0.011615153
197	0xbde80beb	-0.11330398
198	0x3f1acc89	0.60468346
199	0xc01f9cd0	-2.493946
200	0x3ee6c881	0.45074847
201	0x3cb274e9	0.021784263
202	0xbd160409	-0.036624942
203	0x3e0d141f	0.13777207
204	0x3ed79642	0.42106825
205	0x3d8d05c5	0.06885866
206	0xbe0a199f	-0.13486336
207	0xbe3bfbd9	-0.18357791
208	0xbe832313	-0.25612697
209	0x3e8bb565	0.2728683
210	0xbdb58a28	-0.08864242
211	0xbb0ccd0b	-0.002148452
212	0x3c14eec5	0.00909013
213	0xc007e806	-2.1235366
214	0xc0aa47b3	-5.3212523
215	0xbcf4b382	-0.029870752
216	0xbdba0d3d	-0.09084556
217	0xbee76de9	-0.45201042
218	0x3dd03785	0.101668395
219	0xbf499e29	-0.7875696
220	0xbdc5c878	-0.09657377
221	0x3e962795	0.29327074
222	0xbda34b57	-0.07973354
223	0x3b220308	0.0024721045
224	0xbe9c798b	-0.3056148
225	0xbd85d766	-0.065352246
226	0x3b327d61	0.0027235376
227	0x3e0c0859	0.1367506
228	0x3ef32676	0.4749028
229	0xbddc8327	-0.10767203
230	0x3c15f6e4	0.009153102
231	0xbebe9391	-0.3722196
232	0x3d30bebc	0.04315065
233	0x3f7bf356	0.98418176
234	0xba1addca	-0.0005907683
235	0x3f000631	0.5000945
236	0xbbd878b9	-0.006606188
237	0x3ea37496	0.31924886
238	0xbe192c08	-0.14958203
239	0x3da0f347	0.078589015
240	0x3d0cdcb0	0.03439015
241	0x3cf8eab6	0.030385356
242	0xc021bdd6	-2.5272117
243	0xbe5f94dc	-0.21834129
244	0x3d31f8ec	0.04345028
245	0xbd840d72	-0.06447877
246	0x3e150cce	0.14555666
247	0x3b14825c	0.0022660708
248	0xbdcc9226	-0.09988813
249	0xbdcea0c8	-0.1008926
250	0xbe7e303a	-0.24823084
251	0xbb613d02	-0.003436864
252	0xbe9f698a	-0.31135207
253	0xbee66627	-0.4499981
254	0x3a7863b2	0.0009475305
255	0xbba44a54	-0.0050137434

enc.fe.u1_FC2.bias f4 [64]
0	0xbd7fef24	-0.06248392
1	0x3d7dd14b	0.061967175
2	0xbe83cfec	-0.2574457
3	0x3dbd5512	0.092447415
4	0xbf02b9f5	-0.51065
5	0xbea5e6dd	-0.32402697
6	0xbe46cd19	-0.19414176
7	0xbecdaf96	-0.40173024
8	0x3e398640	0.18117619
9	0xbdc0f365	-0.09421424
10	0x3f07100e	0.5275887
11	0xbe3158fc	-0.17319101
12	0xbe0b4ad2	-0.1360276
13	0xbe17693f	-0.14786242
14	0xbed4e97e	-0.4158439
15	0xbdaf9832	-0.08573951
16	0xbed5e4f0	-0.41776228
17	0xbc23693a	-0.009973818
18	0xbe20d530	-0.15706325
19	0x3d6953ae	0.05696457
20	0xbe306cb0	-0.17228961
21	0xbe321705	-0.17391594
22	0xbdab4557	-0.08362835
23	0xbe65e969	-0.2245232
24	0xbba40cac	-0.0050063934
25	0xbdc3c8f0	-0.0955981
26	0xbc44d900	-0.012014627
27	0xbe383e3e	-0.17992494
28	0xbe3a27d3	-0.18179254
29	0xbda08250	-0.07837355
30	0x3e89b626	0.2689678
31	0xbe34f401	-0.17671205
32	0xbe3403f1	-0.17579629
33	0xbd9c4332	-0.07630004
34	0x3e287de6	0.16454276
35	0xbdabfb50	-0.083975434
36	0xbdfa7816	-0.12229936
37	0x3bb837ae	0.005621872
38	0xbe1b6aa3	-0.15177397
39	0xbe86f231	-0.26356652
40	0xbde85c8f	-0.11345779
41	0xbe25c071	-0.16186692
42	0xbf0c01df	-0.54690355
43	0xbd95fa20	-0.07323098
44	0x3eb423e7	0.3518364
45	0xbe2440bd	-0.1604032
46	0xbc2a36d3	-0.010389048
47	0xbc9f792c	-0.019466959
48	0xbd632d1b	-0.055462938
49	0xbda22319	-0.079168506
50	0xbde1ba59	-0.11021871
51	0xbe27bd4a	-0.16380802
52	0xbe914d91	-0.2837949
53	0x3dc941aa	0.098269776
54	0xbd89fc2d	-0.06737552
55	0xbdff1728	-0.124555886
56	0xbe5b00ed	-0.21387072
57	0xbe889ef2	-0.26683766
58	0xbeb0be4a	-0.3452018
59	0x3e357202	0.17719272
60	0xbebe2a3d	-0.371416
61	0xbb4761ae	-0.0030423212
62	0x3e291ff7	0.165161
63	0x40168bc9	2.3522818

enc.fe.u1_FC3.weight f4 [64, 64]
0	0xbe85eb47	-0.26156065
1	0x3f0adffb	0.5424802
2	0xbd5164a1	-0.051121358
3	0xbebfcd0a	-0.3746112
4	0x3f1b9527	0.60774463
5	0xbeaa7aae	-0.33296722
6	0xbd12d428	-0.03584686
7	0x3ea1d280	0.3160591
8	0x3d121695	0.035666067
9	0x3e41f7a4	0.18942124
10	0xbdd1395f	-0.10216021
11	0x3e833737	0.25628063
12	0xbce966a6	-0.02849133
13	0xbd8cbb12	-0.06871618
14	0xbe9dddfb	-0.3083342
15	0xbd3342ce	-0.04376488
16	0xbd1e9543	-0.038716566
17	0x3c50a7b6	0.012735298
18	0x3ce253a9	0.027627783
19	0xbe8cea23	-0.27522382
20	0x3dea4485	0.1143885
21	0xbd37e910	-0.0449
22	0xbf06322c	-0.52420306
23	0x3e73e2f4	0.23817044
24	0x3f106778	0.5640788
25	0x3d9e2af6	0.07723038
26	0x3e3b4f65	0.18292005
27	0x3e2fde1b	0.1717457
28	0x3f16810a	0.5879065
29	0x3d8dd802	0.06925966
30	0x3e892786	0.26787966
31	0xbdb74622	-0.08948924
32	0x3f67782b	0.90417737
33	0x3d671c63	0.056423556
34	0x3ef1cc3a	0.47226125
35	0xbd0d5164	-0.03450145
36	0x3f06c083	0.526375
37	0x3e907793	0.28216228
38	0xbd12cfdc	-0.03584276
39	0xbd386caa	-0.045025505
40	0xbe5ed52e	-0.21761009
41	0x3a8e7b60	0.0010870509
42	0xbd0da489	-0.03458074
43	0x3e538494	0.20656043
44	0xbda2ebb2	-0.079551116
45	0x3c154179	0.009109848
46	0xbe83f566	-0.25773162
47	0xbe883f9f	-0.2661104
48	0xbd2a9830	-0.041649044
49	0x3cb4af68	0.022056296
50	0x3f03ab06	0.51432836
51	0xbe27bd3e	-0.16380784
52	0xbe05fc2e	-0.1308448
53	0x3d5775e0	0.05260265
54	0xbaf0206d	-0.001832021
55	0x3c8b6e60	0.017020404
56	0x3d49816e	0.0491957
57	0x3f35b316	0.7097639
58	0xbe9055f8	-0.2819059
59	0xbdf3f891	-0.11912645
60	0xbf177ada	-0.5917183
61	0xbe192b86	-0.14958009
62	0x3e93138b	0.28725848
63	0x3e3fa15e	0.187139
64	0x3eadad36	0.33921212
65	0x3d816930	0.06318891
66	0x3d031c6e	0.032009535
67	0x3e2a365b	0.16622297
68	0xbd25f4ff	-0.04051685
69	0x3ee39f3f	0.44457433
70	0x3d70a083	0.058746826
71	0xbec8ed72	-0.39243656
72	0xbd5e5def	-0.0542888
73	0xbec29605	-0.3800508
74	0x3da0075a	0.07813902
75	0xbd567aca	-0.052363195
76	0xbed33f19	-0.41259077
77	0x3e404d1e	0.18779418
78	0xbd84263b	-0.064526044
79	0xbacf5bf0	-0.0015820246
80	0x3e2ba757	0.16763054
81	0x3d16dd52	0.03683216
82	0x3d22c30d	0.039736796
83	0x3f867458	1.0504255
84	0xbd8734b5	-0.0660185
85	0xbd5ecffc	-0.054397568
86	0xbf024f6b	-0.5090243
87	0xbd173dde	-0.036924236
88	0xbee0915c	-0.438609
89	0x3dfcf5f1	0.12351597
90	0xbe8d328d	-0.2757763
91	0xbf25a96c	-0.6471164
92	0xbe7fb02e	-0.24969551
93	0x3d41d150	0.047318757
94	0x3d2d7175	0.04234453
95	0x3d8fb2b8	0.0701651
96	0xbe8a91d9	-0.27064398
97	0xbd9856a7	-0.074384026
98	0xbdd8dc3c	-0.105888814
99	0xbbc2ee86	-0.0059488444
100	0xbc8d3b53	-0.017240202
101	0xbf6dd2a8	-0.9289956
102	0x3dc9b5d9	0.09849138
103	0x3cb72833	0.022358036
104	0xbf1f8996	-0.62319314
105	0xbd4da9ef	-0.05021089
106	0x3b1698cf	0.0022979265
107	0x3c836e26	0.016043734
108	0x3c9e7fad	0.01934799
109	0x3e109827	0.14120542
110	0x3e2328a9	0.1593348
111	0x3e59139e	0.2119889
112	0x3f3d48a0	0.7393894
113	0x3d12f676	0.035879575
114	0xbeae17f9	-0.34002665
115	0xbd1081fc	-0.035280213
116	0xbe10fd37	-0.14159094
117	0x3e0c4d85	0.13701446
118	0xbd864a3f	-0.0655713
119	0x3dfa0c26	0.122093484
120	0x3b610590	0.003433559
121	0xbb9b7355	-0.0047439733
122	0xbccf41b0	-0.025299877
123	0x3f281aff	0.6566619
124	0x3e02fac5	0.12790973
125	0xbf32911c	-0.6975267
126	0xbdb240dd	-0.08703778
127	0xbe0cc698	-0.13747633
128	0x3c8991a2	0.016793076
129	0xbf0d2c2e	-0.5514554
130	0xbd73634c	-0.05942087
131	0x3e5d066a	0.21584478
132	0xbcff36b3	-0.031154012
133	0x3e8152f9	0.25258616
134	0x3d8be283	0.06830313
135	0xbd92ef6e	-0.07174574
136	0x3e0e05da	0.1386942
137	0xbe695380	-0.22785759
138	0xbdf61203	-0.12015154
139	0xbeb833c3	-0.3597699
140	0xbe1ba15e	-0.15198275
141	0x3e2e97fd	0.17050166
142	0x3dbe28f6	0.092851564
143	0xbc68ea07	-0.014215953
144	0x3d567a49	0.052362714
145	0x3e3b81dc	0.18311256
146	0xba83708f	-0.0010028052
147	0xbe2dde78	-0.16979396
148	0xbe0420e0	-0.12903166
149	0xbe0159ff	-0.12631987
150	0x3ed2fc0c	0.41207922
151	0xbe53ce1e	-0.20684096
152	0xbe403d4b	-0.18773381
153	0xbe46a24f	-0.19397853
154	0xbd1b5e3b	-0.037931662
155	0xbd0cf0c0	-0.034409285
156	0x3db6ee9d	0.089322306
157	0x3d4c1d08	0.049832374
158	0xbec7918a	-0.38978225
159	0xbd116511	-0.035496775
160	0xbd996303	-0.07489588
161	0x3d03296e	0.032021932
162	0xbe9cb610	-0.30607653
163	0x3dc684a5	0.09693269
164	0xbde631bd	-0.112399556
165	0xbe7203ed	-0.2363431
166	0xbd557b40	-0.052119493
167	0xbb71b7f3	-0.0036883324
168	0x3d91a9d4	0.0711247
169	0x3d681d8c	0.056668803
170	0x3d8757df	0.06608557
171	0xbd8c3c81	-0.06847478
172	0xbdd6dd6c	-0.104914516
173	0x3d0cdbba	0.034389235
174	0x3e7b0b92	0.24516132
175	0x3d22e283	0.0397668
176	0x3e85adc9	0.2610915
177	0x3d5e3bde	0.054256313
178	0x3e3654ce	0.17805788
179	0x3eae189b	0.34003147
180	0x3e0ca5da	0.13735142
181	0xbf10f9b5	-0.5663102
182	0xbdb2f9cc	-0.08739051
183	0x3e03f90c	0.12887973
184	0x3d29f127	0.041489746
185	0x3e6e2486	0.2325612
186	0x3e71fdad	0.23631926
187	0x3d454e7f	0.048170563
188	0x3d4c81ac	0.049928352
189	0x3e201c6d	0.15635844
190	0xbea446bd	-0.3208522
191	0xbee83cd2	-0.45358902
192	0xbe49d420	-0.19709826
193	0xbe8f6f06	-0.28014392
194	0x3cf6344d	0.030054236
195	0x3d22a45e	0.039707534
196	0x3e24804b	0.16064565
197	0xbf83f2d4	-1.030848
198	0x3c654437	0.0139933145
199	0x3e74b78a	0.2389814
200	0x3db2e660	0.08735347
201	0xbdbc2c75	-0.09188167
202	0xbd698952	-0.057015724
203	0xbf21c36d	-0.6318882
204	0xbe5823c2	-0.2110739
205	0x3e275e2f	0.16344522
206	0x3e588bc5	0.21147068
207	0xbd20e1ae	-0.039277725
208	0xbe0dcf4f	-0.13848613
209	0x3e82a219	0.25514296
210	0xbb391922	-0.002824374
211	0xbd84d37d	-0.06485651
212	0xbcff3fce	-0.031158354
213	0xbdcb825c	-0.099369735
214	0x3e532a59	0.20621623
215	0xbd998ad0	-0.074971795
216	0xbe211606	-0.15731058
217	0xbd4f976f	-0.050681528
218	0xbd3fd891	-0.046837393
219	0x3ce79aa1	0.028271975
220	0x3e3d62ed	0.18494768
221	0x3dc18f75	0.094511904
222	0xbec9238a	-0.39284927
223	0xbdf5b4bf	-0.11997365
224	0x3d1148ce	0.035469823
225	0xbcd24ea5	-0.025672266
226	0xbe723ba9	-0.23655571
227	0xbd1ebffc	-0.03875731
228	0x3ce23b1f	0.027616082
229	0xbe81aaf5	-0.25325742
230	0x3c197401	0.009366036
231	0x3d0a572e	0.033774547
232	0x3e3af31a	0.18256798
233	0xbe21682c	-0.15762395
234	0x3e76fc44	0.24119669
235	0xbe04eb14	-0.129803
236	0x3c42af93	0.0118826805
237	0x3dc3f4d6	0.09568183
238	0x3d799eac	0.060942337
239	0x3e433c4f	0.19065975
240	0x3ecf5c86	0.40500277
241	0x3c4dc8dd	0.012560097
242	0x3e9993d8	0.29995608
243	0x3f01d19e	0.50710475
244	0x3dda516c	0.10660061
245	0xbeeae164	-0.45875084
246	0xbd1d39c1	-0.038385157
247	0x3e82c8d9	0.2554386
248	0xbbfd07b8	-0.0077218674
249	0x3e769af4	0.24082547
250	0x3e021426	0.12702999
251	0x3d634fa4	0.055495873
252	0xbd8f54bb	-0.06998583
253	0x3e30c9db	0.17264502
254	0xbe8cf67b	-0.275318
255	0xbf0fab1e	-0.5612048

enc.fe.u1_FC3.bias f4 [64]
0	0x3f2b1f9e	0.6684512
1	0xbe85a60f	-0.26103255
2	0xbfe95f72	-1.8232253
3	0xbfe9db58	-1.8270063
4	0x3fe655b3	1.7994903
5	0xbcb22f85	-0.021751175
6	0x3eea9a42	0.45820814
7	0xbe66883f	-0.22512911
8	0xbf1056b5	-0.56382304
9	0xbf47bb6f	-0.78020376
10	0x3f3fe53a	0.74959147
11	0x3f4b7e76	0.7948984
12	0xbefde77c	-0.4959067
13	0x3e7b2a06	0.2452775
14	0xbe9b7076	-0.30359238
15	0x3fad488c	1.3537765
16	0x3fbcc8fe	1.4748838
17	0xbf87c3ea	-1.0606663
18	0xbd905bf5	-0.070487894
19	0x3e7df215	0.24799378
20	0xbfa688b7	-1.3010472
21	0x3e39a02f	0.18127511
22	0x3e9169e7	0.2840111
23	0xbd2cd754	-0.04219754
24	0xbf8c679f	-1.0969123
25	0xbff2c2e2	-1.8965724
26	0xbef997e6	-0.48748702
27	0xbfa8e12b	-1.3193716
28	0xbfb640b9	-1.4238502
29	0x3f25ecd5	0.648145
30	0xbf488912	-0.7833415
31	0xbdad5954	-0.084643036
32	0xbf014c3b	-0.50506943
33	0xbcee6025	-0.02909858
34	0xbe9e332b	-0.30898413
35	0x3efd9366	0.4952652
36	0xbf8faadb	-1.1224016
37	0xbeac45ca	-0.33646995
38	0xbea2b0ad	-0.31775418
39	0xbefab849	-0.48968723
40	0x3ea72389	0.326443
41	0xbf373ec3	-0.7158014
42	0x3ecd6f52	0.40123993
43	0xbfbb1814	-1.4616723
44	0x3eb36ed1	0.35045484
45	0x3e57ded0	0.2108109
46	0xbf7749ae	-0.965968
47	0x3e9be166	0.30445403
48	0x3ec262be	0.3796596
49	0xbf02c6ae	-0.5108441
50	0xbedd3c56	-0.43210095
51	0xbe46849f	-0.19386528
52	0x3fe9c725	1.8263899
53	0x3e114372	0.14185885
54	0xbf45c70c	-0.77256846
55	0x3f4730d5	0.77808887
56	0xbe82a99f	-0.25520036
57	0xbf064c56	-0.5246023
58	0x3fab8866	1.3401
59	0x3fce17c2	1.6101
60	0x3fd01b3b	1.625831
61	0xbfe1c7c1	-1.7639085
62	0x3dd6c93b	0.104876004
63	0xbe27d0fd	-0.16388316

enc.fe.u1_FC4.weight f4 [32, 128]
0	0xbf321396	-0.69561136
1	0x3eca529c	0.3951615
2	0x3f7818f9	0.96913105
3	0x3f31b2a2	0.694132
4	0xbf7f67cb	-0.9976775
5	0xbd44ba1e	-0.048029058
6	0xbebedf21	-0.3727961
7	0xbe00f7dd	-0.12594552
8	0xbd77e7aa	-0.060523666
9	0x3e45f2fd	0.19330974
10	0xbe8707f3	-0.26373252
11	0xbef9fbe8	-0.48825002
12	0x3eae3574	0.34025156
13	0xbdececa1	-0.11568571
14	0x3e606290	0.21912599
15	0xbf40f9df	-0.75381273
16	0xbf111c1c	-0.56683517
17	0x3eb732c4	0.3578092
18	0xbe144385	-0.14478882
19	0x3d97f4ee	0.074197635
20	0x3f0042e9	0.50102097
21	0xbc148707	-0.009065396
22	0xbdd9d490	-0.10636246
23	0xbcb107fd	-0.021610254
24	0x3ea9be43	0.3315297
25	0x3f8afe1a	1.0858796
26	0x3efe6452	0.49685913
27	0x3f0082d6	0.5019964
28	0x3f65ffb2	0.89843285
29	0xbee79d3e	-0.45237154
30	0x3ef2b661	0.4740477
31	0x3e78641f	0.24256943
32	0x3f2746d9	0.6534248
33	0x3d76b49f	0.060230847
34	0x3e61eb71	0.2206247
35	0xbeb93389	-0.3617213
36	0x3ee3a8e9	0.44464806
37	0x3e6ccc56	0.23124823
38	0x3e77b47f	0.24189948
39	0x3e332470	0.17494369
40	0xbe5dcfb3	-0.21661262
41	0x3ee0695d	0.43830386
42	0xbdb20423	-0.08692195
43	0x3f21b110	0.631608
44	0xbce5e00b	-0.028060934
45	0xbe06179e	-0.13094947
46	0x3f0c458f	0.5479364
47	0xbddbcff6	-0.10733025
48	0xbe9d00d0	-0.30664682
49	0x3ed8271e	0.42217344
50	0x3e044623	0.1291738
51	0x3e39f834	0.18161088
52	0xbf5c337b	-0.8601605
53	0xbf0c19e9	-0.54727036
54	0x3ee3629b	0.44411168
55	0xbec36162	-0.38160235
56	0x3e7fd982	0.24985316
57	0x3f00ce31	0.50314623
58	0xbf4fa51c	-0.8111131
59	0xbf8d5228	-1.1040697
60	0xbf1a87d1	-0.6036349
61	0x3f78b686	0.9715351
62	0xbb8191cf	-0.0039541493
63	0xbe28654e	-0.16444895
64	0x3e5ce229	0.21570648
65	0xbe062400	-0.1309967
66	0x3f288322	0.6582509
67	0x3ecee5d6	0.40409726
68	0xbe12838a	-0.1430799
69	0xbeaaaffa	-0.33337384
70	0x3cb2f1e1	0.021843852
71	0xbe643bbd	-0.22288413
72	0xbe0bdb03	-0.13657765
73	0xbe825060	-0.25451946
74	0x3e185a07	0.14878093
75	0xbe8433b6	-0.25820702
76	0x3e22791a	0.15866509
77	0xbd274ccc	-0.040844724
78	0x3ee789af	0.45222232
79	0xbde5f567	-0.112284474
80	0x3de4833c	0.111578435
81	0x3e0d6c85	0.13810928
82	0x3c94404c	0.018097065
83	0x3c15ba90	0.009138718
84	0xbdecf25c	-0.11569664
85	0x3f0980fe	0.5371245
86	0xbe6545bc	-0.22389883
87	0x3dff7005	0.12472538
88	0x3e569c47	0.20958053
89	0x3f2050b9	0.62623173
90	0xbd74b06f	-0.059738573
91	0xbe8faede	-0.280631
92	0x3f0e195c	0.55507445
93	0xbe60d7e1	-0.21957351
94	0x3e0811e7	0.13288079
95	0xbb4dcd6b	-0.0031402956
96	0xbe5ff4e4	-0.21870762
97	0x3e38e795	0.18057092
98	0x3db9a720	0.0906508
99	0xbd9370cf	-0.07199251
100	0xbdeb4860	-0.11488414
101	0xbdc2f073	-0.09518518
102	0xbd7ec23e	-0.062196963
103	0x3ef0700e	0.4696049
104	0x3e228ee8	0.15874827
105	0x3ef6ad20	0.4817896
106	0x3d061156	0.032731377
107	0x3de94c3a	0.11391492
108	0x3b9b6115	0.0047417977
109	0x3d6d6769	0.057959948
110	0xbeb15666	-0.3463623
111	0x3d3ec804	0.04657747
112	0x3e92588d	0.28583184
113	0xbdff3c2d	-0.124626495
114	0x3d353311	0.044238154
115	0x3ca9a11b	0.020706704
116	0xbdc71397	-0.09720533
117	0xbeba8db8	-0.36436248
118	0xbe61c18c	-0.22046489
119	0xbe4c6713	-0.19961195
120	0x3e05a01d	0.1304936
121	0xbe07e3b3	-0.13270454
122	0xbf274ec9	-0.6535459
123	0xbabb5e6e	-0.001429511
124	0x3f2a817f	0.66603845
125	0x3e761a61	0.240335
126	0x3d3e331d	0.046435464
127	0x3de6b9cd	0.112659074
128	0xbdbd8318	-0.0925352
129	0x3e07cc8d	0.13261624
130	0xbc9fbab0	-0.0194982
131	0xbdd32177	-0.10309117
132	0xbe1dc50e	-0.15407202
133	0xbdd6df1a	-0.10491772
134	0xbd810c3d	-0.063011624
135	0xbeb10cd5	-0.34580103
136	0xbc2a9133	-0.010410595
137	0x3c993fb3	0.018707132
138	0xba8a501c	-0.0010552439
139	0x3cc4beb3	0.024016714
140	0x3b2f3b5f	0.0026738269
141	0xbc5497bd	-0.01297563
142	0xbd52481c	-0.0513383
143	0xbd2b4f91	-0.041823927
144	0xbd46b686	-0.04851391
145	0x3d3c8b0d	0.046031047
146	0x3e2923be	0.16517541
147	0x3d29e806	0.04148104
148	0x3daf6759	0.08564634
149	0xbd9c47d4	-0.07630888
150	0xbe20103b	-0.15631191
151	0xbc887735	-0.016658405
152	0xbd8a34f6	-0.06748383
153	0xbb949f5a	-0.0045355977
154	0x3daf2209	0.085514136
155	0x3cef279b	0.02919369
156	0x3d61fcf8	0.05517289
157	0x3dc415b6	0.095744535
158	0x3e2651c7	0.16242133
159	0x3e1859f7	0.14878069
160	0xbc961ddf	-0.01832479
161	0xbd3510e1	-0.04420555
162	0x3d0e6113	0.034760546
163	0xbdad316f	-0.08456694
164	0xbc1de37f	-0.009636759
165	0x3c659a2b	0.014013807
166	0xbd433cb8	-0.047665328
167	0x3d7b2e00	0.061323166
168	0x3dca3901	0.09874154
169	0x3d752494	0.059849337
170	0x3d38459a	0.044988252
171	0xbdb062ed	-0.086126186
172	0x3d453de9	0.048154745
173	0x3db25101	0.087068565
174	0x3d20aade	0.03922545
175	0x3df7c832	0.12098731
176	0x3d15642d	0.03647249
177	0xbe007b39	-0.12547006
178	0xbd8e138f	-0.06937324
179	0x3e0f6adc	0.14005607
180	0x3d370433	0.04468174
181	0xbe222b4f	-0.15836833
182	0x3c98f3a1	0.018670859
183	0x3ce7f4b5	0.028314928
184	0xbd3e028f	-0.04638916
185	0x3e6988fa	0.22806159
186	0x3bdacce5	0.0066772574
187	0xbe62133d	-0.22077651
188	0x3dce3820	0.10069299
189	0x3d37e0ca	0.04489211
190	0xbdb02e9b	-0.08602639
191	0xbdab06c0	-0.08350897
192	0xbdfadbd2	-0.12248959
193	0xbd69ac8a	-0.05704931
194	0xba15382a	-0.0005692268
195	0xbe01785e	-0.12643573
196	0xbdf2a4bc	-0.11847827
197	0x3d7d638f	0.061862525
198	0xbe27e603	-0.16396336
199	0xbd696e70	-0.056990087
200	0xbcb25a0f	-0.021771459
201	0x3cd39e6b	0.025832376
202	0xbd3b47c4	-0.045722738
203	0x3cc07267	0.023492051
204	0x3dc48e1e	0.09597419
205	0x3d024554	0.031804398
206	0xbd3cdf98	-0.046111673
207	0xbc2f739a	-0.010708714
208	0x3e62f628	0.22164214
209	0xbd49a1b7	-0.04922649
210	0xbd86cd5d	-0.06582139
211	0x3b3e93b2	0.0029079732
212	0x3d42bc8c	0.047543094
213	0x3d507c82	0.05089999
214	0xbce5e30a	-0.028062362
215	0xbdde2e96	-0.10848729
216	0xbde35b89	-0.11101443
217	0x3dd99c40	0.106255054
218	0x3e1c8c5b	0.15287916
219	0xbbc59a7f	-0.0060303803
220	0x3d33e62d	0.043920685
221	0xbc952df8	-0.018210396
222	0x3cd1cf94	0.025611676
223	0x3d38e4f8	0.045140237
224	0x3da85ac5	0.08220438
225	0x3dac0693	0.083996914
226	0x3c6feb35	0.01464348
227	0xbdc7cfc6	-0.097564265
228	0x3d76c91b	0.060250383
229	0x3c879aa6	0.016553234
230	0xbd3c24e3	-0.045933615
231	0xbcb33bb8	-0.021879062
232	0x3d18be30	0.037290752
233	0xbdad9f13	-0.084776066
234	0x3c9da249	0.019242423
235	0x3df0f448	0.11765343
236	0xbd2603c2	-0.040530927
237	0x3e15b431	0.14619519
238	0x3d812303	0.06305506
239	0xbcfdbd06	-0.030973922
240	0xbbbf8ec2	-0.0058458755
241	0xbc2713f8	-0.010197632
242	0x3bdd0207	0.0067446264
243	0x3db4bb3c	0.088247746
244	0x3dc9f855	0.09861819
245	0xbd76d0c6	-0.060257696
246	0x3d5728c8	0.052529126
247	0x3d423b83	0.047420036
248	0xbe019516	-0.12654528
249	0xbd6389ed	-0.05555146
250	0x3b771030	0.0037698857
251	0xbcd8cd28	-0.026465014
252	0x3e0ecd22	0.1394544
253	0x3d53770d	0.051627208
254	0xbde2e454	-0.110787064
255	0xbd1a525f	-0.03767621

enc.fe.u1_FC4.bias f4 [32]
0	0xbf935f3b	-1.1513437
1	0xbea0cc57	-0.314059
2	0x3fa24e7f	1.2680205
3	0x3faf8e95	1.3715388
4	0xbe5b00bd	-0.21387
5	0xbfaee0d2	-1.366236
6	0xbf3e72aa	-0.74393713
7	0x3e89a6dd	0.2688512
8	0x3b5be886	0.0033555343
9	0xbe36a8c2	-0.17837813
10	0xbf1c1476	-0.6096872
11	0x3f04b493	0.51838034
12	0xbe664c20	-0.22489977
13	0xbe5d5f81	-0.21618463
14	0xbf68fd4d	-0.91011506
15	0x3de32ab7	0.110921316
16	0x3fa2c6ab	1.2716879
17	0x3ea0ea36	0.3142869
18	0x3e115d8e	0.14195845
19	0xbe2d9299	-0.16950454
20	0x3e2dc773	0.16970615
21	0xbdd1d174	-0.10245028
22	0xbf224d8c	-0.6339958
23	0xbe2afd5e	-0.16698214
24	0x3fdab2d0	1.7085819
25	0xbe2079a7	-0.15671407
26	0x3e714f46	0.23565397
27	0x3e96cc47	0.29452726
28	0xbeae90b2	-0.3409477
29	0x3e67def8	0.2264365
30	0xbe48bc56	-0.19603094
31	0xbe8716eb	-0.26384673

enc.norm.weight f4 [32]
0	0xb7f8b23a	-2.9646897e-05
1	0x3dde7ee2	0.10864045
2	0x38c61abb	9.446355e-05
3	0xb87946fd	-5.943234e-05
4	0x3da9f1d1	0.08298076
5	0xb8a67242	-7.936779e-05
6	0x3ed2367c	0.41057193
7	0x3f350138	0.70704985
8	0x3f35aeda	0.7096993
9	0xb7c621cf	-2.3619183e-05
10	0x38c3f64a	9.3441995e-05
11	0x38c0dca3	9.19637e-05
12	0x3c83e465	0.016100118
13	0x3f8eb182	1.1147921
14	0xba8bd3e2	-0.0010668004
15	0x3a0b8333	0.00053219794
16	0x3eec05f9	0.46098307
17	0x3822aa59	3.878246e-05
18	0x3f25768b	0.6463401
19	0x3f944c3a	1.1585763
20	0x3fad3461	1.353161
21	0x3f143f51	0.57909113
22	0xb7aa5445	-2.030482e-05
23	0x38139acc	3.5191697e-05
24	0x3d0e4cd3	0.034741234
25	0x3f318c8e	0.69355094
26	0x3f235a71	0.6380988
27	0x3f467fff	0.77539057
28	0xbbdfb482	-0.006826938
29	0xb7ec74ee	-2.8187842e-05
30	0x3e00172d	0.12508841
31	0x38af771d	8.366837e-05

enc.norm.bias f4 [32]
0	0x3e2ea93c	0.17056745
1	0xbd852d4b	-0.065027796
2	0x3d560bef	0.052257475
3	0x3c81e42a	0.015855867
4	0xbe2136d6	-0.15743575
5	0x3e13e64f	0.14443325
6	0x3d25dce6	0.04049387
7	0x3d3453f0	0.04402536
8	0x39bd46da	0.00036101678
9	0x3c870395	0.0164812
10	0x3dedd93d	0.116137005
11	0xbd8dee84	-0.06930259
12	0x3cb421bc	0.021988742
13	0xbdf9174f	-0.12162649
14	0x3e11f984	0.14255339
15	0x3d159d4e	0.03652697
16	0x3c57dc22	0.013175042
17	0xbdddba85	-0.108265914
18	0x3be52614	0.0069930647
19	0x3cf76156	0.03019778
20	0x3df769a3	0.120806955
21	0xbd39b561	-0.045338992
22	0x3e177812	0.14791897
23	0x3dbc12bd	0.091832615
24	0xbda6bf29	-0.0814193
25	0x3d5df9f5	0.054193456
26	0xbcd2adb0	-0.025717586
27	0xbda797c1	-0.08183242
28	0x3d911504	0.070840865
29	0xbd23b877	-0.03997084
30	0xbd8cebea	-0.068809345
31	0xbde5ff4c	-0.11230335

enc.enc_out1.weight f4 [8, 32]
0	0xbcf8a8e2	-0.030353967
1	0xbcafccd5	-0.021459976
2	0xbd8a2899	-0.06746025
3	0x3ba25f66	0.00495522
4	0xbd8394b5	-0.06424848
5	0xbd418945	-0.04725005
6	0x3dcbd1fe	0.09952162
7	0x3dfdd9ce	0.123950586
8	0x3d5d11b3	0.053971957
9	0x3c195c91	0.009360448
10	0x3e007c0e	0.12547323
11	0xbc3cc52b	-0.011521618
12	0xbd1d80a6	-0.038452767
13	0xbe8889b7	-0.26667568
14	0xba09fe91	-0.00052640686
15	0xbe053c31	-0.13011242
16	0xbd08012e	-0.03320425
17	0x3de23b51	0.1104647
18	0x3d9ba9b0	0.07600725
19	0xbe8b7536	-0.27237862
20	0x3f035047	0.5129437
21	0x3d053ec8	0.032530576
22	0xbd806f21	-0.06271196
23	0x3dc8bc24	0.0980151
24	0x3d3ba64a	0.045812882
25	0xbc779eae	-0.015113516
26	0x3da85da4	0.082209855
27	0xbe0fc0c7	-0.14038382
28	0x3dd658f2	0.10466184
29	0xbd63f494	-0.05565317
30	0x3bc5ee56	0.0060403747
31	0x3c8d66a1	0.017260851
32	0xbdd7ecff	-0.1054325
33	0xbd50be31	-0.05096263
34	0x3b949f25	0.004535573
35	0x3db1ed19	0.08687801
36	0x3d7ea838	0.062172145
37	0xbd42e5a5	-0.047582287
38	0xb9a1c3d3	-0.00030854213
39	0x3ddf16a7	0.108929925
40	0x3e543eb4	0.20727044
41	0xbd3fcbd2	-0.046825238
42	0x3d327c74	0.04357572
43	0xbdb3a09d	-0.08770869
44	0xbda19ef4	-0.07891646
45	0xbec8ee37	-0.39244244
46	0xbab1d87f	-0.0013568549
47	0xbdf85a15	-0.12126557
48	0xbdc64c8a	-0.096825674
49	0xbc9c4f78	-0.019080862
50	0x3e6b5a77	0.22983728
51	0xbed6500a	-0.4185794
52	0x3f318ef4	0.69358754
53	0x3bdfce19	0.0068299887
54	0xbde2e051	-0.11077941
55	0x3d4b37fa	0.04961393
56	0xbdbf2194	-0.093325764
57	0x3d091abd	0.033472765
58	0xbcd50760	-0.026004493
59	0xbdc09df3	-0.094051264
60	0x3bc6621d	0.0060541765
61	0xbd76ac6d	-0.06022303
62	0xbc326981	-0.010889412
63	0x3cb3ba61	0.021939458
64	0x3d745cbf	0.059658762
65	0xbd914d7a	-0.070948556
66	0xbd49846c	-0.049198553
67	0xbd9de6b1	-0.077100165
68	0xbd9eff63	-0.07763555
69	0xbd8a06a2	-0.06739546
70	0x3d072bc3	0.03300072
71	0x3da64080	0.08117771
72	0x3bdbddb3	0.006709778
73	0xbcf723cc	-0.030168436
74	0x3ccc4a2c	0.024937712
75	0x3d6949a5	0.056955
76	0xbda4707c	-0.08029267
77	0xbea486dc	-0.3213414
78	0xbce628af	-0.028095571
79	0xbc53d8db	-0.01293012
80	0xbd32db93	-0.043666434
81	0xbd32e609	-0.04367641
82	0x3da6abad	0.08138213
83	0xbee14c4d	-0.44003525
84	0x3f3ef1f5	0.7458795
85	0x3c815aee	0.015790429
86	0x3d9b3364	0.07578161
87	0xbd559a60	-0.052149177
88	0xbdada0ad	-0.08477912
89	0xbe1bf96f	-0.1523187
90	0x3db1dc85	0.08684639
91	0xbe7ca8ce	-0.24673769
92	0xbd801f16	-0.06255929
93	0x3d7402d7	0.05957302
94	0xbde1489a	-0.11000176
95	0xbd7f86a2	-0.062384255
96	0xbd558799	-0.05213127
97	0x3dac466e	0.08411871
98	0x3d676b7f	0.056499
99	0x3debbfc3	0.11511185
100	0x3b80af9e	0.003927185
101	0xbd8ba7ad	-0.06819091
102	0x3b52c93b	0.00321634
103	0xbe00035e	-0.12501284
104	0xbd3b0ba4	-0.0456654
105	0xbdf071c5	-0.1174045
106	0xbd65ac8b	-0.056072753
107	0xbc57ee83	-0.013179424
108	0x3d713ead	0.058897663
109	0x3ee5df1c	0.4489678
110	0x3deb9164	0.115023404
111	0x3cdd4a1a	0.027012873
112	0x3d52ff57	0.051513042
113	0xbdb19793	-0.086714886
114	0xbd871299	-0.06595344
115	0x3edc62d2	0.43044144
116	0xbf357206	-0.7087711
117	0xbdc35601	-0.09537888
118	0x3d883154	0.066500336
119	0xbda04445	-0.078255214
120	0xbd2cc0eb	-0.04217617
121	0xbd00fd18	-0.03149137
122	0xbe008d19	-0.12553824
123	0x3e90a27c	0.28248966
124	0xbdbfab17	-0.09358805
125	0x3c85601d	0.016281182
126	0x3df9ab6a	0.12190898
127	0x3da27433	0.079323195
128	0x3d5390b7	0.051651683
129	0xbd502fb6	-0.05082675
130	0xbd4dc177	-0.05023333
131	0x3d58041a	0.052738287
132	0x3d8f7651	0.07004989
133	0xbd69e746	-0.057105325
134	0xbd35856d	-0.044316698
135	0xbdd17f14	-0.10229316
136	0xbd9459c6	-0.072436854
137	0xbdc433b5	-0.09580175
138	0xbcd926f0	-0.026507825
139	0xbcf4dad1	-0.029889496
140	0xbe0a706b	-0.13519447
141	0x3ef2e8fa	0.47443372
142	0xbcf460a5	-0.02983124
143	0xbca59e34	-0.020217039
144	0x3deb9164	0.115023404
145	0x3d8ecadb	0.06972285
146	0xbd9f53ca	-0.07779653
147	0x3f111acb	0.5668151
148	0xbf379849	-0.71716744
149	0xbdf77b07	-0.120840125
150	0xbdd1e827	-0.10249358
151	0xbc80bfad	-0.015716398
152	0xbc95d6f3	-0.018290972
153	0x3e21e892	0.15811375
154	0xbda1a674	-0.078930765
155	0x3e04819f	0.12940072
156	0x3d3ae870	0.045631826
157	0xbd8f1b04	-0.06987575
158	0x3dafe18e	0.08587943
159	0x3d44f6a1	0.048086766
160	0xbd55103b	-0.05201743
161	0xbd8685c7	-0.06568485
162	0xbd528134	-0.05139275
163	0xbde1ef38	-0.110319555
164	0xbd6d2f11	-0.057906214
165	0xbbb87263	-0.0056288703
166	0xbe31aeca	-0.17351833
167	0xbdb60ace	-0.088887796
168	0xbe2ea52b	-0.17055194
169	0x3dcc4dd6	0.099757835
170	0x3e056816	0.13027987
171	0x3d0a1837	0.0337145
172	0x3b902bff	0.004399776
173	0x3efa8fd4	0.48937857
174	0xbd4aeaf1	-0.049540464
175	0xbd8db5ea	-0.06919463
176	0x3d85a4a0	0.0652554
177	0xbcb0f2e5	-0.021600196
178	0xbd91e255	-0.071232475
179	0x3f0c750e	0.5486611
180	0xbf3377be	-0.7010459
181	0xbd4beffc	-0.049789414
182	0x3c303f4a	0.010757277
183	0x3dbf99c8	0.09355503
184	0x3d91a69d	0.07111857
185	0x3e3c6f66	0.1840187
186	0xbd99ecd1	-0.07515872
187	0x3e0c4abe	0.13700387
188	0xbc31c53f	-0.01085025
189	0x3d8c9b60	0.06865573
190	0xbda207f7	-0.079116754
191	0xbdc6b10e	-0.09701739
192	0x3d75f705	0.06005003
193	0x3d1a95f0	0.037740648
194	0x3d5b7081	0.05357409
195	0xbdf72e8d	-0.12069426
196	0x3d091392	0.03346593
197	0xbd03d659	-0.03218684
198	0xbd6ab63f	-0.05730271
199	0x3ca87ba1	0.020566763
200	0xbca88e86	-0.020575773
201	0x3d76ca88	0.060251743
202	0x3e3af6d7	0.18258224
203	0xbdb880e0	-0.09008956
204	0xbcf1c84e	-0.029514458
205	0x3d937fd3	0.07202115
206	0xbcd47b6f	-0.025937764
207	0x3d9863cf	0.07440912
208	0x3c9c0fcd	0.019050503
209	0xbd2296ab	-0.03969447
210	0xb9933b79	-0.00028082335
211	0x3d91b715	0.07114998
212	0xbd5b3e19	-0.053526018
213	0x3ce4e717	0.027942223
214	0xbe04338a	-0.12910286
215	0xbc0c0747	-0.008546657
216	0xbccf6931	-0.025318714
217	0x3cfda87d	0.03096413
218	0xbd52d6e0	-0.051474452
219	0xbc909085	-0.017647037
220	0xbb24b616	-0.0025132946
221	0xbe115858	-0.14193857
222	0xbdce84cd	-0.100839235
223	0x3d12e456	0.03586229
224	0x3d759dbc	0.05996488
225	0x3d3f2912	0.046670027
226	0x3dc23ecc	0.09484634
227	0xbc8e43cd	-0.017366314
228	0x3d80e80d	0.0629426
229	0x3d8f5e0a	0.070003584
230	0xbe1bbff6	-0.15209946
231	0xbe2697db	-0.16268866
232	0xbd19d4a2	-0.037556298
233	0x3c60c4b5	0.013718774
234	0xbdcc7ac6	-0.09984355
235	0xbd6a1998	-0.057153314
236	0x3cb41048	0.02198042
237	0x3ed11fe7	0.40844652
238	0xbd94a24f	-0.072575204
239	0xbd58d48e	-0.052937083
240	0xbb9d2583	-0.0047957315
241	0xbdac3ff8	-0.084106386
242	0xbe2fcc5b	-0.17167799
243	0x3f00b8f5	0.5028222
244	0xbf1d3ea7	-0.61423725
245	0x3d90a7c1	0.070632465
246	0x3d699655	0.057028133
247	0xbe01ae61	-0.12664177
248	0xbc1d4f4f	-0.009601428
249	0x3dd84640	0.10560274
250	0x3d7cf2a1	0.061754826
251	0x3e540af2	0.207073
252	0xbdfb5957	-0.122728996
253	0xbd819ba9	-0.06328518
254	0xbda475dc	-0.080302924
255	0xbda013cb	-0.07816275

enc.enc_out1.bias f4 [8]
0	0x3c005eaf	0.007835074
1	0xbdd7a913	-0.10530295
2	0x3de3d77b	0.11125084
3	0xbda301f6	-0.079593584
4	0xbd8c46fb	-0.06849476
5	0xbe455b45	-0.19273098
6	0x3ddb68f8	0.107133806
7	0x3da44223	0.08020427

enc.enc_out2.weight f4 [1, 8]
0	0xbb1d7de8	-0.0024031345
1	0xbe5779cc	-0.21042556
2	0xbe6e0b5f	-0.23246525
3	0x3e573403	0.21015935
4	0x3e9037f4	0.2816769
5	0x3eac0c4f	0.3360314
6	0x3a242174	0.00062610884
7	0x3dc085a5	0.09400491

dec1.fe.FC1.weight f4 [64, 8]
0	0xbf138c1c	-0.57635665
1	0xbeaf3d6b	-0.34226546
2	0xbe4a8c34	-0.19780046
3	0xbe0f1435	-0.13972552
4	0x3dbaf2d1	0.09128345
5	0xbd8f8fc1	-0.07009841
6	0x3d8cdc59	0.068779655
7	0xbc545a0e	-0.012960924
8	0x3f0529a7	0.5201668
9	0x3ea5c0cf	0.32373664
10	0x3e50551b	0.20344965
11	0x3e0bfbdf	0.136703
12	0xbdbd8217	-0.09253328
13	0x3d88c05c	0.06677315
14	0xbd3a62dc	-0.045504436
15	0x3cbcceec	0.023047887
16	0x3dac2c7a	0.08406921
17	0x3d408283	0.046999466
18	0x3c99fdfe	0.01879787
19	0x3d2c4bc0	0.04206443
20	0xbd097b95	-0.033565123
21	0x3b9fcaca	0.0048764693
22	0x3d397747	0.045279767
23	0x3da4cb64	0.08046606
24	0xbf16e612	-0.5894481
25	0xbebc59d7	-0.36787292
26	0xbe61b870	-0.22043014
27	0xbe154ac7	-0.14579307
28	0x3dc6dad6	0.097097084
29	0xbda6ec24	-0.08150509
30	0x3d5c27bd	0.053748835
31	0xbd5eec60	-0.054424644
32	0x3dd584fa	0.10425754
33	0x3c410829	0.011781731
34	0xbe1b6560	-0.1517539
35	0xbe0a8ce6	-0.13530311
36	0x3dad5b8a	0.08464725
37	0xbd81a502	-0.06330301
38	0x3d0e273d	0.03470539
39	0xbcffe599	-0.03123741
40	0xbf02bab9	-0.51066166
41	0xbe927d38	-0.2861116
42	0xbe3471ea	-0.1762158
43	0xbe065a15	-0.13120301
44	0x3d9a67d1	0.07539333
45	0xbd616fac	-0.05503814
46	0x3d18f7df	0.037345763
47	0xbd0624b6	-0.032749854
48	0x3e00d7be	0.12582299
49	0x3dc450e5	0.09585742
50	0x3dba3382	0.090918556
51	0x3da20c6f	0.07912528
52	0xbd6c6a61	-0.05771864
53	0x3cea71c0	0.028618693
54	0x3beb8c0f	0.007188327
55	0xbb290480	-0.0025790036
56	0x3b9a710f	0.0047131847
57	0x3b5dde75	0.0033854519
58	0x3bbeb548	0.0058199503
59	0x3ba07832	0.004897141
60	0x3ccc25a9	0.024920302
61	0x3e294c8b	0.16533105
62	0xbe0250e4	-0.1272617
63	0x3d17937c	0.037005886
64	0xbd48dad8	-0.04903683
65	0x3e2b2aaf	0.16715501
66	0x3de599e8	0.11210996
67	0x3db699cb	0.089160524
68	0xbd359a17	-0.044336405
69	0x3d1b892f	0.037972625
70	0xbcc7af41	-0.02437556
71	0x3c0296ab	0.007970492
72	0xbf0599aa	-0.521876
73	0xbeadd983	-0.3395501
74	0xbe47d6e3	-0.19515567
75	0xbe0af8bd	-0.13571449
76	0x3db727d1	0.08943141
77	0xbd8cbffa	-0.06872554
78	0x3c1a63d3	0.009423214
79	0xbb45b0ba	-0.0030165152
80	0x3dfe682a	0.124222115
81	0x3d0850cb	0.033280175
82	0xbe0a98f9	-0.13534917
83	0xbdf42d0b	-0.11922654
84	0x3db05855	0.08610598
85	0xbd5ff8f2	-0.054680772
86	0x3d125181	0.03572226
87	0xbca7198e	-0.020397928
88	0xbeb1ab8b	-0.3470119
89	0xbe7fc8ee	-0.24978992
90	0xbe749e82	-0.23888591
91	0xbe17c50c	-0.14821261
92	0x3dd65607	0.10465627
93	0xbda519ae	-0.08061539
94	0x3d8e8745	0.06959394
95	0xbb9e8322	-0.0048374096
96	0x3ec5abe7	0.38607714
97	0x3e3d90f0	0.1851232
98	0x3dc1a6db	0.09455653
99	0x3d9052f1	0.0704707
100	0xbcfe4e99	-0.031043338
101	0x3cdbb3f7	0.026819212
102	0xbc499ed0	-0.01230593
103	0x3d871270	0.065953135
104	0xbe05c39c	-0.130629
105	0xbdb6a4c0	-0.08918142
106	0xbd8fcb70	-0.070212245
107	0xbcd2584a	-0.025676865
108	0xbde664bd	-0.11249683
109	0x3d9b291e	0.07576202
110	0xbcf45add	-0.029828483
111	0x3c5da687	0.013528473
112	0xbef50784	-0.47857296
113	0xbe519454	-0.20466739
114	0xbdddf774	-0.108382136
115	0xbdbb921c	-0.091587275
116	0x3d3b2e0a	0.045698203
117	0xbd6c82a5	-0.05774178
118	0x3ca49659	0.020091223
119	0xbca0451c	-0.019564204
120	0x3f0e62c1	0.55619437
121	0x3ea014ea	0.31265956
122	0x3e4568b1	0.19278218
123	0x3e06ec95	0.13176186
124	0xbe31cd72	-0.17363527
125	0x3e02b009	0.12762465
126	0xbcc5f69e	-0.024165448
127	0xbbb8264c	-0.0056197997
128	0xbcea7017	-0.028617902
129	0xbd231027	-0.039810326
130	0xbca2fcdc	-0.019895963
131	0xbc23c5f0	-0.009995922
132	0x3c73c064	0.0148774125
133	0x3dd25a64	0.10271147
134	0xbc48c431	-0.012253807
135	0x3e749270	0.23883986
136	0x3c21b6bd	0.009870228
137	0x3bae1452	0.005312481
138	0x3b1331c4	0.0022460083
139	0x3af0e3e9	0.0018378469
140	0x3b4913ef	0.0030682047
141	0xbce0753c	-0.027399652
142	0xbe71901e	-0.23590133
143	0x3e375042	0.1790171
144	0x3cd2febf	0.025756238
145	0x3d2904ea	0.041264452
146	0xbc3858a2	-0.0112516
147	0x3cd1e556	0.025622051
148	0x3d5d5b35	0.05404206
149	0xbd7fa489	-0.062412772
150	0x3b846ee6	0.0040415404
151	0x3d19a555	0.03751119
152	0xbef5ed6c	-0.480327
153	0xbea682b5	-0.32521597
154	0xbe5e5908	-0.2171365
155	0xbe0edd2a	-0.13951555
156	0x3dd5350f	0.10410511
157	0xbd936f38	-0.07198948
158	0x3d4f3d9f	0.050595876
159	0xbcf09000	-0.02936554
160	0xbee70270	-0.45119047
161	0xbe8c6cf1	-0.27426866
162	0xbe271de1	-0.16319992
163	0xbdead682	-0.11466695
164	0x3d8ec060	0.06970286
165	0xbd8198cf	-0.06327974
166	0x3d37f7bd	0.044913996
167	0xbd57632c	-0.052584812
168	0xbdd1dca5	-0.10247163
169	0xbdd90f83	-0.10598662
170	0xbc2fe36b	-0.010735373
171	0xbd06a9e3	-0.03287686
172	0x3d41917d	0.04725789
173	0xbd77e4ac	-0.060520813
174	0x3c614c1a	0.013751054
175	0xbd385d6c	-0.04501097
176	0x3ef2e3fa	0.47439557
177	0x3e978e94	0.29600966
178	0x3e60b6f9	0.21944799
179	0x3e2c3ccf	0.16820072
180	0xbdd5cddd	-0.10439656
181	0x3d9932bd	0.07480381
182	0xbd1d0f4f	-0.038344678
183	0x3cfd89a2	0.030949418
184	0xbead96bd	-0.33904067
185	0xbe46c61e	-0.19411513
186	0xbe028a58	-0.12748086
187	0xbd1302f3	-0.035891484
188	0xbd2f3974	-0.0427794
189	0x3d2539fd	0.040338505
190	0x3ba9e952	0.0051852847
191	0xbc32d9c4	-0.010916177
192	0x3bc3d3b6	0.0059761656
193	0x3d682bff	0.056682583
194	0xbde41bbd	-0.11138103
195	0x3d328452	0.04358322
196	0xbcaef185	-0.0213554
197	0xbc4f900d	-0.012668622
198	0x3a999b80	0.0011719316
199	0xbc094416	-0.008378049
200	0xbba33adf	-0.004981383
201	0x3b9b810f	0.0047456096
202	0xbc1edc37	-0.009696058
203	0xba48a5bc	-0.0007654091
204	0x3b56c200	0.0032769442
205	0xbd85b642	-0.065289035
206	0xbb98fee1	-0.004669056
207	0xbe43a748	-0.19106781
208	0xbef01357	-0.46889755
209	0xbe940f91	-0.28918126
210	0xbdb5b7aa	-0.08872922
211	0xbdc141e7	-0.09436398
212	0x3d850de7	0.06496792
213	0xbd2e37d8	-0.042533726
214	0x3cf78bb6	0.030217987
215	0xbcd495c4	-0.02595032
216	0xbc902bef	-0.017599074
217	0x3d9ebd02	0.07750894
218	0x3d4ae6ce	0.04953652
219	0xbd21c1a5	-0.039491314
220	0xbd3a22d6	-0.04544338
221	0x3ca22466	0.019792747
222	0xbcfd145d	-0.030893499
223	0x3c910dbf	0.01770675
224	0xbf20cf63	-0.62816447
225	0xbec82783	-0.39092645
226	0xbe708f77	-0.23492227
227	0xbe230704	-0.15920645
228	0x3ddfad06	0.109216735
229	0xbd97eb5e	-0.074179396
230	0x3d5e65db	0.054296356
231	0xbd17faae	-0.0371043
232	0x3ece8c2d	0.4034132
233	0x3e86a86f	0.2630038
234	0x3e35e47f	0.17762946
235	0x3dfd4710	0.1236707
236	0xbd982444	-0.07428792
237	0x3d025967	0.031823542
238	0xbd4c409c	-0.049866304
239	0x3c9efcd1	0.019407662
240	0xbd8f32b6	-0.06992094
241	0xbd03c5b6	-0.032170974
242	0x3dcb25f6	0.0991935
243	0x3e0a847c	0.13527101
244	0xbdb756a3	-0.089520715
245	0x3d11af99	0.035567854
246	0xbce2eff3	-0.027702307
247	0x3c181c4a	0.009284088
248	0x3eb43c9c	0.3520249
249	0x3e617ef1	0.2202108
250	0x3e129d61	0.14317848
251	0x3dd8d5f8	0.10587686
252	0xbd9170fa	-0.07101627
253	0x3d58badf	0.05291259
254	0xbd15f2da	-0.036608554
255	0x3d2837c7	0.04106882

dec1.fe.FC1.bias f4 [64]
0	0xbe97add6	-0.29624814
1	0xbe979fc9	-0.29614094
2	0xbe97fc01	-0.2968445
3	0xbeb7c680	-0.3589363
4	0xbe06e72e	-0.13174126
5	0xbea32cd8	-0.3187015
6	0x3f112cfd	0.5670927
7	0xbedf7246	-0.4364187
8	0xbdb61936	-0.08891527
9	0xbe973347	-0.2953131
10	0x3e8df8cb	0.27728876
11	0xbde550d5	-0.11197058
12	0xbd06649b	-0.03281079
13	0x3f125808	0.57165575
14	0x3dc4995f	0.09599566
15	0xbe02e76c	-0.12783593
16	0xbedd4e64	-0.4322387
17	0xbeb16533	-0.3464752
18	0x3f05e9bb	0.5230977
19	0xbedade11	-0.42747548
20	0xbf0612a9	-0.52372223
21	0x3f1b3f10	0.606431
22	0xbebbdb20	-0.36690617
23	0x3e1548d9	0.1457857
24	0xbcd01e4f	-0.025405077
25	0xbedfc5a7	-0.43705484
26	0xbd98dba5	-0.07463769
27	0xbe2f5f35	-0.17126162
28	0xbeb0b1d0	-0.3451066
29	0xbedea861	-0.43487838
30	0xbeaba9dd	-0.33528033
31	0xbedf5354	-0.43618262
32	0xbce3cf49	-0.027808802
33	0xbe995b21	-0.29952338
34	0xbe547b3c	-0.20750135
35	0xbdf4802c	-0.11938509
36	0xbe956819	-0.29180983
37	0xbeb039ab	-0.34418997
38	0xbf085953	-0.532613
39	0x3ebce5e4	0.36894143
40	0xbeaf9fe2	-0.34301668
41	0xbed39c6d	-0.4133028
42	0xbdc10ce0	-0.09426284
43	0xbee9e54b	-0.4568275
44	0xbe5495d6	-0.20760283
45	0xbeb78a3f	-0.3584766
46	0xbcb1fb56	-0.021726292
47	0x3ed7ccdb	0.4214848
48	0xbec9856f	-0.39359614
49	0x3d8885dc	0.06666157
50	0x3d7d3a08	0.06182292
51	0x3f0b18f4	0.5433495
52	0xbeaf4e29	-0.3423932
53	0xbe6831f3	-0.22675304
54	0xbee47413	-0.44619808
55	0xbebcb5e0	-0.3685751
56	0x3dd1cc0e	0.102439985
57	0xbf0a75e6	-0.5408615
58	0x3f1ee335	0.6206544
59	0xbecdda53	-0.4020563
60	0xbe92870a	-0.28618652
61	0xbe9983bf	-0.29983327
62	0xbef3c61c	-0.47612083
63	0xbe545f79	-0.20739545
