Lightcode/bc/noisy/lightcode_bc_rate39_noisy_fb30.pt (torch, 175856 bytes, 38 tensors)

enc.fe.u1_FC1.weight f4 [64, 24]
000000 f8 53 1e 3e c1 1e 28 bf 61 55 9b 3d 48 e2 46 bd
       0.15461719 -0.65671927 0.07584644 -0.048555642
000010 29 8a 24 bd 0a 4f d8 3b 89 81 74 bd ad 72 82 bd
       -0.040170822 0.006601219 -0.059693847 -0.06369529
000020 16 6d f8 bd 9a 9d db 3b d2 35 c2 bd 4f b7 0f bd
       -0.121301815 0.006702137 -0.09482922 -0.035086926
000030 32 05 bb bc 8a 77 02 3c c8 cc 4e 39 cc 46 a4 ba
       -0.022829626 0.007963071 0.00019721978 -0.0012533306
000040 d9 f3 ed 3b bc 01 0e 3f 90 de 9b 3d a7 77 a8 3d
       0.007261735 0.55471396 0.0761081 0.08225947
000050 1c 6c 8d be 2d e1 2b be 11 b5 91 bd ee 89 81 3c
       -0.27621543 -0.16785116 -0.07114614 0.01581284
000060 b2 db 51 be 5f e5 03 bd 72 2d 61 3d 9d 5f ea 3c
       -0.20493963 -0.032201167 0.05497498 0.028610045
000070 73 04 d4 3b 02 aa 62 bc a3 99 ce bf 35 a9 6f 3e
       0.006470257 -0.013834478 -1.6140636 0.23404391
000080 68 d6 07 3e 33 a5 2f 3c a0 07 31 3d 12 5e cf 3a
       0.13265383 0.010720539 0.043220162 0.0015820882
000090 17 b1 fc 3b 6e d8 1e 3c c2 83 06 c0 92 34 1c bd
       0.0077115404 0.009695156 -2.1017919 -0.038136072
0000a0 b8 62 08 3b 4e 8c d6 3b 4a e9 ad 3b 0b bb f6 bb
       0.0020810794 0.0065474873 0.0053073512 -0.0075296215
0000b0 83 49 da 3b 9e 89 de 3b 3b 37 01 c0 d7 b8 5a be
       0.0066615953 0.0067913076 -2.018996 -0.21359573
0000c0 ce e2 20 3f 66 ab c1 bd fb 84 15 3e 0e 62 b2 3d
       0.62846076 -0.0945652 0.1460151 0.08710109
0000d0 7d 46 24 3d d8 a7 c4 3d c3 3e 83 3c 5b d8 6f 3f
       0.040106285 0.09602326 0.016021138 0.9368951
0000e0 ad 6d e9 be 9e 95 9b 3a 67 3c b3 be f6 5c 89 be
       -0.45591488 0.0011870151 -0.3500702 -0.26828736
0000f0 36 1d 34 be f7 25 ab 3d db 24 88 bd c8 92 4b bf
       -0.17589268 0.083568506 -0.066476546 -0.79520845
000100 42 7b 80 3a b9 43 7e 3d d3 72 1f b9 b4 9d 57 3b
       0.0009802359 0.062076304 -0.00015206197 0.0032900395
000110 c3 d1 4f bc ee 7e 64 bd 12 c4 41 bd 0c 2a 3f be
       -0.012684288 -0.055785112 -0.047306128 -0.18668383
000120 aa bb 8f 3e 35 1d c0 bb cc 3e 0f 3d d8 e3 ab 3b
       0.28072864 -0.0058628567 0.034971997 0.005245667
000130 27 c1 0a be 13 37 08 40 93 78 76 be 95 cc 36 3f
       -0.13550244 2.1283615 -0.24069433 0.7140592
000140 ff f6 5a be c5 a7 de 3c 77 fd 1f be dc b1 5e bd
       -0.21383284 0.027179608 -0.15624033 -0.05436884
000150 3a e8 93 bc b3 77 78 bf c5 61 c9 3e 37 4e 17 bf
       -0.01805507 -0.97057647 0.39332405 -0.5910372
000160 d9 7b 54 bb ba 54 0c bd 72 96 37 3c b1 c6 47 bd
       -0.0032422452 -0.03426049 0.011205303 -0.04877347
000170 76 a7 b0 3d c8 4d f3 be d4 76 7c be b8 9c 3d bf
       0.08625691 -0.4752028 -0.24654704 -0.7406726
000180 9e 66 77 be aa a8 03 bd 37 91 8e bd eb 0d a9 3b
       -0.24160239 -0.032143272 -0.06961291 0.00515913
000190 c9 ec e3 3d 8b 76 c3 bf 6c a2 3f bd c7 88 c7 be
       0.111291476 -1.5270551 -0.046785757 -0.3897154
0001a0 e8 f6 3d 3e e9 e0 fc bc 85 a9 e3 3d 23 ac e6 3d
       0.18551219 -0.030868964 0.11116318 0.11263301
0001b0 0e 93 88 bd 63 76 0e 3e 3f 85 ef 3c 4a c2 78 3e
       -0.066686735 0.13912348 0.029238341 0.24292865
0001c0 f0 6e 96 3c 8f 55 c8 3c 7d 1d 11 3d 59 91 55 3c
       0.018363446 0.02445486 0.035428513 0.013035142
0001d0 8c e1 5c bd ea b6 e7 3f 01 53 2f 3e 94 b0 d9 bd
       -0.053926036 1.8102696 0.17121507 -0.10629383
0001e0 92 dd 31 bd 50 d9 f5 be 7f eb 6f bc 74 7c c9 bb
       -0.043424197 -0.4801736 -0.014643549 -0.006148869
0001f0 5b 65 ed bc 64 a0 9a bd 71 fa 64 bd 9a 06 d4 bc
       -0.028978994 -0.07550123 -0.055902902 -0.025882054
000200 7a 21 1f 3d 07 2e fb 3b f1 56 17 3d d8 f3 e3 3c
       0.038850285 0.007665399 0.03694815 0.027826235
000210 1a 17 a7 3c cc 81 87 bb 6f ae 88 3b d7 e1 f1 ba
       0.020396758 -0.004135346 0.0041711847 -0.0018454146
000220 c3 59 5d bc 26 90 9d be bc 07 2b bd 6c 06 47 bd
       -0.01351017 -0.3077404 -0.041755423 -0.04859011
000230 bd 49 08 3e c6 7c 99 3d 10 43 3c 3d c9 68 ce 3c
       0.13309379 0.07494502 0.045962393 0.02519645
000240 34 4b 21 bf 64 a2 15 3d 93 f7 0d be 99 1c 62 3d
       -0.63005376 0.03653182 -0.13863973 0.055203054
000250 e9 99 21 3d f1 03 11 3d 8d 19 d0 bc ab 30 8d 3e
       0.03945342 0.03540415 -0.025402809 0.27576193
000260 37 62 e9 3e d1 ad a1 3a 26 5a b4 3e e2 c1 41 3e
       0.45582744 0.0012335127 0.35225028 0.18921617
000270 64 5d f2 3d a0 30 bd bd d8 c2 8d 3d 81 c6 ff bd
       0.11834219 -0.0923779 0.06921929 -0.124890335
000280 bb c8 8c 3b 07 64 d2 bc f6 96 63 bb a4 bf 3c 3c
       0.00429639 -0.025682462 -0.003472743 0.0115203
000290 af 9b dd bc 42 49 9c bc d9 9f 59 3c 50 a2 f0 bd
       -0.027051775 -0.0190779 0.01328274 -0.11749709
0002a0 07 93 7c bd 4a 97 24 3d 92 9d 61 3d fc 3b ff bd
       -0.061663654 0.040183343 0.05508191 -0.12462613
0002b0 d9 78 97 3d b0 e5 04 bd c0 14 06 3c 13 fb 5b bf
       0.07396097 -0.03244561 0.008183658 -0.85929984
0002c0 8f d5 88 3d 97 2d 40 ba 04 97 14 3c 5c 7c 9a 3d
       0.06681358 -0.0007331012 0.009069208 0.07543251
0002d0 37 52 a5 3b a9 cf 2f bc f1 c4 95 b9 35 d1 f0 bc
       0.005045201 -0.010730662 -0.00028566227 -0.029396633
0002e0 c4 ae 28 bc a5 23 84 bc 23 cd c7 3a fe ab e1 b9
       -0.010295574 -0.016130278 0.0015243631 -0.00043043488
0002f0 b1 0c 1c bc 17 69 ae 3b 24 9f ef bb f4 af 19 c0
       -0.00952451 0.0053225863 -0.007312672 -2.4013643
000300 6a 60 23 3e 38 e6 2f 3d 43 fa 57 bc 7b c0 55 bd
       0.15954748 0.042944163 -0.013182226 -0.052185517
000310 fd e8 20 3d 5e aa 64 bb 0d 11 3e 3c 50 71 1d bc
       0.039284695 -0.0034891586 0.011600745 -0.009609535
000320 7b b5 d1 bd af 10 f9 bb 82 97 59 bd e9 da 97 3b
       -0.10239693 -0.007600866 -0.053123005 0.0046342504
000330 b1 62 4d bc ff b8 a6 3c 2e d6 a5 bc e5 64 64 bb
       -0.012535737 0.020351885 -0.02024373 -0.0034850177
000340 c0 3a a4 b9 18 6a b1 3e ee 64 3f 3d d2 b9 73 3d
       -0.0003132429 0.34651256 0.046727113 0.059503384
000350 82 0a 5f be 91 73 30 be 80 b9 fe bd 83 92 6e bb
       -0.21781352 -0.17231585 -0.12437725 -0.0036403246
000360 9e 58 70 bd e5 3f 7d 3c da 8e fb 3c ad 1b 34 3d
       -0.058678262 0.015457128 0.030707765 0.043971706
000370 50 e0 20 be 65 5e b6 bd 5a 49 f1 be 29 f7 59 3d
       -0.15710568 -0.08904723 -0.47126275 0.053214226
000380 05 68 47 bd 75 c8 7e bc 68 71 68 bd ef 7a 92 bd
       -0.048683185 -0.015550722 -0.056748778 -0.07152354
000390 21 fa 85 bd 1c a0 4c bd 71 c4 b4 be 5a bf ea bd
       -0.06541849 -0.04995738 -0.35306123 -0.11462279
0003a0 36 52 ca bb b6 99 42 bd ab 24 a2 3b 4f 0b 68 bd
       -0.006174351 -0.04750987 0.004948219 -0.05665141
0003b0 e2 d3 a1 bd 99 65 24 3d a9 19 3d 3f 76 ac d6 bd
       -0.079017416 0.040135954 0.7386728 -0.10482113
0003c0 0d 92 81 3e fc a5 cc 3e 0c 4b 9f bd 98 63 7c be
       0.2530674 0.39970386 -0.07777986 -0.24647367
0003d0 a5 1b 96 3e 22 1c 70 3e 51 d9 9f 3e 4c 32 52 3d
       0.29317966 0.23448232 0.31220487 0.051317498
0003e0 67 ae 3f be 93 5e 01 3d 71 c3 86 bc 73 0c da 3d
       -0.18718873 0.031584334 -0.016450616 0.10646906
0003f0 b8 f4 68 bd c9 12 96 3b 08 44 8e 3d a7 a8 07 3d
       -0.056874007 0.004579876 0.0694657 0.033119824

enc.fe.u1_FC1.bias f4 [64]
000000 46 03 9e 3e 38 89 36 bd b4 a0 a0 3e f8 c9 bc bd
       0.30861872 -0.044564456 0.31372607 -0.0921821
000010 d5 d2 4d be a2 7e 6e bf ac 53 8e 3e b0 17 e3 bd
       -0.20099957 -0.93161976 0.27798212 -0.110885024
000020 83 55 6d bf b3 2d d6 be fe 4a 3f bd 2e 07 84 bf
       -0.92708606 -0.4183174 -0.046702377 -1.0314691
000030 67 ee 87 3e 45 42 29 bd 38 be 1a 3d d5 8d f8 be
       0.26549074 -0.041322965 0.037779063 -0.4854571
000040 71 64 e5 3e 21 de 55 3d cf fb 49 be 15 f6 36 be
       0.44803193 0.05221379 -0.19724964 -0.1786731
000050 8e 28 d0 be 89 37 9a bd 66 c2 8b bf a8 b1 24 be
       -0.4065594 -0.07530124 -1.0918701 -0.16083395
000060 c8 7c 27 be 60 52 eb 3e b9 18 a7 be 1a b1 28 bf
       -0.16356194 0.45961285 -0.3263605 -0.65895236
000070 e8 13 b4 3e 9f d7 0d bf 86 c5 cd 3e 0a aa 66 bb
       0.35171437 -0.55407137 0.4018976 -0.0035196566
000080 71 ed 60 bf 89 74 d7 be 9b 1b c6 bc f1 bf 94 be
       -0.87862307 -0.42081097 -0.024183085 -0.2905269
000090 ef 49 d4 bb 43 14 2e bf 5a 29 69 bd e9 10 88 3e
       -0.00647854 -0.67999667 -0.0569242 0.265754
0000a0 f7 27 a6 bb 07 ae 85 be 24 d0 f9 bd 46 6e b8 3e
       -0.005070682 -0.26109335 -0.12197903 0.36021632
0000b0 d4 44 fb bd 05 29 9f 3e d1 63 17 bf c4 17 70 be
       -0.12268987 0.31085983 -0.5913668 -0.23446566
0000c0 33 3b d0 bd 5f c5 f5 bd 70 59 fa bd 02 f2 78 be
       -0.10167541 -0.12000536 -0.1222409 -0.24311069
0000d0 97 bc a2 bd 51 e6 53 bf 9f 68 f6 bd 1b 3c 3e bd
       -0.07946127 -0.8277331 -0.12031674 -0.04644404
0000e0 c1 7c d4 3e 80 42 d3 be c2 e6 82 bf 8f 86 d0 bd
       0.4150143 -0.41261673 -1.0226672 -0.10181915
0000f0 8d e6 6a bd fb da c4 bd 80 b7 23 be 45 e5 db bd
       -0.057348777 -0.0961208 -0.15987968 -0.10737089

enc.fe.u1_FC2.weight f4 [64, 64]
000000 6b 21 e0 3c 4f e4 24 bf fc 47 0a bf aa ff 23 c0
       0.027359685 -0.6441087 -0.5401609 -2.5624795
000010 7e 03 ed bf e7 0a 33 3e 8c f4 c9 3d f0 87 8d be
       -1.8516691 0.17484628 0.09861097 -0.27642775
000020 03 75 18 3f 6a c0 56 be 0c 85 8d bc a0 de d7 3c
       0.59553546 -0.20971838 -0.017275356 0.026351273
000030 de d5 d4 3d bf 0f 31 3e 06 8c 0e bf 0c 02 00 3e
       0.103923544 0.17291163 -0.5568241 0.12500781
000040 75 3b a2 3d 36 92 51 be 06 f2 20 be 79 af e1 3c
       0.07921497 -0.20465931 -0.15717325 0.027549492
000050 98 21 dc 3d 1a 70 0f 3e 62 bc 8c c0 fe 12 18 be
       0.10748595 0.14007607 -4.397996 -0.14850995
000060 fb e6 c1 bc 53 c0 64 be 15 64 27 3e 7e 5b e2 be
       -0.02366971 -0.22338991 0.16346772 -0.44210428
000070 8f c6 57 3d bc 4d b9 bb 44 f0 f5 3d bf 63 23 3d
       0.052679595 -0.0056550186 0.12008718 0.039890047
000080 74 ee 0a 3e 09 fa 82 bd 59 e1 1f 3c 1f eb 65 bd
       0.13567525 -0.06395347 0.009758317 -0.056132432
000090 2a 74 00 3f 1a 16 53 be d2 80 31 bf 95 44 48 be
       0.5017725 -0.206139 -0.6933719 -0.19557412
0000a0 2f c3 be be e6 1a 40 bd 2e 2a 2d c0 ed 65 23 3e
       -0.37258288 -0.046900652 -2.7056994 0.1595685
0000b0 43 66 c3 bf 8e b6 6a 3e 2a 30 f2 be 5d 14 08 3e
       -1.5265583 0.22921202 -0.4730237 0.13289018
0000c0 8f 3e ec be 21 12 79 3d 34 1a 45 bf 21 79 38 3f
       -0.46141478 0.060808305 -0.7699311 0.7205983
0000d0 55 02 22 3e bf f8 e9 be 49 23 f5 3b 5b 6f 53 bf
       0.15821202 -0.4569759 0.007481013 -0.8259179
0000e0 dd 76 96 3e 8c 9e 32 be f9 e9 ab be f9 ba 59 3d
       0.2938756 -0.17443293 -0.33576944 0.053156827
0000f0 44 ad f2 be 83 45 00 bf 33 54 df 3d a6 99 37 c0
       -0.47397816 -0.50106066 0.109047316 -2.868753
000100 cd f4 75 3d e2 46 44 bf 9d 7b 30 be 1e 48 b2 bf
       0.060047913 -0.7667066 -0.17234655 -1.3928258
000110 f9 5e 0c c0 31 da 9d 3d 11 f1 45 be 5d 0f 45 bf
       -2.1932967 0.07707632 -0.19330241 -0.7697657
000120 c1 06 4d 3e e8 24 56 3e e3 b5 45 be 13 35 d3 be
       0.20022108 0.20912516 -0.19307666 -0.4125143
000130 92 8d c4 3c 28 e4 f0 3d b0 a7 11 bf 38 0d 87 be
       0.023993287 0.11762267 -0.56896496 -0.26377273
000140 00 b5 28 bc 8b a5 80 bd 0b cb 13 be eb bc 80 3c
       -0.01029706 -0.06281575 -0.14432923 0.015715083
000150 b2 34 e5 3d 9a 73 5a 3e 19 ff 3c bf 5d 42 aa be
       0.111916915 0.21333161 -0.7382675 -0.33253756
000160 80 5c 32 be 8d be 76 be e9 72 40 bf b8 38 f0 be
       -0.17418098 -0.24096127 -0.7517534 -0.46918273
000170 5a 69 dd be b6 b5 5b be 05 60 23 be 30 d7 0a be
       -0.4324444 -0.21456036 -0.15954597 -0.1355865
000180 45 c5 f5 bd 38 f5 82 bc 7f 6f 9f bb 11 93 fe bd
       -0.12000517 -0.01598607 -0.0048655863 -0.124303944
000190 85 a9 e8 3e 7b 32 d6 3e ac 31 06 bf 94 22 90 3d
       0.45441833 0.4183539 -0.52419543 0.07037845
0001a0 60 22 2d bf a9 1b 01 bf d6 2b 90 bf de 81 b4 be
       -0.6763058 -0.5043283 -1.1263378 -0.3525533
0001b0 e6 a0 1d bf 97 58 c7 3d f3 3d cd bd b9 cc 98 bc
       -0.61573637 0.09733694 -0.100215815 -0.018652307
0001c0 33 8f 1f bd 74 1f 13 bf 26 61 f4 be 61 4a 84 3e
       -0.038954925 -0.5746987 -0.47730368 0.25837997
0001d0 1f 2f be 3d 33 45 48 be 70 0a 88 3c 61 60 1f bf
       0.092863314 -0.19557647 0.01660654 -0.6225644
0001e0 a8 84 4c 3e 5b 6b 7b be 2a ca df be 10 88 c6 3d
       0.1997248 -0.24552672 -0.43708926 0.096939206
0001f0 b3 b2 30 bf 1e 87 22 bd 64 6c 59 3d 9a c0 93 bf
       -0.69022673 -0.03967964 0.053081885 -1.1543152
000200 be a0 be be 41 25 1a bd e4 0e 3b bd 87 fd d2 bd
       -0.37232012 -0.037633184 -0.045668498 -0.10302263
000210 f8 b9 a4 bc f3 09 34 3d ee 67 08 be 82 b0 22 be
       -0.020108208 0.0439548 -0.13320896 -0.15887645
000220 cd d3 06 3e f1 54 3b bd 23 8f 2d be d7 32 f9 bd
       0.13166733 -0.045735303 -0.16949134 -0.121679
000230 46 18 c0 bc 6a cd 20 be 91 32 8d bd 3d 9b 2f bd
       -0.023449074 -0.15703359 -0.068944104 -0.042872656
000240 0a b3 6b bd ad e4 9f bd f5 0b 7a bd 23 8f 62 3d
       -0.05754379 -0.07807288 -0.06104656 0.055312287
000250 7e ef d4 be 55 71 20 be ab 4f 01 bb 7a 79 19 be
       -0.41588968 -0.15668233 -0.0019731324 -0.14987746
000260 71 da 0a 3e d4 ea 18 be 2b dd 2b be 1f 01 7f bd
       0.13559891 -0.1493333 -0.16783588 -0.06225693
000270 d2 ab 02 bf e6 8b 98 bd e6 8a 05 3e a7 74 94 bd
       -0.51043427 -0.074485585 0.13041267 -0.07248812
000280 ce 24 5f be 35 21 82 bd 9a 55 89 bd 1a 0b e4 bd
       -0.21791384 -0.0635399 -0.0670578 -0.1113493
000290 bd cc 4a be fe d4 89 3d ff c3 17 be d9 f1 d3 bd
       -0.19804664 0.06730078 -0.1482086 -0.10348863
0002a0 16 d8 94 bd 5f 2c 11 bd 3a 04 74 be e5 04 55 be
       -0.072677776 -0.035442706 -0.23829737 -0.20802648
0002b0 bc c7 a8 bd 81 ab 83 bd 32 2f df bd ee 8c 13 be
       -0.08241221 -0.06429196 -0.10897674 -0.14409229
0002c0 1d 27 59 bd 69 fc 4f 3d ba a5 89 bd 0b c2 8a be
       -0.053015817 0.050777826 -0.06721063 -0.27101168
0002d0 21 ba 0a bf 55 87 08 3d 9d 44 12 be 33 65 c5 bd
       -0.5419026 0.033332188 -0.14283986 -0.09638443
0002e0 00 b4 0a 3d 4e d5 0c bb 23 c3 4e 3e 90 fe f5 b8
       0.033863068 -0.0021489444 0.20191626 -0.00011729926
0002f0 1c 5f 10 be 71 ef 8c be a5 36 e2 3c 5c bc 27 be
       -0.14098781 -0.2752643 0.027613947 -0.16380447
000300 16 32 90 be 18 0d 44 3d 07 12 e7 bf a6 ac c9 3d
       -0.28163213 0.04786405 -1.8052377 0.09847383
000310 d4 48 a7 3c 65 5f 65 bd b7 dc 0a 3f 45 5a 13 c0
       0.02042047 -0.05599918 0.54243034 -2.3023846
000320 ab 43 e4 3e 69 dd 34 3d a5 eb 2d bd 9c 2d 11 3e
       0.44582877 0.044156466 -0.042461056 0.14177555
000330 0d 8e ac 3e c4 47 fe 3d 10 73 18 be d6 c7 63 bc
       0.33702126 0.12416032 -0.14887643 -0.013902625
000340 67 ae 90 be dd 23 8b 3e 9a 12 bb bd 19 d4 fa bb
       -0.28258058 0.271758 -0.09134407 -0.0076546785
000350 f9 c3 9a 3c 6b 55 dd bf 41 f2 a6 c0 7a 8d 88 bc
       0.018892275 -1.7291692 -5.217072 -0.016669024
000360 1e ab 51 bd a5 30 14 bf ab a3 d8 3d b4 ce 35 bf
       -0.05118858 -0.57886726 0.10578092 -0.7101853
000370 b1 f0 42 be 40 55 99 3e 9f bc 28 be 5c 58 92 bb
       -0.19037129 0.29947853 -0.16478203 -0.0044660997
000380 09 1a 73 be 65 da 2f 3c d2 91 d2 3c d6 59 43 3e
       -0.237404 0.010733222 0.025704298 0.19077238
000390 69 74 f6 3e 1a 1d c1 bd a9 5e 6d 3c ea 01 ee be
       0.4813569 -0.09429379 0.014487901 -0.46485835
0003a0 94 20 39 3d 13 87 7d 3f 66 52 4c bb 4d e5 e0 3e
       0.045197085 0.9903423 -0.0031177043 0.43924943
0003b0 d5 80 b3 bc b2 33 82 3e 7b 90 9d be 75 a9 1c 3e
       -0.021912018 0.25430065 -0.30774292 0.15299018
0003c0 17 08 40 3d b3 98 a0 3d ca da 0a c0 54 af 43 be
       0.046882715 0.07841625 -2.1696038 -0.19109851
0003d0 6a 72 4b 3d 4a ff 52 bd 44 2d 0b 3e 92 df 83 3c
       0.04966966 -0.051512994 0.13591486 0.016097818
0003e0 5e 52 0f be be cb c9 bb da 48 31 be 66 88 41 3a
       -0.13996264 -0.006158321 -0.17312947 0.00073826907
0003f0 74 4d 99 be 88 d1 03 bf 31 1f 13 3c ad 55 44 bc
       -0.29941905 -0.51491594 0.008979605 -0.011983317

enc.fe.u1_FC2.bias f4 [64]
000000 ba f9 b5 bd 6c 83 a3 3d 05 7a 86 be 01 cc 22 3c
       -0.08885522 0.07984051 -0.2626497 0.009936334
000010 2a ce ed be d2 f8 97 be d5 d1 4a be 16 3d c0 be
       -0.46446353 -0.29682022 -0.19806607 -0.37546605
000020 b7 43 46 3e d9 d9 c4 bd 67 e8 06 3f 99 ee 34 be
       0.19361769 -0.09611864 0.5269837 -0.17669143
000030 ab d4 be bd a0 78 1a be 16 37 d9 be ba 24 b3 bd
       -0.09317907 -0.15085077 -0.4242484 -0.087472394
000040 b7 37 da be 41 26 bb bb 58 15 24 be 6a f4 ad 3d
       -0.42620632 -0.0057113473 -0.16023767 0.08493884
000050 95 fd 33 be 8a b0 35 be 68 56 83 bd 3b 86 65 be
       -0.17577203 -0.17743126 -0.06412965 -0.22414486
000060 bb fc a2 3b f8 bd c7 bd 14 17 f7 bc 9b 80 2d be
       0.0049739755 -0.097530305 -0.030162372 -0.1694359
000070 83 ed 82 be db c0 a3 bd 43 b0 91 3e 41 9c 38 be
       -0.25571832 -0.07995769 0.2845479 -0.18028356
000080 48 b8 2b be b6 6b 9f bd e1 63 00 3e 31 75 af bd
       -0.16769516 -0.07784216 0.12538101 -0.08567274
000090 74 66 2a be f3 27 2f 3d c3 8e 1e be 34 5c 8b be
       -0.16640645 0.042762708 -0.15484147 -0.27218783
0000a0 e1 3d b8 bd 0b 1a 29 be b3 c5 09 bf fb c9 9f bd
       -0.089961775 -0.16513841 -0.5381729 -0.078021966
0000b0 28 97 c5 3e bb 92 27 be 88 f7 be 3c 8b 9e 9e bd
       0.38591886 -0.16364567 0.023311391 -0.077450834
0000c0 75 4c 09 bd fa 69 a5 bd 9e ce 33 bd db cc 6d be
       -0.03352018 -0.08076854 -0.043898217 -0.23222677
0000d0 2c 41 c0 be 4d dd d1 3d 1e c6 8c bd 06 46 1f be
       -0.37549722 0.10247288 -0.06873725 -0.15554056
0000e0 32 6e 5f be 27 8e 93 be 70 29 a7 be 87 c8 2c 3e
       -0.2181938 -0.2881939 -0.32648802 0.1687337
0000f0 f7 bf c9 be 8e c4 6a 3c 5e 0f 1c 3e 05 e2 18 40
       -0.3940427 0.014329089 0.15240237 2.3887951

enc.fe.u1_FC3.weight f4 [64, 64]
000000 9f cb 86 be c0 43 0a 3f 0d a0 55 bd 0f 68 df be
       -0.26327226 0.5400963 -0.05215459 -0.43634078
000010 83 84 ff 3e e1 90 b8 be e0 cb 15 bd 7f 76 a8 3e
       0.49905786 -0.36048034 -0.036571383 0.32902905
000020 1c 7c 0d 3d 4e e3 45 3e 29 3f 8c bd 32 de 85 3e
       0.034542188 0.19324991 -0.06847984 0.26146084
000030 9f 63 2d bd 3f 93 8f bd d4 0e a1 be 5e e2 36 bd
       -0.042331334 -0.07010507 -0.31456625 -0.044649474
000040 d5 c9 21 bd 31 81 76 3c ae e6 e6 3c 05 fb 98 be
       -0.039499123 0.01504545 0.028186169 -0.29879013
000050 ac 00 ef 3d 96 a0 3b bd 88 7d 06 bf 67 d9 78 3e
       0.1167005 -0.045807444 -0.52535295 0.24301682
000060 37 55 1e 3f 5e 5d a1 3d 12 12 59 3e 82 3f 1b 3e
       0.6184878 0.078791365 0.211983 0.15160945
000070 6b 5b 0b 3f e4 b5 90 3d d7 ff 79 3e 73 fa ba bd
       0.5443637 0.07065943 0.24414001 -0.09129801
000080 75 52 6b 3f 45 c8 6b 3d 9c d1 eb 3e a0 2c 10 bd
       0.91922694 0.05756404 0.46058357 -0.035198808
000090 ae 67 d4 3e 03 56 92 3e 7a c7 15 bd 34 05 1c bd
       0.4148535 0.28581247 -0.03656719 -0.0380909
0000a0 7f 77 5f be ae 5c 91 3a 90 88 14 bd 32 da 40 3e
       -0.21822928 0.0011090243 -0.03626305 0.18833235
0000b0 41 7c 54 bd b8 45 18 3c 7a ab 6d be 37 72 37 be
       -0.05187631 0.009293966 -0.23209944 -0.17914663
0000c0 38 cd ac 3b 41 56 b8 3c ed af 01 3f 2a cd 5c be
       0.0052734874 0.022502067 0.50659066 -0.21562639
0000d0 5f 77 e9 bd 8a 60 01 3d 1b fb f4 ba e8 d3 7c 3d
       -0.11399721 0.031586207 -0.0018690558 0.061725527
0000e0 25 94 4d 3d 75 c8 28 3f 4c f1 01 be f7 cf 00 be
       0.05019011 0.65930873 -0.12689704 -0.12579332
0000f0 96 96 14 bf 06 8c 17 be ab 27 2a 3e 45 b5 62 3e
       -0.58042276 -0.14799508 0.16616695 0.22139461
000100 b8 96 ac 3e c0 dd 74 3d dd c2 05 3d 51 f5 33 3e
       0.3370874 0.05978179 0.03265654 0.1757405
000110 e8 c9 94 bd ae 5e e6 3e 7b 7d 75 3d 79 5f cc be
       -0.07265073 0.4499411 0.05993412 -0.3991659
000120 65 be 96 bd df 84 c6 be 39 d1 c0 3d 8d d0 5a bd
       -0.073605336 -0.38773248 0.09414906 -0.053421546
000130 e5 a0 dc be 33 30 44 3e 07 d2 86 bd e8 8c d3 ba
       -0.43091503 0.19159012 -0.06583028 -0.0016140016
000140 71 1f 2f 3e 87 a7 ef 3c 3e 0d 26 3d 38 f4 82 3f
       0.17101838 0.029254688 0.040539972 1.023078
000150 4e f0 89 bd dc 50 63 bd 31 07 ee be 58 48 19 bd
       -0.067352876 -0.055497035 -0.46489862 -0.037422508
000160 da 01 c9 be 8d 09 01 3e 02 e2 9f be 06 0d 29 bf
       -0.39259225 0.126013 -0.31227118 -0.660355
000170 dd 4f 75 be 3c bc 45 3d 2a 61 bb 3c 37 9a 92 3d
       -0.23956247 0.048275217 0.02287348 0.071583204
000180 5b d7 84 be dd 6a 9b bd 3b ee eb bd 39 df c6 bb
       -0.25945553 -0.07588742 -0.11520048 -0.0060690907
000190 2b 42 2e bd 3c 26 60 bf 7f c9 cd 3d 7b 98 1a 3d
       -0.04254357 -0.8755834 0.10048198 0.037743073
0001a0 71 4b 10 bf 12 d2 51 bd 97 24 97 bb 4d 2b d5 3b
       -0.56365114 -0.05122573 -0.004612516 0.006505406
0001b0 96 e7 df 3c 4e 84 13 3e 46 e9 33 3e d8 d8 3f 3e
       0.027332108 0.14405939 0.17569456 0.18735063
0001c0 7f d5 37 3f e4 ee 15 3d 67 2a 8e be 65 d5 3c bd
       0.71810144 0.036604777 -0.27766725 -0.046101946
0001d0 c0 8e 10 be 90 43 24 3e 13 01 89 bd ad e5 1b 3e
       -0.14116955 0.16041398 -0.06689658 0.15224333
0001e0 df 91 65 3b e0 c4 0a 3d d7 83 da bc 14 0c 35 3f
       0.0035029573 0.03387916 -0.026674194 0.70721555
0001f0 2b 83 11 3e 89 eb 27 bf de b9 ad bd 79 af 13 be
       0.14210193 -0.65593773 -0.08482717 -0.14422406
000200 f1 bc 55 3d 17 0a 10 bf d1 4e 78 bd 07 46 94 3e
       0.05218214 -0.56265396 -0.06062204 0.28959677
000210 8b 56 8e 3b 9f 5e 7d 3e 46 b6 8e 3d 60 eb d4 bd
       0.004343813 0.24743126 0.0696836 -0.10396457
000220 26 c1 1b 3e d1 0a 6e be 24 0c 04 be e8 ec bb be
       0.15210399 -0.23246314 -0.12895256 -0.36704183
000230 f0 98 02 be 5b 1f 32 3e d5 00 c2 3d 1b 9f 6d bc
       -0.12753654 0.17394774 0.09472815 -0.014503266
000240 09 d0 5a 3d a4 ee 50 3e b6 18 86 ba 27 ba 39 be
       0.053421054 0.20403534 -0.0010230753 -0.18137418
000250 87 cc 06 be 63 f7 03 be a1 29 d1 3e ac 26 58 be
       -0.13163958 -0.1288734 0.40852073 -0.21108502
000260 d6 1c 6d be 16 a6 4a be 7f 2a 80 bd e3 bf b5 bb
       -0.23155531 -0.1978992 -0.062581055 -0.0055465563
000270 3a 89 e6 3d 19 3d 50 3d 0b 8c af be 50 55 14 bd
       0.11256643 0.050839517 -0.34286532 -0.036214173
000280 86 fa 65 bd 18 d0 05 3d 40 04 94 be cc 87 ca 3d
       -0.05614712 0.032669157 -0.28909492 0.098891824
000290 4e 4c 96 bd ab 13 70 be e1 cb 59 bd 0d 65 eb 3b
       -0.07338773 -0.23445003 -0.05317295 0.007183677
0002a0 0c 64 df 3d 8d ce 6c 3d 1d fe 8d 3d 0b 43 07 bd
       0.10907754 0.05781417 0.06933234 -0.03302292
0002b0 4a b8 28 be a1 b4 0f 3d 67 fa 84 3e 0b b6 88 3d
       -0.1647655 0.03508437 0.25972292 0.06675347
0002c0 f9 c8 66 3e bd b9 62 3d 8d c9 30 3e ef ca 8b 3e
       0.22537602 0.055352915 0.17264386 0.27303264
0002d0 2d 6b 35 3e b8 c3 0c bf d7 97 b6 bd 72 41 06 3e
       0.17716666 -0.54986143 -0.0891568 0.13110903
0002e0 bf 60 2d 3d e0 48 7e 3e 3a 56 1b 3e 22 87 8f 3d
       0.042328592 0.24832487 0.15169612 0.070081964
0002f0 c4 69 2a 3d 22 74 1f 3e e7 ff 69 be 09 5e 0f bf
       0.041604772 0.15571645 -0.22851525 -0.5600286
000300 8e 92 2f be 84 ab 97 be f2 2d fb 3c c0 85 d9 3d
       -0.1714575 -0.29623044 0.030661557 0.10621214
000310 3c 96 42 3e 60 56 89 bf 76 e6 69 3c 79 f7 4b 3e
       0.19002622 -1.0729485 0.014276138 0.19918622
000320 a9 68 ca 3d 23 fa bf bd 72 30 70 bd 75 08 25 bf
       0.098832436 -0.09373882 -0.05863995 -0.6446603
000330 13 db 3e be 1a c0 2a 3e 3f ec 5c 3e 18 22 24 bd
       -0.18638258 0.16674843 0.21574496 -0.040071577
000340 0a ad 10 be 15 fb 90 3e ff d6 3c bb 2d 9f a3 bd
       -0.14128509 0.2831656 -0.002881467 -0.07989345
000350 8b 34 02 bd 58 9f cf bd 76 79 4c 3e 16 c1 9c bd
       -0.03178839 -0.10137814 0.19968209 -0.07654016
000360 2a f1 4a be 88 c9 53 bd ea 9a 86 bd d4 65 70 3d
       -0.1981856 -0.051705867 -0.06572516 0.05869086
000370 0d 3d 48 3e fe 78 c5 3d 40 67 b1 be f3 ac fa bd
       0.19554539 0.09642218 -0.34649086 -0.12240019
000380 f1 5a 81 3d de 8e d6 bc b0 c0 5f be 5d f5 21 bd
       0.06316174 -0.026191171 -0.21850848 -0.039540637
000390 30 fc 1b 3d 54 d6 7e be f9 8d 1c 3c 9f 11 4c 3d
       0.0380823 -0.24886447 0.009555333 0.049821492
0003a0 55 80 6e 3e 45 ab 24 be e7 ac 7d 3e 8a 6f c3 bd
       0.23291142 -0.16080959 0.24772988 -0.09542759
0003b0 7d 06 39 bd ca ea c7 3d 01 f1 9e 3d ae a3 72 3e
       -0.045172203 0.09761579 0.077608116 0.23695251
0003c0 02 77 be 3e a8 f1 51 3c 7f aa 97 3e df 07 dc 3e
       0.3720017 0.012813963 0.29622266 0.42974755
0003d0 51 a8 1b 3e 31 d2 df be 4c 67 20 bd f4 1f 88 3e
       0.15200926 -0.4371505 -0.03916101 0.26586878
0003e0 91 12 01 bc d6 cb 81 3e f6 08 56 3d b3 97 a7 3d
       -0.007877962 0.25350827 0.05225464 0.08183231
0003f0 d1 fd 9b bd 95 ee 32 3e 73 43 45 be 49 e4 28 bf
       -0.07616771 0.17473824 -0.19264011 -0.65973336

enc.fe.u1_FC3.bias f4 [64]
000000 71 99 2e 3f 9a 99 93 be 2d 89 ea bf e1 aa eb bf
       0.68202883 -0.28828126 -1.8323113 -1.8411523
000010 7e a8 e7 3f 6b 93 35 bd 7f 40 f0 3e f2 14 6b be
       1.8098295 -0.04433004 0.46924207 -0.22957209
000020 84 52 15 bf 16 d9 47 bf f0 ab 43 3f 3e f3 4e 3f
       -0.58329034 -0.7806562 0.7643423 0.8083991
000030 27 3c 01 bf 9e 4e 8a 3e 75 a6 a9 be 5b ef b0 3f
       -0.5048241 0.27013105 -0.3313481 1.3823045
000040 9a ba bc 3f 3a 94 88 bf 96 ee 50 bd fa 69 72 3e
       1.4744446 -1.0670235 -0.051008783 0.2367324
000050 5b be a9 bf 02 7a 53 3e 7c 5e 93 3e 35 c4 37 bd
       -1.3261217 0.20652011 0.28783023 -0.044864852
000060 0f 36 8c bf 4b 19 f4 bf f4 a9 ff be 92 1b aa bf
       -1.0953997 -1.9070219 -0.4993435 -1.3289664
000070 f8 b1 b9 bf ae d7 28 3f 31 ff 46 bf 84 19 d9 bd
       -1.4507437 0.659541 -0.7773314 -0.1060057
000080 89 86 03 bf eb 04 47 bc 9a 5a ac be 20 8f 06 3f
       -0.5137716 -0.012147169 -0.33662874 0.5256214
000090 ca 88 92 bf 8f 96 a3 be d9 9c 9a be fa 21 f6 be
       -1.1447995 -0.31950805 -0.3019779 -0.48072797
0000a0 86 9f 9e 3e 6e 7a 3f bf 2f d8 d3 3e 9d 55 be bf
       0.30981082 -0.7479619 0.41375872 -1.4869877
0000b0 d9 3d c0 3e d1 90 47 3e 45 3a 7d bf 6d 9b 93 3e
       0.37547186 0.19488837 -0.9891704 0.28829518
0000c0 4b e1 bb 3e 10 fd 0a bf 00 7a d6 be c1 83 61 be
       0.36695322 -0.5429239 -0.41889954 -0.22022916
0000d0 5a 41 ec 3f b2 f0 14 3e dd da 4d bf 1b f3 44 3f
       1.8457444 0.14544943 -0.80412084 0.7693345
0000e0 f4 15 8f be 2f 36 0e bf 1a b7 ad 3f f9 b9 d0 3f
       -0.27946436 -0.5555143 1.3571503 1.6306754
0000f0 f0 8e d0 3f 48 5c e3 bf 29 4d 06 3e 81 3b 33 be
       1.6293621 -1.7762537 0.13115372 -0.17503168

enc.fe.u1_FC4.weight f4 [32, 128]
000000 8c 2f 34 bf 10 ac cc 3e 98 1b 85 3f aa 7d 3a 3f
       -0.7038505 0.39975023 1.0399046 0.72848
000010 e1 00 85 bf 62 94 4e bd 3e 0e c6 be 67 54 01 be
       -1.0390893 -0.050434478 -0.3868274 -0.12629853
000020 c9 8c 71 bd a5 e8 67 3e 2c 52 88 be 56 6b fd be
       -0.058972154 0.2264734 -0.26625192 -0.49495953
000030 4c cf ad 3e 98 61 ed bd 64 5b 61 3e dd d5 47 bf
       0.33947217 -0.1159088 0.22007519 -0.78060704
000040 bd e5 1d bf d3 a8 c1 3e 74 e3 10 be 54 72 82 3d
       -0.6167868 0.37824115 -0.14149266 0.063694626
000050 2d 79 06 3f 74 ad ef bb 7c 1d db bd 99 b7 c6 bc
       0.5252865 -0.0073143784 -0.10698983 -0.024257468
000060 a7 75 b2 3e 22 b0 8f 3f 89 13 02 3f 20 02 07 3f
       0.34855387 1.1225626 0.5081106 0.5273762
000070 d2 24 6d 3f dd 32 eb be 98 05 fe 3e 22 da 76 3e
       0.9263431 -0.45937243 0.49613643 0.24106649
000080 f0 5e 28 3f 5d 90 8a 3d de e8 63 3e 94 f1 bd be
       0.65769863 0.06765816 0.222568 -0.37098372
000090 a9 56 f7 3e 7f b3 78 3e e5 c4 82 3e 48 bd 3d 3e
       0.48308304 0.24287222 0.25540844 0.18529236
0000a0 8e 10 6a be c6 c3 e3 3e da 0e ba bd 91 7d 26 3f
       -0.22857878 0.444853 -0.09084864 0.6503535
0000b0 35 b9 e3 bc fb aa 11 be 20 8a 17 3f 08 cf f1 bd
       -0.027798275 -0.1422538 0.5919514 -0.11807066
0000c0 93 c3 a3 be f8 88 dc 3e 0b 83 12 3e 17 b9 39 3e
       -0.3198515 0.4307325 0.14307801 0.18137012
0000d0 02 6a 64 bf 3e c2 0c bf 47 76 e6 3e c0 f9 d2 be
       -0.89224255 -0.5498389 0.45012113 -0.4120617
0000e0 b6 4a 80 3e d6 ee 03 3f 24 7e 5a bf 26 c7 96 bf
       0.25057 0.5153631 -0.85348725 -1.1779525
0000f0 b4 52 20 bf ed 5d 81 3f fd 27 38 ba 9e c2 27 be
       -0.62626195 1.0106789 -0.00070250017 -0.16382834
000100 68 4f 4d 3e 58 13 05 be ca 3e 23 3f 6b ce d5 3e
       0.20049822 -0.1299566 0.63767684 0.41759047
000110 92 b4 39 be e3 93 b4 be 9a 32 94 3c 6f 8b 62 be
       -0.18135288 -0.3526908 0.018090535 -0.22123502
000120 51 c8 ea bd fa c7 93 be 99 68 37 3e 7d ba 72 be
       -0.114639886 -0.28863508 0.17910995 -0.23703952
000130 bf fc 24 3e 59 fd 60 bd c6 ee d5 3e d3 37 10 be
       0.1611204 -0.05492911 0.41783732 -0.14083795
000140 58 9d 0a 3e 2a 9e d7 3d de 06 0d 3c fa f8 05 bc
       0.13536584 0.10528214 0.008607594 -0.008177036
000150 22 2a ff bd 90 33 06 3f c2 90 61 be ff 0e 07 3e
       -0.12459208 0.5242243 -0.22027877 0.13189314
000160 c8 32 40 3e bf ee 25 3f 49 8d 3f bd a2 07 8d be
       0.18769372 0.6481742 -0.0467656 -0.27544886
000170 78 77 13 3f ab ec 73 be 88 5c 18 3e 56 cf 5b bc
       0.5760417 -0.2382075 0.14879048 -0.013416132
000180 53 1d 75 be eb 49 68 3e 9e 88 ad 3d 67 0a 83 bd
       -0.23936968 0.22684447 0.08473323 -0.063984685
000190 3d 79 d7 bd dd 73 aa bd 2d 68 51 bd fc 46 ee 3e
       -0.10521171 -0.083228804 -0.05112474 0.46538532
0001a0 8b 0b 2e 3e ae 12 e9 3e 26 a0 cd 3c fe e6 02 3e
       0.16996591 0.45522064 0.025100779 0.12783429
0001b0 e9 89 5a 3c 9f 44 cb 3d 6a e6 a9 be 88 c4 2d 3d
       0.013338544 0.09925198 -0.33183604 0.042423755
0001c0 be 03 86 3e b7 da 0d be 3c 11 a2 3c 8f e3 2f 3d
       0.2617473 -0.13852964 0.019783609 0.042941626
0001d0 97 95 e3 bd 75 45 c3 be db 94 7d be 2c da 66 be
       -0.111125164 -0.3813893 -0.24763815 -0.22544163
0001e0 9b 57 f0 3d 8e b8 09 be e4 fa 2a bf 8d 3c af 3c
       0.117354594 -0.13449308 -0.6678908 0.021391178
0001f0 10 26 2e 3f 43 a2 5f 3e 96 d0 3a 3d 2f 76 fe 3d
       0.6802683 0.21839242 0.04560908 0.124248855
000200 8e e9 12 bd d8 3c 10 3e 43 d1 f6 bc db b2 de bd
       -0.035867266 0.1408571 -0.03012908 -0.10873958
000210 56 36 1b be ab e5 d1 bd 0f 2b 0c bd a9 68 7c be
       -0.15157446 -0.10248884 -0.03422075 -0.246493
000220 b4 a3 b7 3b 6e 0a 1e 3c 74 19 98 3c cf ae 89 3d
       0.0056042317 0.009646041 0.018566824 0.06722795
000230 54 de 61 bd 75 5d f5 bb 4a 9d 6e bd 4d 46 27 bc
       -0.05514367 -0.0074879476 -0.05825547 -0.010209632
000240 e6 00 d7 bc 8a 9b 99 3c 5f 36 33 3e 13 f8 3f 3d
       -0.026245546 0.018750925 0.1750121 0.04686744
000250 71 eb 85 3d 37 2d ae bd b3 7e 7c bd 79 0e a1 3b
       0.065390475 -0.08504718 -0.061644267 0.0049150554
000260 f6 33 c4 bd a8 64 09 3b eb f7 3d 3d ef 06 38 3d
       -0.09580223 0.0020964537 0.04637901 0.044928487
000270 99 bc a5 3c e6 b6 06 3e 93 35 36 3e 34 cf 1f 3e
       0.020231532 0.13155708 0.17793874 0.15606385
000280 3a 52 b8 bd 66 b2 0f bd 40 a0 2c 3d 64 d4 e0 bd
       -0.090000585 -0.035082243 0.042145014 -0.1097801
000290 c0 c7 8f 3c b5 4a 0b 39 cc 42 2a bd a8 4e 90 3d
       0.017551303 0.00013283904 -0.04156761 0.070462525
0002a0 80 41 c6 3d 1d 7a 49 3d 67 b9 18 bd 0f c3 c7 bd
       0.09680462 0.049188722 -0.03728619 -0.09754001
0002b0 d4 47 6e 3d 12 27 a4 3d 89 63 e9 3c 8b 0a fa 3d
       0.05817397 0.080152646 0.028489845 0.12209042
0002c0 77 31 f1 3c c6 61 ec bd 59 86 9b bd b1 b8 1e 3e
       0.029442532 -0.11542086 -0.07593984 0.15500142
0002d0 78 66 83 3d d5 08 cc bd 5b 91 2c 3b 61 85 28 3d
       0.06416029 -0.09962622 0.0026331756 0.041142825
0002e0 4c d0 29 bd f2 92 69 3e a3 cc 48 3c dd 6d 6d be
       -0.041458413 0.22809961 0.01225582 -0.23186441
0002f0 8c a8 e5 3d 9f 66 4f 3d 51 06 ce bd ac 6e 94 bc
       0.112137884 0.050634976 -0.100597985 -0.018119179
000300 c8 86 33 be 53 98 14 bd 05 da 34 3b b1 1a a6 bd
       -0.17531884 -0.03627808 0.002759577 -0.0811056
000310 df 9b c8 bd 21 89 8e 3d 36 60 18 be 14 8f a1 bc
       -0.09795355 0.06959749 -0.14880452 -0.019721545
000320 ae 91 f9 bc 4f 51 df 3c 56 34 e5 bc 3c 2a c7 3c
       -0.030464973 0.02726045 -0.027979057 0.024312131
000330 32 3a 13 3e 02 eb c0 ba 66 ef db bc 10 3a 95 3a
       0.14377668 -0.0014718475 -0.026847553 0.0011385102
000340 c6 76 38 3e 00 1f 34 bc 63 7e 0e bd 40 af 02 bd
       0.18014058 -0.010993719 -0.0347885 -0.031905413
000350 16 b3 dd bb f9 c8 70 3d 49 7e 46 3c f7 c2 d9 bd
       -0.0067657335 0.058785412 0.01211507 -0.1063289
000360 24 88 1a be 11 26 e8 3d 24 9d 42 3e 45 40 26 3d
       -0.15090996 0.113353856 0.19005257 0.040588636
000370 5d 49 a1 3d 34 34 17 bd 3c b4 3d 3d 39 4d 8e 3d
       0.07875321 -0.03691502 0.046314463 0.06948323
000380 0d 9d b9 3d f8 89 f2 3d bf 24 30 bd 3e 48 7b bd
       0.09063158 0.11842722 -0.043003794 -0.061348192
000390 0e b5 5e 3d 70 92 8d 3d 38 f0 8a bd 55 cc 1e bd
       0.054371886 0.06912696 -0.06784099 -0.038769085
0003a0 fa f5 e4 3c 83 47 6a bd 7d 39 61 3c bd 65 25 3e
       0.027949322 -0.057197105 0.013746616 0.16152091
0003b0 77 72 04 bd 10 ee 1a 3e a2 5f 6d 3d 3a 92 a3 bd
       -0.032335725 0.15129876 0.05795253 -0.07986875
0003c0 81 d3 36 3b fb 7c 98 3c a3 15 2a bc f8 52 88 3d
       0.0027897062 0.018614283 -0.010381135 0.0665645
0003d0 ac 9a 6c 3d 73 f5 96 bd 38 e4 05 3d cc 86 15 3d
       0.057764694 -0.073710345 0.03268835 0.036505505
0003e0 65 23 30 be 43 6c 6f bd aa 44 16 bd 51 02 12 bd
       -0.17201002 -0.058452856 -0.036686577 -0.03564674
0003f0 c9 1a 05 3e 01 30 e8 3c d1 52 f5 3a 1e 22 79 bd
       0.12998499 0.028343203 0.0018716698 -0.060823552

enc.fe.u1_FC4.bias f4 [32]
000000 05 08 94 bf 40 79 a0 be f6 95 a3 3f a5 d2 b0 3f
       -1.1564947 -0.31342506 1.278014 1.3814284
000010 77 cb 61 be 05 70 af bf 4f 11 3b bf b8 b0 99 3e
       -0.22050272 -1.3706061 -0.73073286 0.30017638
000020 0d 95 fa 3c b9 35 42 be 51 29 1f bf b0 16 06 3f
       0.030588651 -0.18965806 -0.6217242 0.5237837
000030 2e 92 65 be 90 d2 79 be 4b 80 6b bf 30 a5 fe 3d
       -0.22419044 -0.2439673 -0.91992635 0.12433851
000040 29 69 a2 3f cb 40 a5 3e c9 2d 2f 3e ad 27 49 be
       1.2688342 0.32275996 0.1710731 -0.19644041
000050 3c e3 48 3e ab 3f 9b bd 07 c3 25 bf 7d a7 30 be
       0.19617933 -0.07580503 -0.64750713 -0.17251392
000060 de 71 da 3f 27 c2 3d be 92 04 8a 3e fd 85 8c 3e
       1.7066 -0.18531094 0.26956612 0.27445975
000070 77 ba b0 be 68 4d 79 3e 23 0c 59 be b5 4e 8b be
       -0.3451726 0.24345934 -0.21196036 -0.27208486

enc.norm.weight f4 [32]
000000 fd 64 f9 b9 6d af 4f 3e bd 0e 6a 39 44 3a b1 38
       -0.00047568223 0.20281763 0.0002232147 8.4508705e-05
000010 95 bf 25 3e 01 dd 34 3a 85 52 d3 3e 81 f3 3d 3f
       0.16186364 0.0006899387 0.41273895 0.7419968
000020 2f 70 3d 3f 17 8e c6 39 20 7d bc b9 97 5b 2a 3d
       0.73999304 0.00037871368 -0.0003595138 0.041591253
000030 a2 ec 2e 3d 3b 59 92 3f a7 39 90 39 aa c7 16 3c
       0.04270614 1.1433481 0.00027508775 0.009202877
000040 dc 46 ee 3e f6 93 5e 3a 7b 38 2a 3f 53 43 97 3f
       0.46538436 0.0008490676 0.6649243 1.1817421
000050 89 b2 ae 3f 0c f8 1d 3f c0 a1 0c ba 6d b9 9a b9
       1.3648235 0.61706614 -0.0005364679 -0.00029511322
000060 9f 05 49 39 7d 19 38 3f 87 79 2c 3f b0 1e 4a 3f
       0.00019170948 0.7191389 0.67372936 0.78953075
000070 1c 1c 98 b9 76 2d c7 3c 67 bf 0f 3e 9e 0e 6a bc
       -0.00029012642 0.02431367 0.14037858 -0.014285712

enc.norm.bias f4 [32]
000000 71 b2 33 3e 09 21 7c bd a1 99 59 3d c9 27 7e 3c
       0.17548539 -0.061554942 0.053125028 0.015512415
000010 8d 91 21 be e1 89 14 3e 29 b2 5e 3c 6b d0 80 3b
       -0.1577818 0.14505722 0.013592281 0.0039310954
000020 4c 0a 9c bd e0 ad 8b 3c f5 93 f1 3d e5 6c 93 bd
       -0.076191515 0.017050683 0.11795799 -0.07198504
000030 a3 6b 17 3d 95 26 b8 bd b3 b8 0a 3e a5 be 27 3d
       0.036967885 -0.08991734 0.1354702 0.040953297
000040 03 77 5e 3d 7d 00 e5 bd d8 98 58 bd cc 1d b1 3d
       0.054312717 -0.11181734 -0.05288014 0.086482614
000050 5b c5 3d 3d 5b 38 c9 bd 21 31 1c 3e bd 61 c1 3d
       0.04633079 -0.09825202 0.15253116 0.0944247
000060 48 c4 8e bd 48 67 d9 3d 2e 2b 90 bd ca ec 67 3c
       -0.069710314 0.106154025 -0.07039486 0.014155576
000070 43 d2 8a 3d a9 3a 21 bd 73 ec 4c bd e4 09 e6 bd
       0.067783855 -0.039362583 -0.050030183 -0.11232355

enc.enc_out1.weight f4 [8, 32]
000000 ae 36 00 bd 69 38 86 bb 99 d6 86 bd b2 7a 9f 3b
       -0.031302147 -0.00409608 -0.065839 0.0048669213
000010 d0 88 4b bd 0a dd 25 bd 97 0d c7 3d 01 2c fa 3d
       -0.04969102 -0.040494002 0.09719389 0.12215424
000020 e6 6e 6d 3d 9c 60 e9 3b da 5d 06 3e b8 0d 1e bc
       0.05796709 0.0071221124 0.13121739 -0.0096468255
000030 87 92 01 bd 01 7c 88 be 30 7d ac b9 0c 73 05 be
       -0.03163388 -0.26657107 -0.00032899668 -0.13032168
000040 f3 54 0a bd 6c a5 d9 3d 8b 3e 91 3d d6 fd 85 be
       -0.03377242 0.10627255 0.07092007 -0.26170224
000050 aa 1f 04 3f 8f 96 1a 3d 29 8d 61 bd d1 7d cc 3d
       0.51610816 0.03774124 -0.05506626 0.09984935
000060 e4 b3 75 3d 3d 43 22 bc e7 f3 b3 3d 32 17 23 be
       0.05998601 -0.009903726 0.08786755 -0.15926817
000070 3f 46 dd 3d 8d 51 3f bd eb 9d c6 3c fb 71 db 3c
       0.10804414 -0.046708632 0.024245223 0.026787749
000080 06 fb db bd 6a 32 4a bd e3 58 a7 3b 48 84 b3 3d
       -0.10741238 -0.049364485 0.0051070317 0.08765465
000090 41 58 87 3d af bc 44 bd fb 6a 99 bc a9 1d 01 3e
       0.0660863 -0.048031505 -0.01872777 0.1260897
0000a0 72 ce 61 3e bf 4d 44 bd 5b a3 34 3d fc 76 bb bd
       0.22051409 -0.047925707 0.0441011 -0.09153554
0000b0 74 7f a8 bd 9e 77 cf be 25 c1 1a bb 46 a8 fe bd
       -0.08227435 -0.40520948 -0.0023613658 -0.12434439
0000c0 39 88 a9 bd 76 ed b2 bc 34 20 6e 3e e3 9c da be
       -0.082779355 -0.021841746 0.23254472 -0.4269782
0000d0 0e 65 31 3f 8c dd b4 3c a1 d2 e4 bd d6 7e 4a 3d
       0.6929482 0.022078298 -0.11172987 0.049437366
0000e0 c6 a0 75 bd 5c 3b f2 3c e5 dd 5e bc a1 c4 b7 bd
       -0.05996778 0.02956932 -0.0136027085 -0.08973051
0000f0 74 f1 29 bb 3a 03 52 bd 8c 7d 74 3b 4d eb 10 3d
       -0.002593127 -0.05127261 0.0037306277 0.03538065
000100 5e eb 79 3d 26 f8 8e bd 5d 61 4b bd fb bf a2 bd
       0.06101548 -0.06980924 -0.0496534 -0.079467736
000110 59 45 9d bd d9 ab 8b bd 56 a5 80 3c ea 85 c8 3d
       -0.07679243 -0.06819887 0.015703838 0.09791167
000120 99 cc 86 3c 55 77 fd bc 34 63 ca 3c 90 03 65 3d
       0.016454982 -0.030940691 0.024705507 0.0559116
000130 a2 02 ab bd 44 38 aa be af 5e f3 bc e8 72 58 bc
       -0.083501115 -0.33246052 -0.029708235 -0.01321099
000140 c6 7f e9 bc 99 05 41 bd 28 0c a5 3d 3b 1c e5 be
       -0.02850331 -0.04712448 0.08058959 -0.447481
000150 e7 ff 3e 3f a5 79 00 3d 44 e7 a1 3d 49 4e 5f bd
       0.74609226 0.03136601 0.079054385 -0.054518018
000160 dd bb 52 bd 97 16 25 be 79 52 d1 3d 74 9e 7c be
       -0.05144869 -0.16121899 0.102208085 -0.2466982
000170 b1 27 96 bd e9 9c 91 3d 1b 35 c6 bd 89 cb 4f bd
       -0.07331789 0.07110006 -0.09678098 -0.050731216
000180 79 1b 5a bd e3 b3 aa 3d 48 db 69 3d 47 bb f2 3d
       -0.053248856 0.08335092 0.05709389 0.118521266
000190 6a 2d a1 3a 25 cd 90 bd 01 bf a5 3c a6 fa 11 be
       0.001229686 -0.07070378 0.02023268 -0.14255771
0001a0 19 54 67 bd f4 dd f4 bd b2 e5 68 bd f3 6d 38 bc
       -0.056476686 -0.11956397 -0.05685968 -0.011256683
0001b0 f1 f3 7b 3d 53 37 ed 3e 12 8e f1 3d ec 06 e5 3c
       0.061511938 0.46331272 0.11794676 0.027957402
0001c0 bf 9f 1a 3d b2 dd af bd de 27 87 bd 6e 12 e0 3e
       0.037750002 -0.08587207 -0.06599401 0.4376406
0001d0 2d 15 35 bf 1a 0a e8 bd f8 53 87 3d 7a b9 a0 bd
       -0.70735437 -0.11330052 0.06607813 -0.07847877
0001e0 86 97 9e bd ca 2e db bc 1f 6a 11 be a4 71 91 3e
       -0.077437446 -0.02675571 -0.14200638 0.28407013
0001f0 69 8a b1 bd 6f 95 ca 3b 95 fd e0 3d 97 0f 8b 3d
       -0.08668978 0.0061823647 0.10985867 0.06790083
000200 88 7c 57 3d 7d 20 54 bd 95 68 53 bd 5d d7 60 3d
       0.052608997 -0.051788796 -0.05161341 0.054892886
000210 2f 88 8f 3d 9f de 70 bd 44 e9 e7 bc a7 0a fa bd
       0.07008397 -0.058806058 -0.028309472 -0.12209063
000220 21 c2 ae bd 3b fb c7 bd b1 02 d9 bc 6a b9 e1 bc
       -0.08533121 -0.09764715 -0.026490541 -0.027554233
000230 d9 ea 0a be cc 26 fb 3e 57 fa f3 bc 6d 12 a5 bc
       -0.1356615 0.49053037 -0.029782457 -0.020150388
000240 46 01 d1 3d 3b 8b 96 3d 3a de a2 bd 0d d7 13 3f
       0.10205321 0.07350775 -0.079525426 0.57750016
000250 63 cc 36 bf 46 aa 10 be ba fe d8 bd 9f a5 6c bc
       -0.7140562 -0.14127454 -0.1059546 -0.014443784
000260 34 d8 5a bd d7 f9 2c 3e 1e bc c5 bd 49 26 02 3e
       -0.053428844 0.16892181 -0.09655021 0.12709917
000270 5e 93 65 3d aa c8 a7 bd 93 bf 97 3d d1 60 14 3d
       0.056048743 -0.081925705 0.07409587 0.036225144
000280 6c 69 59 bd 64 09 8a bd 35 f6 58 bd 07 fe e4 bd
       -0.053079054 -0.06740072 -0.052969176 -0.11181264
000290 38 21 77 bd 02 99 db bb bc 49 24 be 20 80 dd bd
       -0.060334414 -0.0067015896 -0.16043752 -0.108154535
0002a0 c7 5a 3e be b9 1f d1 3d da 20 09 3e a9 8d 17 3d
       -0.18589316 0.10211129 0.13391438 0.037000332
0002b0 90 e9 ca 3b 60 49 01 3f a8 ff 4b bd fe 76 90 bd
       0.0061923936 0.50502586 -0.04980436 -0.07053946
0002c0 f5 4c 50 3d b6 9d a1 bc e9 03 94 bd ca 1e 0f 3f
       0.050854642 -0.019728523 -0.07227308 0.55906355
0002d0 68 a7 32 bf 8a 6b 8c bd 6e 43 18 3c b9 42 c6 3d
       -0.6978669 -0.06856449 0.00929342 0.09680695
0002e0 76 12 1b 3d f5 07 48 3e 47 98 bd bd 25 62 0a 3e
       0.037859403 0.19534285 -0.0925756 0.13514002
0002f0 aa 65 8b ba ad 56 74 3d 0b ed c1 bd d6 55 e6 bd
       -0.0010635157 0.059652973 -0.094690405 -0.11246841
000300 61 38 52 3d 3b a3 46 ba 3d 48 8c 3d 49 c7 f8 bd
       0.0513233 -0.0007577424 0.06849716 -0.121473856
000310 da bd b3 3b e8 4c ba bc 2c 14 9a bd 75 d7 1c bc
       0.0054852786 -0.02274175 -0.07523379 -0.009572853
000320 9b 79 1a bc f1 cb 85 3d 5e 82 2c 3e 00 a4 dd bd
       -0.009428407 0.06533039 0.16846606 -0.10822296
000330 ac be 63 bd 5d 82 e7 3d 3c af 90 3a f4 cc c1 3d
       -0.05560176 0.11304162 0.0011038552 0.0946292
000340 96 f5 c8 3c 23 78 c3 3c 16 d8 3f 3c f0 da aa 3d
       0.024531167 0.023860997 0.011709234 0.0834254
000350 5a dd 03 bd 70 d6 fe 3c 0f 16 1a be 1e 89 76 bc
       -0.03219352 0.031108111 -0.15047477 -0.01504734
000360 81 64 34 bd 56 18 2d 3d e3 60 71 bd 36 25 1e bd
       -0.04404116 0.042259537 -0.05893029 -0.038609706
000370 bc ea 18 ba 04 46 03 be 9c 95 e6 bd fd 68 43 3d
       -0.0005833318 -0.12819678 -0.112590045 0.047707547
000380 89 e8 7b 3d 20 98 3e 3d a2 f5 c5 3d 27 ed 88 bc
       0.06150106 0.046531796 0.09665991 -0.016714646
000390 d7 4c 80 3d d3 90 8f 3d 0a ee 0e be e1 76 39 be
       0.06264656 0.07010045 -0.13957992 -0.18111755
0003a0 66 fa 49 bd f6 0b 6c 3c 75 c2 cf bd f7 19 66 bd
       -0.049311064 0.014407149 -0.101445116 -0.056177106
0003b0 37 bd bf 3c 8e f0 d6 3e 04 2d 97 bd 75 b4 58 bd
       0.023405654 0.41980404 -0.07381633 -0.052906472
0003c0 e6 ee a7 bc bf e4 aa bd 65 22 32 be 80 88 03 3f
       -0.020499658 -0.08344411 -0.17395933 0.5138016
0003d0 db 58 1c bf 55 a0 69 3d fc ad 67 3d 9a 6a 03 be
       -0.6107308 0.05703767 0.05656241 -0.12833634
0003e0 f1 39 31 bd 24 90 e8 3d f0 f3 4c 3d 88 bc 53 3e
       -0.043268148 0.11355618 0.050037324 0.20677388
0003f0 af 73 ef bd 86 67 99 bd 7f d8 c2 bd c4 30 bf bd
       -0.11691987 -0.07490449 -0.095139496 -0.09335473

enc.enc_out1.bias f4 [8]
000000 73 c6 79 3b 27 73 2e be 4a 5d 3e 3d dc 73 99 bc
       0.003811267 -0.17036115 0.046475686 -0.018732004
000010 b0 d6 9f 3a b0 65 f4 bd 76 ef e0 3d ee 24 ff 3d
       0.0012194719 -0.11933458 0.109831735 0.12458216

enc.enc_out2.weight f4 [1, 8]
000000 3b f4 3a bc 57 8c 52 be 8a d5 61 be 37 d3 5c 3e
       -0.011410768 -0.20561348 -0.22054115 0.21564947
000010 e3 e5 90 3e f5 8b b4 3e e8 aa 02 3a 24 27 d5 3d
       0.2830039 0.3526303 0.00049845735 0.10407856
