Lightcode/single/lightcode/jsac_results/N_3_3_d_16_16/snr2_100/seed_101/weights/gbaf_fy/T_5/pow_1/100000/0.001/K_3_m_3_snr1_0.0/model_weights120000.pt (torch, 39042 bytes, 26 tensors)

Tmodel.fe1.FC1.weight f4 [32, 7]
000000 f5 12 2b be 4d 2e 30 3e 38 90 a9 bd ff 1a 4a bd
       -0.1670645 0.17205162 -0.08279461 -0.04934215
000010 5d 3f 81 3c e2 93 a5 3a ff fd 26 3c 59 c8 7d 3e
       0.015777284 0.0012632573 0.010192393 0.24783458
000020 55 f7 51 3e 8d a5 db 3b 96 0d 33 b9 e1 06 d2 bd
       0.20504506 0.006703085 -0.00017075831 -0.10255218
000030 ad ee 71 bd e3 8a 19 bd 9c 88 17 3e ed cf 47 3b
       -0.05906551 -0.03748597 0.14798206 0.0030488924
000040 57 cd 7e bc 5c 31 42 bc 9e 18 16 bc 96 0d f3 bb
       -0.0155518865 -0.0118525885 -0.009161143 -0.007417391
000050 c6 85 31 bf 87 18 73 be 3d 42 45 3d 10 04 e7 bc
       -0.6934475 -0.23739825 0.048158873 -0.02820018
000060 73 01 92 3d 18 63 53 3e 2e a9 30 3e d9 40 61 3c
       0.07129183 0.2064327 0.17252037 0.013748371
000070 49 65 9c 38 1b 53 88 bd 24 72 0f 39 ff 07 27 b9
       7.4575255e-05 -0.06656476 0.00013680063 -0.0001592934
000080 8f 39 da b8 ab 6d 59 bf e7 4a 87 be 4a 7f 84 be
       -0.00010405771 -0.84932965 -0.26424333 -0.25878364
000090 2f e8 0a 3d c9 aa 32 bc b8 d3 80 3d 9c 6d 1d 3e
       0.033912834 -0.010904976 0.06290382 0.15373844
0000a0 cc f9 a8 3d 50 e3 8a 3d d2 1d 7f bd 47 5e 80 3d
       0.0825077 0.06781638 -0.0622843 0.06267982
0000b0 aa 11 b8 3b 92 86 c6 3b da 27 af 3b 95 78 93 3b
       0.00561734 0.0060585225 0.005345327 0.0045004585
0000c0 c5 69 5e bf d7 17 89 3e 9e 66 20 bd 32 df 2e 3e
       -0.8688014 0.26776 -0.039160363 0.1707733
0000d0 74 26 77 be fb e9 a0 bb 68 c3 9e bc 7a ad 4d bc
       -0.24135762 -0.004910705 -0.019380286 -0.012553567
0000e0 c8 28 62 be 21 36 e8 bd 11 0d 28 bd 9b 0d 03 3e
       -0.2208587 -0.11338449 -0.041028086 0.12798159
0000f0 0e 48 49 3d 81 58 df 3a 90 9a 35 3b 22 6b 31 be
       0.049140982 0.0017039926 0.0027710535 -0.17326024
000100 3f 64 e4 3d 65 88 18 3d d7 d2 43 be a8 ad d4 bd
       0.11151933 0.03723945 -0.19123398 -0.10384685
000110 0d b9 95 bd ce 54 f8 bc 68 e0 0c be fc 4a 79 3e
       -0.07310686 -0.030313876 -0.13757479 0.2434501
000120 ba 42 79 3e a7 38 d1 37 c4 78 da bd df 7d a3 bd
       0.2434186 2.4941122e-05 -0.106675655 -0.079829924
000130 06 7d 3a bd 8e 2b d6 bd 41 03 71 be b7 55 29 3d
       -0.045529388 -0.10457526 -0.23536398 0.04134151
000140 ad 0f 50 be 8d c9 25 be 63 d9 ef bd 7f ac 9e bd
       -0.2031848 -0.16190167 -0.11711385 -0.07747745
000150 fc 3c 68 be c3 3e 68 3e 79 03 27 37 ec d9 27 b6
       -0.22679514 0.22680192 9.954784e-06 -2.5011786e-06
000160 5a f0 27 be b4 a8 51 bd aa 45 de bc dc 78 0b 3e
       -0.1640028 -0.05118628 -0.027132828 0.13620323
000170 76 5b c3 3c 2e 76 7b 39 a3 9b 25 3d 88 7a f6 3c
       0.023847323 0.0002398125 0.04043163 0.030087724
000180 04 87 f6 be 61 4f 17 be 96 bd 09 be d6 09 5a 3e
       -0.48149884 -0.14776374 -0.13451228 0.21292815
000190 ee 91 e7 3d df fd 15 3e 55 10 04 3e 10 45 b7 3d
       0.11307131 0.14647625 0.12896855 0.089487195
0001a0 e8 b7 85 3d 91 c7 65 3d 20 94 25 3b 98 8b 4b bd
       0.06529218 0.056098524 0.0025265291 -0.049693674
0001b0 56 b0 e2 bd 5e f5 b4 bd f2 f6 06 3e 82 9c 84 3d
       -0.1106879 -0.088358626 0.1318014 0.06475164
0001c0 36 be d7 bc 5b 81 8f bd c3 df 8b 37 a6 c7 dc b6
       -0.026335817 -0.070070945 1.6674288e-05 -6.579753e-06
0001d0 b0 f6 7d 3e 77 0f 39 3e f2 af 07 3e 20 57 f4 3d
       0.24801135 0.18072306 0.13250712 0.1193068
0001e0 33 86 09 3d f1 6b 8d bd fd a1 c2 bd 78 f0 a5 bd
       0.033575248 -0.06905354 -0.09503553 -0.081025064
0001f0 3f 8a 73 bd f0 de d9 be f3 79 3a 3b 6f c6 71 3e
       -0.059458014 -0.425529 0.0028454035 0.23610853
000200 81 63 d9 bd f0 14 b6 3d cb b5 ab bb 02 8d 05 bb
       -0.10614682 0.08890712 -0.0052401773 -0.0020378237
000210 e6 14 09 bc 6b b0 cd 3d 5c bb 13 3e 2a 4c 76 3e
       -0.008366799 0.10043415 0.1442694 0.24052492
000220 62 ac 82 3c 71 4c 2e 3d 37 89 d2 3d 76 d7 86 3d
       0.01595134 0.04255337 0.10280078 0.06584065
000230 a0 cf 8a bc d1 6f cc 3d 76 ad 13 be 80 79 82 be
       -0.016944706 0.09982265 -0.14421639 -0.25483322
000240 3d 7a 79 bd 34 3b 4b bd 17 05 ba bc 46 8a f4 3d
       -0.06090759 -0.049617007 -0.022707505 0.11940436
000250 fd 68 33 3d 0f f4 66 be b9 84 67 3e e1 c0 05 3e
       0.043801297 -0.22554038 0.22609223 0.13061859
000260 d8 72 ab 3d 32 08 69 3d 67 f7 a4 bd 31 a5 87 3d
       0.08371514 0.05689258 -0.08055001 0.06623305
000270 fb d8 f4 bd 69 15 68 3a c2 d0 b8 bd e5 24 93 be
       -0.11955448 0.0008853288 -0.090241924 -0.28739086
000280 0c 9e 04 be 73 8d 86 be 90 03 d3 bc 12 15 20 3a
       -0.12950915 -0.26279792 -0.025758535 0.00061066553
000290 cc 68 76 b7 33 32 af 3d 29 69 96 bd 4c 40 8b bd
       -1.46871425e-05 0.085544966 -0.073442765 -0.06799373
0002a0 77 1b 15 3e 1f 1b 46 bd 40 0a bb 3d 9d 3e 71 bc
       0.14561258 -0.04836571 0.091328144 -0.014724401
0002b0 8f a2 dc bc cf a7 58 3e 37 9e 83 3d 9f 28 5e 3b
       -0.026932983 0.21157764 0.064266615 0.0033898724
0002c0 6e d8 af 3d 69 16 6f 3e c4 62 0a 3e 57 31 6e 3d
       0.085862026 0.23348393 0.13514239 0.058152523
0002d0 26 7a 8e 3c 64 a7 79 bb 3a cb 92 3e 78 8f a5 be
       0.01739223 -0.0038094157 0.28670675 -0.3233602
0002e0 82 06 91 3e b5 6d b2 3d 01 17 51 3d f4 b3 04 3d
       0.28325278 0.08712331 0.05104733 0.03239818
0002f0 a7 1e 6a 3c b4 56 50 be 81 59 d9 3c 09 78 27 be
       0.014289535 -0.20345575 0.026531937 -0.16354384
000300 13 5b 83 3e f0 e1 ff 3c 63 ae df 3c 9f 66 80 3c
       0.25655422 0.031235665 0.027304834 0.015673934
000310 39 6b 91 3e 67 c6 81 be ec 44 1e be c0 18 fb bd
       0.28402117 -0.2534668 -0.15455979 -0.1226058
000320 f5 f6 38 bd 80 17 c4 bd 15 64 ad bd 33 ab 2d 3e
       -0.04515739 -0.09574795 -0.08466355 0.16959839
000330 56 07 e2 3c d8 6f 11 3e 94 c8 a6 35 40 06 47 be
       0.027591389 0.14202821 1.242634e-06 -0.19435978
000340 ef 31 d2 bd ea 32 78 bd 3f 7c 2e 3e e5 96 5a bd
       -0.1026343 -0.06059543 0.17039584 -0.05336656
000350 45 5e 90 35 0c 6f c0 b7 64 b4 c0 3d 8f 0e 10 be
       1.0756272e-06 -2.2939894e-05 0.09409407 -0.14068054
000360 52 a1 09 be 6c fc 1d b8 2a 80 38 3d 88 0b 80 3d
       -0.13440445 -3.7666803e-05 0.0450441 0.062521994
000370 e1 70 17 38 11 f9 66 3e aa 98 ec bd 44 c5 1e bd
       3.6106332e-05 0.22555949 -0.11552556 -0.038762346

Tmodel.fe1.FC1.bias f4 [32]
000000 4c 57 00 3e 52 21 86 bc 4b bf 9d bd f9 0d 89 bd
       0.12533301 -0.01637331 -0.07702502 -0.06692118
000010 fe 72 87 3d 3d 1d 83 3d 5b 05 e5 3d 7c 90 0b be
       0.0661373 0.06402061 0.11182662 -0.13629335
000020 d6 6d af 3d a8 81 7d be ac dc 0c 3e 64 39 1a 3e
       0.085658714 -0.24756491 0.13756055 0.15060955
000030 38 cf 8d b7 42 53 2b be d4 15 78 3e c0 95 12 3c
       -1.6905004e-05 -0.16730979 0.24227077 0.008946836
000040 01 03 33 3d 79 82 1e be 83 dd c1 bc 53 cc 0d bd
       0.043704037 -0.15479459 -0.023665195 -0.034618687
000050 a7 21 57 be f9 88 19 be 07 cb 8d be 4a 63 73 3e
       -0.21008931 -0.14993657 -0.2769396 0.23768345
000060 7a 61 bf 3b 94 7d 97 3d dc ac 79 be 90 36 aa 3c
       0.0058404775 0.07396999 -0.24382347 0.02077797
000070 e8 fc 22 3e 5f 2c 9a 37 67 c0 ef bd 80 6e 8f bc
       0.15916789 1.8378892e-05 -0.1170662 -0.017508745

Tmodel.fe1.FC2.weight f4 [32, 32]
000000 93 63 96 3c 0f f8 bd 3d a9 8f 54 be d4 6a e5 3d
       0.018358028 0.09275829 -0.20757927 0.112020165
000010 4d 7f 95 bc 8b bb ef 3c c6 6e 80 3e d3 17 7a bd
       -0.018249178 0.029264232 0.25084513 -0.061057877
000020 38 f4 71 3d 5d 57 44 be 9f 55 90 bd 55 6f 84 3d
       0.059070796 -0.19173951 -0.07047581 0.064665474
000030 e1 34 bf 3d e7 b7 d2 3c 19 26 da 3d 03 c7 df 3d
       0.09336258 0.025722457 0.10651798 0.1092663
000040 d8 38 c2 3d 8b 58 61 3d 76 26 87 bd 19 b0 94 bd
       0.09483498 0.05501608 -0.06599133 -0.072601505
000050 ff 22 18 3e 11 15 59 ba 54 3c 0f 3d d0 2f 85 3d
       0.148571 -0.0008281032 0.034969643 0.0650326
000060 54 38 ca bc 62 59 9d 3e b2 97 fc bd c6 af 42 3e
       -0.024685062 0.30732256 -0.12333621 0.19012365
000070 5c 19 7d bc c7 60 14 3d a0 06 ba bd 2c 6c 68 3d
       -0.015447941 0.036225107 -0.09083295 0.056743786
000080 02 e3 18 bf f6 af 86 3d f1 94 33 3e cd 1f f2 3c
       -0.59721386 0.06576531 0.17537285 0.02955618
000090 74 e1 06 bd a5 7d 9f bc 20 bd c6 bd 0b a0 7d be
       -0.032929853 -0.019469092 -0.097040415 -0.24768083
0000a0 a8 4e 10 3e 84 14 89 bf f9 32 a6 bd e2 eb 90 3d
       0.14092505 -1.0709386 -0.08115191 0.07076241
0000b0 b1 c9 e1 c0 81 e7 6c 3d b2 5e a2 bd cc 5e 0f 3d
       -7.0558705 0.057837967 -0.07928218 0.035002515
0000c0 7a 4c 86 3c 36 bd c3 bd 2f c1 fa 3c ab 35 11 3d
       0.016393889 -0.095575735 0.030609695 0.035451572
0000d0 35 9b c0 be 6d e1 f8 3d 33 d6 9f bc ad ee 82 bd
       -0.37618414 0.121523716 -0.019511318 -0.0639318
0000e0 8b 12 8a bd 4b 28 0d be 58 ae 09 3e b4 56 7e 3e
       -0.06741818 -0.13784902 0.13445413 0.24837762
0000f0 02 5b a0 bd 2f f5 a2 be 13 6c 88 bb 91 e7 be 3c
       -0.07829858 -0.31827685 -0.004163274 0.023303779
000100 a1 0c d5 bd b3 2f e3 bc 95 81 9b bc 9b 11 05 bd
       -0.104027994 -0.027732706 -0.018982688 -0.032487493
000110 f3 4d a3 bc 47 60 cb ba 34 fa 05 bc f3 85 06 3e
       -0.01993463 -0.0015516364 -0.008177329 0.13137035
000120 76 c9 d4 3c 14 13 1b bd 3d 0e 43 bd 7d 75 ea bd
       0.02597497 -0.03785999 -0.047621 -0.1144819
000130 9d e8 6b bd 43 3e c0 3c 6f 88 07 bc 68 2d 40 bd
       -0.057594884 0.023467189 -0.008272274 -0.046918303
000140 98 f1 e8 3b 7e 5c 84 3d 3c cb c1 3d 0e 6c 64 3d
       0.0071088783 0.06462954 0.09462592 0.05576711
000150 4a 23 0a bd da 7c 39 be 3b 1b 19 bd 78 77 4f 3e
       -0.03372506 -0.18114033 -0.037379485 0.20260417
000160 95 d4 2f bb df dd 19 3d 85 c2 8a 3e d0 22 c7 bc
       -0.002682959 0.03756511 0.27101532 -0.024308592
000170 99 8a a3 bd 70 72 95 3d 6e 0b 0f bd aa c5 de bc
       -0.0798542 0.07297218 -0.03492301 -0.027193863
000180 2e 10 b9 be 33 97 58 3d 4c 7a 40 3e 1b 52 8d 3e
       -0.36145157 0.05287857 0.18796653 0.27601704
000190 93 8b c6 3d c2 3f a1 be 89 dc 8f be bb 26 1b bc
       0.096945904 -0.31493956 -0.28097942 -0.009469683
0001a0 07 cd a8 3b ca 07 6d 3e fc f9 f1 c0 09 36 d4 bc
       0.0051513943 0.23147503 -7.5617657 -0.025904672
0001b0 68 5e b3 3d 0e 16 4d be 38 ed a5 bd 2d 38 c9 3d
       0.08758241 -0.20027944 -0.081018865 0.09825168
0001c0 46 af 87 bd 64 14 2d 3d 9c 61 cb 3b 84 9a 19 be
       -0.06625228 0.042255774 0.0062067043 -0.1500035
0001d0 86 65 f6 3d 96 f2 16 bd 06 a5 dc be 0f a4 d2 3d
       0.12031083 -0.03685244 -0.43094653 0.10285198
0001e0 f6 35 ba bd bc eb 45 3d 9f 45 e1 3d d7 99 90 3c
       -0.090923235 0.048320517 0.10999607 0.017651482
0001f0 3c 1d 32 bd 6b de ea 3d 66 29 45 3e 87 9a a1 c0
       -0.04348491 0.11468204 0.19254074 -5.050113
000200 8f 62 25 3e 26 9a 34 3c 4a 58 d6 bb f1 81 e7 3b
       0.16150878 0.01102308 -0.0065412866 0.007065051
000210 56 92 02 bd e0 f0 32 be 89 e1 e0 3c 7f 20 d7 3c
       -0.031877838 -0.17474699 0.027451294 0.026260613
000220 64 fb 1c bc 1c 18 8c 3e 72 3e 14 be eb b2 e2 bd
       -0.009581421 0.27362144 -0.14476946 -0.11069282
000230 d6 7e 93 3c db 3c 67 3d 2d af 3d 3d 46 3a a7 3d
       0.018004816 0.05645452 0.04630964 0.08165412
000240 5a ce 82 bd 68 8b f6 bc 78 3e c3 3d 81 2f 19 be
       -0.06387015 -0.030095771 0.09533399 -0.14959528
000250 af 38 c4 be 58 76 59 3d c5 36 fe bc 08 f5 df bd
       -0.38324496 0.053091377 -0.031031976 -0.10935408
000260 ee 52 4c 3a d9 b9 54 be ec f7 48 3d 95 91 85 bd
       0.000779434 -0.2077402 0.04906456 -0.06521908
000270 ff 07 ce bc 74 0d 15 3e 3e 3b e1 3c 06 8d 99 3d
       -0.025150297 0.14555913 0.02749407 0.07497601
000280 2b 28 09 3e 6f ae 01 bd 61 16 12 bd 5c e4 ca 3c
       0.13394229 -0.031660493 -0.035665873 0.024767093
000290 c5 36 c8 3b 1a e0 8f 3e cb 99 be 3c 08 f8 81 3e
       0.0061100447 0.28100663 0.023266694 0.25384545
0002a0 9e 85 09 ba ea 17 e9 3d 92 13 a2 3b fb de 71 3d
       -0.0005246046 0.11381514 0.0049461806 0.05905054
0002b0 a1 03 31 bd 67 d1 e5 bc 92 76 a7 bd c8 57 51 3d
       -0.04321635 -0.028053952 -0.08176912 0.051109105
0002c0 c1 44 90 3c 41 4c 6d 3c 2e 7b b3 bd 5e 5f 09 bd
       0.01761091 0.014483512 -0.08763729 -0.033538215
0002d0 e9 c8 5a 3e 3e 87 03 bc 0a ad 40 3d 89 0a 94 bd
       0.21365704 -0.00802785 0.047040023 -0.07228572
0002e0 a5 16 86 3c 13 7d 0e 3c d5 fd 0f 3e a7 c5 37 3d
       0.01636822 0.008696812 0.14061673 0.04486623
0002f0 e3 2c 05 3e 0c 77 e2 bc 54 d0 76 bc 8d 92 13 bd
       0.13005404 -0.027644657 -0.015064318 -0.036028434
000300 38 9b 0d 3e 23 aa de bd b1 1f f7 bc c0 a4 cb 3c
       0.13828743 -0.10872295 -0.030166479 0.024858832
000310 91 bf 97 3d 80 fd 34 bd 4e 92 7e bc a1 6a 21 3d
       0.07409585 -0.04418707 -0.015537811 0.03940833
000320 a2 57 b5 bd d0 37 2f be 4c c1 fe 3a 3f b9 d6 bd
       -0.08854605 -0.17111135 0.0019436269 -0.10484552
000330 53 c9 9f bd 07 16 13 3c 3e 58 9c 3a 92 d0 b0 bd
       -0.078020714 0.00897742 0.0011928154 -0.08633532
000340 e4 6a b1 3c 4f 2b 63 3d 07 69 c7 3d 73 24 b3 bc
       0.021657415 0.055461224 0.09736829 -0.021867966
000350 67 7a 9a bd 4e 4c 11 be e4 7c 4f be f7 6d 3b 3d
       -0.07542878 -0.14189264 -0.20262486 0.045759168
000360 c9 a1 59 bc 61 2b a8 3d 69 54 1b 3e 29 e1 d1 bd
       -0.0132832015 0.08211399 0.15168919 -0.10248024
000370 c8 5f b5 3d bc c6 6b 3d 6d 3a 64 3d d8 94 92 bd
       0.088561594 0.057562575 0.05571978 -0.07157296
000380 b2 3d 0d 3e 5a de 96 bc 44 7d a0 3e cf 7d 8e 3d
       0.13793066 -0.018416572 0.3134557 0.0695759
000390 cf 49 56 3c 0d 3b 7b bd 85 73 52 be bc 18 8e bd
       0.013079121 -0.061335612 -0.2055188 -0.069383115
0003a0 77 69 0c 3e 25 8c 2a bd c8 f2 85 3d 58 61 24 3e
       0.13712107 -0.04163756 0.065404475 0.16052759
0003b0 7d 52 b6 3c 73 63 b0 3d ff 18 05 be 33 3f 9f 3d
       0.02225613 0.086127184 -0.12997817 0.07775726
0003c0 9e fe 6e 3d f4 07 f0 bd b2 e3 11 3e e5 60 db bd
       0.05834829 -0.11720267 0.14247015 -0.107118405
0003d0 59 73 47 bd a9 9e 7a bd 04 2d ca bc e7 6c 03 3d
       -0.04869399 -0.061186466 -0.024679668 0.03208628
0003e0 1c 57 4d bd 1b 29 d8 bc e3 b9 9e 3d 25 df 87 3b
       -0.050131902 -0.026386788 0.07750299 0.004146474
0003f0 2d 18 32 bd 6b 7e d4 bd 5d 23 a2 3c 91 63 f4 bc
       -0.043480087 -0.10375675 0.019792253 -0.029832633

Tmodel.fe1.FC2.bias f4 [32]
000000 bb 50 e5 bd d1 82 07 3c 0b 58 ca 3d 83 ec 82 bd
       -0.11197039 0.008270935 0.09880074 -0.06392767
000010 01 5b 59 3d d3 8e 0c be 0c 23 eb 3d 74 e9 76 bb
       0.053065304 -0.13726358 0.11481294 -0.003767577
000020 73 af ea bd f1 a9 78 bc ff 6b bd bc b1 73 9f bd
       -0.114592455 -0.015177236 -0.023122786 -0.07785738
000030 44 58 a8 3d 6e 70 2f 3d fb 3f d8 bd 77 1e 16 3d
       0.0821996 0.04283183 -0.10559078 0.036650147
000040 2f 8d 1e be 60 3b 9c 3d 82 40 a6 bd 6f ca 53 3d
       -0.15483545 0.076285124 -0.08117773 0.051706728
000050 98 9f 58 bd 02 ac 26 bc f5 cb 7c 3d ec 56 96 bc
       -0.052886575 -0.010172846 0.061717946 -0.018351994
000060 54 0f a0 3c 87 04 4d be 25 8b 3f bd c3 d3 88 bb
       0.019538559 -0.20021258 -0.046763558 -0.0041756346
000070 b2 e6 2e be 8f f4 7e bc b9 50 b5 3d 38 06 20 3d
       -0.17080191 -0.015561237 0.08853287 0.03906843

Tmodel.fe1.FC3.weight f4 [32, 32]
000000 fa 99 88 3d 0a 96 39 be b2 0f 22 3e 25 f8 27 bf
       0.06669994 -0.18123642 0.158263 -0.65613014
000010 43 5f 10 3e f6 b4 cb bd aa 3d 01 3e d4 3e b6 bd
       0.1409884 -0.09946625 0.12621179 -0.08898702
000020 49 76 c3 bb 37 c6 f1 3d 24 3a 2c 3e 13 dc 5f bb
       -0.0059650284 0.118053846 0.16819054 -0.0034158274
000030 52 c2 9f 3d 90 c2 6a bd 4e 39 40 3e 8b 17 4b bd
       0.078007355 -0.057314456 0.1877186 -0.049583
000040 a9 82 4e 3e ca f2 17 3e e0 12 b0 bd 0e 3c 31 3b
       0.2016703 0.1483871 -0.0859735 0.0027043852
000050 4d 31 df bd 28 0a 13 3e d0 ef 15 3d e2 d8 94 bd
       -0.10898075 0.14359343 0.036605656 -0.072679296
000060 05 e7 e6 3d f4 a9 58 3e 25 79 3d 3d e8 ab 1d bd
       0.11274532 0.21158582 0.04625811 -0.03849402
000070 24 87 61 3e c8 30 fc bd 40 7a 9f bc 4d d5 8f bc
       0.22024208 -0.12313992 -0.019467473 -0.017557764
000080 b2 e6 6c bd b0 23 50 bd f1 34 fd 3d 4f ef 3e bf
       -0.057837196 -0.050815284 0.123636134 -0.74583906
000090 c8 3a 8a 3d c0 01 c4 3d be a1 44 bd 52 36 8e bc
       0.06749493 0.09570646 -0.048005812 -0.017359886
0000a0 13 34 91 3c a5 f9 ae bd 4f fe 9c 3c c5 0d 6a 3e
       0.017725026 -0.0854371 0.019164233 0.22856815
0000b0 a9 b4 96 bd 72 0e 00 3d 4f fd 34 3e 8e 6f 0d 3d
       -0.07358677 0.031263776 0.17674755 0.034530215
0000c0 b5 84 19 3d 0e e9 cd 3b d3 14 5c bd 9d f5 08 3d
       0.037480075 0.006283886 -0.053730797 0.03343736
0000d0 81 11 90 bd 8a c4 26 3f 75 b6 f2 3b 25 2d b3 3c
       -0.070345886 0.65143645 0.0074070045 0.021872113
0000e0 70 78 1f bd ae 30 80 3e d1 d1 95 3d b9 52 02 be
       -0.038933218 0.2503714 0.0731541 -0.12726869
0000f0 d9 17 89 3e fc de ac bd 8d 23 93 bb 68 6e f0 3d
       0.26776007 -0.084409684 -0.004490322 0.11739808
000100 b1 ba 19 be 41 9e 07 3e 35 cc 3f bd cd e9 09 3f
       -0.15012623 0.13243963 -0.046825606 0.53872377
000110 b6 cd ad bd 69 c7 2f bd 70 69 f8 bd a6 52 d6 3d
       -0.08486502 -0.04291478 -0.121294856 0.10464983
000120 b0 df ba ba 56 0b cd bd fb da 0f be 17 1b d6 bd
       -0.0014257338 -0.10011928 -0.14048378 -0.10454386
000130 8f fa 69 3d 64 08 63 3d 1d dc 19 be a3 a6 9e bd
       0.057123717 0.055427924 -0.15025373 -0.07746627
000140 fb 3f e2 bd 06 d9 5b 3c 43 70 06 3d 02 43 1d 3d
       -0.110473596 0.013418442 0.032821905 0.03839398
000150 5d 06 15 3c 78 ca 34 bf fd 02 a5 3d 49 be 3b 3d
       0.009095755 -0.7062144 0.080572106 0.045835767
000160 36 9f 6b bd a2 26 59 be 97 6b d9 bd 57 30 16 3e
       -0.057524882 -0.21206143 -0.10616224 0.14666878
000170 3d f5 0e be ed ea 22 3e 6b 57 02 3e 2c 14 1b be
       -0.13960738 0.1590993 0.1272866 -0.15144414
000180 4e 69 b1 3c ae ca 9d bd af b1 7d 3c 39 34 60 bf
       0.021656659 -0.07704674 0.015484258 -0.87579685
000190 a0 cc 55 3d 23 15 f6 3c 32 3d bf 3c 1e d3 a8 bc
       0.0521971 0.030039376 0.02334461 -0.020608481
0001a0 2a 76 04 3e 3b d4 31 3e 07 72 cb bc 05 ae 36 bc
       0.12935701 0.17366116 -0.024834646 -0.011149888
0001b0 d3 f8 60 3d 0d cf ca ba c3 25 37 3e 9b 54 19 3e
       0.054924797 -0.0015473083 0.17885499 0.1497368
0001c0 54 d9 f5 3d a2 d6 13 bc f1 42 7c 3c 59 be 8f bd
       0.12004343 -0.00902334 0.015396819 -0.07018728
0001d0 7d ad 25 3c 42 99 6c 3f cc 59 22 be 2e fe ae 3d
       0.010112164 0.9242135 -0.15854567 0.08544575
0001e0 0e e6 89 bd 8f 76 3f 3e 97 69 b1 3d 2c 56 92 3d
       -0.067333326 0.1869757 0.08662718 0.07145342
0001f0 85 8f 28 3e cd 4c d6 3c 16 dc 6e be 1a 0f 04 3e
       0.16460998 0.026159668 -0.23326144 0.12896386
000200 07 d9 9c 3b 24 af 20 be 64 c4 6d bd e6 5b cc bd
       0.004786614 -0.15691811 -0.05804862 -0.09978466
000210 c7 4c b9 bc 1e 4e e4 bd 4b b1 02 be 9c 4b 5e bd
       -0.022619618 -0.11147712 -0.12762944 -0.054271325
000220 51 fd 5e bf 5f 1b 09 be 9a b1 b5 3e bd 5e 67 3e
       -0.8710528 -0.13389347 0.35487062 0.22594734
000230 1a 0d bd 3d 60 90 fb bd 4a 87 ad 3d 26 ab 18 bd
       0.092310145 -0.12283397 0.0847307 -0.037272595
000240 32 22 5c bd e9 19 0e 3e a3 3d 07 be 45 d9 68 bd
       -0.05374355 0.13877071 -0.13207106 -0.05684783
000250 43 ac 03 be db e6 c0 bf 1f 62 c6 3d ce 42 58 be
       -0.12858681 -1.5070451 0.09686684 -0.21119234
000260 ce c1 88 3e 5c 45 bc bd 9f 07 08 3e 23 48 61 be
       0.2671036 -0.09192917 0.13284157 -0.22000174
000270 0a 07 2a bd e8 7a 09 bf 0f 5a 9b 3e 07 c1 be bc
       -0.04151062 -0.53703165 0.30342147 -0.023285402
000280 fa 34 4c 3c 45 4d 9b 3d 94 d8 0d be 83 91 13 3f
       0.0124638025 0.07583097 -0.13852149 0.5764391
000290 3d f9 2c be d0 bb 2d be f2 26 e8 bd a9 f0 ed 3d
       -0.16891952 -0.16966176 -0.11335553 0.11618168
0002a0 ef d1 44 b9 4e 81 ea bc 27 9a 2c be 23 dc 0b be
       -0.00018770223 -0.02862611 -0.1685568 -0.13658194
0002b0 7e 55 11 be a8 57 f9 3d 21 a6 4d be 9d a3 d8 bd
       -0.14192769 0.12174922 -0.20082904 -0.10578082
0002c0 02 aa 16 be 73 14 8c bd 46 5f 4a 3d b3 e1 bf 3d
       -0.1471329 -0.06839838 0.049407266 0.093692206
0002d0 35 68 cf 3d d3 a0 1a bf 90 38 cf 3d 9d 4a c5 3d
       0.10127298 -0.6040165 0.1011821 0.09633372
0002e0 6f 8f d2 bd 20 81 8b bd 7b dd 17 be 7d 4f ff 3d
       -0.10281264 -0.06811738 -0.14830582 0.12466333
0002f0 61 a1 8a be f6 d1 06 3e 6d da a1 bb 96 9d de bd
       -0.27076247 0.13166031 -0.0049393685 -0.10869901
000300 b6 ea 2a bc 3c 2d 1b 3e 28 a9 12 be 7d c4 61 bf
       -0.010431936 0.15153974 -0.1432234 -0.8819044
000310 fa 9e 2b bd f0 62 e9 bd 75 86 7f be 51 d4 99 be
       -0.04189966 -0.11395824 -0.24953635 -0.30044797
000320 78 e7 99 3e ea 9c 60 bd a7 6c 11 3e 3e 19 ae 3e
       0.3005941 -0.054837145 0.14201604 0.34003633
000330 cc 02 ed 3d 36 e6 45 3e f7 85 69 bd 41 3c 81 bd
       0.11572799 0.193261 -0.057012524 -0.06310321
000340 cb ca d0 bd 0d 91 3d be 3a 95 02 be b4 1e 02 3e
       -0.1019493 -0.18512364 -0.12752238 0.12707025
000350 4f 61 4a be d8 aa 0d 3e e7 36 2f be 88 e6 d8 3e
       -0.19763683 0.13834703 -0.17110787 0.4236338
000360 33 68 43 be 50 13 23 3f 13 d6 86 bd 25 9d c2 3e
       -0.19082718 0.63701344 -0.065838 0.38010517
000370 76 0e 46 be 32 8b 60 bc 8b e1 df bc f6 a4 6a 3e
       -0.19341454 -0.013705062 -0.027329227 0.2291449
000380 ab 92 34 bd 4b 8c 3f be 39 b4 53 3e e9 b0 72 be
       -0.044085186 -0.18705861 0.20674218 -0.23700298
000390 96 98 1b 3c 71 57 19 3e f9 d8 b9 3c 6f e7 98 3d
       0.009496829 0.14974762 0.022686468 0.074660175
0003a0 c3 ed 9e bc cd d5 2c 3e 98 ac da 3d 87 93 e7 3d
       -0.019400483 0.16878434 0.10677451 0.113074355
0003b0 69 ba 44 bc 80 d3 d4 bd 6c 35 ac 3c d0 4e 00 3e
       -0.012007334 -0.10391903 0.021021567 0.12530065
0003c0 09 11 0b 3e 68 a7 8b bc c4 05 86 3d 2e 81 fc bd
       0.13580717 -0.017047599 0.065440685 -0.123293266
0003d0 d3 d2 a4 bd 09 0a 5d 3f 0c b2 7a bd 36 b6 cc bc
       -0.08048024 0.8634344 -0.061204955 -0.024989229
0003e0 dc a6 c2 3c d8 01 5c 3d 66 bc 22 3c cc c1 4a be
       0.023761205 0.053712696 0.009932613 -0.1980049
0003f0 19 59 7a 3e ea 04 4e bd 7d d9 df bd ed 0d 12 3d
       0.2444805 -0.050297655 -0.109301545 0.035657812

Tmodel.fe1.FC3.bias f4 [32]
000000 bc 6c ce 3d 83 d3 b4 bc 0e 1b a4 bc 2d 9c 30 bd
       0.10079333 -0.022073513 -0.020032432 -0.04311769
000010 c4 9a 63 3d bc eb 27 bc da 11 0a be f2 e4 ee 3d
       0.055567518 -0.010249075 -0.13483372 0.116647616
000020 8c 24 dc bc 32 bf 53 3c 25 fb c2 bd 0e b5 d9 3d
       -0.026872896 0.0129240025 -0.09520558 0.106302366
000030 75 50 ae bd ca d0 14 bd 54 d3 1a 3e 71 8a bb 3c
       -0.0851144 -0.03633193 0.15119678 0.022893162
000040 ee 1d 05 be 92 e2 a7 3c 39 c7 0c bd fa c0 0b 3e
       -0.12999699 0.02049378 -0.03436968 0.13647833
000050 cc a4 b9 bd 76 08 c6 bd 5b ab 4b 3d 57 09 bf 3d
       -0.09064636 -0.096695825 0.049723964 0.09327953
000060 50 24 3c bd 4c e6 ff bd bb 0a af 3d 36 b2 8c 3c
       -0.045933068 -0.124950975 0.085469685 0.017174821
000070 23 97 08 3e 92 37 ba 3d 0e 02 98 bd 12 f0 00 bd
       0.13338904 0.090926304 -0.07422267 -0.03147895

Tmodel.fe1.FC4.weight f4 [16, 64]
000000 9d 5b c1 bd 12 89 d9 3d df 7d b2 3d 08 dc 4c 3d
       -0.09441302 0.10621847 0.08715414 0.050014526
000010 b9 a7 08 be 63 73 24 be e8 fa 1a be 77 18 3e 3e
       -0.13345231 -0.16059642 -0.15134776 0.1856402
000020 d5 c4 9e 3d ac b1 33 3e 4f e6 8f 3e e7 27 8d 3e
       0.077523865 0.17548245 0.281054 0.27569506
000030 32 ad 8a bd 7d 20 84 3d 59 ec 9f bd d7 e5 76 3e
       -0.06771316 0.06451509 -0.078087516 0.24111114
000040 8f 08 7c bc de ea 31 3e ea 77 1a 3c d3 ff db bb
       -0.0153829 0.17374751 0.009428004 -0.006713846
000050 c0 4a 92 3d fd e5 8d 3d 7f 65 f0 3d 15 8f 18 be
       0.07143164 0.069286324 0.11738109 -0.14898331
000060 b8 01 19 be 72 a5 af 3b dc 0a 29 be b7 85 19 be
       -0.14942062 0.005360299 -0.16508049 -0.14992414
000070 13 f0 03 be 72 1e 22 3d dc 6e 92 be ff 34 22 be
       -0.1288455 0.039579816 -0.28600204 -0.15840529
000080 3c cc ca 3c fc b5 95 3c ca 97 a0 3b 8e 88 56 bd
       0.02475559 0.018275253 0.004900907 -0.052376322
000090 ae d9 8e 3c 2c fb 07 3d 9f 2b 30 bd a9 81 23 3e
       0.017437782 0.03319852 -0.04301035 0.1596743
0000a0 f6 3c b4 bd b8 38 08 3d c6 ba 63 bd e8 6c 8f 3b
       -0.0880069 0.033257216 -0.055598043 0.0043769963
0000b0 b6 b6 5a bd 98 c8 7c 3a 8d 5e 10 bd 42 c6 07 3d
       -0.053396903 0.0009642928 -0.03524642 0.033148058
0000c0 2c fc 85 3d a8 27 6b 3d b5 c5 53 3d af e4 95 3d
       0.065422386 0.057410866 0.05170222 0.073190086
0000d0 4c 28 c3 3c be 0d 01 bd 8a b3 73 39 c0 53 7b 3c
       0.023822926 -0.031507246 0.0002324117 0.015339792
0000e0 e4 02 b9 bb b7 fb ea 3a 60 51 d4 bc 49 b0 2f be
       -0.0056460965 0.00179278 -0.025917709 -0.17157091
0000f0 a9 3c b0 bc 4c 22 83 bd d3 18 b6 bb 06 d6 0d bd
       -0.0215133 -0.06403026 -0.0055571585 -0.034627937
000100 0a 82 9a bd 45 1e de bb 52 d3 24 3e 8d 71 0f be
       -0.07544334 -0.0067785108 0.16096237 -0.1400816
000110 59 37 d3 bd 5a 5b 3c 3e 16 c7 af 3d 2d 5b 49 bd
       -0.10313291 0.18394223 0.085828945 -0.049159218
000120 7c 76 98 bd 4c 0c c0 3d eb e9 3e 3d 62 65 63 bd
       -0.07444474 0.093773454 0.0466098 -0.055516608
000130 f6 37 e3 3c 9b 1f 38 bd 84 3c 18 bd 7e 25 f6 bc
       0.027736645 -0.044952016 -0.037167087 -0.030047175
000140 32 ef 9a bd 7d eb de bd bd 52 c3 bd 0c 9e 18 bd
       -0.07565154 -0.108847596 -0.095372654 -0.0372601
000150 30 84 fb 3d f1 9c 4c 3e 83 0a 03 bd 29 1a a8 3d
       0.12281072 0.19981743 -0.031992447 0.08208115
000160 b5 dc 95 bd ba 2e 4b 3e e2 5b 0a 3e 0d fa 21 3e
       -0.07317487 0.19842044 0.13511613 0.15818043
000170 0c 46 20 be 9f ba 15 bd 16 80 92 bd bc 3f d1 3a
       -0.15651721 -0.03655493 -0.07153337 0.0015964429
000180 5d 0d ac 3a 69 75 b5 bc 95 d0 09 3c 54 dd 0d 3e
       0.0013126541 -0.022150712 0.008411546 0.13853961
000190 d9 8f 1a 3d a6 b0 10 3e ad 7c 00 bb db 97 02 be
       0.03773484 0.14129886 -0.0019605563 -0.12753241
0001a0 e1 d9 25 3d f8 03 07 bc ea c9 59 3d c1 a4 a6 3c
       0.04049099 -0.008240692 0.053171076 0.020342233
0001b0 ca 50 58 3d 6d e0 81 bc 5c bb a1 3d 01 cd 61 bd
       0.05281142 -0.015854085 0.07897064 -0.055127148
0001c0 a0 e9 c7 3c c1 c7 2e bd c3 2b 31 bd a7 6f f7 bc
       0.024403393 -0.04267097 -0.043254625 -0.030204607
0001d0 9f 52 91 bd 46 a7 95 3d 40 34 f0 bc 4e 39 00 3d
       -0.07095837 0.073072955 -0.02932179 0.03130465
0001e0 39 bf 6c bd 4c 2d 35 bb b2 bc cc bd 29 fe 2f 3d
       -0.05779955 -0.0027645407 -0.09996928 0.042966995
0001f0 f2 48 22 be dd bd 06 bc f0 aa 61 bd 25 55 80 bc
       -0.15848139 -0.008223978 -0.05509466 -0.0156656
000200 0b 7f 86 3e a5 c0 2a be 27 8e 19 be ed 76 73 be
       0.262688 -0.1667505 -0.14995633 -0.23775835
000210 3e 4c 37 3f 75 df 65 be f3 78 13 bd 56 a3 9b 3d
       0.7160071 -0.22448523 -0.036004018 0.07599513
000220 c8 8f 87 3d 06 f0 66 be 0d 3e da be cf 82 60 3e
       0.06619221 -0.22552499 -0.42625466 0.219249
000230 fb 71 bc bd 4b 05 98 be 74 2e ea 3e 8a d2 49 be
       -0.092014275 -0.29691538 0.45738566 -0.1970922
000240 8a 6d 2d be 29 df 9b 3d 88 cf b3 bd 3b a1 33 3e
       -0.16936317 0.07610924 -0.08779818 0.17541973
000250 c0 80 6d be 26 b7 f0 be c2 11 c1 3d 02 8c 4a 3e
       -0.23193645 -0.4701473 0.09427215 0.19779971
000260 4e d3 f1 3e 2d e9 ad be a0 4e ac 3c 81 f4 2e 3c
       0.47231525 -0.33966962 0.021033585 0.010678411
000270 78 63 a7 3e 60 b1 87 3e 73 35 a3 3a 37 da 0d 3e
       0.32693076 0.26502514 0.0012451842 0.13852774
000280 fa f9 9d bd 03 05 b0 bd 2a c6 05 bd e9 b8 5d 3e
       -0.07713695 -0.08594706 -0.032659687 0.21652569
000290 90 3f 34 3c e7 a6 13 3d 6c a6 64 3b 5a 2b e8 bd
       0.011001483 0.036047842 0.0034889234 -0.11336394
0002a0 71 13 b9 3d ec 4e 21 bd 39 7f 1e bd 42 5f 89 bd
       0.09036911 -0.039381906 -0.038695548 -0.06707622
0002b0 1b 56 90 3d 4c 2b cc 3b 82 d6 23 3d 04 f8 b8 ba
       0.07047673 0.0062307473 0.039999492 -0.0014112
0002c0 9e 25 81 3d 41 0d 39 bc e7 96 15 3c 7c 38 fa bd
       0.06306003 -0.011294664 0.009130216 -0.12217805
0002d0 2c 14 d3 bd ff d3 09 3e 04 fb bd 3d 7b 22 d4 3c
       -0.10306582 0.13459776 0.09276393 0.025895348
0002e0 79 a1 1b bd 83 41 ca bd 69 87 07 bc 11 da 36 3e
       -0.03799579 -0.098757766 -0.00827203 0.17856623
0002f0 e2 5b 67 bd 1e 92 55 bd 1b 2c b3 3c 6e e4 d1 3c
       -0.05648411 -0.0521413 0.021871617 0.02562162
000300 44 0a b7 3d d9 2f 9a be 85 20 13 be 5c 54 39 3e
       0.08937505 -0.3011463 -0.14367874 0.18098587
000310 4b 42 b3 be 21 d4 07 be 39 b4 93 be 63 5f 80 3e
       -0.35011515 -0.13264515 -0.28848436 0.25072774
000320 48 09 2d 3e a3 36 f1 be 31 bf d3 be 3b b2 4b 3e
       0.16898072 -0.47111997 -0.41356805 0.19892208
000330 fc 55 59 be 78 21 c5 be 30 71 b9 3d 0e 79 73 3c
       -0.21224207 -0.38502097 0.09054792 0.014860405
000340 89 7b 2d be 45 14 33 bd 7f b7 53 3d c3 db 83 3e
       -0.16941656 -0.043720502 0.051688667 0.25753602
000350 09 44 c7 bd 86 0a bb bd 34 18 83 3e 08 28 b1 3e
       -0.097297736 -0.091328666 0.25604403 0.34600854
000360 54 7a f9 3e f6 19 40 be ef 14 09 bf d6 a9 b8 3d
       0.4872614 -0.18759903 -0.5354757 0.09016769
000370 1d 0c 06 bc ce 9c 1b 3f 68 11 8e be 33 ec ec be
       -0.008181599 0.6078614 -0.27747655 -0.46273956
000380 28 11 2c 3d 7b 97 97 bb 90 e4 3d bd 80 16 b7 3d
       0.04200855 -0.004626212 -0.046360552 0.089398384
000390 ed 9d 82 bc 48 c1 d7 3d ff 24 06 3d d6 94 ad 3c
       -0.015944446 0.10534912 0.032750126 0.021189135
0003a0 e0 1a c4 bc ba 3e 7a 3d 7f cc d7 3c 4a e8 69 3c
       -0.023938596 0.061094977 0.026342629 0.014276573
0003b0 bb c9 5d 3d 92 0d f0 3c 06 4b d6 ba 77 96 49 bd
       0.054147463 0.029303346 -0.0016349263 -0.04921576
0003c0 77 ea c5 3c 6f 71 00 3d 10 25 a0 3d c6 5d bd bb
       0.024159653 0.03135818 0.07819569 -0.005779001
0003d0 e4 7d be 3d ae 7e d1 bc a9 11 22 3d ae 75 8e 3c
       0.093013555 -0.0255731 0.039567623 0.017390098
0003e0 37 1a 97 bd 55 9e 95 3d 0d 27 d9 3c b2 3f 99 3d
       -0.07378047 0.0730559 0.026507879 0.07482852
0003f0 69 8f 04 be b5 b0 7a 3d c4 15 a2 bd 21 58 80 3d
       -0.12945332 0.061203677 -0.07914308 0.06266809

Tmodel.fe1.FC4.bias f4 [16]
000000 d6 1b ca bc 62 ba 21 bd a9 35 fa 3d a1 6a 2c 3c
       -0.024671476 -0.03948439 0.12217266 0.010523469
000010 15 b5 8a bd 92 4f a5 3c 52 08 17 be ad 21 8e 3c
       -0.0677282 0.020179544 -0.14749268 0.017350042
000020 d7 2a d1 bd 32 ef a5 3d c2 05 95 bd 6b c1 f2 bc
       -0.10213249 0.081022635 -0.07276489 -0.029633244
000030 ac b2 96 bc 61 68 40 3c 17 5c d2 bc fb 56 8c bb
       -0.018395744 0.011743636 -0.025678677 -0.00428283

Tmodel.norm1.weight f4 [16]
000000 03 08 e5 3e cc ae 40 3f fa 67 d3 3e 1c 7f f8 3e
       0.44732675 0.7526672 0.41290265 0.48534477
000010 01 cf f0 3e b7 21 00 b2 0a ba fd 3e 87 e2 e1 3e
       0.4703293 -7.4582465e-09 0.49556 0.4411814
000020 c2 4b 2b 3f 2b 51 03 3f 8b 04 0c 3f 4e 8a 1e b2
       0.6691247 0.5129573 0.5469443 -9.228257e-09
000030 2b 49 f5 3e 24 f9 e9 3e 55 7f 10 3e 60 3e 04 3f
       0.47907385 0.45697892 0.14111073 0.51657677

Tmodel.norm1.bias f4 [16]
000000 31 3f 4f bd 7d ed 15 3e ea f3 e0 bb aa f2 a6 bd
       -0.050597373 0.14641376 -0.0068650143 -0.08151753
000010 12 f6 3e 3d 12 68 1d 3c 5d d0 e2 3d 5a 80 90 bd
       0.04662139 0.009607332 0.110748984 -0.07055731
000020 53 0e c2 bd e5 76 7d bd e4 d3 de bd ea 6e 83 bc
       -0.094753884 -0.061880965 -0.10880259 -0.016044099
000030 9d b2 f7 3d 3b ec 18 3e 14 d6 ea 3b 6e 74 16 3d
       0.12094615 0.14933865 0.0071666334 0.03673213

Tmodel.out.weight f4 [1, 16]
000000 77 b8 89 bb 5d 45 ac 3e 60 90 0d bd fb 46 64 bd
       -0.004202898 0.3364667 -0.034561515 -0.055731755
000010 07 5c de 3c 22 c6 84 b1 e5 8a 5f 3d 22 50 94 bc
       0.027143491 -3.8642307e-09 0.05457582 -0.018104617
000020 b3 d2 5d be 0d d8 87 bd f4 de 09 be aa 44 ab 32
       -0.21662407 -0.06633005 -0.13463956 1.9938245e-08
000030 6d 42 72 3d 94 83 51 3d b9 4d 64 3c b7 ef 55 3d
       0.05914538 0.051150873 0.013934546 0.052230563

Rmodel.fe1.FC1.weight f4 [32, 5]
000000 f5 75 55 3e 98 bd 18 3e a2 ad ef 3d 9c 4e bc 3d
       0.20845778 0.14916074 0.1170304 0.09194681
000010 af e3 96 3d 41 cc 01 3d 57 c9 bc bd 3d 1c ae 3d
       0.07367646 0.031688932 -0.0921809 0.0850148
000020 03 6a 38 3d 17 56 d6 3c 06 64 e4 3c 48 47 08 bc
       0.045022976 0.026164098 0.027879726 -0.008317776
000030 8e e8 f6 bc fa 38 e4 3d f6 54 59 3c 4b b4 01 3e
       -0.030140188 0.1114368 0.013264885 0.12666433
000040 79 ec 81 3e de f7 3e 3e 70 34 15 3e ea ec bb 3d
       0.25375727 0.18649241 0.14570785 0.09176047
000050 e8 c9 e3 3d 67 56 de 3d 7b 64 4d bc 9c c6 1b bc
       0.11122495 0.10856324 -0.012536163 -0.009507801
000060 a0 bc 32 bc 92 98 5a 3e 59 0e 61 3e 38 d3 22 3e
       -0.0109092295 0.21347263 0.2197813 0.15900886
000070 12 7b e2 3d 2e 01 9a 3d 52 64 23 bd 27 e8 f2 3d
       0.1105863 0.07519756 -0.039890595 0.11860686
000080 da 7c 78 3d ca ea 4c bc b1 78 0b 3d 25 19 69 3b
       0.060665943 -0.01250715 0.034050647 0.0035567966
000090 6d 3b df 3d 10 75 a6 bc 85 28 eb bc 70 64 a2 bc
       0.109000064 -0.020319492 -0.028705845 -0.019823283
0000a0 94 11 9b 3e cd 16 04 3e 6c 60 a6 3d c5 b9 67 3d
       0.3028685 0.12899323 0.0812386 0.056573648
0000b0 6a f7 04 3d fe b4 3c 3d da b6 a8 bd 69 35 5f 3d
       0.032462515 0.046071045 -0.08238001 0.054494295
0000c0 9c 8e e9 bc b4 2e a0 bc 18 c8 0c 3b 9f 78 50 bb
       -0.028510384 -0.01955352 0.002148157 -0.0031810177
0000d0 38 51 9e bd 81 a4 f1 3a 94 63 a1 3c e5 8c f6 bd
       -0.07730335 0.0018435867 0.019700803 -0.12038592
0000e0 bb 1d c0 3d 2f 34 68 3c 4e b5 51 3a 70 ae 0a 3b
       0.09380671 0.014172598 0.0007999734 0.0021161102
0000f0 f3 4e 34 3e f5 bd 2e 3e a7 ab fa 3d 7d b2 bb 3d
       0.17608242 0.1706465 0.12239771 0.09164903
000100 85 1c bf 3d 7c 21 35 be 5d e4 ea 3c 2c 1c de 3c
       0.093316115 -0.17688555 0.028673345 0.027113043
000110 f3 f3 e7 3c cc a7 cd 3c e0 90 09 3e f8 72 a0 3d
       0.028314566 0.025104426 0.13434172 0.078344285
000120 d7 4a 06 bb c4 08 81 bd 2f 24 79 bd 06 f8 1a 3d
       -0.0020491385 -0.063005 -0.060825523 0.03783419
000130 e6 b2 17 3d 89 a9 da bd 79 68 10 bd 7f 2f f9 bc
       0.037035845 -0.106768675 -0.035255883 -0.030418156
000140 f6 13 ed ba 95 c2 76 3c 0c a1 ab 3c af 28 b4 bd
       -0.0018087614 0.01506104 0.020950817 -0.08796822
000150 05 20 93 bc 61 8b ea 3c 6c 9e 08 3d 7e 26 b6 bd
       -0.017959604 0.028630914 0.033354208 -0.088940606
000160 fd c9 23 bd dc 24 e0 bc a1 45 24 3e 36 99 8c 3e
       -0.039987553 -0.027361326 0.16042186 0.2746064
000170 c4 35 4b 3e 68 53 05 3e 58 21 c0 3d 6c 5e 23 be
       0.19844729 0.13020098 0.0938136 -0.15953988
000180 61 f1 50 3c 6d 2b 35 3c 6c 3b 96 3c 58 5e 66 3c
       0.012752862 0.011057717 0.018338881 0.014060579
000190 c8 17 a7 be c2 15 54 be 4c c7 11 be 96 c1 c4 bd
       -0.3263533 -0.20711425 -0.14236182 -0.09607236
0001a0 c9 b2 8b bd c6 d2 81 bd de 18 db 3d 5f 98 a0 3d
       -0.0682121 -0.0633903 0.106981024 0.078415625
0001b0 74 95 9e 3d 89 b6 4d 3d 0c 56 88 3d 81 97 84 3b
       0.0774335 0.050222907 0.06657037 0.004046381
0001c0 4d 72 2f bb 62 fe 0e bc 80 ef d9 3d 9a f6 84 3e
       -0.002677101 -0.008727642 0.10641384 0.25969392
0001d0 80 f8 36 bc ab 07 ca bb e3 b8 20 bc 04 b1 d1 bb
       -0.011167645 -0.006165465 -0.009809705 -0.0063992757
0001e0 66 58 a5 be f4 04 3b be 4f 71 47 be 42 61 00 be
       -0.32294005 -0.18263608 -0.19476818 -0.12537101
0001f0 f6 04 b0 bd 11 d2 7b be 40 b0 9e be 09 d9 65 be
       -0.08594696 -0.24591853 -0.30993843 -0.22446074
000200 81 5b 2a be 7e de ec bd 18 b3 ad be 9e 9a 4d be
       -0.16636468 -0.115658745 -0.339257 -0.20078513
000210 4f 14 13 be ba e0 c8 bd 72 35 92 bd 98 4f 4a bc
       -0.14363216 -0.09808488 -0.071391 -0.012348078
000220 bb cd 2a bd ed b9 04 3e 41 5a 6f 3d d8 55 2d 3d
       -0.041700106 0.1296155 0.058435682 0.042318195
000230 73 bf 42 3d 18 43 bf 3d 06 f8 fe bb da 1b 4c 3d
       0.04754586 0.09338969 -0.0077810315 0.04983125
000240 eb e4 1c 3d 5a c0 90 3e 68 32 49 3e f9 f5 bf 3d
       0.03830425 0.28271753 0.19648135 0.093730874
000250 30 8b 47 3d cb 41 db 3c 86 36 3b bb eb 17 ff bd
       0.048716724 0.026764771 -0.0028566434 -0.12455734
000260 8a 72 e6 bc 3e 0f e7 bb 34 78 0b 3b 20 5e 08 bd
       -0.028130788 -0.0070513776 0.0021281363 -0.03329289
000270 88 17 27 bc 07 05 c5 bc 54 5d ac bd a6 b0 9b 3d
       -0.010198481 -0.024050249 -0.084162384 0.076020524

Rmodel.fe1.FC1.bias f4 [32]
000000 60 2f c0 bd 9f 63 31 3d 3e 5b 2d bc df 93 22 be
       -0.09384036 0.043307897 -0.010580836 -0.15876721
000010 dd d0 8e 3e 35 47 50 3e 4b 27 6c 3c 6e 8f 81 3e
       0.27893725 0.20339663 0.014413665 0.2530474
000020 97 e2 2f 3e 97 8d 30 bc f4 8a 41 3d 7f 11 ea bc
       0.17176281 -0.010775945 0.047251657 -0.028572796
000030 07 77 8a be b6 78 b9 3e 97 e9 0a be 62 04 5b be
       -0.27043936 0.36224908 -0.1356567 -0.2138839
000040 12 ac fd bd 9f ef 5a bd 84 0c 42 3e a2 df 56 3e
       -0.123863354 -0.053451177 0.18950087 0.20983747
000050 87 0f 30 bd 52 05 ce bd 5e 9a 2c ba bf 83 a8 3e
       -0.042983558 -0.100596085 -0.0006584282 0.32913014
000060 d2 34 c4 bd c5 25 49 3b f4 c8 51 3e 42 7f 42 be
       -0.09580387 0.0030692678 0.20486814 -0.18993858
000070 c0 4e d7 bd c4 72 46 bd e7 21 0f bc 84 fe 16 be
       -0.10513067 -0.048449293 -0.00873611 -0.14745528

Rmodel.fe1.FC2.weight f4 [32, 32]
000000 27 7b 9e be 21 35 a9 bb d5 fa 79 3d 57 10 48 3e
       -0.30953333 -0.005163804 0.061030228 0.19537483
000010 93 77 17 3e bb 80 1c be 8b 77 21 3d 21 c5 a8 3c
       0.14791708 -0.15283482 0.039420646 0.02060181
000020 4a 31 e8 3a 2b 12 a1 3d 33 ce a3 bd 4d 9f 4e 3d
       0.0017714885 0.078647934 -0.07998314 0.05044489
000030 bf 1f 16 3d ac db ca bd 75 75 fd 3c d6 80 ee 3c
       0.03665137 -0.0990518 0.030939797 0.029114168
000040 4b 3b 56 bd ed 0a 7d 3b 25 0d 5a be bc ca ac bd
       -0.05230264 0.0038611249 -0.21294077 -0.08437106
000050 2a b0 a9 bd d1 bc e2 3e 57 3d 4a 3d fd f5 3d 3e
       -0.08285554 0.4428468 0.049374904 0.18550868
000060 1f 7a e6 bd 2d d0 0f bd e0 af d4 3d 7a a5 29 3e
       -0.112537615 -0.03511064 0.10385108 0.1656703
000070 92 c0 71 bd 7d c4 90 3c 42 0d 02 3e a2 9c 89 3c
       -0.05902154 0.017671818 0.1270037 0.016798321
000080 a2 c4 ad bd fc 0a df 3d 28 85 b4 bc b1 18 fa bd
       -0.0848477 0.10890767 -0.02203615 -0.12211741
000090 21 91 36 3b 42 4d 9b bd e9 f0 6b bd 67 4c 97 3d
       0.00278575 -0.07583095 -0.057602797 0.073876195
0000a0 93 17 dd bb ac 1b 86 bd 7c e1 49 bd 89 f2 23 3e
       -0.006747195 -0.06548247 -0.049287304 0.16010489
0000b0 5f f4 c1 3d 88 f6 26 3c 58 dc a0 bd 63 3c 8c bd
       0.09470438 0.010190614 -0.07854527 -0.06847455
0000c0 a8 85 b2 ba fc 2d 4c 3d 42 7a 6b bc 87 87 c0 3d
       -0.0013620155 0.04984854 -0.01437241 0.0940085
0000d0 68 ea 24 be cd 6f 2d 3e e7 2d be ba 6e 83 fb 3c
       -0.16105044 0.1693718 -0.001450953 0.030702319
0000e0 89 18 83 bd b3 03 60 3c 31 c8 f3 bd 4f b3 5f bb
       -0.06401164 0.013672757 -0.11903418 -0.0034133976
0000f0 68 08 91 3d 84 54 23 be 4b de fa bc f5 6d be bb
       0.070816815 -0.15950209 -0.030623576 -0.0058114477
000100 14 62 f7 bd 87 2a a7 3d 14 b9 bf 3c 1e e9 0f 3c
       -0.12079254 0.08162408 0.023403682 0.008783607
000110 66 50 f5 3d bb cd b6 b9 0a ff f3 bc ff 0d 10 3e
       0.119782254 -0.00034867026 -0.029784698 0.14067839
000120 c0 1b 25 3c 5f 45 d1 3c b2 ee 93 3d c0 13 cd bd
       0.010077417 0.025545774 0.07223262 -0.10013533
000130 47 b5 f4 bc 12 50 55 bd f9 80 42 bc f5 12 7b bd
       -0.029871596 -0.052078314 -0.01187157 -0.061297376
000140 f0 c9 58 3d 7c 3d ba 3c 38 09 e6 bd 57 34 ce bd
       0.052926958 0.022734396 -0.11232227 -0.10068577
000150 4a 20 21 be 3f 62 a1 bd 8d 52 78 3c 54 d0 6b 3d
       -0.15734974 -0.07880067 0.0151564 0.057571724
000160 8d 33 d6 bd ea 76 54 bc c1 4f ed bd 8c 48 69 3b
       -0.10459051 -0.012967804 -0.115874775 0.003559622
000170 eb 14 d0 3c 34 e7 fb bd 67 e9 10 3d 00 85 86 bd
       0.0254006 -0.12299958 0.03537884 -0.065683365
000180 18 a2 f7 b7 ce 10 0c be 3b 7c 18 be 87 62 45 3d
       -2.9520175e-05 -0.13678285 -0.1489114 0.048189666
000190 21 81 e4 bd 07 0d 97 bd e9 e3 6f 3c b2 f9 33 bd
       -0.11157442 -0.07375532 0.01464174 -0.0439393
0001a0 61 cc 87 be 77 d7 1c 3d be a9 b7 bd 5b 7a 1f bd
       -0.26523116 0.03829142 -0.08967923 -0.038935047
0001b0 3b d7 48 bd dd b9 8e bd d3 4e e3 bd b0 5c 02 bd
       -0.049033385 -0.06969044 -0.11099019 -0.031826675
0001c0 ba ba 13 3d 06 7c d3 bd 10 ae 38 bf 86 8a 52 bc
       0.03606675 -0.1032639 -0.721406 -0.012850409
0001d0 e4 db 8c 3d 42 b5 a6 be b8 db 25 be 0f 39 d5 bd
       0.06877878 -0.32560164 -0.16197097 -0.10411274
0001e0 17 9b 65 3e d5 7a 40 3e 77 6f 19 3e ce 4e 77 be
       0.22422443 0.18796857 0.14983927 -0.24151155
0001f0 28 a6 99 be 2b ca 33 bd 85 5d 95 3c 53 f6 35 be
       -0.3000958 -0.043893974 0.01823307 -0.17769746
000200 90 ce 5b 3c 52 fb 99 bd b0 a6 8b be c5 b8 1c be
       0.013415948 -0.07518639 -0.2727561 -0.15304859
000210 47 47 1b 3e 05 32 5a be 95 55 3f 3e 0d c0 0a 3d
       0.15163909 -0.21308143 0.1868499 0.03387456
000220 66 e0 73 be dc 17 48 3e d6 92 6f be ce 21 eb 3d
       -0.2381607 0.19540352 -0.23395857 0.11481057
000230 a9 42 89 3d 33 b1 d8 bd e6 05 13 be 3a 76 5d 3d
       0.067021675 -0.10580673 -0.14357719 0.054067828
000240 1e 71 c9 3d 57 6d fc 3d 0a 4f 1c bd 2b 85 c5 3c
       0.098360285 0.123255424 -0.038161315 0.024111351
000250 40 c8 ce bd b0 68 15 3e 6b 5f eb bd 4c cf 79 3d
       -0.100967884 0.14590716 -0.11492809 0.06098871
000260 01 0a c3 bd 62 ed 9f bd 29 e3 c0 3d fd 04 96 3e
       -0.095233925 -0.07808949 0.09418327 0.2930068
000270 92 3a ae 3e 49 6e 81 be 6e 05 b2 bc 6b f8 c7 be
       0.3402906 -0.25279453 -0.021731105 -0.39056715
000280 08 fc 55 be b0 9a f8 3c 0e b6 76 3c db 39 19 be
       -0.20896924 0.030347198 0.015058054 -0.14963476
000290 12 bd c1 bc 33 48 bf bd 8a 6f 2e bd 4f 1c 20 bc
       -0.023649726 -0.09339943 -0.04258684 -0.009772374
0002a0 5d e7 23 be 8b 46 cd bc ac 4e aa 3c 9f 08 49 3d
       -0.16006227 -0.025058052 0.020789467 0.049080487
0002b0 fd 8f 40 bd 26 f3 53 3e 3d 22 b1 bc 04 61 ee 3b
       -0.047012318 0.20698223 -0.021622771 0.0072747488
0002c0 13 9f 33 3d 30 28 73 3d 7d 40 03 be 42 ab f1 3d
       0.043852877 0.059364498 -0.12817569 0.11800243
0002d0 c4 01 3a 3e 82 70 72 bd 9c ef 5d 3c b8 7f 76 bd
       0.18164736 -0.059189327 0.013545897 -0.060180396
0002e0 61 e9 8c 3d a6 e7 13 3e 06 f3 58 3e 8d 5f 8d 3b
       0.06880451 0.14443836 0.21186456 0.004314369
0002f0 66 5b 1a bd 62 b8 05 be f0 3b 80 3d eb 18 22 bd
       -0.03768482 -0.13058618 0.06261432 -0.039574545
000300 e3 e4 d2 3d c5 5d 99 bb 3e f9 18 3c 13 34 f4 3d
       0.10297563 -0.0046803677 0.009336768 0.11923995
000310 96 1c e8 3d 4a bf 18 3e 85 59 7d bd 0c 5c 44 3d
       0.11333577 0.14916721 -0.06185295 0.047939345
000320 47 7f 15 3e 56 0d 25 bd 50 c1 bf bc 46 08 06 bd
       0.14599334 -0.04029592 -0.023407608 -0.032722734
000330 72 0c 95 3d b6 92 2f be 92 62 d8 bd f8 39 6a be
       0.072777644 -0.1714581 -0.10565676 -0.22873676
000340 d0 31 43 bd 01 a3 50 bc 99 e6 6b 3e a1 84 7f be
       -0.047654927 -0.012734176 0.23037185 -0.24952938
000350 a1 24 00 3f 26 50 e6 bb ba e5 4f bc 66 27 ca 3d
       0.5005589 -0.0070285974 -0.012689048 0.09870796
000360 88 38 59 be 96 98 0c be 44 12 36 bd 86 2d 53 3d
       -0.21212971 -0.13730082 -0.044451013 0.051557086
000370 11 7b 70 3c 07 05 fd 3d ae e4 86 3d a8 41 c2 3c
       0.014677779 0.123544745 0.06586586 0.023712948
000380 87 d1 7f 3e 1d 40 51 bd b4 04 0f be aa 87 54 3d
       0.24982272 -0.051086534 -0.13966638 0.05188719
000390 5a e3 8a 3b 7d cc 2a 3e be 7c fd bd 80 d0 d1 bd
       0.004238528 0.16679569 -0.12377308 -0.10244846
0003a0 c6 97 7a 3d 4a 7f 1c bd e1 54 53 3d dc c8 fd bd
       0.0611799 -0.03820733 0.05159462 -0.123918265
0003b0 97 e6 7b 3e 98 46 31 bd 85 6e 50 bd 0d d2 50 bd
       0.24599682 -0.043280214 -0.05088665 -0.05098157
0003c0 b1 56 27 be 47 73 0e be 39 bd b5 ba 73 35 1a be
       -0.16341664 -0.13911162 -0.0013865597 -0.15059452
0003d0 90 84 bc bc 31 05 f1 3d 78 67 20 be 93 4a 34 bd
       -0.02301243 0.11768568 -0.1566447 -0.044016432
0003e0 85 2a 99 bc 2d 78 bb bd 52 c1 4d be 34 db ad bd
       -0.018697033 -0.09153781 -0.20093277 -0.08489075
0003f0 b0 54 87 bd ba 8e c4 3d c5 1e be 3d ad f3 67 bd
       -0.0660795 0.095975354 0.092832126 -0.05662887

Rmodel.fe1.FC2.bias f4 [32]
000000 b7 03 81 3c f7 77 29 3e 5e 37 44 3e 72 86 3f be
       0.015748842 0.16549669 0.19161746 -0.1870363
000010 81 2e 2b 3e 13 8a bf 3d 4a ad 41 bd ef a9 90 be
       0.16716959 0.093525074 -0.047284402 -0.2825465
000020 95 c1 2d be 42 5a 45 be 45 51 f6 bd 60 fa bc 3c
       -0.16968377 -0.19272712 -0.1202722 0.023068607
000030 4f f8 04 be 59 52 6b bb e5 ee 27 bd 0b 48 8d bd
       -0.12985347 -0.0035907237 -0.040999312 -0.06898507
000040 ea 43 dc 3d 1d d2 53 be ab 4c 14 3c 8a 17 32 be
       0.10755141 -0.2068562 0.009051482 -0.17391792
000050 2a 04 a2 3d ce cd e0 3d 31 7d 1d 3d 5f 71 40 be
       0.079109505 0.10976754 0.03844947 -0.18793248
000060 f7 3d df bb 67 c6 cf bc 00 16 2e be 2d f3 43 3d
       -0.0068128067 -0.02536316 -0.1700058 0.047839332
000070 fe 3e 92 3d b0 84 ab be f2 0f 8f 3d 74 ff 8d be
       0.07140921 -0.3349967 0.06985463 -0.27733958
