Lightcode/bc/rate39/light_bc_rate39_snr3.pt (torch, 175856 bytes, 38 tensors)

enc.fe.u1_FC1.weight f4 [64, 24]
00000000: 9703 1f3e f087 23bf 557d a93d 629a 2fbd
00000010: 9e4e 15bd 24ca 45bb 4715 8cbd b3ea 75bd
00000020: bfe4 02be 839b 223c d581 c0bd df48 4abd
00000030: fcbe 3dbc b3aa b2ba ccae 7fbb ba01 5d39
00000040: 8240 113c ddb0 0f3f c979 8d3d dbed a43d
00000050: 07f6 87be 3a58 35be 3822 9ebd 9bb0 853c
00000060: 017e 3fbe bdb4 83bc 02e2 7f3d 8751 c03c
00000070: 9808 b8bc 4004 a5bc 5f10 d3bf 907a 493e
00000080: 5ed6 1e3e 5403 e6bc 0dd7 5d3d 0ecc 363c
00000090: ad0b 953c 774a bb3b 0a6f 08c0 2daa 08bd
000000a0: 83fc 76bc 527d d33c fd4d d43b 1e25 ea3b
000000b0: 8b9b f3bb 1653 8bbb a504 07c0 38d8 36be
000000c0: 80e0 1f3f 48c8 94bd febc 193e 4861 c73d
000000d0: 6d59 f73c c07f b13d 2a77 b83c cc94 5f3f
000000e0: e687 f0be 0510 b4bb 76b1 b5be 51ba 83be
000000f0: 83ef 2ebe a420 a13d a002 3ebd 4b20 51bf
00000100: 62e2 64bc 2f36 243d 9953 2b3c c2bd c1ba
00000110: 1957 7fbc af9f 56bd 06c6 36bd 4788 6abe
00000120: 0416 933e 71b1 f1ba 7a92 0f3d c401 583c
00000130: eb2c e1bd 42d4 0640 fbb4 62be 580b 2a3f
00000140: 2fd4 4cbe 42c7 8239 186d 21be 98de a6bd
00000150: 4a35 cabc 01fb 80bf 9e04 9b3e ceb5 1abf
00000160: 274d 983c 0de6 46bd ae66 1a3d 733d 3dbd
00000170: 3fdd 7b3d 519a d7be 1637 8bbe d54a 42bf
00000180: 7e58 8ebe d98b ce3b 5b77 babd 60c9 a2bd
00000190: ca8f df3d d02d c3bf 7786 da3b 7eb5 d3be
000001a0: bfbf 223e 2a46 8f3c 0108 f73d 9347 ff3d
000001b0: 7de4 1bbd 59f6 1a3e 3348 163d 64e9 823e
000001c0: 9d51 323c c276 4b3d 54be 2c3d 8de8 aebd
000001d0: c797 d7bc d69e e83f bc27 573e 37e8 f8bd
000001e0: 5213 4bbd e2f6 f9be 98c1 b3bb 85d7 23bb
000001f0: 359a 17bd 09da 30bd 5ff9 2cbd 0473 7cbc
00000200: acbc 0b3d fd47 863b deb6 973c dad4 cd3c
00000210: 2365 b83c c56d dfbb b2d6 163c 9cb0 fabb
00000220: d4f9 45bc 35a7 a2be d6ff 58bd c7b6 73bd
00000230: d8ee 103e e4a7 923d dd4c 183d 6c9c d33b
00000240: 50f8 20bf 1627 0e3d 6078 0bbe 8db2 493d
00000250: d044 df3c b84e cd3c 7245 033b ac5d a93e
00000260: 065a f33e 07ac 1fbb 3b80 b73e 4df2 393e
00000270: 0217 fa3d 308e 9ebd 1823 293d 029d 13be
00000280: a675 9abc aea6 033a f551 36bc 533c cebb
00000290: 9356 fdbb 7a38 b6bc 4cf7 553c 01a8 2abe
000002a0: 3413 93bd 830f 313d 7197 143d 0258 20be
000002b0: a17c 423d 6b8b adbd 7d6e 533a 12aa 5fbf
000002c0: c567 723d bfe4 e5bc 939f 8a3c 3c4b ee3d
000002d0: 0d80 1e3d 09ae 26bc 3a1c b8bb 69d6 803b
000002e0: 17c7 fa3b d981 e7bc 629d 86b8 1b59 5bbb
000002f0: d078 ccbc 1317 73bb 05f8 0c3b a086 22c0
00000300: 6cf1 123e a0e3 7f3d 4d9b 89ba 2318 16bd
00000310: 3141 103d 400f b3bc 9beb 6ebc 6ea1 6e3a
00000320: e155 d7bd 016d 29bb bdbb 53bd 1061 213b
00000330: 143c 31bc 3117 d33c 78fd cabb 3de4 953b
00000340: f3b4 49bb 30f4 b83e d3b6 643d 642e 573d
00000350: 3709 60be 97a5 2fbe d2ec debd 3823 03bb
00000360: 7fa9 0abd 7baf 143d da83 9b3d f100 153e
00000370: 2f02 2cbe 18a2 08be 0fd8 07bf dbbe 393d
00000380: 1ef9 53bd 3936 6c3d 28ea a6bd 6414 87bc
00000390: 027c fbbc 3bb1 99bd 0517 b7be eec5 d8bd
000003a0: 80d0 ec3d cd99 1fbd 4dfd b53d e0d2 883c
000003b0: e4ce 3abd 93b2 663d 38d7 353f 8988 89bd
000003c0: 3170 733e 1ba3 b73e 6fd9 bfbd 555b 65be
000003d0: ba6a ab3e fa33 803e 897b 983e fd2e 4e3d
000003e0: 2f35 4cbe 8a21 78bc 5e16 1bbd 0250 9f3d
000003f0: 5a05 a5bc 11fd b93c bf3d b03d 4f8e c53c
0.15528713 -0.638793 0.08275858 -0.04287184 -0.03645193 -0.00301803 -0.06839996 -0.06003828
-0.12782572 0.009924772 -0.093997635 -0.0493859 -0.011581179 -0.0013631195 -0.00390141 0.00021076846
0.0088654775 0.56129247 0.06907994 0.0805318 -0.2655489 -0.17709437 -0.077213705 0.016319564
-0.1870041 -0.016077394 0.062471397 0.023476375 -0.022465035 -0.020143628 -1.6489371 0.1967566
0.15511462 -0.028077759 0.054160167 0.011157049 0.018194044 0.005715664 -2.1317773 -0.033365417
-0.015074852 0.025816593 0.0064790235 0.007145538 -0.0074343137 -0.004251848 -2.1096585 -0.17855918
0.62451935 -0.07264763 0.15013501 0.09735352 0.030194009 0.086669445 0.02251776 0.8733642
-0.46978682 -0.0054950737 -0.35486954 -0.25728086 -0.17083554 0.07867554 -0.046389222 -0.816899
-0.0139699895 0.040090736 0.010456943 -0.0014781284 -0.015584731 -0.05239838 -0.044622444 -0.22903548
0.28727734 -0.0018439722 0.0350518 0.013184015 -0.109948955 2.1067052 -0.22139351 0.6642356
-0.20002817 0.0002494399 -0.15764272 -0.08147925 -0.024683613 -1.00766 0.3027696 -0.6043366
0.018591477 -0.048559237 0.03769558 -0.04620118 0.061490294 -0.42109922 -0.27190465 -0.75895435
-0.2780189 0.0063032922 -0.091047965 -0.079485655 0.109160975 -1.5248356 0.0066688615 -0.41349405
0.15893458 0.017489512 0.120620735 0.124648236 -0.0380597 0.15133037 0.03668995 0.25568688
0.010883716 0.049673803 0.0421737 -0.08540449 -0.02631749 1.8173473 0.21011251 -0.121536665
-0.049578972 -0.4882117 -0.0054857247 -0.0025000286 -0.037012298 -0.043176685 -0.042230006 -0.015408281
0.03411548 0.004097937 0.018519815 0.02512591 0.022509163 -0.0068185055 0.009206461 -0.007650448
-0.012083489 -0.31768194 -0.05297836 -0.059500482 0.14153612 0.07160929 0.037182678 0.006457856
-0.62878895 0.034705244 -0.13620138 0.049242545 0.027254492 0.02506195 0.0020030406 0.33079278
0.4752962 -0.002436401 0.3584002 0.18158837 0.1221142 -0.07741964 0.041293234 -0.14415362
-0.018854927 0.00050220906 -0.0111279385 -0.0062938123 -0.0077312677 -0.022243727 0.013059448 -0.16665651
-0.07181397 0.043227684 0.03627724 -0.15658572 0.047482137 -0.084738575 0.0008065475 -0.8736888
0.059180994 -0.028063176 0.016921794 0.116354436 0.038696337 -0.010173329 -0.0056185992 0.0039318097
0.007653128 -0.028260158 -6.418933e-05 -0.003346986 -0.024959952 -0.003709261 0.0021510136 -2.5394669
0.14349908 0.06247294 -0.0010498554 -0.036644112 0.03521842 -0.021857858 -0.01458254 0.00091030344
-0.10514427 -0.0025852325 -0.051692713 0.0024624504 -0.010817546 0.025767894 -0.0061947666 0.0045743273
-0.003077802 0.361238 0.055838417 0.052534476 -0.21878515 -0.17153011 -0.10885014 -0.0020010006
-0.03385305 0.036300164 0.07593508 0.1455114 -0.16797708 -0.13343084 -0.53064054 0.04534803
-0.05175125 0.0576689 -0.081501305 -0.016489215 -0.03069878 -0.07504507 -0.3575975 -0.10584627
0.11563206 -0.038965035 0.08886204 0.016702116 -0.045607463 0.056322645 0.7103152 -0.06715495
0.23773266 0.35866627 -0.09367644 -0.22398122 0.33479863 0.25039655 0.2978175 0.05033778
-0.19942163 -0.015144715 -0.037863128 0.07778932 -0.020144153 0.02270368 0.08605527 0.02411571

enc.fe.u1_FC1.bias f4 [64]
00000000: 11d6 a73e da6a 6dbd d5fc b43e a2c9 bdbd
00000010: fba0 00be c6f0 6bbf 302b 993e dc34 19be
00000020: ff51 6ebf d591 cdbe 11d4 74bd 4666 85bf
00000030: 1e0d af3e 5995 92bd be06 9dbd 61e9 08bf
00000040: ad79 083f cbf0 babc e69e 44be 2c7a ddbd
00000050: 5c80 eabe cefc f8bd 22e3 89bf bb62 40be
00000060: aa3c 1dbe 3cdf e73e 84f8 b2be 3a8b 28bf
00000070: 5b72 c93e 13ed 16bf 04fe ce3e ce1e 91bd
00000080: 6763 55bf aa48 c9be 423d 90bd f885 8dbe
00000090: 0fd1 80bd b842 26bf bb9a 7dbd ff49 923e
000000a0: 22e0 86bc 10d0 92be a1d1 0ebe 987a bf3e
000000b0: d3fd 17be 44cf 993e 1d50 2ebf 057c 64be
000000c0: 3f68 ffbd 8fb4 13be 9384 17be 8751 b9be
000000d0: 59bf 0fbe 9cee 62bf 8134 1cbe 8502 60bd
000000e0: 3233 d93e 44c7 c2be 07d0 81bf 4177 a4bd
000000f0: 1ccd 86bd 3f57 b8bd 0b7f b2bd afeb 0abe
0.32780507 -0.05796323 0.35349146 -0.09266974 -0.12561409 -0.92164266 0.29915762 -0.1496157
-0.93093866 -0.40150324 -0.059772555 -1.0421836 0.34189695 -0.07157392 -0.076673016 -0.5348111
0.5331066 -0.022819897 -0.1920124 -0.10814318 -0.45801055 -0.12157594 -1.077244 -0.18787663
-0.15355173 0.45287502 -0.34955227 -0.6583744 0.3934506 -0.58955497 0.40428174 -0.07085954
-0.833548 -0.3931325 -0.07042934 -0.27641273 -0.06289875 -0.64945555 -0.06191514 0.2857208
-0.016464297 -0.28674364 -0.13947155 0.3739822 -0.1484292 0.30040944 -0.68090993 -0.22312935
-0.12471055 -0.14424346 -0.14796667 -0.36195013 -0.14037837 -0.8864534 -0.15254404 -0.054689903
0.4242187 -0.38042653 -1.014161 -0.080305584 -0.0658209 -0.09001016 -0.08715638 -0.13566469

enc.fe.u1_FC2.weight f4 [64, 64]
00000000: d84b 773c ce2f 1ebf 1947 fcbe 7836 1dc0
00000010: 9c1d f9bf d4b1 4a3e 26d2 fe3d cfb4 77be
00000020: 4010 2c3f a7f4 48be eda6 8fbd 6361 aabb
00000030: d8a1 143e d239 273e 7607 f2be cd3e 153e
00000040: b6ba ac3d 1191 23be 744c 0bbe bf5d 383d
00000050: 0f6a 8d3d 4b62 6f3d 000b 8ac0 3872 25bd
00000060: 9f30 1ebc 3409 5ebe bdce 803e e2ba ccbe
00000070: 4b72 b23d 0d23 cebc eb64 0b3e 678d 813d
00000080: 4f55 1f3e 37e3 ed3c 55fc 163d d54a 20bd
00000090: 540b 043f 27cf 39be 313d 1fbf 9a99 63be
000000a0: 74c4 c5be 513c f4bd da0f 2ec0 82b6 413e
000000b0: c198 bdbf f7cb 5b3e 8060 a7be 0e6d 413e
000000c0: 0c69 b1be 3556 6f3c dd20 4cbf 4a44 3c3f
000000d0: 39fb 1d3e 39b4 e6be 5dda 17bd e80f 41bf
000000e0: 411b 963e 929f 3cbe c09d adbe 0b7a 5f3d
000000f0: d1a2 dfbe b650 01bf a76e b33d 05c6 37c0
00000100: 0212 0cbd f041 46bf e043 8bbe e64b afbf
00000110: 67d9 0ec0 f1e4 bdbc 6657 90be e657 2dbf
00000120: c9bd 6c3e fdb9 3a3e 3800 65be b11d bcbe
00000130: aac1 64bd a430 843c b8e1 dbbe ad7d 35be
00000140: 1c05 01be b91b 76be 7c65 7bbc bd03 f8bc
00000150: b8fc d1bc e4e5 023e 1dd2 49bf 1147 bfbe
00000160: ab53 bdbe 95ad aebe 7d10 2bbf d6d1 04bf
00000170: b838 e1be d22d 9dbe d7ca 61be 5506 abbd
00000180: fd48 70be f252 20be 250f d4bd 40e2 36be
00000190: ee8f b63e 185a 613e ab76 ffbe 31d7 aabd
000001a0: 6870 3ebf a068 14bf 2f6e 82bf d7c3 c4be
000001b0: 69cc 1bbf 7fec 67bc d43c aabd 5f33 03be
000001c0: ee3d 9ebc b9af 2abf b8a0 19bf 381c 1f3e
000001d0: ee83 89bd 78ca 00be 9794 2fbe 10d7 13bf
000001e0: b0eb b83d 1327 a5be 12db 17bf be2e 883d
000001f0: 957f 52bf 12f2 90be a5a9 8abd bb38 87bf
00000200: 0dbb bcbe 879c 18bd 5a32 39bd 1ce4 d0bd
00000210: 6016 a3bc 5f3f 323d 8a0c 07be e611 21be
00000220: 597c 053e cc77 39bd 19d5 2bbe a3b7 f6bd
00000230: 1e2f bebc fb33 1fbe baca 8bbd e9db 2dbd
00000240: 945a 69bd 694d 9ebd e58e 77bd f94d 603d
00000250: fad0 d2be ded8 1ebe 9905 00bb 58f2 17be
00000260: b678 093e 5265 17be 2927 2abe c977 7cbd
00000270: da5e 01bf 7707 97bd c536 043e 69fa 92bd
00000280: 75ec 5cbe 91d5 80bd ccf7 87bd 38c6 e1bd
00000290: 31c8 48be ca75 883d 6741 16be e6d5 d1bd
000002a0: f15c 93bd a3ba 0fbd 2897 71be 41e6 52be
000002b0: c219 a7bd 0d5c 82bd b5f6 dcbd 0915 12be
000002c0: eefd 56bd 8bea 4d3d 0a47 88bd a960 89be
000002d0: 9c58 09bf 942b 073d fccf 10be 716e c3bd
000002e0: a952 093d 946e 0bbb 77b4 4c3e f18b f3b8
000002f0: 6eef 0ebe 7b88 8bbe 79f6 df3c 2411 26be
00000300: 4169 9ebe 9a5f 3c3d 510f ecbf 728f a83d
00000310: 5969 223b de8f 03bd dde7 0a3f d580 0ac0
00000320: d7d9 023f 8a48 923d b37f 45bd a97d 253e
00000330: 23ba a53e 0bfc f73d fc42 debd ccd3 ea3d
00000340: a8f1 a1be daac 8a3e 26a5 22bd 884d 0cbb
00000350: ff9a 103e 6c4f d8bf 3837 a6c0 dff0 ba3d
00000360: 1eac b3bc 0de0 22bf afa5 693d e92d 1abf
00000370: 17e0 57be 1105 973e 5041 03be 339f 7f3c
00000380: 979d 53be 5150 0bbc 2f5b 933c dbfe 873e
00000390: 3998 f53e 7900 79bd f8ab b8bb b74f f3be
000003a0: 261b 423d f07b 853f 61ba 27bc 2792 d93e
000003b0: 74d8 f3bc 7a28 813e 090e a7be 7a1c 303e
000003c0: 4de9 b33d 17ab ea3d 577f 04c0 1952 2ebe
000003d0: 2e93 793d dfa2 ea3c 618a 623d 759d e83b
000003e0: fa12 12be 59ff 893d 683f 1abd d19b c2bb
000003f0: 9134 95be c0a4 f9be a1d6 e83c 4481 81bc
0.015093766 -0.61791694 -0.49272993 -2.4564495 -1.9462161 0.19794399 0.124424264 -0.24190067
0.67212296 -0.19624577 -0.070142604 -0.0051995977 0.14514863 0.1633065 -0.47271317 0.14574738
0.0843405 -0.15973307 -0.13603383 0.04501128 0.06904995 0.05844335 -4.313843 -0.04039213
-0.009655147 -0.21683198 0.2515773 -0.3998633 0.08713206 -0.025163198 0.13612716 0.063257985
0.15559886 0.029039009 0.036861736 -0.039133865 0.51579785 -0.18145429 -0.62202746 -0.22226563
-0.38626444 -0.11925567 -2.7197175 0.18917277 -1.4812242 0.21464525 -0.3269081 0.18889257
-0.34650457 0.014607956 -0.79737645 0.735417 0.15427865 -0.45059374 -0.03707348 -0.75414896
0.29317668 -0.18420246 -0.33909416 0.05455975 -0.43678907 -0.5051378 0.0876134 -2.8714612
-0.03419686 -0.7744436 -0.27200222 -1.3695037 -2.2320192 -0.023180457 -0.2819168 -0.6771225
0.23119272 0.18235011 -0.22363365 -0.36741403 -0.055848755 0.016136475 -0.42945647 -0.17723723
-0.12599605 -0.24034013 -0.01534402 -0.03027522 -0.025633201 0.12783009 -0.7883623 -0.37358907
-0.36977896 -0.34116808 -0.66822034 -0.51882684 -0.43988585 -0.3069902 -0.22050034 -0.08350817
-0.23465343 -0.15656641 -0.10354451 -0.17859745 0.35656685 0.22007024 -0.49895224 -0.08341826
-0.7439027 -0.57972145 -1.0189875 -0.38430664 -0.6085878 -0.014155506 -0.08312383 -0.12812565
-0.01931664 -0.6667438 -0.6001086 0.15538108 -0.06714617 -0.12577236 -0.17146526 -0.57750034
0.09029329 -0.32256374 -0.5931865 0.0664954 -0.82225925 -0.28309685 -0.067706384 -1.0564188
-0.36861458 -0.03725865 -0.045214035 -0.101997584 -0.01990813 0.043517467 -0.13188377 -0.15729484
0.13035716 -0.045280263 -0.16780509 -0.12046745 -0.023215827 -0.15547173 -0.068257764 -0.04244605
-0.056971148 -0.077296086 -0.06043901 0.05476186 -0.4117506 -0.15512416 -0.0019534586 -0.1483854
0.13424954 -0.14784744 -0.16616501 -0.061637674 -0.50535357 -0.07374471 0.12911518 -0.07176668
-0.21574576 -0.062907346 -0.066390604 -0.11024135 -0.19607617 0.066630915 -0.14673387 -0.10245876
-0.071954615 -0.0350901 -0.23592818 -0.20595647 -0.0815921 -0.063652135 -0.10789243 -0.14265837
-0.05248826 0.050272506 -0.066541746 -0.26831558 -0.5365083 0.033000544 -0.1414184 -0.095425494
0.033526096 -0.0021275626 0.19990717 -0.00011613209 -0.13958523 -0.27252564 0.027339207 -0.16217476
-0.30939677 0.04598961 -1.8442174 0.08230485 0.002478203 -0.032119624 0.54260045 -2.1641133
0.5111365 0.07142742 -0.048217487 0.16161217 0.32368574 0.1210862 -0.1085262 0.11466178
-0.31629682 0.27085 -0.03970828 -0.0021408517 0.14121626 -1.6899238 -5.1942406 0.09127974
-0.021932658 -0.63623124 0.057042774 -0.60226303 -0.21081577 0.29496053 -0.12817883 0.015601921
-0.20665585 -0.008503036 0.017987816 0.26561627 0.479677 -0.060791466 -0.0056357346 -0.47521755
0.047389172 1.0428448 -0.010237307 0.42494318 -0.029766299 0.25226194 -0.32627895 0.17198363
0.08784733 0.11458414 -2.0702722 -0.17023505 0.060931377 0.028642116 0.05530775 0.0070988485
-0.14265051 0.06738157 -0.037658125 -0.005938985 -0.29141667 -0.48758507 0.028422656 -0.015808709

enc.fe.u1_FC2.bias f4 [64]
00000000: 6a2a 96bd 6f1b b2bc 8a23 85be 344e 22bc
00000010: 973d f0be d33f 9cbe 62cd 48be aac1 aebe
00000020: 8ee5 473e 67e4 c2bd abaf f93e a421 33be
00000030: 2ddf c5bd 2cef 18be 9efb d5be 855c b1bd
00000040: e00b d8be d644 003d 5473 22be b2f5 7b3d
00000050: 3433 32be f4e1 33be d126 98bd 60d8 6cbe
00000060: bbb0 2f3d 2cc1 c5bd 2c2c dfbc 4341 1ebe
00000070: 4f4f 93be da1f a2bd c92a 823e 3955 52be
00000080: 3b50 1abe c2d5 9dbd 4fd3 103e 3eb6 adbd
00000090: df12 3abe 67ae b03d e9fa 1cbe 7b0a 9abe
000000a0: ec32 bbbd 5f6b 27be af31 0cbf a06d 00be
000000b0: 68f9 cd3e 25e8 25be 9228 a1bb 6495 e9bd
000000c0: 10e0 57bd a829 b5bd 9324 6dbd 0862 93be
000000d0: 1e5f ccbe a42b 193e 9547 8bbd 7085 0fbe
000000e0: 1d35 5dbe 2d2d 87be 390a 9cbe fc46 3e3e
000000f0: e85e d6be 470b 1a3d 746e 533e d1cf 1840
-0.073323086 -0.021741597 -0.26003677 -0.00990634 -0.4692199 -0.30517444 -0.19609597 -0.3413213
0.19521162 -0.095162205 0.48766837 -0.17493302 -0.09661708 -0.14934987 -0.4179353 -0.08660225
-0.4219656 0.031315647 -0.15864307 0.06151361 -0.17402345 -0.17566663 -0.07429279 -0.23129416
0.042893153 -0.09655985 -0.027242742 -0.15454583 -0.28771445 -0.079162315 0.25423267 -0.20540322
-0.15069668 -0.07706787 0.14143108 -0.084820256 -0.18171261 0.086270146 -0.1533009 -0.3008612
-0.09140572 -0.16349553 -0.5476331 -0.12541819 0.40229344 -0.16201837 -0.0049181664 -0.11405447
-0.052703917 -0.08845836 -0.057896208 -0.2878573 -0.3991632 0.14958054 -0.068007626 -0.14015746
-0.21602292 -0.26401654 -0.3047655 0.18581766 -0.41869283 0.03760841 0.20647603 2.387684

enc.fe.u1_FC3.weight f4 [64, 64]
00000000: 4ae6 81be 5503 ed3e e77f 53bd f367 f0be
00000010: a87b 093f 2979 c9be 284e 14bd b2ca 723e
00000020: f680 a13c 2feb 433e 4c23 72bd 2389 843e
00000030: 4881 99bd 8125 8ebd 8ced 94be a410 35bd
00000040: 892d 20bd 1bd4 bc3c 849a e43c f426 93be
00000050: e29f ec3d b0c2 39bd 3723 09bf 1c60 5a3e
00000060: 5227 263f 71c2 9f3d edd3 583e 689a 103e
00000070: 0b72 0d3f 4d45 8f3d fa28 423e 3924 32bc
00000080: f991 6b3f a66f 693d cab8 e43e 5ebd 0ebd
00000090: 0bb2 bc3e acae 893e ee49 14bd 9acf 1ebd
000000a0: 3722 99bd 53ea 8f3a ae3b 4a3e 1e09 263e
000000b0: f736 7bbd e5c1 163c 3972 70be d8ae 50be
000000c0: 369c 723c 8c70 47bd 744f ea3e cca3 62be
000000d0: efd8 1cbe cb67 67bc 559a f2ba 6b1d 95bd
000000e0: 5288 4b3d e7c2 2a3f d290 b8bd 4c84 15be
000000f0: 2305 12bf fddf 24be ef9e 333e b274 723e
00000100: 5127 ab3e ab5b 633d 096e 043d c2b9 343e
00000110: 054a 69bd 862d d63e 370c 733d d54b cebe
00000120: 6c71 83bd 2a8b c4be 5ba3 9f3d 1ca3 58bd
00000130: 3697 dabe 7e3c 423e ee52 b7bd 0572 d1ba
00000140: 6961 2d3e bc52 bd3c 5f66 243d 8edb 783f
00000150: f390 88bd c70d 61bd faf4 e1be 42f0 86bd
00000160: 222d c2be 7081 ff3d 4af4 a0be 0b9b 29bf
00000170: af13 6dbe 76c4 433d 06ee 9e3c 4c1e 5c3d
00000180: 8610 85be 03df 99bd e013 e7bd bfe4 c4bb
00000190: 4785 97bd c25f 5abf 59bd cb3d 4c16 e83c
000001a0: be5f 03bf 9cbb 4fbd ab62 dc3c 7455 f33b
000001b0: 8287 883c 7c0c 123e 3361 293e a4f2 333e
000001c0: ef32 2e3f 5d86 443d ffd4 66be a137 02bd
000001d0: 80c6 09be 8476 433e 27a6 87bd c5c3 1f3e
000001e0: 1849 633b a20f 9c3d 5493 3cbd 5fbc 373f
000001f0: 3764 e73d 8366 20bf 7617 a7bd 30b4 10be
00000200: 9162 3a3c f5df f2be 3ad6 75bd 8750 973e
00000210: b144 0abd 1c96 a33e bd4a 8d3d 465b 53bd
00000220: 8a62 173e 4aac 6bbe e725 0fbe 3c0e babe
00000230: 6a6c b4bd 9359 303e 8b4d 9d3d 0742 6bbc
00000240: 98a2 583d 965f 3f3e 1ac3 84ba eda8 37be
00000250: 2575 05be 3aa7 02be 28eb d03e 4555 38be
00000260: 6ccf 8dbe daa1 48be dbc0 d4bd 29d1 623c
00000270: 0bdd b63d d52a 4e3d c9d7 98be 0676 80bd
00000280: 781a b1bd 527b 043d 2ba5 86be fc83 c83d
00000290: c0f8 e2bd 8187 72be 16a1 57bd a38a 5e3c
000002a0: c0e3 ebbb 8473 6a3d 81d8 49be 4bb9 c33a
000002b0: 7804 1fbe 8c46 0e3d b500 883e 7d8e a13d
000002c0: 7228 583e 4570 e83d 8343 5c3e c962 843e
000002d0: 9294 593e 5cfe 06bf 7dc6 b4bd ceb6 393e
000002e0: 21a7 2b3d f862 753e f296 193e 8ba4 973d
000002f0: ebfe b43d d782 1c3e aae0 48be 1105 15bf
00000300: c973 54be 6c89 6ebe 08af f83c 97f6 f33d
00000310: c0e4 163e 8d85 79bf c192 673c b2e2 7b3e
00000320: 1f39 b63d 3b11 bebd f1cb 8abd f363 23bf
00000330: 658f 14be ea0c 293e cb65 4c3e 0280 22bd
00000340: 833c 0fbe e8d2 823e 24f6 3abb d8e0 a2bd
00000350: b3e8 00bd 818e cdbd 7e42 4c3e b723 4bbd
00000360: 56cf 78be 25ae 51bd 10b1 f0bd fe36 9c3d
00000370: ecb9 413e dc81 c33d c73f 9cbe 46b4 22be
00000380: 2e2b eb3c 5d6c d4bc f9f5 43be e158 20bd
00000390: 2afc 5cbd 112a 82be 2aff 1a3c 4803 5b3d
000003a0: e93d e53d b707 23be 396c 21bd 318b 68bd
000003b0: d06c 15bd 84ed c53d 627b ad3d a0c6 723e
000003c0: d8e9 b53e eb38 883d ca36 aa3e 7cb1 d53e
000003d0: eac9 343e 8c51 d8be 61ce 1ebd cd16 9d3e
000003e0: 3493 ffbb d549 7a3e 25ec 573d b41f aa3d
000003f0: 8947 0fbd ea19 2d3e bbac 0bbe 9f9c 2bbf
-0.2537101 0.46291605 -0.05163565 -0.46954307 0.5370431 -0.3935025 -0.036207348 0.23710135
0.019714814 0.19132684 -0.059115693 0.25885877 -0.074953616 -0.06940747 -0.29087484 -0.044205323
-0.039105926 0.023050359 0.02790571 -0.28740656 0.11553933 -0.045351684 -0.5356936 0.21325725
0.6490375 0.07800759 0.21174593 0.14121401 0.5525214 0.0699564 0.18960944 -0.010872894
0.9201961 0.056991242 0.44672233 -0.034848563 0.36854586 0.26891077 -0.036203317 -0.038772203
-0.07477229 0.0010979868 0.19749328 0.16214415 -0.061331715 0.0092015015 -0.23481072 -0.20379198
0.014807751 -0.048691317 0.45763743 -0.22132796 -0.15317129 -0.014123867 -0.0018509129 -0.07281002
0.049690552 0.6670365 -0.09011997 -0.14601249 -0.5703909 -0.1610107 0.17541097 0.23677328
0.33428434 0.055507343 0.0323315 0.17648986 -0.056955356 0.41831607 0.05933782 -0.4029223
-0.06418118 -0.38387424 0.077948295 -0.05288993 -0.4269349 0.18968388 -0.089513645 -0.0015979415
0.1693169 0.02311074 0.04013669 0.97210014 -0.06668272 -0.05494478 -0.44132215 -0.06588794
-0.3792506 0.1247586 -0.31436378 -0.662522 -0.2315204 0.04779478 0.019400608 0.05373983
-0.2598917 -0.07513239 -0.11283088 -0.006008714 -0.073984675 -0.85302365 0.099482246 0.028330944
-0.51317966 -0.050716028 0.026902517 0.0074259583 0.016666178 0.14262575 0.16540985 0.17573029
0.6804647 0.0479797 -0.22542189 -0.031791333 -0.13454628 0.19088179 -0.06623488 0.15602024
0.0034681018 0.07620169 -0.04603894 0.71771806 0.11298411 -0.6265642 -0.08158772 -0.14131236
0.011376039 -0.4743649 -0.060018755 0.29553625 -0.033756915 0.31950462 0.06899021 -0.051600717
0.14783683 -0.23014942 -0.13979302 -0.36338985 -0.08809741 0.1722167 0.07680806 -0.014359004
0.052889436 0.18688807 -0.0010128946 -0.17935534 -0.13032968 -0.12759104 0.4080441 -0.18001278
-0.27697313 -0.19592991 -0.10388347 0.013843813 0.08928879 0.050333817 -0.2985213 -0.06272511
-0.08647627 0.03234417 -0.26297888 0.09790799 -0.110826015 -0.23684503 -0.052643858 0.013582858
-0.007198781 0.05723907 -0.19711496 0.0014932541 -0.15529048 0.034735247 0.2656304 0.078885056
0.21109179 0.11349539 0.21510129 0.25856617 0.21248081 -0.5273187 -0.08826921 0.1813614
0.041907433 0.23963535 0.14998987 0.07404431 0.08837684 0.15284286 -0.19616953 -0.58210856
-0.20747294 -0.2329461 0.030356899 0.11912268 0.14735699 -0.9746941 0.01413411 0.24598196
0.08897614 -0.0928063 -0.0677718 -0.63824385 -0.14507826 0.16508833 0.19960706 -0.03967286
-0.13987927 0.25551534 -0.002852806 -0.07953042 -0.03147192 -0.10036946 0.1994724 -0.049594607
-0.24297842 -0.051191468 -0.11752522 0.076276764 0.1891858 0.09546253 -0.30517408 -0.15889081
0.028707113 -0.025930578 -0.191368 -0.03914726 -0.05395142 -0.2542272 0.00946025 0.053469926
0.11193449 -0.15920912 -0.03940985 -0.05677337 -0.036480725 0.09664443 0.08470799 0.23708582
0.3552997 0.06651481 0.33244926 0.41736972 0.17655149 -0.42249715 -0.038771037 0.30681458
-0.0077995304 0.24442227 0.05271544 0.08306828 -0.03498033 0.16904417 -0.1364011 -0.6703586

enc.fe.u1_FC3.bias f4 [64]
00000000: 0732 2c3f f445 8dbe a53c ebbf c406 ebbf
00000010: c5fc e73f 601f 10bd 54b6 eb3e c94f 6fbe
00000020: 36d9 19bf 7556 49bf b115 443f f274 4d3f
00000030: 6b1d ffbe 14f7 843e 7e56 a3be 4423 b13f
00000040: 6c8c be3f 4058 8abf 35d7 76bd 1739 7c3e
00000050: 04f9 aabf 3abd 483e fa5a 953e 8427 53bd
00000060: 5e7a 8cbf b734 f4bf afdc fabe 8166 aabf
00000070: 0524 babf d942 273f 4276 48bf 2c7e c1bd
00000080: a0a1 01bf 46b6 a8bc 5d4c a6be 6bab 033f
00000090: 0aa2 91bf 5187 a8be a384 9fbe 575b fabe
000000a0: 893d a33e eb4d 3cbf 2279 d33e d03d bfbf
000000b0: ee4a be3e 7baf 523e 4c7f 7ebf f2c4 983e
000000c0: 891a c03e f1b0 07bf dc49 dabe 840d 55be
000000d0: 397a ed3f 08f9 0b3e 44a2 4abf fae3 463f
000000e0: 2422 89be 90f5 0abf b23d ae3f d996 d13f
000000f0: c2d9 d03f e616 e3bf d7ce f63d cb63 3bbe
0.67263836 -0.27592432 -1.8377882 -1.836144 1.8124014 -0.03518617 0.46037543 -0.2337028
-0.6009706 -0.7864755 0.765956 0.8025657 -0.49827132 0.25969756 -0.31901926 1.3838887
1.4886603 -1.0808182 -0.06026383 0.24631153 -1.3357244 0.19603434 0.29170972 -0.051551357
-1.0974844 -1.9078587 -0.48996493 -1.3312532 -1.4542242 0.65336376 -0.7830545 -0.094478935
-0.50637245 -0.020594727 -0.32480136 0.5143344 -1.1377575 -0.32915738 -0.3115588 -0.48897812
0.31882885 -0.73556393 0.41303355 -1.4940739 0.37166542 0.20574753 -0.9941299 0.29837757
0.37520245 -0.53004366 -0.42634475 -0.20805937 1.8552924 0.13669217 -0.7915385 0.77691615
-0.2678386 -0.5428095 1.3612578 1.637416 1.6316454 -1.7741363 0.1205117 -0.18299787

enc.fe.u1_FC4.weight f4 [32, 128]
00000000: 1f5f 31bf c1c7 c93e 7a80 843f 5488 3b3f
00000010: 9a27 84bf 2bd8 5abd 454a c0be b84c fcbd
00000020: 8f1c 74bd 98fe 753e 0992 87be bb9d fcbe
00000030: c9a5 aa3e db3b e7bd 0680 5f3e 73be 48bf
00000040: 5f49 23bf d0a0 c73e 8693 0cbe 1148 473d
00000050: bcb0 053f ec30 99bb 3e8d c3bd fe53 f0bb
00000060: 88fb b53e f6ed 8e3f dcbe fe3e 2b85 063f
00000070: 9a17 6e3f 681c e8be ad62 fc3e 64b0 6f3e
00000080: c897 243f be33 8f3d 5269 5d3e a103 b7be
00000090: 503d ef3e 107c 803e 2675 823e 7f33 3f3e
000000a0: ed17 6dbe 8494 df3e 1675 b5bd e58b 263f
000000b0: be46 f8bc 716e 11be 7247 173f 1f53 f1bd
000000c0: a1bc a4be 722c da3e 0768 143e 4955 323e
000000d0: 8589 67bf a15c 09bf 5478 e23e 31cf d4be
000000e0: 7f0e 7a3e 9c59 023f f3fb 5abf 56cc 97bf
000000f0: b5f1 21bf 7c37 803f 0d8b aa3a 5faf 22be
00000100: 8441 483e 7e00 13be caf5 1e3f 9ba9 d23e
00000110: 1bbd f0bd 70ec aebe 937e 183d 16ea 57be
00000120: 3c36 0fbe 398b 92be 226a 4d3e 32cf 87be
00000130: 4431 2b3e 9f1a 88bc e6f5 d33e 6963 f1bd
00000140: 8f19 123e 8495 e73d a95f 663c e813 943a
00000150: 2231 02be 06a3 023f e2a9 5dbe b2fd f13d
00000160: fb17 413e 971f 223f 68d9 7abd f9b0 8dbe
00000170: 9db1 133f 4e39 6abe f8c4 1c3e ac57 dbbc
00000180: 525a 6bbe fc92 6d3e a795 7b3d ac0e 45bd
00000190: 8ccb a0bd a83b e3bd 0647 aebd e2fb ef3e
000001a0: 6f94 3d3e e8a5 e73e 577d 203b 6d56 033e
000001b0: 45fd 863d 3472 e33d f1e8 b1be 2e21 1f3d
000001c0: a0a0 833e 9864 ecbd 1031 0a3c 5b49 433d
000001d0: 2b1e e6bd f0aa c0be 6307 81be 8004 5cbe
000001e0: 2f42 ee3d 2b35 03be 97af 2dbf 9c23 f43c
000001f0: d362 263f 7c3c 673e 6860 2c3d 0a28 ee3d
00000200: 0b53 2ebd c14e 053e bf8a a7bc e136 b8bd
00000210: 6b2f 31be 2783 e7bd c8b1 7f3c d0bc 6ebe
00000220: fdd6 bdba baf4 5a3c 8c54 393c 1b63 963d
00000230: 8622 84bd 7138 903b 4dba 8ebd 8c1f 9cbc
00000240: 57c2 46bd 40a5 bb3c ef3f 393e 7819 2e3d
00000250: f99a 893d 92c1 9bbd e240 2dbd 48b9 483d
00000260: 297d b5bd 220d 863c b008 f93c 1bd9 8b3d
00000270: 60c8 b23c d16f 113e 4eb0 303e e05d 163e
00000280: d4c4 abbd 8f8e acbc f3fe d63c cac5 d2bd
00000290: cb77 153d f372 1b3c 5891 02bd c885 a03d
000002a0: 8887 c33d 894a 263d cb9c 3ebd edc8 b2bd
000002b0: 46e2 773d 42e4 9f3d 9898 043d b877 f63d
000002c0: 0aa0 a43c 4889 ffbd 0bd4 95bd 95d5 143e
000002d0: 253f 793d e7a8 a4bd 776b 0ebc 4923 573d
000002e0: 49c7 47bd 539c 553e f560 18bb 2968 73be
000002f0: 2f21 ca3d 75bf 903d b055 c2bd 7f94 c0bb
00000300: 69b0 f0bd 85e9 15bd 643a 043c 3bf4 dabd
00000310: f6b4 e7bd 7377 ea3d 076f 0fbe d778 86bb
00000320: fd7a 62bd ad3d f93a f8cc 68bd 677f 13bd
00000330: a2f3 ce3d 5fa6 99bc fac8 b2bd 0072 463d
00000340: e72f 4c3e eef7 703a dba6 953c 96f2 2fbd
00000350: 42ae 8cbb 342f 133d 5424 6fbd e82f 15be
00000360: 1a15 d9bd ec3a d83d 270c f93d dde9 3abd
00000370: f64b 853c 61fa b6bc 411c 843d 49c7 873d
00000380: 0eb3 113e a3c4 113d f748 2dbd b442 4ebd
00000390: bf58 813d 3697 c4bc 9049 4bbd 06c2 a5ba
000003a0: 2abd 953c afc5 49bd 9583 afbc a5d2 0a3e
000003b0: 9f42 63bd c137 253e 14b8 893c 6a15 bd3b
000003c0: f39e 75bc 952c 2f3d a310 9abc e80b 4f3d
000003d0: def5 ed3c 96a3 1dbd 2f5e 8a3d 4248 f63c
000003e0: 3c5e d8bd 24c0 5abc f92c cb3c fb28 5bbc
000003f0: 2b3d 8b3d c252 f5ba b27d 29bd 32bb e6bc
-0.6928577 0.39410213 1.0351708 0.73254895 -1.0324585 -0.05342881 -0.37556663 -0.123193204
-0.059597548 0.24022901 -0.26478603 -0.4933909 0.3332961 -0.112907134 0.21826181 -0.784156
-0.6378383 0.38989878 -0.1372815 0.048652712 0.522228 -0.0046750214 -0.09548424 -0.0073342314
0.35543466 1.116637 0.4975499 0.5254695 0.93004763 -0.45334172 0.49294034 0.23407131
0.642941 0.06992291 0.21622208 -0.35744956 0.46726465 0.25094652 0.25480002 0.18671988
-0.23153658 0.43667996 -0.08860223 0.6505721 -0.03030717 -0.14202286 0.5909339 -0.11783432
-0.32175162 0.42612034 0.14492808 0.17415346 -0.90444213 -0.53656965 0.44232428 -0.41564324
0.24419592 0.50917983 -0.85540694 -1.1859233 -0.6325944 1.0016932 0.0013011411 -0.15887211
0.19556242 -0.14355657 0.62093794 0.41145024 -0.11754819 -0.34164762 0.037230086 -0.2108539
-0.13985533 -0.28621843 0.20060018 -0.26525265 0.16718012 -0.016614256 0.41398543 -0.11786539
0.14267562 0.11307815 0.014060893 0.0011297436 -0.12714055 0.51030004 -0.21646836 0.11815967
0.18856804 0.6332945 -0.06124249 -0.27674082 0.5769289 -0.22873423 0.15309513 -0.026775204
-0.22983673 0.23200601 0.061422016 -0.048109695 -0.078513235 -0.11095363 -0.085096404 0.4687186
0.18513654 0.45243764 0.002448877 0.12825938 0.06591276 0.11105767 -0.34748033 0.038850002
0.25708485 -0.11542624 0.008434549 0.04767738 -0.11236223 -0.37630415 -0.25200948 -0.21486092
0.11633717 -0.1281325 -0.67846054 0.029802136 0.64994544 0.22581667 0.042084128 0.116287306
-0.042559665 0.13018323 -0.020451901 -0.08994842 -0.17303245 -0.11304312 0.015606351 -0.23314214
-0.0014483627 0.013364011 0.011311661 0.073431216 -0.06451897 0.0044012596 -0.06969128 -0.019058011
-0.04852518 0.022905946 0.18090795 0.042504758 0.06719012 -0.0760528 -0.042298205 0.049004823
-0.08861763 0.016363684 0.03039965 0.06828519 0.021824062 0.14202811 0.17254755 0.14684248
-0.08387151 -0.021064071 0.026244616 -0.102916315 0.036491197 0.009487855 -0.03187689 0.07838017
0.09547335 0.040598426 -0.04653625 -0.0872973 0.060518526 0.078072086 0.032372087 0.12034553
0.020095844 -0.12477356 -0.073158346 0.145346 0.060851235 -0.08040028 -0.008692614 0.052523885
-0.048774038 0.20860414 -0.002325115 -0.23770203 0.098696105 0.070677675 -0.09489 -0.005877077
-0.117523976 -0.036599655 0.008070562 -0.106911145 -0.113138124 0.114485644 -0.14007197 -0.0041037607
-0.055293072 0.0019015573 -0.0568361 -0.036010172 0.10105063 -0.01875609 -0.087297395 0.048448563
0.19940148 0.0009192218 0.01826804 -0.042955957 -0.004293234 0.03593369 -0.058384255 -0.14569056
-0.10599728 0.105581135 0.12160521 -0.045633186 0.016271573 -0.022336187 0.064507015 0.066298075
0.1422846 0.035587918 -0.042305913 -0.05035658 0.06315755 -0.023997884 -0.0496307 -0.0012646324
0.018278677 -0.04926079 -0.021425048 0.13556917 -0.055483457 0.1613455 0.016811408 0.005770375
-0.01499151 0.042767126 -0.018806761 0.050548464 0.029047903 -0.038486086 0.06756245 0.030063752
-0.10564849 -0.013351474 0.024801718 -0.01337647 0.06798776 -0.001871668 -0.041379638 -0.028165434

enc.fe.u1_FC4.bias f4 [32]
00000000: c9fe 95bf 5c39 a4be 6bb8 a33f 967b b03f
00000010: 41c2 73be 4134 b1bf a7ea 3ebf ab1e 913e
00000020: f479 613c 0bcb 3fbe 26b2 1ebf 29d8 053f
00000030: de7e 5ebe 50d2 6cbe 3d85 6dbf f150 0c3e
00000040: e627 a33f 22fa 9d3e 7dce 1c3e 4c77 3dbe
00000050: 9bff 3e3e a133 bcbd 4abb 25bf abb6 33be
00000060: b7f5 da3f 72ec 2bbe b99c 803e 2656 923e
00000070: 10ff a9be 7183 633e a54b 44be a021 8cbe
-1.1718379 -0.32075012 1.2790655 1.3787715 -0.2380457 -1.3844072 -0.745768 0.2834371
0.013761986 -0.18729798 -0.6199058 0.5228296 -0.21728083 -0.23127103 -0.9278143 0.13702752
1.2746551 0.308549 0.15313144 -0.1850254 0.18652193 -0.09189535 -0.64738905 -0.17550151
1.7106236 -0.16789415 0.2511957 0.2858135 -0.3320241 0.2221811 -0.19169481 -0.27369404

enc.norm.weight f4 [32]
00000000: 53d7 f238 4681 f93d a2cb 72b9 ac3b 08ba
00000010: 0541 4c3e 7958 f938 b373 cb3e dbb6 373f
00000020: feca 353f 27be 5fb8 b336 fa3a cfc0 6d3b
00000030: c053 513d 067c 8f3f 74d6 01b9 2df8 a6bb
00000040: 6321 e83e 79af acbb 0273 223f 5086 953f
00000050: 89da af3f 727d 153f bbf9 bb3a 7eb8 f5bb
00000060: 43d1 b139 b80f 313f 670b 253f 26d7 443f
00000070: 6c1a d3b7 da97 f939 0c5c dd3d 3fa6 cdb9
0.000115795665 0.1218286 -0.00023154778 -0.000519688 0.19946678 0.000118897246 0.3973671 0.7176339
0.71012866 -5.3344436e-05 0.0019089788 0.0036278253 0.05110526 1.1209724 -0.00012382289 -0.005095503
0.45337972 -0.0052699414 0.6345674 1.1681614 1.3738567 0.5839454 0.0014341393 -0.0074988
0.00033915983 0.6916461 0.64470524 0.7689079 -2.5165464e-05 0.0004760612 0.10808572 -0.0003922451

enc.norm.bias f4 [32]
00000000: d3eb 273e 511c 58bd fe3f 603d 2a4a 473c
00000010: 647e 1fbe 3dee 133e e84f d23c 42ab 133b
00000020: f324 febd c79a 823c 06c4 f43d 9ea7 94bd
00000030: 163d 023d 0c70 20bd c5ab 0a3e c74e 1a3d
00000040: a185 0c3d 4465 e6bd aa19 3abc e3d9 f23d
00000050: 830f b13d 15fe f1bd 195d 1a3e dd7c bc3d
00000060: 17e0 8cbd 937a ce3d 8d5a 7dbd db04 20b8
00000070: 3370 8a3d 2e08 0abd 48dc 6fbd 649c f0bd
0.16398554 -0.05276138 0.054748528 0.012163678 -0.15575558 0.1444635 0.025672868 0.0022532498
-0.12409391 0.015942944 0.11951451 -0.07258533 0.031796537 -0.039169356 0.13542087 0.037672784
0.034307126 -0.11249784 -0.011358658 0.11857965 0.08645537 -0.118160404 0.15074576 0.09203503
-0.06878679 0.10081973 -0.061853934 -3.8151495e-05 0.067596816 -0.033699207 -0.058559686 -0.11748579

enc.enc_out1.weight f4 [8, 32]
00000000: f624 59bd 0599 8dbc 2d87 83bd 0f30 eb3b
00000010: bc93 80bd 7e60 89bd c992 8e3d 4c47 033e
00000020: 9a4b 403d 407c f53b b90e dd3d 0908 31bc
00000030: a5e2 0abd c498 82be c7af 883b ca23 0cbe
00000040: 3e05 6ebc 369e 203d 2b4e 8e3d cac4 8bbe
00000050: 41c2 053f 738f e03c 0292 39bd be43 e93d
00000060: ba1f 5b3d 6f95 fdbb 0b18 9d3d 5aed 0cbe
00000070: 69d2 8e3d 2128 08bd 55dc 783c ca74 653d
00000080: 0fac dbbd ac86 36bd e019 cd3b 4759 b33d
00000090: 5a12 8d3d 54c9 3ebd c0f0 c6bc 4c05 e43d
000000a0: e472 4f3e 097f 3bbd eef3 373d 7e58 b3bd
000000b0: 471c aebd 78ba c7be 409c 34bb f5c3 fcbd
000000c0: 8288 a3bd eec2 d0bc 77ee 583e ee63 d7be
000000d0: f60a 353f 7687 ac3b 2664 e5bd 25c5 6f3d
000000e0: e154 66bd 1e2f 353d 9b69 fabc 9cff a2bd
000000f0: 44ca aaba 79c3 71bd 7e7e 703c 0032 b43c
00000100: 3e81 723d bbff 84bd efda 46bd 491b a0bd
00000110: 0481 95bd 42d0 85bd bc40 1d3c 9f3c ac3d
00000120: 8dc2 873a b3c5 f6bc e360 cf3c 0266 703d
00000130: 2060 b0bd 7388 a3be 752c f5bc b892 60bc
00000140: f7f7 d5bc 8ef0 49bd 76e4 7c3d 5eae e1be
00000150: e66d 423f 597b 6d3c 4b51 9d3d 7cfa 36bd
00000160: 8112 43bd 4bd5 14be f0f5 ac3d 97e0 70be
00000170: c7ee 94bd 7434 7f3d 353a aebd fc66 83bd
00000180: bb70 54bd 4a39 a03d 3ac8 653d 14f5 ef3d
00000190: 998e baba 768c 93bd d9f2 e83c 4d79 03be
000001a0: 8b01 21bd bd69 f3bd ce32 6abd f97d 76bc
000001b0: 1ae1 843d f093 e53e 5cfc ef3d 18cf db3c
000001c0: f0a5 073d 53b8 a5bd c98e 3cbd 69d1 dc3e
000001d0: c209 39bf b371 c2bd 9a28 883d 68af b2bd
000001e0: 35b0 a3bd a38a 2cbd bc75 fdbd 4b34 8a3e
000001f0: a6fc afbd 25ea 7a3c 7eac c53d 1a04 a73d
00000200: 30ff 533d 3ed9 65bd d717 54bd eaec 613d
00000210: 1fea 833d 35ec 70bd 15a3 9fbc ded6 d6bd
00000220: d16d 86bd 86b4 c8bd 39a7 e6bc 1195 fabc
00000230: e84d 06be 5a0e f33e 2d86 00bd a336 a9bc
00000240: e3e0 c63d fe97 953d bb8d 6abd c5e7 113f
00000250: 6009 3bbf e1db f6bd dc9b d4bd 3ed0 bdbc
00000260: 2838 5dbd f524 193e a560 9bbd 3feb e93d
00000270: 81ce 573d fad0 93bd 91dd 743d 68c0 5d3d
00000280: 86b6 57bd 9117 94bd 48f5 58bd 5f0c e3bd
00000290: 31c3 85bd 9a75 c3bb 3b90 19be 1770 babd
000002a0: 1a94 28be 7f4d cb3d 56f6 053e e511 063d
000002b0: adcc 0e3c ef3b fa3e 9f4a 4dbd 6cba 91bd
000002c0: 52ee 3b3d 4033 98bc 72b8 47bd c95f 0d3f
000002d0: b923 37bf ba0c 43bd a131 2d3c 63cf b03d
000002e0: d7d7 133d 0c86 333e 347a 92bd 595a f93d
000002f0: 29df 76bb 55a6 8c3d e453 dcbd 6929 c5bd
00000300: 02c0 f83c e323 05bb 5bcd 8a3d ff31 aabd
00000310: a018 0ebc 0e6b bfbc 50a9 c5bd 50a1 723c
00000320: df29 eabb efae 6a3d 8a9d 263e 1f86 f0bd
00000330: 59cd 0abd b145 a63d b9fd 593d 0e82 b13d
00000340: b5a5 183d 0202 27bd 7c48 393c 563d ae3d
00000350: c380 2dbd e326 263d 2d67 17be 6da8 2bbd
00000360: 954b 9fbd 8c37 783c a0bb eabc c9a6 0abd
00000370: 0816 e5bc 8336 e8bd e4bd c2bd 61df e83c
00000380: 441d 813d 9773 243d b2ab bf3d 71f9 95bc
00000390: 45d8 623d 9415 8e3d 1a8b 05be 863b 28be
000003a0: b9d7 fabc 9085 303c 953f cfbd 635d 75bd
000003b0: 8583 d13c 4563 ce3e 096f 99bd 924b 57bd
000003c0: 483a c7bc 5d50 a8bd cc04 1abe 4bdc 013f
000003d0: 82b3 20bf 981e 9a3d 7bf7 6a3d cfbb 0dbe
000003e0: d898 33bd 0789 c33d 0958 8c3d 025e 463e
000003f0: 9dfc f2bd ee91 85bd 7551 dcbd 0028 98bd
-0.053013764 -0.01728488 -0.06422267 0.00717736 -0.06278178 -0.067078575 0.06961591 0.12820166
0.0469471 0.0074916184 0.10793824 -0.010805138 -0.03390755 -0.25507176 0.004171345 -0.13685527
-0.014527617 0.03921338 0.06948503 -0.27298576 0.5224953 0.027412152 -0.04530526 0.11389874
0.053497054 -0.007738761 0.076706015 -0.13762417 0.06973726 -0.033241395 0.01518925 0.05601958
-0.10726177 -0.044562027 0.006259188 0.08757263 0.06888266 -0.04657872 -0.02428472 0.11133823
0.20258671 -0.045775447 0.044910364 -0.08757113 -0.08501487 -0.39009452 -0.0027558953 -0.12342063
-0.07985021 -0.025483575 0.21184717 -0.42068428 0.7071985 0.0052651716 -0.112007424 0.05853762
-0.05623329 0.044234388 -0.030567935 -0.0795891 -0.001303025 -0.059024308 0.014678596 0.021996498
0.059205286 -0.06494089 -0.048548635 -0.07817704 -0.072999984 -0.06533863 0.009597953 0.0841
0.0010357663 -0.030123567 0.025314754 0.058691032 -0.086120844 -0.3194004 -0.029928425 -0.0137068555
-0.026119215 -0.049301676 0.061741315 -0.44078344 0.7594894 0.01449474 0.07681521 -0.044672474
-0.04762507 -0.1453449 0.08445346 -0.23523174 -0.07272106 0.062305883 -0.08507196 -0.06416127
-0.05186532 0.07823427 0.056099154 0.11716667 -0.0014233171 -0.07204525 0.028436111 -0.12839241
-0.039308112 -0.11885402 -0.057177357 -0.015044683 0.06488247 0.4483943 0.117180556 0.026832148
0.033117235 -0.08091798 -0.046034608 0.43128517 -0.72280514 -0.09494343 0.06648369 -0.08724862
-0.07992593 -0.0421244 -0.12375972 0.2699302 -0.08593111 0.0153146135 0.09652041 0.08155079
0.051757038 -0.05611538 -0.051780548 0.05515758 0.064411394 -0.058819015 -0.019486943 -0.104902014
-0.065639146 -0.09800057 -0.02815591 -0.030588659 -0.13115656 0.47471887 -0.03137796 -0.020655936
0.097108625 0.07304381 -0.05726407 0.5699428 -0.7306118 -0.12053657 -0.1038129 -0.023170587
-0.054008633 0.14955504 -0.07586793 0.11421823 0.05268717 -0.072175935 0.059781615 0.05413857
-0.052664302 -0.072310574 -0.052968293 -0.11086344 -0.065313704 -0.005964947 -0.14996426 -0.09103411
-0.16462746 0.099268906 0.13082251 0.03273191 0.008715791 0.4887385 -0.050119992 -0.07115635
0.045881577 -0.018579125 -0.048759885 0.5522428 -0.71538883 -0.04761956 0.0105709145 0.08633306
0.036094513 0.17531604 -0.07152215 0.121754356 -0.0037669635 0.06867663 -0.10758188 -0.09627039
0.030364994 -0.002031558 0.0677745 -0.08310317 -0.008672863 -0.023366477 -0.096514344 0.014808968
-0.0071461047 0.057295736 0.16271034 -0.117443316 -0.03388724 0.08118761 0.053220484 0.08667384
0.037267406 -0.0407734 0.0113087855 0.08507793 -0.042359125 0.04056443 -0.14785452 -0.04190867
-0.07778088 0.015149962 -0.02865392 -0.033850465 -0.027964607 -0.11338522 -0.09508875 0.028426828
0.0630441 0.040149298 0.0935892 -0.01830742 0.055382032 0.069377095 -0.13041344 -0.16428956
-0.030620443 0.010774031 -0.10119549 -0.059903514 0.025575409 0.40310112 -0.074918814 -0.052562304
-0.024319783 -0.08218453 -0.15040892 0.50726765 -0.6277391 0.075253665 0.057364922 -0.13841175
-0.043846935 0.0954762 0.06852729 0.19371799 -0.118645884 -0.065219745 -0.10757724 -0.074295044

enc.enc_out1.bias f4 [8]
00000000: d171 613b b802 1bbe 9a6e 643d f4d0 bcbc
00000010: b2b0 5dbc a545 03be 6ddc dc3d 45d4 e83d
0.0034400115 -0.15137756 0.05576954 -0.023048855 -0.013530897 -0.12819536 0.107842304 0.11368612

enc.enc_out2.weight f4 [1, 8]
00000000: c2a2 66bc 0102 5fbe e850 76be 3ee3 5f3e
00000010: ba28 863e 43ed ae3e b919 a2bb e1fa be3d
-0.01407689 -0.21778108 -0.24054301 0.2186403 0.26202947 0.3416539 -0.004946914 0.09325195

dec1.fe.FC1.weight f4 [64, 8]
00000000: b0af 18bf 806f a9be f13d 29be 5435 c9bd
00000010: 0b5d 863d 677a 00bd fb11 203d 9c57 e1bb
00000020: d6b6 0f3f 4946 a03e c737 2e3e 7a76 c83d
00000030: 0b36 85bd e5d4 0d3d 6e4b a6bc 6903 803c
00000040: 3ebb 7a3d d8ff 543d 1f8c 833c d4e5 6bbc
00000050: c374 84bc 5872 0dbd 03c9 d73d d8c4 2d3d
00000060: 5478 20bf ad8e b6be 0d34 47be 32b6 e4bd
00000070: f9d9 9e3d dc4e 0bbd e524 8d3c 3a03 53bc
00000080: d6c8 123d efd3 ce3c 821b 13be 0ecc c5bd
00000090: e8d0 733d 6c83 a6bc c97d 7d3c 6e53 c1bc
000000a0: 7196 09bf 2294 95be e1d2 1fbe 3e66 cbbd
000000b0: 2cfe 863d 227d 01bd 99ea 7f3c 44e3 ecbb
000000c0: 6b97 0b3e 26da aa3d 5976 b53d 1ab2 893d
000000d0: 735c 3ebd 6615 563c 8d09 443c d52b ccbb
000000e0: 77e2 8c3c 8933 57bc 395c c33c b3e6 a2bc
000000f0: c0e1 88bc 28f0 173e 7cab 01be 8276 cf3c
00000100: e434 03bd 677e 543e c43f f33d 267d 983d
00000110: ce07 4cbd 6d9b f13c 769e 3abc a6f6 4c3c
00000120: 5984 0ebf d5ee 9fbe 51ae 2dbe 0aeb cebd
00000130: 5f8c 7d3d fa73 10bd 2131 db3b 8f4e 913b
00000140: 9594 f53d 7c0e 2d3d 4bb1 f1bd 0eb7 03be
00000150: 190f ae3d e7c8 f0bc 5257 823c 8e2d cbbb
00000160: 2f8d c0be ed9f 79be 771f 46be f400 dfbd
00000170: 8792 833d cae1 52bd ffbe 6b3d 8d10 7fbc
00000180: 63d5 d13e dfd8 413e 3275 c43d 68d8 803d
00000190: f0c4 acbc 1be7 883c e152 c83b 9736 853c
000001a0: 1511 07be fbe8 b3bd 8833 45bd f728 05bc
000001b0: 425c 08be a39f 9b3d 73f8 04bd 0cd3 3c3c
000001c0: 4267 01bf 6d77 4ebe 1c88 7abd b797 72bd
000001d0: 93df 013d 6619 f8bc e722 e43b 28b8 f03b
000001e0: 9180 153f 38e6 9a3e c07b 383e 2fd6 d93d
000001f0: 1f73 17be 771e b93d a855 233c 3d9b b1bc
00000200: 99f5 b6bb 6161 ebbc 34cd 873b f1ad b63c
00000210: cf44 4fbb 510c 943d 439e 6e3c 1f45 4a3e
00000220: 01e5 123c 7d9b adbc b5ec 8a3c 9224 0ebd
00000230: 3a94 28bc 22bf 85bd 2142 3ebe a2dd fb3d
00000240: e858 d03c 1d76 493d f322 17bc ba13 083d
00000250: 834c 693d 67e3 7ebd 7af2 233c be49 023d
00000260: 52ee 01bf b3a0 9fbe 784d 3ebe 25b6 cbbd
00000270: cbf8 a93d 9306 16bd 3bc9 f53c b4d3 e3bc
00000280: 1de6 f5be 760c 8abe 2a59 19be b4b5 b7bd
00000290: 9daa 6b3d 4fb7 f4bc e9cf ad3c 5f25 b3bc
000002a0: 5321 e0bd 0577 d3bd 4e61 25b9 6ab7 83bc
000002b0: 9545 2f3d 2857 4ebd 80dc f33b 16c9 14bd
000002c0: 7ad7 023f a249 8b3e d24a 4f3e 9b7c 1c3e
000002d0: 781e c2bd a5e2 233d 2e64 a9bc 7a56 363c
000002e0: 9cf0 a0be b9c1 5cbe 27a1 d4bd 3940 07bd
000002f0: b6ac 62bd 9d06 563d de21 03bc 81ad adbb
00000300: fb40 133d e0f3 7e3d 944f 17be 6bce 7d3d
00000310: 354b 23bd 8064 9bbb 72db 48bc b13f 643b
00000320: c760 873c 6914 a3ba 66ba 963c e1fe 94bc
00000330: fdb2 7d38 5591 aebd aa78 bdbc 5690 23be
00000340: 1c39 fbbe b4ce 87be 188f 5bbd acbd 73bd
00000350: 4eb3 683d 32a7 c43b d793 203c 1c91 e13a
00000360: 0f12 df3b 8834 393d 5bb7 2d3b 6683 f0bd
00000370: 1a72 8e3c 0add 39bd f0bf 493d 74dc d8bb
00000380: 2634 29bf f5bf bcbe 2ac5 4bbe db90 e8bd
00000390: 4a08 a23d d821 28bd 0c43 d53c 9810 b8bc
000003a0: 629c de3e f980 7f3e 3ea0 1e3e f371 b53d
000003b0: a410 50bd 8e44 243c 9da3 89bc 8109 543c
000003c0: cca4 d3bd bbe8 f53c 47c2 023e d3cb ff3d
000003d0: ef42 34bd 1f22 c63c 2b5f dcbc f742 e4bb
000003e0: 4bf5 c43e faf9 5c3e fc9e f53d 78d7 993d
000003f0: 7130 31bd 3e7a f43c f58c 8cbc 99c2 863c
-0.5964308 -0.3309288 -0.16527535 -0.09824625 0.06560715 -0.031366732 0.039079648 -0.006876899
0.5613836 0.31303623 0.17013465 0.097882226 -0.065044485 0.03462686 -0.02029964 0.015626626
0.061213724 0.052001804 0.016058026 -0.014398057 -0.016168958 -0.034532875 0.10536387 0.042424053
-0.62683606 -0.35655728 -0.1945345 -0.111675635 0.07756419 -0.034010753 0.017229507 -0.012879187
0.035836063 0.025247542 -0.14365962 -0.09658061 0.0595254 -0.020326339 0.015471884 -0.023599353
-0.5374518 -0.2921458 -0.15607788 -0.099316105 0.06591448 -0.031613477 0.015619897 -0.0072292406
0.1363198 0.0834239 0.08860464 0.06723423 -0.046474885 0.013066625 0.011965168 -0.006230811
0.01719783 -0.0131348455 0.023847686 -0.019885397 -0.016709208 0.14837706 -0.12663072 0.025325064
-0.032032862 0.20751344 0.11877397 0.07445745 -0.04981213 0.029493058 -0.011390319 0.012509977
-0.55670696 -0.31236902 -0.16961028 -0.10103424 0.061901446 -0.035266854 0.006689206 0.0044344137
0.119912304 0.04225014 -0.11801394 -0.12862799 0.084989734 -0.029392673 0.015910778 -0.006200499
-0.37607715 -0.24377413 -0.1934794 -0.10888854 0.06424432 -0.05148486 0.057555195 -0.015567911
0.40983114 0.18930386 0.09592666 0.06291276 -0.02109 0.016711762 0.0061133956 0.016261382
-0.1319011 -0.08784672 -0.048144847 -0.008127443 -0.13316444 0.07598808 -0.032463502 0.011524927
-0.50548184 -0.20162745 -0.06116496 -0.059226718 0.031707358 -0.030285548 0.0069621685 0.007346172
0.583993 0.30253768 0.18015957 0.106365554 -0.14790009 0.09039014 0.0099691525 -0.021680469
-0.0055834767 -0.028732957 0.004144335 0.022299739 -0.0031626706 0.07228912 0.0145641 0.1975293
0.008965732 -0.021192307 0.016958574 -0.034702845 -0.010289246 -0.06530596 -0.18579914 0.122981325
0.025433019 0.049184907 -0.009224641 0.033221938 0.056957733 -0.062228587 0.010006541 0.031808607
-0.5075427 -0.3117729 -0.1858424 -0.09946851 0.082994066 -0.036627363 0.03000318 -0.027810909
-0.48027125 -0.26962632 -0.1497542 -0.08970204 0.057535756 -0.029872565 0.021217303 -0.021868406
-0.10943856 -0.103254355 -0.00015771875 -0.01607867 0.042790968 -0.050376087 0.007442057 -0.036324583
0.5111004 0.27204615 0.20243385 0.15281908 -0.09478468 0.040011067 -0.020677652 0.011129016
-0.3143357 -0.21558274 -0.103823 -0.033020232 -0.05534049 0.0522524 -0.00800368 -0.0053002243
0.035950642 0.062244296 -0.1477645 0.061964434 -0.039866645 -0.004742205 -0.012259351 0.0034828002
0.01652564 -0.0012441996 0.018399429 -0.018187942 6.0486596e-05 -0.08523814 -0.023128826 -0.15973029
-0.49067008 -0.2652489 -0.05360326 -0.059507057 0.056811623 0.0060013765 0.009800873 0.0017209384
0.0068075727 0.045216113 0.0026506993 -0.11743812 0.017388392 -0.045376815 0.04925531 -0.006618077
-0.660952 -0.36865202 -0.19899431 -0.11355754 0.07911737 -0.0410479 0.026032947 -0.02246885
0.43478686 0.24951543 0.15490815 0.08859625 -0.05079712 0.01002611 -0.01680165 0.012941719
-0.10334167 0.030018201 0.12769423 0.12490048 -0.044009145 0.024186192 -0.026900848 -0.0069659906
0.38468394 0.21579733 0.119932145 0.075118005 -0.043259088 0.029843446 -0.017157057 0.016450213

dec1.fe.FC1.bias f4 [64]
00000000: b037 9abe d1b9 9bbe 5328 abbe 5ed1 b1be
00000010: 1e90 08be a4f4 97be 5e8a 113f 0936 e3be
00000020: b18d d8bd d4f9 92be e9ec 8d3e ff25 e6bd
00000030: b08e a3bc a0d6 113f 78be f13d d627 fabd
00000040: cdde d1be a8f4 c0be 4f64 033f 3aa9 ddbe
00000050: 34b8 04bf b674 193f ea6d b9be 8674 363e
00000060: 417f 873c f65c c7be 0103 99bd dd64 31be
00000070: 5fc2 b3be bfee debe f7b2 b1be 8901 dcbe
00000080: 4a77 8bbc 6442 9cbe 9134 46be 0c79 37be
00000090: aa92 85be f9a0 a9be 4196 07bf b715 bb3e
000000a0: ad75 c9be efd8 dbbe 7cd8 13be 8258 09bf
000000b0: 271e 4fbe 3320 bcbe 77c4 a9bd 4b4f d63e
000000c0: 9acd bebe 3841 a83d 3ad6 a03d 2bc6 083f
000000d0: 0dc8 b0be 4c01 83be da90 fcbe 4964 b1be
000000e0: cd6b fe3d de5f 1ebf 4e07 203f cc59 adbe
000000f0: 33e8 a6be 1d5d 95be 0703 e7be 6f89 4bbe
-0.3012061 -0.30415204 -0.33429202 -0.34730047 -0.13336226 -0.29678833 0.56851757 -0.44377163
-0.105739005 -0.2870623 0.2771981 -0.11237716 -0.0199655 0.56968117 0.11803907 -0.12214629
-0.40990296 -0.37686658 0.51324934 -0.43293172 -0.5184357 0.5994371 -0.3621667 0.17817888
0.016540172 -0.3893811 -0.07471276 -0.17323633 -0.3510923 -0.43541524 -0.34706852 -0.4296992
-0.017024655 -0.30519402 -0.1935599 -0.1791727 -0.26088458 -0.33130625 -0.52963644 0.36540005
-0.39347592 -0.42938945 -0.14438051 -0.5365068 -0.20226346 -0.36743316 -0.08289426 0.4185737
-0.37266237 0.082155645 0.078533605 0.5342738 -0.34527627 -0.25586927 -0.49329263 -0.34646824
0.12422905 -0.6186503 0.62511146 -0.33857572 -0.3259903 -0.29172602 -0.45119497 -0.19876646
