Lightcode/bc/rate39/light_bc_rate39_snr0.pt (torch, 175856 bytes, 38 tensors)

enc.fe.u1_FC1.weight f4 [64, 24]
00000000: f0fc 1d3e 4245 25bf 4824 6f3d e6b7 9abd
00000010: c2ee 00bd d85a 5c3a 1ee9 7bbd abaa 9dbd
00000020: fb7e 9dbd 9590 43ba 9d80 84bd 7c10 dbbc
00000030: 895a 7bbc a9ce 1c3c 2d56 ceba bbe1 763b
00000040: f3d2 a3ba d7a7 ed3e 33ac 323e dc03 243e
00000050: 8d93 8abe 2790 18be f40b 84bd 2299 873c
00000060: 7c6e 25bd 8ffb 64bc fd82 fdbb 7b28 ee3c
00000070: db87 913b 4673 18ba f840 adbf 9d41 c93d
00000080: 9024 8c3c 1937 0d3a 56e1 623c a368 243b
00000090: 0893 d03a 882e 9fba 70bf 08c0 7bd4 83bd
000000a0: bef1 543a da66 bb3b bc19 5d3b 61a4 b7ba
000000b0: 668c 793a dd77 563a 75f0 0bc0 63d6 41bd
000000c0: 5ba3 243f ed52 41bd 4666 153e b538 31bd
000000d0: 68fb 4a3d 5489 ea3d 5f49 a6bd 1159 f13f
000000e0: c21c aebe e22f 21b9 1f18 87be 904a 2dbe
000000f0: 0a10 54be b598 c03d 0e9e 7fbd 5a1f 9cbf
00000100: 4adf f0b9 144e c63c fcdc e2bb d0c3 5339
00000110: 532c b5bc b472 34bd d183 8dbc 2d24 6ebe
00000120: 90ca 403e c6cc 123d f616 f83c 1ffd 70bd
00000130: 7c8e 92bd 2f6f 0b40 e547 8bbe 59af 523f
00000140: b9f1 c3bd da96 3db9 3bcf 91bd 2b10 08bd
00000150: 3dda 79bc de55 39bf 6fe2 023f 1a66 0bbf
00000160: 9d5d a639 ec6c 99bc 0657 41bc 6309 79ba
00000170: b5b3 bf3c 9be4 17bf 457b adbe a3ab 5abf
00000180: c03e 74be a5cf 31bd ac3c 623d c40e 7e3d
00000190: ca09 683d 6ad2 c7bf 380c 3fbd 0706 b4be
000001a0: 44a0 933d 280a 8239 c720 183d ab8d 4f3c
000001b0: 8d41 05bb 7b71 023e 9c14 983d d142 753e
000001c0: 9e92 bb39 cd72 b13c 6733 0c3b 8e4f f2bb
000001d0: 19e8 35bb 3e82 0440 cada 983e a802 fbbc
000001e0: 6ca6 7ebc 9365 0bbf 695e 10bb 78b9 bd3c
000001f0: 64a4 b8bc 616f 6dbc abd8 c0bc 9e7c d6bc
00000200: ad48 063c 3eb9 60ba 8010 ba3b 36ba 86ba
00000210: 790f 163b fa32 813b 4814 8e3b d837 b53a
00000220: d06d 2bba 6c97 bcbe b123 d8bd 717f 9ebd
00000230: 1280 e33d 7b02 083d 31af 003d b147 9f3c
00000240: c460 2fbf 759b 52bb c2b2 16be 51b4 d73d
00000250: 480f 18bd 5c4c 263c 39a3 afbc a30e cd3e
00000260: b435 a73e 2ac1 75ba c891 863e facf 273e
00000270: 90cd 483e f7d2 07be 23e1 f23d 950d d5bd
00000280: 4411 f0b9 9afd 4dbb ef13 8e3c 7e39 a03a
00000290: 4e6d 8d3a a58a 013c c1b4 e239 c816 eebd
000002a0: 1dfa ccbc 5413 473b 5d23 f73c 38d0 4ebc
000002b0: 41d8 dd3b f512 2dbb e4dc 143b 2416 a0bf
000002c0: ab97 ed3b f446 abb9 fedf 3abb 2151 103b
000002d0: 068e 763a 279c cfb9 a17e 27ba 0b9e 17bf
000002e0: 5649 8939 4406 9fba fb08 83bb 7019 e5ba
000002f0: fbbb 203a 6df0 2e3a f851 8f39 2ccb 15c0
00000300: 941d 333c 9043 683d 1cc2 5a3d 5788 3c3d
00000310: b724 bdbc 462e 48bd 6859 d1bc 03f7 1c3d
00000320: 45cc d1bb ff00 b73a e1b6 90bc b22d f4bc
00000330: 49e9 c8bc 33d6 fb3c d30a 6fbc 099c 30bc
00000340: 9bd6 cdba fb72 883e 069a 043e cf3e f33d
00000350: ab7f 47be 972d 10be af77 08be d665 59bd
00000360: 4496 8ebd f99e c7bb 8b3d 083e fac5 1fbe
00000370: 81ca 8cbd cd1e 91bc 3a4a 18bf 166b f43d
00000380: d5a1 3ebe 4561 1ab9 e32f 22be 70cb cfbd
00000390: f96b c2bd 16a3 6c3d 971d 92bd 6eb7 a8be
000003a0: cac0 ba38 4a7b 95b8 0693 8cbc 4e11 1c3c
000003b0: 599e fd3b 380d 6a3c 7a6a aa3e 4c5f 3bbd
000003c0: 469c 7f3e 60e1 db3e ac64 0abe c37f 77be
000003d0: 4a7f a63e 4484 b53e 6692 763e 6081 f33d
000003e0: 60a9 f2bd eadb 8bb9 acc7 ffbc b32e 593d
000003f0: 8c27 91bd 07a4 82bd addb 10bd 4ac8 0fbc
0.15428519 -0.64558804 0.05838421 -0.07554607 -0.031477697 0.0008405871 -0.061501615 -0.07698568
-0.07690235 -0.0007460204 -0.064698435 -0.026741259 -0.0153414095 0.009570756 -0.0015742235 0.0037671167
-0.0012498781 0.46417114 0.17448501 0.16017097 -0.27065697 -0.1489874 -0.064475924 0.016552512
-0.04038857 -0.013975992 -0.0077365623 0.029072037 0.004441244 -0.0005815517 -1.3535452 0.09826968
0.017107278 0.00053869333 0.01384767 0.0025086782 0.0015912959 -0.0012144605 -2.1366844 -0.06437012
0.00081231806 0.005719048 0.0033737263 -0.0014010781 0.0009519517 0.0008181313 -2.1865513 -0.047323596
0.6431176 -0.047198225 0.14589795 -0.04326697 0.049556166 0.114519745 -0.08119463 1.8855306
-0.34006315 -0.00015371994 -0.2638559 -0.16922975 -0.20709243 0.094041266 -0.062406592 -1.2197068
-0.0004594273 0.024207152 -0.006923316 0.00020195474 -0.022115862 -0.044054702 -0.017274769 -0.23255987
0.18827271 0.03583982 0.030284386 -0.058835145 -0.07156083 2.178661 -0.2720329 0.8229881
-0.09567589 -0.00018080641 -0.07119604 -0.033218544 -0.015249786 -0.7239665 0.5112676 -0.5445267
0.00031731735 -0.018728696 -0.011800533 -0.0009499995 0.02340112 -0.593332 -0.3388311 -0.85418147
-0.23852062 -0.043410916 0.055233642 0.0620258 0.05664996 -1.5611088 -0.046642512 -0.35160848
0.072083026 0.000248031 0.037140634 0.012668054 -0.002033326 0.12738602 0.07425806 0.2395127
0.00035776658 0.021661187 0.0021392943 -0.0073947376 -0.002775675 2.0704494 0.29854423 -0.030640915
-0.015542608 -0.54451865 -0.002202893 0.023159727 -0.022539325 -0.014491887 -0.023540815 -0.026182469
0.008196038 -0.0008572525 0.0056782365 -0.0010278884 0.0022897406 0.0039428445 0.004335914 0.0013825847
-0.00065394957 -0.36834276 -0.105536826 -0.07739151 0.11108412 0.03320549 0.031417076 0.019443365
-0.6850703 -0.0032136117 -0.14716628 0.105324395 -0.03712395 0.010150041 -0.021440135 0.4005023
0.3265816 -0.0009374792 0.26283097 0.1638793 0.19609666 -0.1326407 0.11859348 -0.10402981
-0.0004578923 -0.0031431676 0.01734349 0.0012224165 0.0010790022 0.007906591 0.0004324075 -0.11625439
-0.025021607 0.003037651 0.03016823 -0.012622885 0.0067701642 -0.0026409004 0.002271467 -1.2506757
0.0072507462 -0.00032668526 -0.0028514857 0.0022021013 0.00094053184 -0.0003959846 -0.00063894136 -0.5922553
0.00026185316 -0.0012132605 -0.0039988733 -0.0017478894 0.0006131527 0.00066733995 0.00027336157 -2.3405256
0.010932345 0.056705058 0.053407773 0.04602846 -0.023088796 -0.048872255 -0.025555328 0.038321506
-0.0064025247 0.0013962089 -0.017665328 -0.029806945 -0.024525302 0.030741787 -0.014589983 -0.010779389
-0.0015704216 0.26650223 0.1294938 0.11877214 -0.19482295 -0.14079891 -0.13326906 -0.053075634
-0.06962255 -0.006091949 0.13304727 -0.15602866 -0.06874562 -0.017714882 -0.5948826 0.119344875
-0.18616422 -0.0001472282 -0.1583858 -0.101462245 -0.094932504 0.05777272 -0.0713455 -0.32952446
8.905081e-05 -7.127838e-05 -0.01715995 0.00952561 0.007739824 0.014285378 0.3328436 -0.04574518
0.24961957 0.42945385 -0.13514966 -0.24169831 0.3251899 0.35452473 0.24079284 0.11889911
-0.11848712 -0.00026675995 -0.03122314 0.05302305 -0.07087621 -0.06378942 -0.03536575 -0.00877578

enc.fe.u1_FC1.bias f4 [64]
00000000: 5cea ac3e f2b2 96bc e77b 613e e8e5 63bb
00000010: a31d babd 0ed7 55bf e0c0 5a3e 994c 2bbc
00000020: b8a9 80bf a8ae 18bf 512d 95bd dbac 6dbf
00000030: b299 bb3e adfa 9438 d34e 3fbc e8e1 d0be
00000040: 8e9c b53e 556e d23d abe4 63be 125d 75bc
00000050: 1568 dabe 43f4 15bd 23a4 85bf b7be ffbd
00000060: b9c9 23be c8cc 083f 0f95 bebe 7dcf 2abf
00000070: a18c f33e e1d8 8abe 1932 f23e 426c 29bb
00000080: 71d1 5ebf 9043 a3be 8082 24bb ed78 31be
00000090: 8bf3 b8ba 4a30 40bf 37eb 14bd 13a2 b33e
000000a0: 411a 8ebb e5db 5cbd cf5a 48bc 8d1a af3e
000000b0: 4c99 68bd b33f 943e b48b 0ebf dcd4 35be
000000c0: 1472 36be cde0 3abe a7f2 acbd 860d 173c
000000d0: a356 cabc 7017 4bbf 0df5 97bc 2d8f 92bd
000000e0: 3cf1 fb3e ba6d 79be 02a5 7dbf a7d9 8cbc
000000f0: 9653 d6bd c323 9fbd 54b1 31bc 6588 75bd
0.33772552 -0.018395875 0.22019921 -0.0034774486 -0.09087684 -0.8353127 0.21362638 -0.010455274
-1.0051794 -0.59641504 -0.07284034 -0.9284188 0.36640698 7.103882e-05 -0.011676508 -0.40797353
0.35471004 0.102749504 -0.22255199 -0.014975803 -0.42657533 -0.0366099 -1.0440716 -0.12487548
-0.1599492 0.5343747 -0.37223098 -0.6672285 0.4756823 -0.2711859 0.47303846 -0.002585188
-0.8703833 -0.31887484 -0.0025102198 -0.17331286 -0.0014110667 -0.75073683 -0.03635713 0.3508459
-0.004336626 -0.053920645 -0.012228682 0.34199944 -0.05678682 0.2895485 -0.5568192 -0.1775698
-0.17816955 -0.18249817 -0.0844472 0.009219533 -0.024699515 -0.7933264 -0.018549467 -0.07156215
0.49207485 -0.24358264 -0.99079907 -0.017193628 -0.104651615 -0.07770493 -0.010845501 -0.05994453

enc.fe.u1_FC2.weight f4 [64, 64]
00000000: cf39 043c 483d 30bf 1acb babe fdbf 21c0
00000010: 995f 05c0 2909 8d3d 2439 3f3e b579 07be
00000020: bdaf 9bbe 0394 7c3f 6bae 01bc 8d2b 97bd
00000030: 6cb4 973e e3e4 8738 300c bcbe e43f 1ebe
00000040: e8d8 8d3d cbf4 5abe 10da 123d e183 27bc
00000050: d699 083e 7c1d 483e 59c4 96c0 449d d93c
00000060: 5f74 f7bd 5e72 a1be 0485 083e c4a9 0ebf
00000070: d648 763d 7151 43bd 44e5 643e 31ac 88ba
00000080: 9992 083e c717 7ebe 1d2a 16bb 444b e53b
00000090: b04a b13e b62d eebe 0490 87be 2962 aabe
000000a0: f9dc 79be 6110 0f3e d32c 87c0 2fdd 4e3e
000000b0: 5a2f 4fc0 dbb5 683e cc8f 47be 6aa4 203e
000000c0: 38b7 0ebe 35b4 0c3e 496a 93be 3032 2c3f
000000d0: 6b84 c93c 51ee 99be fa66 933a f120 5dbf
000000e0: 4a54 233e 5474 f2bd 5bb9 4c3e d397 8e3b
000000f0: 6ef9 f83c c79f c8bb fe8b cb3a 4874 8bc0
00000100: 467a b83a eb58 5ebf 7659 4fbe acf2 d8bf
00000110: 6cfe 1dc0 306e 573e 9668 b2bd 923a 34bf
00000120: 017e a33e 332e 723e 58ae 3cbe b0c7 68be
00000130: 9448 65bc 3c34 83bc 4fe7 d0be 32a0 81be
00000140: 70ba d03c dff9 4e3e 1dc1 d63e 5656 ebbc
00000150: 4662 b63d 13bd 273f 5bad aabf c2ba dcbc
00000160: dd1a bfbe 7666 8fbe a0e8 1fbf 82e2 08bf
00000170: 7a4a 8abe fd42 61be bd1d 0cbe e0cb 7fbc
00000180: 19aa 083e 0db7 adbd ac9c 5cbc 0574 9bbe
00000190: 8b45 a33e 51f6 e23c 016d 20bf 4d15 bdbd
000001a0: f0d1 3dbf daa7 84be 139a cdbf 5244 65be
000001b0: 1eb6 91bf f45f 0a3e dd24 5cbd 6527 dbbd
000001c0: a88e cf3e 2dd8 15bf cd99 35bf 8c06 8e3e
000001d0: 3198 893d 312c e4bd c727 893d d4fe 5dbf
000001e0: a2c6 293e a803 83be e85c b8bf e638 ac3c
000001f0: b296 48bf 4fc0 f5bd f6eb 8abc 2bb2 04c0
00000200: 02da babe 8e17 17bd 365a 37bd 6ecf cebd
00000210: 6f76 a1bc d478 303d 28b4 05be 5877 1fbe
00000220: f327 043e ed9e 37bd b31e 2abe ec42 f4bd
00000230: 164a bcbc f29d 1dbe 6d66 8abd 9720 2cbd
00000240: ac07 67bd c4b9 9cbd af17 75bd 1c12 5e3d
00000250: 93b7 d0be a843 1dbe eb7f fdba 0c6f 16be
00000260: 271a 083e 3de3 15be 9575 28be 51f3 79bd
00000270: 9914 00bf 3586 95bd 8fe5 023e b383 91bd
00000280: 1fb9 5abe ce19 7fbd 0e9d 86bd 8886 dfbd
00000290: 20c8 46be e919 873d 43c2 14be 01bf cfbd
000002a0: 09e5 91bd 1a4c 0ebd af2e 6fbe 8acc 50be
000002b0: cc6f a5bd 9a0f 81bd 4cc3 dabd 8fa0 10be
000002c0: e4d9 54bd 92dd 4b3d 8aeb 86bd 4502 88be
000002d0: 8afa 07bf dfd2 053d bd5e 0fbe 0e7c c1bd
000002e0: 8bf4 073d 0c0b 0abb 88aa 4a3e ff1e f1b8
000002f0: e782 0dbe a424 8abe 52bb dd3c b969 24be
00000300: 5ea8 09be 79cb 1d3b fa74 cbbf 60fe 213e
00000310: 5aa5 edba a5f1 4cbe 0d3a 243f 5f62 95c0
00000320: 65ac 5e3e c024 8b3b 04e3 3fbe ea03 363e
00000330: 6f69 d13e d3f2 973a 4254 ffbe f4fd 90bc
00000340: 8659 81be 6218 433e 03e8 ff3d 5369 dcba
00000350: 6ed3 22bd 31f7 b5bf e1fb b8c0 f641 3fbd
00000360: 9eec 26bb efa3 6ebe 71a1 ce3c 6a10 82bf
00000370: bfab 493c b9d2 943e 2d1b 0abe 1c42 71ba
00000380: 29dd f5bd dbc2 5ebd b499 3e3a 628c 553d
00000390: d4e0 cd3e be8d c9be 7ef1 0b3c dc4f 3bbe
000003a0: d406 eebc 47ff 593f 70f4 0a3b 4402 023f
000003b0: 8d0e 4f3a 8314 973e 9936 4bbd 83c7 c6bd
000003c0: ffa1 313d 6fbd 96bc 73bf 89c0 779b 6dbe
000003d0: 195d e13c 4c24 f3bc 07b6 c23d 04e4 93b9
000003e0: d25c c6bc 93f8 fbbd 94c7 a33e d4d0 8a3a
000003f0: 8c7e d8bd 0a84 08bf 9b5a f2b7 7229 ccbb
0.008070423 -0.6884351 -0.3648308 -2.527343 -2.0839598 0.06886513 0.18674141 -0.13230021
-0.30407515 0.9866335 -0.00791512 -0.073813535 0.29629838 6.479935e-05 -0.36728048 -0.1545406
0.06926137 -0.21382444 0.03585249 -0.0102243135 0.13339934 0.19542497 -4.711468 0.026564248
-0.12082743 -0.31532568 0.13331991 -0.5572779 0.060128056 -0.04768509 0.22353083 -0.0010427294
0.13337173 -0.24813758 -0.0022913285 0.0069974978 0.34627295 -0.4651925 -0.26477063 -0.33278015
-0.244007 0.13971092 -4.2242217 0.20201562 -3.237265 0.22725622 -0.19488448 0.15687719
-0.1393708 0.13740619 -0.28792027 0.6726408 0.024599275 -0.30064633 0.0011245899 -0.8637839
0.15950122 -0.11838594 0.19992582 0.004351595 0.030392375 -0.0061225626 0.0015529392 -4.3579445
0.0014074526 -0.8685443 -0.2024897 -1.6949058 -2.4686537 0.21038127 -0.087113544 -0.7040187
0.3193207 0.23650436 -0.18425882 -0.22732425 -0.013994355 -0.016016118 -0.40801474 -0.25317532
0.025479525 0.20212506 0.4194421 -0.028727692 0.08905463 0.6552288 -1.3334154 -0.026944522
-0.37325183 -0.2800786 -0.6246433 -0.53470623 -0.27009946 -0.2199821 -0.13683219 -0.015612572
0.13346137 -0.0848218 -0.013465088 -0.30361953 0.31888995 0.027705343 -0.62666327 -0.092325784
-0.74148464 -0.2590931 -1.6062645 -0.22389343 -1.1383703 0.13513166 -0.053746093 -0.10700873
0.40538526 -0.58532983 -0.70937806 0.2773937 0.06718481 -0.11141241 0.0669704 -0.8671696
0.16579679 -0.25588727 -1.4403353 0.021023225 -0.7835494 -0.119995706 -0.016958218 -2.0733745
-0.36494452 -0.036887698 -0.044763766 -0.10098158 -0.019709794 0.04308398 -0.13057005 -0.1557287
0.12905864 -0.044829298 -0.16613273 -0.11926827 -0.022984546 -0.15392283 -0.067578174 -0.042023268
-0.0564038 -0.076526195 -0.05983704 0.05421649 -0.40765056 -0.1535784 -0.0019340491 -0.14690799
0.13291226 -0.14637466 -0.16451104 -0.06102306 -0.5003143 -0.073009886 0.12782882 -0.07105198
-0.2135968 -0.06228047 -0.065729246 -0.10914332 -0.19412279 0.06596739 -0.1452723 -0.10143853
-0.07123763 -0.034740545 -0.23357652 -0.20390525 -0.08077964 -0.06301804 -0.10681781 -0.14123748
-0.05196561 0.049771853 -0.06587894 -0.26564232 -0.5311667 0.032671805 -0.14000984 -0.0944749
0.0331922 -0.0021063713 0.19791615 -0.00011497549 -0.13819467 -0.2698108 0.02706686 -0.16055955
-0.13443133 0.0024077578 -1.5895073 0.15819693 -0.0018130944 -0.20014055 0.6415108 -4.668258
0.21745451 0.0042463243 -0.18738943 0.1777493 0.40900752 0.0011592753 -0.4986897 -0.01769922
-0.25263613 0.1905227 0.124954246 -0.0016816057 -0.039752416 -1.4216062 -5.780747 -0.046693765
-0.0025470625 -0.23304723 0.025223466 -1.0161259 0.012309014 0.2906702 -0.13486929 -0.00092032715
-0.120050736 -0.054385047 0.00072708284 0.052135833 0.40210593 -0.39365953 0.008541463 -0.18292183
-0.02905599 0.8515515 0.0021202825 0.5078471 0.00078985916 0.29507837 -0.049612615 -0.097060226
0.043367382 -0.018400876 -4.3046203 -0.23203836 0.027510213 -0.029680394 0.09507375 -0.0002820791
-0.024214182 -0.12303271 0.31988204 0.00105908 -0.10571012 -0.53326476 -2.889084e-05 -0.0062305266

enc.fe.u1_FC2.bias f4 [64]
00000000: 9747 babd 9dc9 033e eccf 83be 2000 303e
00000010: 5c53 0fbf a919 babe 19cd 46be 1445 c2be
00000020: d094 093e 65f3 c0bd 7052 033f fc58 31be
00000030: 06f6 4fbe 3f69 17be 5715 17be 3298 afbd
00000040: f0e4 d5be 8b8d 2fbd 30d5 20be dfb0 3e3d
00000050: b06c 30be 0517 32be fb31 01be b25d 68be
00000060: a5c0 523c f0c8 c3bd 5fd0 bf3c 151c 63be
00000070: 495c 1abe 9ed2 c0bd 8427 803e 0b3b 0abe
00000080: 73f5 44be 3243 9cbd d1ae 273e 50fb abbd
00000090: b0f7 1bbb 9f53 e8bc a36a 1bbe 629f 7cbe
000000a0: 20a9 28be 71c0 25be da35 bbbe e332 d0bd
000000b0: b3b9 9e3e bd40 24be 5a00 47bd 521e 47bc
000000c0: a4d1 57bd 28dd 91bd 8daa 90bd cb18 f9bc
000000d0: cd8b 52be bde3 ae3d b3eb a2bd cad3 20be
000000e0: ed00 5bbe ce10 87be b28a adbe afa1 383e
000000f0: b7dc 91be 6878 2fbd 5d27 383e 411d 2d40
-0.09095686 0.12869878 -0.2574457 0.17187548 -0.5598657 -0.36347702 -0.19414176 -0.37943327
0.13435674 -0.09421424 0.51297665 -0.17319101 -0.20308694 -0.14786242 -0.14754234 -0.08573951
-0.41776228 -0.042859595 -0.15706325 0.046555396 -0.17228961 -0.17391594 -0.12616722 -0.22691992
0.012863313 -0.0955981 0.023414789 -0.22178681 -0.15074266 -0.09415172 0.25030148 -0.13499086
-0.19234256 -0.07630004 0.16375281 -0.083975434 -0.0023798756 -0.028360186 -0.15177397 -0.24670175
-0.16470766 -0.16186692 -0.36564523 -0.10165956 0.31001052 -0.1604032 -0.04858432 -0.012153225
-0.052690163 -0.0712226 -0.0706378 -0.03040733 -0.20561142 0.085395314 -0.07955112 -0.15705791
-0.21387072 -0.26380008 -0.3389488 0.18030427 -0.28488705 -0.042839438 0.17983766 2.7049105

enc.fe.u1_FC3.weight f4 [64, 64]
00000000: 31c6 82be eabb 173f a164 51bd 9059 bbbe
00000010: 3a83 3c3f d55a 99be 28d4 12bd d754 f63e
00000020: 7446 ed3d a4f7 413e 8e18 08be 3737 833e
00000030: 7035 54bd 12bb 8cbd 9824 c6be ce42 33bd
00000040: 4395 1ebd 158a 843d a953 e23c 76f0 a8be
00000050: 8544 ea3d 10e9 37bd 6071 ffbe 98f5 753e
00000060: 7daa cb3e f62a 9e3d 9782 3bbc bb9d 183e
00000070: a62e 1a3f 9d4c 8e3d a723 de3e 79b0 67bc
00000080: 8b57 453f 631c 673d 934b 023f 6451 0dbd
00000090: 4e63 b63e 4295 843e dccf 12bd d662 36bd
000000a0: 6afd 5abe 607b 8e3a 6026 153f 1b1d e73c
000000b0: 603d 0abe 7941 153c e77f 18be d5c0 53be
000000c0: 3dbf b9bd 5bf6 dd3d dfb2 1d3f 4ee3 ce3c
000000d0: f801 9e3d e729 88bd 692a 85ba 94c7 bbbd
000000e0: 6e81 493d abaa 0c3f 92af 35bd 561a 99be
000000f0: 2292 06bf 3296 1cbe fc36 9b3e 646e 263e
00000100: d781 bf3e 9e28 bf3d 6e1c 033d 4d82 3d3e
00000110: b41f 79bd 0700 c53e 83a0 703d b9e4 8ebe
00000120: b95e debc 0596 c2be 3307 a13d ca7a 56bd
00000130: 47eb cebe 1e4d 403e 1c4c e33b f05b cfba
00000140: 57a7 2b3e a842 db3c 0dc3 223d 4670 913f
00000150: b534 87bd fccf 5ebd d4f0 d6be a902 ffbc
00000160: 087a 0abf f1f5 fc3d 3b8e 78be b21f 1fbf
00000170: a63d 8bbe 314f 273d 48ce 6e3e 7fcc 0e3e
00000180: db28 a8be a756 98bd cb86 cabd 86ee c2bb
00000190: 796a 05bd 3811 81bf d9b5 c93d 5ebe ffbb
000001a0: 8a8f 40bf efa9 4dbd 6279 f03c 3b3a 053d
000001b0: b11c fc3b 2798 103e ba56 083e ebf1 7a3e
000001c0: 4ebd 513f 495c a43d 9508 6ebe 437e c9bc
000001d0: ee0b 36be 5736 e13d c11d 4fbd ac27 9a3d
000001e0: 9005 613b c47b 53bb a3c3 8abd b373 1f3f
000001f0: 4264 d63d 5811 4ebf 39d2 aebd 1c20 06be
00000200: 46a3 433d 371e cbbe 4c63 73bd 8ca2 463e
00000210: 14b3 e03d 4190 e33e 83e2 8b3d d928 28be
00000220: e9b5 af3d 8053 69be 183d 9fbd c333 b8be
00000230: c4b3 f8bd fd97 2e3e a0f3 97ba 07ea 68bc
00000240: 497a 563d 7c94 1e3e 8f70 83ba 09cc cfbd
00000250: e020 04be ff59 01be b2a2 dc3e de2e 59be
00000260: 9dd6 44bd 4fa2 46be e73e c73d bc58 07bc
00000270: 324c 903d e24b 533d c256 27bf b060 9abe
00000280: 2889 f3bc 6e29 033d b5b3 b6be a584 c63d
00000290: 6fd0 0ebe 81f0 1fbe 407b 55bd b77c 5b3d
000002a0: 2ba6 29be 8c1d 683d b57d 87be 918f 76bc
000002b0: 1c66 21be badb 0c3d 966d 833e 8bef 0ebd
000002c0: cf1f 913e b954 22bd 73a5 a43d 5fe2 d53d
000002d0: 9953 a73d 7f54 10bf 6b4c babd 17a6 da3d
000002e0: 27f1 293d 5e28 863e 4bc4 203e ebbc cc3d
000002f0: 1323 01be 83e2 293e 5513 67be b0ec e5be
00000300: 39dd 27be a319 26be 4d34 f63c 50ee 983c
00000310: c423 983e dd4b 61bf 3744 653c bd23 993e
00000320: 3547 6c3d 752c bcbd b8d7 1cbd 6dc3 21bf
00000330: 0cbc 34be 2f5e 273e 55d8 403e aee1 20bd
00000340: 4fcf 0dbe 4eb6 753e 2219 39bb c3fd a73c
00000350: ce3f ffbc 5c82 cbbd a34d 753e 87e4 a2bd
00000360: 9ec3 b4bd 6f97 4fbd 7cd9 de3d 4b38 563d
00000370: 5ec3 0d3e 5ab9 bf3d ca61 04bf b4f6 debe
00000380: 45a2 383d a54e d2bc 02b2 95be fcbf 1ebd
00000390: d2c6 8bbc 5541 43be 0174 193c de20 3d3d
000003a0: 88f9 1ebe 2c68 21be 7d87 5ebe c324 f13c
000003b0: 1964 69bd d6f4 c33d f2c8 933d 860c 1c3e
000003c0: 621f de3e 6da4 9fbd add8 6e3e f81e 133e
000003d0: 00f7 503d 2c18 eebe f52a 27bd 84e4 673e
000003e0: b807 fdbb cc72 833e c82b 193d 3d12 b43d
000003f0: e669 2dbe afd7 2d3e 0946 2cbe 63eb 0abf
-0.25541833 0.5927111 -0.051121358 -0.36591768 0.73637736 -0.29952112 -0.03584686 0.48111603
0.115857035 0.18942124 -0.13290617 0.25628063 -0.051808774 -0.06871618 -0.38699794 -0.04376488
-0.038716566 0.064716496 0.027627783 -0.32995957 0.1143885 -0.0449 -0.49891186 0.24019468
0.3977851 0.07723038 -0.011444709 0.1490392 0.6022743 0.069482066 0.43386576 -0.014141195
0.77086705 0.056423556 0.5089657 -0.03450145 0.35622638 0.25895125 -0.03584276 -0.04452785
-0.21385732 0.0010870509 0.5826168 0.02821212 -0.13499975 0.009109848 -0.14892541 -0.20679028
-0.09069679 0.10838004 0.6160106 0.025254872 0.07715219 -0.06648617 -0.0010159734 -0.09168926
0.0491957 0.5494792 -0.04435689 -0.29902905 -0.5256673 -0.1529167 0.30315387 0.16253048
0.37403747 0.09333919 0.032009535 0.18506737 -0.06082125 0.38476583 0.058746826 -0.27908877
-0.027144777 -0.3800508 0.07862701 -0.052363195 -0.40413877 0.18779418 0.006936563 -0.0015820246
0.16763054 0.026765183 0.039736796 1.1362388 -0.0660185 -0.054397568 -0.41980612 -0.031129198
-0.54092455 0.12351597 -0.24273007 -0.6215774 -0.27195472 0.040847007 0.23320878 0.13945197
-0.3284367 -0.074384026 -0.09888991 -0.0059488444 -0.032572243 -1.008338 0.09849138 -0.007804676
-0.75219023 -0.05021089 0.029354755 0.032526236 0.00769385 0.14120542 0.13314334 0.24506347
0.8192948 0.080254145 -0.23245461 -0.02459634 -0.17777988 0.10996693 -0.050565485 0.07527098
0.003433559 -0.0032269815 -0.06775596 0.6228592 0.104683414 -0.80495214 -0.085361905 -0.13098186
0.04776313 -0.3967149 -0.05942087 0.19397944 0.109716564 0.44445994 0.06830313 -0.16421832
0.085796185 -0.22785759 -0.077753246 -0.3597699 -0.121436626 0.17050166 -0.0011592992 -0.014215953
0.052362714 0.1548633 -0.0010028052 -0.101463385 -0.12903166 -0.12631987 0.43092877 -0.21209285
-0.048056234 -0.19397853 0.097287945 -0.008260902 0.07045783 0.05158604 -0.65366757 -0.30151892
-0.029728487 0.032021932 -0.3568398 0.09693269 -0.13946699 -0.15619089 -0.052119493 0.053585734
-0.16567294 0.056668803 -0.26463094 -0.015048877 -0.15761608 0.034389235 0.25669545 -0.034896415
0.2834458 -0.03963158 0.080393694 0.104435675 0.08170242 -0.5637893 -0.09096607 0.106762104
0.041489746 0.26202673 0.1569988 0.09996971 -0.12611036 0.16590314 -0.22565968 -0.4490714
-0.16392983 -0.16220717 0.030054236 0.018668324 0.29714787 -0.88006383 0.0139933145 0.2991008
0.057685096 -0.09188167 -0.038291663 -0.6318882 -0.17649859 0.16344522 0.18832524 -0.039277725
-0.13848613 0.23995325 -0.002824374 0.020506745 -0.031158354 -0.099369735 0.23955397 -0.079537444
-0.088263735 -0.050681528 0.108813256 0.05229978 0.13844058 0.09361525 -0.51711714 -0.43547595
0.045076627 -0.025672266 -0.29237372 -0.03875731 -0.017062578 -0.19067891 0.009366036 0.046173923
-0.15524876 -0.15762395 -0.21731372 0.029436475 -0.056980226 0.09568183 0.07216062 0.15239152
0.43383318 -0.077950336 0.23324843 0.14367282 0.051016808 -0.46502817 -0.04081245 0.22645766
-0.0077218674 0.2567352 0.03739527 0.08792541 -0.16934928 0.16976808 -0.16823591 -0.5426542

enc.fe.u1_FC3.bias f4 [64]
00000000: acb5 323f 7fc5 4bbe 4707 0bc0 e5ec 0bc0
00000010: db73 0640 505e 813d 3a9f 073f c4d8 6fbe
00000020: 5fb2 09bf c6e4 74bf 90f1 3a3f c5fc 4e3f
00000030: e9bb f8be 3be1 393e edf6 7bbe 8b00 b83f
00000040: 4f33 da3f 1343 9dbf 2baa 22be 9382 a33e
00000050: 25c5 babf 21cb e13d 48e4 9d3e a94b 99bd
00000060: 10a9 8fbf b698 18c0 3f9d 03bf 0fcb cabf
00000070: f435 bdbf 5017 253f 9101 71bf 0406 a2bc
00000080: 4707 06bf a9dc f6bd 30e4 7cbe 3167 fe3e
00000090: e403 a6bf 72e9 ddbe 470a dabe c6cf 17bf
000000a0: eeda dd3e 6a12 31bf f4c7 dd3e 52a8 d0bf
000000b0: 2072 963e 82d9 963e 7748 93bf 1c6a d13e
000000c0: 16e9 fa3e d285 edbe d3e9 14bf 78e5 02be
000000d0: e0bc 0040 32b8 1f3e 6033 41bf 0f73 703f
000000e0: 41a7 3dbe b95d f3be 0946 bb3f 9380 ea3f
000000f0: 2daa f33f f077 09c0 473b dd3c 2eb3 20be
0.6980846 -0.19899558 -2.1723192 -2.186334 2.1008213 0.06316817 0.52977335 -0.23422533
-0.537878 -0.9566158 0.73024845 0.80854446 -0.48580864 0.18152325 -0.24605913 1.4375166
1.7046908 -1.2286094 -0.15885226 0.31935558 -1.4591414 0.11025072 0.30838227 -0.07485134
-1.1223469 -2.3843207 -0.51411813 -1.5843219 -1.478209 0.644887 -0.94143015 -0.01977826
-0.52354854 -0.12053806 -0.24696422 0.49688104 -1.2969937 -0.43342167 -0.42585966 -0.5930141
0.43331093 -0.6916872 0.43316615 -1.6301367 0.29383945 0.2946282 -1.150649 0.40901268
0.49005955 -0.4639116 -0.5816929 -0.12782848 2.011528 0.15597609 -0.7546902 0.93925565
-0.18520834 -0.47532442 1.4630748 1.8320488 1.9036309 -2.1479454 0.027005805 -0.15693352

enc.fe.u1_FC4.weight f4 [32, 128]
00000000: eaa1 24bf fb4e cf3e ea02 833f b3e7 373f
00000010: e95c 86bf f7f3 13bd bd38 cfbe 9ee5 44bb
00000020: 3889 efbc 7c8b 633e 4327 7fbe 6eda f7be
00000030: 9198 9f3e dc50 f4bd d6ed 663e ece9 41bf
00000040: cf71 02bf a6e1 b63e bb6f 1ebe 4919 b83d
00000050: 3184 0f3f 220e 8cbc aab8 d2bd 982d ee3c
00000060: d617 a83e cae8 9f3f f766 013f 684a 0f3f
00000070: 8880 673f 86f7 e6be 8b58 f63e daab 783e
00000080: d60c 0c3f 682e 903d d189 673e faaa ccbe
00000090: f351 063f 5f7d 4b3e d8c5 6c3e fa74 303e
000000a0: 370e 58be 14e9 dd3e d745 42be 0f91 2b3f
000000b0: 496b ddbc 3269 07be a4e6 113f bd41 d9bd
000000c0: 58d5 95be e5bf e23e 15de f33d 3a8b 493e
000000d0: e04c 61bf 9cc9 06bf fc62 e43e 530f c2be
000000e0: 7e85 833e 9a88 013f ac43 42bf cf51 8abf
000000f0: 8cbe 1dbf c168 8c3f 199b 81bc 1b9e eabd
00000100: 016d 253e db14 0fbe c777 093f b93e c73e
00000110: 4aa2 9abc 33a7 99be 92a6 6c3d 0dc5 1cbe
00000120: 5630 82be 7e6b 91be c350 473e f726 adbe
00000130: 5310 663e 8aa5 8a3b 7e43 db3e 725e 14be
00000140: 82b8 0d3e 6020 453e 44b2 153d f3cd 2e3d
00000150: f6e5 5cbe 2102 033f cc06 6dbe b371 403e
00000160: a2e7 0d3e 9fc1 1c3f 946c 4cbd 2a33 95be
00000170: 30b8 1d3f 19c6 37be 607a 3f3e a21c 1fbd
00000180: 67b7 47be 817e b63d 7003 353d e0d4 24bd
00000190: 4f41 abbd ba17 9dbd 5c47 84bb e1d4 db3e
000001a0: fee3 ba3d e3f8 e63e 137e 683c 58af 233e
000001b0: 38a1 6d3c 2466 023e fbdb a0be 9c68 873c
000001c0: 786b 993e daf9 13be 05f6 203d c1bb 41bd
000001d0: cd41 e6bd 581c cabe 2ae0 4abe 1234 4cbe
000001e0: a3f0 c13d 8304 1bbe e5c6 2ebf e603 963c
000001f0: c755 193f 162b 253e fb55 c73c 17ad 9e3d
00000200: 813a 46be 2e8a 653e b0ee 21bd 3c42 e6bd
00000210: cf6a ffbd 4add 51bd 8db5 ebbe 13d0 09bf
00000220: b7a4 86bc 327b 6cbd 0802 0fbd 669d c5bc
00000230: f1da 193e b233 53bd 0f48 d13c cf5e 53bd
00000240: b26f 74bc 01ed 1abc ed5e ce3d ee43 f83d
00000250: fb0e c73d d3fe 11be 2320 15be b016 82bd
00000260: f430 a0bd c0da 93bc 6f44 b33e dd0f d33b
00000270: 0104 053d 8310 083d 3272 e73d c0c4 2f3e
00000280: f7e1 cd3b 08d1 bdbd 026a 9b3d 7c54 18be
00000290: a1b3 b7bb 24a7 29bd fb81 07be f141 b5bc
000002a0: d9f8 033e 64aa 853d c3e2 823d 420f c8bd
000002b0: e5b0 a53c b01d 353e 18fd 6b3d 30b7 573e
000002c0: 95cb ad3d 6d2e a0bd 5cf1 fcbd 5d76 5a3e
000002d0: 5800 413d dedc dcbe 6705 9f3d edc2 013e
000002e0: 0eab aa3c e85e 8b3e dca7 143d 79bb 4bbe
000002f0: ae17 013e 5e43 fd3c d7ac 39be 26a9 b9bd
00000300: f682 c3be dbd7 573d a6bd 623e af44 6ebe
00000310: 26de 89be c464 ae3e 6ee1 7a3c 2118 00bf
00000320: 4661 3bbe 141f a73d 4baf a3bc 879a 74be
00000330: 6cd7 0f3c 04b2 46ba 5176 d9be 66f3 f9be
00000340: bfda 1e3f 6430 39be 7598 cb3d f0d4 28be
00000350: b16e b3bd 824a 81be 370c 47be 1900 33bc
00000360: 1fbd 08bf 497f 5abc 7e7b d53e 67ad 28be
00000370: 5669 963e 6bbd 7dbe ca33 c63d 735b 883e
00000380: af61 813e 6653 aebd 0524 f8bd 396e c73b
00000390: ff66 09be ce76 58be 6bf8 ee3d 00f8 79be
000003a0: 7ae8 9dbe bdf6 13bf 6a75 c73e 5534 ef3e
000003b0: b53c 0d3e 6b37 e83d 89ec a53e cc0f 8cbe
000003c0: 8be1 a0be 6c07 4fbe 0535 0abd ed0c 833f
000003d0: 4dcf f53d 3845 acbe 5ff5 31bd 8934 4abe
000003e0: d7f7 a6be 0546 a0be 705d ae3d 6543 41be
000003f0: b9bf 48bd 4db5 483f 11d1 78bc fe74 423d
-0.6430956 0.40489945 1.0235264 0.7183792 -1.0497104 -0.036121335 -0.40472975 -0.003004409
-0.029240236 0.22221178 -0.24917321 -0.48408836 0.31171086 -0.11929485 0.22551665 -0.7574756
-0.5095491 0.3571903 -0.1547231 0.08989198 0.56061083 -0.017096583 -0.10289128 0.029074475
0.32830685 1.2492917 0.50547737 0.5597291 0.904305 -0.4511072 0.48114428 0.24284306
0.54707086 0.07040101 0.22611167 -0.39974195 0.52468795 0.19872044 0.23122346 0.17232123
-0.21099173 0.43341887 -0.18971954 0.67018217 -0.027028697 -0.13223723 0.56992555 -0.10608242
-0.2926433 0.4428703 0.11907593 0.19682017 -0.88007927 -0.5265138 0.4460677 -0.37902316
0.25687784 0.5059906 -0.7588451 -1.0806216 -0.61618876 1.0969468 -0.015821027 -0.114559375
0.16154863 -0.139728 0.5369839 0.3891504 -0.018876214 -0.30010375 0.05777604 -0.15309544
-0.25427502 -0.28402323 0.19464402 -0.3381879 0.22467165 0.0042311596 0.4282493 -0.14489153
0.13839915 0.19250631 0.03654696 0.042676877 -0.21572098 0.51175123 -0.23147124 0.18793373
0.13857892 0.6123294 -0.049908236 -0.29140598 0.6160917 -0.17946662 0.18699026 -0.038845666
-0.19503556 0.089108475 0.04419273 -0.040242076 -0.08362066 -0.07670541 -0.004036827 0.4293585
0.09125517 0.4511176 0.014190215 0.15984857 0.01450377 0.12734276 -0.31417832 0.016529374
0.29964805 -0.1445078 0.039297123 -0.047298197 -0.11243019 -0.3947475 -0.19812074 -0.19941738
0.09469726 -0.1513844 -0.6827224 0.018312406 0.5989651 0.16129717 0.02433299 0.07747858
-0.19358255 0.22415993 -0.03953427 -0.11243102 -0.12471544 -0.05123643 -0.4603695 -0.5383312
-0.016435964 -0.057734676 -0.034914047 -0.024122905 0.15024926 -0.051562972 0.025547056 -0.05160409
-0.014919208 -0.00945592 0.100766994 0.121223316 0.09719654 -0.14257364 -0.1456304 -0.063519835
-0.07821837 -0.018048644 0.35013148 0.0064411 0.03247452 0.03321887 0.11301078 0.17164898
0.0062830406 -0.09268385 0.07588579 -0.14875978 -0.00560613 -0.041419163 -0.13233177 -0.02212617
0.12887897 0.0652664 0.063909076 -0.09768535 0.020225951 0.17687106 0.057614416 0.21065974
0.08486096 -0.07821355 -0.12350723 0.21334215 0.04711947 -0.43137258 0.07764702 0.12672015
0.020833518 0.27220845 0.036292896 -0.19895734 0.1260669 0.030915912 -0.1813234 -0.09065466
-0.38185853 0.05269609 0.22142658 -0.23268388 -0.26927298 0.34061253 0.015312536 -0.5003682
-0.18298826 0.081602246 -0.019981047 -0.23887073 0.008779388 -0.0007579627 -0.4247308 -0.4881851
0.6205253 -0.18084866 0.09941188 -0.16487479 -0.08761347 -0.25252157 -0.19438253 -0.010925316
-0.53413576 -0.013336011 0.4169578 -0.16472398 0.2937724 -0.24779288 0.09677847 0.2663227
0.2526984 -0.08512001 -0.12116245 0.0060861376 -0.13418196 -0.2113907 0.11668476 -0.2441101
-0.30841428 -0.5779837 0.38956767 0.46719614 0.13792689 0.11338695 0.32407025 -0.27355802
-0.31422076 -0.20217675 -0.03374197 1.023832 0.1200243 -0.3364656 -0.043446895 -0.19746603
-0.32610962 -0.3130342 0.085139155 -0.18873365 -0.049010966 0.78401643 -0.015186564 0.047474854

enc.fe.u1_FC4.bias f4 [32]
00000000: d75a aabf c0be a9be e399 ce3f eba6 df3f
00000010: 88e3 9dbe 05af c3bf f5a3 6fbf ec4e 823e
00000020: 5609 aa3b bfdd 4abe 4204 34bf fbc2 333f
00000030: 4190 36be 182d 16be 35b6 85bf 49a4 0e3e
00000040: 6e97 c33f 5519 a93e ae97 fe3d 5e10 c0bd
00000050: 2e03 bc3d 8810 b3bd 1205 3bbf f599 62be
00000060: 072d fb3f c3be 0bbe 7c4f 893e 2907 c73e
00000070: 70c0 b1be 2569 813e 1d0e 4bbe 0b88 8abe
-1.3308972 -0.33153343 1.6140712 1.7472814 -0.30837655 -1.5287787 -0.93609554 0.25450838
0.005189101 -0.19811152 -0.70318997 0.7021939 -0.17828466 -0.1466564 -1.044623 0.13929857
1.5280588 0.3302714 0.12431274 -0.09378122 0.09180294 -0.087433875 -0.7305461 -0.22129042
1.9623116 -0.13646989 0.26818454 0.3887265 -0.3471713 0.2527553 -0.19829603 -0.27056918

enc.norm.weight f4 [32]
00000000: 00f9 be36 f9bc 0d3e 30f7 1139 aa71 98b7
00000010: a726 7f3e ebf2 feb7 d468 d03e e311 263f
00000020: 9cc7 213f 97b0 ea36 756d 4338 5f32 c03d
00000030: 0853 18b6 e3bf 883f e627 e7b7 caf6 3e3e
00000040: cd94 ef3e 7dd5 9d3c 4bac 143f b876 943f
00000050: 7632 b33f 470b d03e bfbf 5abd 91ae 9fb7
00000060: 66be 42bd f056 273f 992d 153f e83d 3d3f
00000070: a94b 823d babb 873d b6f6 583e ffdf 2e37
5.6914287e-06 0.13841619 0.00013920362 -1.8172741e-05 0.24917088 -3.0392277e-05 0.40704978 0.6487104
0.63195205 6.994301e-06 4.6593563e-05 0.093846075 -2.2698096e-06 1.0683559 -2.7555925e-05 0.1864883
0.46793213 0.019266838 0.580754 1.159873 1.3999774 0.40633604 -0.05340552 -1.9035566e-05
-0.04754486 0.6536703 0.582727 0.73922586 0.06362087 0.06627603 0.21187863 1.0423361e-05

enc.norm.bias f4 [32]
00000000: b4c5 273e 9985 3cbd 3662 5a3d fa11 a53c
00000010: e118 2fbe 0cd5 153e bce4 19bd f57f a3bc
00000020: c0b2 02be 5c45 a63c 741b ee3d 499d e5bc
00000030: df09 523d 1e1a 503d e596 043e 85b0 a43d
00000040: c2d8 f63d 4fb9 1fbe aefe b7bd 253a 313e
00000050: c0ef 22bd d410 e6bd 787c 623e beb5 cd3d
00000060: 3b20 0abe c6bf 2d3e 9613 8dbd e158 cf3d
00000070: 0811 003e f244 cabd bf23 aa3c f464 f3bd
0.16384012 -0.046025846 0.053316317 0.020150173 -0.17099334 0.14632052 -0.037571654 -0.019958476
-0.127635 0.020296745 0.1162633 -0.028029101 0.051278945 0.050806157 0.12948187 0.08041481
0.12053062 -0.15598033 -0.08984123 0.17307337 -0.039779425 -0.112336785 0.22117794 0.1004443
-0.13488857 0.16967687 -0.06888501 0.10124374 0.12506497 -0.098764315 0.020768998 -0.1188449

enc.enc_out1.weight f4 [8, 32]
00000000: fb7a e8bc daf2 44bb a26f 0cbd 6bd2 0c3c
00000010: fa65 a13c a44c 0bbd d07c 923d 6ced 603c
00000020: 3d7b afbd 9d95 ad3c 5ab3 ca3d a125 1cbd
00000030: da81 9a3a 1659 33be c2a9 f8bb 422b 6fbe
00000040: 3c0e a4bc 7a17 b23d 6885 e6bc 0c64 8cbe
00000050: c800 183f 0a32 80bd 808c fabd c65f ae3d
00000060: 30da af3d b5fb 7f3d 5fa3 13bd 2d42 c1bd
00000070: 7be5 06bb 0c14 9fbc 3606 cbbc fca3 b03d
00000080: 71c6 ccbd ab20 28bd 37fe 633c 9863 b33d
00000090: 7339 f63d 042e 2ebd 1c70 aabc c171 ff3c
000000a0: 07ee d23d 8d02 40bd 993b 053d 85b6 fbbd
000000b0: 4f9c 73bd c704 b0be ecbc 063c 347c 5fbe
000000c0: 2587 b9bd ccbf 6abb 485e 163e 5025 d7be
000000d0: 9624 3e3f 761e 41bd 5f3e 27be b9b5 1f3d
000000e0: 3b58 13bc 26a3 b13d 401c d6bd dd03 58bd
000000f0: f73e 8abd bbf5 13bd 0d48 e5bc 9aa3 c83c
00000100: 1d5e 853d b746 78bd c135 20bd 54bd 9abd
00000110: c10f 99bc 6e5e 7cbd 031d 453c 1002 483b
00000120: 8b1f ccbd 328e fabc 43f5 513c 74df af3c
00000130: 995b 72bd 1210 8bbe 0ca3 9abc 6fd3 e1bd
00000140: ca21 15bd ac5c e6bc 6146 6ebb 2616 e2be
00000150: 3aeb 4b3f f204 28bd 0803 c03c e132 82bd
00000160: a421 d9ba 1078 c8bd 3731 d43b 70ba 50be
00000170: 032a 0bbe 554d ad3d d16d 02be ca89 78bd
00000180: ed6d 69bd fb4e 973d 607c 443d f2d0 e93d
00000190: f714 58bd a181 98bd 1c24 c03c 8389 4cbd
000001a0: 9f47 643d 11d4 eebd baa7 39bd 8368 b03c
000001b0: c8e6 1d3d 29ed cc3e 17b7 d83d 402f f93d
000001c0: 87eb 363d 0c47 cfbd 6ecd 783c ccf3 dc3e
000001d0: 6696 41bf 2943 32bd b393 f03d 2d92 8abd
000001e0: cc01 fdbd 4ba4 abbd 729c 49bd 46fd 773e
000001f0: 4488 afbc 100b 08bc eaa9 0d3e a7b9 9c3d
00000200: 89c0 3c3d 5eb8 66bd 094b 71bd b8bd 543d
00000210: 991b 863c 4147 80bd 704f d9bc 1705 07bd
00000220: 6b80 c13c 4594 c2bd 5dd7 89bc fe88 9b3b
00000230: 55d8 1dbe 21cb db3e 2464 23bd ab77 963d
00000240: 4e70 e13d 4fc4 503d 73e4 1cbb 92fc 103f
00000250: de53 42bf e994 99bd 3665 50bd d8a7 9fbb
00000260: a136 cabd 04e7 e43d d8a8 11bc 6a30 be3d
00000270: 9947 f03d 8dd7 c2bd 4932 d43d e93d 4c3d
00000280: 6dd3 69bd 97ca 94bd 8b10 74bd 0398 e4bd
00000290: 55cd e1bd 8dd8 22bc e591 1fbe b40a b3bc
000002a0: 7f82 9dbd aa81 cd3d f1ae 0e3e 43f8 8c3d
000002b0: 0e26 6cbc beb1 e33e 5542 70bd a8e7 ba3c
000002c0: c059 6f3d ce1a 27bd ff14 843b 3aa7 0c3f
000002d0: b6f5 3dbf f419 adbb 95dd 813d 2868 d33d
000002e0: 39c6 28bc ccc0 0d3e 18a8 fdbb a1d0 cc3d
000002f0: 5573 7b3d c1fd 2e3d 4c04 7fbd 428c cabd
00000300: d822 ca3c 49f8 e1bb af94 603d de32 fbbd
00000310: acbe ae3b 6c08 18bd a40d 8cbd e495 d53d
00000320: f068 bc3d 0bdb d63d da8a 463e 9132 91bd
00000330: 16bf 87bc b2ed 933d dcf3 3cbc 90bb 213e
00000340: 375a f03c 711d 423d d009 8f3d ab57 a53d
00000350: 8fe8 e4bd edd6 b63d 9b70 35be 6679 b639
00000360: 1624 1abd c46a cbbc 255f e53c 8952 6fbd
00000370: 6e28 943d ff7e e3bd 4b4b c7bd 7847 853b
00000380: 0385 6e3d 66c2 273d e1d7 b33d 0f33 a7bc
00000390: ff49 383c c63f 813d fdfb 0bbe 01d0 cabd
000003a0: 8f1d 693d dbb2 6d3c 704d babd c2ab b0bc
000003b0: 5687 5e3b 04b9 b93e ad6e aabd ff1b 2c3d
000003c0: 0060 25bc e303 e2bd 39a4 cbbd 89ea 003f
000003d0: 37ad 27bf f8d9 f23d ab50 e43d f163 f2bd
000003e0: 5c24 b3bd 2727 813d 2cca 033e 956b 303e
000003f0: 85dc 4fbd ac75 c0bd 35c6 70bd 3841 a1bd
-0.028378954 -0.0030051977 -0.03428615 0.008595089 0.019701947 -0.034008637 0.07152712 0.013728481
-0.08568428 0.021189505 0.0989749 -0.038121823 0.0011787966 -0.17514452 -0.007588596 -0.23356345
-0.020026319 0.08695884 -0.028139785 -0.2742008 0.5937619 -0.06259544 -0.122338295 0.08514361
0.08586538 0.062495906 -0.036044475 -0.0943645 -0.0020583558 -0.019418739 -0.024783235 0.086250275
-0.09998787 -0.04104678 0.01391559 0.087592304 0.12022676 -0.042524353 -0.020805411 0.031182172
0.10299306 -0.046877433 0.03252754 -0.12290672 -0.05947524 -0.34378645 0.008223753 -0.21824723
-0.0905898 -0.0035819886 0.14684403 -0.42020655 0.74274576 -0.04714819 -0.16332386 0.038991664
-0.008993204 0.08673696 -0.10454607 -0.05273806 -0.06750291 -0.03612302 -0.027988458 0.024492074
0.06512091 -0.060614314 -0.039113764 -0.07555643 -0.01868427 -0.061613493 0.012030843 0.0030518807
-0.09966954 -0.030585382 0.012814823 0.021468855 -0.059169386 -0.27160698 -0.018876575 -0.11026656
-0.036409177 -0.028120361 -0.0036357867 -0.44157523 0.796558 -0.04102034 0.023438945 -0.06357361
-0.0016565812 -0.09788525 0.0064755934 -0.2038362 -0.13590245 0.084620155 -0.12737204 -0.06067828
-0.0569896 0.07388111 0.047970176 0.11416806 -0.05275437 -0.074466 0.023454718 -0.04993583
0.055732366 -0.11661542 -0.045325972 0.02153421 0.03855017 0.4002469 0.105817966 0.12167215
0.04465821 -0.10120973 0.015185697 0.43154752 -0.75620115 -0.04352108 0.117469214 -0.06766162
-0.12353858 -0.08380946 -0.049221464 0.2421771 -0.021427281 -0.008303419 0.13834348 0.07652598
0.046082053 -0.05632817 -0.05890945 0.051938742 0.016370581 -0.062635906 -0.026527137 -0.03296384
0.023620805 -0.095009364 -0.016826326 0.0047465554 -0.15414555 0.42928413 -0.039890423 0.073470436
0.110077485 0.050968464 -0.0023939877 0.5663539 -0.7590922 -0.074991055 -0.050877772 -0.0048723035
-0.09873701 0.11176875 -0.008890353 0.09286578 0.11732406 -0.09513769 0.10361154 0.04986373
-0.057086397 -0.072652034 -0.05958609 -0.111618064 -0.11025492 -0.009939325 -0.15582998 -0.02185569
-0.07690906 0.10034497 0.13933922 0.0688329 -0.01441337 0.44471544 -0.05865701 0.02281554
0.0584352 -0.040797047 0.0040308232 0.5494267 -0.7420305 -0.005282635 0.063410915 0.103226006
-0.010301166 0.13843077 -0.0077409856 0.1000073 0.061389286 0.042722467 -0.062259957 -0.09890033
0.024674818 -0.006896053 0.054829296 -0.122655615 0.0053327885 -0.037117407 -0.06838539 0.1042898
0.09199703 0.10490998 0.19388905 -0.07089723 -0.016570609 0.07223071 -0.01153275 0.15794206
0.029339893 0.04739136 0.069842935 0.08073362 -0.111771695 0.089277126 -0.17718737 0.00034804194
-0.03763207 -0.024831183 0.02799947 -0.05842832 0.07234274 -0.11108207 -0.09731158 0.0040673576
0.05823232 0.040956877 0.0878141 -0.020410089 0.011248111 0.06310992 -0.13670345 -0.09902955
0.056912955 0.0145079745 -0.09096801 -0.021566276 0.0033955178 0.36273968 -0.08321891 0.042018887
-0.010093689 -0.110358976 -0.09943432 0.5035787 -0.6549868 0.118579805 0.11148199 -0.118354686
-0.087471694 0.06306296 0.12870091 0.1722854 -0.050747413 -0.09397444 -0.058782775 -0.078737676

enc.enc_out1.bias f4 [8]
00000000: cede 4dbd 20b7 82be da8d 29bd 6706 8c3d
00000010: e17d a63d 4ecf 05bd c2de 093e 1c3a 323e
-0.05026131 -0.25530338 -0.041395046 0.06837159 0.08129478 -0.032668404 0.13463882 0.1740498

enc.enc_out2.weight f4 [1, 8]
00000000: 4459 0bbe 5747 86be 57f4 8bbe 75a0 603e
00000010: bdcb 6c3e 7a98 773e ef08 453d 146b 203d
-0.13608271 -0.26226303 -0.27334854 0.2193621 0.23124595 0.24179259 0.048104223 0.039164618

dec1.fe.FC1.weight f4 [64, 8]
00000000: 5e0e 19bf e513 b3be ddd8 73be e8ee 6ebe
00000010: 8ff8 0a3e 7f68 e4bd f968 dd3d b495 aabd
00000020: 8dfa f53e 3afc 9f3e ea5f 643e a54d 7d3e
00000030: bf0d 1cbe 87e5 133e c968 02be c013 ed3d
00000040: 753b aabb cd20 793c df90 8a3b a208 fdbb
00000050: c079 85bc 91c5 013c 41fe 48bb 7109 223e
00000060: b024 0ebf 5de2 b1be 206d 76be 581c 88be
00000070: c5d5 243e 5487 01be fc92 103e 11f8 d6bd
00000080: af48 5b3e 50b9 d3bc fec0 c6bd b737 08be
00000090: 3954 cb3d cfbf c9bd 0cad b43d f2d8 8ebd
000000a0: 7b43 f3be c792 8fbe c118 68be e2bc 83be
000000b0: 60a7 2d3e 5eb4 16be b6fc 083e 646d adbd
000000c0: bc9e 003e 4b33 c33d 9781 bc3d a1a0 033e
000000d0: 6174 8fbd 1baf 683d 5d1f 663a c008 2cbc
000000e0: e442 26bd b364 f9bc e478 06bd 00f2 0dbd
000000f0: c0f6 8b3c d60c 463e 9893 0bbe 9488 d63c
00000100: 7cae a0bc 12cf 553e 188a ee3d 362c 253e
00000110: b22d e7bd d35b fb3d f89b cdbd f569 9d3d
00000120: 06f0 01bf d104 a6be 69c1 62be b6bc 7fbe
00000130: 3630 183e dc8e 11be 22e4 063e a6ad 30bc
00000140: 0fe2 213e 806a 9c3a 932c 90bd d7af d5bd
00000150: b73f 9c3d 0bf4 8cbd e241 583d 518a a8bc
00000160: f002 a3be 275e 98be 6c5e 5dbe 80e0 82be
00000170: 4b02 2c3e b18a 15be 8054 f83d 9347 a0bd
00000180: 509a d33e bc75 1d3e 6a6e b43d ebdd 163e
00000190: 7169 adbd 6688 9c3d e861 b0bd 3eee e33d
000001a0: 15ad 0fbe b222 cabd 7797 cabd 4d5b bfbd
000001b0: fe97 c4bd f4af 663d 5d3f 05bb 9f32 703c
000001c0: 96c3 f8be bd2e 66be e4d6 eebd ad65 25be
000001d0: a22e b73d e8d9 cdbd 71d0 993d 3475 28bd
000001e0: ab6f 0c3f c6e5 9f3e 0bf5 5d3e b618 7a3e
000001f0: ed81 5ebe 4a77 3c3e 96a7 c6bd 15f3 f93c
00000200: 1ad2 e4bd 09bd 8abd cf27 5fbd ff7a 96bd
00000210: a277 033d ef76 6d3d b7d7 8d3d 46ad 6b3e
00000220: c583 4bbd 003f e3bc e2fa b7bc 5d31 92bc
00000230: 3381 2d3d f306 23bd f248 79be 804e 333e
00000240: e8c2 983b bdcd 1e3d f0da a8bc cee4 483c
00000250: 9fe3 8e3d 4753 9dbd bbee 863c 8227 093d
00000260: 5fbb ecbe dfa5 9fbe a4ed 56be d224 73be
00000270: e036 203e 2a08 0bbe 653b d03d bc07 e0bd
00000280: c591 c3be 6304 78be e3c7 31be c5e8 42be
00000290: 2f89 f23d 5c4b d7bd 1a90 9a3d b0df 78bd
000002a0: 023a e3bd 9968 c3bd fc5b 0dbd 0140 71bd
000002b0: 41a8 8f3d 8e62 93bd b13d 3d3d f69e 6abd
000002c0: 9bf1 f63e 459a 9f3e 3694 703e 363b 8a3e
000002d0: 7298 29be 8598 0e3e b6c6 d6bd 0f3a 783d
000002e0: 2786 c3be 3660 40be 22c9 17be f0e9 f8bd
000002f0: db44 fe3c 5d9d d0bc ee47 1d3d 64b6 8dbc
00000300: 32df 06bd 332f e13d 7855 17be 91ad d13b
00000310: fbf5 46bb ff80 02bd 91dd f0bb 312c 02bd
00000320: 3a4d 9fbc 2b16 89bb 0e71 e7bc 95ec cf3b
00000330: e1c8 d9bb cce6 8bbd e319 98bd 878e 86be
00000340: b048 ebbe 4e12 8bbe b043 3ebe eb6e 54be
00000350: 7428 043e e211 f0bd 6833 bd3d 7da2 9abd
00000360: 3b28 793d fb2b a03d 2521 393d 627c e4bd
00000370: ef9d b13d 570c 02bc 6d81 3e3d 5b2b dfbc
00000380: 0e0b 18bf eafb b3be 1eec 7abe c5f3 86be
00000390: 8fd3 2f3e ea6f 2abe 41e1 e23d d9b6 0bbe
000003a0: f38d ce3e 73e3 863e c5ec 433e a78d 643e
000003b0: 7ccd 03be 19ef ea3d 236c d3bd 7293 053e
000003c0: be54 ecbd a002 d2bc 6998 4e3d c358 4e3e
000003d0: 84ea 25be 67e9 923d 70c1 9dbd 715c d73c
000003e0: 1703 a73e 516c 703e e981 383e b79e 4d3e
000003f0: 202f 02be cc61 ef3d 4b1e afbd f8e1 9f3d
-0.5978755 -0.34976116 -0.23813196 -0.23333323 0.1357138 -0.111527435 0.108110376 -0.08329335
0.48042718 0.3124712 0.22302213 0.2473665 -0.15239619 0.14443026 -0.12735285 0.11576033
-0.005195076 0.015205574 0.0042286958 -0.0077219764 -0.016293406 0.007920639 -0.0030669125 0.15823914
-0.5552473 -0.34743014 -0.24065065 -0.26584125 0.16097172 -0.1264928 0.1411857 -0.10496534
0.21414445 -0.0258452 -0.09704779 -0.13302504 0.099281736 -0.09851038 0.088220686 -0.06974973
-0.4751242 -0.2804167 -0.22665693 -0.25730044 0.1695838 -0.14717242 0.13377652 -0.0846813
0.12560552 0.09531268 0.09204405 0.12854244 -0.070046194 0.05680762 0.0008778477 -0.010500133
-0.040591136 -0.030443525 -0.032830134 -0.034654617 0.017085433 0.19340834 -0.13630521 0.026188172
-0.01961445 0.20879772 0.11647433 0.16130146 -0.112880126 0.122733735 -0.10039514 0.07686225
-0.5075687 -0.3242555 -0.22144093 -0.24974331 0.14862141 -0.14214653 0.13172963 -0.0107835885
0.15808891 0.0011933595 -0.07039752 -0.104339294 0.0762934 -0.06882485 0.052797206 -0.020573767
-0.3183818 -0.29759333 -0.2161805 -0.25561905 0.1679775 -0.14603688 0.12125492 -0.07826152
0.4132867 0.15376943 0.08810122 0.14733092 -0.08467377 0.076432034 -0.08612424 0.111294255
-0.1403087 -0.09869899 -0.09892171 -0.09343586 -0.09599303 0.056320146 -0.0020331957 0.0146605065
-0.4858672 -0.22478767 -0.11662081 -0.16152067 0.089444414 -0.10051328 0.0751046 -0.0411274
0.5485789 0.3122999 0.21675508 0.24423489 -0.2172925 0.1840488 -0.09699933 0.030511418
-0.11172886 -0.06774337 -0.054481324 -0.073476784 0.032096513 0.057974752 0.0692591 0.23015317
-0.049686212 -0.027740002 -0.022458497 -0.017845804 0.042359542 -0.03980155 -0.24344233 0.17510414
0.0046619065 0.038770426 -0.02061221 0.012261583 0.06977009 -0.076818995 0.016471257 0.033484943
-0.46236703 -0.31181237 -0.2098909 -0.23744515 0.15645933 -0.13577333 0.101675786 -0.10938975
-0.3819715 -0.24220423 -0.17361407 -0.19034107 0.11842572 -0.105124205 0.075470164 -0.0607602
-0.110950485 -0.09541435 -0.03451155 -0.05889893 0.07014514 -0.07196532 0.04620141 -0.057280503
0.48231205 0.31172386 0.23494038 0.269983 -0.1656206 0.13925369 -0.1048712 0.060602244
-0.38188288 -0.18786702 -0.1482282 -0.12153995 0.031038692 -0.025465662 0.038398676 -0.017298885
-0.0329277 0.10995331 -0.14778697 0.0063988646 -0.0030359018 -0.0318613 -0.0073506315 -0.031780425
-0.019446004 -0.004183551 -0.02825215 0.0063453414 -0.006646261 -0.068311304 -0.074268125 -0.26280615
-0.45953894 -0.27162403 -0.18580508 -0.20745437 0.12906057 -0.11722161 0.092383206 -0.075505234
0.060829382 0.078208886 0.045197625 -0.11156537 0.086727016 -0.007937512 0.04651015 -0.027242353
-0.5939187 -0.35153133 -0.24504134 -0.26357856 0.17170547 -0.16644254 0.1107812 -0.1364397
0.40342674 0.26345405 0.19133289 0.22319661 -0.12871355 0.114713855 -0.1032336 0.13044527
-0.11539601 -0.025636017 0.05043832 0.20151047 -0.16202742 0.07173424 -0.07702911 0.026289197
0.32619545 0.2347882 0.18018307 0.20080076 -0.1271329 0.11688575 -0.085507 0.07806772

dec1.fe.FC1.bias f4 [64]
00000000: 96a8 4abe dbdc 7ebe 5f28 9fbe 1f7a a0be
00000010: ccd6 c6bd a999 77be cb92 053f a759 08bf
00000020: dfda c9bd c143 5bbe 0562 463e aa72 85bd
00000030: e68e 5a3d 9bd9 f93e f761 173e 9366 8abd
00000040: 2968 13bf 1dd2 a1be 9ca0 e43e 7d96 cdbe
00000050: e9d6 0cbf 9024 073f d164 9dbe 6cd2 383e
00000060: 9fac b9bd 0c81 34bf 425f 2fbd f6bf a5be
00000070: 112e a1be 29da c7be 3c89 e2be e661 d1be
00000080: 0bcd 293d 387a 9cbe f514 1abe c400 66be
00000090: 3120 64be eb56 96be bcaa 02bf ab08 a13e
000000a0: 877e eebe 2e92 10bf 4744 8fbc 176c 02bf
000000b0: c606 72be 66f2 a5be 1f02 19bd 1946 c23e
000000c0: 6385 abbe e4cb f93d 7b71 9f3d 37dc fd3e
000000d0: 1061 a0be cbf2 a6be a6b5 efbe a6e5 ddbe
000000e0: 910f 923d a79b 2ebf fe3c 143f ce67 1abf
000000f0: 4aa8 9fbe 78a9 85be a625 35bf 1afb 7abe
-0.19790873 -0.24888937 -0.31085488 -0.3134317 -0.09708938 -0.2417971 0.52177113 -0.532618
-0.098561995 -0.21412565 0.19373329 -0.06516011 0.053358935 0.48798832 0.14783464 -0.06757846
-0.5758081 -0.31605616 0.44653785 -0.40153876 -0.55015427 0.52790165 -0.3074098 0.1804902
-0.09066128 -0.7050941 -0.042815454 -0.32373017 -0.31480458 -0.3903363 -0.44245327 -0.40895003
0.04145531 -0.30561996 -0.15047057 -0.2246123 -0.22277905 -0.29363188 -0.5104177 0.31451926
-0.46580908 -0.5647305 -0.017488612 -0.5094618 -0.23635396 -0.32411498 -0.03735554 0.37944105
-0.33500203 0.12197092 0.077853166 0.49582073 -0.31324053 -0.3260711 -0.46818274 -0.4333927
0.07131875 -0.68206257 0.57905567 -0.60314643 -0.31183082 -0.26105857 -0.7076057 -0.2450985
