Lightcode/bc/rate39/light_bc_rate39_snr2.pt (torch, 175856 bytes, 38 tensors)

enc.fe.u1_FC1.weight f4 [64, 24]
000000 a6 2a 2b 3e 1e db 3c bf a1 aa 3c 3d 5f ad 4d bd
       0.16715488 -0.73771846 0.046061162 -0.050214168
000010 19 f6 9e bc ee bc 7f bc 34 7c 85 bd 40 de 9b bd
       -0.019404458 -0.015609009 -0.065178305 -0.0761075
000020 94 4a ce bd 5d c7 83 bb 22 34 aa bd 21 8f d4 bc
       -0.100728184 -0.0040215687 -0.08310725 -0.025947155
000030 84 95 89 bc f3 39 00 3c d1 8d 3f bb 81 7c d9 ba
       -0.016794927 0.007826316 -0.0029228816 -0.0016592891
000040 c9 22 03 ba 2b c5 13 3f 1b 94 e3 3d 78 ea 05 3e
       -0.0005002437 0.5772273 0.11112233 0.13077724
000050 1d 1d 9a be e9 b7 32 be 1c b1 b3 bd c4 99 a0 3c
       -0.30100337 -0.17452969 -0.08774015 0.019604571
000060 ef 7f c7 bd ff f8 da bc d6 14 2a 3b 45 6f cb 3c
       -0.09741198 -0.026730059 0.002595236 0.02483333
000070 0c b4 26 3c 14 ef 77 bb 7f cb c0 bf 82 db 93 3c
       0.010174762 -0.003783171 -1.5062102 0.018049005
000080 5f 99 72 3d ab 28 47 3a c5 a1 1f 3d 7f ee 2d 3c
       0.059228297 0.00075973076 0.038972635 0.010615944
000090 42 14 59 3b bc 05 b4 bb f5 c9 02 c0 69 35 11 bd
       0.0033123647 -0.0054938477 -2.0435765 -0.035451327
0000a0 9d ad 3b 3b c3 f8 8e 3c 51 b3 eb 3b 08 e6 aa 3b
       0.0028637417 0.017452603 0.007193007 0.00521541
0000b0 d1 5f 07 bc a8 2f 2b bb c7 a7 da bf bb e9 60 bd
       -0.0082625905 -0.0026120935 -1.7082452 -0.054910403
0000c0 c9 c9 35 3f 2a 08 95 bd 8c 1d 0e 3e c9 8f 50 3d
       0.71011025 -0.07276948 0.13878459 0.050918374
0000d0 81 2b 10 3d f5 d1 97 3d c7 44 a4 bc 95 8a c2 3f
       0.03519774 0.07413093 -0.020052327 1.5198542
0000e0 c0 a5 f3 be 4b 85 87 3a f5 bb bd be da ad 83 be
       -0.47587395 0.0010339407 -0.37057462 -0.25718576
0000f0 00 b6 52 be 55 46 d8 3d cb 18 87 bd 01 10 8a bf
       -0.2057724 0.1056029 -0.06596526 -1.0786134
000100 a6 81 9e b9 e3 9f 38 3d 3c f1 1f 3b c2 da fd 3a
       -0.00030232704 0.045074355 0.0024405262 0.0019367563
000110 8f c9 0c bb f2 90 19 bd 02 95 98 bc 16 fd 89 be
       -0.0021482443 -0.037491746 -0.01862574 -0.26950902
000120 76 63 8b 3e f5 1a 63 bb 62 d0 93 bb 2d ed a3 bc
       0.2722432 -0.0034653519 -0.004510925 -0.020010555
000130 fa a0 b0 bd 69 27 1e 40 1a fd b5 bd 3e 74 01 3f
       -0.08624454 2.4711554 -0.08886166 0.50567997
000140 d9 81 2c be 79 9b cd b9 85 6a cd bd 26 7a 51 bd
       -0.16846408 -0.00039216483 -0.100300826 -0.05114188
000150 c1 3a b4 3b de 14 86 bf 36 14 01 3f db 6e 3e bf
       0.005500168 -1.0475118 0.50421464 -0.743879
000160 fd 16 9e 3a a4 0e ab 3a 65 52 90 bb d4 cb ca bb
       0.0012061294 0.0013050628 -0.0044043534 -0.006188849
000170 d9 a5 8b 3c d0 c2 3b bf f8 ad aa be 17 d9 2c bf
       0.017046856 -0.73344135 -0.33335853 -0.6751875
000180 ff 55 70 be d8 49 46 3c f8 fd 17 3b d6 c4 e1 3c
       -0.23470305 0.012102567 0.0023192149 0.027559679
000190 65 92 80 3d 30 53 f6 bf 60 48 29 3e 4d 06 88 be
       0.062779225 -1.9244137 0.16531515 -0.26567307
0001a0 10 45 0f 3e 3f 86 27 bb 42 41 c3 3d 16 62 3a 3d
       0.13991189 -0.0025562195 0.09533931 0.0455037
0001b0 84 c2 81 ba 0d 8a 04 3e b8 b2 b1 3d 77 31 26 3e
       -0.0009899889 0.12943287 0.08676666 0.16229807
0001c0 83 2b 63 ba 0c 15 0f 3b 0f be 21 bb e1 b1 fe ba
       -0.00086658465 0.0021832613 -0.0024679934 -0.0019431674
0001d0 75 77 1a 3b 9f 75 10 40 01 4b fd 3d 69 19 5a 3c
       0.0023569737 2.257179 0.123678215 0.013311722
0001e0 51 fd 69 bd d5 a5 07 bf 00 a1 2a bb 8d 75 d3 3c
       -0.057126347 -0.52987415 -0.0026035905 0.025812889
0001f0 8f 9c 85 bd 39 73 a4 bd e8 ed 25 bd c4 65 d6 bc
       -0.06524002 -0.080297895 -0.04051009 -0.026171573
000200 b0 d1 05 3d a0 63 82 3a 8c 24 b0 3c b7 be a2 ba
       0.032670677 0.0009947903 0.021501802 -0.0012416457
000210 ed fb d9 3c 47 38 c8 3b 55 57 e1 3b 35 59 45 b8
       0.026609385 0.0061102244 0.006876866 -4.705154e-05
000220 35 d6 3d 3b bc ff ca be 55 01 87 bd 98 0e a2 bd
       0.0028966789 -0.39648235 -0.06592051 -0.0791294
000230 d9 96 31 3e db 8a a5 3d 47 39 10 3d 57 1f c8 3c
       0.173427 0.08083125 0.035210874 0.024429007
000240 10 6d 39 bf fb 78 c7 3c 61 7f 2a be 6d fb 65 3d
       -0.7243204 0.02434968 -0.16650154 0.05614798
000250 5f 65 c1 bb 1d 87 8e bc 4b 3e d0 3c d7 69 f4 3e
       -0.005901977 -0.017398411 0.025420329 0.47737
000260 b4 12 ea 3e 2c 79 d1 39 18 da c2 3e 72 0b 60 3e
       0.45717394 0.00039953867 0.38057017 0.21879366
000270 29 c7 2d 3e 65 d3 d5 bd 39 52 83 3d 64 a6 21 be
       0.16970505 -0.10440711 0.06412167 -0.15786129
000280 16 ce 82 ba 75 ba 7c bc 6b f8 0f 3c 7a e0 04 3b
       -0.0009979631 -0.015425314 0.008787255 0.00202754
000290 02 64 81 bb a6 00 03 3c cb 0d 10 3b b2 ef 43 be
       -0.0039486894 0.00799576 0.0021980878 -0.19134405
0002a0 db 7f ac bc 85 37 29 3a b2 68 27 3d 99 43 01 bd
       -0.02105706 0.00064551114 0.04087133 -0.031558607
0002b0 92 f0 ad 3c 19 9e 1a bb 40 af c2 bb ab 90 8a bf
       0.021232877 -0.0023592769 -0.0059413016 -1.0825399
0002c0 9c af 22 3c e0 05 ed 39 e8 fc a2 bc 74 83 44 3a
       0.009929564 0.0004520854 -0.019895986 0.00074963947
0002d0 88 4b 04 bb 1d dc 5d 3a 38 a0 c7 39 41 e2 2d bc
       -0.0020186622 0.00084632804 0.0003807561 -0.010613025
0002e0 e3 1b d4 bb 1f d1 bb 39 dc 0d 74 bb 52 53 46 3b
       -0.006473051 0.00035823227 -0.0037239706 0.0030262065
0002f0 a2 47 59 bc 52 bc fe bb ec c5 82 ba f8 b3 2c c0
       -0.0132617075 -0.0077739144 -0.0009977198 -2.6984844
000300 3d 3c 32 3d be 6a ca 3d 99 e3 10 3c c9 62 73 3c
       0.04351448 0.09883641 0.008843326 0.014855095
000310 38 6e c5 3b 8a 23 32 3d d2 c2 ae 3c 58 f2 12 3b
       0.006025102 0.043490924 0.021333132 0.002242228
000320 11 7f d9 bc 6d a9 bc 3a 84 2d aa bc c6 53 d0 bc
       -0.026549848 0.0014393755 -0.020773657 -0.025430571
000330 47 1a b3 bc e3 7a aa 3b f9 d6 56 bc fc 7f b8 bb
       -0.021863116 0.0052026375 -0.013112777 -0.0056304913
000340 9a 0a a2 3a ac d8 c4 3e 51 b3 af 3d 60 7f dc 3d
       0.0012362779 0.38446558 0.08579124 0.10766482
000350 50 f1 72 be d9 ae 45 be c6 f9 1b be ea e3 7b bc
       -0.23724866 -0.1930498 -0.15232 -0.015374163
000360 ff 3a cd bc dc a6 c8 3d 03 83 03 3d 41 4f 40 3e
       -0.025052546 0.09797451 0.032107364 0.18780233
000370 99 3d 0e be ea 22 ac be 43 14 3d bf 66 df fc bd
       -0.13890685 -0.33620387 -0.7385904 -0.12347297
000380 63 98 53 bc 97 ab 12 3c 68 59 ac bc 7c 7e 00 be
       -0.01291475 0.008952043 -0.021038726 -0.1254825
000390 64 f6 63 bd b6 53 f9 3d 16 73 a0 3d f1 79 3a 3c
       -0.0556549 0.1217417 0.07834451 0.011381612
0003a0 75 b3 d0 3b a5 81 f8 bd a6 e3 61 bc 61 96 ca bc
       0.006369049 -0.12134103 -0.013787186 -0.02472991
0003b0 58 5a 49 3e cc 22 85 3e 0a 5e 0e 3f 81 6f be 3d
       0.1966337 0.2600311 0.5561224 0.092986114
0003c0 d4 54 78 3e e8 d8 c4 3e 0b 7a 30 be c8 56 75 be
       0.2425111 0.38446736 -0.17234056 -0.23958886
0003d0 90 cc d4 3e 77 d9 c1 3e 08 e5 d7 3e 57 e6 01 3e
       0.4156232 0.37861225 0.42166924 0.12685524
0003e0 53 d5 14 be 06 69 15 3a 91 2a bf 3b 4c e4 0a 3e
       -0.14534502 0.00056995486 0.0058339317 0.13563651
0003f0 29 c3 82 bd a3 90 a5 bd b4 bd 0d bd 0e f6 26 3d
       -0.0638488 -0.08084228 -0.034604743 0.040762

enc.fe.u1_FC1.bias f4 [64]
000000 4d 65 87 3e 45 de 3e bd 52 00 8b 3e 7d 38 90 bd
       0.26444474 -0.04659869 0.27148682 -0.07042024
000010 e0 17 82 bd 9c 04 7f bf b9 79 89 3e 99 21 57 bd
       -0.0635221 -0.9961641 0.2685068 -0.052522276
000020 2b 16 8d bf 91 c0 fc be 16 85 20 be 6c 59 8d bf
       -1.102239 -0.49365667 -0.15675768 -1.1042914
000030 f9 24 8c 3e f4 4c 5f b9 a7 55 b3 bd 4c 69 2e bf
       0.27371958 -0.00021295605 -0.08756571 -0.6812942
000040 33 88 f9 3e 04 d4 c7 3d 91 ce c2 be 74 e2 c1 bc
       0.48736724 0.09757236 -0.38048223 -0.023667552
000050 ae 2b 22 bf 72 d2 56 bd 5e 95 9a bf 56 72 dc bd
       -0.633479 -0.05244679 -1.2076833 -0.10763995
000060 81 39 50 be 2c 34 00 3f 34 e1 b4 be 0a 51 4b bf
       -0.20334436 0.5007961 -0.35328066 -0.7942053
000070 e4 79 ed 3e 07 6c ce be b9 9e e3 3e 87 3c 90 bb
       0.46382058 -0.40316793 0.44457033 -0.0044017467
000080 f4 cd 77 bf e7 27 08 bf 3e bf 42 bb 36 bb 57 bf
       -0.96798635 -0.53185886 -0.002971604 -0.84270036
000090 c0 22 e7 bb 9c 4c 67 bf 85 89 2f bd bd cc 9f 3e
       -0.007053703 -0.9035127 -0.04285576 0.3121089
0000a0 95 fe 64 bd ee d7 a1 be 74 a9 a9 bc b6 30 ca 3e
       -0.05590685 -0.31610054 -0.020710684 0.39490288
0000b0 46 46 3e bd 0e 32 69 3e 72 33 20 bf e5 5a c0 be
       -0.046453737 0.22773 -0.625785 -0.37569347
0000c0 58 7c 7a be aa b1 40 be 4d 0e 2e be 24 d9 90 be
       -0.24461496 -0.18817773 -0.16997643 -0.28290665
0000d0 38 73 b4 bc 87 bf 44 bf 3b 68 c7 bd 7c 0b 3d bd
       -0.022027597 -0.7685475 -0.09736677 -0.04615353
0000e0 32 f0 04 3f 2a 74 e4 be bf d3 8d bf b1 08 dc bc
       0.5192901 -0.44619876 -1.1080245 -0.026859613
0000f0 ae 86 a1 bd 24 97 d3 bd 20 0e 91 bc f9 d7 5d bd
       -0.07887016 -0.10331562 -0.01770693 -0.054161046

enc.fe.u1_FC2.weight f4 [64, 64]
000000 a0 be 8a bd 03 7b 05 bf dd 03 24 bf cc d9 21 c0
       -0.0677464 -0.52140826 -0.64068395 -2.5289183
000010 4f bc fe bf 43 42 8a 3d 08 23 96 3e 21 4a 1c bf
       -1.9901217 0.0675092 0.29323602 -0.6105061
000020 a2 66 c3 3d be 09 93 be 37 79 e7 bd 50 28 73 bd
       0.0954106 -0.2871837 -0.11302417 -0.059364617
000030 8a fc 75 3e 79 ef 2d 3c 68 98 a7 be 1c 27 ed bc
       0.24022117 0.010616177 -0.32733464 -0.028949313
000040 f6 96 37 3e 68 a5 03 be ab 36 be bc d6 c7 2e bb
       0.17928681 -0.12856066 -0.023219427 -0.0026669404
000050 90 bc 97 3e 9e 7b 6e 3e d0 fa ad c0 5e 5e 1b 3e
       0.2963605 0.23289344 -5.4368668 0.15172717
000060 5b f0 08 be e5 1b 97 be 0c 06 25 3e cc a1 1d bf
       -0.13372938 -0.2951347 0.16115588 -0.6157501
000070 af fb fc 3d 7f fc 1d 3e 3c 92 37 3e ca cf 3b bb
       0.12352692 0.15428351 0.17926878 -0.0028657787
000080 3a 49 d7 bc a9 b4 d7 3d 3c 84 2a bb 47 86 2c bd
       -0.026280034 0.10532505 -0.002601876 -0.042120244
000090 ac b6 fd 3e de f4 b8 bd 2f 05 28 bf f2 3e bd be
       0.4955343 -0.0903108 -0.6563291 -0.36962086
0000a0 ed fc 1c bf 3d c0 31 3e bc f0 4e c0 d5 78 ac 3e
       -0.61323434 0.1735849 -3.2334433 0.33685938
0000b0 52 f9 21 c0 8b 2f 82 3e 68 88 86 be 67 e4 45 3e
       -2.5308423 0.25426897 -0.26275945 0.1932541
0000c0 8f 9f 7b be 4b bd 02 3d f8 6b 26 bf 37 cf 14 3f
       -0.24572586 0.031918805 -0.650085 0.58128685
0000d0 91 8e 82 3d fe 6f 63 bd 67 4e 6c 3b 81 02 5a bf
       0.06374849 -0.055526726 0.0036057474 -0.8516007
0000e0 c0 be 1e 3e 8c 85 a0 bd 12 ed 92 be bd 61 fc 3b
       0.15502453 -0.07837972 -0.28696495 0.007702081
0000f0 4b 13 b2 be 44 01 63 3e 6e 38 28 3c ae 80 84 c0
       -0.34780344 0.22168452 0.01026736 -4.140708
000100 a4 4e 80 3e b6 00 36 bf 57 f2 9d be d3 1f da bf
       0.25059998 -0.71094835 -0.30848953 -1.7040962
000110 83 7b 18 c0 1a 92 61 be b4 4b 8c be 21 b9 76 bf
       -2.3825386 -0.2202839 -0.27401507 -0.96376234
000120 ea 43 dc 3e 73 c9 b8 3d b8 37 09 bf dc a6 95 be
       0.43020564 0.090227984 -0.53600645 -0.29228866
000130 8f 9f 50 bd 37 fc 89 3c 46 1a 21 bf 97 07 99 be
       -0.050933417 0.016843898 -0.62930715 -0.29888603
000140 76 d5 7e 3d e6 03 0b 3f 86 a3 2b be ba 90 87 bd
       0.06221529 0.54302824 -0.16761598 -0.06619401
000150 7b 7f 7a bd 79 3a 88 be c6 f1 b7 bf e2 9b be bd
       -0.06115673 -0.2660711 -1.4370658 -0.09307076
000160 f3 92 30 be f2 b5 52 be 13 7c a7 bf 20 31 c0 be
       -0.17243557 -0.20577219 -1.308474 -0.3753748
000170 ae b9 d1 be 31 0f 5c 3e 71 cc 78 be 1d 5b 52 bc
       -0.40961975 0.2149017 -0.24296738 -0.012839106
000180 b2 f4 06 bf b9 9d aa be 92 40 94 3c cf ee 06 bf
       -0.52717125 -0.33323458 0.018097196 -0.52708143
000190 34 fb 9a 3e a4 9e a8 3e f8 43 30 bf 7c 89 ac 3e
       0.30269778 0.32933533 -0.6885371 0.33698642
0001a0 cd be 4f bf 45 e4 2d bf 7d f1 d5 bf 6a a0 d8 be
       -0.81150514 -0.67926437 -1.6714321 -0.42309886
0001b0 67 7d 95 bf 0a 93 15 3c d5 71 61 3e 11 10 6c 3d
       -1.1678895 0.009129295 0.2201608 0.05763251
0001c0 4d ee aa bd 92 83 7c bf ff f5 05 bf 54 0c 52 3e
       -0.083462335 -0.9863826 -0.52328485 0.20512515
0001d0 a9 07 55 3e bc be 61 bc be d7 d4 3d 71 b7 17 bf
       0.20803703 -0.013778385 0.10392712 -0.59264284
0001e0 f6 8a 91 3e 1a 6b f4 bd 7a e5 0e bf 90 51 20 3d
       0.2842633 -0.119344905 -0.55818903 0.039140284
0001f0 2c 0a 7a bf 82 f4 8e bf b4 4f 7d bc 21 1e 02 c0
       -0.9767177 -1.1168368 -0.015460897 -2.033089
000200 d1 f6 af be b6 49 0e bd 36 ab 2c bd 93 c2 c2 bd
       -0.34367993 -0.034738265 -0.042155467 -0.09509768
000210 11 0e 98 bc 91 30 26 3d 97 d3 fb bd bb 2c 16 be
       -0.018561395 0.04057366 -0.12296217 -0.14665501
000220 57 e9 f8 3d e1 eb 2c bd 53 35 20 be 60 07 e6 bd
       0.12153881 -0.04221714 -0.15645342 -0.112318754
000230 92 51 b1 bc d5 6e 14 be 08 56 82 bd 1e 19 22 bd
       -0.021645341 -0.14495404 -0.063640654 -0.039574735
000240 a2 91 59 bd f2 97 93 bd 41 d0 66 bd c1 21 51 3d
       -0.053117402 -0.07206716 -0.05635095 0.05105758
000250 2c 8e c4 be d8 19 14 be b5 ba ee ba 32 ab 0d be
       -0.3838972 -0.14462984 -0.0018213602 -0.13834837
000260 f4 2b 00 3e 60 27 0d be bf a4 1e be 16 64 6b bd
       0.12516767 -0.13784552 -0.15492533 -0.057468496
000270 5a 3d f1 be e8 cf 8c bd 5d 8a f6 3d 30 09 89 bd
       -0.4711712 -0.068755925 0.120381095 -0.066912055
000280 a5 fa 4d be 7d 3d 70 bd 8a 8a 7d bd 68 80 d2 bd
       -0.20115145 -0.05865239 -0.0618997 -0.10278398
000290 26 33 3b be 98 75 7e 3d 60 17 0c be 25 a4 c3 bd
       -0.1828123 0.062123865 -0.13680792 -0.095527925
0002a0 f7 64 89 bd a7 01 06 bd 8a 3f 61 be 07 a2 44 be
       -0.06708711 -0.03271642 -0.21996894 -0.19202434
0002b0 0b cc 9b bd 42 15 73 bd 2e 04 ce bd 37 33 08 be
       -0.076072775 -0.059346445 -0.10059391 -0.13300787
0002c0 ce 72 48 bd 9d fc 3f 3d 1d 1e 7e bd 6c 15 80 be
       -0.04893761 0.04687177 -0.062040437 -0.25016344
0002d0 06 0e 00 bf a7 0d fc 3c 49 04 07 be 0d 36 b6 bd
       -0.500214 0.030768229 -0.13185228 -0.08897028
0002e0 65 08 00 3d fe ff 01 bb 7a db 3e 3e 36 12 e3 b8
       0.031258006 -0.001983642 0.18638411 -0.000108275955
0002f0 30 44 05 be 16 18 82 be 13 d0 d0 3c 43 d5 1a be
       -0.13014293 -0.25409 0.025489843 -0.15120415
000300 80 99 be be 42 d4 21 3b 0d 3a f4 bf 20 c0 9d 3d
       -0.37226486 0.0024693166 -1.9080216 0.077026606
000310 c4 9f 75 bb ca d0 c3 bd fa 6c 3a 3f 67 1e 43 c0
       -0.003747926 -0.09561308 0.72822535 -3.0487306
000320 f3 ab 0d 3f c1 83 40 3e c1 e9 87 bd 8e 4c a5 3e
       0.553405 0.1880026 -0.06636382 0.3228497
000330 d7 9f ed 3e aa 23 3e 3c e5 cb aa be 3d 3b 4e be
       0.4641101 0.011605183 -0.33358684 -0.20139785
000340 77 22 94 be 78 d5 8f 3e 7d bf 28 be 64 b4 0f 3a
       -0.28932545 0.2809255 -0.16479297 0.00054818974
000350 dd 7e 3a 3c 3b 60 00 c0 80 97 be c0 dd b6 62 3d
       0.011382786 -2.0058734 -5.9559937 0.055350173
000360 83 eb 09 be e2 85 19 bf a4 6e 5c 3e 43 63 86 bf
       -0.13468747 -0.59969914 0.21526581 -1.0499042
000370 61 53 52 bd fc 9e 17 3e 59 8a 34 3b 64 43 20 3b
       -0.051349048 0.14806741 0.0027548282 0.002445423
000380 87 f5 03 bf ff 90 3d 3d 03 4e 45 ba c6 84 0a 3f
       -0.5154652 0.046280857 -0.0007526578 0.54108846
000390 0d 3e 08 3f 50 ef 34 be 47 ce 23 ba 2b ab d5 be
       0.5321968 -0.17669415 -0.0006248694 -0.41732153
0003a0 bd f5 6a bd 53 68 bd 3f b6 1a fe 36 96 d0 0a 3f
       -0.05736326 1.4797462 7.5728994e-06 0.54224527
0003b0 72 f5 51 bb 1a 55 b2 3e a1 29 00 be 35 95 0f 3d
       -0.0032037166 0.34830552 -0.1251588 0.035054404
0003c0 bb 13 d9 3c 2c 6a 63 bd 28 9f 4c c0 41 0a 53 be
       0.026498666 -0.055521175 -3.1972141 -0.2060938
0003d0 da 95 30 3d 38 3a 9e 3d 75 62 f8 3d 3c 7a 27 3a
       0.04311166 0.07725948 0.12128154 0.0006388759
0003e0 d6 46 0b be ad 33 aa bd 81 af 1c be 05 e2 6a 39
       -0.1360124 -0.083106376 -0.15301324 0.00022400178
0003f0 9c 61 94 be dd 68 0b bf fa 5f 88 ba c9 cd 80 b9
       -0.2898072 -0.54456884 -0.001040458 -0.00024567384

enc.fe.u1_FC2.bias f4 [64]
000000 8f bb 85 bc 48 a5 cd 3d e0 43 78 be f9 68 59 3d
       -0.016324786 0.100412905 -0.24244642 0.053078625
000010 3a d7 17 bf 65 02 bb be 05 38 3b be 0a d3 e0 be
       -0.59312785 -0.36525264 -0.18283089 -0.4391101
000020 05 dd 2c 3e 60 b5 b5 bd 20 43 14 3f 51 7e 83 be
       0.16881187 -0.08872485 0.57914925 -0.2568231
000030 bc 47 23 be b9 96 0e be e5 98 d1 be 03 5d a5 bd
       -0.15945333 -0.13924684 -0.40936962 -0.08074381
000040 8b 6e c9 be a9 9f d3 bd 1b 76 17 be aa c2 72 3d
       -0.3934215 -0.10333187 -0.14791147 0.059267677
000050 2b 25 26 be bd b6 27 be 45 d9 32 be f0 fd 5c be
       -0.16225116 -0.16378303 -0.17465694 -0.21581244
000060 d0 87 8b bc 99 60 b8 bd f2 28 6d 3b c8 b3 3d be
       -0.017032534 -0.090027995 0.0036187735 -0.18525612
000070 52 bf 41 be 96 f2 b8 bd 29 f0 ba 3e 83 d6 ab be
       -0.18920639 -0.090306446 0.36511353 -0.33562097
000080 38 a8 0c be 75 28 93 bd 29 5c 6a 3e f9 f5 a1 bd
       -0.13736045 -0.07185451 0.22886719 -0.07908244
000090 3c 92 b2 be 8f c4 32 3c 6a 5c 12 be 1a 06 97 be
       -0.34877193 0.010911121 -0.14293066 -0.29496843
0000a0 2c e8 3b be fc 17 1c be 0d 7c 04 bf 15 bb e5 bd
       -0.18350285 -0.15243524 -0.51751786 -0.11217324
0000b0 12 a7 ab 3e 09 af 1a be 04 6a fb bd 90 15 62 3d
       0.33525902 -0.15105833 -0.1227608 0.055196345
0000c0 5f 7a 71 bd 61 32 ea bd ff 16 43 be 9e fb c5 be
       -0.058954593 -0.1143539 -0.19051741 -0.3866853
0000d0 54 d6 7d be c4 eb 1f 3e e9 f1 81 bd 31 1d 6d bd
       -0.24788791 0.15617281 -0.06344969 -0.057889167
0000e0 62 3e 4e be 5e 00 ac be 11 bf ab be 2a 25 01 3e
       -0.20140985 -0.3359403 -0.3354421 0.12611833
0000f0 9b b2 f8 be b3 48 3c bd df 5e d3 3d bf 31 3b 40
       -0.48573765 -0.04596777 0.103208296 2.9249113

enc.fe.u1_FC3.weight f4 [64, 64]
000000 a8 23 9f be 20 e7 19 3f 50 31 45 bd 04 f7 ca be
       -0.3108189 0.60118294 -0.04814273 -0.39641583
000010 4a c4 84 3f 7b 50 c4 be 04 46 0a bd d5 f9 8a 3e
       1.0372403 -0.38342652 -0.03375818 0.27143732
000020 ae d6 19 3d 6c aa 36 3e d2 19 f7 bd ae 65 79 3e
       0.03755825 0.17838448 -0.12065472 0.24355194
000030 2e 38 10 bd e8 87 84 bd 86 e5 8d be 0d d1 28 bd
       -0.035209827 -0.064712346 -0.27714175 -0.04121499
000040 c8 57 15 bd 9b 90 db ba c3 23 d5 3c 35 2f de be
       -0.036460668 -0.001675147 0.02601803 -0.4339539
000050 0b 9e dc 3d b3 31 2d bd 9e ed 10 bf 1a 8f 67 3e
       0.10772332 -0.042283725 -0.56612575 0.22613183
000060 d0 72 2f 3f aa f3 94 3d e8 94 4f 3c 80 0b 31 3e
       0.68534565 0.07273038 0.012669779 0.17289543
000070 08 88 2e 3f 3c a5 85 3d 08 7a 9c 3e b5 39 46 be
       0.6817632 0.065256566 0.30561852 -0.19357951
000080 26 8f 51 3f 28 a5 59 3d 76 8d 04 3f 87 15 05 bd
       0.8185905 0.05313602 0.5177835 -0.032491233
000090 4f 31 19 3f 62 15 9e 3e e9 41 0a bd 08 b4 cd bd
       0.59840864 0.3087569 -0.033754263 -0.10044104
0000a0 25 0b 19 be 10 2e 86 3a ac af 6b bc 88 91 a3 3e
       -0.14945658 0.0010237116 -0.014385145 0.3194697
0000b0 4d c4 61 bc 2f 8f 0c 3c 0a 1f 9d be 97 23 e6 be
       -0.013779712 0.0085790595 -0.30687743 -0.44949028
0000c0 89 fd d9 bd 14 ea 15 3e 45 94 20 3f 9c 0a 12 be
       -0.10644061 0.14640075 0.6272624 -0.1426186
0000d0 4a dc a8 3c fa e9 d5 bd 33 23 e2 ba 5a e5 6f be
       0.020612855 -0.10445018 -0.0017252922 -0.23427334
0000e0 cc c3 3d 3d 2c 7e 2f 3f 6d cc 90 bd 47 ba 1b be
       0.046329305 0.685519 -0.07070241 -0.15207778
0000f0 46 95 2f bf d0 4e 52 be 5b 2e 9b 3e 83 97 3d 3e
       -0.6858715 -0.20537877 0.30308804 0.18514828
000100 2c f3 c7 3e 4c 6c a6 3d a4 f1 f6 3c fd b2 46 3e
       0.39052713 0.08126125 0.03014452 0.19404216
000110 20 b7 6b 3d 86 f9 ce 3e db 9a 62 3d f8 fe a7 be
       0.05754769 0.40424746 0.055323463 -0.32811713
000120 01 e0 64 bd 87 3f b7 be 90 e7 d7 3d 59 c9 24 be
       -0.05587769 -0.35790655 0.10542214 -0.16092433
000130 f8 24 e7 be c4 18 35 3e d0 09 87 bd e1 46 c3 ba
       -0.45145392 0.17685229 -0.065936685 -0.0014898443
000140 f1 a6 21 3e 9d 77 18 3d 5a 47 19 3d a8 7d 93 3f
       0.1578634 0.037223447 0.03742156 1.1522722
000150 14 a8 7e bd 8d d4 51 bd d4 e5 35 bf ed d2 b6 bc
       -0.06217201 -0.051228095 -0.71053815 -0.022317374
000160 38 75 16 bf 09 39 ee 3d 9c 69 60 be 00 5b 2d bf
       -0.5877261 0.11631972 -0.21915287 -0.6771698
000170 d9 5b 98 be 30 fe 34 3d 93 78 a9 3d 81 bf 19 3e
       -0.29757574 0.044187725 0.08274951 0.15014459
000180 3c b5 ab be 4a 76 8f bd b1 73 1f be 04 93 b7 bb
       -0.33536708 -0.07004984 -0.15571477 -0.0056022424
000190 bc 6f 99 bd 84 e8 87 bf 0e f5 bd 3d 23 fc c5 3c
       -0.07492015 -1.0617833 0.09275256 0.02416808
0001a0 bd 61 34 bf 3b ae 41 bd e2 c9 81 3c 16 48 71 bc
       -0.70461637 -0.0472853 0.015843336 -0.014726659
0001b0 d3 1b 88 3c 4b 2b 08 3e de 1f 1c 3e 73 c6 82 3e
       0.01661483 0.13297765 0.15246531 0.2554203
0001c0 5b 40 71 3f 00 a4 8b 3c 3c 68 f5 be 75 e4 ae 3c
       0.94238824 0.017045975 -0.47931087 0.021349171
0001d0 96 55 26 be 0b d6 34 3e 68 ee 7c bd 57 24 27 3e
       -0.16243586 0.17659776 -0.0617508 0.16322456
0001e0 39 e9 53 3b fd c2 92 3d 1a 77 9c bd d9 14 24 3f
       0.0032335056 0.07166097 -0.07639904 0.6409431
0001f0 9c e8 01 3e 13 63 61 bf 6c 3d 9c bd 9c c0 ea bd
       0.1268639 -0.880418 -0.07628903 -0.114625186
000200 a4 b9 60 bd c2 98 1e bf 81 34 65 bd af cf 5f 3e
       -0.05486454 -0.6195184 -0.055958275 0.21856569
000210 79 0a 16 bd 77 0e 08 3e f3 bb 83 3d 2c 43 60 bc
       -0.03663108 0.13286768 0.06432333 -0.01368789
000220 b4 81 d2 3d 48 bb 5b be 5e 4a d0 bd 7d e5 4f be
       0.10278645 -0.21458161 -0.101704344 -0.20302387
000230 14 79 27 be c4 6b 24 3e 68 d3 a7 3d c9 57 5b bc
       -0.16354781 0.16056734 0.081946194 -0.013387629
000240 0e fb 49 3d eb e8 ee 3d c6 8f 77 ba ff b2 9e bd
       0.04931169 0.11665519 -0.0009443726 -0.077489845
000250 1f dc f8 bd 5b a1 f3 bd 24 66 e1 3e 74 0e 4a be
       -0.1215136 -0.118960105 0.4402324 -0.19732076
000260 c2 b4 2e be 5f 0f 3b be d7 e9 4a 3d ad ee 65 bd
       -0.17061141 -0.18267582 0.049539413 -0.056135822
000270 7b 15 dc 3d 6b 56 40 3d 46 7f df be d2 7e 79 3d
       0.107462846 0.046957415 -0.4365179 0.06091196
000280 bd ad 65 be 19 0a f7 3c f9 89 ce be 83 f3 ba 3d
       -0.22429557 0.030156182 -0.4033964 0.091284774
000290 29 2f da be 7c c4 6e be f4 0a 49 bd 79 3a 60 3d
       -0.42614105 -0.2331714 -0.04908271 0.054743264
0002a0 73 3c 24 3d 48 97 5a 3d 94 e4 28 3d 37 0d 84 bd
       0.04009671 0.05336693 0.041233614 -0.06447833
0002b0 c5 5a ce be b9 a6 04 3d e4 2e 7a 3e 20 06 3b bc
       -0.40303627 0.03238556 0.2443195 -0.0114150345
0002c0 09 9b 89 3e e8 6e 9d bc 9e 71 3b 3e 3b 33 ab 3d
       0.26876095 -0.019217923 0.1830506 0.08359381
0002d0 86 cb 4e 3e 7b 61 02 bf 20 8c a8 bd 98 68 3a 3e
       0.20194826 -0.50929993 -0.08229852 0.18203962
0002e0 7c 0a 20 3d 32 23 5d 3e 4d bd 06 3e 14 f5 48 3d
       0.0390725 0.21595457 0.1315815 0.04906185
0002f0 5a 91 5f bd 31 d6 3e 3e ef 7e 75 bf 20 7c fc be
       -0.054581977 0.18636395 -0.9589681 -0.4931345
000300 ce e0 5a be 55 4f a4 be 45 dc e7 3c c7 8b d1 3d
       -0.21374819 -0.32091776 0.028303275 0.102317385
000310 4e 1a 3b 3e 63 4d 7c bf 8b e8 57 3c b6 df 8a 3e
       0.18271753 -0.9855558 0.013178001 0.27123803
000320 a6 4f 98 3d af 35 b1 bd 65 aa 26 bd a6 d6 e9 be
       0.07437067 -0.086528175 -0.040689845 -0.45671576
000330 ae 73 69 be 93 9d 1d 3e cc c8 41 3e ca 81 17 bd
       -0.22798035 0.15392141 0.18924254 -0.03698901
000340 10 8c 05 be f2 30 52 3e 5e 50 2e bb 93 84 ad 3c
       -0.13041711 0.20526484 -0.0026598196 0.02118138
000350 21 61 f0 bc b7 a6 bf bd 6f 45 76 3e e4 e6 94 bd
       -0.02934319 -0.0935797 0.24049924 -0.072706014
000360 d8 67 37 be 00 7f 43 bd 88 0f 24 3d ac c4 d1 3a
       -0.17910707 -0.04772854 0.040053874 0.0016004047
000370 5f 1f 6b 3e af 4b b6 3d 84 7b d2 be f1 cf 27 3c
       0.22961186 0.08901154 -0.4110986 0.010242448
000380 a4 6d 36 be a9 0d c6 bc 34 8b b0 be 04 80 15 bd
       -0.17815262 -0.024176436 -0.34481204 -0.03649904
000390 14 81 28 be 88 7d 82 be fb 82 10 3c 6b 2f 85 3d
       -0.1645549 -0.25486398 0.008820291 0.06503185
0003a0 26 b8 b5 3d 92 00 18 be a8 0b 57 3e 75 11 2d bd
       0.08873014 -0.14843968 0.2100054 -0.042252976
0003b0 30 1f 80 be ea 89 b8 3d 5e c2 9e 3d 40 27 ce 3d
       -0.25023794 0.0901068 0.07751916 0.1006608
0003c0 fc 03 c9 3e 65 30 72 bd 22 0a 93 3e ba 6c ca 3d
       0.39260852 -0.059128184 0.28718668 0.09884019
0003d0 95 cd 27 3e 9c 7b d7 be 95 10 14 bd 28 a3 8e 3e
       0.16387017 -0.42086494 -0.036148626 0.27858853
0003e0 d6 49 ee bb 68 aa 63 3e 81 3e 1f 3d c4 73 43 3d
       -0.0072719855 0.22232974 0.038877968 0.047717825
0003f0 43 18 3b be 0a 98 44 3e ad f4 70 bf 24 43 10 bf
       -0.18270974 0.19198623 -0.94123346 -0.5635245

enc.fe.u1_FC3.bias f4 [64]
000000 73 32 49 3f aa f3 8b be 6a 89 1c c0 94 df 1c c0
       0.78592604 -0.27334338 -2.445887 -2.4511461
000010 07 9d 15 40 b8 63 e6 ba 12 b7 21 3f b0 3a 4f be
       2.3377092 -0.0017577326 0.6316997 -0.20237231
000020 31 89 19 bf ef 7b 76 bf 7b a8 89 3f c0 ee 83 3f
       -0.5997496 -0.9628286 1.0754541 1.0307236
000030 0f bf 17 bf 92 3c 8b 3e 27 71 a3 be 4b 62 df 3f
       -0.5927591 0.2719465 -0.31922266 1.7451872
000040 66 91 f6 3f 55 de bd bf 62 a2 96 bd 49 c2 72 3e
       1.9263122 -1.4833475 -0.07355191 0.23706926
000050 c3 81 e3 bf f5 7c 36 3e e1 93 97 3e 9e dc a2 3d
       -1.7773975 0.17821105 0.2960501 0.07952236
000060 81 e0 b7 bf 0a c4 1c c0 3e e0 24 bf cd 88 d5 bf
       -1.4365388 -2.4494653 -0.64404666 -1.6682373
000070 5d e6 e3 bf 87 17 5c 3f 29 71 6d bf 4e 8a eb bd
       -1.7804676 0.859734 -0.92750794 -0.11500989
000080 27 38 1e bf 57 9a 45 bd 24 65 a2 be 3a 2d 26 3f
       -0.6180443 -0.048242893 -0.3171779 0.6491276
000090 b9 2d b8 bf 28 3a b9 be 12 db c3 be ca 0a 0b bf
       -1.4388953 -0.36177182 -0.38253075 -0.5431334
0000a0 58 08 bf 3e 23 ef 52 bf 89 1e f9 3e f7 72 02 c0
       0.37311053 -0.82396144 0.4865611 -2.038267
0000b0 dd c5 c9 3e ae 93 71 3e dd d2 b7 bf fb 6e b7 3e
       0.3940877 0.23591492 -1.4361225 0.3582686
0000c0 b0 2f e3 3e e3 56 0a bf 64 31 1f bf 72 d3 4e be
       0.4437232 -0.5403883 -0.6218474 -0.20197847
0000d0 5e aa 15 40 4f 0c 53 3e 37 6a 63 bf b9 2b 77 3f
       2.3385234 0.20610164 -0.88833946 0.9655109
0000e0 d3 a0 93 be 98 07 10 bf 4a 3e e8 3f 4e 3d 0b 40
       -0.28833637 -0.5626159 1.8144009 2.1756167
0000f0 c5 e7 0e 40 49 32 17 c0 f7 0a b3 3d a4 e5 21 be
       2.232896 -2.3624442 0.08742326 -0.15810257

enc.fe.u1_FC4.weight f4 [32, 128]
000000 34 5c 30 bf 69 a4 c6 3e c6 f0 92 3f a2 a3 4d 3f
       -0.6889069 0.3879731 1.1479728 0.8032781
000010 16 24 8c bf 08 32 48 bd 6b 9b b2 be b3 f7 e5 bd
       -1.0948513 -0.04887584 -0.348842 -0.112288855
000020 d1 0d 4f bd 2a 37 e2 3d 04 5c 87 be 35 00 f2 be
       -0.050550286 0.11045678 -0.2643739 -0.47265783
000030 b3 e5 a3 3e 40 b0 e8 bd 3f f8 57 3e 86 dd 49 bf
       0.32011184 -0.11361742 0.21090792 -0.7885364
000040 7e 1e 11 bf f6 d5 a4 3e 00 73 0b be ef b5 0a 3e
       -0.5668715 0.3219449 -0.13618088 0.13545965
000050 62 b9 0f 3f 50 f4 42 bc ba 55 91 bd 7b 3b 38 bd
       0.56142247 -0.011899069 -0.07096429 -0.0449786
000060 18 bc a9 3e 72 01 9e 3f 6f d3 f6 3e 66 e8 14 3f
       0.33151317 1.2344191 0.48208186 0.5816711
000070 43 1f 6c 3f 5e 64 d9 be 07 73 ef 3e 5a 4b 82 3e
       0.922352 -0.42459387 0.46767446 0.25448114
000080 fe bd 21 3f 72 b3 77 3d 73 38 60 3e ca 70 cc be
       0.6318053 0.060473867 0.21896534 -0.399298
000090 b3 09 0d 3f ee a7 59 3e 25 d6 6f 3e 07 78 31 3e
       0.55092925 0.21255466 0.23421533 0.17330943
0000a0 e1 19 58 be 64 5f e3 3e e9 78 fe bd e4 e7 36 3f
       -0.21103622 0.44408715 -0.124254055 0.71447587
0000b0 38 7b af bc c3 40 01 be 81 59 2f 3f 50 55 d9 bd
       -0.02142106 -0.12622361 0.6849595 -0.10611975
0000c0 28 e0 9e be 61 c3 dc 3e 50 10 fa 3d 1a cb 3c 3e
       -0.31030393 0.43117812 0.122101426 0.18436852
0000d0 ad 73 6e bf 40 56 01 bf df 79 e2 3e 52 c1 bd be
       -0.9314526 -0.5052223 0.44233605 -0.37061554
0000e0 3b 07 81 3e d8 70 00 3f dd ef 68 bf 83 33 a3 bf
       0.2520083 0.50172186 -0.90991 -1.2750095
0000f0 46 b0 2a bf 65 5d 8f 3f a8 54 e2 ba a5 e4 11 be
       -0.6667522 1.1200377 -0.0017267661 -0.14247377
000100 d8 50 ba 3e b4 5d 25 be 28 3d 14 3f 41 68 db 3e
       0.36389804 -0.16149026 0.5790582 0.42852977
000110 88 f5 36 bd 8d fa c1 be 94 65 11 3d 7a e1 29 be
       -0.04466775 -0.37886468 0.035497263 -0.16589919
000120 cd f9 a5 be 56 c3 67 be 86 17 16 3e ac 47 c1 be
       -0.32417145 -0.22633108 0.14657411 -0.37749994
000130 84 67 36 3e d6 f1 eb 3c 39 35 13 3f 65 41 5d be
       0.17812926 0.02880184 0.57503086 -0.21606977
000140 a7 f5 1a 3e 3b 9e 46 3e 69 a8 f6 bc 0b 93 9f 3d
       0.15132771 0.19396298 -0.030109601 0.07791718
000150 67 e8 3c be 84 68 2e 3f ea 6c 98 be 31 09 4c 3e
       -0.1844803 0.6812823 -0.29770595 0.19925381
000160 53 e8 6e 3e 0f 7d 2e 3f 47 36 e3 bd f6 d4 b7 be
       0.23330812 0.68159574 -0.11094337 -0.35904664
000170 c8 f9 1a 3f 55 79 3a be da 89 68 3e 79 f6 a4 bd
       0.60537386 -0.18210347 0.22708836 -0.080548234
000180 2e 34 8b be c3 00 16 3e 3f 09 46 3d aa dd 13 bd
       -0.27188247 0.14648728 0.04834866 -0.036100067
000190 72 2f a2 3c b7 91 a8 bd d3 2d ea bd da f9 0e 3f
       0.019798014 -0.08230918 -0.114345215 0.55849993
0001a0 3d 84 56 3e a0 b5 16 3f 76 1d 5d 3d dc 8d 0c 3e
       0.20948882 0.5887089 0.053983174 0.1372599
0001b0 29 e6 ad 3d 3a fd 0a 3e b1 55 ad be 5c 94 02 3e
       0.08491165 0.13573161 -0.3385444 0.12751907
0001c0 98 05 8b 3e 0b 1f 14 bd bc 09 87 bd 98 7a f2 3d
       0.27152705 -0.036162417 -0.065936536 0.11839789
0001d0 a3 d8 00 be 55 88 d4 be 21 23 8a be 1c 8f 60 be
       -0.1258264 -0.41510263 -0.26979926 -0.21929592
0001e0 b5 db 8c 3e 47 14 db bd 4c 7b 44 bf 80 0e 10 3c
       0.27511373 -0.10697227 -0.76750636 0.00879252
0001f0 59 33 3e 3f cb a8 c6 3e b1 9a c2 3d 37 70 a2 3d
       0.742971 0.38800654 0.09502161 0.079315595
000200 62 b6 34 be 7d 2d 41 3e 1d 72 25 3d 2b 0b ca bd
       -0.17647699 0.18865009 0.04039203 -0.09865411
000210 51 b9 5d be 3b 94 8e bd 1c 06 7d bd 93 a9 a2 be
       -0.21652724 -0.069618665 -0.061773404 -0.3177
000220 83 23 09 3d 2a 14 f8 3c 0c 8b e1 3d 45 2f 94 3d
       0.033481132 0.030283052 0.11012849 0.072355784
000230 26 cf c3 bc 1a bd 3b bd b0 c9 80 3b 1a 16 2a be
       -0.023902487 -0.04583464 0.003930293 -0.16609994
000240 92 a8 3d b8 a1 31 a3 3d 3d c5 00 3e 12 d2 bc 3d
       -4.5218105e-05 0.0796845 0.1257524 0.09219755
000250 86 ec ab 3d a5 10 fd bd 75 1e 24 be 7f 6b d3 bc
       0.08394723 -0.1235669 -0.16027243 -0.025808094
000260 27 8c 4d be ed 75 80 bc 92 b9 13 3e 05 97 a3 3d
       -0.20072995 -0.015681231 0.14426258 0.07987789
000270 73 b8 23 3d 89 5c 4d 3e b8 dc 5e 3e b2 a1 54 3e
       0.039970826 0.2005483 0.21763885 0.20764807
000280 07 2f 75 3d fa 35 79 bd f2 3f bb 3c 3c f0 28 be
       0.059859302 -0.06084249 0.02285764 -0.16497892
000290 35 94 ff 3d e5 b6 c8 bd 1a cf 7a bd c2 74 83 3c
       0.1247944 -0.09800509 -0.061232664 0.016046885
0002a0 d9 cb 23 3e 2c 1f 9a 3d 6c 15 e9 3b af 3e 91 bd
       0.1599573 0.07525477 0.0071131494 -0.07092034
0002b0 80 7a 75 3b 61 60 e3 3d c1 22 3b 3e 28 0a 13 3e
       0.003745705 0.11102367 0.18274976 0.14359343
0002c0 f4 4a bd 3d 6c 89 ed bd 49 37 25 bd 8a 7c 54 3e
       0.09242812 -0.11598477 -0.040335927 0.20750633
0002d0 8f 6f 86 3d 64 67 37 be 77 d6 6e 3c cf ed e4 3c
       0.06564247 -0.17910534 0.0145775 0.027945427
0002e0 25 de dd bc 62 21 8a 3e 31 d8 57 3c 76 3b 49 be
       -0.027083466 0.26978594 0.013174103 -0.19651589
0002f0 33 4a f1 3d ad 24 19 3e 4d ac ca bd 92 15 87 bd
       0.117817305 0.14955397 -0.09896145 -0.06595911
000300 b9 47 17 be 65 60 0e be e5 ad 0a 3e 53 0b 1e be
       -0.14773454 -0.13903959 0.13542898 -0.15434007
000310 eb 29 82 bd d5 38 d3 3c 61 c0 d7 bd d4 a1 60 bc
       -0.063556515 0.025783936 -0.1053474 -0.013710458
000320 4e e6 ad bc 3a 21 a7 bd eb 2a 76 3d 75 2a dd 3c
       -0.021227982 -0.08160634 0.060099524 0.026997784
000330 ff 0d 07 3e c6 39 09 3d 50 73 ed 3d 64 41 53 3e
       0.13188933 0.033502363 0.1159426 0.20630413
000340 e5 62 32 bd ea f2 c3 bc 93 f3 59 3d 9a f4 06 bc
       -0.043551344 -0.023919541 0.053210806 -0.0082370285
000350 4f 6e e6 b5 5b 87 e0 3d 3c 21 43 3d da 8b e1 bd
       -1.7168439e-06 0.10963317 0.047639117 -0.11013003
000360 2b bc ce bd ef c3 a2 3e 68 af 23 3e eb d4 98 3d
       -0.10094484 0.3179011 0.15984881 0.07462486
000370 98 08 c8 3d a3 38 9c bd 38 5e 1a 3e 9f 30 96 3d
       0.09767264 -0.0762799 0.15075004 0.073334925
000380 e6 9a c7 3c 2b 5e 30 3d 31 c7 5e bd b5 65 a5 be
       0.024365854 0.043058556 -0.054389182 -0.3230416
000390 17 77 17 3d cb e3 1d bd 42 4e ac 3c 16 2b 24 3d
       0.036978807 -0.03854732 0.02103341 0.040080152
0003a0 84 d7 9e 3e 29 da 2e 3b 6e ae 2d bd a8 ed 22 3e
       0.310238 0.0026680327 -0.042402677 0.15910971
0003b0 60 67 f9 bd 3b 8f c9 3d 60 41 15 be ae e2 82 bd
       -0.1217792 0.09841772 -0.1457572 -0.06390892
0003c0 13 18 06 bd 76 58 2a 3e ba 5e 2e 3d c0 03 b2 bd
       -0.032737803 0.16635308 0.042570807 -0.086921215
0003d0 c6 28 43 3d 11 f6 23 bc 5d 43 b6 bd 29 a6 6a 3d
       0.047646306 -0.010007397 -0.08899567 0.05728737
0003e0 c2 4a be bd a0 74 b9 bd 0b 8e ce bd 37 d3 48 bc
       -0.09291603 -0.090554476 -0.10085686 -0.012257389
0003f0 1f aa c4 3d 94 bd 3a be 75 e7 78 bc f2 d5 67 bd
       0.096027605 -0.18236381 -0.015191902 -0.05660052

enc.fe.u1_FC4.bias f4 [32]
000000 36 ec d3 bf d2 e3 9f be 51 8a f8 3f 26 a6 03 40
       -1.6556461 -0.312285 1.9417211 2.057016
000010 38 5b b4 be ad 5c ed bf 36 97 89 bf a3 bc 88 3e
       -0.35225844 -1.8543907 -1.0749271 0.26706418
000020 78 9e 80 bc 1d 1e 41 be bd 42 53 bf ad b7 35 3f
       -0.015700564 -0.18859144 -0.8252371 0.7098339
000030 70 b3 97 be d2 6c 54 be 62 45 a6 bf 5b 56 b5 3d
       -0.29629087 -0.20744637 -1.2989924 0.088543616
000040 c9 f6 dc 3f 1b f4 ae 3e f2 53 1a 3e bf 1f 25 be
       1.7262813 0.34170613 0.15071085 -0.16125391
000050 b5 20 29 3e ea 23 06 be ab 6e 41 bf 6a d6 81 be
       0.16516383 -0.13099638 -0.7555949 -0.25358897
000060 ca 88 15 40 b9 ab 27 be 59 a1 75 3e 57 08 b0 3e
       2.336474 -0.163741 0.2398733 0.34381363
000070 59 82 bd be 70 23 7c 3e 5c ad 70 be c9 4e 6a be
       -0.3701351 0.24622893 -0.23503631 -0.22881617

enc.norm.weight f4 [32]
000000 a8 98 2c b9 85 42 5c 3c 4e eb 0b 39 25 57 f3 b8
       -0.00016460067 0.013443594 0.00013343731 -0.00011603375
000010 f8 66 4c b8 df 09 99 b8 30 58 45 3e 8b f3 03 3f
       -4.8733287e-05 -7.297447e-05 0.19271922 0.5154349
000020 f7 3c 05 3f c7 93 22 35 73 20 86 38 1c 71 8d 39
       0.5204615 6.056475e-07 6.395662e-05 0.0002697789
000030 a2 0e a3 b8 81 a1 86 3f 28 fe 9d 37 f0 f6 13 38
       -7.775171e-05 1.0518037 1.883421e-05 3.527751e-05
000040 6d a0 90 3e 49 4f f4 36 12 d4 05 3f 0a d4 92 3f
       0.28247395 7.2809967e-06 0.5227672 1.1470959
000050 4f bb b2 3f a4 ba c9 3e 50 37 34 38 a4 68 5c b7
       1.3963412 0.39400208 4.2966858e-05 -1.3137385e-05
000060 fc c5 96 38 ad fb 08 3f 65 29 f4 3e 61 63 1d 3f
       7.189435e-05 0.53509027 0.47687832 0.61479765
000070 6b b1 10 b7 3f c9 ac 38 2e 1f dd 39 9b 3a 03 38
       -8.624377e-06 8.239084e-05 0.00042175635 3.1287414e-05

enc.norm.bias f4 [32]
000000 f2 39 22 3e b2 29 b0 bc 5a bc 6a 3d f1 6b 90 3c
       0.15842417 -0.021504257 0.057308532 0.017629595
000010 aa 26 02 be 0e 7b 22 3e 66 47 48 bd bd 82 6a 3d
       -0.12710062 0.15867254 -0.048896216 0.057253588
000020 37 a4 fa bd f9 98 b3 3c 40 99 cf 3d 00 6b 33 bd
       -0.12238353 0.021923529 0.10136652 -0.043803215
000030 6f e3 03 3d ee 32 b2 bc 16 c0 fc 3d f1 b3 21 3d
       0.03219932 -0.0217528 0.12341325 0.039478246
000040 48 fe e2 3c 92 54 c6 bd 3a 76 a9 3c fd 36 19 3d
       0.027709141 -0.09684099 0.020686258 0.037405957
000050 10 a5 c0 3d 53 f2 2d be 2f 62 0f 3e 7b 4f ac 3d
       0.09406483 -0.1698697 0.14002298 0.08413597
000060 a5 78 ac bd cb cd fe 3c 2a f8 76 bd ed 00 42 3e
       -0.084214486 0.03110399 -0.06029526 0.18945666
000070 6b 9e 9d 3d 30 c7 3e bd 08 25 67 bd fd 47 c3 bd
       0.076962315 -0.04657668 -0.0564318 -0.09535215

enc.enc_out1.weight f4 [8, 32]
000000 a2 a7 20 bd 44 9a 4f bd ed 7d ad bd df 52 d4 bc
       -0.039222367 -0.05068423 -0.08471284 -0.025918422
000010 f0 dc fa bc fe 67 a9 bd 9e f7 5d 3d f8 d5 29 3d
       -0.03062293 -0.08271788 0.054191224 0.041463822
000020 8f 91 f2 bc 57 0d d2 3c 3a 30 09 3e ca 93 19 bd
       -0.029610423 0.025641127 0.13397303 -0.03749446
000030 9d 3d 29 bc 82 9a 8e be 5c 8d cb bc 07 49 bb bd
       -0.010329631 -0.27852255 -0.024847679 -0.09144788
000040 c8 47 e1 bc c4 cc f1 3c 16 0c 29 3d b7 8e b5 be
       -0.027500048 0.029516585 0.04127129 -0.35460445
000050 26 a8 0a 3f a8 c1 c8 bc 77 3e 35 bd 9d c8 be 3d
       0.54162824 -0.024506405 -0.044249024 0.09315608
000060 02 90 6d 3d 88 98 92 3b c7 59 e3 3c 1d f0 af bd
       0.057998665 0.0044737495 0.02775277 -0.0859072
000070 c3 f3 2e 3d 3e 40 f4 bc 56 77 ae 3c cf dd 7a 3d
       0.042712938 -0.02981579 0.021297138 0.06124669
000080 d5 e0 d0 bd 8f b0 26 bd b6 5b 9e 3b fa 19 a7 3d
       -0.10199133 -0.040695723 0.00483271 0.081592515
000090 8a dd 8a 3d 53 62 38 bd b1 db b0 bc 10 61 b0 3c
       0.067805365 -0.045015644 -0.021589132 0.021530658
0000a0 3a 1e f6 3d c0 bf 35 bd 6f f6 22 3d 8f dc aa bd
       0.12017484 -0.04437232 0.0397858 -0.083428495
0000b0 9a 29 84 bd d6 c2 c4 be 34 e0 b6 bb 1c 5d e5 bd
       -0.06453247 -0.38429898 -0.0055809263 -0.111994
0000c0 53 55 b6 bd 76 b6 5b bc d7 7e 3a 3e 62 eb ee be
       -0.08902993 -0.013410201 0.18212448 -0.46663958
0000d0 76 1d 44 3f 99 2b 12 bd 2b 1a cf bd c0 c4 47 3d
       0.76607454 -0.03568611 -0.10112413 0.04877162
0000e0 33 79 69 bd 00 a1 a2 3d 46 c1 92 bd 6a 66 03 bd
       -0.05700035 0.079408646 -0.0716577 -0.03208009
0000f0 d8 03 2e 3b a6 21 63 bd 10 a5 b5 3c bf c2 a3 3c
       0.0026552584 -0.05545201 0.022173434 0.019990323
000100 c8 e6 66 3d 12 ff 88 bd a0 13 4b bd 70 10 96 bd
       0.056372434 -0.06689276 -0.049579263 -0.07327354
000110 93 3a 86 bd 13 29 88 bd b5 2b b9 3b e7 fe c3 bb
       -0.06554141 -0.06648459 0.0056509622 -0.0059813145
000120 99 b3 93 bd dc 71 f0 bc c9 b8 cf 3c f0 df 4f 3d
       -0.0721199 -0.029351167 0.025356667 0.050750673
000130 26 37 85 bd c3 33 a5 be 3a 25 e5 bc 75 42 9a bb
       -0.06504659 -0.32266054 -0.027971853 -0.0047076293
000140 22 28 21 bd 65 34 26 bd a4 a8 46 3d 77 db f7 be
       -0.039344914 -0.04057731 0.048500672 -0.48409626
000150 28 c7 50 3f 03 a0 02 bd d6 6c 94 3d ac c4 4a bd
       0.8155389 -0.03189088 0.07247321 -0.049503967
000160 5e 2d 2f bd a8 00 b2 bd 57 af 04 3d fb 9e 2a be
       -0.042767875 -0.086915314 0.03239378 -0.16662209
000170 04 28 80 bd 0f 09 6c 3d f7 89 92 bd c6 dc 70 bd
       -0.062576324 0.057625826 -0.07155221 -0.058804296
000180 58 94 52 bd 69 1d 95 3d d4 26 59 3d 9b 96 da 3d
       -0.051411003 0.07281 0.053015545 0.10673257
000190 a3 66 1a bb 6b 93 84 bd 25 a5 0c 3d 07 d7 08 bd
       -0.0023559711 -0.0647343 0.03433718 -0.03340819
0001a0 27 19 1c 3d 2e 06 dc bd 8c 90 4f bd 5c 3a 86 bc
       0.038109925 -0.10743366 -0.05067496 -0.01638525
0001b0 10 5a 44 3d 4e 6c df 3e ca 90 db 3d a5 79 bd 3c
       0.047937453 0.43637317 0.10720976 0.023129294
0001c0 56 8d 20 3d 03 a4 a7 bd 20 a8 f7 bc d0 2c f3 3e
       0.03919729 -0.0818558 -0.030231535 0.47495127
0001d0 3f c3 49 bf 3f 68 13 bd a4 55 86 3d ed 50 98 bd
       -0.78813547 -0.03598809 0.065593034 -0.0743731
0001e0 23 ff 96 bd 5e 45 aa bd 1a 39 85 bd 25 60 46 3e
       -0.07372882 -0.08314012 -0.06505032 0.19372614
0001f0 e7 d3 ac bd e9 fa 7e 3c 0c f8 ad 3d f7 71 8e 3d
       -0.08438855 0.015562751 0.08494577 0.06955331
000200 6e 19 30 3d dc 8b 63 bd fc 08 3e bd 77 4e 3e 3d
       0.042993 -0.055553302 -0.046395287 0.04646155
000210 ad 05 6f 3d 87 b5 5f bd 1f 73 ed bb fb 89 8e 3b
       0.058355022 -0.054616477 -0.0072463895 0.0043499446
000220 bf d9 b9 3c 03 63 b1 bd 48 4b af bc c3 9f 09 bd
       0.022686837 -0.08661463 -0.021398202 -0.033599626
000230 71 ae 03 be d5 17 e7 3e 74 5c f4 bc 24 e5 8f bc
       -0.12859513 0.4513537 -0.029829241 -0.017565317
000240 7b eb ca 3d 67 55 76 3d 6d a0 0b bd 10 a0 16 3f
       0.099081956 0.06014004 -0.03408854 0.58837986
000250 10 2e 4f bf ea 86 58 bd c8 a2 ba bd a7 e0 81 bc
       -0.8092966 -0.05286304 -0.09113079 -0.015854193
000260 94 40 4d bd 9a d7 99 3d 50 69 16 bc 7c 48 4a 3d
       -0.050110415 0.07511826 -0.009180382 0.049385533
000270 3e 94 3b 3d 11 cc 83 bd 53 1d 44 3d 4b 56 30 3d
       0.04579567 -0.06435407 0.04787953 0.043051045
000280 09 39 45 bd 23 7c 82 bd 37 1b 3a bd 8d 55 ce bd
       -0.048150096 -0.063713335 -0.04543611 -0.10074911
000290 d7 76 7d bd 35 76 3d bb 72 82 ff bd f3 bc 8f 3c
       -0.061880913 -0.0028909568 -0.12476052 0.017546153
0002a0 75 c2 82 bd e1 73 be 3d 93 62 f6 3d 8f b8 02 3d
       -0.06384746 0.09299446 0.1203052 0.03191429
0002b0 eb 93 f9 bb 54 0c ef 3e c1 31 42 bd e2 e4 91 bd
       -0.00761651 0.46689093 -0.04741073 -0.07123734
0002c0 54 0b 59 3d 7a ad b0 bc 16 38 d5 bc 6f 49 12 3f
       0.05298932 -0.021567095 -0.02602772 0.571433
0002d0 5b 4b 4a bf 00 b6 91 3c 9b 1f 38 3c 10 d8 b6 3d
       -0.79021233 0.01778698 0.011238004 0.089279294
0002e0 fe 63 12 3d e0 f0 cf 3d 5f 6a ad bb 18 17 59 3d
       0.03573989 0.10153365 -0.0052922214 0.05300054
0002f0 5e 9a 09 bc 07 fe 81 3d d1 e9 d9 bd 46 b6 b8 bd
       -0.00839862 0.0634728 -0.106403 -0.09019141
000300 d0 68 aa bd 7a 11 a7 bc f2 a2 2d 3e 22 82 18 bd
       -0.08320773 -0.020394076 0.1695669 -0.03723348
000310 a3 51 13 3c 8f 79 ce bd c7 aa 71 bd 52 20 16 3d
       0.008991632 -0.10081779 -0.059000757 0.036651917
000320 93 0b 74 bc 06 51 d2 3d b7 11 23 3e 1e 69 27 be
       -0.014895338 0.1026936 0.15924726 -0.16348693
000330 69 80 c5 3d 86 71 3f 3d 06 38 73 bd e0 4f 0d 3e
       0.09643633 0.046739124 -0.0593796 0.13800001
000340 81 05 27 3c 12 98 6b 3d 79 a8 6a 3b d4 a7 3f 3d
       0.010194183 0.057518072 0.0035805984 0.046790913
000350 26 02 4f bd 19 c8 29 3d 01 9d 9b bd 21 1d 65 3b
       -0.05053916 0.041450594 -0.075983055 0.003495999
000360 cc fa 6b bd 7b d5 b2 3c 83 54 26 bd 36 0c db bc
       -0.057612225 0.021830311 -0.04060794 -0.026739221
000370 f4 5f 34 3d fa 03 8e bd 36 b6 cb bd 44 07 56 bd
       0.04403682 -0.06934352 -0.09946863 -0.052253023
000380 3e d4 34 3d dd 58 44 3d f9 28 bf 3d 8b 8a a4 bc
       0.044147722 0.04793631 0.09333987 -0.020085594
000390 f9 b8 28 3d f5 44 86 3d c1 bf f9 bd b6 02 8e bd
       0.04119203 0.06556121 -0.12194777 -0.06934111
0003a0 5c d3 23 3d b3 97 82 3c 99 5d be bd 6f 0e 66 bd
       0.03999649 0.015941476 -0.09295196 -0.05616611
0003b0 d9 d5 f0 3c 28 1c c3 3e 12 e4 8e bd 2d 85 32 bd
       0.029398846 0.3810742 -0.06977095 -0.043584038
0003c0 20 cc 58 bb be 01 ad bd 2d b6 ee bd 40 7e 05 3f
       -0.0033080652 -0.08447598 -0.11655841 0.5214577
0003d0 8b a9 34 bf b7 5c de 3d c9 37 5d 3d 9b fc f2 bd
       -0.705712 0.10857528 0.05400828 -0.11864587
0003e0 54 0e 2e bd 83 99 0f 3d 5b 93 d6 3d 88 87 03 3e
       -0.042494133 0.03505851 0.104773246 0.1284467
0003f0 3d 55 c1 bd dd 9b 65 bd ce c2 d9 bd 78 89 9f bd
       -0.09440086 -0.056056846 -0.10632859 -0.07789892

enc.enc_out1.bias f4 [8]
000000 4c 70 8c bb 0b a6 84 be 2b 5c 27 bd 41 d9 85 3d
       -0.004285848 -0.2590793 -0.040859383 0.065355785
000010 da bb d5 3d 2b 59 93 3b 73 45 c6 3d 72 c8 17 3e
       0.104362205 0.0044967136 0.09681215 0.14822558

enc.enc_out2.weight f4 [1, 8]
000000 df 88 42 bc 11 79 74 be c8 a9 79 be 3e ce 60 3e
       -0.011873453 -0.23874308 -0.24381173 0.21953675
000010 c0 b9 a5 3e e4 e5 b3 3e 73 da b7 3a e7 7c a1 3d
       0.32368279 0.3513633 0.0014026895 0.07885151
