Lightcode/single/lightcode/jsac_results/N_3_3_d_16_16/snr2_100/seed_101/weights/gbaf_fy/T_4/pow_1/100000/0.001/K_3_m_3_snr1_0.0/model_weights120000.pt (torch, 38786 bytes, 26 tensors)

Tmodel.fe1.FC1.weight f4 [32, 6]
-0.29947436 0.049103104 0.009057028 0.060424197 0.05230113 0.093530655 0.013373756 0.021436665
0.184303 -0.08863409 0.060952693 0.24302325 -0.030240603 0.2295864 0.16114254 -0.07504749
0.019440267 -0.01742287 -0.09086665 -0.039450936 -0.3354458 -0.12505731 -0.0726577 -0.025526626
0.14853486 0.083596975 5.3885633e-05 -0.11113603 -0.15856655 -0.00038826014 0.089720964 0.19498223
-0.17329039 -0.05841328 -0.051987246 -0.102530405 0.12454183 -0.12470179 -0.11670992 0.0020374765
-0.012842693 0.27779704 -0.0073998836 0.071450695 -0.20078179 0.22795466 0.07981683 0.024867147
0.112173654 0.044712637 0.17406064 0.062947094 0.10036549 -0.06330971 -0.14379552 -0.14673768
0.13355467 0.013287641 0.10400202 0.08916907 0.18861403 -0.20976761 0.0039517456 0.16204718
-0.0061100665 -0.047138534 0.14610316 -0.014148141 -0.2807754 0.018623864 0.049270798 -0.038185973
0.23386094 0.13734527 0.03202913 0.12446568 -0.07193449 -0.089774214 0.16330557 0.120681874
-0.023255503 0.016615473 0.1368561 0.12567393 -0.04891298 -0.14257653 -0.15764934 0.1385024
0.051210623 0.037952457 0.24044284 0.35709962 -0.218243 0.01266246 -0.045045853 0.01848588
-0.16424294 -0.2326678 -0.23498255 0.03238938 -0.038075946 0.029737568 -0.0056194277 -0.09857314
0.20282231 0.16423014 -0.09451599 -0.10211333 0.09034168 0.107108705 -0.017845467 0.038428985
0.036770158 -0.22141731 0.19795431 0.034101248 0.16923332 -0.13557252 -0.08268905 -0.08301967
0.04207713 -0.20019615 -0.19812009 0.00030197558 0.081558205 0.06546888 -0.07841511 -0.1255
-0.20374003 0.12293958 -0.002997534 -0.05055473 -0.0013880818 -0.062417306 0.09236457 -0.22108345
0.09407608 -0.03720726 0.0046674465 -0.07056219 -0.031895142 0.16123167 -0.19054966 -0.15484263
0.04081559 -0.29519254 -0.06039779 -0.14574035 0.024706503 -0.13457704 0.20641978 0.10189966
0.033192035 -0.19803464 -0.02469347 0.0066917664 0.16139631 0.0057218447 -0.16206077 0.004750925
0.008643488 -0.21352503 -0.19318734 0.046905536 0.31945282 0.15827133 0.09756796 0.074540615
0.102692105 0.092142254 -0.14047937 0.25469837 0.012017601 0.01222578 -0.051620524 0.29329294
0.31251463 0.00020666426 -0.057923373 -0.056231216 -0.122974746 0.15659975 0.025698632 0.118271984
-0.091663525 -0.09563709 -0.032707453 -0.17437014 0.17436853 -0.1658872 -0.16141467 -0.0067625204
00000000: b454 99be 5620 493d ee63 143c 5d7f 773d
00000010: b639 563d 008d bf3d 991d 5b3c f29b af3c
00000020: edb9 3c3e ca85 b5bd 88a9 793d 16db 783e
00000030: 24bb f7bc b218 6b3e 8d02 253e 80b2 99bd
00000040: 3241 9f3c 68ba 8ebc 4b18 babd 4e97 21bd
00000050: 8dbf abbe 060f 00be 8fcd 94bd 371d d1bc
00000060: 8619 183e e434 ab3d 4203 6238 499b e3bd
00000070: 455f 22be 658f cbb9 a0bf b73d 6ca9 473e
00000080: 0973 31be c342 6fbd 94f0 54bd 76fb d1bd
00000090: c90f ff3d a763 ffbd 9c05 efbd 2f87 053b
000000a0: 296a 52bc 6a3b 8e3e b97a f2bb be54 923d
000000b0: be99 4dbe f26c 693e 0277 a33d 30b6 cb3c
000000c0: 4dbb e53d 9924 373d f43c 323e 68ea 803d
000000d0: 6c8c cd3d 85a8 81bd 223f 13be 6742 16be
000000e0: 8ec2 083e 68b4 593c 03ff d43d 469e b63d
000000f0: 0924 413e 52cd 56be a57d 813b b2ef 253e
00000100: f436 c8bb 5614 41bd 119c 153e 9bcd 67bc
00000110: cbc1 8fbe 1391 983c 2dd0 493d e568 1cbd
00000120: 3e79 6f3e 3da4 0c3e fa30 033d dde7 fe3d
00000130: 6452 93bd 8bdb b7bd 9339 273e 0f28 f73d
00000140: 5382 bebc 2c1d 883c 0124 0c3e abb0 003e
00000150: fa58 48bd 95ff 11be d46e 21be 93d3 0d3e
00000160: 3bc2 513d 0974 1b3d a636 763e c3d5 b63e
00000170: 187b 5fbe 3576 4f3c 0082 38bd b36f 973c
00000180: 4d2f 28be 7840 6ebe 449f 70be baaa 043d
00000190: 86f5 1bbd 339c f33c 2d23 b8bb b7e0 c9bd
000001a0: a7b0 4f3e f22b 283e 9991 c1bd cb20 d1bd
000001b0: 0f05 b93d cf5b db3d a830 92bc b667 1d3d
000001c0: 4e9c 163d 38bb 62be 89b4 4a3e c0ad 0b3d
000001d0: 804b 2d3e 86d3 0abe e058 a9bd 3706 aabd
000001e0: 1259 2c3d 3800 4dbe fedf 4abe 7a52 9e39
000001f0: fd07 a73d 8c14 863d 1a98 a0bd 1283 00be
00000200: 3aa1 50be bfc7 fb3d 4672 44bb 7a12 4fbd
00000210: 4cf0 b5ba 4aa9 7fbd a329 bd3d b363 62be
00000220: f6aa c03d a466 18bd 61f1 983b e982 90bd
00000230: 7ba4 02bd ea19 253e 731f 43be 118f 1ebe
00000240: 402e 273d 7a23 97be ac63 77bd f53c 15be
00000250: 4b65 ca3c 90ce 09be b55f 533e c5b0 d03d
00000260: 5ff4 073d 98c9 4abe f649 cabc 9b46 db3b
00000270: 1345 253e 507e bb3b 42f3 25be a6ad 9b3b
00000280: 6b9d 0d3c 4ea6 5abe e7d2 45be 0520 403d
00000290: 528f a33e e111 223e b6d1 c73d c0a8 983d
000002a0: 3d50 d23d 14b5 bc3d d3d9 0fbe d367 823e
000002b0: 79e5 443c a34e 483c 0b70 53bd 7e2a 963e
000002c0: eb01 a03e 04b4 5839 0f41 6dbd b452 66bd
000002d0: 2fda fbbd af5b 203e f085 d23c 9538 f23d
000002e0: 16ba bbbd 61dd c3bd 40f8 05bd 168e 32be
000002f0: aa8d 323e 56de 29be e349 25be 2298 ddbb

Tmodel.fe1.FC1.bias f4 [32]
0.07781193 -0.19287488 0.09805028 -0.1223658 -0.06493675 -0.07535613 0.12769443 0.13708632
0.15966009 -0.13086905 -0.0070553515 0.12026759 0.17483664 -0.03636162 0.17057076 -0.1301431
-0.15777142 -0.13992436 0.0002840648 0.0774451 0.03924089 -0.00019855867 -0.057031233 0.13137121
-0.06478237 0.04347674 -0.0052212244 -0.2627347 -0.15229689 -0.06851031 0.069853544 -0.033092722
00000000: dc5b 9f3d fe80 45be 96ce c83d ec9a fabd
00000010: 8ffd 84bd 5154 9abd 54c2 023e 5b60 0c3e
00000020: ef7d 233e 8902 06be 9430 e7bb db4e f63d
00000030: 6008 333e ecef 14bd 1aaa 2e3e 3c44 05be
00000040: d58e 21be 5548 0fbe 88ee 9439 899b 9e3d
00000050: 0ebb 203d 3034 50b9 9599 69bd 2d86 063e
00000060: 9fac 84bd ab14 323d ce16 abbb 2a85 86be
00000070: b7f3 1bbe 224f 8cbd 600f 8f3d 3c8c 07bd

Tmodel.fe1.FC2.weight f4 [32, 32]
-0.23630758 -0.049049463 0.025003666 -0.049356382 -0.004476028 -0.029658113 0.15336694 -0.12874962
0.012246648 -0.0028324805 0.061963502 0.10379925 0.052465964 0.00626137 0.118588835 0.1328467
0.1326113 0.04307557 0.07625877 0.01684013 0.10526226 -0.0964695 -0.08198295 -0.050438788
-0.18637484 0.094396725 -0.036226634 -0.08806851 0.0029965118 -0.019404363 -0.084368505 0.058087964
-0.11768502 0.15313412 0.06338422 0.070279956 -0.25362825 0.080370955 0.047933277 -0.08741014
0.052492406 0.14197093 -0.15958191 -0.13491213 0.12978375 -0.083212964 0.11145329 -0.017370263
-0.13346364 -0.09636695 0.08079505 0.025595969 -0.11508977 0.07498526 -0.3446622 0.16271928
-0.3328428 0.14451003 -0.13602433 -0.26930636 0.0651459 0.13072269 0.08754709 -0.01063283
0.010115053 -0.039399147 -0.0034487655 -0.2934024 -0.040167995 -0.020295171 0.032947376 0.12677637
-0.02449646 -0.0147498185 0.025727589 0.1954308 0.12764832 0.052829176 0.0052742036 0.08859542
-0.22355916 -0.032829866 -0.12836422 0.02416567 0.06198795 -0.007298195 -0.1543253 -0.051425777
-0.07794618 -0.025875235 0.042262696 -0.32633835 0.014964045 0.06647672 -0.085436545 -0.10266961
0.013457329 0.04083912 -0.116773546 0.17465748 -0.010729072 -0.08082081 -0.073796734 0.003310364
-0.105265684 -0.0068024145 0.009916552 0.10872448 0.046852764 0.025420774 0.06596213 0.13372691
0.028037658 0.11638346 -0.035027537 -0.12503944 0.053204585 0.00638134 0.08952852 0.053315967
0.1767423 -0.10130976 0.069056824 -0.18751876 0.027757194 -0.4007777 -0.08944292 0.16678466
0.14698331 0.11769439 -0.013732647 -0.04289658 -0.124317385 0.11940623 -0.05827055 0.15420191
0.06480471 0.062786825 0.20542407 -0.12994756 -0.15908992 -0.13103004 0.06634266 -0.8718013
-0.5579478 -0.17679709 0.03307057 0.026520096 -0.16019784 -0.14313953 -0.067081206 -0.25513113
-0.002488488 0.21329439 -0.044251166 0.016998848 -0.0632392 -0.18802987 0.015847325 -0.10441902
0.12748416 -0.075544566 0.049543865 0.107869074 0.15375964 0.090328746 -0.1341105 0.02264807
0.14243597 0.24106841 -0.068069465 0.03571384 -0.067663096 -0.08586153 0.11113969 -0.13014774
0.06343502 -0.031203719 0.069598585 0.093084686 0.09056172 0.0084014125 -0.21831985 -0.007084626
0.110013835 -0.08154728 0.058955044 0.21524788 0.04360452 0.03660806 -0.08170987 -0.061743863
-0.028637655 0.008625954 0.04636939 -0.14127399 0.11902774 -0.36151338 -0.012597344 0.07495286
0.08264882 -0.08223967 0.077686444 -0.35769725 0.0037720557 0.049467254 -0.0771717 0.05817028
-0.16634578 -0.17123826 -0.059527736 0.0031306571 -0.32828212 0.3655727 0.038324647 -0.025275486
0.16063212 -0.27433413 -0.016847404 0.11651621 -0.004655522 -0.10335865 -0.06271612 0.021479856
0.060362622 0.00032656567 -0.033830766 -0.18143496 0.008000235 0.017586898 0.11486996 -0.28422263
0.073318355 -0.041102074 -0.068924844 -0.09148122 -0.06753025 -0.26102036 0.049913913 -0.5328168
0.16783339 -0.17331196 -0.16587315 0.1299937 0.1294602 0.06136088 0.1238077 0.11087798
0.02275665 0.031178638 0.00961934 -0.25197533 0.3429287 0.029325848 0.14628178 0.00018014135
00000000: 9dfa 71be 17e8 48bd 7dd4 cc3c eb29 4abd
00000010: a5ab 92bb 92f5 f2bc 390c 1d3e f1d6 03be
00000020: 2aa6 483c 23a1 39bb 71cd 7d3d b494 d43d
00000030: 8de6 563d 2e2c cd3b b4de f23d f708 083e
00000040: 42cb 073e 0270 303d 8f2d 9c3d 50f4 893c
00000050: bd93 d73d cd91 c5bd ade6 a7bd e798 4ebd
00000060: 0cd9 3ebe 1253 c13d 6162 14bd 435d b4bd
00000070: 2061 443b e6f5 9ebc 65c9 acbd a5ed 6d3d
00000080: d804 f1bd 31cf 1c3e 96cf 813d f0ee 8f3d
00000090: 90db 81be 8799 a43d af55 443d 1604 b3bd
000000a0: 4702 573d d460 113e 7169 23be 6826 0abe
000000b0: 08e6 043e 8f6b aabd 9f41 e43d 154c 8ebc
000000c0: b1aa 08be 095c c5bd e077 a53d a3ae d13c
000000d0: 2fb4 ebbd df91 993d 9077 b0be e29f 263e
000000e0: 5f6a aabe 70fa 133e f649 0bbe 86e2 89be
000000f0: 376b 853d 2bdc 053e e44b b33d 5235 2ebc
00000100: 9bb9 253c 0061 21bd af04 62bb d738 96be
00000110: 3287 24bd 0f42 a6bc d4f3 063d aad1 013e
00000120: cdac c8bc 39a9 71bc aac2 d23c 031f 483e
00000130: 3eb6 023e 6863 583d 3ad3 ac3b 8471 b53d
00000140: b1ec 64be 9c78 06bd e971 03be 15f7 c53c
00000150: 14e7 7d3d b225 efbb 7407 1ebe d6a3 52bd
00000160: 3fa2 9fbd 4df8 d3bc a61b 2d3d d215 a7be
00000170: c12b 753c f224 883d 5bf9 aebd 7244 d2bd
00000180: 217c 5c3c ec46 273d f826 efbd 69d9 323e
00000190: fdc8 2fbc 6185 a5bd be22 97bd b1f2 583b
000001a0: 8995 d7bd cae6 debb 0979 223c f1aa de3d
000001b0: afe8 3f3d 3a3f d03c 2717 873d b5ef 083e
000001c0: 3baf e53c 745a ee3d 0979 0fbd 570a 00be
000001d0: 0ded 593d 8f1a d13b bb5a b73d d861 5a3d
000001e0: effb 343e 7e7b cfbd aa6d 8d3d eb04 40be
000001f0: 0e63 e33c bc32 cdbe da2d b7bd 99c9 2a3e
00000200: cb82 163e c209 f13d e5fe 60bc 53b4 2fbd
00000210: 1d9a febd 418b f43d 1aad 6ebd 1be7 1d3e
00000220: 55b8 843d 6196 803d b05a 523e f910 05be
00000230: 78e8 22be bd2c 06be a9de 873d 5f2e 5fbf
00000240: abd5 0ebf 4c0a 35be 0275 073d ac40 d93c
00000250: e70a 24be 2b93 12be df61 89bd 8ca0 82be
00000260: e715 23bb d869 5a3e b640 35bd 2b41 8b3c
00000270: 8e83 81bd e78a 40be 40d2 813c a4d9 d5bd
00000280: 358b 023e 1cb7 9abd 82ee 4a3d 76ea dc3d
00000290: 2b73 1d3e 47fe b83d 4354 09be 7288 b93c
000002a0: bcda 113e a3da 763e 0168 8bbd ad48 123d
000002b0: f392 8abd 2bd8 afbd 359d e33d 7345 05be
000002c0: 38ea 813d f19e ffbc b489 8e3d 2fa3 be3d
000002d0: 6c78 b93d 14a6 093c 3d8f 5fbe 2626 e8bb
000002e0: ef4e e13d 4302 a7bd d87a 713d f169 5c3e
000002f0: a79a 323d 55f2 153d 8157 a7bd 22e7 7cbd
00000300: 8499 eabc e053 0d3c d4ed 3d3d 21aa 10be
00000310: d1c4 f33d 4818 b9be 1765 4ebc e380 993d
00000320: c943 a93d 466d a8bd 121a 9f3d 1824 b7be
00000330: 9834 773b 2d9e 4a3d 320c 9ebd f643 6e3d
00000340: 8c56 2abe 1559 2fbe 5bd3 73bd b62b 4d3b
00000350: 9814 a8be 582c bb3e 4efa 1c3d 890e cfbc
00000360: bf7c 243e 8675 8cbe 9103 8abc 0da0 ee3d
00000370: 598d 98bb b3ad d3bd 4f71 80bd 86f6 af3c
00000380: cc3e 773d e736 ab39 2192 0abd 16ca 39be
00000390: 6b13 033c 6612 903c f140 eb3d a185 91be
000003a0: ef27 963d a65a 28bd 7828 8dbd 825a bbbd
000003b0: 4d4d 8abd 76a4 85be 8872 4c3d af66 08bf
000003c0: 84dc 2b3e b178 31be a7da 29be 121d 053e
000003d0: 3791 043e 8c55 7b3d e48e fd3d ff13 e33d
000003e0: 276c ba3c 586a ff3c 709a 1d3c e902 81be
000003f0: 5a94 af3e c33c f03c e4ca 153e 53e4 3c39

Tmodel.fe1.FC2.bias f4 [32]
-0.0020606073 -0.045377832 0.11638901 -0.061016668 0.020926204 0.03792005 0.013692713 -0.096714064
0.020697678 -0.014011035 0.056306083 0.06622065 0.0023672427 -0.079614356 0.15929219 -0.04164258
-0.04686132 0.060374226 0.039041337 -0.012433191 0.01666855 -0.03167931 0.051173765 -0.058570933
-0.04521151 -0.011709357 0.14760475 0.051203687 -0.048162963 0.012760298 0.058392428 0.081889085
00000000: 410b 07bb 1bde 39bd 5c5d ee3d 9dec 79bd
00000010: 6e6d ab3c 0e52 1b3d 6757 603c 0612 c6bd
00000020: 2d8e a93c 8a8e 65bc 35a1 663d b19e 873d
00000030: be23 1b3b da0c a3bd 7e1d 233e 6991 2abd
00000040: a8f1 3fbd f74a 773d cfe9 1f3d 95b4 4bbc
00000050: 7c8c 883c 2ac2 01bd 959b 513d 13e8 6fbd
00000060: b42f 39bd 9ad8 3fbc b325 173e f5ba 513d
00000070: 8746 45bd 9210 513c e62c 6f3d 77b5 a73d

Tmodel.fe1.FC3.weight f4 [32, 32]
0.108185954 -0.073371254 0.12863673 0.05305668 -0.041732594 0.21628058 -0.061364308 0.25881207
-0.037738405 0.007851034 -0.028400218 -0.087216884 0.15215357 0.097996585 -0.08539746 -0.26358917
0.20818025 -0.07262036 0.15816654 -0.08241954 0.0153084695 -0.089688756 -0.16873968 -0.006086328
0.08961708 -0.19363914 0.06279593 -0.0910636 0.12113223 0.053627193 0.04237497 -0.04513721
0.06603452 -0.055667024 0.028525282 0.12595485 0.20752211 -0.029210256 0.20016286 0.0051101227
-0.17925155 0.121474735 -0.10429005 0.14877456 -0.1568586 0.09732908 0.017265799 -0.06509463
0.0672311 -0.16677003 0.03150495 -0.14096807 0.087486595 0.19482006 0.07566904 -0.075801946
-0.3769962 0.18463483 0.04706391 -0.010267771 0.18522494 -0.23835245 0.00795005 0.19902281
0.06245685 -0.36208552 0.19785641 0.08767149 0.020744849 0.17703421 -0.10814662 0.38384345
0.10129093 0.15874834 -0.03128999 -0.14793214 0.14939283 -0.04341426 -0.15344124 -0.53962
-0.015539486 -0.21251668 0.11753531 -0.22245967 0.17978768 -0.122352146 -0.06438372 0.054296684
0.005990362 0.010790752 0.123447254 -0.044009853 0.08527956 -0.44738296 -0.07278372 -0.065461636
-0.057520192 -0.015205849 -0.1119175 -0.07679853 -0.21820533 0.15728734 -0.16469502 0.07760088
0.08816297 0.01831626 0.11017013 -0.022243455 -0.21516468 -0.044915598 0.06293823 -0.026181212
-0.09377091 0.17413667 -0.15891023 0.0005521594 -0.069660805 -0.060800128 0.025936272 -0.0071758935
0.10145761 0.1287536 0.13250348 0.09893649 -0.100405045 0.13704999 -0.021063767 -0.11242126
-0.058040895 0.12632306 -0.12000663 -0.015876256 -0.10751011 -0.0054530813 -0.07407716 -0.21574534
0.08104472 -0.056234613 -0.027358718 -0.12466672 0.025222715 -0.1283597 -0.0016321226 0.21904439
-0.048905574 0.15525739 -0.08499778 0.15300815 -0.03547855 -0.16712119 0.078331105 0.03916006
0.21003969 -0.040289342 -0.020772662 0.10077984 -0.17991868 0.20139788 -0.056285158 -0.05823397
0.0627442 -0.1480936 0.124260165 0.10567468 -0.013237098 -0.0379898 0.078131594 0.057907708
-0.046320356 0.006516136 -0.0920772 0.010267571 0.120781936 0.14502233 -0.016183132 -0.15178834
-0.020535564 -0.1235217 0.17486422 -0.096765704 0.054448407 0.071335375 -0.08600837 0.013458006
-0.12104389 -0.11139208 -0.021010293 -0.11397461 0.1696728 -0.09568757 0.107021935 0.086144954
-0.10357003 0.090961814 -0.04575832 -0.09909374 -0.09221215 -0.04610466 -0.09580483 -0.20333503
0.08279185 -0.0349603 0.0887901 -0.07050053 -0.1266286 -0.023501929 0.009304375 0.22542138
-0.004035353 0.11820723 -0.08037812 0.12410374 -0.0598305 -0.098534755 0.11885412 -0.059235886
0.14024088 0.044117987 -0.023379758 0.11461625 -0.042963833 0.14322355 -0.040072277 -0.06880645
-0.050837062 0.06882525 -0.12226514 -0.15141231 -0.19029114 0.018710686 -0.11875514 -0.16080448
0.100567535 -0.06619464 0.09977757 -0.090614006 0.036443442 -0.051057994 -0.022642987 0.11587637
-0.051837668 0.1176931 -0.14747727 0.06532873 -0.09351015 -0.12339836 0.09168123 0.056026466
0.22926445 0.084748484 -0.082316294 0.13165203 -0.14663337 0.05369549 -0.07054937 -0.04631114
00000000: 9990 dd3d ab43 96bd 59b9 033e f651 593d
00000010: ccef 2abd a878 5d3e 2459 7bbd 0483 843e
00000020: 9693 1abd a0a1 003c 93a7 e8bc c49e b2bd
00000030: 25ce 1b3e 6fb2 c83d dde4 aebd 29f5 86be
00000040: 342d 553e fcb9 94bd 69f6 213e 93cb a8bd
00000050: 60d0 7a3c bdae b7bd 18ca 2cbe d26f c7bb
00000060: 2989 b73d 5749 46be 279b 803d 8d7f babd
00000070: 2d14 f83d 30a8 5b3d 6091 2d3d cce1 38bd
00000080: 1b3d 873d 1b03 64bd daad e93c 4ffa 003e
00000090: ad80 543e 594a efbc 7ef7 4c3e d172 a73b
000000a0: b88d 37be bfc7 f83d 0696 d5bd 5c58 183e
000000b0: 8a9f 20be 7854 c73d 0171 8d3c 5550 85bd
000000c0: 75b0 893d c3c5 2abe 560b 013d ef59 10be
000000d0: 2c2c b33d e97e 473e 5ff8 9a3d 0d3e 9bbd
000000e0: a505 c1be ea10 3d3e 16c6 403d 273a 28bc
000000f0: 9bab 3d3e aa12 74be ed40 023c a3cc 4b3e
00000100: c1d2 7f3d 4663 b9be df9a 4a3e 1c8d b33d
00000110: 1af1 a93c 7548 353e fa7b ddbd 2187 c43e
00000120: 9e71 cf3d ed8e 223e ef29 00bd 867b 17be
00000130: 6ffa 183e 27d3 31bd b31f 1dbe 8924 0abf
00000140: 5499 7ebc f99d 59be 5ab6 f03d 78cc 63be
00000150: 431a 383e c393 fabd 9ddb 83bd 3366 5e3d
00000160: cc4a c43b b2cb 303c ead1 fc3d ad43 34bd
00000170: 0da7 ae3d 610f e5be a20f 95bd c010 86bd
00000180: 4b9a 6bbd f421 79bc 0135 e5bd 8c48 9dbd
00000190: 3871 5fbe ef0f 213e d0a5 28be 36ed 9e3d
000001a0: ca8e b43d fb0b 963c e1a0 e13d e837 b6bc
000001b0: 2154 5cbe 6bf9 37bd c2e5 803d fb79 d6bc
000001c0: f60a c0bd e250 323e 5db9 22be cabe 103a
000001d0: 53aa 8ebd 8e09 79bd 4e78 d43c c223 ebbb
000001e0: 02c9 cf3d fcd7 033e feae 073e 379f ca3d
000001f0: 29a1 cdbd d556 0c3e ec8d acbc 1e3d e6bd
00000200: 4abc 6dbd d55a 013e 09c6 f5bd ec0e 82bc
00000210: 432e dcbd c3af b2bb c4b5 97bd 59ec 5cbe
00000220: c6fa a53d 4456 66bd 641f e0bc 4451 ffbd
00000230: de9f ce3c ba70 03be f2ec d5ba 2c4d 603e
00000240: 3651 48bd cbfb 1e3e 5113 aebd 2bae 1c3e
00000250: f551 11bd d121 2bbe 0f6c a03d 4d66 203d
00000260: a514 573e 7006 25bd 6e2b aabc a965 ce3d
00000270: 9a3c 38be 3f3b 4e3e 448b 66bd be86 6ebd
00000280: 0880 803d d9a5 17be 1d7c fe3d f76b d83d
00000290: 6ae0 58bc 319b 1bbd 7503 a03d a230 6d3d
000002a0: 6aba 3dbd 5085 d53b f992 bcbd 5039 283c
000002b0: 855c f73d bc80 143e 7d92 84bc 676e 1bbe
000002c0: 333a a8bc f2f8 fcbd 9b0f 333e 192d c6bd
000002d0: 4b05 5f3d 4818 923d 2825 b0bd f87e 5c3c
000002e0: dce5 f7bd 8821 e4bd c71d acbc 856b e9bd
000002f0: b5be 2d3e d8f7 c3bd 512e db3d c46c b03d
00000300: 861c d4bd 304a ba3d 136d 3bbd a9f1 cabd
00000310: b9d9 bcbd 3dd8 3cbd 5335 c4bd 0f37 50be
00000320: c68e a93d 8832 0fbd 95d7 b53d 9562 90bd
00000330: edaa 01be 1e87 c0bc 6171 183c ddd4 663e
00000340: ff3a 84bb a216 f23d 499d a4bd 1a2a fe3d
00000350: d410 75bd 97cc c9bd ca69 f33d 54a1 72bd
00000360: 4e9b 0f3e 10b5 343d e886 bfbc edbb ea3d
00000370: d8fa 2fbd 32a9 123e d422 24bd 65ea 8cbd
00000380: 863a 50bd 41f4 8c3d 2566 fabd d40b 1bbe
00000390: aedb 42be 2747 993c e535 f3bd eea9 24be
000003a0: 5af6 cd3d 0e91 87bd 2f58 cc3d d693 b9bd
000003b0: b845 153d 3022 51bd c97d b9bc 9750 ed3d
000003c0: bc53 54bd 1409 f13d 4804 17be 12cb 853d
000003d0: 4082 bfbd 48b8 fcbd 5ec3 bb3d 027c 653d
000003e0: 4dc4 6a3e 9d90 ad3d 7295 a8bd cacf 063e
000003f0: 0f27 16be cdef 5b3d 307c 90bd c0b0 3dbd

Tmodel.fe1.FC3.bias f4 [32]
-0.042358663 -0.012151871 -0.068358734 -0.019886285 0.030461647 -0.03241562 0.030325549 0.042724002
-0.042218875 -0.054166924 0.06887085 0.047540918 0.010099081 -0.0031299305 0.026096184 0.08160448
-0.029114448 0.020268695 -0.09253483 -0.01797859 -0.08853737 -0.0073403916 -0.0026100834 -0.04592542
0.0022919732 0.05660342 0.021393582 -0.048429094 -0.014935575 0.025589986 -0.026382102 -0.07398772
00000000: 4780 2dbd a418 47bc aaff 8bbd 90e8 a2bc
00000010: b48a f93c 3ec6 04bd 496d f83c 5dff 2e3d
00000020: b3ed 2cbd 23de 5dbd 290c 8d3d 44ba 423d
00000030: 9e76 253c 851f 4dbb aac7 d53c 4020 a73d
00000040: 6c81 eebc 890a a63c e782 bdbd d647 93bc
00000050: 1553 b5bd ab87 f0bb ef0d 2bbb 4b1c 3cbd
00000060: ee34 163b fdd8 673d 9841 af3c 965d 46bd
00000070: 58b4 74bc 17a2 d13c 471f d8bc e086 97bd

Tmodel.fe1.FC4.weight f4 [16, 64]
0.4668075 -0.18714747 0.32560915 0.20340674 0.08319373 -0.034475666 -0.12438047 0.017936418
0.08748933 0.11074543 -0.14497341 0.15061763 -0.16787617 0.15503411 -0.24127838 -0.41759005
-0.21291049 0.23505567 0.12536447 -0.23266634 0.13694642 -0.089878455 -0.019265441 0.31417844
0.067774534 0.10134864 0.01533168 0.23554392 0.09855421 -0.23179206 -0.27265337 -0.015138207
0.01981328 0.042633314 -0.02051513 0.05254509 0.03076015 0.057725813 -0.01844868 0.0129193375
0.021573829 0.034845434 0.028317193 0.014580461 -0.04236558 0.017264642 0.027041735 0.035325773
0.047616564 0.0017546022 0.042194426 -0.04538536 0.01393752 0.06393317 -0.004150247 -0.024864439
0.0217597 -0.024015654 0.034937955 -0.053135213 -0.037577417 0.05218873 0.056227636 0.0547815
-0.48280844 0.7034426 -0.27164924 -0.62384874 -0.11105203 0.14136852 -0.025124539 -0.28790012
0.12518722 0.22076179 -0.076241955 -0.77440894 0.4804344 -0.13342218 0.13745427 0.5609527
0.4224148 -0.6865066 -0.01575418 -0.005497585 0.03505845 0.71398336 0.010296704 -0.9484912
-0.28129035 -0.19385953 -0.15890358 -0.2913411 -0.44781494 0.48134047 0.6756035 0.11297832
-0.12735885 0.0026224456 -0.058426645 0.13211945 -0.027896317 0.11629339 0.055949464 0.023010667
0.038265325 0.06309862 0.12557295 0.14149092 0.062208105 0.085469715 0.08169108 0.12234355
0.082812786 -0.055358753 0.10897773 -0.07871841 0.13254741 0.018269595 -0.008516402 -0.07450734
-0.07630374 0.047412947 0.021638356 -0.05189586 0.055865306 -0.13673957 -0.10994029 -0.15933868
0.29590005 -0.062681854 0.42886904 0.030782595 -0.14947931 0.19769764 -0.016824549 -0.22517435
0.31372204 0.22623457 -0.21010016 -0.3855209 -0.18300891 0.1790997 0.0026011951 -0.65842026
0.8887136 0.12493831 0.3855456 -0.04028531 0.46377277 0.00945791 0.27798435 0.3529681
0.010116527 -0.5100179 -0.19152182 -0.045780562 -0.047311626 -0.10627606 -0.609387 0.15495978
-0.025268964 -0.03849642 0.01095194 0.08259878 0.0248066 -0.012886641 0.072310194 0.04806865
-0.039462455 -0.056629326 0.023500565 0.036942843 0.06722639 -0.047852833 -0.0062740245 0.0018403291
-0.0060643028 -0.03851417 -0.08700632 -0.016680552 0.010649713 0.0773984 -0.01962304 0.07440603
0.020240469 0.0012716322 0.04702068 -0.042496767 0.0034403517 -0.06932863 0.029685814 -0.022707155
-0.17883214 -0.12642682 0.026791958 0.3092345 0.034199014 -0.048978187 0.07858369 0.2692767
0.32114875 0.06978859 0.13752247 0.18379883 -0.6504669 0.37307215 -0.09971182 -0.30426568
-0.47122666 -1.0309345 0.008471784 0.8318058 -0.08947446 -0.20368221 0.020858878 -0.19560538
0.6157876 -0.12897639 0.16612852 -0.5766797 0.13681525 -0.50847644 1.0521662 -0.12757704
-0.13097551 0.18162005 0.012795323 -0.031786803 0.039200652 0.018670624 -0.09865751 0.09154825
0.054075137 0.010217185 0.029597465 -0.09284403 0.1417869 0.13261281 -0.21779229 0.19063184
-0.085413925 -0.035186112 0.04584597 0.08471665 -0.13447529 -0.12577781 -0.034438394 -0.09192496
-0.13477063 0.10225424 0.008559618 0.03655693 0.1172645 0.14405955 0.15051724 -0.042276315
00000000: 6501 ef3e 96a3 3fbe 3eb6 a63e db49 503e
00000010: 7961 aa3d 5b36 0dbd 30bb febd 65ef 923c
00000020: 9b2d b33d 80ce e23d e973 14be 823b 1a3e
00000030: bbe7 2bbe 43c1 1e3e ae11 77be 5dce d5be
00000040: 3505 5abe 6fb2 703e 8b5f 003e 1640 6ebe
00000050: af3b 0c3e 3212 b8bd 8fd2 9dbc ffdb a03e
00000060: 60cd 8a3d e08f cf3d ba31 7b3c 6d32 713e
00000070: cad6 c93d e65a 6dbe 3999 8bbe 3e06 78bc
00000080: 764f a23c 45a0 2e3d 590f a8bc 8539 573d
00000090: b6fc fb3c e771 6c3d b021 97bc a1ab 533c
000000a0: 99bb b03c 16ba 0e3d 75f9 e73c e3e2 6e3c
000000b0: 8887 2dbd 946e 8d3c a186 dd3c c2b1 103d
000000c0: 9609 433d aefa e53a 10d4 2c3d 00e6 39bd
000000d0: 325a 643c 65ef 823d ccfe 87bb 82b0 cbbc
000000e0: 6641 b23c 7abc c4bc 1a1b 0f3d 4fa4 59bd
000000f0: c7ea 19bd dac3 553d f34e 663d 9162 603d
00000100: ab32 f7be d014 343f 9c15 8bbe 8db4 1fbf
00000110: 3f6f e3bd e9c2 103e fad1 cdbc a567 93be
00000120: 1431 003e 610f 623e be24 9cbd aa3f 46bf
00000130: 7ffb f53e d39f 08be d0c0 0c3e 999a 0f3f
00000140: c146 d83e e6be 2fbf e90e 81bc 1625 b4bb
00000150: 7399 0f3d 9dc7 363f 82b3 283c 52d0 72bf
00000160: 4a05 90be 1d83 46be 9fb7 22be a92a 95be
00000170: 0048 e5be 4272 f63e 5af4 2c3f 2d61 e73d
00000180: 5c6a 02be 56dd 2b3b c750 6fbd 524a 073e
00000190: d186 e4bc 3b2b ee3d 442b 653d de80 bc3c
000001a0: 1abc 1c3d d939 813d 3296 003e ffe2 103e
000001b0: edcd 7e3d bf0a af3d a74d a73d 418f fa3d
000001c0: c099 a93d dcbf 62bd b72f df3d 1e37 a1bd
000001d0: 82ba 073e 1eaa 953c 6188 0bbc 4e97 98bd
000001e0: 2345 9cbd 1434 423d ec42 b13c c190 54bd
000001f0: 05d3 643d 7505 0cbe 6028 e1bd ae29 23be
00000200: 3680 973e 585f 80bd b994 db3e c82b fc3c
00000210: 1b11 19be 4071 4a3e a3d3 89bc 1b94 66be
00000220: 2da0 a03e 09aa 673e 7f24 57be ff62 c5be
00000230: b066 3bbe e965 373e d078 2a3b 3b8e 28bf
00000240: bc82 633f a8df ff3d 3c66 c53e 3602 25bd
00000250: a073 ed3e 5af5 1a3c f753 8e3e 3cb8 b43e
00000260: cabf 253c 8890 02bf 4c1e 44be 6684 3bbd
00000270: d6c9 41bd 43a7 d9bd c900 1cbf c7ad 1e3e
00000280: dc00 cfbc 6cae 1dbd c46f 333c 8d29 a93d
00000290: 3637 cb3c 7d22 53bc 5e17 943d a2e3 443d
000002a0: 62a3 21bd 27f4 67bd 4284 c03c 6151 173d
000002b0: fdad 893d 5501 44bd 5596 cdbb 3337 f13a
000002c0: 0fb7 c6bb 09c1 1dbd 5f30 b2bd a7a5 88bc
000002d0: 227c 2e3c 0d83 9e3d 7fc0 a0bc 3062 983d
000002e0: 57cf a53c e5ac a63a c298 403d 1711 2ebd
000002f0: 8677 613b 2bfc 8dbd aa2f f33c 5b04 babc
00000300: c61f 37be 0876 01be cf7a db3c fc53 9e3e
00000310: 4414 0c3d 5a9d 48bd 7cf0 a03d a3de 893e
00000320: 9c6d a43e 52ed 8e3d b1d2 0c3e c335 3c3e
00000330: 0085 26bf 5003 bf3e b635 ccbd b6c8 9bbe
00000340: 9f44 f1be a9f5 83bf 3dcd 0a3c 3af1 543f
00000350: 633e b7bd 1292 50be 3de0 aa3c c74c 48be
00000360: 42a4 1d3f 6312 04be 981d 2a3e 48a1 13bf
00000370: 4c19 0c3e 832b 02bf 62ad 863f 8ea3 02be
00000380: 721e 06be 9bfa 393e 79a3 513c e132 02bd
00000390: dd90 203d 23f3 983c f30c cabd a67d bb3d
000003a0: e47d 5d3d fb65 273c 6276 f23c 0325 bebd
000003b0: 9630 113e a7cb 073e f104 5fbe fe34 433e
000003c0: 7fed aebd 501f 10bd fcc8 3b3d ec7f ad3d
000003d0: e4b3 09be e6cb 00be 460f 0dbd 2743 bcbd
000003e0: 5001 0abe ac6a d13d a43d 0c3c b8bc 153d
000003f0: 5f28 f03d 5984 133e 3121 1a3e ee29 2dbd

Tmodel.fe1.FC4.bias f4 [16]
0.005012248 0.029869929 -0.099832565 -0.02978492 0.004386915 0.0074817115 0.0031396819 -0.066540755
0.12377204 0.0030103624 0.029467255 -0.054239664 -0.03943284 0.011045099 0.108049296 0.016049135
00000000: c93d a43b c8b1 f43c 0475 ccbd 81ff f3bc
00000010: 1cc0 8f3b 2529 f53b 1fc3 4d3b 8546 88bd
00000020: 327c fd3d 8049 453b 5065 f13c 692a 5ebd
00000030: 5484 21bd 81f6 343c f348 dd3d 7a79 833c

Tmodel.norm1.weight f4 [16]
0.31585324 0.32829237 0.3903675 0.33894572 0.5082151 0.56339943 0.530163 0.43834355
0.3562797 0.37060356 0.3991903 0.36181575 0.36348224 0.47712877 -5.169345e-05 0.7208474
00000000: 84b7 a13e f015 a83e 40de c73e 4b8a ad3e
00000010: 631a 023f f23a 103f c3b8 073f 916e e03e
00000020: 4b6a b63e c0bf bd3e ac62 cc3e ea3f b93e
00000030: 581a ba3e 394a f43e 6bd1 58b8 7589 383f

Tmodel.norm1.bias f4 [16]
0.043724157 0.010340083 0.0315646 0.014083242 0.032950126 -0.056018442 -0.06891903 0.042395294
-0.04382453 -0.04616344 0.025822992 0.03630459 0.031326603 -0.04768919 -0.014334754 0.077833526
00000000: 1a18 333d 7469 293c e249 013d 66bd 663c
00000010: b6f6 063d 9873 65bd 6c25 8dbd b0a6 2d3d
00000020: 5a81 33bd e015 3dbd bd8a d33c 1fb4 143d
00000030: 5350 003d bd55 43bd 51dc 6abc 2f67 9f3d

Tmodel.out.weight f4 [1, 16]
-0.04162769 -0.018428689 -0.07030074 -0.022490332 -0.18005927 0.23580936 0.19252466 -0.10829556
0.022415645 0.057894684 -0.044413637 -0.051619425 -0.048301417 0.15266448 -0.00022306015 -0.3901651
00000000: cc81 2abd c3f7 96bc d6f9 8fbd a53d b8bc
00000010: 7561 38be 0278 713e 2f25 453e 10ca ddbd
00000020: 04a1 b73c fa22 6d3d 13eb 35bd e46e 53bd
00000030: b5d7 45bd 1454 1c3e 41e5 69b9 b8c3 c7be

Rmodel.fe1.FC1.weight f4 [32, 4]
0.052174836 -0.05659542 -0.07338878 0.09913476 0.07429048 -0.09759231 0.19381125 0.098346844
-0.3590577 -0.060383137 -0.038529012 -0.018557033 0.07969669 -0.1654812 0.12476071 0.036965452
0.031461563 0.013942502 0.06571047 -0.067269355 0.06493335 -0.16115256 -0.15408972 -0.09168005
0.22682987 -0.1459313 0.041608658 0.03385822 0.18628837 -0.1889595 -0.13325472 -0.0858217
0.14580302 -0.13864072 0.033007834 0.07906923 -0.2665515 -0.042585764 -0.016832551 -0.007849905
0.22939849 -0.052128006 -0.068666995 -0.06979675 0.2515154 -0.12434806 -0.037278317 -0.028282296
0.14199279 0.06984872 0.06482737 -0.057883795 -0.16269156 -0.23442914 -0.16621028 -0.06348011
0.11859882 0.16662586 -0.09122361 -0.07467796 -0.22326924 0.11930883 0.10386299 0.08406026
-0.14952263 -0.17065486 0.065963745 0.014759711 -0.14967234 -0.21197912 -0.12443637 -0.08574955
0.016302824 -0.055350956 -0.083587125 0.0943565 0.15146035 0.11803597 -0.085243896 0.058665447
-0.1490227 0.109628506 0.08254247 -0.05268401 -0.016400216 -0.05568541 0.117725834 0.014374321
-0.120122135 -0.08374973 -0.10059674 -0.080109425 0.26649913 0.19042978 0.12195793 0.06738298
0.15789083 0.10465652 0.048187155 0.025389586 0.27305907 -0.12310312 -0.096751496 -0.06314069
0.29768643 -0.010247601 -0.09036386 -0.023464674 -0.25751153 0.15455733 -0.024793262 0.0054551847
-0.001031771 0.22546184 0.04506646 0.0047133537 0.37270573 0.27309418 0.19180755 0.100526094
-0.18266079 -0.22391807 0.008322199 0.027949128 0.022030018 -0.071599804 0.10614301 -0.057648573
00000000: 48b5 553d 99d0 67bd db4c 96bd 2a07 cb3d
00000010: 9b25 983d 7ade c7bd 7576 463e 126a c93d
00000020: 69d6 b7be 4f54 77bd 99d0 1dbd eb04 98bc
00000030: 0538 a33d e773 29be 8b82 ff3d 1669 173d
00000040: d7dd 003d 186f 643c 3693 863d 84c4 89bd
00000050: c7fb 843d 2d05 25be b2c9 1dbe c0c2 bbbd
00000060: 1746 683e 046f 15be d76d 2a3d ebae 0a3d
00000070: 61c2 3e3e 997e 41be ed73 08be 4ac3 afbd
00000080: 634d 153e d5f7 0dbe 3933 073d 0cef a13d
00000090: 7079 88be 696e 2ebd 6be4 89bc e39c 00bc
000000a0: 70e7 6a3e 2d84 55bd 48a1 8cbd 99f1 8ebd
000000b0: a0c6 803e 32aa febd 26b1 18bd 46b0 e7bc
000000c0: 8f66 113e d90c 8f3d 36c4 843d 8f17 6dbd
000000d0: 9e98 26be 310e 70be 0733 2abe dc01 82bd
000000e0: f0e3 f23d f89f 2a3e 72d3 babd c2f0 98bd
000000f0: b1a0 64be 3058 f43d 1fb6 d43d c927 ac3d
00000100: 761c 19be 26c0 2ebe 0018 873d b7d2 713c
00000110: b543 19be 0e11 59be 7fd8 febd 769d afbd
00000120: 808d 853c afb7 62bd ba2f abbd fb3d c13d
00000130: 6c18 1b3e d8bc f13d 5a94 aebd 2e4b 703d
00000140: 6899 18be e984 e03d 070c a93d 30cb 57bd
00000150: bf59 86bc 6216 64bd 3e1a f13d 4682 6b3c
00000160: 9802 f6bd fa84 abbd aa05 cebd 6910 a4bd
00000170: 9372 883e 0600 433e 14c5 f93d 1600 8a3d
00000180: 22ae 213e 2856 d63d e55f 453d d2fd cf3c
00000190: 66ce 8b3e 7d1d fcbd a625 c6bd e84f 81bd
000001a0: 5b6a 983e 8ee5 27bc b010 b9bd fd38 c0bc
000001b0: 8dd8 83be 4744 1e3e 3d1b cbbc 68c1 b23b
000001c0: 7d3c 87ba 78df 663e 9c97 383d 7a72 9a3b
000001d0: 49d3 be3e 00d3 8b3e 3369 443e a0e0 cd3d
000001e0: 6e0b 3bbe c74a 65be d559 083c 92f5 e43c
000001f0: 4c78 b43c eba2 92bd 8261 d93d e920 6cbd

Rmodel.fe1.FC1.bias f4 [32]
0.12387542 0.06805347 -0.1870035 0.0125458455 -0.17203377 0.22194384 -0.15019621 -0.13544609
0.07951561 0.27199802 -0.1982095 -0.11487448 -0.013801335 0.1310831 0.1618618 0.02283037
0.1143377 -0.29353625 -0.09846232 -0.004706955 -0.025184836 -0.12370964 0.29159507 0.19711836
-0.22631672 0.15126584 -0.016425207 -0.004680433 -0.17288527 -0.03542975 0.013956854 -0.0029134057
00000000: 65b2 fd3d 9e5f 8b3d d87d 3fbe 178d 4d3c
00000010: 9f29 30be 3f45 633e 09cd 19be 61b2 0abe
00000020: 15d9 a23d 5343 8b3e 6ef7 4abe 5043 ebbd
00000030: ff1e 62bc a63a 063e 1abf 253e c206 bb3c
00000040: e229 ea3d 624a 96be 9da6 c9bd cd3c 9abb
00000050: 6e50 cebc 7b5b fdbd f34b 953e 65d9 493e
00000060: 92bf 67be 6fe5 1a3e 288e 86bc 515e 99bb
00000070: d608 31be c91e 11bd 4aab 643c d6ee 3ebb

Rmodel.fe1.FC2.weight f4 [32, 32]
-0.022731917 0.032491684 0.06906301 -0.20834784 -0.3106771 0.0019631633 0.1612358 0.035239197
0.12206268 0.011161453 -0.005918666 0.039362755 -0.014451449 0.040565506 -0.1228264 -0.06544098
-0.2284905 -0.44831967 0.024751171 0.061681036 -0.15581357 0.16277625 -0.005632028 0.080184385
0.18153805 0.04935211 0.0028029697 -0.08521336 0.3040973 0.2944681 0.06342888 0.019022847
0.025847273 0.034916405 0.37489378 0.03512651 0.3456824 -0.15171774 -0.04625827 0.11511141
-0.011016811 -0.23683168 -0.1699372 -0.17099054 -0.026322955 -0.2242958 0.10804916 0.042155143
0.005035466 -0.0961207 0.005064383 -0.032466013 0.011152859 -0.16514604 -0.095760904 0.12261594
0.48153153 -0.0026745747 0.09633574 -0.11715304 0.069569975 0.16464812 -0.0239376 -0.038842786
-0.13989842 -0.017119087 -0.25440115 -0.15313251 0.0017099968 -0.003663896 0.33955473 0.014544523
-0.013432354 -0.5127251 -0.28297463 0.20575309 0.054325256 -0.37744558 0.016104486 0.048638485
-0.015325012 0.12803958 0.04205192 0.14236674 0.16684619 -0.047007743 0.0751425 0.10758489
-0.07330507 0.041890632 0.1791942 0.049175683 0.06690953 0.17256607 -0.06062768 0.004634812
0.19286077 -0.00094743 -0.3458711 0.13178542 -0.09460864 0.035793144 0.09243825 -0.026347965
0.0053083585 0.08833813 -0.2098167 -0.008698114 0.12239104 0.052561108 0.11928423 -0.027295869
0.01829627 0.21873929 0.11636185 0.17414881 -0.21017072 -0.47964486 -0.26748803 -0.03399062
0.36283365 0.016589446 0.016779087 0.11076914 -0.001960065 0.002695598 0.1355609 0.065502495
0.09458961 -0.11065221 0.301687 0.18806566 -0.03414961 0.1133103 -0.005484038 0.10933823
-0.03522678 0.12039015 0.4794072 -0.06377333 -0.012144155 -0.053225167 0.01975788 -0.05861997
-0.06296405 -0.028164906 -0.038286973 0.011457807 0.113327734 -0.068783134 -0.11051659 0.08538662
-0.095966905 -0.2524208 0.03159985 -0.2908691 -0.3322711 0.12315834 0.05442937 0.05520605
-0.014764988 -0.029158304 0.3008014 -0.04866165 0.011939181 -0.14916539 0.0061542382 -0.115300566
0.027992295 0.05295508 0.12559623 0.09306952 0.09725601 0.09307442 -0.03892927 -0.09841014
-0.0005781468 0.11559141 -0.06306644 -0.017755423 0.09319756 -0.011172422 -0.06828176 0.12031074
-0.5401124 -0.01193649 0.06259999 -0.043972317 -0.10016049 0.115864515 0.0054360856 0.11889024
-0.017650025 -0.05984682 -0.3323791 0.0003307914 0.0663352 0.089914806 -0.06318041 -0.014248477
0.06748392 -0.18538798 -0.0066965693 0.34559882 0.07162894 -0.28619978 -0.041916467 0.033365045
0.32541543 -0.34612346 -0.14217758 0.084043324 0.0010412692 -0.49782622 -0.045095805 0.11022058
-0.37419653 -0.12633406 -0.04091697 0.07488916 -0.042192597 -0.16466129 -0.26052588 0.02920323
0.027050134 -0.22187589 -0.037634563 -0.19811843 -0.11045741 0.05291816 0.080593556 -0.061715756
0.1239405 0.15643585 0.3312623 -0.2129316 0.12620318 0.07662337 -0.24489813 -0.013959889
0.06689436 0.07351368 -0.010449373 -0.054407064 -0.22016698 0.18935466 0.12454931 0.047407415
0.032538116 -0.08738449 -0.18008867 -0.14773618 0.15182833 -0.2920702 0.025117379 -0.12198931
00000000: 4938 babc 0016 053d e870 8d3d 2359 55be
00000010: 1211 9fbe 6aa8 003b ff1a 253e fa56 103d
00000020: 00fc f93d 87de 363c 5ef1 c1bb d73a 213d
00000030: c5c5 6cbc 0428 263d 688c fbbd ec05 86bd
00000040: 6af9 69be 288a e5be f8c2 ca3c 41a5 7c3d
00000050: 988d 1fbe d1ae 263e e08c b8bb b637 a43d
00000060: 1ce5 393e 7025 4a3d 07b2 373b 5884 aebd
00000070: a4b2 9b3e 86c4 963e 00e7 813d cdd5 9b3c
00000080: a9bd d33c 8104 0f3d 14f2 bf3e d1e0 0f3d
00000090: 49fd b03e e55b 1bbe 5079 3dbd 88bf eb3d
000000a0: db7f 34bc 0184 72be 0404 2ebe 2518 2fbe
000000b0: 3da3 d7bc ccad 65be e148 dd3d dfaa 2c3d
000000c0: 8d00 a53b eeda c4bd 20f3 a53b 15fb 04bd
000000d0: 7bba 363c 0b1c 29be 4b1e c4bd 111e fb3d
000000e0: 4d8b f63e eb47 2fbb ac4b c53d efed efbd
000000f0: b47a 8e3d 8499 283e c918 c4bc 9d19 1fbd
00000100: 8841 0fbe 543d 8cbc de40 82be c5ce 1cbe
00000110: f921 e03a f91d 70bb 1eda ad3e 274c 6e3c
00000120: 6013 5cbc f441 03bf 0de2 90be f0b0 523e
00000130: 2984 5e3d 8c40 c1be 8eed 833c 2639 473d
00000140: c215 7bbc cf1c 033e a23e 2c3d 96c8 113e
00000150: bad9 2a3e 318b 40bd 50e4 993d 7855 dc3d
00000160: f820 96bd 8395 2b3d af7e 373e 716c 493d
00000170: dd07 893d 29b5 303e bb54 78bd 9fdf 973b
00000180: 4b7d 453e f35c 78ba 0416 b1be c2f2 063e
00000190: 2dc2 c1bd d59b 123d 4450 bd3d b0d7 d7bc
000001a0: bdf1 ad3b 9fea b43d 30da 56be 8982 0ebc
000001b0: 27a8 fa3d 514a 573d 4a4b f43d 969b dfbc
000001c0: 0fe2 953c 31fd 5f3e 1f4f ee3d 1154 323e
000001d0: fe36 57be 0394 f5be 31f4 88be c039 0bbd
000001e0: 55c5 b93e 97e6 873c 4c74 893c eeda e23d
000001f0: 6f74 00bb a1a8 303b 7ad0 0a3e 2c26 863d
00000200: 33b8 c13d a09d e2bd b876 9a3e 4994 403e
00000210: 76e0 0bbd 3b0f e83d 72b3 b3bb b9ec df3d
00000220: f549 10bd 1c8f f63d dc74 f53e 979b 82bd
00000230: 47f8 46bc a202 5abd 47db a13c 7e1b 70bd
00000240: 4cf3 80bd 17ba e6bc cdd2 1cbd 87b9 3b3c
00000250: 5f18 e83d 2cde 8cbd 8656 e2bd 2edf ae3d
00000260: 4c8a c4bd 4d3d 81be d86e 013d cbec 94be
00000270: 701f aabe 713a fc3d 55f1 5e3d bd1f 623d
00000280: d9e8 71bc 65dd eebc a402 9a3e 7051 47bd
00000290: 8e9c 433c d0be 18be 7ea9 c93b b422 ecbd
000002a0: 1950 e53c 6de7 583d 4c9c 003e 3c9b be3d
000002b0: 292e c73d cd9d be3d 4c74 1fbd 418b c9bd
000002c0: c68e 17ba 30bb ec3d fa28 81bd d273 91bc
000002d0: 5dde be3d 890c 37bc 4fd7 8bbd 7a65 f63d
000002e0: ce44 0abf 4591 43bc 6c34 803d 511c 34bd
000002f0: f120 cdbd 604a ed3d 3121 b23b ba7c f33d
00000300: c996 90bc f021 75bd 982d aabe 126e ad39
00000310: c0da 873d 4125 b83d bb64 81bd 7272 69bc
00000320: 0235 8a3d 59d6 3dbe e56e dbbb 54f2 b03e
00000330: 32b2 923d c788 92be 9ab0 2bbd c9a9 083d
00000340: da9c a63e 1837 b1be 0097 11be e81e ac3d
00000350: 327b 883a 14e3 febe 61b6 38bd 54bb e13d
00000360: b096 bfbe b75d 01be 8e98 27bd 7d5f 993d
00000370: 25d2 2cbd f89c 28be a663 85be 9d3b ef3c
00000380: 3e98 dd3c 6f33 63be b326 1abd 8fdf 4abe
00000390: 7f37 e2bd b6c0 583d 3c0e a53d a9c9 7cbd
000003a0: 84d4 fd3d b830 203e 369b a93e be0a 5abe
000003b0: 683b 013e b7ec 9c3d 93c6 7abe 05b8 64bc
000003c0: e9ff 883d 578e 963d d933 2bbc f1d9 5ebd
000003d0: 7473 61be 30e6 413e b513 ff3d 472e 423d
000003e0: b046 053d a4f6 b2bd 2a69 38be 2748 17be
000003f0: e378 1b3e 3a8a 95be f6c2 cd3c 88d5 f9bd

Rmodel.fe1.FC2.bias f4 [32]
0.052609198 -0.11966958 -0.03224329 -0.07652929 -0.10991882 0.029151404 0.22323972 0.10427209
-0.23081042 -0.00574521 -0.13890795 -0.03636333 0.058735214 0.100753225 -0.15315613 0.047974225
-0.15689892 -0.16281846 0.032971296 0.004078169 -0.012234382 0.20211165 -0.053786635 0.10672067
-0.13120712 0.09486965 0.0023739622 0.04013117 0.06420246 -0.035091836 -0.1429567 0.20314805
00000000: be7c 573d 5315 f5bd 8a11 04bd 63bb 9cbd
00000010: 1e1d e1bd edce ee3c f498 643e 9b8c d53d
00000020: 9159 6cbe 5142 bcbb e33d 0ebe b7f1 14bd
00000030: 5694 703d b557 ce3d f6d4 1cbe 9f80 443d
00000040: 1caa 20be e2b9 26be e90c 073d 29a2 853b
00000050: b872 48bc 5bf6 4e3e 604f 5cbd 5e90 da3d
00000060: 295b 06be 054b c23d 7a94 1b3b 9560 243d
00000070: 947c 833d 75bc 0fbd 3e63 12be 0b06 503e

Rmodel.fe1.FC3.weight f4 [32, 32]
-0.10702643 0.032357104 -0.05917092 -0.014722148 -0.112487905 -0.057928823 0.120318696 -0.06587936
0.15955476 -0.019483732 0.06597098 -0.023004243 -0.25345355 -0.17437519 0.09280629 0.11280368
-0.24019289 0.5204778 -0.16787161 0.0072686127 -0.02356421 -0.073581845 -0.038517397 0.015576635
-0.23377696 -0.056828078 0.02571811 0.110607505 -0.033920817 -0.02191087 -0.3649444 -0.11419636
0.2255896 0.061367545 -0.003121363 0.06640318 -0.38260385 0.10497497 0.028654188 -0.029983416
-0.060186945 0.21506867 -0.01230033 -0.16868907 0.050112985 -0.09609181 0.5767112 0.16132113
0.13143305 -0.00923787 0.13974908 0.09865935 -0.24842718 0.07535015 0.02291279 -0.05302756
-0.04146482 -0.06237947 -0.05525775 -0.18937984 0.27491874 0.11171708 -0.4278194 0.2893631
-0.18704699 -0.05849292 -0.120167285 -0.021307861 -0.020059673 -0.07517479 0.0046107695 -0.024215065
0.25909826 -0.037235294 -0.21472202 0.07129179 -0.10257097 -0.06677131 0.21247366 0.06267397
-0.22111738 0.6063754 -0.20690042 -0.038946334 -0.07491066 0.0922779 -0.00061256316 0.13393424
-0.37187332 -0.01553618 -0.034911864 0.13021994 -0.04547304 0.14219345 0.0849299 0.008751932
0.02172544 -0.018457828 0.35604212 0.00012471208 -0.50874096 0.1280254 -0.40451857 0.02245257
0.24076684 0.26079434 0.12857133 -0.40755707 0.12766503 0.0074911388 0.106566526 0.14599304
-0.3584082 -0.1666026 0.1736988 0.02608633 0.14206022 -0.22716318 -0.08811001 0.013040159
-0.110750705 -0.31856814 -0.006039458 -0.17809922 0.06101528 -0.11800539 -0.15085705 0.06471274
-0.14350274 -0.09215776 0.20667514 0.038346115 -0.17110918 0.10184179 -0.09738006 0.081354305
0.02180629 0.043254603 -0.333699 -0.1420929 0.2108389 0.049798895 -0.20361264 -0.12725604
-0.01966241 -0.05974475 -0.121993035 -0.19457752 0.048073553 0.09877058 -0.020676283 -0.02943307
0.1132439 0.13355166 0.03392401 -0.016271455 -0.14782651 -0.059258234 0.31257498 -0.25600076
-0.15424475 -0.09480312 -0.009743259 0.22442527 0.2440893 -0.14785932 0.2223288 -0.0037744774
-0.32944232 0.3350047 0.84130406 -0.25030807 0.029618265 0.22835092 0.12649105 -0.04749664
0.02553187 0.31184462 0.6711285 -0.0036416438 0.15914674 -0.034343258 -0.061973743 -0.12877892
0.22636709 0.058917772 -0.07083665 -0.05255717 -0.16304174 -0.21715042 -0.10954228 -0.48388195
-0.010832848 -0.14386645 0.12663461 0.13094607 -0.08894542 0.14286573 -0.11350778 0.12996608
-0.16130407 -0.058974538 -0.22871195 0.28891227 -0.03195398 -0.16499753 -0.15570028 0.06937244
0.059669767 0.28655988 -0.09476042 0.0077899667 0.20245938 -0.044995073 0.119990766 0.33055815
-0.16690217 -0.013640921 0.036438208 0.07197087 -0.04640668 0.16592753 -0.28789166 -0.28150573
0.110788755 -0.012237019 0.2290009 0.06953196 -0.042857006 0.17619504 0.027023565 0.07584154
-0.04845252 -0.04702195 -0.30025363 -0.103695296 0.14863326 0.042143576 -0.08710948 -0.16800809
0.12919326 -0.038406745 -0.07589741 -0.042754106 -0.034608733 0.0054838886 -0.051013667 -0.016117012
0.26124403 0.06466511 -0.01822621 -0.13449281 -0.10898784 0.021103187 0.22486272 -0.2629221
00000000: ac30 dbbd e288 043d 355d 72bd 2a35 71bc
00000010: 0f60 e6bd c646 6dbd a669 f63d c2eb 86bd
00000020: 5362 233e 599c 9fbc cb1b 873d 6573 bcbc
00000030: aac4 81be 698f 32be 3911 be3d 9e05 e73d
00000040: 20f5 75be 083e 053f 89e6 2bbe 8b2d ee3b
00000050: bb09 c1bc 14b2 96bd 6bc4 1dbd 2435 7f3c
00000060: 3a63 6fbe 8fc4 68bd c9ae d23c 3086 e23d
00000070: 8ef0 0abd 6d7e b3bc fed9 babe c8df e9bd
00000080: f600 673e 895c 7b3d c88f 4cbb 64fe 873d
00000090: a7e4 c3be 1efd d63d 30bc ea3c c89f f5bc
000000a0: 9686 76bd f63a 5c3e 5387 49bc d4bc 2cbe
000000b0: 4643 4d3d c8cb c4bd 58a3 133f 5e31 253e
000000c0: 6396 063e 6f5a 17bc 621a 0f3e ea0d ca3d
000000d0: b263 7ebe 2e51 9a3d 9ab3 bb3c 6d33 59bd
000000e0: 04d7 29bd 9d81 7fbd f355 62bd caec 41be
000000f0: 26c2 8c3e edcb e43d 250b dbbe 6627 943e
00000100: 3f89 3fbe 4696 6fbd 441a f6bd d38d aebc
00000110: 2f54 a4bc 3ef5 99bd f015 973b ac5e c6bc
00000120: 87a8 843e 0984 18bd 17e0 5bbe 6e01 923d
00000130: bb10 d2bd 66bf 88bd b292 593e 365b 803d
00000140: 986c 62be 6b3b 1b3f b4dd 53be 3186 1fbd
00000150: c36a 99bd 32fc bc3d 6b94 20ba 0f26 093e
00000160: 2e66 bebe 768b 7ebc beff 0ebd 6058 053e
00000170: f041 3abd 299b 113e baef ad3d 4364 0f3c
00000180: 8df9 b13c df34 97bc 274b b63e 25c5 0239
00000190: d93c 02bf 1719 033e 0f1d cfbe 74ee b73c
000001a0: 958b 763e d686 853e 34a8 033e 52ab d0be
000001b0: 9fba 023e 3a78 f53b 8d3f da3d 337f 153e
000001c0: 4881 b7be df99 2abe 19de 313e 00b3 d53c
000001d0: 3c78 113e 779d 68be 0573 b4bd 64a6 553c
000001e0: 44d1 e2bd 5d1b a3be a5e6 c5bb a45f 36be
000001f0: 29eb 793d cfac f1bd 457a 1abe 1d88 843d
00000200: 62f2 12be 35bd bcbd a6a2 533e d110 1d3d
00000210: 3f37 2fbe 6e92 d03d 326f c7bd 169d a63d
00000220: 1ba3 b23c bd2b 313d 98da aabe cd80 11be
00000230: 27e6 573e edf9 4b3d d57f 50be 684f 02be
00000240: 1013 a1bc e9b6 74bd 7cd7 f9bd 543f 47be
00000250: c6e8 443d 3b48 ca3d 4f61 a9bc 9f1d f1bc
00000260: 6bec e73d c4c1 083e e7f3 0a3d b74b 85bc
00000270: d55f 17be c3b8 72bd d409 a03e 8812 83be
00000280: 56f2 1dbe 2328 c2bd 31a2 1fbc bdcf 653e
00000290: 8cf2 793e 6f68 17be 29aa 633e 395d 77bb
000002a0: aaac a8be bc85 ab3e b45f 573f 6128 80be
000002b0: 01a2 f23c d3d4 693e df86 013e d68b 42bd
000002c0: 3628 d13c 19aa 9f3e 14cf 2b3f a5a8 6ebb
000002d0: 5df7 223e 84ab 0cbd 2ed8 7dbd 9fde 03be
000002e0: c6cc 673e c353 713d ce12 91bd 3046 57bd
000002f0: 6af4 26be ae5c 5ebe b457 e0bd 60bf f7be
00000300: 427c 31bc ba51 13be 81ac 013e ba16 063e
00000310: 0429 b6bd 654b 123e c476 e8bd d415 053e
00000320: e52c 25be 498f 71bd 7733 6abe 4fec 933e
00000330: 2de2 02bd 1df5 28be e56f 1fbe 2313 8e3d
00000340: 4968 743d fab7 923e c011 c2bd fa42 ff3b
00000350: 8351 4f3e c14c 38bd b8bd f53d eb3e a93e
00000360: 67e8 2abe 2b7e 5fbc 3b40 153d 7765 933d
00000370: ee14 3ebd e8e8 293e 8966 93be 8521 90be
00000380: 37e5 e23d c77d 48bc 367f 6a3e c666 8e3d
00000390: d48a 2fbd 796c 343e 8660 dd3c cf52 9b3d
000003a0: 2676 46bd 179a 40bd d8ba 99be 335e d4bd
000003b0: 5133 183e be9e 2c3d 7466 b2bd 500a 2cbe
000003c0: 3d4b 043e 6450 1dbd 1a70 9bbd ee1e 2fbd
000003d0: e3c1 0dbd 31b2 b33b b5f3 50bd d307 84bc
000003e0: c7c1 853e 246f 843d 224f 95bc 7cb8 09be
000003f0: 0435 dfbd 97e0 ac3c 6a42 663e ba9d 86be

Rmodel.fe1.FC3.bias f4 [32]
0.111947544 -0.068844564 0.10418973 0.03323451 0.005104184 -0.035819113 -0.022632442 -0.076118276
-0.08200137 -0.08235276 -0.010813097 0.04250695 -0.022125559 0.008084268 0.021768838 0.040868726
0.15007876 0.055794224 -0.005053854 0.037496507 0.13687412 -0.072112076 -0.023869159 -0.09123239
-0.035761632 -0.03258235 0.03165118 -0.0019993356 -0.023550145 0.040762994 0.028741613 -0.08523409
00000000: c144 e53d 61fe 8cbd 6d61 d53d e920 083d
00000010: 0041 a73b 10b7 12bd ac67 b9bc e6e3 9bbd
00000020: 56f0 a7bd 90a8 a8bd 6a29 31bc c51b 2e3d
00000030: a940 b5bc e173 043c 9054 b23c f765 273d
00000040: 3fae 193e 7c88 643d cd9a a5bb f095 193d
00000050: bb28 0c3e 7faf 93bd 4189 c3bc 0cd8 babd
00000060: ca7a 12bd 1275 05bd aba4 013d 4907 03bb
00000070: 3cec c0bc 19f7 263d 8873 eb3c 368f aebd
