Lightcode/bc/zyy_results/N_3_3_d_32_32/snr2_15/seed_777/weights/gbaf_1xfe_fy/T_9/pow_1/100000/0.002/K_3_m_3_snr1_3/model_weights120000.pt (torch, 182510 bytes, 38 tensors)

Tmodel.fe1.FC1.weight f4 [64, 24]
000000 b3 35 02 3f 7b 89 1b bc 06 ec 30 bd 0f 90 12 bd
       0.5086319 -0.009493227 -0.04319384 -0.035781916
000010 5c 89 08 3e 32 43 99 bd 7f f0 e6 3c e7 fb 0c 3d
       0.13333648 -0.074835196 0.02819085 0.03441992
000020 8c 17 c9 3a 2f a6 ee b9 da b8 80 3d 54 ce 1c bd
       0.00153421 -0.00045518714 0.06285258 -0.038282707
000030 82 78 8f bd 24 26 9c 3d 0f 8c 0d bb 05 80 26 bd
       -0.07005407 0.07624462 -0.0021598374 -0.040649433
000040 0b 66 b8 b8 96 34 e0 3b ef de 28 3c 6f f8 c5 3c
       -8.792811e-05 0.006842206 0.010307058 0.024166314
000050 d3 82 e6 bc 66 7e 03 bc 52 f3 95 bb 10 88 0d bc
       -0.028138554 -0.008025741 -0.004576125 -0.008638397
000060 64 de 3e 3b c1 60 51 3c 8a 30 bf be 1d 3d 9b 3e
       0.0029124254 0.012779416 -0.3734172 0.30320063
000070 11 0a f2 bc 86 cb 22 3d 86 5f 73 3d 54 ae d8 bc
       -0.029545816 0.039744876 0.05941727 -0.026450314
000080 13 1e 18 3b cd 27 36 bc 7e 50 ca be 9c ef ab 3e
       0.0023211285 -0.011117888 -0.39514536 0.33581245
000090 4d 79 31 be d7 08 26 3e ff 98 8b 3d 8d ad c6 3c
       -0.17331429 0.1621431 0.06816291 0.024252677
0000a0 08 70 85 3a b0 10 55 bc 91 7e e8 3d 5f d9 79 3c
       0.0010180483 -0.013004467 0.113522656 0.015249579
0000b0 ed 14 8b 3b 06 31 05 bb 9b ef fd ba 62 7c 0a 3c
       0.004244438 -0.002032341 -0.0019373776 0.008452507
0000c0 ab 3c 91 3b bb ad f5 bc ce bd aa 3b 2f 7e 23 be
       0.004432281 -0.029990068 0.0052106148 -0.15966104
0000d0 6e 70 45 be 6d f3 82 3e f7 20 c7 bd c9 5a 6a bd
       -0.1928117 0.25576344 -0.097230844 -0.057215486
0000e0 0d a3 b5 bb 67 9b e1 3b 91 fe 2d bf d9 c5 18 3f
       -0.005543119 0.0068849805 -0.6796656 0.5967689
0000f0 2c 0a 96 3e 2b 82 e2 be 95 e8 a8 3d 97 3f 12 3d
       0.29304636 -0.44239935 0.082474865 0.035705175
000100 c6 34 8b ba 5a cb 65 3c aa 68 5a bc b0 bc 34 3d
       -0.0010620586 0.014025534 -0.013330618 0.04412526
000110 e7 88 e5 3d 83 d0 9b bc e3 0c 60 3d 34 9c 02 3d
       0.11207753 -0.019020325 0.05469979 0.03188725
000120 4b 1e a1 39 b5 04 01 bb f0 56 e4 b9 47 cb f2 ba
       0.00030730883 -0.0019686643 -0.00043552322 -0.0018523716
000130 3e fd 0d bb 73 8f 08 3f 0b 85 ec be c7 96 45 3d
       -0.0021665837 0.53343886 -0.46195254 0.048239496
000140 db b5 f0 37 ca 26 8c 37 52 40 1e b9 d4 f2 84 39
       2.8694913e-05 1.6707363e-05 -0.00015092015 0.00025357923
000150 4a 98 9c 39 bf 96 f6 be 7f b0 e0 3d 67 03 60 3e
       0.00029868103 -0.48161885 0.10971164 0.21876298
000160 09 9e 32 38 95 ae ca ba b3 10 16 bb 29 ae ba ba
       4.258569e-05 -0.0015463406 -0.0022898137 -0.0014242578
000170 05 3d 78 3a ea 94 36 3f 6a 52 18 bf d7 36 a8 3c
       0.0009469542 0.71320975 -0.59500754 0.020533962
000180 5d 13 4b 3b 84 40 56 3d 6b 51 79 bb 85 be 81 ba
       0.0030986883 0.05230762 -0.0038042914 -0.0009898698
000190 5a 14 29 3c 28 d0 40 3c da 3f 5a bc 62 67 8d bf
       0.010319794 0.011768378 -0.013320887 -1.1047175
0001a0 9e 87 ca ba 54 4d 5b ba 1b 01 e8 3a 3f 29 f3 39
       -0.0015451794 -0.000836571 0.0017700525 0.00046379303
0001b0 89 6f 03 bb 2d 83 8d ba 77 c3 30 3a 3a ef c0 3e
       -0.0020055494 -0.001079654 0.0006742994 0.37682515
0001c0 89 15 f7 b9 88 7f 9d bd c8 50 26 3d 8b 61 2b 3d
       -0.00047127556 -0.0769034 0.040604383 0.04184107
0001d0 dd 62 25 3d 4e 0c 17 3d c6 31 8f bc b0 70 02 3f
       0.040377486 0.03687697 -0.017479789 0.509532
0001e0 6e 69 1a ba 5c 27 00 3b 48 a5 79 bb 18 ab 49 bb
       -0.0005890344 0.001955471 -0.00380929 -0.0030772146
0001f0 2e 95 9a bb 82 7d f1 bb b1 fe fc be 61 58 96 be
       -0.0047174906 -0.007369698 -0.49413064 -0.29364303
000200 e0 a7 df 39 4d 8e 43 b8 b4 ea cb 3a 0f 4f d1 39
       0.0004265895 -4.662415e-05 0.0015557618 0.0003992249
000210 df cf 09 3b dd bb d2 ba d1 c4 3d bf 65 1a 42 3a
       0.0021028442 -0.0016077716 -0.74128443 0.0007404446
000220 5c 96 25 b8 a7 5d 4a 39 ac 1d fa 3b 3b 29 0b 3c
       -3.94791e-05 0.0001929911 0.0076329317 0.008493717
000230 53 96 84 3b 16 c1 60 3b 03 53 ba 3f 92 26 25 be
       0.0040462404 0.0034294776 1.4556583 -0.16127995
000240 b0 2e 5a 3b ad b8 26 bd c3 24 b2 bd eb e9 e0 bd
       0.0033291988 -0.040703464 -0.08698418 -0.10982116
000250 11 6b ad bd 7e 0a 80 bd c3 54 72 3c e5 f9 59 3c
       -0.08467687 -0.06252001 0.014790717 0.013304208
000260 fa 7c 2d ba aa de 25 3a ce e3 a7 3c f2 cb 70 3c
       -0.0006618049 0.000632743 0.020494368 0.014697062
000270 7e 21 71 3c 92 95 e6 3b b0 4a c2 3a eb 77 8d 3a
       0.014717458 0.007036873 0.0014823284 0.0010793185
000280 9f 1d 10 3b 46 94 c1 3e 7e b8 15 be 06 89 d3 bd
       0.0021990312 0.37808436 -0.1462116 -0.103288695
000290 59 3c 8b bd 47 7e 1d bd 71 7f f6 3c a0 db 93 bd
       -0.0679862 -0.038450506 0.030090066 -0.072196245
0002a0 7e 60 0c bf a0 e8 b1 3c dc ef b4 3d 27 ef a3 bd
       -0.54834735 0.02171737 0.08834812 -0.08004599
0002b0 47 cc 29 bd d8 7f d9 3c 9e 8a 3b 3b fa c9 f9 3b
       -0.04145458 0.026550218 0.0028616558 0.0076229544
0002c0 67 af 4b bb 34 44 73 bb 3e 85 7d bc aa 96 b1 3d
       -0.003107989 -0.003711951 -0.015473662 0.08671315
0002d0 4c f3 fb bd d4 dc 6b 3d 75 d6 8b bc b0 bb a8 3b
       -0.123022646 0.057583645 -0.017070035 0.005149327
0002e0 29 c2 1f 39 98 03 6e bc e6 62 bf bc ae d2 53 3a
       0.00015235752 -0.014527224 -0.023362588 0.0008080405
0002f0 50 1a c0 3c 4d 2c 97 3b 82 20 50 bb d1 0d 83 ba
       0.023450047 0.0046134354 -0.0031757657 -0.0009998624
000300 b8 7d 37 39 38 0f bd bc d0 72 0a bb 67 6f 04 bb
       0.00017499074 -0.023078546 -0.0021125562 -0.0020208003
000310 51 ff 99 ba cf 59 03 bb cc 27 7b 3b a2 72 ac be
       -0.0011749064 -0.0020042544 0.0038323281 -0.33681208
000320 e9 d3 10 b9 01 48 45 b8 29 4d ae 39 c4 f5 12 39
       -0.00013811853 -4.703552e-05 0.00033245355 0.000140152
000330 3b 35 95 39 ea e8 00 3a 16 88 5e ba df 52 aa bf
       0.00028459154 0.00049175194 -0.00084889063 -1.330654
000340 a8 8b a1 39 90 3c dc 3b 0d d1 7f bc 14 39 66 bc
       0.00030812365 0.006721087 -0.015613806 -0.014051694
000350 2a 86 ce bb 4a 25 a7 38 8d c4 7b bb 85 74 c4 3d
       -0.0063026147 7.970126e-05 -0.0038416714 0.09592537
000360 b0 e2 a5 be fd f3 57 bd a9 05 f1 bd 2a f9 ac 3d
       -0.3239951 -0.05272292 -0.11768658 0.08445962
000370 9e 3a b1 bd 69 cb 47 3e 0c a8 5a 3e 69 72 b7 3c
       -0.086537585 0.19511189 0.21353167 0.022393422
000380 b0 0a 27 bd 73 d4 6b bb bf c5 8f bd 29 ac 58 3d
       -0.040781677 -0.0035984784 -0.07020139 0.05289856
000390 e1 87 ab bc 57 0f 04 3b 0c 8c 10 bd a0 70 2d bb
       -0.020938816 0.0020150745 -0.03528981 -0.0026464835
0003a0 6b 37 32 39 2c fc ce 3c 8a 47 9d 3c c3 a6 21 bb
       0.00016996048 0.02526673 0.019199152 -0.0024666048
0003b0 b1 62 66 3c 1f ae 6d bd 2e 97 ea bc cb 19 fa bb
       0.014061616 -0.058027383 -0.028636541 -0.0076324693
0003c0 2c ad 34 ba 3c 91 6c be 9b 10 3c bd 1d 53 3d bd
       -0.00068922597 -0.23102278 -0.045914274 -0.04622184
0003d0 47 68 1b bc dd 32 0c 3d 57 39 ba 3d 50 d4 46 bd
       -0.009485311 0.034228195 0.09092968 -0.04854232
0003e0 b5 6b 3e ba 0a 94 b6 b9 00 8d 13 3c 9a 41 8c 3b
       -0.00072639744 -0.00034824043 0.009005785 0.0042802813
0003f0 81 c1 31 bb 66 c6 35 bc b0 f0 eb 3e 71 f4 fb 3d
       -0.0027123394 -0.011094665 0.46082067 0.12302483

Tmodel.fe1.FC1.bias f4 [64]
000000 22 ec ee bd d3 98 fe 3d 60 4c a0 3d c0 17 0c bc
       -0.116661325 0.12431493 0.078270674 -0.008550584
000010 5f e8 b5 3d 7a a1 f1 bb a2 b7 59 3e 6d 0a 76 bc
       0.08882212 -0.007373986 0.21261457 -0.015017134
000020 8f c6 e5 bc 6b 3c dd bd 77 33 d4 bd 10 e4 28 bc
       -0.028048782 -0.108025394 -0.10361379 -0.010308281
000030 f9 7a e1 3e 91 2f a6 3d 02 48 43 3d f8 cc 4d be
       0.44039133 0.08114541 0.047676094 -0.2009772
000040 08 f5 a1 3e 03 12 c0 be f7 00 24 3b 8b e0 0b bb
       0.31632257 -0.37513742 0.002502499 -0.0021343555
000050 be df 51 bd 16 1e 86 3d 38 ca 2d be 4b 19 22 3b
       -0.051238768 0.06548707 -0.16971672 0.0024734314
000060 09 e2 dc bd a8 f8 1a 3b b1 93 6c bb 32 cd 41 bc
       -0.107853 0.0023646746 -0.0036098773 -0.0118287075
000070 65 e6 c0 3a 39 43 e0 3b ed ec 1e bb 1f b0 8f bc
       0.00147171 0.006843951 -0.0024250105 -0.017540036
000080 87 ec e1 3a 42 99 5a bd 91 92 10 be 5a 7c 95 ba
       0.0017236628 -0.053368814 -0.1411841 -0.0011404858
000090 16 3f f6 bc 05 d8 fa bc 78 06 f8 bd d2 a7 5d bb
       -0.030059379 -0.030620584 -0.12110609 -0.0033821953
0000a0 23 40 95 b7 e3 81 68 bb 40 79 14 bb f3 f7 8f bb
       -1.779205e-05 -0.003547781 -0.0022655278 -0.0043935715
0000b0 6f 6c 40 3c 90 90 f7 ba be f1 25 be 2f 24 18 3b
       0.011744603 -0.0018887687 -0.16205499 0.0023214926
0000c0 e3 88 d1 be 7d 71 e2 3d 50 f4 1e be 2b 85 23 bc
       -0.4092475 0.110568024 -0.15522885 -0.00998048
0000d0 74 9d 88 3d 29 32 bb b8 16 03 a7 ba 5b d0 4d bb
       0.06670657 -8.926198e-05 -0.0012742009 -0.0031404707
0000e0 cb b0 12 be 25 e0 06 be e7 f0 23 be 02 57 83 3e
       -0.14325254 -0.13171442 -0.16009866 0.2565232
0000f0 6e d8 94 3d 34 8d c9 bd ea 49 db 3c 4f f6 c6 b6
       0.07267843 -0.098413855 0.026768643 -5.929534e-06

Tmodel.fe1.FC2.weight f4 [64, 64]
000000 2a a5 ad bd 5b ce 8b 3e 09 59 36 bd 1e 7a 15 3c
       -0.08478768 0.27305874 -0.044518504 0.009123353
000010 97 32 d8 bd 24 49 08 3d 6e 55 22 bc 48 c8 a5 bd
       -0.10556524 0.033272877 -0.009908063 -0.08094841
000020 a4 ff 04 c0 0b a9 f2 bd aa fd cd 3d 9e 63 20 be
       -2.078103 -0.11848649 0.10058148 -0.15663001
000030 4f 83 d8 3c af 24 43 bc 18 83 f3 bc 13 bd b7 bc
       0.0264298 -0.0119106015 -0.029725596 -0.022429025
000040 3b f8 46 3e 97 19 d4 bb a3 a7 9e 3d 03 33 43 3c
       0.1943063 -0.006472777 0.07746818 0.011914018
000050 43 a6 07 3e 00 bf 11 3d 44 d1 02 bf f4 d3 1a be
       0.13247018 0.035582542 -0.51100564 -0.15119916
000060 cd 79 6e 3d c6 80 1f 3e 4b b7 24 bd d6 33 62 3e
       0.058221627 0.15576467 -0.040213864 0.22090086
000070 a3 80 05 bb 1b c8 ac bd d5 0d 34 3d 2a f5 0a be
       -0.0020370863 -0.084366046 0.043958504 -0.13570085
000080 5d 74 0e be 60 01 27 bc e9 f9 5e 3d b1 d3 44 3d
       -0.13911577 -0.010193199 0.05443755 0.048053447
000090 c2 48 08 bf 33 24 43 3e 66 1a b2 be b9 2c c3 39
       -0.5323602 0.19056778 -0.34785765 0.0003722662
0000a0 f2 8d 3f be b8 91 15 bd 41 09 cc bd d1 c9 f9 3d
       -0.18706492 -0.03651592 -0.099627025 0.121966965
0000b0 bc 3c 7f bd 01 53 19 3c a6 d3 aa bc 52 19 da 3d
       -0.06231378 0.009358169 -0.020852875 0.10649361
0000c0 d5 83 41 3c 9d f1 03 bb 80 19 2d 3d 36 3d 36 3d
       0.011811216 -0.0020133026 0.042260647 0.04449197
0000d0 00 cd 8c 3b e3 1a 67 bd 6d c7 15 3e c5 ae dd 3c
       0.004296899 -0.056422126 0.14626856 0.027060876
0000e0 b9 e1 7f be 3b d1 60 be cb 21 d7 bc 2f bb 60 be
       -0.2498845 -0.21954815 -0.02626123 -0.21946405
0000f0 6b 36 af bd b3 05 ca bc b8 93 9d 3d 8e 02 25 3a
       -0.08555301 -0.02466092 0.07694191 0.0006294631
000100 ca b1 20 be dd 0e d2 3d d3 86 1c bd ef 89 df 3b
       -0.15692821 0.10256741 -0.038214516 0.006821863
000110 68 5d e1 bb 19 bf 9e bc 67 93 c6 bd 9f ae c5 3d
       -0.00687759 -0.019378232 -0.096960835 0.09652447
000120 19 c6 ed bc 0c ae 6e 3d 6f ed a3 3d 08 80 b8 bd
       -0.029025124 0.058271453 0.08004271 -0.09008795
000130 43 0f 1d be 0c 15 2a 3c a5 01 cb 3d b1 68 11 3c
       -0.15337853 0.0103809945 0.09912423 0.008875058
000140 c4 37 29 3e 9c b9 b7 3d 1d aa d5 3d a6 d2 0d 3d
       0.16525179 0.08970949 0.10432837 0.034624718
000150 8a ee 29 be 51 e4 d9 3c ce d6 49 ba 35 87 35 3d
       -0.16594902 0.026598128 -0.000769955 0.044318397
000160 ee ac 4f 3e 9b b2 fc bd 81 5d a6 3c 19 77 ee bd
       0.20280811 -0.12338754 0.020308258 -0.1164381
000170 e6 9f e2 bd 13 0a 4f 3c 55 ca 26 bd a1 69 dd 3a
       -0.110656545 0.012636679 -0.040720303 0.0016892442
000180 bc 6b f8 bd 6d 1a 7a bc 3c 7f 4d 3e da 0e 92 3c
       -0.12129924 -0.015265089 0.20068067 0.017829347
000190 93 6d 83 bc 29 20 72 3c cd c2 a1 be c4 f4 41 3a
       -0.01604346 0.014778175 -0.31593934 0.00073988386
0001a0 01 71 95 bd de e5 dc bd b6 63 0d be 9c 30 d2 bd
       -0.072969444 -0.10786031 -0.13807568 -0.10263178
0001b0 e3 e4 e7 3d df ee 5c 3c fb 6e 0a 3e d1 80 f8 bd
       0.113229536 0.013484686 0.13518898 -0.12133945
0001c0 aa 4f 77 3d d6 3c 73 bc 78 41 cf bd 28 f2 cb bd
       0.060378708 -0.014846047 -0.10119909 -0.09958297
0001d0 58 3f 21 bd 08 34 0e be f9 26 eb bc e2 8f ea 3b
       -0.03936705 -0.13887036 -0.028705107 0.0071582654
0001e0 51 2a 1c be 8e 2f 8e bd bc 25 38 3d 19 b5 05 3e
       -0.15250517 -0.06942664 0.04495786 0.13057365
0001f0 1d 8e fd bb a3 b1 3e 3e 22 3d e1 bd 8d 7d 84 bc
       -0.0077378885 0.1862245 -0.10997988 -0.016173149
000200 bb f2 4e be b1 f1 02 be 42 d0 11 3d cb 44 37 bb
       -0.20209782 -0.1278751 0.035599 -0.0027964588
000210 71 e3 ad bc 0b 99 bf 3b 73 39 0a bd 09 1e 43 bd
       -0.021226617 0.0058471016 -0.033746194 -0.047636066
000220 57 01 c1 3c 01 47 e6 3c dd f1 e1 bc bc e5 63 3d
       0.02356021 0.02811003 -0.02758115 0.055639014
000230 03 4b 93 bc 36 06 ad ba b9 f4 e7 bc 82 55 1f 3d
       -0.017980104 -0.0013200704 -0.028314935 0.038899906
000240 84 2a c4 be c8 34 5d bc bd 21 98 bb 60 6f 2d 3c
       -0.38313687 -0.013501354 -0.004642694 0.010585636
000250 4d dc 7d 3d 1b db 86 3d 59 03 4c ba 86 0d 56 bd
       0.061977673 0.0658476 -0.0007782481 -0.05225899
000260 80 1f 44 3e d9 39 e3 bd 91 03 10 3e d0 1a 76 be
       0.19152641 -0.11095018 0.1406386 -0.24033666
000270 31 b7 3a 3e cb 19 13 3e c5 8f 60 bc f3 26 b5 bb
       0.18233944 0.14365308 -0.013706152 -0.0055283247
000280 a3 dc 30 3d 2e bb 5b bd 55 5d 49 bd 89 93 db bc
       0.043179166 -0.053645305 -0.049161274 -0.026803749
000290 53 87 1f 3b 1d a4 5f 3c 6a 39 99 3e 51 35 6f bc
       0.0024342134 0.0136499675 0.29926616 -0.014600114
0002a0 4a 68 5d bd 15 f4 96 3d cd a5 f2 3c c4 d4 ad bb
       -0.054054536 0.07370774 0.029620076 -0.0053049047
0002b0 cd cc 95 be 30 64 d9 3c ca 9b e7 bd f0 b2 d7 3b
       -0.29257813 0.026537031 -0.11309011 0.0065826103
0002c0 78 4a 5f 3d 91 83 49 3b 7e fa 0c be 50 ef 20 3d
       0.05451438 0.0030748586 -0.1376743 0.039290726
0002d0 b8 e2 55 3c f4 b8 5d bc e9 ed 39 bd 3a 55 cc bb
       0.013054542 -0.013532866 -0.045392904 -0.0062357457
0002e0 a9 c2 69 3d fc bc 28 be d4 44 2b bc 94 48 8f 3e
       0.057070408 -0.16478342 -0.010453422 0.2798506
0002f0 66 01 b1 3e d6 d8 b1 3d 36 d3 22 3e 78 d9 2d 3d
       0.3457138 0.08683936 0.15900883 0.042443722
000300 9f 72 a8 bd 27 50 99 3d d5 a1 d4 3c 59 c4 44 3a
       -0.08224987 0.07485991 0.025956074 0.0007506065
000310 6f 60 cf bb 62 67 81 bb 38 ed 3c bc 0f ff f5 bd
       -0.0063286345 -0.003949092 -0.011531167 -0.12011539
000320 c2 2f 29 bb d4 73 85 be 8b e9 96 bc 8f 05 b6 bd
       -0.002581582 -0.26064932 -0.018421909 -0.08887779
000330 2b 99 fe 3d 39 37 14 3b 20 0a 8a 3c 8e a5 a7 bc
       0.12431558 0.0022615923 0.016850531 -0.020464685
000340 28 ca 1a 3e 79 1c 08 bc 60 c7 bb 3c 91 6a 1f bb
       0.15116179 -0.00830757 0.022922218 -0.0024324993
000350 99 17 40 bc 08 6d 81 bd d3 89 9d ba 5d f7 77 3c
       -0.011724376 -0.06319624 -0.0012019224 0.01513466
000360 8b c4 5f bc a9 0b 4e 3d f5 6e 39 be 83 08 8b bd
       -0.013657699 0.05030409 -0.18108733 -0.06788733
000370 d5 ab 35 bf dd 8b 07 3e c4 b2 90 bc 31 aa ba bc
       -0.7096532 0.13236947 -0.017663367 -0.022786232
000380 e4 b8 1a 3d 72 5c b8 3c e2 dc 12 be d1 62 1e bc
       0.03777398 0.022505019 -0.14342073 -0.009667114
000390 68 82 2c bb a6 3f 4b bc 7f 78 c6 3d 6c 0b a1 3c
       -0.0026322845 -0.012405312 0.096909516 0.019658767
0003a0 40 b3 2d bd 1c fc 75 bc 87 4d bc bd 20 e2 83 bd
       -0.042407274 -0.015013721 -0.09194475 -0.06439614
0003b0 21 7d 3f 3c 9e 90 4f 3b 08 de 75 3a ff 11 e4 bb
       0.011687548 0.0031671892 0.00093790935 -0.006960153
0003c0 e9 90 21 3d bc 17 8c bb f1 d8 f5 bd ee 4c 22 bc
       0.039444838 -0.0042752903 -0.12004269 -0.009906037
0003d0 41 da 00 bc ce 0d ce 3c c8 38 09 3d 06 1f 14 3b
       -0.007864536 0.025153067 0.033501416 0.00226015
0003e0 70 84 d2 bd a2 e0 f0 bd cf b5 12 3d 23 05 d5 3c
       -0.10279167 -0.11761595 0.035817917 0.026003426
0003f0 3e d0 fc bd 25 cf 21 3e 37 94 4e bd d6 02 92 bb
       -0.123444065 0.15801676 -0.050434317 -0.0044559045

Tmodel.fe1.FC2.bias f4 [64]
000000 2a 82 0a bd 62 ad d1 3d 99 50 f3 bc e8 2f a8 3e
       -0.03381554 0.10238148 -0.029701518 0.3284905
000010 3f 70 89 bb 50 9f 03 3e 74 9b 83 bd 74 b0 50 3e
       -0.004194289 0.12853742 -0.06426135 0.20379812
000020 d8 02 bb be b4 8b 14 be 7e b8 14 3e c4 c1 1e be
       -0.36525607 -0.14506418 0.14523503 -0.15503603
000030 cd 2c e2 bd 82 8c 1d be 5a 4e 17 3e 86 44 bf 3e
       -0.11043701 -0.1538563 0.14775982 0.37356967
000040 eb fd 95 3e 04 e2 f1 3d 41 1f 73 3e 22 74 72 3e
       0.29295287 0.11810687 0.23742391 0.23677114
000050 fa 83 f9 3d 4a 28 4e 3d 78 50 5b be 8d 2a a4 3d
       0.12183376 0.05033139 -0.21417415 0.080159284
000060 c6 b0 bf be e8 21 21 bd 7d aa 4e 3e 9b 48 16 be
       -0.37439555 -0.039338976 0.20182224 -0.14676134
000070 88 02 65 3e e7 df 7c 3e 78 15 67 3e 4d 3d 8f 3e
       0.22364247 0.24694787 0.22566783 0.27976456
000080 a7 f0 83 3d 76 c1 32 3e e6 92 08 bd ad 13 12 bd
       0.06442385 0.17456612 -0.03334322 -0.035663296
000090 0d ee c3 3d 6a d7 d5 bd 3f ff 28 3e 70 05 6a bd
       0.09566889 -0.104414776 0.16503619 -0.05713409
0000a0 77 85 a6 3e bc 5d ea 3d fd ff 8d bd 4d eb 30 bc
       0.325237 0.1144366 -0.069335915 -0.010798288
0000b0 d1 22 a7 be 19 8d b0 be ae 43 8c bc 9f e6 4b 3e
       -0.3264375 -0.3448265 -0.017122116 0.19912194
0000c0 5f 66 96 bd 1d ca 6f be cc 0f 7b be cf 6c 7d bc
       -0.073437445 -0.23416944 -0.24517745 -0.0154678365
0000d0 56 b0 97 3d bd 6e a6 3d 4a 41 1f 3e fc 11 32 3d
       0.0740668 0.081265904 0.1555225 0.043474182
0000e0 2b 5c c3 be 8a 15 1c 3e c3 2f c0 be 25 53 e9 bd
       -0.38156256 0.15242592 -0.3753644 -0.11392812
0000f0 4f bd 01 bd 7a 09 86 be bb 75 32 3e 05 11 7f be
       -0.03167468 -0.26179105 0.17427723 -0.24908836

Tmodel.fe1.FC3.weight f4 [64, 64]
000000 8a 48 cc 3d b3 07 0a bd f7 94 85 ba 80 21 88 bd
       0.09974773 -0.03369875 -0.001019149 -0.066470146
000010 e7 56 f4 bc 90 3c 11 be 69 08 ef 3d 33 6e c0 3d
       -0.029826595 -0.14183259 0.11671526 0.09396019
000020 f5 df 35 3d 44 8a 3b bd 47 3e 6f bc be 97 4a bd
       0.044403035 -0.045786157 -0.01460225 -0.04946112
000030 e3 21 73 3e d8 c2 e3 bd 28 50 a8 bd 8a 22 ec bd
       0.23743396 -0.11121148 -0.082184136 -0.11530025
000040 52 22 b8 bd 9f f6 04 3e 59 ad 11 3e 43 d3 c5 bd
       -0.08990921 0.12984703 0.14226283 -0.096594356
000050 31 e0 34 3d a6 a6 80 be d6 eb 90 bd 43 b4 12 bc
       0.044159118 -0.25127143 -0.07076232 -0.008954111
000060 01 dc 81 3e 1a ba 23 3e c1 bc 88 3d e5 b2 36 bd
       0.25363162 0.15988961 0.06676627 -0.0446042
000070 4b 2e cd 3c 27 83 aa be 9d 9e 06 bd 83 88 96 3c
       0.025046488 -0.33303186 -0.03286611 0.01837564
000080 5e 8d fb bd 2f a7 17 bd ac 05 29 bd 0b 7e 19 be
       -0.12282823 -0.037024673 -0.041265175 -0.14989488
000090 46 a2 e1 3d c3 14 f3 3c 02 a5 03 3e 21 c2 0a 3e
       0.11017279 0.029672986 0.12855914 0.13550617
0000a0 32 4f f3 3b 22 af d2 bb bd 97 3f bd 7d 5d 0c 3e
       0.0074252123 -0.006429569 -0.04677557 0.13707538
0000b0 fa f3 d6 bd 12 c7 95 bc 5d c0 28 3e d2 c0 b1 3c
       -0.104957536 -0.0182834 0.16479631 0.02169839
0000c0 c4 38 8d 3b 25 be 85 be ff b8 85 be 18 c1 61 3d
       0.0043097455 -0.2612163 -0.26117703 0.05511579
0000d0 61 c3 a1 bd 93 cb 8e 3e ba 06 9d 3d d8 eb f0 3c
       -0.07898594 0.2788969 0.076672986 0.029409334
0000e0 5e 66 8a be 2a 79 be bc 49 d7 3c 3e d0 28 30 3d
       -0.27031225 -0.023251135 0.184415 0.04300767
0000f0 13 91 6b 3d 9b d9 3a bd a0 0d 85 3c c9 3d 19 3d
       0.0575114 -0.04561768 0.016241848 0.03741244
000100 e9 35 86 bd f2 eb b1 bd 03 de dd 3d 5e 41 22 3e
       -0.06553251 -0.08687581 0.10833361 0.15845248
000110 8c e7 5c 3d 46 dd 7d be e5 89 61 3e e3 ce 13 bc
       0.053931758 -0.2479144 0.22025259 -0.009021494
000120 82 3e 97 be 35 ae 23 be 8f 92 e6 3d ca 63 62 be
       -0.29539877 -0.15984423 0.112584226 -0.22108379
000130 07 40 f6 bc 36 f7 01 bd e4 e5 d1 3d f4 ef 36 3c
       -0.030059827 -0.0317299 0.10248926 0.011165608
000140 21 a9 15 be 11 ee 41 bd b0 9d aa 3d 51 e1 25 be
       -0.14615299 -0.04734618 0.08330858 -0.16199233
000150 a6 71 ac bb 0d 7a 88 bd 53 5d 4c 3d af d9 0a be
       -0.0052625714 -0.06663904 0.04989369 -0.13559602
000160 26 7a 06 3e d1 7d ee 3d 0c 12 1f bd 07 3f 1c 3e
       0.13132533 0.11645091 -0.03883557 0.15258418
000170 3e e3 71 bd 99 ae 6e 3e ec c9 14 bc dd d1 7a bd
       -0.059054606 0.23308791 -0.009081345 -0.061235297
000180 57 d3 a0 3d fc 5d 0c bd c7 87 5c bd 44 64 7d 3c
       0.0785281 -0.034269318 -0.053840425 0.0154658
000190 dd fa 0b be d2 c7 89 bd bf 1a ee 3d 05 16 b0 bd
       -0.13669915 -0.06727566 0.11626195 -0.0859795
0001a0 fc e0 3d bc 5a ae d5 3e 34 bf 52 be 15 fd f6 bd
       -0.011589285 0.41734582 -0.2058075 -0.1205999
0001b0 db 2c 09 bf 53 6e 17 3e 9c 40 30 bc 3a 8f 83 3d
       -0.5358407 0.14788179 -0.010757592 0.06423803
0001c0 ec 82 50 3e cb 5c 09 bd 0c 5b b3 bd 90 c2 e5 3d
       0.20362443 -0.03353576 -0.087576 0.112187505
0001d0 55 04 3a 3e 55 89 87 bd fa 85 98 bc f1 45 9f ba
       0.18165715 -0.06617991 -0.018618573 -0.0012151581
0001e0 8d ae aa 3e 53 c3 e9 bd 90 71 06 be 70 f1 d2 bd
       0.33336297 -0.11414208 -0.13129258 -0.10299957
0001f0 3c e4 9e 3e b1 31 87 3d ea f6 0f 3e 91 16 46 be
       0.31033504 0.06601275 0.14059034 -0.19344546
000200 76 a7 05 3d 45 94 32 3e a5 12 0a be 17 29 3e be
       0.032630406 0.17439373 -0.13483675 -0.18570362
000210 35 7a 8e 3e ef 3a cd bc 48 67 d7 3b d3 0f 27 3e
       0.27827612 -0.025052516 0.0065735914 0.1631463
000220 89 9d a8 bd 0c 03 26 3e d2 0e 9c bd 1c 7a 59 be
       -0.082331724 0.162121 -0.07620014 -0.21237987
000230 89 e8 4b bd 33 33 4a 3d e0 bd 75 3b aa d2 f3 bb
       -0.04978231 0.049365234 0.0037497208 -0.0074408846
000240 24 4e 32 be 33 dd cf be e7 7b 9b 3c 25 87 b4 3e
       -0.17412621 -0.4059845 0.01897998 0.35259357
000250 2e 78 05 3a 34 f3 53 be c3 19 a1 bd 22 98 7f bd
       0.00050914555 -0.20698243 -0.07866242 -0.062400945
000260 19 93 f8 3c 57 51 0a 3e 16 92 9c be a7 de 8d bd
       0.03034358 0.13507591 -0.30580205 -0.06927233
000270 b7 cc 4e be 46 0c c2 bd 41 a3 a1 3c 9b b8 64 be
       -0.2019528 -0.09474997 0.019731166 -0.22336046
000280 ec 2e 9f 3d 4b 05 df 3d 4d b8 0b be 0e 39 3e bd
       0.077726215 0.108896814 -0.13644524 -0.04644113
000290 2d fb 06 3e 34 3f a5 bd b8 46 a1 bd 7a 74 92 3d
       0.13181753 -0.08068696 -0.07874817 0.071511224
0002a0 78 69 45 3e 8c e3 1d 3e 50 08 e6 bd 8f fc 2f bd
       0.19278514 0.15418833 -0.11232054 -0.042965468
0002b0 d2 43 8b 3d 54 03 8c 3d ee 50 ab 3c 23 15 de 3c
       0.06800045 0.06836572 0.020912614 0.027109688
0002c0 23 18 9b 3d 58 20 87 bd 34 84 3f be 62 ea 87 3d
       0.07572963 -0.06597966 -0.18702775 0.06636502
0002d0 b9 35 81 3e fe 6e a3 bd bf 46 ee 3d 97 5e 03 bd
       0.252363 -0.079801545 0.116345875 -0.03207263
0002e0 fd 69 3c be 7e 6f 2e 3e b8 96 84 be 17 f1 05 3d
       -0.18399806 0.17034718 -0.2589624 0.032700624
0002f0 76 4a 8f bd 9c 44 95 bd 1e 32 b6 3e 96 9d 94 3e
       -0.06996624 -0.07288477 0.3558511 0.2902648
000300 0f d2 a8 3b 52 99 aa bd 22 ee 98 3d 8e 83 a3 bd
       0.005151994 -0.08330025 0.07467295 -0.079840764
000310 9b e5 87 bd fd 54 02 3e 6a 4a 91 3d 4b 58 82 bd
       -0.06635591 0.12727733 0.070942715 -0.06364497
000320 f2 f4 8e 3b 4d aa 1d be d4 cc 2f be 8d 17 cd bd
       0.004362696 -0.15396996 -0.1716798 -0.100142576
000330 4d 35 62 3d a3 c0 cc 3c b1 09 42 bd 2e 77 e5 bc
       0.055226613 0.0249942 -0.047372524 -0.02801093
000340 4b ad 4b 3d be ff 39 bd d0 7c 8e bd 2b 11 97 3e
       0.049725812 -0.04540991 -0.069574 0.29505286
000350 8c 90 11 3f a4 93 7d 3d 57 d8 11 be de 05 e1 3c
       0.56861186 0.06190838 -0.14242683 0.027468618
000360 85 6e 02 be 6e b1 ab bd 8a 72 21 3d cc 42 30 be
       -0.12737472 -0.083834514 0.039415874 -0.17212981
000370 9f 14 90 3d c9 74 20 3e ec fd 98 bb ad 23 9f 3c
       0.07035183 0.1566955 -0.0046689417 0.019426191
000380 c7 a7 80 3f 8a b5 29 be 2d c5 db 3d 8c 7c 2c be
       1.0051202 -0.16573158 0.10730968 -0.16844386
000390 42 fb dd bc 2d 5b c9 bc 16 5b f8 3e e6 34 66 3d
       -0.027097348 -0.024579609 0.48506993 0.05620279
0003a0 d7 3d 82 bd 7c 7a b5 3d e9 2a 16 3e dc d9 c7 3d
       -0.06359451 0.08861253 0.14664806 0.0975835
0003b0 c7 97 cc 3e 5c 16 1c be 34 df 19 bd c0 51 33 bd
       0.39959547 -0.15242904 -0.03756638 -0.043779135
0003c0 e3 39 06 3e 6f 6f 2e be 54 ed 77 be cd 11 20 bd
       0.1310802 -0.17034696 -0.24211627 -0.039079476
0003d0 77 76 f6 3d 8c 4b 43 bd 4f a5 17 3e 23 36 ac 3d
       0.12034314 -0.04767947 0.14809154 0.08408763
0003e0 f9 c4 04 3e 0c 29 27 3d e2 fe 82 3d 24 7a 0b 3c
       0.12965764 0.04081063 0.06396271 0.008513007
0003f0 6d 21 84 3d 3b 8a 91 bb aa 3c a3 3d ed 69 04 3e
       0.06451688 -0.004441527 0.07970555 0.12931032

Tmodel.fe1.FC3.bias f4 [64]
000000 69 2f 66 3d b8 f7 67 bd e3 e6 c4 3b 4c a0 aa bc
       0.056197558 -0.056632727 0.006008969 -0.020828389
000010 81 61 9a 3c b4 60 5e 3d 91 d2 1b bd c5 b8 80 3e
       0.018845322 0.054291442 -0.03804261 0.25140968
000020 04 9a a6 bd 07 b5 c6 bd b6 d5 db 3d ac 54 da bd
       -0.08134845 -0.09702497 0.107341215 -0.10660681
000030 13 23 a2 3d bd 4d 34 3e 2e 2c d2 3e 57 66 75 3e
       0.07916846 0.1760778 0.4104933 0.23964821
000040 15 14 df bd d3 46 fc bd ee 39 11 be 2d c6 85 3d
       -0.10892502 -0.12318196 -0.14182255 0.0653194
000050 ac 50 b8 bd cc 80 f8 3d fd 49 63 3d da e9 e8 3d
       -0.08999762 0.12133941 0.055490483 0.11372729
000060 1d a3 b9 3d 61 ca 83 3c aa de 89 3d a6 4e d8 3d
       0.090643145 0.016087713 0.06731923 0.10561876
000070 78 65 14 3d be 65 46 3d ae 05 5b bd 2e 17 ae bc
       0.03622958 0.048436873 -0.053472213 -0.021251287
000080 72 89 32 3c 2e 43 12 3e e5 27 d7 bc ef fe 18 3e
       0.010897027 0.1428344 -0.02626414 0.14941
000090 9a 4b 65 bd d9 9d be 3a 5a 22 2a bd de 55 42 3d
       -0.055980302 0.0014542892 -0.041536666 0.04744517
0000a0 00 38 d7 bb ba d4 1f be db b7 95 3d 34 de eb 3d
       -0.006567955 -0.15608492 0.07310458 0.11516991
0000b0 26 ea 20 3d 5a 2d 7a bc 91 41 02 be f3 ab fd 3a
       0.0392858 -0.015269602 -0.12720324 0.0019353613
0000c0 ba c8 ae bd 2c f2 15 3d db ec e2 bc 32 96 91 bc
       -0.08534379 0.036607906 -0.027700832 -0.017771814
0000d0 72 6b 7f 3d 3f 64 e3 bb 87 ef 6a 3d 9b 99 c0 3d
       0.062358327 -0.0069394405 0.057357337 0.09404298
0000e0 64 c3 5d 3d a0 84 ce 3d 5b 0c e5 bd 30 12 31 be
       0.054141417 0.1008389 -0.11183997 -0.17292094
0000f0 4b bd 8a bd 8c 5d 1d 3d 77 b6 d7 bd 04 c3 50 3d
       -0.06774386 0.03841929 -0.10532849 0.05096723

Tmodel.fe1.FC4.weight f4 [32, 128]
000000 6c 49 95 bd 10 55 de 3e e3 0e 6c 3e 7a 5d 63 3d
       -0.07289395 0.43424273 0.23052554 0.055509068
000010 39 90 3d 3d 17 10 76 bc d7 29 5e be 5f 84 e7 bd
       0.04628012 -0.015018485 -0.21695648 -0.11304545
000020 d3 96 3f 3c 1a a6 00 3e 8e b0 21 3e f3 74 20 3f
       0.011693674 0.12563363 0.15790007 0.6267845
000030 ec bc 48 bd f2 8e 4f 3e d8 2b c7 3d b9 69 d2 bc
       -0.049008295 0.20269373 0.097251594 -0.025685178
000040 bf 87 6e bc 16 cb 02 3e ca 00 aa bd 6e a6 84 be
       -0.014558732 0.12772784 -0.08300932 -0.25908226
000050 e6 5d 3d 3d 99 26 8e 3d 3e 50 1b 3e 1a 26 91 3d
       0.046232127 0.06940956 0.15167329 0.070873454
000060 28 14 1b 3e c5 7c c5 bc 5a 7e ed 3c 6c 2d 16 3e
       0.15144408 -0.024107346 0.028990913 0.14665765
000070 93 fe 48 3e 62 4f 8c be ac c5 92 bc 96 af 1d be
       0.19628362 -0.27404314 -0.017916523 -0.15399012
000080 37 13 23 be dd 06 15 be 4d 25 ba bd 7a 92 d4 3d
       -0.15925299 -0.145534 -0.09089146 0.10379501
000090 22 f6 19 3e 1e e9 0c 3c 5f 8c 2e 3b 74 8f 04 be
       0.15035298 0.008600501 0.002663396 -0.12945348
0000a0 46 32 83 3d 7b dd 16 bd 89 2c 53 bb d5 ab 98 3c
       0.06406073 -0.036832314 -0.003222259 0.018636623
0000b0 8c fe 19 3e af 00 a5 3c a5 bb bf 3e e4 bf 27 be
       0.15038508 0.020141928 0.3744785 -0.16381794
0000c0 1e 54 a6 3c f1 bf 24 be 23 67 c0 bc b8 38 83 bd
       0.020303782 -0.16088845 -0.02348668 -0.064073026
0000d0 02 18 21 be c5 fb 1a 3e 54 e0 ec bd fa 7c 3d bc
       -0.15731815 0.15135105 -0.11566225 -0.011565441
0000e0 17 32 10 be af 9c 54 3d f9 2d 7f bc 44 fa d5 3d
       -0.14081608 0.051907238 -0.015574926 0.10448125
0000f0 d8 9b 5f be 36 78 58 bc f7 64 75 be 20 6d 36 bc
       -0.21836793 -0.013212254 -0.23964296 -0.011134416
000100 3e 11 e8 bc 01 e7 47 be 60 59 d8 bc b1 ab d0 3d
       -0.028328534 -0.19521715 -0.026409805 0.101889975
000110 57 13 85 bd 38 ec 77 3e 8e bd 86 3d fc 0e 4c bc
       -0.064978294 0.24211204 0.065791234 -0.012454744
000120 7d 98 14 be 2f d3 8f bd eb 39 d2 3c 36 a8 87 be
       -0.14511295 -0.07022702 0.025662383 -0.26495522
000130 f2 1a 79 bd 03 74 1f 3a a0 66 d4 3d 56 dd f7 3d
       -0.060816713 0.0006082656 0.10371137 0.12102763
000140 76 cd f4 3a 27 0b cb be 4d 37 a5 3d 61 24 0e be
       0.0018676955 -0.39656946 0.080671884 -0.13881065
000150 46 87 22 3e ca db 80 3e 41 c8 83 3d 98 37 0a be
       0.15871915 0.25167686 0.0643468 -0.1349777
000160 5f 53 d3 3d 88 db d4 3d 77 08 f0 3d c6 77 b4 bd
       0.10318636 0.10393435 0.117203645 -0.088119075
000170 28 c6 9b bd 1a d6 0e be a0 d9 69 bc c3 f4 c2 3d
       -0.07606155 -0.13948861 -0.014273077 0.09519341
000180 76 40 d4 bd 10 92 6b bd 21 a1 41 be ee 13 07 be
       -0.103638574 -0.057512343 -0.18909122 -0.13191196
000190 f5 79 c4 3d 97 ae 5c 3c 3f fb 82 be 57 e2 ae 3d
       0.09593574 0.01346936 -0.2558231 0.08539265
0001a0 f6 eb 1f bd 46 5d 85 bc c2 b8 30 3e cd c9 80 be
       -0.03904339 -0.016279828 0.1725798 -0.25153962
0001b0 2a 9f 21 be af ab 2f be 12 73 8f 3d 68 d4 c4 3c
       -0.15783373 -0.17155336 0.0700437 0.024027064
0001c0 1f 27 aa 3d 1f 46 0b 3e b9 ab 01 3c b6 93 c5 bd
       0.08308243 0.13600968 0.007914477 -0.09647314
0001d0 3e 28 eb 3d 1b e4 53 be ac be d3 3d 7b 10 b5 bd
       0.11482285 -0.20692484 0.10339102 -0.08841034
0001e0 11 bd d1 3e 43 1b ac 3e a0 88 96 3e 99 b3 92 be
       0.4096456 0.3361455 0.29401112 -0.28652647
0001f0 0d 15 28 3e 8f 3d 48 3c 87 3b 94 bd ab 6a 3d be
       0.1641428 0.012221708 -0.072379164 -0.18497722
000200 27 5a ac bd 01 d3 0f be 59 ea 1f 3d 18 69 7a 3d
       -0.08415633 -0.14045335 0.03904185 0.06113538
000210 8c b1 ae bd bc 8e e8 bd b7 0b fc 3d 5f 67 85 3d
       -0.08529958 -0.113553494 0.12306922 0.06513857
000220 58 a0 2f 3d ba 9c f7 bd bb c0 48 bd 52 9f 55 3d
       0.042877525 -0.1209044 -0.049011927 0.052153893
000230 d0 db 0a be a7 7d 56 bc 4c 77 0a 3e d0 e1 63 3d
       -0.13560414 -0.013091481 0.1352207 0.055635273
000240 1a 17 15 bc 72 12 1a be db 5a c4 3d a7 30 26 be
       -0.009099746 -0.15046099 0.09587642 -0.16229497
000250 90 9a 20 3e 96 40 01 bd b1 e9 db bb d2 a0 94 bd
       0.15683961 -0.031555735 -0.006711208 -0.072572365
000260 e0 0f a5 be 42 34 df bd 07 77 b0 3d 98 1d a5 3d
       -0.32238674 -0.10898639 0.08616453 0.08062285
000270 1f 1f 77 be 25 d4 89 bd f3 69 c0 3e af 7d 4a bd
       -0.24132966 -0.067299165 0.37580833 -0.049436267
000280 b6 97 67 3d 2f b9 10 bd 55 be 67 bd 3f e3 b4 3d
       0.056541167 -0.035332855 -0.056578 0.08832406
000290 a1 93 b6 bb d1 fd 80 bd a6 9f 24 3d ba 33 22 3e
       -0.005571798 -0.06298412 0.040191315 0.15840045
0002a0 94 30 ab 3c 6f 2f 5a bd e3 02 0e bd f1 4c 4e 3d
       0.020897187 -0.053267892 -0.03467072 0.050366346
0002b0 96 c4 f5 3d ba 2c c5 3d f2 83 b4 3d a4 65 e0 3c
       0.120003864 0.096276715 0.08814229 0.027392216
0002c0 5e 9a cd bc 39 f8 d5 bd 6e 58 bd 3d a0 79 19 bd
       -0.025098022 -0.10447735 0.09245382 -0.037469506
0002d0 e5 0f 5c 3e 76 13 e0 bb 63 25 8e 3b 98 82 14 3e
       0.21490438 -0.0068382574 0.004337953 0.14502943
0002e0 79 32 cd 3d 4e bd 72 be 4e a5 12 3d 6b b2 53 3d
       0.100193925 -0.23705027 0.035802178 0.051683825
0002f0 95 d4 85 bc b7 11 14 3e b5 d9 64 bd 29 a8 17 bd
       -0.016336719 0.14459883 -0.055871684 -0.037025604
000300 f3 fe 1e be 89 e5 95 3d f2 85 e8 bd 04 72 92 3d
       -0.15526943 0.07319171 -0.11353673 0.07150653
000310 43 69 85 bd 3d 09 99 bd e7 01 6f 3e 6b 7a 93 3d
       -0.06514218 -0.07472465 0.2334057 0.07201084
000320 a5 2e 63 bd cd e0 29 be 09 97 26 be 6a 4c 72 3d
       -0.055464406 -0.16589661 -0.16268553 0.059154905
000330 10 ac 54 3c ed e5 1a be 14 8e 05 bd e3 cb bc 3d
       0.012980476 -0.15126772 -0.0326062 0.09218576
000340 a4 7e 9e bd 0a bd 72 3e 8b f9 8d be da a1 04 3d
       -0.077389985 0.23704925 -0.2772945 0.032380916
000350 53 df 24 be 9f 82 0c be 77 dd bc bd 67 9b 12 3e
       -0.16100816 -0.13721703 -0.092219286 0.14317094
000360 6b ef 8c 3e 2e 90 5f bc c2 f4 19 bb 25 9c b9 bb
       0.2752641 -0.013645215 -0.0023491834 -0.005664366
000370 d1 ab b5 3d 9e a7 ac bd d8 1e a6 3d d4 75 29 3e
       0.08870662 -0.08430408 0.08111352 0.16548854
000380 e7 9c 8e 3c 82 6f 8a 3e 7a b5 0c be 95 b8 f3 3d
       0.017408801 0.270382 -0.13741103 0.119004406
000390 60 f8 35 be 63 0b da 3d 84 40 37 be a9 2a 33 3e
       -0.17770529 0.10646703 -0.17895705 0.17496742
0003a0 a6 c3 de bd 8d 0b 7d 3d 24 6a a1 3c 2c b6 4f be
       -0.10877161 0.061778594 0.019703932 -0.20284337
0003b0 d0 23 11 3e f9 01 c8 3d e5 0a d2 bd 61 27 53 bd
       0.14173818 0.09766001 -0.10255984 -0.051551227
0003c0 1e af c6 bd 24 ed 18 3d 14 c9 9c bd 67 a2 cb bc
       -0.0970137 0.03733553 -0.0765554 -0.024857713
0003d0 44 22 8f bd 89 6b 00 3e 82 ee 35 3d b3 33 a2 3d
       -0.069889575 0.12541021 0.044416912 0.07920017
0003e0 45 36 38 3d 15 1a 54 be b8 82 70 3d 76 0f d6 b9
       0.04497363 -0.20713075 0.058718413 -0.0004082878
0003f0 72 02 81 3d cb 7c 42 3d 73 d3 d3 bd be 63 18 bd
       0.062992945 0.047482293 -0.10343065 -0.037204497

Tmodel.fe1.FC4.bias f4 [32]
000000 c8 b0 14 3e 2b c1 93 3d 0a ea 9a bd 74 50 0a c0
       0.14520562 0.07214578 -0.07564171 -2.1611605
000010 26 b4 4d 3d ad fa b4 3e 01 c6 b7 bd 3e 12 c4 bd
       0.05022063 0.353475 -0.08973313 -0.09573792
000020 4b fc 3a be 87 6f 53 3e 64 1c 84 bd 51 ea 0b bc
       -0.18260305 0.20648013 -0.064507276 -0.008539752
000030 ff 8c 0b be 2f 15 c6 3d f9 b6 14 3e 97 1c df bb
       -0.13628004 0.09672009 0.14522924 -0.006808828
000040 f4 c6 dd 3d e2 f8 af bc 32 82 2d 3d 58 e7 ca 3b
       0.10828963 -0.021480981 0.042360492 0.006192129
000050 cc ca f9 3d 81 70 36 3c 8a 9a c3 bd 64 02 f5 3d
       0.121968836 0.011135221 -0.0955096 0.119633466
000060 b8 b4 83 3d cd f0 ab 3d 95 88 3f ba bf 0f 6f 3d
       0.06430954 0.083955385 -0.0007306424 0.058364626
000070 85 74 ea 3b 11 c8 bd bd 58 37 9b bd e7 88 82 bd
       0.0071550035 -0.09266675 -0.07578915 -0.06373768

Tmodel.norm1.weight f4 [32]
000000 cd de a3 3e ba 39 98 3e 89 5a df 3e 3a 9b 9b 3d
       0.3200592 0.29731542 0.4362376 0.075979665
000010 86 d1 a7 3e 6e 74 63 3e 2d 06 a2 3f 8e dd a1 3e
       0.3277704 0.22212383 1.2658135 0.31614345
000020 a1 1d b6 3e d1 58 5c 3e 96 4d a8 3e d5 66 fa 3e
       0.3556948 0.21518256 0.32871693 0.4890658
000030 b1 1d ae 3f 95 1c ca 3e 6a 1c 96 3e 9e 8f b1 3e
       1.3602811 0.3947493 0.29318553 0.34679884
000040 51 a9 ca 3e 14 90 9c 3e 1d 4c c9 3e a3 cf fe 3e
       0.39582303 0.30578673 0.39315882 0.4976779
000050 b1 60 7c 3e 1f c3 90 3e 10 9b 16 3f 74 47 8a 3e
       0.2464626 0.28273866 0.58830357 0.2700764
000060 c1 a6 46 3f 77 1d 8e 3e 25 89 d5 3e a9 b2 ae 3e
       0.77598196 0.27756855 0.41706195 0.34120682
000070 b4 21 8c 3e 51 8e 10 3f aa e3 d0 3e 2b 4f b8 3e
       0.27369463 0.5646716 0.40798694 0.359979

Tmodel.norm1.bias f4 [32]
000000 13 de d6 bd 1a 44 f6 bc 08 77 9c bd ea 53 85 3e
       -0.10491576 -0.03006177 -0.07639891 0.26040584
000010 f5 a3 d3 bc e9 8e b7 bc bd 10 25 be 92 5f 24 bd
       -0.025835017 -0.022407012 -0.16119666 -0.040130205
000020 90 10 83 bd 8d 75 92 bd 31 6c f1 bb 08 3f e6 bd
       -0.063996434 -0.07151327 -0.0073676337 -0.11242491
000030 77 9c db bd df 55 dc bc 69 ce d3 b9 b3 34 7c bd
       -0.10723203 -0.026896415 -0.00040398844 -0.061573695
000040 76 92 96 bd ff e2 3e bd 63 46 96 bd e1 ba ba bd
       -0.07352154 -0.0466032 -0.07337644 -0.091176756
000050 6d fa 1a 3e ce 37 4c bd 8c 2b 08 bb fb a5 74 bd
       0.15134592 -0.049857907 -0.002077791 -0.059728604
000060 63 eb f1 bd 67 5a 44 bc b5 26 7c bd 85 a5 0d bd
       -0.118124746 -0.011984444 -0.06156035 -0.03458168
000070 b4 39 e2 bd 90 6f de bb 6a 83 a9 bd a2 c3 cf bc
       -0.11046162 -0.0067882016 -0.08277018 -0.02536184

Tmodel.out1.weight f4 [32, 32]
000000 76 06 4e bc 27 2c 18 3d 51 be 2d be bf 2d 88 bd
       -0.012574783 0.037151482 -0.16967131 -0.066493504
000010 be eb 67 3c eb cd ed bd 32 5d 52 bd 7f 05 e2 3c
       0.014155326 -0.11611541 -0.05135841 0.027590511
000020 28 a3 8f bc 00 62 84 bc 74 89 44 bd 98 2d 9e 3e
       -0.017533854 -0.016160011 -0.047982648 0.3089416
000030 11 b6 83 3e 27 05 7b 3c 9e a8 22 bd 17 11 31 bb
       0.25724843 0.015321053 -0.039711587 -0.0027018243
000040 17 48 43 3c 6c 23 ad 3d 52 06 0e 3c 80 d4 c4 be
       0.011919043 0.08454022 0.008668499 -0.38443375
000050 ac 6d 7e 3e a2 28 71 3c 76 c1 f7 3e f9 ee b8 bb
       0.24846524 0.01471916 0.48389786 -0.005643722
000060 b1 ba af 3c f2 d5 db 3c 2f 0c be bb 8b c7 82 bb
       0.021451326 0.026835416 -0.0057997922 -0.0039910725
000070 00 0d c4 3c 50 c2 f8 be 0c a8 bb 3c b1 c0 39 3d
       0.02393198 -0.4858575 0.02290728 0.04534978
000080 d6 15 0b 3d b4 4b 0a bd bb 3a 22 3e bf ff 60 3d
       0.03395637 -0.033763602 0.15842716 0.0549314
000090 5b c9 a4 3c d1 ed 01 bc 70 81 5f bf 81 3e a8 bd
       0.020115545 -0.007930235 -0.8730688 -0.08215047
0000a0 b4 72 2a 3e ed a3 46 bd 92 7f a5 bd 25 58 11 bd
       0.16645318 -0.048496176 -0.08080973 -0.03548445
0000b0 5a 5a e3 3d 6a 69 d2 3c cf 95 94 3c 7e 65 fb be
       0.111012176 0.025685031 0.01813784 -0.4910087
0000c0 d9 14 6c c0 46 67 ce 3e 2b c5 9f bd 6d d2 66 3c
       -3.6887724 0.40313166 -0.07801279 0.014088255
0000d0 f8 59 d2 bc 94 f9 16 3d da 81 ed bc 56 e3 36 bc
       -0.025677666 0.03685911 -0.028992582 -0.0111626
0000e0 0b 60 42 bd c0 f2 07 3e c7 ec 00 3f 80 f0 26 3d
       -0.047454875 0.13276196 0.50361294 0.040756702
0000f0 54 ac 40 3e 0a af ca 3c 25 96 5d 3e 55 dd be be
       0.18815738 0.024741668 0.21639307 -0.37278238
000100 50 e4 71 3c 82 73 33 bd 77 5b 80 3e 17 12 d1 3d
       0.014763907 -0.04381133 0.25069782 0.102085285
000110 39 bf 50 bb dd fb d8 bc 14 c7 ab bf 73 e3 3a bc
       -0.0031852259 -0.026487285 -1.3420129 -0.011406767
000120 c4 df af bd 26 95 8b bc 6e b4 25 bd 26 b8 22 3e
       -0.08587602 -0.017038893 -0.040455274 0.1589056
000130 d6 dc df 3c c2 ee 15 bd b5 21 d4 3c 5b 51 9e 3c
       0.027326982 -0.03660465 0.025894979 0.019325903
000140 65 ce 25 3c 90 b2 81 3c da e8 6c bd 8b b9 62 be
       0.010120009 0.015832216 -0.057839252 -0.22141092
000150 f7 6d 03 3e 0e 93 7e bc ad 31 f0 3d 11 f8 59 bd
       0.12834917 -0.01553799 0.11728225 -0.05321509
000160 cc 35 67 bd 0b e3 a4 ba 08 43 8c bc d4 d4 0f 3b
       -0.05644779 -0.0012579871 -0.017121807 0.0021946924
000170 34 0a 8f 3d ae 17 8b be 50 fd 2b 3c d7 07 45 bc
       0.06984368 -0.27166504 0.010497406 -0.012025795
000180 28 18 a0 3a 7f 6e 37 3b 41 41 da 3b 71 16 a6 3b
       0.001221423 0.0027989445 0.006660611 0.005068593
000190 d8 7e 8b ba aa 97 5d 3a 95 15 70 3a e2 49 41 bb
       -0.0010642661 0.00084530807 0.00091584894 -0.00294935
0001a0 b9 7e 89 3b a4 33 2e 3c af 2d 45 bb 05 bc 30 bb
       0.0041960147 0.010632429 -0.0030087044 -0.0026967537
0001b0 f9 2f 61 bd 04 d9 63 bb 25 25 46 3b 81 c4 57 3b
       -0.05497739 -0.0034766803 0.0030234542 0.0032923522
0001c0 09 a0 55 3b 64 92 24 3a fd e3 ed ba 3e 4c c5 bc
       0.003259661 0.00062779174 -0.0018149611 -0.024084207
0001d0 26 69 c1 bb 6c fa e7 b9 05 2b 0a 3c 2d 9b 7c 39
       -0.0059024272 -0.00044246332 0.008433108 0.000240904
0001e0 3a ad 99 bc b5 de de bb 94 7a 91 3b 52 63 17 ba
       -0.018759359 -0.006801451 0.0044396613 -0.0005774993
0001f0 9a 70 7d bc ca 1b 38 bc b8 8c 49 bc 67 d0 ca bb
       -0.015468741 -0.011237094 -0.012301616 -0.0061893943
000200 cb 84 92 3c 9f af 61 3e 43 07 bb 3e 3f b9 cf 3e
       0.017885586 0.2203965 0.36528978 0.4057102
000210 cc 62 02 bc 6c 1c 9e 3b 79 41 4a 3e e6 6b 80 3e
       -0.007958125 0.0048251655 0.19751538 0.2508232
000220 7c 4a ca bd 3a bd 89 be 47 e5 d8 be eb e8 8c bd
       -0.09877488 -0.2690218 -0.42362425 -0.06880363
000230 5e c2 7a bf 56 1f d0 3c 32 53 d3 be da 18 05 3e
       -0.9795283 0.025405567 -0.4127441 0.12997761
000240 91 5d 20 3d 04 b4 08 3e 72 0b 57 bf 43 68 9c bd
       0.039151732 0.1334992 -0.8400184 -0.07637074
000250 81 ff 9f 3d 79 3a 36 be f1 d9 b1 3c 1e 67 9f bd
       0.078124054 -0.17795743 0.021710368 -0.0778334
000260 5f 0b a7 bd b2 9a aa be 88 5d a2 3e 20 6c 2d 3e
       -0.08156466 -0.33321148 0.31711984 0.16935778
000270 21 be a0 be 92 f0 d5 3c 8c 56 87 be cb 89 98 be
       -0.31395057 0.02611569 -0.26433218 -0.29792628
000280 6b ec 50 ba 50 56 95 ba 84 fb 54 3a 07 99 1f 3b
       -0.00079697993 -0.0011393521 0.0008124637 0.0024352686
000290 c7 9e 41 b9 d8 67 e6 ba 35 87 35 3c 8e bf b6 b9
       -0.00018465063 -0.0017578555 0.011079599 -0.00034856464
0002a0 70 76 01 3b 39 99 da b9 ec a8 9f 3a 5e 65 8e 3a
       0.0019754432 -0.0004169436 0.001218108 0.001086395
0002b0 d1 f6 34 bb f0 f1 29 ba 8f 86 1d 3a fa 1f 38 3a
       -0.0027612934 -0.000648289 0.00060091255 0.0007023808
0002c0 67 f4 98 ba 78 fe 3e 39 0e 88 d0 3a 01 18 02 b9
       -0.0011669517 0.00018214609 0.0015909688 -0.00012406708
0002d0 53 db 9a ba 8e 1b 7e b9 e2 b1 68 3a b9 e8 00 b8
       -0.0011814631 -0.00024233593 0.0008876604 -3.0734318e-05
0002e0 b9 6c 1e bb b0 e4 1c b9 47 35 61 39 4a a6 6a 3b
       -0.002417369 -0.00014962512 0.0002147752 0.0035804682
0002f0 4b ec e2 39 8e a9 31 ba 43 aa 19 b8 50 80 f2 39
       0.0004328213 -0.000677728 -3.663661e-05 0.00046253437
000300 57 9c a6 bd e9 86 8c bd 46 d1 0d bd 3e 08 73 bc
       -0.08135288 -0.068616696 -0.034623407 -0.014833508
000310 cf f7 50 bd 5f b3 e9 3d a0 aa dd 3d 82 2d 36 be
       -0.05101758 0.114111654 0.1082356 -0.17790797
000320 43 d3 8b be 10 c2 00 3e 73 25 a8 bd 5d e8 f8 3d
       -0.27309617 0.12574029 -0.08210268 0.12153695
000330 ed 1e 2f bf ac b4 ba 3d c2 78 62 bc be 18 cc bd
       -0.68406564 0.09116492 -0.013822736 -0.09965657
000340 7d 24 e9 bb b5 11 28 bd ff e9 24 3e eb 58 e3 3c
       -0.0071149454 -0.04103251 0.16104887 0.02775236
000350 e3 7c 5d 3d 4b 40 7d be 65 ee 0d 3e 2d 39 c4 be
       0.05407418 -0.24731557 0.13860472 -0.38324872
000360 95 a6 a6 bd 96 e2 18 3d ef 07 92 bd 3f 09 20 3e
       -0.08137242 0.037325464 -0.071304195 0.15628527
000370 8b 32 c6 bd a0 a4 eb bd ac 32 09 3e 8e d0 21 bd
       -0.09677609 -0.11506009 0.13398236 -0.039505534
000380 78 b3 db bc 5d 7c 48 bc fa e3 3d bd c1 6b 49 3b
       -0.026818976 -0.012236682 -0.046359994 0.0030734392
000390 07 5a 5d bc fa 41 44 bc 5a 2d 12 be 37 78 3e bc
       -0.013510234 -0.011978621 -0.14275113 -0.011625341
0003a0 9c 92 22 bd 64 e0 67 3b 8c 62 c1 bc cd 9d 30 3d
       -0.0396906 0.003538155 -0.023606561 0.04311924
0003b0 b5 66 b8 be c0 77 32 bd c0 e6 75 bc f6 f0 b7 bc
       -0.3601586 -0.043571234 -0.015008628 -0.022453766
0003c0 79 b9 8e 3b e5 25 8d bb fc bb 0e 3d 8c 59 8d bd
       0.004355606 -0.004307496 0.034847245 -0.06901845
0003d0 a3 c0 dc 3c 32 28 bf 3c d7 34 c0 bb 3a cd 61 bc
       0.026947325 0.023334596 -0.005865674 -0.01378184
0003e0 84 18 df bc 98 f7 40 bb 1e 32 38 bc 47 d2 32 bb
       -0.02723337 -0.0029444452 -0.011242418 -0.002728598
0003f0 1b 6a e6 3c 48 fe 5a be 6a 51 e3 3c d7 97 bf 3b
       0.028126767 -0.21386063 0.027748782 0.005846958

Tmodel.out1.bias f4 [32]
000000 32 9c 8c 3f 85 30 e7 3b 02 95 d8 3c ab 2b da bc
       1.0985167 0.0070553445 0.02643824 -0.02663215
000010 bf f1 ba 3b 5e cd 24 3f 44 22 61 3c 86 f9 23 bd
       0.005705088 0.64375865 0.01374108 -0.040032886
000020 20 a6 96 3f a3 12 11 3c 01 3b c0 3c 12 2e 5b bc
       1.1769447 0.008854541 0.023465635 -0.013377683
000030 09 a9 26 3d d3 e4 57 bd 23 7f 14 3c 0b b5 17 bc
       0.04068855 -0.05270846 0.009063515 -0.009259473
000040 c6 f4 1c 3d 45 ee fa bb 2e 0f fd bc 2f 1b e4 bb
       0.03831937 -0.0076577985 -0.030891027 -0.0069612483
000050 ca d0 37 3c 1b b3 d2 3d 29 73 e0 bd 14 4c 65 bd
       0.011219213 0.10288068 -0.10959465 -0.055980757
000060 ab 77 12 bd a6 ce e6 3c 88 a5 ff 3c 75 fe af 3d
       -0.035758656 0.02817471 0.031206861 0.08593456
000070 45 83 02 bd 4d 7d ec 3c b1 3a 8a 3b 01 61 43 bd
       -0.03186347 0.028868342 0.0042184223 -0.047699932

Tmodel.out2.weight f4 [1, 32]
000000 c9 8e cc 3d 23 0c bf bc 2b 4f c1 3b 3a 06 98 ba
       0.099881716 -0.023321217 0.00589933 -0.0011598535
000010 6d 18 d1 bd e7 97 27 38 9f ab 00 3d 42 4b 14 3a
       -0.10209737 3.9957373e-05 0.03141367 0.0005656966
000020 3d 99 a4 3d 03 c3 d4 bc b6 b5 5b be 7b af 6c bd
       0.080370404 -0.025971895 -0.21456036 -0.05778454
000030 2e 4d 3a 3f cd cf 09 bd 33 15 b1 3c 03 b9 b4 37
       0.72774017 -0.03364544 0.021616554 2.1543825e-05
000040 b7 e3 da be 9b 79 e4 bc cb a2 8b be 53 0b 09 3e
       -0.42751858 -0.027890017 -0.2727264 0.13383226
000050 4f 8f 09 3e a6 ca 28 bf 7b c6 74 3e 28 6a d5 3c
       0.13433574 -0.65934217 0.2390384 0.026051596
000060 d7 7c f0 bc cd fa ae bd 60 f3 eb bd 23 85 40 be
       -0.029356403 -0.0854393 -0.115210295 -0.18800788
000070 fa 5e 51 3e 3d 52 32 3e c4 a7 e7 3c 61 da 17 3a
       0.20446387 0.17414184 0.02827824 0.0005792734
