Lightcode/bc/zyy_results/N_3_3_d_32_32/snr2_20/seed_777/weights/gbaf_1xfe_fy/T_3/pow_1/100000/0.002/K_1_m_1_snr1_3/model_weights120000.pt (torch, 173294 bytes, 38 tensors)

Tmodel.fe1.FC1.weight f4 [64, 6]
0	0xbda27c45	-0.07933859
1	0x3e616429	0.22010864
2	0x3f10c18a	0.5654532
3	0x3c6c7d3e	0.014434157
4	0x3d637d84	0.055539623
5	0x3ef450b5	0.47717825
6	0xbe10603b	-0.14099209
7	0xbb757848	-0.0037455726
8	0xbef0cec7	-0.4703276
9	0xbc38144e	-0.01123531
10	0x3ac11425	0.0014730735
11	0xbf10b9d9	-0.5653358
12	0x3e823a25	0.25434986
13	0x3d83b7f2	0.06431569
14	0x3dc8d3e2	0.098060384
15	0x3d3ec0af	0.046570476
16	0x3d767ecd	0.06017952
17	0xbec9c5f4	-0.3940884
18	0xbe007bfd	-0.12547298
19	0x3ce9c33a	0.028535474
20	0xbecda029	-0.40161255
21	0xbd174f41	-0.036940817
22	0xbd923078	-0.07138151
23	0xbda0915c	-0.07840225
24	0x3c3ddf47	0.011588878
25	0xbd81fc2c	-0.06346926
26	0x3f0d5378	0.5520549
27	0x3c7fcd3a	0.015612895
28	0x3d0444c0	0.032292128
29	0x3ec2d118	0.3805015
30	0x3ef3ae25	0.475938
31	0xbe940e56	-0.28917187
32	0x3e566b2b	0.20939319
33	0x3cc7aac5	0.024373421
34	0x3d4bf2ca	0.04979209
35	0x3e2e9fb4	0.1705311
36	0x3b2f1b66	0.0026719212
37	0xbe619dd3	-0.22032861
38	0xbe9834f0	-0.29727888
39	0xbd80b979	-0.06285376
40	0xbc8936c8	-0.016749755
41	0x3e6c92c5	0.23102863
42	0xbe775283	-0.2415257
43	0x3eae338b	0.340237
44	0x3ebc8276	0.36818284
45	0x3d19a394	0.037509516
46	0x3c46eb92	0.012141125
47	0xbcc7b3b4	-0.024377681
48	0xbe30f8fc	-0.1728248
49	0xbdc59e4c	-0.09649333
50	0x3f031852	0.51208985
51	0x3d1fcebb	0.039015513
52	0x3bcc90da	0.0062428536
53	0x3e9539b5	0.2914559
54	0x3ecbaa62	0.3977843
55	0xbee22fa7	-0.4417698
56	0xbce5a519	-0.028032826
57	0xbc5d6e0d	-0.013515008
58	0xbccd476f	-0.025058476
59	0xbe6dc8b6	-0.23221096
60	0x3e8724e4	0.26395333
61	0xbdb53327	-0.08847647
62	0x3e8ea248	0.27858186
63	0xb86a3c9e	-5.58464e-05
64	0x3d8501e4	0.06494501
65	0xbbc5d1ef	-0.006036989
66	0xbdbc1f21	-0.09185625
67	0xbdeba3f3	-0.1150588
68	0x3f07dc0d	0.53070146
69	0x3cc13e25	0.023589203
70	0x3d9e30e6	0.077241704
71	0x3ec92e65	0.3929321
72	0xbead59d3	-0.33857593
73	0xbc632190	-0.013862982
74	0xbe7a66c4	-0.24453264
75	0xbba6a4aa	-0.0050855475
76	0xbca565c9	-0.020190137
77	0xbd99bcfb	-0.07506748
78	0xbda387be	-0.07984875
79	0xbdc40281	-0.0957079
80	0xbf1ff478	-0.62482405
81	0xbd1e3ef7	-0.038634267
82	0xbd5b5c78	-0.053554982
83	0xbf19dbe2	-0.6010114
84	0x3e304529	0.17213883
85	0x3d7d3a0f	0.061822947
86	0xbe0b4ee7	-0.13604318
87	0x3c83f437	0.016107662
88	0xbcdd93e0	-0.027048051
89	0xbec9d3fe	-0.3941955
90	0x3eb4a531	0.3528228
91	0xbea4dbe5	-0.32199016
92	0x3f0fb5f6	0.56137025
93	0x3d44f18c	0.04808192
94	0x3d289738	0.04115984
95	0xbd9268b4	-0.07148877
96	0xbe516e74	-0.20452291
97	0x3c397f28	0.01132182
98	0xbea4eadd	-0.32210436
99	0x3c230441	0.009949745
100	0x3d185b1f	0.037196275
101	0x3de55b83	0.11199095
102	0x3d5a7946	0.05333831
103	0xbdcc7f3e	-0.09985207
104	0x3eb4314e	0.35193866
105	0x3cb6e5e8	0.022326425
106	0x3e90546b	0.28189406
107	0xbd486d0d	-0.048932124
108	0x3ded3b89	0.11583621
109	0xbe28e66d	-0.1649415
110	0x3ed09f23	0.40746412
111	0x3c91e043	0.017807132
112	0x3cf5d8c8	0.030010596
113	0x3ee05303	0.43813333
114	0xbd65633e	-0.056002848
115	0x3e78472d	0.24245901
116	0x3eb158ab	0.3463796
117	0xbb0f641f	-0.0021879745
118	0x3c575378	0.013142459
119	0x3d680a7e	0.05665063
120	0xbd46bee9	-0.04852191
121	0xbe167de0	-0.14696455
122	0xbcf041b5	-0.029328207
123	0xbc96fa75	-0.018429974
124	0x3b9af750	0.004729189
125	0x3ea10adc	0.31453598
126	0xbd0fd2d8	-0.035113186
127	0x3e3644c8	0.17799675
128	0x3eededa2	0.46470362
129	0x3c13e7a2	0.009027394
130	0xbe5c48aa	-0.21512094
131	0x3ebf5a08	0.37373376
132	0xbd4e1f41	-0.050322775
133	0xbd26243f	-0.04056191
134	0xbe8b7078	-0.27234244
135	0xbd18c9fa	-0.037301995
136	0x3d30033c	0.042971835
137	0x3e8ee456	0.27908581
138	0x3e05a218	0.13050115
139	0xbc47b19f	-0.012188344
140	0x3f0016ce	0.500348
141	0x3ca5ac68	0.020223811
142	0x3d7cdf4c	0.06173639
143	0x3f073171	0.52809817
144	0xbd39cb4f	-0.045359906
145	0x3ea43204	0.3206941
146	0x3d5468df	0.051857825
147	0x3d2e4610	0.042547286
148	0xbc33d6cb	-0.010976504
149	0xbf3d1b41	-0.7386971
150	0x3d45efa0	0.048324227
151	0xbe2ec882	-0.17068675
152	0x3e9a0e9d	0.30089274
153	0x3c8af91d	0.01696449
154	0xbc45ce49	-0.012073108
155	0x3db8a261	0.09015346
156	0xbe9a8286	-0.30177706
157	0x3d63ed1e	0.055646054
158	0xbed609bb	-0.418043
159	0xbc845467	-0.016153527
160	0xbd2f926b	-0.042864244
161	0xbedba648	-0.429003
162	0xbda1473f	-0.07874917
163	0xbe286395	-0.16444238
164	0xbefb85a8	-0.4912541
165	0xbdbc75b2	-0.09202136
166	0xb9ed987f	-0.0004531778
167	0xbee2b74c	-0.4428047
168	0xbe8d08c6	-0.27545756
169	0xbd047641	-0.03233934
170	0xbed68281	-0.41896442
171	0xbd34bd0f	-0.044125613
172	0xbccc80e4	-0.024963804
173	0xbef7cc2e	-0.48397964
174	0x3e9bf841	0.3046284
175	0xbdfbb84f	-0.122910134
176	0xbeafcea5	-0.34337345
177	0xbc58f14c	-0.013241123
178	0xbc826b01	-0.015920164
179	0xbec2e8b3	-0.3806816
180	0xbd61ed9a	-0.055158235
181	0x3ebe93a0	0.37222004
182	0x3ee87cee	0.45407814
183	0x3d396cb9	0.0452697
184	0x3cf4bf8e	0.029876497
185	0x3ea8d224	0.32972825
186	0xbd14d356	-0.03633436
187	0x3cce8814	0.025211371
188	0xbcb98fa2	-0.022651497
189	0xbc3b970d	-0.0114495875
190	0x3e9d1417	0.3067939
191	0xbd0028da	-0.03128896
192	0x3e4d06b4	0.20022088
193	0x3d763f17	0.06011876
194	0x3eca87a7	0.3955662
195	0x3c7d8625	0.015473877
196	0x3d974f86	0.07388215
197	0x3f043c04	0.51654077
198	0x3e78bfae	0.2429187
199	0xbe67b43c	-0.22627348
200	0xbdcab351	-0.09897483
201	0xbb9078b1	-0.004408919
202	0xbc987fc6	-0.018615615
203	0xbec0d961	-0.37665847
204	0xbe5d9588	-0.21639073
205	0xbdca5fb5	-0.09881536
206	0xbea248bc	-0.31696117
207	0xbd7a9fff	-0.06118774
208	0xbc5bf754	-0.013425667
209	0xbe23ba90	-0.15989137
210	0xbe580595	-0.2109588
211	0xbcd4808c	-0.025940202
212	0xbea7633d	-0.326929
213	0xbca69fe7	-0.02033992
214	0xbd5c8c47	-0.053844716
215	0xbf16e194	-0.58937955
216	0xbcc2b52e	-0.023768034
217	0xbbd11fcf	-0.0063819657
218	0xbef39aad	-0.47578946
219	0x3e03013d	0.12793441
220	0x3d097e5a	0.033567764
221	0xbebe0616	-0.37114018
222	0x3dfd936e	0.123816356
223	0xbea499bd	-0.32148543
224	0xbe539744	-0.20663172
225	0xbdb5ea7b	-0.08882614
226	0x3c5bb5f3	0.013410079
227	0xbe8880f7	-0.26660892
228	0xbdc9dbb7	-0.098563604
229	0xbe22ee68	-0.15911257
230	0x3eb68c50	0.35653925
231	0x3d23b36f	0.039966043
232	0x3e268641	0.16262151
233	0x3eb51901	0.3537064
234	0xbcad6080	-0.021164179
235	0x3e4ab082	0.19793895
236	0x3f21e243	0.63235873
237	0x3cd36b2f	0.025807945
238	0x3ce3a4e8	0.027788594
239	0x3e31f773	0.1737955
240	0x3c85a8a3	0.016315764
241	0x3e14aee8	0.14519846
242	0xbe98a012	-0.29809624
243	0xbd0420a0	-0.032257676
244	0x3d469576	0.04848238
245	0xbed55b83	-0.4167138
246	0xbc51c232	-0.012802647
247	0x3ec93fe0	0.39306545
248	0xbd4f7cb2	-0.050656028
249	0xbebbf4b7	-0.3671014
250	0x3b7a3942	0.00381811
251	0x3c963a90	0.018338472
252	0x3e0cf1ee	0.13764164
253	0xbd4d0dc4	-0.050061956
254	0xbec3fe66	-0.38280028
255	0xbcd44021	-0.025909485

Tmodel.fe1.FC1.bias f4 [64]
0	0x3de1d92f	0.110277526
1	0x3dc54e33	0.09634056
2	0xbe78aff0	-0.24285865
3	0xbe2e1da0	-0.17003489
4	0xbd5d6f57	-0.05406126
5	0xbcffe5f7	-0.031237585
6	0x3b366829	0.002783308
7	0xbe5719d2	-0.21005943
8	0xbe1ff522	-0.15620854
9	0xbe97b67c	-0.29631412
10	0xbe6bdf1f	-0.23034333
11	0xbe0ed9bf	-0.13950251
12	0xbcd1d5eb	-0.0256147
13	0x3e42fa1b	0.1904072
14	0xbe512e03	-0.20427708
15	0xbe5bfaa2	-0.21482328
16	0xbe9f0c6e	-0.3106417
17	0xbe833373	-0.2562519
18	0xbd0d35d3	-0.03447516
19	0xbe536651	-0.206445
20	0xbd101e34	-0.035185054
21	0xbdcf9ef8	-0.10137743
22	0xbe5daa06	-0.2164689
23	0x3d940836	0.072281286
24	0xbdb5f28d	-0.088841535
25	0xbe73c95f	-0.23807286
26	0xbd88c6bc	-0.066785306
27	0xbc18aea9	-0.009318986
28	0xbdcb6050	-0.099304795
29	0xbe5c2268	-0.214975
30	0xbdb95cf7	-0.09050935
31	0xbe7472b9	-0.23871888
32	0xbcdebc0e	-0.02718928
33	0xbe686fad	-0.22698851
34	0xbdb4b5f3	-0.088237666
35	0xbd0d6947	-0.03452423
36	0xbd9b2a30	-0.07576406
37	0xbe82d48e	-0.2555279
38	0xbdf58257	-0.11987751
39	0xbe4651ba	-0.19367114
40	0xbe04795a	-0.12936917
41	0xbe7ff1c7	-0.24994574
42	0xbd599625	-0.053121705
43	0xbdc6a912	-0.09700216
44	0xbc05265a	-0.0081268195
45	0xbe100355	-0.14063771
46	0xbbd13eb5	-0.006385649
47	0x3b95716c	0.00456064
48	0xbe948516	-0.29007787
49	0xbd28ae24	-0.0411817
50	0x3db7173e	0.0893998
51	0xbe1c49a4	-0.15262467
52	0xbe09a24e	-0.1344082
53	0xba80acff	-0.0009817182
54	0xbe1ec5de	-0.15505168
55	0xbe62be0e	-0.22142813
56	0xbe3ff02f	-0.18743967
57	0xbc83578f	-0.016032962
58	0xbcf9f925	-0.03051431
59	0x3d87840a	0.06616981
60	0xbdda2a8c	-0.106526464
61	0xbd827434	-0.0636982
62	0xbe7344f9	-0.2375678
63	0xbd8a1d49	-0.06743867

Tmodel.fe1.FC2.weight f4 [64, 64]
0	0x3e33aa1c	0.1754536
1	0xbc956a69	-0.018239217
2	0xbee9c794	-0.4566008
3	0x3e0066ae	0.12539169
4	0x3d85b3a3	0.065284036
5	0xbe7e52fe	-0.24836347
6	0xbf12603b	-0.57178086
7	0x3db6205f	0.08892893
8	0x3e532513	0.20619611
9	0xbe5fc9cd	-0.21854325
10	0x3b159017	0.002282148
11	0x3e720c6a	0.23637548
12	0x3d4e55af	0.050374683
13	0xbe090f5d	-0.13384767
14	0xbcb35729	-0.021892147
15	0xbf4fb45c	-0.8113458
16	0xbc56bafb	-0.013106103
17	0x3e16c5b8	0.14723861
18	0x3c571dfb	0.0131297065
19	0x3d7aca40	0.061228037
20	0x3b86699c	0.004101945
21	0x3d5fe5d0	0.054662526
22	0xbe72f0b5	-0.23724635
23	0x3c455824	0.01204494
24	0xbd98c4a3	-0.074593805
25	0xbeafe28d	-0.34352532
26	0xbdf54ce9	-0.1197756
27	0xbe13c784	-0.14431578
28	0xbdaf6338	-0.08563846
29	0xbe0c26e9	-0.13686718
30	0x3d433950	0.04766208
31	0xbedc6d8e	-0.43052334
32	0xbe554a02	-0.20829013
33	0x3d6a7782	0.057242878
34	0xbf5549d9	-0.8331581
35	0xbe877008	-0.2645266
36	0x3d8a1850	0.067429185
37	0xbf118ad4	-0.5685246
38	0x3e830159	0.25586966
39	0xbd420ffd	-0.04737853
40	0x3e46631f	0.19373749
41	0xbee24bf7	-0.44198582
42	0x3d65c9cf	0.056100663
43	0xbe8fd351	-0.2809091
44	0x3d4b3e40	0.049619913
45	0x3e5c3c02	0.21507266
46	0xbeea69c3	-0.45783815
47	0x3e12200b	0.14270036
48	0xbdd1d240	-0.1024518
49	0x3d33d6df	0.04390609
50	0x3e06307b	0.13104431
51	0x3d1c3c6a	0.038143553
52	0xbe51755f	-0.2045493
53	0xbe311891	-0.17294528
54	0x3d7d4182	0.06183005
55	0xbde1d046	-0.11026053
56	0xbe3c0a9b	-0.1836342
57	0x3d45e633	0.04831524
58	0xbd2a9674	-0.04164739
59	0x3e0a2176	0.13489327
60	0x3dd17177	0.1022672
61	0x3e1ecd35	0.15507968
62	0x3e8247af	0.25445315
63	0x3d532614	0.051549986
64	0x3d9205e4	0.0713003
65	0x3e095bc0	0.13413906
66	0xbda0a381	-0.07843686
67	0x3aadef1d	0.0013270114
68	0x3d8570fd	0.065156914
69	0xbe578541	-0.21046926
70	0xbe82eb10	-0.25569963
71	0x3e8154a1	0.2525988
72	0x3d480b36	0.048838817
73	0xbe86f45c	-0.26358306
74	0x3ae5c907	0.0017531224
75	0xbe25331f	-0.16132782
76	0xbd343ecf	-0.04400521
77	0x3da59afe	0.08086203
78	0xbdea1a99	-0.11430854
79	0x3da58f7b	0.08084007
80	0x3d399628	0.045309216
81	0xbe1b0ac3	-0.15140824
82	0xbe4360f5	-0.19079955
83	0x3e630f99	0.22173919
84	0xbe8a1e67	-0.2697632
85	0x3d81bb18	0.063345134
86	0xbdf0c65e	-0.117565855
87	0xbd9418cd	-0.07231293
88	0x3e13200f	0.14367698
89	0xbd5330e7	-0.05156031
90	0x3d612a07	0.05497172
91	0xbd04e83c	-0.03244804
92	0x3e3c4116	0.18384203
93	0xbe5ac84d	-0.21365471
94	0x3e25a9e3	0.16178088
95	0x3ea0eaad	0.31429043
96	0xbd584ea7	-0.052809384
97	0xbe49bb3c	-0.1970033
98	0xbd1c1c3d	-0.038112868
99	0x3e76cbdf	0.24101208
100	0xbc9732c8	-0.018456832
101	0xbd17a528	-0.03702274
102	0xbde75a19	-0.11296482
103	0x3e473210	0.19452691
104	0xbc3a0153	-0.011352855
105	0xbe6731c1	-0.22577573
106	0xbd6c90dd	-0.05775534
107	0x3dc7cf9e	0.09756397
108	0xbd53aec9	-0.05168036
109	0xbe517a3e	-0.20456788
110	0x3b59a46d	0.0033209578
111	0xbdf2a06e	-0.11847006
112	0xbd3bd69d	-0.045858968
113	0xbe2d91d1	-0.16950156
114	0xbb8429a8	-0.004033286
115	0x3df6a39d	0.120429255
116	0xbe9b8bde	-0.30380148
117	0xbd9c3370	-0.076269984
118	0x3e13fc3f	0.14451693
119	0x3caeb0bb	0.021324506
120	0x3e9ad856	0.30243176
121	0xbcc4bd8d	-0.024016166
122	0x3b02a424	0.0019934261
123	0x3da74567	0.08167534
124	0xbe2d476c	-0.16921777
125	0x3ca79cf8	0.02046059
126	0xbd2a5df6	-0.041593514
127	0xbce29912	-0.02766088
128	0x3c8d0634	0.017214872
129	0xbd86735f	-0.06564974
130	0xbb51da70	-0.0032021068
131	0xbdcbaaa7	-0.09944659
132	0x3d13488f	0.03595787
133	0xbe691683	-0.22762494
134	0xbd58f0c2	-0.05296398
135	0xbd96fe0b	-0.073726736
136	0xbbf533a7	-0.007482964
137	0xbd7dcbf6	-0.06196209
138	0xbe06097b	-0.13089554
139	0x3ba9327f	0.0051634903
140	0xbcd83b30	-0.02639541
141	0xbdb92fbf	-0.0904231
142	0xbe8ec345	-0.27883354
143	0xbe82fe70	-0.25584745
144	0xbd7240e4	-0.059143916
145	0xbcf16e3a	-0.029471505
146	0x3dfb7a0c	0.12279138
147	0xbd4cf787	-0.050040748
148	0xbdd8bcff	-0.10582923
149	0xbcdc719d	-0.026909644
150	0xbe06f328	-0.13178694
151	0x3c827de7	0.015929176
152	0xbd2d1ca5	-0.042263646
153	0xbd9de3ec	-0.07709488
154	0xbdac2622	-0.08405711
155	0xbdafbecd	-0.08581314
156	0xbc346ef2	-0.01101278
157	0x3da36c94	0.07979694
158	0xbd694751	-0.05695278
159	0xbc336cd9	-0.010951244
160	0xbe0b92e3	-0.13630252
161	0x3d0f4efd	0.03498744
162	0xbd5fce2d	-0.054639984
163	0xbd4770c7	-0.048691537
164	0xbd38a98d	-0.04508357
165	0xbdcc20cb	-0.09967192
166	0xbb8fdf68	-0.004390646
167	0xbdae918c	-0.085238546
168	0xbd7925f9	-0.06082723
169	0x3a898990	0.0010493267
170	0xbdf416f4	-0.119184405
171	0xbc853d70	-0.016264647
172	0xbcd33405	-0.02578164
173	0xbd9c9061	-0.076447256
174	0xba58dc77	-0.0008272598
175	0xbd469b50	-0.04848796
176	0xbd027232	-0.031847186
177	0xbdcde13d	-0.100527264
178	0xbd4e54d1	-0.050373856
179	0xbb8fbe34	-0.0043866877
180	0xbd87a1d7	-0.066226654
181	0xbdf1dcc6	-0.11809687
182	0xbd7a7da4	-0.061154976
183	0xbd32a8bd	-0.043617953
184	0xbd24b72f	-0.04021376
185	0x3ce9cfd9	0.028541492
186	0xbdf48955	-0.119402565
187	0xbba92a85	-0.0051625394
188	0xbd58c423	-0.052921426
189	0xbd8271cc	-0.06369361
190	0xbe1daca9	-0.15397896
191	0xbda816de	-0.082074866
192	0xbe5d7f16	-0.2163051
193	0x3d821504	0.06351665
194	0xbe70c357	-0.23512016
195	0xbed2531d	-0.41079035
196	0xbe5b1741	-0.2139559
197	0xbe6b5265	-0.2298065
198	0x3e3edfff	0.18640135
199	0xbeb6bf7a	-0.3569296
200	0xbe41f380	-0.18940544
201	0xbe3c8076	-0.18408379
202	0xbeaa9a71	-0.33320954
203	0xbe92ff9f	-0.28710648
204	0xbda0d3b4	-0.07852879
205	0x3e1ab4b0	0.1510799
206	0x3d8f30d9	0.06991739
207	0xbf32710b	-0.6970374
208	0xbe6deb98	-0.23234403
209	0xbcc24bc2	-0.023717765
210	0xbe56751a	-0.20943108
211	0xbc98a356	-0.018632572
212	0x3df293df	0.118446104
213	0xbde45ff7	-0.11151116
214	0x3e5071ed	0.20355959
215	0xbe2f966f	-0.1714723
216	0xbe221b15	-0.15830643
217	0xbdf0aa12	-0.11751188
218	0xbe38ab07	-0.18033992
219	0xbd859a32	-0.06523551
220	0xbd57b79f	-0.05266535
221	0x3f05b0ed	0.5222309
222	0xbe700830	-0.23440623
223	0x3d0f034b	0.03491525
224	0xbda73d98	-0.08166045
225	0x3d9f8702	0.077894226
226	0xbe408f9c	-0.18804783
227	0xbe2cbbc5	-0.16868503
228	0x3e62048e	0.2207205
229	0xbe69576e	-0.22787258
230	0xbe2411ab	-0.16022365
231	0x3d1cde9e	0.03829824
232	0x3e1152f2	0.14191797
233	0xbe868ad3	-0.2627779
234	0xbe3dd8c8	-0.18539727
235	0x3e3c3ab0	0.18381763
236	0xbdf5830a	-0.11987884
237	0xbe3e4a13	-0.18582945
238	0x3e665f99	0.22497405
239	0x3dc7bfdd	0.09753392
240	0xbf27d274	-0.655555
241	0x3e3b26bd	0.18276496
242	0xbe5a6690	-0.21328187
243	0xbc581c8c	-0.0131904
244	0x3da27b69	0.07933695
245	0xbeab173f	-0.33416173
246	0xbe82bdb0	-0.25535345
247	0xbefb95c1	-0.4913769
248	0xbed9e73b	-0.42559227
249	0xbe419fb3	-0.18908577
250	0xbe5ba935	-0.21451266
251	0x3d9fcd4f	0.078028314
252	0xbe2dd5ae	-0.16976044
253	0x3d11f1dc	0.035631046
254	0xbe9c4e6e	-0.30528587
255	0x3e026d0b	0.12736909

Tmodel.fe1.FC2.bias f4 [64]
0	0xbba8ff48	-0.005157385
1	0xbe0dc17e	-0.13843343
2	0xbc9bd6df	-0.019023357
3	0xbdf3facd	-0.11913071
4	0x3d9f3dd6	0.07775466
5	0xbd7b52bd	-0.061358202
6	0xbe4609df	-0.19339703
7	0x3de7f2aa	0.11325581
8	0xbcf582c4	-0.02996958
9	0xbe0cf186	-0.13764009
10	0x3df0b87d	0.11753938
11	0xbe3cecfe	-0.1844978
12	0xbd399500	-0.045308113
13	0xbe2ff386	-0.1718274
14	0xbd863e3f	-0.06554841
15	0xbd24d70f	-0.04024416
16	0xbdb3d0ca	-0.08780058
17	0x3ca10e79	0.019660221
18	0x3cadca24	0.021214552
19	0xbe74222e	-0.23841164
20	0xbd50794e	-0.050896935
21	0x3d8bcc59	0.068260856
22	0x3e1d3038	0.15350425
23	0x3df201e3	0.11816766
24	0x3e269d6e	0.16270992
25	0xbd9a2ddb	-0.075282775
26	0xbc04d3f4	-0.008107174
27	0x3defb35d	0.11704133
28	0xbe359b2e	-0.17734978
29	0x3e052692	0.13002995
30	0xbdbe6626	-0.09296827
31	0x3cb90a93	0.02258805
32	0xbe2f4146	-0.17114744
33	0x3debce57	0.115139656
34	0xbeed0a8f	-0.46297118
35	0xbd909928	-0.07060462
36	0x3d7007ce	0.058601193
37	0x3e016382	0.12635615
38	0xbda1c106	-0.078981444
39	0xbdbdedbe	-0.09273861
40	0xbea73e01	-0.32664493
41	0xbebbaa24	-0.36653244
42	0x3ded086e	0.115738735
43	0xbe701e7b	-0.23449127
44	0xbd2ceadb	-0.042216163
45	0xbe6d556d	-0.23177119
46	0xbe892790	-0.26787996
47	0xbcd27d5e	-0.025694545
48	0xbe2939d8	-0.16525972
49	0xba578ce1	-0.0008222592
50	0xbd06b123	-0.032883774
51	0x3e14a34b	0.14515416
52	0x3e6eef30	0.2333343
53	0xbd2d0d62	-0.04224909
54	0x3dd59b26	0.10429983
55	0xbd8e9114	-0.06961265
56	0x3e094dc6	0.13408574
57	0xbe593559	-0.21211757
58	0xbea42ecb	-0.3206695
59	0xbda15135	-0.07876817
60	0xbd373271	-0.04472584
61	0x3cbc0cb6	0.02295528
62	0x3b962be6	0.00458287
63	0xbdf808ca	-0.121110514

Tmodel.fe1.FC3.weight f4 [64, 64]
0	0x3dc1b525	0.09458379
1	0x3e11de60	0.14244986
2	0x3a8eada3	0.0010885488
3	0x3df74145	0.12072996
4	0xbcd70878	-0.026249155
5	0xbe38478a	-0.1799604
6	0x3c45355b	0.012036647
7	0x3dbe1ec8	0.09283215
8	0x3d65d140	0.05610776
9	0xbd773b99	-0.06035957
10	0xbd8bf12d	-0.0683311
11	0xbcb1432b	-0.021638473
12	0xbd14ebfa	-0.036357857
13	0xbdcfca27	-0.101459794
14	0xbe670c93	-0.2256339
15	0x3ca08321	0.019593777
16	0xbd997c37	-0.07494395
17	0xbdc3a73c	-0.09553382
18	0x3d784c5e	0.060619704
19	0xbd243ed4	-0.04009898
20	0xbe85551e	-0.26041502
21	0x3ed552e0	0.4166479
22	0xbdbd4a5d	-0.09242699
23	0xbb92ca62	-0.0044796923
24	0xbdf27960	-0.11839557
25	0x3e1dbc8f	0.1540396
26	0x3d9d8c78	0.07692808
27	0x3c9dc2ed	0.019257987
28	0xbe2e63ab	-0.17030208
29	0xbe6622ad	-0.22474165
30	0xbcc8e564	-0.024523444
31	0x3ed7dc03	0.42160043
32	0x3e0c4969	0.13699879
33	0xbe664abd	-0.22489448
34	0xbcf98048	-0.030456677
35	0x3d398b21	0.0452987
36	0x3eb28af0	0.34871626
37	0xbea4d2e8	-0.3219216
38	0xbec0b8e7	-0.3764107
39	0xbe1f2ebe	-0.15545174
40	0xbef93178	-0.48670554
41	0x3df06ac8	0.11739117
42	0xbdd5851f	-0.104257815
43	0xbe82812d	-0.25489178
44	0xbbf4be12	-0.007468947
45	0xbe71e80a	-0.23623672
46	0xbca96493	-0.02067784
47	0x3d18fa92	0.037348337
48	0x3de8ce1a	0.11367436
49	0xbaaf248d	-0.0013362333
50	0x3c990b67	0.018682195
51	0xbe533492	-0.20625523
52	0xbeb743a3	-0.3579379
53	0x3d982336	0.07428591
54	0x3ee7e0fc	0.45288837
55	0xbd29ae66	-0.041426085
56	0xbb1a7e3e	-0.0023573781
57	0x3e21494b	0.15750615
58	0xbec24562	-0.3794356
59	0x3d61bf8c	0.055114314
60	0x3c1c16dc	0.0095269345
61	0x3d8c3e03	0.06847765
62	0xbe5eb820	-0.21749926
63	0xbe432e6f	-0.19060682
64	0x3e6813db	0.22663824
65	0xbde25c8a	-0.11052807
66	0xbc079cff	-0.008277177
67	0x3dd1045b	0.10205909
68	0xbe3c9552	-0.18416336
69	0xbdc74753	-0.09730401
70	0xbe2e5a85	-0.17026718
71	0x3c92e156	0.017929714
72	0x3deeefce	0.11666833
73	0x3e34bea3	0.17650847
74	0xbdf19f43	-0.11797955
75	0x3c76fb31	0.015074537
76	0x3c9f278b	0.019428035
77	0xbbc38642	-0.0059669325
78	0x3d9830c9	0.0743118
79	0x3c845f19	0.016158627
80	0xbe93d7bf	-0.2887554
81	0x3e811cb9	0.25217226
82	0xbe60c1cb	-0.21948926
83	0xbd419336	-0.047259532
84	0xbd61f859	-0.055168483
85	0xbefa73df	-0.48916528
86	0xbcf14664	-0.02945251
87	0x3d578d02	0.05262471
88	0xbe30a4b0	-0.17250323
89	0xbe8ef04f	-0.27917716
90	0xbed4cecf	-0.41564032
91	0x3cf2b291	0.029626163
92	0x3c21464a	0.009843418
93	0xbd9f69fc	-0.07783887
94	0xbd5fece7	-0.054669287
95	0xbec9cd4c	-0.39414442
96	0xbe445b25	-0.19175394
97	0xbe5567a4	-0.20840317
98	0x3e6cf5ed	0.23140688
99	0xbe344942	-0.1760607
100	0x3e94ebf2	0.29086262
101	0xbd0caeac	-0.034346268
102	0x3d5f4138	0.054505557
103	0xbe9c10dc	-0.30481613
104	0x3d84b03f	0.06478929
105	0xbe265ffa	-0.1624755
106	0xbe3a6f66	-0.18206558
107	0x3da5b9f3	0.080921076
108	0x3c8fff61	0.017577829
109	0xbd336e36	-0.043806277
110	0xbd1090e3	-0.035294425
111	0x3d450ae3	0.048106086
112	0xbc9aacd7	-0.018881245
113	0x3cb71b00	0.022351742
114	0xbd01aa8f	-0.031656798
115	0x3e7753dc	0.24153084
116	0x3eaa5de8	0.3327477
117	0xbe7eded3	-0.24889688
118	0x3f147944	0.57997537
119	0x3e23101c	0.15924114
120	0xbdb3694f	-0.087603204
121	0xbd1d6f9b	-0.038436513
122	0xbef7ac94	-0.48373854
123	0xbd36b287	-0.04460385
124	0xbc65bd16	-0.014022132
125	0x3e8a0016	0.2695319
126	0x3a28dd34	0.0006441653
127	0x3ad39328	0.0016141878
128	0xbddb102e	-0.106964454
129	0xbd7b7f70	-0.06140083
130	0x3cdefb56	0.027219456
131	0xbba72fd0	-0.0051021352
132	0x3e0fc1a4	0.14038712
133	0x3e3d61ab	0.18494289
134	0x3d0dd8ec	0.0346307
135	0xbe47385c	-0.19455093
136	0x3d8ab90b	0.067735754
137	0xbe612299	-0.21985854
138	0xbe19f1f6	-0.15033707
139	0xbe0c90b5	-0.13727076
140	0x3c750623	0.014955076
141	0x3c65ba90	0.014021531
142	0x3ccea142	0.025223378
143	0xbca5cdf2	-0.020239804
144	0x3d0a9199	0.03383026
145	0xbdc97f44	-0.09838727
146	0xbe5d62a3	-0.21619658
147	0x3dadc1f0	0.08484256
148	0xbd54410e	-0.051819853
149	0x3e96cb58	0.29452014
150	0xbe105fa2	-0.14098981
151	0xbe0c88a4	-0.13724
152	0xbdeaa9a2	-0.11458136
153	0x3e26975c	0.16268677
154	0x3c2528dc	0.010080542
155	0xbe347678	-0.17623317
156	0xbda2ec46	-0.07955222
157	0xbe1be5da	-0.152244
158	0x3d9e6672	0.07734384
159	0x3ea554f0	0.32291365
160	0x3e1d52df	0.15363644
161	0xbdd34871	-0.103165515
162	0xbdacf8c1	-0.084458835
163	0xbe94afbd	-0.29040328
164	0x3e031057	0.12799202
165	0xbdc7bacd	-0.09752426
166	0xbe350b0b	-0.17679994
167	0x3b5364c9	0.0032256118
168	0x3ddbac36	0.10726206
169	0xbd22f0c2	-0.039780386
170	0xbd691444	-0.056904092
171	0xbdc080c1	-0.09399558
172	0x3c8e4f2d	0.017371738
173	0x3d2c595e	0.042077415
174	0xbe147ac6	-0.1449996
175	0xbdf2382a	-0.11827119
176	0xbe87ca21	-0.265214
177	0xbcfa2e42	-0.030539636
178	0x3cef486f	0.029209344
179	0xbe865919	-0.2623985
180	0xbe6ac8f9	-0.22928227
181	0x3deb7fe6	0.11499004
182	0x3eddf767	0.43352816
183	0xbe09f867	-0.13473664
184	0xbccd4ffb	-0.025062552
185	0xbeb2704f	-0.3485131
186	0xbe906921	-0.28205207
187	0x3e2c1e51	0.1680844
188	0xbc58ced8	-0.013232909
189	0xbd084a0c	-0.03327374
190	0x3c4b3b07	0.01240421
191	0xbccd6599	-0.02507286
192	0xbd8ce60f	-0.06879818
193	0x3c155d6c	0.009116512
194	0xbb719c74	-0.0036866935
195	0xbd99940f	-0.07498943
196	0x3e2438d3	0.16037302
197	0xbc84e15e	-0.016220745
198	0xbe12d960	-0.14340734
199	0xbd907cbc	-0.07055041
200	0xbe153eb4	-0.145747
201	0xbba76928	-0.005108971
202	0x3e064332	0.1311157
203	0xbe2e2b06	-0.170086
204	0xbc943106	-0.018089782
205	0xbe11830a	-0.14210144
206	0x3c91d447	0.017801417
207	0x3ab819ef	0.0014045815
208	0x3e1ff6e6	0.15621528
209	0xbd038fc8	-0.032119542
210	0xbdb9bfbe	-0.09069775
211	0xbd1e8bda	-0.03870759
212	0x3e17eb85	0.14835937
213	0x3edca261	0.43092635
214	0x3e380092	0.17968968
215	0xbe9a5735	-0.3014466
216	0x3e9a1a6a	0.30098277
217	0x3e501be4	0.2032314
218	0xbc1aec76	-0.009455791
219	0xbdc66e76	-0.096890375
220	0x3cf5f939	0.030026065
221	0x3e98e7b8	0.29864287
222	0x3dff9efb	0.12481495
223	0x3eddd4b0	0.4332633
224	0xbde5abcd	-0.11214409
225	0x3e8f9359	0.28042105
226	0xbef7a326	-0.4836666
227	0x3e13fd4a	0.14452091
228	0xbe7369b0	-0.23770785
229	0x3e3631b8	0.17792404
230	0xbdec5829	-0.11540253
231	0x3de4eec2	0.11178352
232	0x3df9f9ec	0.12205872
233	0x3dba77c3	0.09104874
234	0x3e43abf9	0.19108571
235	0xbb62959c	-0.0034574037
236	0x3d39c983	0.045358192
237	0xbc8cef5b	-0.017203977
238	0xbdd6aa92	-0.104817525
239	0xbd9d43c3	-0.0767894
240	0xbe8da3fd	-0.27664176
241	0xbb526774	-0.003210512
242	0x3d678516	0.056523405
243	0xbe16fcd3	-0.14744882
244	0xbe8fb334	-0.2806641
245	0x3e501728	0.20321333
246	0xbf21268f	-0.6294946
247	0xbcac15f1	-0.021006556
248	0x3d8e5262	0.06949307
249	0x3ddccdba	0.10781427
250	0x3f1f823b	0.6230809
251	0xbc99f175	-0.018791893
252	0x3d1d4bc5	0.038402338
253	0xbe1b6719	-0.15176047
254	0x3d3aebae	0.045634918
255	0x3ded5f96	0.11590497

Tmodel.fe1.FC3.bias f4 [64]
0	0xbd3bdd86	-0.045865558
1	0x3e52600f	0.20544456
2	0xbdce6a3b	-0.100788556
3	0xbc037625	-0.008023773
4	0x3dea70e6	0.11447315
5	0x3cf3aa21	0.02974421
6	0xbda78f7e	-0.08181666
7	0xbd9e996b	-0.07744106
8	0xbdfa30a5	-0.122163095
9	0xbd0d038e	-0.03442722
10	0x3dadd4e0	0.08487868
11	0xbca9aa2b	-0.020711025
12	0xbe05ef94	-0.13079673
13	0xbd794f8a	-0.06086687
14	0x3d551359	0.052020404
15	0xbdba151e	-0.09086059
16	0xbdb62a8f	-0.08894836
17	0x3dca15bc	0.09867427
18	0xbe1ffaa1	-0.15622951
19	0x3e19d141	0.1502123
20	0x3dfeeeb7	0.12447875
21	0xbdcce866	-0.10005264
22	0xbe2642c4	-0.16236407
23	0x3c8efdfe	0.017455097
24	0xbc2b2561	-0.010445924
25	0xbe5a038e	-0.21290419
26	0x3ded74a2	0.115945116
27	0x3d8b6af6	0.068075106
28	0x3dbd3669	0.092388935
29	0xbdbbd31e	-0.09171127
30	0x3da4ae0e	0.08041011
31	0xbced9846	-0.029003274
32	0xbd9a1f6d	-0.07525525
33	0x3de49f7e	0.11163233
34	0x3d107593	0.035268378
35	0xbd8e97b3	-0.06962528
36	0x3dd5aa42	0.10432865
37	0xbe0cfdb4	-0.13768655
38	0x3ea41c8a	0.32053024
39	0xbdd74166	-0.10510521
40	0x3dfb7449	0.12278039
41	0xbdf58aa7	-0.119893365
42	0xbd7d0c10	-0.06177908
43	0xbe1c2503	-0.15248494
44	0x3deab2e2	0.114599004
45	0xb94b7282	-0.00019402246
46	0xbc19c7ee	-0.009386046
47	0xbd8f976a	-0.07011302
48	0xbe08e743	-0.1336947
49	0xbda5177a	-0.080611184
50	0xbe1592a9	-0.14606728
51	0x3de3afe4	0.11117533
52	0xbdbf004a	-0.09326227
53	0xbe02e15f	-0.12781285
54	0x3d48f96d	0.049065996
55	0xbd97b2dd	-0.07407162
56	0xbe73b510	-0.23799539
57	0xbbb1098f	-0.005402751
58	0x3d637071	0.055527154
59	0x3c99c5bf	0.01877105
60	0x3d5a0df8	0.053235978
61	0x3ddec2ca	0.10876997
62	0xbb83cae0	-0.0040219873
63	0xbd6272d9	-0.05528531

Tmodel.fe1.FC4.weight f4 [32, 128]
0	0x3e8b1cef	0.27170512
1	0xbe952793	-0.29131755
2	0x3e3b0b0e	0.18265936
3	0x3e92f67b	0.28703675
4	0xbd92d2b5	-0.071690954
5	0xbe353a61	-0.17698051
6	0xbe24e750	-0.16103864
7	0x3edd41d2	0.4321428
8	0x3d10db96	0.035365663
9	0x3ea1f355	0.3163096
10	0xbe32c81e	-0.17459151
11	0xbc03c50b	-0.008042584
12	0xbe845705	-0.2584764
13	0x3e27fee9	0.16405834
14	0xbe9f46c5	-0.3110868
15	0x3e5d168e	0.21590635
16	0x3e76ab00	0.24088669
17	0xbe09a554	-0.13441974
18	0x3d82b538	0.06382221
19	0xbe80dc19	-0.2516792
20	0x3d1cf8ad	0.038323093
21	0xbd7ae512	-0.061253615
22	0x3dc17f26	0.0944808
23	0x3ddaddea	0.10686858
24	0xbe1bcc0a	-0.15214553
25	0x3e45cdfe	0.19316861
26	0xbe098455	-0.13429387
27	0xbec3d513	-0.382485
28	0xbe6097e2	-0.21932939
29	0x3e0a65f4	0.13515455
30	0x3d846e8a	0.06466396
31	0xbe2698f3	-0.16269283
32	0x3e9618cc	0.29315794
33	0xbdaa209a	-0.083069995
34	0xbe1f1a64	-0.15537411
35	0x3da48ee6	0.08035068
36	0xbecb8033	-0.39746246
37	0xbe40db3b	-0.1883363
38	0x3d70f308	0.058825523
39	0xbe4aef11	-0.19817759
40	0xbe8be59e	-0.27323622
41	0x3dc96545	0.09833769
42	0x3eca423a	0.39503652
43	0x3e2ccf14	0.16875869
44	0xbe95d353	-0.2926279
45	0xbe7ee091	-0.24890353
46	0xbd0cd9df	-0.034387466
47	0x3e9665f0	0.29374647
48	0x3d9ea280	0.07745838
49	0x3e754397	0.23951565
50	0x3ea0b4e8	0.3138802
51	0xbce67b3d	-0.028134936
52	0x3e865e99	0.26244047
53	0x3e69ba0c	0.22824878
54	0xbd9d02aa	-0.07666524
55	0x3e9cb906	0.30609912
56	0x3e1c9b56	0.15293631
57	0xbe6ad077	-0.22931086
58	0xbd6d015e	-0.057862632
59	0xbea9a7b2	-0.33135754
60	0x3e03e33c	0.12879652
61	0x3d6e7fda	0.058227398
62	0xbcfdd99d	-0.030987555
63	0x3d826d15	0.06368462
64	0x3e4d210a	0.20032135
65	0x3e9621d2	0.29322678
66	0x3e491185	0.1963559
67	0xbf0621f0	-0.52395535
68	0xbe6a96f3	-0.22909145
69	0x3ee9030e	0.45510143
70	0x3e09d89d	0.13461538
71	0x3eb2ccbb	0.34921822
72	0x3d560071	0.052246515
73	0x3ea8c293	0.32960948
74	0x3df48890	0.1194011
75	0x3e7037f9	0.23458852
76	0x3e516c3e	0.20451447
77	0x3e6b455d	0.22975679
78	0xbef0e8ac	-0.47052515
79	0x3b0f4a6c	0.0021864427
80	0xbd23d258	-0.03999552
81	0xbea2b367	-0.31777498
82	0x3db1a30a	0.08673675
83	0xbdc52e27	-0.096279435
84	0xbe0c3a9c	-0.13694233
85	0x3ec4c4b8	0.38431334
86	0x3ea24cd5	0.31699243
87	0x3d42662c	0.04746072
88	0x3e2a56f5	0.16634734
89	0xbe6505f4	-0.22365552
90	0x3b4781fa	0.0030442462
91	0xbe93eb27	-0.28890345
92	0x3ea599eb	0.32343993
93	0xbe292935	-0.16519625
94	0xbd5e4bb7	-0.054271426
95	0x3e6ddc5e	0.23228595
96	0x3eb28821	0.34869483
97	0x3d6cc9cf	0.057809647
98	0x3e5fae13	0.21843748
99	0xbe0aac66	-0.13542327
100	0xbe9d45b0	-0.3071723
101	0x3de923bf	0.11383771
102	0xbe300ead	-0.17193098
103	0x3ee7d23b	0.4527758
104	0x3e0a5c04	0.13511664
105	0xbe0c7e5d	-0.13720079
106	0x3ee272fa	0.44228345
107	0xbe040bc4	-0.12895113
108	0xbea06f94	-0.31335127
109	0xbeff6128	-0.49878812
110	0xbdad5e8f	-0.08465301
111	0xbea87ace	-0.32906193
112	0x3d7d6788	0.061866313
113	0x3dbca7c8	0.09211689
114	0xbe897f8d	-0.26855126
115	0xbdb32251	-0.0874678
116	0x3da34c37	0.07973521
117	0xbe795998	-0.24350584
118	0xbc9292f0	-0.01789233
119	0xbcd78107	-0.026306642
120	0x3dafb890	0.085801244
121	0x3e948c1c	0.29013145
122	0xbe6519c4	-0.2237311
123	0xbebb4b00	-0.36580658
124	0xbe081071	-0.13287522
125	0xbe7ecdb1	-0.24883153
126	0x3dffcc89	0.12490184
127	0x3e2c10e9	0.16803326
128	0xbc258fe5	-0.010105108
129	0xbe6f80c8	-0.2338897
130	0x3d98585e	0.0743873
131	0x3e0a6bf3	0.13517742
132	0xbe442b1e	-0.19157073
133	0x3e0152fc	0.12629312
134	0x3dd63dae	0.10460983
135	0xbac2e192	-0.0014868251
136	0x3e6d3843	0.23165993
137	0xbe1b3416	-0.15156588
138	0xbe3c05d7	-0.18361603
139	0xbda02649	-0.07819802
140	0x3eda044c	0.42581403
141	0x3d71c218	0.059022993
142	0x3ca330cc	0.01992073
143	0x3df29684	0.11845115
144	0xbc9cc411	-0.01913646
145	0xbe136f7d	-0.14397998
146	0x3dce3a9a	0.10069771
147	0xbe929b01	-0.28633884
148	0xbd5bd16a	-0.05366651
149	0x3e82b988	0.25532174
150	0x3e95a315	0.29225984
151	0xbe5e96bf	-0.21737193
152	0xbce382e2	-0.02777237
153	0x3e326226	0.17420253
154	0xbec6e6d5	-0.38847986
155	0xbd556fdd	-0.052108634
156	0xbe09e85c	-0.13467544
157	0x3cc723ba	0.024309028
158	0xbcac59c5	-0.0210389
159	0xbd73152c	-0.059346363
160	0x3e0ba39d	0.13636632
161	0xbe3ef486	-0.18647966
162	0x3e10154f	0.14070629
163	0xbe24ac9d	-0.16081472
164	0xbd14d62f	-0.036337074
165	0x3ee7b917	0.452584
166	0xbedb93a6	-0.42886084
167	0x3e5d2dc0	0.21599483
168	0xbd9f121d	-0.07767127
169	0x3e023f93	0.12719564
170	0xbc920623	-0.017825192
171	0x3e881832	0.2658096
172	0xbe1655fb	-0.14681236
173	0x3da98d78	0.08278936
174	0xbd9e0301	-0.07715417
175	0x3dd13bd7	0.10216492
176	0xbd580d50	-0.05274707
177	0xbdb10bc7	-0.086448245
178	0x3eae6527	0.34061548
179	0xbe54751f	-0.20747803
180	0xbbaa4b6d	-0.0051969797
181	0x3d78be8f	0.060728606
182	0xbe3c8307	-0.18409358
183	0xbcddae36	-0.02706061
184	0x3d0054b0	0.031330764
185	0xbc965cba	-0.018354762
186	0xbd04024f	-0.032228764
187	0x3dc24301	0.09485436
188	0x3d3de000	0.0463562
189	0xbd05372d	-0.032523323
190	0x3d40b38c	0.04704623
191	0xbd2d8d8a	-0.04237131
192	0xbe0aefc1	-0.13568021
193	0xbe62bef7	-0.2214316
194	0xbc599553	-0.013280231
195	0xbd346228	-0.04403892
196	0x3e098e6c	0.13433236
197	0x3acc3744	0.0015580435
198	0x3e71df25	0.23620279
199	0xbbe263f7	-0.0069088894
200	0x3ce6fbe7	0.028196288
201	0xbc0e55fa	-0.008687491
202	0x3d070798	0.032966226
203	0xbc893385	-0.0167482
204	0x3e324ee7	0.17412911
205	0xbcd5e86f	-0.02611181
206	0x3d8d0271	0.06885231
207	0xbe0e79d2	-0.13913658
208	0x3e4d6080	0.20056343
209	0x3da193d9	0.07889528
210	0xbe85486f	-0.26031825
211	0xbef65bfd	-0.48117056
212	0x3d9b8b08	0.075948775
213	0x3e7113c1	0.23542692
214	0x3d8eb1a6	0.069674775
215	0x3e1f0f1a	0.15533105
216	0xbd8214d2	-0.063516274
217	0x3d99543e	0.07486771
218	0xbb7c502d	-0.0038499937
219	0x3d568a11	0.052377764
220	0x3e1cc9a6	0.15311298
221	0x3c70cd53	0.014697391
222	0x3e495649	0.19661821
223	0x3ebe4ac7	0.37166426
224	0xbdcbb084	-0.09945777
225	0xbe63e8f6	-0.22256836
226	0x3db1aae3	0.08675172
227	0xbe9cad00	-0.3060074
228	0x3d62d9ac	0.05538337
229	0x3e4d5ad4	0.2005418
230	0xbe1a960a	-0.15096298
231	0x3dcc8644	0.09986547
232	0xbc908ea8	-0.017646149
233	0xbdcdc844	-0.10047963
234	0xbca86c59	-0.020559477
235	0x3d68a174	0.0567946
236	0x3b6188bd	0.0034413778
237	0xbce4b2d1	-0.027917298
238	0xbd8f7bca	-0.07006033
239	0x3e0bfe3d	0.13671203
240	0x3e800583	0.25004205
241	0x3e157f9f	0.14599465
242	0x3e1cc0b6	0.15307888
243	0xbd7bec7d	-0.06150483
244	0xbd75b366	-0.05998554
245	0x3d3a9bd8	0.04555878
246	0xbe22a547	-0.15883361
247	0x3ccc7280	0.024956942
248	0x3e071d92	0.13194874
249	0x3d482188	0.048860103
250	0x3e323c3f	0.17405795
251	0x3dad8bc7	0.08473926
252	0x3ca10e48	0.01966013
253	0xbd84cd02	-0.06484415
254	0xbdab0023	-0.083496355
255	0x3d9cf726	0.07664327

Tmodel.fe1.FC4.bias f4 [32]
0	0xbddd269f	-0.10798382
1	0xbedf5377	-0.43618366
2	0x3efc0197	0.49219963
3	0x3ee32195	0.4436156
4	0x3eb3547d	0.35025397
5	0xbf12c387	-0.573296
6	0x3d12c050	0.035827935
7	0x3ddb5054	0.10708681
8	0x3e0da072	0.13830736
9	0x3e6da67e	0.23208043
10	0x3e2f80dd	0.17139001
11	0xbf3dbfd8	-0.74120855
12	0x3c195e16	0.009360811
13	0xbd929057	-0.07156437
14	0xbe216d20	-0.15764284
15	0x3e116c5b	0.1420149
16	0x3c171590	0.0092214495
17	0xbdf67f15	-0.12035958
18	0xbe08ddcf	-0.13365863
19	0xbf05554c	-0.5208328
20	0xbe712d3b	-0.2355241
21	0x3e42f77a	0.19039717
22	0x3ea78e24	0.32725632
23	0x3e657619	0.22408332
24	0x3eb8f05a	0.36120874
25	0x3f00d993	0.5033199
26	0xbc7079bd	-0.014677462
27	0x3dfcc29b	0.123418055
28	0xbde47e2e	-0.11156879
29	0x3ed2655e	0.41092962
30	0x3ea8fcbe	0.33005327
31	0x3d7f20c7	0.06228712

Tmodel.norm1.weight f4 [32]
0	0x3f3980e7	0.72462314
1	0x3ec00c75	0.37509504
2	0x3e06511a	0.13116875
3	0x3e615e46	0.22008619
4	0x3ebf24b4	0.3733269
5	0x3eabd8d8	0.33563876
6	0x3f34599c	0.70449233
7	0x3d344e31	0.04401988
8	0x3e0b82e4	0.1362415
9	0x3db504ba	0.08838792
10	0x3daffc43	0.08593037
11	0x3e842f25	0.25817218
12	0x3df66d73	0.120325945
13	0x3e7aa487	0.24476825
14	0x3e4220c2	0.18957809
15	0x3e9b2da4	0.3030826
16	0x3e6a9499	0.22908248
17	0x3e45321e	0.192574
18	0x3e2044ee	0.15651295
19	0x3ef9f4f7	0.48819706
20	0x3e946d98	0.28989863
21	0x3dccaf4a	0.09994371
22	0x3e88e707	0.2673876
23	0x3da1f2a3	0.079076074
24	0x3eebb1f0	0.46034193
25	0x3d90b481	0.070656784
26	0x3ec5d714	0.38640654
27	0x3e931a51	0.28731015
28	0x3df57ea8	0.119870484
29	0x3e86d07b	0.26330933
30	0x3e047451	0.12934996
31	0x3e8938bf	0.26801106

Tmodel.norm1.bias f4 [32]
0	0xbed7fe7a	-0.42186338
1	0x3d3ac8fd	0.045601834
2	0xbe04c437	-0.12965475
3	0xbde780ca	-0.113038614
4	0xbdaf0ddd	-0.08547566
5	0xbc812571	-0.015764924
6	0xbeafe70b	-0.3435596
7	0xbe09dd95	-0.13463433
8	0xbe832be9	-0.25619438
9	0xbe169f41	-0.14709188
10	0xbc805066	-0.015663337
11	0x3db22439	0.08698315
12	0xbd70b674	-0.05876775
13	0x3e0ce779	0.13760175
14	0x3e154496	0.14576945
15	0xbe00a5a4	-0.12563187
16	0xbda40ab9	-0.08009858
17	0xbe5eba9a	-0.2175087
18	0xbbd4f25d	-0.0064986185
19	0x3d4efe04	0.050535217
20	0x3dd8c4fa	0.10584445
21	0xbe2aa2b8	-0.16663635
22	0xbe360715	-0.17776139
23	0xbe0c20e1	-0.13684417
24	0xbe29ecf6	-0.165943
25	0xbde9f466	-0.114235684
26	0xbdb7784c	-0.08958492
27	0xbe02cd26	-0.1277357
28	0x3c88649c	0.016649537
29	0xbdc054f9	-0.09391207
30	0xbcb9c44f	-0.022676615
31	0x3dd6e6b0	0.10493219

Tmodel.out1.weight f4 [32, 32]
0	0xc0edc070	-7.429741
1	0x3e699e88	0.22814381
2	0x3d4f9a42	0.05068422
3	0xba93041f	-0.0011216438
4	0x3edb6c28	0.42855954
5	0xbf5c07c1	-0.8594933
6	0xbf12415d	-0.57130986
7	0xbcf616a1	-0.030040087
8	0x3c2868a6	0.010278856
9	0xbe28d282	-0.16486552
10	0xbcc52aac	-0.0240682
11	0x3ea18069	0.31543282
12	0x3e16a445	0.14711101
13	0xbc1a3b9e	-0.009413628
14	0xbbaa91f4	-0.0052053872
15	0x3da40eab	0.0801061
16	0xbcdb7b78	-0.026792273
17	0x3eac4942	0.3364964
18	0xbe34231e	-0.17591521
19	0xbdda2b6b	-0.106528126
20	0xbe8ef665	-0.2792236
21	0x3d5cab23	0.053874146
22	0x3deb9630	0.11503255
23	0xbbbf0981	-0.0058299904
24	0xbe8d06d7	-0.2754428
25	0x3d37633a	0.044772364
26	0xbd8596ac	-0.06522879
27	0xbcde621b	-0.02714639
28	0x3e9072b9	0.28212526
29	0x3ead0892	0.337956
30	0xbd08fc09	-0.033443484
31	0xbec3b16d	-0.38221303
32	0xbd78c18f	-0.060731467
33	0x3c6881e2	0.014191123
34	0xbcb53c2a	-0.022123415
35	0xbda44fbe	-0.08023022
36	0xbce8679b	-0.028369715
37	0xbd97f9f9	-0.074207254
38	0xbc8b8530	-0.017031282
39	0x3b9a4764	0.0047082175
40	0xbd90ce4f	-0.070706
41	0x3c978e85	0.018500576
42	0xbc488003	-0.012237552
43	0xbd37b58e	-0.04485088
44	0xbd14aa06	-0.03629496
45	0xbd8006fd	-0.06251333
46	0xbda7d4f8	-0.081949174
47	0x3c2ff33d	0.010739145
48	0xbd17cfeb	-0.03706352
49	0xbd945b8b	-0.07244023
50	0xbd485b93	-0.048915457
51	0x3b9e800a	0.004837041
52	0xbc9409a1	-0.018070998
53	0x3c41871b	0.011811997
54	0x3aa12a83	0.0012295995
55	0xbd4c6446	-0.049900316
56	0xbd0b8acc	-0.034067914
57	0xbd6fe427	-0.058567192
58	0x3c96c363	0.018403715
59	0xbd27be09	-0.040952716
60	0xbd73426d	-0.05938952
61	0xbd2be128	-0.041962773
62	0xbda73a31	-0.08165396
63	0xbcd24a6e	-0.025670256
64	0x3d1ec324	0.03876032
65	0x3df8823a	0.12134214
66	0x3df69383	0.120398544
67	0xbd7086b9	-0.05872223
68	0x3d341800	0.0439682
69	0x3e0e5d10	0.13902688
70	0xc1306747	-11.025214
71	0x3d63d5e4	0.055623904
72	0x3cb0b409	0.021570222
73	0x3d1ee8b2	0.038796134
74	0xbc8751bc	-0.016518466
75	0x3dc8b217	0.09799593
76	0xbd17d363	-0.03706683
77	0xbcd8b053	-0.026451265
78	0x3e2435a6	0.1603609
79	0xbd06412b	-0.032776993
80	0x3da3b4f0	0.079934955
81	0x3d7ad969	0.061242495
82	0xbcbb9747	-0.022899283
83	0x3dab24bd	0.08356617
84	0xbdf429da	-0.11922045
85	0x3d43395f	0.047662135
86	0x3ddfc4a6	0.109261796
87	0x3d17c371	0.03705162
88	0x3e13959b	0.14412539
89	0x3e16fef2	0.14745691
90	0xbda19533	-0.078897856
91	0x3d3b942f	0.045795616
92	0xbe1dea23	-0.15421347
93	0x3da889f7	0.0822944
94	0x3e040af3	0.12894802
95	0x3dda0316	0.1064512
96	0x3bae3e00	0.0053174496
97	0x3da20eb2	0.07912959
98	0x3c650d61	0.013980241
99	0xbe8dac5a	-0.27670556
100	0xbeaff523	-0.34366712
101	0x3cbdb2d6	0.023156565
102	0xc0e091ae	-7.017783
103	0xbbd1d673	-0.006403738
104	0x3d8ee5f2	0.06977452
105	0x3dbb6f80	0.09152126
106	0xbdf58a98	-0.11989325
107	0x3e39b09e	0.1813378
108	0xbd83acc6	-0.06429438
109	0xbe8ae169	-0.271251
110	0x3d7dea85	0.061991233
111	0xbee2a707	-0.44268057
112	0xbde8826b	-0.11353
113	0x3e0bfbc8	0.13670266
114	0xbe0f82ed	-0.14014788
115	0x3eeddd5e	0.46457952
116	0xbe03f8cb	-0.12887876
117	0x3d4b48ac	0.049629852
118	0x3f0230eb	0.5085589
119	0xbc99d94f	-0.018780379
120	0x3f1171f9	0.56814533
121	0x3c23afd8	0.009990655
122	0xbf088f38	-0.53343534
123	0x3e1c4494	0.15260535
124	0x3e90fb02	0.28316504
125	0xbd171264	-0.036882773
126	0x3d684db8	0.056714743
127	0x3df35af6	0.11882584
128	0xbbf9006a	-0.0075989263
129	0x3bec809d	0.0072174803
130	0xbae0de78	-0.0017156145
131	0xbc88282d	-0.01662072
132	0x3cb146dc	0.021640234
133	0xbd9e928a	-0.07742794
134	0xbd300a79	-0.042978738
135	0x3c035c28	0.008017577
136	0xbc95fe81	-0.018309833
137	0xbc73262a	-0.014840642
138	0xbc97d47e	-0.018533941
139	0x3b2e291c	0.0026574796
140	0xbc23ab18	-0.009989522
141	0xbd8519be	-0.064990506
142	0x3cb47685	0.02202917
143	0xbd9ef113	-0.07760825
144	0xbc4c5e72	-0.012473689
145	0xbd20d3f6	-0.03926464
146	0xbd6839b7	-0.056695666
147	0x3c299bc2	0.010352077
148	0xbcff1812	-0.031139407
149	0x3ca05668	0.019572452
150	0xbcb30ffe	-0.021858212
151	0xbc9ad2a9	-0.018899279
152	0x3d34f795	0.044181425
153	0x3c26d204	0.010181908
154	0xbce25de7	-0.027632667
155	0x3c2008c5	0.009767716
156	0xbc84d393	-0.016214168
157	0x3ba8a6ed	0.005146852
158	0xbd0f5bd5	-0.034999687
159	0xbd3395a4	-0.04384388
160	0xbe2e0605	-0.16994484
161	0x3e316d72	0.17326906
162	0xbd4ff5fc	-0.0507717
163	0xbdf9a4d7	-0.12189644
164	0x3dba8219	0.091068454
165	0xbf063736	-0.52427995
166	0x3ddfaf90	0.10922158
167	0xbebbf9ab	-0.3671392
168	0x3c7af58d	0.015317333
169	0xbdb3490b	-0.08754166
170	0x3e1c85d4	0.15285426
171	0x3e326f98	0.17425382
172	0xbf1cb78f	-0.6121759
173	0x3e232085	0.15930374
174	0xbe8e3862	-0.27777392
175	0xbe2fe5ac	-0.17177457
176	0x3d4464a8	0.047947556
177	0xbe91129b	-0.28334507
178	0x3d6543cf	0.05597287
179	0xbde26773	-0.110548876
180	0x3cd8d73c	0.02646982
181	0xbdc6511c	-0.09683439
182	0x3eb5830c	0.35451543
183	0xbd72f595	-0.059316237
184	0x3ef91d10	0.48654985
185	0xbd746303	-0.059664737
186	0xbe1a5376	-0.150709
187	0xbdd677a2	-0.10472037
188	0xbdd39b3d	-0.10332344
189	0xbd54aec7	-0.051924493
190	0x3edd010b	0.43164858
191	0xbea1995b	-0.31562313
192	0xc0a1a756	-5.0516768
193	0xbb3ffe0e	-0.0029295716
194	0x3e870b94	0.2637602
195	0x3e5bf66e	0.21480724
196	0x3cb3541a	0.021890689
197	0xbe241ec3	-0.1602736
198	0xbdba9fe5	-0.09112529
199	0xbe93ea7c	-0.28889835
200	0x3dc49ff5	0.09600822
201	0x3d237d79	0.039914582
202	0xbcdfc021	-0.027313294
203	0x3d7c421b	0.06158648
204	0x3e9ab070	0.30212736
205	0xbd57d1e1	-0.05269039
206	0xbe2bf155	-0.1679128
207	0x3e8d83c1	0.27639583
208	0xbe0a7838	-0.13522422
209	0xbd6da1fb	-0.058015805
210	0xbd042e3d	-0.03227066
211	0xbe2adda2	-0.16686109
212	0xbeb5ce34	-0.35508883
213	0x3df8119e	0.12112735
214	0x3e1fb0a4	0.15594727
215	0x3d85e80e	0.065384015
216	0x3e283df8	0.16429889
217	0x3dd712df	0.10501646
218	0x3ed33837	0.41253826
219	0x3d889ed4	0.06670919
220	0x3da56750	0.08076346
221	0x3f0544f8	0.5205836
222	0x3e0285c5	0.12746342
223	0x3ddf96b8	0.10917419
224	0xbd323e53	-0.04351647
225	0x3b0eb5c3	0.002177582
226	0xbcd0577d	-0.025432343
227	0xbad1f58d	-0.0016018614
228	0xba0c230a	-0.00053457974
229	0xbd6b7149	-0.057481084
230	0xbd156a2d	-0.03647821
231	0x3cdf7be4	0.027280755
232	0xbbfe85b8	-0.0077674054
233	0xbcda93de	-0.026681837
234	0x3a5566f6	0.00081406476
235	0x3cddd623	0.027079647
236	0xbc227a0c	-0.009916794
237	0xbc22de12	-0.009940641
238	0xbd22e6e3	-0.039770972
239	0xbcb6d14e	-0.022316601
240	0xbca7061c	-0.020388655
241	0xbbac5911	-0.005259641
242	0xbd991781	-0.07475186
243	0xbcd19131	-0.025581928
244	0x3cced9bd	0.02525031
245	0xbd7ab750	-0.061209977
246	0xbd5f8749	-0.054572377
247	0xbd63270c	-0.05545716
248	0xbc3b47e4	-0.011430714
249	0x3cdbdf5a	0.0268399
250	0xbdc764ad	-0.09735999
251	0x3d4c96e5	0.04994859
252	0x3b8e5c32	0.0043444866
253	0x3d6d1444	0.057880655
254	0xbd7206e8	-0.059088618
255	0xbce7503a	-0.028236497

Tmodel.out1.bias f4 [32]
0	0x3cdb5730	0.026774973
1	0xbb168eca	-0.0022973293
2	0x3e799269	0.24372257
3	0x3c22593d	0.009908971
4	0xbd5f8cdf	-0.054577705
5	0xbdfdc074	-0.12390223
6	0xbcab5a4f	-0.020917086
7	0xbd826263	-0.06366422
8	0xbd373834	-0.044731334
9	0xbd71568b	-0.058920424
10	0x3ea72468	0.32644963
11	0xbaec6497	-0.0018035349
12	0xbc8fc53e	-0.017550107
13	0xbe3d744b	-0.18501393
14	0xbcd8b611	-0.026454004
15	0xbdb6d9a3	-0.0892823
16	0xbc697fa5	-0.014251624
17	0xbd7d1134	-0.061783984
18	0xbd649bd0	-0.055812657
19	0xbc12f9c7	-0.008970684
20	0xbe081503	-0.13289265
21	0xbd1c839b	-0.038211446
22	0xbcf56af2	-0.029958222
23	0x3b67391d	0.0035281845
24	0xbd1f5e41	-0.038908247
25	0xbcf60c5e	-0.030035194
26	0xb8dfcc77	-0.00010671553
27	0xbe6fbfb6	-0.23412976
28	0xbe196474	-0.14979726
29	0x3e99b200	0.30018616
30	0xbd24734f	-0.04014903
31	0xbd125ff4	-0.03573604

Tmodel.out2.weight f4 [1, 32]
0	0x3e01ea29	0.12686981
1	0x3b82fc1b	0.0039973385
2	0xbe7b38d3	-0.24533395
3	0xbda07f0e	-0.07836734
4	0xbb0b2855	-0.0021233757
5	0xbd8d7534	-0.0690712
6	0x3d3d7771	0.046256486
7	0xbba30aca	-0.0049756514
8	0x3cad95af	0.021189539
9	0x3d91e67b	0.07124039
10	0x3ee7d244	0.45277607
11	0x3c6eca55	0.014574607
12	0x3bd3c003	0.0064620986
13	0xbd5f7bc2	-0.054561384
14	0x3c7e752a	0.015530864
15	0xbbfddb3a	-0.007747081
16	0x3da3d150	0.079989076
17	0x3b91290d	0.0044299425
18	0x3d4961d0	0.049165547
19	0xbd049aa7	-0.03237405
20	0x3d15c899	0.036568258
21	0x3d7138ee	0.058892183
22	0xbd7a99f0	-0.061181962
23	0xbd9fa830	-0.07795751
24	0xbd9974cf	-0.074929826
25	0x3de0e8a1	0.109818704
26	0x3e04e172	0.12976626
27	0x3d8f2c9d	0.06990931
28	0x3d902a69	0.07039339
29	0xbe94ec09	-0.2908633
30	0xbdc28310	-0.094976544
31	0x3b75eba6	0.003752449

Rmodel1.fe1.FC1.weight f4 [64, 3]
0	0x3f0b4556	0.54402673
1	0x3c163ae4	0.009169314
2	0x3cbf34d4	0.02334062
3	0xbe95f41d	-0.29287806
4	0xbe0431d8	-0.12909639
5	0x3dabf875	0.08396999
6	0x3e57b396	0.210646
7	0xbcec4f2a	-0.028846342
8	0x3e2b026e	0.16700146
9	0x3a9a5498	0.0011774478
10	0x3a94988f	0.001133697
11	0xbafb9896	-0.0019195254
12	0x3e4ffd05	0.20311363
13	0xbe5a5926	-0.2132307
14	0xbd93488e	-0.07191573
15	0x3e549beb	0.20762603
16	0x3cae8c87	0.021307243
17	0xbe53f8fd	-0.2070045
18	0xbbb3a9d3	-0.005482891
19	0x3bba088c	0.0056772884
20	0xbaf1a536	-0.0018436078
21	0xbd2e40c9	-0.042542253
22	0x3d6ca1d6	0.057771526
23	0x3d6297c0	0.0553205
24	0x3cdb1996	0.026745599
25	0x3d9c1c30	0.07622564
26	0x3e107540	0.14107227
27	0xbcb3496e	-0.0218856
28	0xbcbec1e5	-0.023285815
29	0x3b3bc0d4	0.002864887
30	0x3993a6ec	0.0002816239
31	0x3aca516e	0.0015435645
32	0x3b9e36e4	0.004828321
33	0x3e365245	0.17804821
34	0xbd27b6c5	-0.040945787
35	0x3e4b8381	0.19874384
36	0xbed2cb2b	-0.4117063
37	0xbd0076b7	-0.031363215
38	0x3dae102d	0.08499179
39	0xbe13952b	-0.14412372
40	0xbc255f43	-0.010093513
41	0x3d8814d8	0.06644601
42	0x3ebadc2b	0.364961
43	0x3c412523	0.011788639
44	0x3d312211	0.04324538
45	0xbe4b7220	-0.19867754
46	0xbde37b91	-0.11107553
47	0xbdd1d69c	-0.102460116
48	0x3a92ce09	0.0011200319
49	0xbabd00a9	-0.0014419752
50	0x398c7035	0.00026786482
51	0xbbe3519d	-0.0069372193
52	0xbc4b32e8	-0.012402274
53	0xbb3d7946	-0.0028911396
54	0xbe187ed4	-0.14892131
55	0xbcd19372	-0.025583003
56	0x3d867e73	0.06567087
57	0xbe4b3e8b	-0.19848077
58	0x3e924846	0.28570765
59	0x3dc9a37a	0.09845634
60	0xbd6b105a	-0.05738864
61	0x3e1df9ce	0.15427324
62	0x3e2e3395	0.17011864
63	0x3e6ce819	0.23135413
64	0x3d8a589e	0.06755184
65	0x3d18cdda	0.03730569
66	0xbead0128	-0.33789945
67	0xbd108607	-0.03528407
68	0x3d9b3ec4	0.07580331
69	0x3ecb08cd	0.39655152
70	0x3de04e28	0.10952407
71	0xbe2af408	-0.16694653
72	0x3e88f55b	0.2674969
73	0x3a9e3030	0.0012068804
74	0x3a433b72	0.0007447518
75	0x3e4c8e1e	0.19976088
76	0x3e3a7f07	0.1821252
77	0xbd93c203	-0.07214739
78	0xbd63acac	-0.055584595
79	0x3e10d519	0.1414379
80	0x3d75b455	0.05998643
81	0xbea83891	-0.32855657
82	0x3e7d4ebf	0.2473707
83	0x3e1385e6	0.14406547
84	0x3ecccfc7	0.40002272
85	0x3d7f0de3	0.062269103
86	0xbe220c85	-0.15825088
87	0xbc3554ce	-0.011067582
88	0xbc8e54ab	-0.017374357
89	0x39cb1758	0.0003873657
90	0x3d165a98	0.03670749
91	0xbd5ad465	-0.05342521
92	0x3e058d0c	0.13042086
93	0x3c45c8ac	0.01207177
94	0xbe2d9fdd	-0.16955514
95	0xbe5b39a7	-0.21408711
96	0xbe4c0dce	-0.19927141
97	0xbbcf4267	-0.0063250544
98	0x3c7ae76f	0.015313967
99	0x3eb81d24	0.35959733
100	0xbe3dc631	-0.18532635
101	0xbdeac432	-0.114632025
102	0x3e4f2265	0.20227964
103	0xbe73d93b	-0.23813336
104	0xbd57e4ea	-0.052708544
105	0x3e255371	0.16145112
106	0xbe933c8a	-0.28757125
107	0xbda3e5e1	-0.0800283
108	0x39906bd1	0.0002754615
109	0x3c0e6a2f	0.008692308
110	0xbc4d7359	-0.012539708
111	0x3e5d1e63	0.21593623
112	0xbdc8f3d1	-0.09812129
113	0x3c5050fa	0.012714619
114	0xbd514a29	-0.051096115
115	0x3d26e873	0.040749025
116	0xbe2c2719	-0.1681179
117	0x3e655248	0.22394669
118	0x3b03a622	0.0020088037
119	0xbd7688a2	-0.060188897
120	0xbf419a3c	-0.7562597
121	0xbca14a98	-0.01968889
122	0xbcd99edb	-0.026565006
123	0xbdd95c4b	-0.106133066
124	0xbe1531fe	-0.14569852
125	0x3d168c84	0.0367551
126	0xbeb8963a	-0.36052114
127	0xbd528905	-0.051400203
128	0x3e309364	0.17243725
129	0xbe13c517	-0.14430653
130	0x3cfa1588	0.030527845
131	0xbe4feb74	-0.20304662
132	0xbe1d4c89	-0.15361227
133	0xbdcab1ee	-0.09897219
134	0x3d3944cc	0.045231625
135	0x3a10b3db	0.00055199646
136	0xbb6141cc	-0.0034371493
137	0x3a98ea56	0.0011666517
138	0x3eab35b5	0.33439413
139	0x3cddcdcc	0.02707567
140	0x3b7ce4e5	0.003858858
141	0xbd0c42f5	-0.034243543
142	0xb920b3e0	-0.00015325798
143	0x3c19f286	0.009396201
144	0x3e4bc28c	0.19898432
145	0x3e0ee483	0.13954358
146	0xbd92934d	-0.07157002
147	0xbdf32105	-0.11871532
148	0xbdea1c6e	-0.11431204
149	0x3e596e29	0.21233429
150	0xbd7ca299	-0.061678503
151	0x3b0a9096	0.002114331
152	0x3a49c0d1	0.00076962734
153	0x3d2dbfa9	0.04241911
154	0xbad79a48	-0.0016449178
155	0xbacca057	-0.001561175
156	0x3dede84e	0.11616574
157	0x3b49e985	0.0030809355
158	0xbdf9eb3e	-0.12203072
159	0x3ecf97b6	0.40545434
160	0x3c8f712f	0.017510025
161	0xbe323a52	-0.1740506
162	0xbec0d2cf	-0.37660834
163	0xbd5e39fc	-0.054254517
164	0x3e338d22	0.17534307
165	0xbd71d96b	-0.059045237
166	0x3d11a611	0.035558764
167	0xbe0543a4	-0.13014084
168	0xbc5155fe	-0.01277685
169	0xbc7ddf4e	-0.0154951345
170	0x3b5abeae	0.0033377814
171	0x3e042016	0.12902865
172	0xbcf6eb0a	-0.030141372
173	0x3e426be6	0.18986472
174	0x3eeb5e9f	0.45970628
175	0x3d0431fc	0.03227423
176	0x3d035aff	0.032069203
177	0x3ed69eb7	0.41917965
178	0x3bbb9a9c	0.005725218
179	0x3d580b38	0.052745074
180	0xbed14351	-0.4087167
181	0xba1769db	-0.00057759666
182	0xbd1f9dca	-0.03896884
183	0x3edac5b2	0.42728955
184	0x3d60a004	0.054840103
185	0xbe3fbe82	-0.18725017
186	0x3e5054d4	0.2034486
187	0xbdca2d00	-0.09871864
188	0xbdcb807f	-0.09936618
189	0xbedfdb81	-0.43722156
190	0xbd40ab83	-0.047038566
191	0x3e05ad04	0.13054281

Rmodel1.fe1.FC1.bias f4 [64]
0	0xbe3bfd71	-0.18358399
1	0xbdfbec24	-0.123008996
2	0xbe539460	-0.2066207
3	0xbcb80695	-0.022464076
4	0xbe82849f	-0.25491807
5	0xbefc4224	-0.4926921
6	0xbd48de4e	-0.04904013
7	0x3bbfcbf9	0.005853173
8	0xbecd944d	-0.40152207
9	0xbe163e0a	-0.14672104
10	0xbdb87a91	-0.09007753
11	0xbebe8756	-0.37212628
12	0x3eb6eb12	0.3572622
13	0xbed3d5b7	-0.4137399
14	0x3e322014	0.1739505
15	0xbee8d55a	-0.45475274
16	0xbc414555	-0.011796315
17	0xbdba5352	-0.09097923
18	0x3d49ca36	0.04926511
19	0xbe1da21a	-0.15393868
20	0xbe443315	-0.19160111
21	0xbede60c0	-0.4343319
22	0x3ebbd80c	0.36688268
23	0x3b7f88d8	0.0038991477
24	0xbe926536	-0.28592843
25	0x3ddd4d03	0.108057044
26	0xbebec4d3	-0.3725954
27	0xbe48eede	-0.1962237
28	0x3e80cd9b	0.25156865
29	0xbe1ede02	-0.15514377
30	0xbeac874d	-0.33696976
31	0xbecee4e0	-0.40408993
32	0xbe016714	-0.12636977
33	0xbe19a587	-0.1500455
34	0xbeb3bcdb	-0.35105023
35	0x3dbf4a8f	0.09340393
36	0xbe55ab31	-0.20866086
37	0xbec532b8	-0.38515258
38	0xbea87154	-0.32898962
39	0xbe1abfa9	-0.15112175
40	0x3daaef28	0.08346397
41	0xbe60589c	-0.21908802
42	0xbeb0ae95	-0.34508196
43	0xbe90c658	-0.28276324
44	0xbe886b13	-0.2664419
45	0xbca6f342	-0.020379666
46	0xbee1f707	-0.4413378
47	0x3da31d93	0.07964625
48	0x3df4d1a8	0.11954051
49	0xbee5c4f6	-0.44876832
50	0xbe7be595	-0.24599297
51	0xbe2cc7c6	-0.16873083
52	0xbe8fd1e0	-0.2808981
53	0xbeef204c	-0.46704328
54	0x3ecf4783	0.40484247
55	0xbd75193c	-0.05983852
56	0xbda29661	-0.07938839
57	0xbecc55cd	-0.3990921
58	0xbe8af5c3	-0.27140626
59	0x3e03516a	0.12824026
60	0xbeca04ca	-0.3945678
61	0x3e5ab4e4	0.21358067
62	0xbd3ffbc9	-0.04687098
63	0x3d8855b4	0.066569716
