Lightcode/single/rate34/lightcode_single_rate34_snr2.pt (torch, 38497 bytes, 26 tensors)

enc.fe.FC1.weight f4 [32, 9]
000000 5d 7c be 3d 52 21 79 be e4 18 98 3e 13 81 1a 3e
       0.09301064 -0.24329117 0.2970649 0.150883
000010 2e f3 90 3e e2 53 53 3e c0 be 2f 3d 26 cc 26 be
       0.2831053 0.20637468 0.042906523 -0.16288814
000020 77 18 55 3b 5a f0 c7 3d fb b9 12 3e ca a0 99 3e
       0.0032515803 0.0976264 0.14328758 0.30005485
000030 4b f8 aa 3e e0 33 a5 bd be 4b 05 3e 73 89 33 be
       0.33392558 -0.08066535 0.13017175 -0.17532901
000040 34 50 e5 bc e1 44 ea bd 49 d7 c5 bd 3e 6a 26 3d
       -0.027992345 -0.11438919 -0.09660203 0.040628664
000050 26 5a 22 be ea 75 07 be 65 41 b8 be bc ed 8c 3e
       -0.15854701 -0.13228574 -0.35987392 0.27525127
000060 7c 73 d3 3b 22 9b aa bd aa d3 98 3e ff 4e 84 3e
       0.006452976 -0.083303705 0.29848987 0.2584152
000070 07 ad 05 be ec b1 82 3e 6f 6e a0 bd 85 ba 8f be
       -0.13054286 0.2552637 -0.078335635 -0.2807199
000080 6a 8b 51 3d e8 89 43 3d e0 9b 50 3c 4e 2c b7 3d
       0.051158346 0.04773894 0.012732476 0.08943997
000090 84 31 a8 be e6 e8 1b 3e 3c 4b 8f 3e 53 eb 3d be
       -0.32850277 0.15225562 0.27987087 -0.185468
0000a0 e3 10 b5 be e6 12 2f be 11 c4 0e 3e 01 19 fa 3d
       -0.35364446 -0.17097053 0.13941981 0.122118
0000b0 6d 6c b0 3d 4f 1d cd bd 04 01 5c 3e d7 41 43 be
       0.086144306 -0.10015356 0.21484762 -0.19068085
0000c0 8e 0a ab be fa e1 89 3d 63 e1 93 3e b1 25 b3 bd
       -0.3340649 0.06732555 0.28882894 -0.087474234
0000d0 55 37 cf bd 69 87 f6 3d ea 62 66 3e 0b 53 98 be
       -0.101179756 0.12037546 0.2249867 -0.29750857
0000e0 d7 46 7b bd 93 7f 4d be b0 3f 0a 3f 58 0e 40 3e
       -0.061346855 -0.20068197 0.5400343 0.18755472
0000f0 60 47 57 3d d3 31 42 bc 89 77 2e be 1c 2e ae 3e
       0.052558303 -0.011852699 -0.17037787 0.34019554
000100 15 fe 62 3e b1 be 2e 3e 88 e4 5f bd 84 b9 eb 3c
       0.22167237 0.1706493 -0.054661304 0.028774984
000110 1e a3 41 be d1 95 a7 bc 2c 8c f3 bd 49 94 88 be
       -0.1890988 -0.02045718 -0.1189197 -0.26675633
000120 16 27 63 bd 37 fc 70 bd 52 b3 98 be 6f d4 98 3e
       -0.055457197 -0.05883428 -0.2982431 0.29849574
000130 f3 d8 16 3e dc e1 a3 be 51 d2 9b bc 9f 53 20 be
       0.14731197 -0.32008255 -0.019021185 -0.15656899
000140 11 94 99 3d 8c 82 c9 bd b3 87 e2 bd 20 c8 63 bc
       0.074989446 -0.09839353 -0.11061039 -0.013902694
000150 89 59 4f 3e ea 06 7d 3d a6 fc 99 3e 1f 64 ae 3e
       0.20248999 0.061774172 0.30075568 0.3406076
000160 05 85 8e 3e 8e ca b6 3e 78 5c 4a 3e 2f 93 0a 3e
       0.2783586 0.35701412 0.19761837 0.13532709
000170 a2 3e 6b be c2 0c 93 3d a7 4f 62 bd a4 a9 b2 3e
       -0.22973111 0.07180168 -0.055251744 0.3489505
000180 8d 1f a1 3d 37 2c 8d bd 5d 60 d3 3c d9 85 6b 3e
       0.07867346 -0.06893199 0.025802786 0.23000278
000190 b2 84 81 3e 11 3c 93 3c ee 2e 5a 3d 96 a6 1b bd
       0.2529655 0.017972978 0.053267412 -0.038000666
0001a0 81 94 b9 be a2 ec 80 bd 46 17 bb bc 51 89 37 3e
       -0.36246112 -0.06295134 -0.022838246 0.17923476
0001b0 35 d1 cd 3c a9 7f 71 3e 8f a6 69 ba 10 bf 07 3e
       0.025124172 0.23583855 -0.0008913064 0.13256478
0001c0 bf 02 ef 3d 1c 49 2a bd 6e 5c 8f 3e c2 3e 91 bd
       0.11670446 -0.04157363 0.28000206 -0.07092048
0001d0 db 08 22 bd f4 bf 92 3d 6d 25 91 bd e1 e3 a7 3d
       -0.039559226 0.071655184 -0.070872165 0.08197761
0001e0 d8 5b 87 3e 50 4b 8e be 48 c0 18 bd 35 1e a9 3e
       0.2643726 -0.27791834 -0.03729275 0.3303086
0001f0 d3 f9 20 3e 17 17 ed 3d 5d 38 ea bc 08 7c f5 3d
       0.157203 0.1157667 -0.02859133 0.11986548
000200 b2 83 ab 3d d0 d4 1c 3e c7 90 87 be 08 3e c7 3e
       0.08374728 0.15315557 -0.26477644 0.38914514
000210 60 02 8a 3d 87 dc 4c 3e 0b 76 33 be 57 f2 cb bd
       0.06738734 0.20006 -0.17525499 -0.09958332
000220 a1 90 e6 3c 91 60 66 be 5f 6e 35 be 7e 56 76 bc
       0.028145136 -0.22497775 -0.17717884 -0.01503527
000230 f2 84 4d bd aa 60 f7 3d fd 31 a8 bd a5 91 06 be
       -0.050175615 0.12078984 -0.082126595 -0.13141496
000240 3e ca 92 be a1 a1 af 3e 2d 85 3b bc b1 fb 22 be
       -0.28669924 0.34303 -0.011445326 -0.15916325
000250 c0 db ea 3d a9 d8 de bd 45 a4 90 be e4 e0 fe bd
       0.11467695 -0.108811684 -0.28250328 -0.12445238
000260 2c b7 c3 bd c3 06 ee bd e5 6e 84 be ba 5d 83 be
       -0.09556422 -0.116223834 -0.25865856 -0.25657445
000270 d1 4d 3b be 3c c7 08 3d e1 76 8d bd b9 f1 82 bc
       -0.18291403 0.03339313 -0.0690744 -0.015984403
000280 52 e0 57 3e e6 52 47 bd 68 43 a4 bd c8 ba 81 be
       0.21081665 -0.048663042 -0.08020669 -0.25337815
000290 7c 51 c7 3d 93 19 43 3e 04 f9 2d be 78 c8 b7 be
       0.09732339 0.19052725 -0.16989523 -0.35895133
0002a0 d2 ed 08 3e ba 27 23 be 6b ae 2e 3e fa 10 3b bd
       0.13371971 -0.15933123 0.17058723 -0.045670487
0002b0 1f 95 5f be e1 7c 0d 3c 9f 39 83 3e ab b7 08 3e
       -0.21834229 0.0086357305 0.256299 0.13351314
0002c0 a9 2a 87 3d ef 38 ac bc 13 65 86 be 72 ec 51 3e
       0.06599934 -0.021023242 -0.26248989 0.20500353
0002d0 ee c9 a3 be cf c9 b0 be d1 90 2c 3e 94 43 3b be
       -0.31989998 -0.34528968 0.16852118 -0.18287498
0002e0 fe fe 9a 3e fd 21 61 3a e6 76 a1 3e 78 5c fc 3d
       0.3027267 0.00085881335 0.31536025 0.123223245
0002f0 a8 24 8d 3d c7 d2 df bd 23 6a a5 be 7d 0f 0e 3e
       0.06891757 -0.109288745 -0.32307538 0.13873096
000300 0f 48 85 be a7 45 26 3e 69 d0 ee 3d 65 63 33 3d
       -0.2603154 0.16237508 0.11660845 0.043795962
000310 a1 29 1e 3c b3 a8 47 3c 99 2b c8 bd 22 65 eb 3d
       0.00965348 0.012186217 -0.097739406 0.11493899
000320 73 63 0b 3e 10 70 4d be 0c fe 40 3f fb 37 dd 3e
       0.13612156 -0.2006228 0.75387645 0.43206772
000330 c5 ea bf bc 5b e5 98 bb 80 c2 db bd 9d 66 ab be
       -0.023427377 -0.004666013 -0.10730457 -0.33476725
000340 e7 42 d2 bd e5 ef bc 3e e6 01 f7 3d b5 c1 20 be
       -0.10266667 0.36901775 0.12060909 -0.15698893
000350 05 d1 b4 be 62 25 c8 bc fe 3c 2b be bd da 3f 3e
       -0.3531572 -0.024431888 -0.16722485 0.18735786
000360 77 d2 be bd c7 1e 1f be 70 26 a7 be 15 a5 6c 3d
       -0.09317487 -0.15539084 -0.32646513 0.057774622
000370 6f 42 45 3e 3f b9 04 bd 6e f5 3f 3e 59 da 3e 3d
       0.19263624 -0.032403227 0.18745968 0.04659495
000380 7e 32 e3 bc a7 d4 a2 be 88 79 9b be 50 82 2b be
       -0.027734037 -0.31802866 -0.30366158 -0.16748929
000390 6b 11 69 be 6f e2 e7 3d 3b 8e e0 be 89 8c 70 3c
       -0.2276055 0.11322486 -0.43858513 0.014681944
0003a0 b7 d9 2f 3d 0c 31 14 be 36 08 3a 3e 9f e2 a1 bd
       0.04293224 -0.14471835 0.18167195 -0.07904553
0003b0 07 1e b7 3d 3f a7 95 bc 60 18 7c 3e ed 72 18 bf
       0.08941274 -0.018268226 0.24618673 -0.5955036
0003c0 f4 5a ae 3d a5 43 17 3a 83 e2 12 3e 07 15 92 bd
       0.08513442 0.00057702727 0.1434422 -0.07132917
0003d0 a0 f0 8d 3b f2 08 ec 3d 56 bb a2 be 5d c6 e4 3d
       0.0043316633 0.11525144 -0.3178355 0.11170647
0003e0 1e 5a c9 bc e2 b2 c0 3e 34 5f 86 3e a8 4a 97 bd
       -0.024579104 0.37636477 0.2624451 -0.073872864
0003f0 0d fe d9 bd d7 aa 01 3e 7e 1e 21 be f8 e2 32 3c
       -0.106441595 0.12662826 -0.15734288 0.010918371

enc.fe.FC1.bias f4 [32]
000000 02 db 8f 3e e9 70 5c 3e 91 47 81 bd 34 c6 3a 3e
       0.28096777 0.21527447 -0.06312478 0.18239671
000010 77 68 11 be 99 d1 02 3e 98 b8 06 be c0 b0 b4 bc
       -0.14200006 0.12775268 -0.13156354 -0.022056937
000020 24 4a a9 be cc ac 7f be b5 a0 0e 3c 60 34 2b 3e
       -0.33064377 -0.2496826 0.008705308 0.16719198
000030 fa 6c a7 be 0a 56 aa bd a5 5e 42 3e bd c5 88 3e
       -0.3270033 -0.08317192 0.18981417 0.26713362
000040 78 fb d8 3d dd a0 9a 3e ae e0 6d 3e 41 86 a1 bd
       0.10594839 0.30200854 0.2323024 -0.07886935
000050 0d 8f f5 3d d9 72 4a bd 36 6a 8f be df 6e 6e be
       0.119901754 -0.049425934 -0.2801072 -0.23284481
000060 4b 45 0d be fc 14 73 3e 12 f9 1d bd a4 2d b7 bb
       -0.13795964 0.23738474 -0.03856761 -0.0055901576
000070 e6 a3 59 3e 7f c5 db bc 68 bc 41 be 0f 5b dd be
       0.21253929 -0.026827572 -0.18919528 -0.43233535

enc.fe.FC2.weight f4 [32, 32]
000000 af bb 1a bd 8f 62 7e 3e b3 af b2 bc 43 ad 3f 3e
       -0.037776645 0.24842285 -0.021812296 0.18718438
000010 0c 89 ab bc 4c c9 7d bc e2 5c 43 3e b9 5c 56 3e
       -0.020939372 -0.015489887 0.190784 0.20933808
000020 7e a3 0c 3e 8b 86 12 be bd fb ef 3d be 1d 8e 3d
       0.13734242 -0.14309137 0.11717937 0.069392666
000030 bf 1a d6 be f3 de 1c bd 46 46 ab bd 43 22 9d be
       -0.4181728 -0.03829856 -0.08363013 -0.30690202
000040 9f f6 22 be d1 fc 1f 3e ff 18 82 be 92 e7 1c be
       -0.15914391 0.15623786 -0.25409696 -0.15322712
000050 b5 02 ee bd 58 0c 4e be 29 46 f4 bc 03 ea e8 3d
       -0.1162161 -0.20121896 -0.029818611 0.11372759
000060 e7 25 ee bd dc 53 1f be c6 b5 53 3e 81 15 b3 bd
       -0.11628323 -0.15559334 0.2067481 -0.08744336
000070 7a cb f7 3b 6a 54 3d be de 5a b5 3d d3 48 95 3e
       0.007562098 -0.18489233 0.08855222 0.29157123
000080 ba 72 03 be ec 38 0b 3d e3 c8 f2 bd a4 b7 b0 3c
       -0.12836733 0.03398983 -0.11854722 0.021571942
000090 24 1b 2b bc 9f 24 b3 3c 9e 6a 9e 3c c1 73 1b be
       -0.010443483 0.021868048 0.019337948 -0.15180875
0000a0 31 4c 4a 3d 41 69 a0 3d 4f ba 6a be b3 0e f8 bd
       0.049389068 0.078325756 -0.22922634 -0.12112179
0000b0 f1 e9 58 bd 0f 0b f3 bd dc f4 13 be 6c 78 06 be
       -0.05295748 -0.11867344 -0.14448875 -0.13131875
0000c0 89 4d 6f 3d a4 5e 38 be 72 0e 1c bd e5 5b 97 3d
       0.058423553 -0.18004853 -0.038099714 0.07390574
0000d0 ee 17 ef bd 7d 33 06 be de 76 3a be ef 4b 28 be
       -0.11674486 -0.13105579 -0.18209407 -0.16435216
0000e0 7e 6a b2 3d 37 53 07 be af 88 01 be 14 1b 21 be
       0.08711718 -0.13215338 -0.12649797 -0.15732986
0000f0 55 33 df bd 45 51 dc 3d a0 a8 20 3b 60 78 82 be
       -0.10898463 0.107576884 0.002451457 -0.25482464
000100 38 53 fa bd 13 aa 85 3b c6 1b 4c bd 6d 52 eb bd
       -0.12222904 0.0040791123 -0.049831174 -0.11490331
000110 84 5d be bd ac b2 47 3d 5b 37 0f 3d ca 68 3d 3c
       -0.092951804 0.04875438 0.0349649 0.011560628
000120 ac 82 fa 3d 8a 1d 92 bd 98 e1 70 bd 08 2a 11 bd
       0.12231955 -0.071345404 -0.058808893 -0.035440475
000130 a2 c7 6e bd f6 09 7a bd b0 e9 81 3c 9c 3a 60 bd
       -0.058295853 -0.061044656 0.015858501 -0.054743394
000140 cc e9 49 be cc 14 d2 3c fa b9 30 bd 5d 64 29 be
       -0.19718093 0.025644682 -0.04314611 -0.16542192
000150 c8 e3 ee bd 3f 3c db 3c 57 b6 13 3c d6 27 76 be
       -0.116645396 0.026762126 0.009015641 -0.24038634
000160 a4 4c f9 bd 3e 89 a2 bd 5d d0 bf bc a7 ee 5c be
       -0.12172821 -0.07936333 -0.023414785 -0.21575414
000170 6f 01 c5 bd 2a 31 f9 bd 32 e7 0c 3d 7c 2c 07 bc
       -0.09619414 -0.121675804 0.034400173 -0.008250352
000180 af 9e 99 bc 06 6a 07 be 32 50 a2 3d eb dc 9a bd
       -0.018752424 -0.13224038 0.07925452 -0.07561668
000190 0c d5 6f bd 3d 63 4b bd ac bf 01 3e 69 44 79 be
       -0.058552787 -0.049655188 0.12670773 -0.24342503
0001a0 de ea 96 bd 50 45 2f bd df e4 14 3e 7c 1d d4 3d
       -0.07369016 -0.04279071 0.14540432 0.10357186
0001b0 2f d4 ac be 4d 01 5f 3e 52 3e c8 3d 79 a9 a0 3c
       -0.33755633 0.2177784 0.09777512 0.01961206
0001c0 f3 67 96 be a7 45 09 3e 01 f1 8f be e0 01 25 bf
       -0.29376182 0.13405477 -0.2811356 -0.64455986
0001d0 14 9c 9a bc 27 da cf 3c 51 6e ef 3c a7 27 f4 3d
       -0.018873252 0.025372578 0.029227408 0.119216256
0001e0 03 93 f1 3d 33 df da bd 29 3a 3e bd 2e 47 31 bc
       0.117956184 -0.10687103 -0.046442185 -0.010820193
0001f0 b7 6d ca bd 3c 9d 19 bf 8b 34 11 be bb a7 99 3e
       -0.09884208 -0.60005546 -0.141802 0.3001078
000200 6b 42 81 bc bc e6 cb 3a d0 14 44 bd 81 42 0c bc
       -0.01577874 0.0015556435 -0.04787141 -0.008560778
000210 99 cf 97 3e 37 e5 b6 3d 5d a3 bb 3e 4b 46 cf bd
       0.29650572 0.08930438 0.36648074 -0.10120829
000220 83 a5 19 bf 83 58 45 be 3e e8 84 be 77 de 94 bd
       -0.60018176 -0.19272046 -0.25958437 -0.07268994
000230 f5 d2 66 bd 2e 71 af 3e 82 bb 3a bd 99 c2 23 be
       -0.056353528 0.34266037 -0.045588978 -0.15992202
000240 c1 c9 63 bd e5 d5 a3 3c 43 ff 08 bd 4a 89 b2 bd
       -0.05561233 0.019999454 -0.03344656 -0.08717592
000250 c4 c4 ec bd 6b d4 49 3d 9e 66 d7 be fa ae ea 3d
       -0.115609676 0.049274843 -0.42070478 0.114591554
000260 3d 74 07 3e 4d 40 63 bc 65 13 0d be 61 da fc 3c
       0.13227935 -0.013870311 -0.1377693 0.03086585
000270 3c 13 bc 3d 39 ec 64 bd e6 70 23 be 60 41 e9 3e
       0.09183356 -0.055889342 -0.15961036 0.4555769
000280 0c 05 1d be a6 67 9e 3e 95 39 d6 bd c5 2d 10 bc
       -0.15333956 0.30938452 -0.10460202 -0.008799975
000290 84 f7 b5 3a 5c 6d 5b 3a d3 1e 2e 3e d3 87 15 be
       0.001388297 0.0008370483 0.17003946 -0.14602594
0002a0 d6 0b 9c 3e 6c f0 26 3e e5 76 9c 3d a0 09 11 3e
       0.3047778 0.16302651 0.07639865 0.14163828
0002b0 84 19 40 3e 10 80 5e be 52 95 72 be da ec f7 3d
       0.18759733 -0.2172854 -0.23689774 0.12105723
0002c0 71 75 14 3d df 61 f9 3d 33 f7 16 3b 69 e2 1d bd
       0.036244813 0.121768706 0.0023035526 -0.038546
0002d0 ba e1 1e bd ef f3 0b 3e 99 19 3b bd cf bb c1 3d
       -0.03878949 0.13667272 -0.04567871 0.0945965
0002e0 5c 5b 21 3e bc 4b c5 3d 3d 2a e5 3c c8 0d e8 bc
       0.15757507 0.09633586 0.027974242 -0.028326884
0002f0 81 9c d9 3d fc bb 4c be 1a 2e ab bd b0 70 67 3e
       0.10625554 -0.19993585 -0.083584026 0.2260158
000300 43 b3 be 3d 4a 5d 10 3d de d3 1a be 45 57 7c bc
       0.09311535 0.035245217 -0.15119883 -0.015401666
000310 b6 a9 23 3e 7e 8a 85 bc 94 cb 18 3c e0 cf 46 be
       0.15982708 -0.01630139 0.009325881 -0.19415236
000320 15 62 35 be 33 2b 03 be 29 dc 93 be 1c 78 8b 3e
       -0.17713197 -0.12809448 -0.28878906 0.27240074
000330 f7 33 68 be 4c 2c 29 3e 29 06 14 be b1 5c 1c be
       -0.22676073 0.16520804 -0.14455475 -0.15269734
000340 df 55 a3 bb 6d 80 07 3e 52 d0 49 3e 27 65 df 3d
       -0.004984602 0.13232584 0.19708374 0.10907965
000350 29 aa 22 3e 15 e5 56 bd f0 00 bf bf 90 ea 28 3d
       0.15885223 -0.052464563 -1.4922161 0.04123932
000360 7e c6 9b 3c 14 28 c2 3d 32 08 b4 be 28 29 c7 3d
       0.019015547 0.094803005 -0.35162503 0.09724647
000370 b1 80 9d 3d 89 51 9d 3b d7 82 31 3c 2e e5 8e 3e
       0.076905616 0.0048009795 0.010834417 0.27909225
000380 e3 39 41 3d b5 57 b3 3d 60 e0 3e 3e ba bb ca bd
       0.047174346 0.08756963 0.1864028 -0.09899087
000390 62 c1 7d 3e cb 61 a4 bd 35 3d 94 ba 9d 2c b5 3d
       0.24780801 -0.08026465 -0.0011309745 0.088464
0003a0 93 f1 61 be 68 ff e6 3c 74 ab 26 3c f9 8c e7 3d
       -0.2206481 0.028197959 0.010172714 0.11306185
0003b0 14 e0 da 3c 14 74 85 be a2 3e 25 bd b2 83 2f be
       0.026718177 -0.26065123 -0.040342934 -0.17140082
0003c0 fc 1a 7e bd 12 4a 94 bd d7 a0 e8 3d 66 7e 6b 3e
       -0.062037453 -0.0724069 0.11358803 0.22997436
0003d0 2b 2e 52 be d5 94 d3 bd 7b d1 82 3e eb b9 b4 bd
       -0.20525424 -0.10331122 0.25550446 -0.088245235
0003e0 5b b1 3d be 6a 9a 9f 3c f2 d7 af 3d 32 39 0f bf
       -0.18524687 0.01948281 0.0858611 -0.5594665
0003f0 03 f9 3a 3e 0a ba cb bd 20 9d 30 be 10 8a c0 bb
       0.18259053 -0.099475935 -0.17247438 -0.0058758333

enc.fe.FC2.bias f4 [32]
000000 74 f0 14 be f6 20 91 3d c8 d2 96 bd 44 d3 42 3d
       -0.1454485 0.07086365 -0.07364422 0.04756476
000010 6f be ce bc 5b 24 19 be 19 cd e8 bd 1a 87 79 3d
       -0.02523729 -0.14955275 -0.11367244 0.06091986
000020 4f 5b 47 be 06 b3 49 be 6f b8 27 3e ae c0 ea bd
       -0.19468425 -0.19697198 0.1637895 -0.11462532
000030 f9 bc 80 be 6c ca 48 3d 19 2a bc bd ca a2 0c 3e
       -0.25144175 0.04902117 -0.09187717 0.13733974
000040 1a 15 5d bd 76 a1 36 3e e7 40 06 be bd 1f 44 bd
       -0.053975202 0.1783503 -0.13110696 -0.04788183
000050 72 27 84 3d a9 7c c6 bd 8f e5 0b be 4b d8 bd bd
       0.06452836 -0.09691746 -0.13661788 -0.0926977
000060 aa a5 51 be bd c8 4b 3a 8e 60 e0 3d e9 42 c0 bc
       -0.20473352 0.0007773748 0.10955916 -0.023469405
000070 be 26 a3 3d 1c a6 75 3d 79 7d c2 bc b2 14 7c 3d
       0.07966374 0.059972867 -0.02374147 0.061543174

enc.fe.FC3.weight f4 [32, 32]
000000 be 14 11 be e6 22 86 3c 00 eb 84 3c 5b 01 38 3e
       -0.14168069 0.016374063 0.016225338 0.17969267
000010 91 0a d9 3d fc f6 1d 3e 1f 3f d1 3c d8 c7 34 3e
       0.105977185 0.15426248 0.025542794 0.1765436
000020 bb c4 8a be c6 97 16 bc d7 4c 01 3c 19 d4 cd 3c
       -0.27103218 -0.009191459 0.007891855 0.02512555
000030 99 4c 31 3d 18 b9 20 be 85 a0 3b be a6 cb d7 3c
       0.04328594 -0.15695608 -0.18322952 0.026342224
000040 b1 13 29 bd 47 be 36 bc 68 ec 3b 3e ce b0 7b be
       -0.041278545 -0.011153764 0.183519 -0.24579164
000050 52 16 82 3d d4 77 9f 3d f6 5a c9 bd d5 55 68 be
       0.063519135 0.07786527 -0.098318025 -0.22688992
000060 60 34 ca 3d 7d 64 87 3d 4b b2 96 bd 83 55 44 bb
       0.09873271 0.066109635 -0.073582254 -0.0029958196
000070 6e 2b fd bd 4d 04 89 bd 95 a5 fb bd 71 20 e6 3c
       -0.12361799 -0.066902734 -0.12287442 0.028091641
000080 f3 d0 6e be f2 37 9e bd 27 43 f4 3d aa 65 83 3d
       -0.23321895 -0.077255145 0.11926871 0.06415875
000090 bf d5 98 3e da cf ba 3d 87 ba 83 3e 93 db 3c bd
       0.29850575 0.09121676 0.25728247 -0.04610784
0000a0 78 7c d6 bd 9b 39 2c be 4c 78 4b be 53 5b 69 3d
       -0.10472959 -0.1681885 -0.19870108 0.05697186
0000b0 a1 eb 9f 3d 03 09 f1 bd bc 61 05 be 8b e1 91 3d
       0.078086145 -0.11769297 -0.13025564 0.07123097
0000c0 64 40 d2 b9 28 4c 9f be e2 e6 2d 3d ba f3 94 be
       -0.00040102296 -0.3111279 0.042456515 -0.290922
0000d0 fc de 11 be dc d6 96 bd cc 1c 80 be 64 aa 88 be
       -0.14245218 -0.073652 -0.2502197 -0.26692498
0000e0 e7 17 56 bd de 0e 85 3d 55 b2 47 3d d0 7a 6b be
       -0.05226889 0.06496976 0.048754055 -0.22996068
0000f0 99 d1 b9 bd aa b6 30 3e cb fd 13 be a9 f8 2d 3e
       -0.09073181 0.17257181 -0.14452283 0.16989388
000100 25 c9 e7 3d c4 41 24 bc 74 c7 ae 3c 00 dd e3 bd
       0.11317662 -0.010025445 0.021335341 -0.11126137
000110 e8 4e 7e be ea c0 0c 3e 99 f7 c6 bb 9b db 51 be
       -0.24834788 0.13745466 -0.0060719964 -0.20493929
000120 29 1a 59 3d d2 47 c9 3d 4f 77 c9 bd 19 f0 39 bd
       0.053003464 0.09828152 -0.098372094 -0.04539499
000130 92 dd 3b 3e fe 2a 6e 3d 7a 31 ea bc 7d d8 5c bd
       0.18346241 0.05814647 -0.028588045 -0.053917397
000140 9a 3d cf 3d fb 79 13 3d 77 35 08 3e 76 20 96 3e
       0.101191714 0.036005 0.13301645 0.2932164
000150 ce 12 a0 bb a1 c9 9c 3b 08 f2 bd 3d 5f a9 dc 3e
       -0.004885054 0.004784778 0.092746794 0.4309797
000160 4c 1e f2 bd 0b 74 8c 3d f3 56 e3 bd b8 65 a5 3d
       -0.11822185 0.06858071 -0.111005686 0.08076042
000170 06 cb de 3d 3b 2b 86 bd a3 61 dc 3c d8 30 fe bd
       0.108785674 -0.06551214 0.026902026 -0.1241166
000180 b1 4c 92 be d3 fd b0 3c 3c 25 be 3d e3 99 a2 bd
       -0.28574136 0.021605408 0.09284446 -0.07939508
000190 60 52 38 bd 6e 42 3c 3e f3 75 0a 3f cb 7e 99 be
       -0.045000434 0.18384716 0.54086226 -0.29979548
0001a0 60 cb 77 3d 24 f2 10 bd 18 48 92 3d ca be 85 3e
       0.060496688 -0.035387173 0.07142657 0.26122123
0001b0 f2 aa ee 3d 9b bd 40 bd 87 d9 8f be f0 c5 91 3e
       0.11653699 -0.047055822 -0.28095648 0.28471327
0001c0 0f c1 04 be 24 9d bc bd 40 7a d0 bd bd a0 96 bd
       -0.12964271 -0.0920966 -0.10179567 -0.07354877
0001d0 b7 bd 88 be b7 6f 03 be e0 c2 22 3c 48 37 ca 3c
       -0.2670724 -0.12835585 0.009934157 0.024684563
0001e0 1f b7 ed 3d 3b 9b a4 3e 93 2f 29 be b9 a1 fc 3d
       0.11607193 0.3214968 -0.16522054 0.12335534
0001f0 0d 79 cf bd 1d 2b af 3d 1a 81 d8 bd 39 4e f0 ba
       -0.101305105 0.08553145 -0.10571499 -0.0018333859
000200 93 17 67 3e 06 f4 43 bd e3 e5 d9 bd a8 d3 2c 3d
       0.22567587 -0.04784014 -0.106395505 0.04219404
000210 e5 e7 29 be 30 08 ec bd 55 40 3d be 84 2d f3 bc
       -0.16592367 -0.11524999 -0.18481572 -0.02968479
000220 59 e1 31 3e e4 e8 05 3e 17 5d 15 bd 22 af be bd
       0.1737112 0.13077122 -0.03646573 -0.09310748
000230 2d b6 04 be c4 be a3 bc 7d 7c 02 3d 63 49 a1 bd
       -0.1296012 -0.019988425 0.031857003 -0.078753255
000240 3a dc e4 3c 24 6d f0 3c 86 8e fc 3b b4 d2 42 3d
       0.027937043 0.029348917 0.00770742 0.047564223
000250 14 ea b9 3d 4e 41 10 be 82 00 97 bd fb 27 81 be
       0.0907785 -0.14087412 -0.07373144 -0.25225815
000260 29 48 31 3d f0 a5 f3 3c 9e fd 0f 3d ea 2a 50 3d
       0.043281708 0.029742211 0.035153978 0.050822176
000270 52 7a 10 3e 93 8d 9f 3d 6e dd 3f bd 02 fb d3 bd
       0.14109161 0.07790675 -0.04684203 -0.1035061
000280 87 7b 45 be 59 03 e4 bd fd ea a3 bc a6 26 3f 3d
       -0.19285403 -0.11133451 -0.020009512 0.046667717
000290 f7 4d ab 3d f4 e8 67 3b 03 ac fa 3d 1b f4 11 3c
       0.0836448 0.0035386654 0.1223984 0.008908297
0002a0 90 3f b8 bd ec 6e 7a bd fa aa 0b be 16 11 83 3d
       -0.089964986 -0.06114094 -0.13639441 0.06399743
0002b0 d5 d8 93 3e 01 7d 91 be 1f a9 b5 bd 06 4f 65 3e
       0.28876367 -0.28415683 -0.08870148 0.22393426
0002c0 db 1e 01 be e1 59 ba bd e4 0f a5 bd aa 08 bb 3d
       -0.12609427 -0.09099174 -0.080596715 0.09132512
0002d0 eb 44 25 bd cd 65 cd 3c 40 55 29 be e4 85 94 be
       -0.04034893 0.025072956 -0.16536427 -0.290084
0002e0 50 f6 2c bd e5 73 44 3e 18 78 fc 3b 76 9e e9 bd
       -0.04222709 0.19184835 0.007704746 -0.11407177
0002f0 b2 a1 36 bc ba 9b 62 3c 4d 06 54 be be d7 29 bd
       -0.01114695 0.013831073 -0.20705529 -0.041465513
000300 5b 68 2d 3e f0 a2 a5 bd 95 66 c2 bd 00 3b 64 be
       0.1693434 -0.080877185 -0.09492222 -0.22288132
000310 45 a7 8f be 50 02 42 be e6 3c 8c be 9a 4f 70 bc
       -0.28057304 -0.18946195 -0.27390212 -0.014667416
000320 d8 71 0a 3e 94 71 da bd 77 7a 37 3e 75 a0 d7 3c
       0.1351999 -0.106661946 0.1791781 0.026321629
000330 53 c4 a8 bd 59 77 00 3e c3 69 19 3e 31 e6 66 bd
       -0.08240571 0.12545528 0.14981751 -0.05637187
000340 74 1a ad 3d d1 15 39 3e 0a 22 32 be 2e 73 82 3d
       0.08452311 0.18074729 -0.17395797 0.06369625
000350 25 bd 72 3d 9b a3 70 3d a8 79 2e 3d d3 64 19 3e
       0.059262414 0.058749776 0.04259649 0.14979868
000360 eb 04 b2 bb 8f 72 c9 bd 5c 24 50 3d 18 c1 35 3e
       -0.005432715 -0.098363034 0.050815925 0.1774944
000370 08 d9 98 3c da 3f 98 bd ec c1 46 3e 4a 47 32 be
       0.018658176 -0.07434054 0.19409913 -0.17410007
000380 10 39 4f be 24 3e 06 3e 5c 82 3b 3e 26 d7 67 bd
       -0.20236611 0.13109642 0.18311447 -0.056601666
000390 fe d5 da 3e fd cd 5f 3e 1b bc 6e bd ca ee d5 bc
       0.42741388 0.21855922 -0.05828486 -0.02611484
0003a0 04 7f 3c be 00 c0 1e be 0f 13 0b 3c 87 49 d4 3d
       -0.18407828 -0.1550293 0.008488431 0.10365587
0003b0 30 be a2 3d d8 6e be 3d 11 eb 80 be e1 dd fe bb
       0.07946432 0.092984855 -0.2517934 -0.007777915
0003c0 b0 3a 4d bd 1a 87 84 bd 9e 3c 0f 3e 5c 62 19 be
       -0.050104797 -0.06471081 0.13987967 -0.14978927
0003d0 9c ea 17 be e5 0e 8e 3d 95 e8 8f bd f3 fa e3 be
       -0.1483559 0.06936435 -0.070267834 -0.44527397
0003e0 c7 da ad bd 77 34 d6 3d 4b e5 d1 bd 96 e5 d2 bd
       -0.08488994 0.104592256 -0.10248812 -0.10297696
0003f0 9c 3f 00 bd c3 21 91 3d da 84 93 be a3 ee 17 bc
       -0.031310663 0.07086518 -0.28812295 -0.009273204

enc.fe.FC3.bias f4 [32]
000000 6f ce 85 bb 1b 39 55 3c 12 83 b3 bd f9 cb 3f 3d
       -0.0040834467 0.013014103 -0.08765234 0.046825383
000010 d5 cb 7a bd b8 f8 75 3a 6b c7 b5 3d d2 e3 6d 3e
       -0.061229546 0.000938307 0.088759266 0.23231438
000020 6c 04 40 bd 34 34 75 3c 27 72 13 3e 9e 4d 7a bd
       -0.046879217 0.0149660595 0.14399014 -0.061109178
000030 8b b7 82 bd c3 af 0f 3e f8 31 41 3e 8e ff 2f 3e
       -0.06382664 0.14031892 0.18866718 0.1718733
000040 6b 21 23 3e dc e8 4f 3e 54 78 d3 bd 98 ee 84 3e
       0.15930717 0.20303673 -0.10325685 0.25963283
000050 6e 60 0a 3e 2e 5a a3 bd 29 d9 47 be 2c a9 e1 3d
       0.13513348 -0.07976185 -0.19516434 0.11018595
000060 e0 1f 54 be d4 4b 1c be 5d ad eb 3d 20 b6 83 bd
       -0.20715284 -0.15263301 0.11507676 -0.06431222
000070 93 80 c8 3d 16 d3 bd bd 5a f8 d1 3d 47 21 e8 bd
       0.097901486 -0.09268777 0.102524474 -0.11334472

enc.fe.FC4.weight f4 [16, 64]
000000 8c 69 07 3e b5 1c 9e 3e 7b 59 05 3c 9a a4 36 3e
       0.13223857 0.30881277 0.00813901 0.17836228
000010 6e 0d f7 3c 8a ad f3 3d 5a dd f1 bd 79 16 4e 3d
       0.030157771 0.11898334 -0.118097976 0.0503144
000020 5e 84 1c be 85 19 48 3d c0 92 70 be 76 b2 49 be
       -0.15284869 0.048852462 -0.2349348 -0.19696984
000030 f9 81 13 be bb 77 8d bd 65 5a 32 be ec bc 3a 3e
       -0.1440505 -0.069076024 -0.17417295 0.1823613
000040 f2 61 07 be f4 52 2f bd c3 6e d8 3d 7a dc 21 be
       -0.13220957 -0.04280372 0.10568001 -0.15806761
000050 a1 44 ab 3d ad d8 38 bd 9c 7d b3 bd c2 ec 44 3e
       0.08362699 -0.045128513 -0.087641925 0.19230941
000060 56 7e 90 bd 67 78 3b bd db 71 12 bb b3 44 04 3e
       -0.07055347 -0.04576912 -0.0022345695 0.12916832
000070 7e 03 6b 3e 81 78 76 3e da 26 40 be 4f 3f 5b 3d
       0.22950551 0.24069406 -0.1876482 0.053527173
000080 b5 84 cd bd 5f 9e 46 3d f1 a6 6b bd 6c 4e 20 bd
       -0.100350775 0.04849088 -0.057532255 -0.03913729
000090 01 67 14 3e ae 23 e4 3d 1f c9 9b bd 7b 02 2c 3e
       0.14492418 0.11139618 -0.0760672 0.16797821
0000a0 bf 11 43 bd ec 05 b2 bd f9 d3 8c bd 29 45 bd bd
       -0.047624346 -0.08692536 -0.06876368 -0.09241707
0000b0 22 80 85 3d 7c e1 f1 bc a4 c3 1f 3d 5c b7 16 be
       0.0651858 -0.029526465 0.039004937 -0.14718384
0000c0 e8 5a ab 3d 3d d5 c9 3d aa a3 05 3c e3 f5 ee bd
       0.08366948 0.09855125 0.008156696 -0.11667993
0000d0 f7 69 4c be e6 46 c7 bd 45 9d 9f 3d 04 23 87 bd
       -0.19962297 -0.0973032 0.07793669 -0.065984756
0000e0 35 d1 d2 bd 35 cc 78 3c b4 c6 cb bd e5 ab 30 3d
       -0.10293809 0.0151854055 -0.09950009 0.04313268
0000f0 ad 71 ab 3d d2 da 0c 3c 8a 76 46 3d 42 da 13 3d
       0.08371291 0.008597093 0.04845289 0.03609682
000100 80 12 76 bd 5c ca 12 be 77 ce 8f 3c 3e 6d 63 bc
       -0.060076237 -0.14335006 0.017554505 -0.013881026
000110 c9 ab 3f 3b 9f a3 82 bd 31 11 91 3e 6a 09 04 bd
       0.002924668 -0.063788645 0.28333429 -0.03223554
000120 b6 3e f9 3d e9 29 c9 3d 18 ff 2f 3e 5f c7 91 3d
       0.12170164 0.09822447 0.17187154 0.07118105
000130 b4 f3 60 3d 08 0c b1 3d a7 e9 06 3e fb 49 1f be
       0.054919913 0.08644873 0.13175069 -0.15555565
000140 fa 31 50 3e 34 b1 d7 3c 58 fc 41 3d 2d 38 8a 3d
       0.20331565 0.026329614 0.047359794 0.06748996
000150 2c ef dc bc 43 18 9a bc 93 8c 8e bc f8 87 2b be
       -0.026969515 -0.018810397 -0.017401015 -0.16751087
000160 47 e9 f9 3d 88 08 8e 3d 24 6b 95 bd c6 fa ff bd
       0.12202697 0.06935221 -0.07295826 -0.12499003
000170 65 1d 1c be e4 b9 44 be d6 11 33 3d 27 10 80 bd
       -0.15245588 -0.19211537 0.04371818 -0.06253081
000180 94 f8 19 3d 66 21 e6 bd b4 0e a1 bd 5c df 3a 3d
       0.03759058 -0.11236839 -0.078641325 0.04562317
000190 85 0f 68 bd b3 10 88 3d 40 8b 0d 3c 08 3c 8b bd
       -0.056655426 0.0664381 0.008639157 -0.067985594
0001a0 2a f9 40 bd da fb 85 3d 06 34 2d 3d d3 59 ca bd
       -0.04711262 0.065421775 0.04228594 -0.09880414
0001b0 73 73 59 3d fe e7 94 3d 4f 0c d2 bd d5 ea 5c bc
       0.053088617 0.072708115 -0.10256254 -0.013483723
0001c0 9b d4 f3 bd 7d f8 49 3d 9f 25 9c 3d fd 02 27 3e
       -0.11905786 0.049309243 0.07624363 0.16309734
0001d0 43 b6 95 3c 3d 8f 83 3d 5e 60 16 3b 76 5b 61 bd
       0.018275386 0.06423805 0.0022945623 -0.055018865
0001e0 7c c8 96 bd df d4 78 3d 55 e2 cc 3d de c0 82 3d
       -0.07362458 0.060749885 0.10004107 0.06384443
0001f0 83 a1 11 3d 28 2d 8b 3d f2 53 ba 3d 2d de 8f 3d
       0.03555442 0.06795722 0.090980425 0.070247985
000200 07 89 f2 bc a2 95 f9 bd a6 d3 80 3c 46 9e a6 3e
       -0.029606355 -0.12186743 0.015725922 0.32542628
000210 ad 6a e1 bd b9 f1 3d 3e b5 89 e6 ba 83 f2 97 3d
       -0.11006675 0.18549241 -0.0017588647 0.07419302
000220 92 24 c4 be 85 eb ac 3e 0c 91 2c be c0 aa b4 bd
       -0.3830915 0.33773437 -0.16852206 -0.088216305
000230 05 12 4b bc b2 a3 e5 3d 8f f8 54 3d d4 37 59 3e
       -0.012394433 0.11212863 0.051994856 0.21212703
000240 c2 6a 35 3c a2 4d 01 bf 0c 48 65 3e 51 7a e3 3d
       0.011072816 -0.50509083 0.22390765 0.111073144
000250 6d 8e 5b bd 36 0a 75 be bd 8f 65 bd 24 4f b8 3d
       -0.053602625 -0.23929676 -0.056045283 0.0899947
000260 f8 2d dc 3d 59 dc 3c be 8a bc 9a bd b3 e5 02 be
       0.10750955 -0.18443431 -0.07555492 -0.12782936
000270 9a 25 0b 3d 0a 57 dd 3c 0d 98 c1 be 89 05 09 be
       0.033971407 0.027019043 -0.37811318 -0.13381018
000280 d1 0b 2c 3c 92 d9 e5 3c 4b 0d 8b bd 29 58 a1 bd
       0.010500864 0.028057847 -0.06789645 -0.07878143
000290 92 3c 4b 3e d7 f8 9c bd 74 08 c2 bd 69 e8 20 3c
       0.19847324 -0.0766465 -0.094742686 0.009821036
0002a0 99 45 bd 3d e4 0c 0c bd a8 65 78 be b6 f2 d1 bd
       0.0924179 -0.03419198 -0.24257529 -0.102513716
0002b0 2d e0 c0 3d 1c fe dd bd 06 66 04 3e e9 f4 05 3e
       0.09417758 -0.10839483 0.12929544 0.13081707
0002c0 32 41 5a 3e b7 d0 e7 3d ce c3 3e bd 9c de 35 be
       0.21313933 0.11319106 -0.046573453 -0.177607
0002d0 f1 44 c6 bd 64 19 11 be 14 2e ce 3d ed af d7 3d
       -0.09681118 -0.14169842 0.100673825 0.10531602
0002e0 af c7 05 be a5 eb 2e 3e ae a8 2e 3d 7e 15 0c 3d
       -0.13064454 0.17082079 0.042641334 0.034200184
0002f0 21 73 91 bd 09 5a fc bc c8 6a b0 3d fd fb 24 bd
       -0.07102037 -0.03080465 0.08614117 -0.040279377
000300 26 44 dd bd 75 7a 81 be 09 a6 9f 3d 15 a7 c5 bd
       -0.10804014 -0.2528874 0.077953406 -0.09651009
000310 e1 65 8c 3b fe 40 9a bd 03 aa 82 3e bb 4c c7 3a
       0.004284606 -0.075319275 0.25520334 0.0015205363
000320 0c 71 d7 bc 49 70 d8 3c e1 e7 58 3e f3 4d 5e 3e
       -0.026299022 0.02642073 0.21182205 0.21709423
000330 a5 35 ad bb 86 f8 47 3a b5 ee b8 3d dd 06 fb bc
       -0.005285936 0.00076282804 0.09029905 -0.030642921
000340 fa a3 6e 3e 6f d8 90 bd 38 b3 17 bd 7a 13 24 3e
       0.2330474 -0.070725314 -0.03703615 0.16023055
000350 3b 9d dd bd 1b 55 08 3d 71 a2 6e 3d 8a 7a 90 bc
       -0.10821005 0.033284288 0.058260385 -0.017636556
000360 e4 e3 28 3e 1a da 55 3c 69 6a 72 bd dd 13 da bd
       0.16493183 0.013052488 -0.059183512 -0.1064832
000370 bf cc a1 bd e2 4e 7c be dd c5 56 3c 36 71 20 be
       -0.0790038 -0.24639466 0.013108698 -0.15668187
000380 21 ca 0c 3e 20 02 a6 bc 70 be b0 3d 5a bb a2 3c
       0.13748981 -0.020264685 0.08630073 0.019864727
000390 6b 3f f5 bd 7a ec 85 3d f9 b0 26 3c d2 0b fc bc
       -0.11974987 0.06539245 0.0101740295 -0.030767355
0003a0 31 49 42 bc fc 41 63 3c 96 a4 ae bb e7 96 82 bd
       -0.0118582705 0.013870712 -0.0053296788 -0.063764386
0003b0 21 18 f2 3c d7 55 8f 3d 0b e5 bb bd 72 b2 92 3d
       0.029552521 0.069987945 -0.09174546 0.07162942
0003c0 31 43 b4 3c 4b 72 9d bc 0f 03 f6 3d bc c0 f2 bb
       0.022004696 -0.019219538 0.12012302 -0.0074082296
0003d0 70 de 3c 3e 4c bb 69 bc ca d1 03 3d f7 89 92 bd
       0.18444228 -0.014265846 0.032182492 -0.07155221
0003e0 48 1c c2 3d d7 e9 11 bc 3e 68 20 bd f5 0b df bc
       0.094780505 -0.008905849 -0.039161913 -0.027227381
0003f0 42 16 0b be 2c 08 ba bc 6b 52 af 3d fa 90 a5 3d
       -0.1358271 -0.022708975 0.08560642 0.08084293

enc.fe.FC4.bias f4 [16]
000000 b4 24 9b bc 86 70 a5 3d f4 8c 01 bc 30 65 19 3e
       -0.0189384 0.08078103 -0.007907141 0.14980006
000010 e4 db 40 be bb 7e 90 bd c9 7e 88 3c 21 a1 29 be
       -0.18833882 -0.07055422 0.016662018 -0.16565372
000020 0c 38 a8 bd ce 00 01 be c1 a2 75 3d 37 45 a1 bd
       -0.08213815 -0.12597963 0.059969667 -0.0787453
000030 84 24 28 3e 98 08 c0 bd 16 c5 7b bd bc 95 91 3d
       0.1642018 -0.09376639 -0.061467253 0.07108638

enc.norm.weight f4 [16]
000000 67 57 8b 3f f2 04 81 3f 09 b0 52 3f 02 14 82 3f
       1.0886048 1.0079634 0.8229986 1.0162356
000010 79 cc 58 3f fb 0a 6b 3f a6 e2 45 3f 5c b0 5b 3f
       0.84687 0.9181363 0.77298963 0.8581598
000020 76 3f 55 3f a2 39 5b 3f 73 b0 34 3f 6d e9 1b 3f
       0.8329996 0.85634816 0.7058174 0.60903054
000030 90 5b 5b 3f 44 6d 3e 3f b5 2c 71 3f cb 40 56 3f
       0.8568659 0.74385476 0.9420884 0.83692616

enc.norm.bias f4 [16]
000000 0d d2 48 3c 7d db 7c bd 58 74 a0 3b 9e a3 df bb
       0.012257111 -0.061732758 0.0048966818 -0.0068249246
000010 ca 4d b8 bc dd c6 63 bd 5a ff 78 3a 6c 14 2b 3d
       -0.02249803 -0.055609573 0.00094984996 0.041767523
000020 18 a8 cd bc f0 c1 60 bc c5 53 91 3b 14 a3 16 3c
       -0.025104567 -0.013718113 0.004435035 0.009194154
000030 0e 28 09 bd d3 68 36 3c e5 79 0f 3d 03 52 f1 3b
       -0.033485465 0.0111333905 0.035028357 0.007364513

enc.enc_out1.weight f4 [4, 16]
000000 46 11 98 be 4b e8 a6 3e d1 ed 18 3e 49 0b a7 3e
       -0.2970068 0.325991 0.1493447 0.32625797
000010 b8 fc a2 3d 8b ec 63 3e ef 5f 64 3e a6 2e 18 be
       0.079583585 0.22258203 0.22302221 -0.14861545
000020 60 a2 1a bd 85 9a 91 bb e8 7d bc bc c4 be 72 3e
       -0.03775251 -0.004443469 -0.023009256 0.23705584
000030 07 2b 44 3d e7 6f f6 bd 5d 9a 28 be 87 eb b4 bd
       0.047892597 -0.120330624 -0.16465135 -0.08833986
000040 3e 45 c3 be 4b c9 50 3e e9 07 0d 3e 47 9a 97 3e
       -0.38138765 0.20389287 0.13772549 0.29609892
000050 6a 66 a9 3d 3e de 54 3e a3 17 41 bb a6 3f a7 3b
       0.08271487 0.20787904 -0.0029463551 0.005104023
000060 69 e5 cd 3d 28 c3 18 3d 2e 97 64 3e d2 c7 36 be
       0.10053522 0.03729549 0.22323295 -0.17849663
000070 34 72 f8 3c b0 c5 8d 3e 14 b0 59 be 11 f4 3b bc
       0.030327894 0.27689886 -0.21258575 -0.011471764
000080 d1 c2 8e bd f7 bb 9b 3d bf 3b 72 bd 03 5f 1d 3e
       -0.06970752 0.07604211 -0.05913901 0.15368275
000090 df 9c 2b 3e dc 37 24 be c6 83 00 bd 1d 55 71 3d
       0.1675906 -0.16036934 -0.03137567 0.05891906
0000a0 91 79 6e be 4d e2 99 3b 8b 1c eb bd e0 9a 42 3e
       -0.23288561 0.0046961666 -0.114800535 0.19004393
0000b0 9d 3e b4 bc 43 08 f1 bc f3 3a 16 be 61 f6 8b bc
       -0.022002513 -0.029422885 -0.14670925 -0.017085256
0000c0 d7 21 9c 3e c1 6a 7c be 8c 37 56 3e cb 50 79 be
       0.30494568 -0.24650098 0.20919627 -0.24347226
0000d0 8a 72 e1 3d 78 84 80 3d 88 bc 2c 3e 4d c7 3a 3e
       0.11008175 0.062752664 0.16868794 0.1824009
0000e0 c4 4d 27 be e6 27 3f be 55 05 be 3d 6c a9 13 3e
       -0.16338259 -0.18667564 0.09278361 0.14420098
0000f0 8b 6d 32 be d8 7f 13 3e 8c df 28 3e bb f0 fc bc
       -0.174246 0.14404237 0.16491526 -0.030876508

enc.enc_out1.bias f4 [4]
000000 71 b3 3a be 80 d4 94 3d 98 77 04 3e 78 44 c2 3c
       -0.18232514 0.07267094 0.12936246 0.02371429

enc.enc_out2.weight f4 [1, 4]
000000 0f 1a ca 3e ac 80 d1 3e fd 57 e6 3d cf 8c b5 be
       0.39473006 0.4091848 0.11247251 -0.3545899

dec1.fe.FC1.weight f4 [32, 4]
000000 3f 00 36 bd 14 09 30 3e 5d d2 7d be 6b b6 37 3e
       -0.04443383 0.17190963 -0.24787278 0.1794068
000010 5d a5 52 bb bc 6a 80 be c8 ee e7 3d 51 36 d3 3e
       -0.0032142021 -0.25081432 0.11324841 0.41252378
000020 3a 11 9a 3e 4a 11 58 be e7 1c 5e 3e 31 a4 0a 3e
       0.30091268 -0.21100345 0.21690713 0.13539197
000030 c4 f2 ec bc cb b9 86 be 7a 77 28 3e ab 10 41 be
       -0.028924353 -0.26313624 0.16451827 -0.18854015
000040 a4 d4 a7 3d 8b f7 6b 3d db 7b 9e 3d ee b1 86 3e
       0.08194855 0.057609122 0.07738467 0.26307625
000050 bc 27 b2 bd 65 fa 74 bc 79 13 89 be aa 2d bf 3d
       -0.08698985 -0.014952277 -0.2677267 0.093348816
000060 08 81 78 be 47 b9 c1 be d4 1d e1 be ae bc a7 be
       -0.24267972 -0.37836668 -0.4396807 -0.3276114
000070 6c 99 42 3e ac 5a 72 3e 3f 0b 8b 3e c6 2a dc 3d
       0.19003838 0.23667401 0.27157018 0.10750346
000080 c8 46 44 3d 23 0c 43 3d 75 f5 bf be e8 6b 9e be
       0.047919065 0.047618996 -0.37491956 -0.309417
000090 56 91 6d be 3e 4d 36 3e 50 13 23 be e3 49 f0 bd
       -0.23199973 0.17802903 -0.15925336 -0.11732843
0000a0 72 57 68 bd 8c bb 7a 3e d3 a2 ba be 95 d1 63 be
       -0.05672402 0.24485606 -0.3645235 -0.22247918
0000b0 53 ab f8 3e 94 52 13 3e b8 b2 f5 bd 1d 8d ed bd
       0.4856821 0.1438697 -0.119969785 -0.11599181
0000c0 60 0d a0 be 9b 66 2e bd 74 a7 b1 be af c8 2a 3e
       -0.31260204 -0.04257832 -0.3469807 0.16678117
0000d0 d6 c1 02 bf 12 5b 1e be 4c bf ab be 56 96 14 be
       -0.5107702 -0.15464428 -0.33544385 -0.14510474
0000e0 6a 7e 69 3e f6 9a 65 be d2 5d 5f 3e 47 e4 be 3d
       0.2280213 -0.22422394 0.21813133 0.09320884
0000f0 e2 6e 78 3b b2 0c 7c be 9c 4f a6 bd 05 0d 08 3e
       0.0037907888 -0.24614218 -0.08120653 0.13286217
000100 84 2b 00 bf 27 d9 c1 be d0 a2 d9 bd 3b be 4c bd
       -0.500664 -0.37860987 -0.10626757 -0.049986105
000110 f4 c5 01 3f f5 a0 b4 3e 41 4d f8 3c ef 4e 2a 3e
       0.5069268 0.3527905 0.030310275 0.16631673
000120 89 66 ba be 1f d0 74 be 5b 90 70 3e 95 9a 64 3e
       -0.36406353 -0.23907517 0.23492567 0.22324593
000130 b1 2b f5 be 3d 2d c2 be 5d bd b5 3d d0 a0 38 3e
       -0.47884896 -0.3792514 0.08874009 0.18030095
000140 e1 6c 6a be ef 41 91 3d d7 35 93 3e a9 36 01 be
       -0.22893097 0.07092654 0.28752014 -0.12618507
000150 73 9c a9 be aa f9 d1 3e 38 bb 57 3e f7 e2 05 bc
       -0.33127174 0.4101079 0.21067512 -0.008171788
000160 5b 5b e4 3e ac 36 a5 3e 4b d8 cb 3c 0c c8 5a be
       0.4460095 0.32268274 0.02488341 -0.21365374
000170 75 4a 87 be 5c 4c 5c be 8c e7 8a 3e e4 2c b1 3d
       -0.26423994 -0.21513504 0.2712978 0.0865114
000180 55 6d 01 bd 97 9a 93 bd 48 0e 75 3d bf fc 81 3e
       -0.031598408 -0.0720722 0.059828073 0.25388142
000190 5f 47 a7 be a0 25 4b bd 3c ee 4d 3e a0 d0 9c 3d
       -0.3267164 -0.04959643 0.2011041 0.076569796
0001a0 c0 1e 73 3e b3 13 60 be 99 f5 6b be 6f 12 7e 3d
       0.23742199 -0.21882515 -0.23042907 0.0620293
0001b0 d8 fe 7a 3e 08 12 a3 3b 71 20 10 3f 75 30 fd 3d
       0.24511278 0.0049765147 0.562995 0.12362758
0001c0 41 8d 7a be 4a 4a a9 be 1a f5 a8 be e1 0c 81 be
       -0.24467947 -0.3306449 -0.32999498 -0.25205138
0001d0 79 90 f0 be 83 29 b0 be 5f d1 83 be 91 c2 d3 bc
       -0.46985224 -0.3440667 -0.25745675 -0.025849612
0001e0 8f 2d 5b 3e 74 8b d6 be 5e 7b 8b 3e 12 78 22 bc
       0.21404098 -0.4190327 0.2724256 -0.009916322
0001f0 bf 22 85 3e 41 c9 c0 3e 18 e6 a0 be 3f 03 ae 3d
       0.26003072 0.37653545 -0.31425548 0.08496713

dec1.fe.FC1.bias f4 [32]
000000 36 31 e3 3e 23 1f 16 be 9d c4 8e 3c cb cf 8f 3e
       0.44373482 -0.14660315 0.017427737 0.2808822
000010 33 eb 06 bf 38 1c bd be 91 b0 2d be db fb 0b 3e
       -0.52702636 -0.36935592 -0.16961886 0.13670294
000020 be e0 b8 3e 4b c9 74 3e 80 6c 5c bd 7c 2f 7e 3e
       0.36108965 0.23904912 -0.05381441 0.24822801
000030 fc 38 6a 3e 61 df 0e be 5a 16 f8 3e 18 1d ad be
       0.228733 -0.139524 0.48454553 -0.3381126
000040 f6 75 e6 3d c1 12 df 3e 21 39 ec bd f6 3c 98 be
       0.11252968 0.43568996 -0.11534334 -0.2973401
000050 05 6d f9 bd d9 33 ac be 69 05 a2 be 94 21 2c 3d
       -0.12178997 -0.33633307 -0.31644753 0.04202421
000060 4e db 0a 3f c4 89 13 3f bc 98 a4 be c1 28 b3 be
       0.5424088 0.5763209 -0.32147777 -0.3499203
000070 10 df 99 3e 7d 19 ba 3e f8 09 ec be 6a 2e 0a 3e
       0.30052996 0.3634757 -0.46101356 0.13494268

dec1.fe.FC2.weight f4 [32, 32]
000000 7c 45 c4 3d 3d 84 00 3e 82 53 2e 3e 64 b0 67 bc
       0.095835656 0.12550445 0.17024043 -0.014141176
000010 c7 dd 02 3e 49 98 8d be b3 7c 59 be 23 19 9a bd
       0.12779914 -0.27655247 -0.21238975 -0.07524326
000020 b3 21 6a 3e bb 16 42 be ce bf 01 3e 8d 02 ce 3c
       0.22864418 -0.18953983 0.12670824 0.0251477
000030 21 53 34 3c 29 05 12 be a6 07 3b 3e 29 27 f2 bd
       0.011006148 -0.14259781 0.18264636 -0.118238755
000040 a4 87 0d be 17 8f 05 be 72 8f 0c 3d 5d 3a c6 bc
       -0.13821274 -0.13042866 0.034316488 -0.024197752
000050 ae 21 40 bd 07 60 1a be 8d f8 1b be e8 52 78 3d
       -0.04690712 -0.15075694 -0.15231533 0.06062594
000060 32 2d 2f 3e 7d a0 91 3d 86 97 05 3c 9e 2a a4 3e
       0.17107084 0.07110689 0.008153802 0.32063764
000070 2a dc 41 3d 77 bf 06 bd 99 36 a9 3c e3 92 49 3c
       0.047329105 -0.03289744 0.020655917 0.012303087
000080 97 ae 8a 3d b5 c3 a4 3c ac e3 4a 3d 75 49 e6 3d
       0.067715816 0.020112852 0.04953353 0.112444796
000090 fa 58 1e be 60 32 60 bd 0a 7a ee bd ec de b7 bd
       -0.1546363 -0.05473554 -0.11644371 -0.08978066
0000a0 12 44 6f 3d aa df 8b bd 16 ea 41 bd 24 7c 79 3e
       0.058414526 -0.0682977 -0.047342382 0.24363762
0000b0 e4 e4 5b 3d 95 06 4d bf 7f 86 78 3c 85 b5 09 be
       0.053685084 -0.8008817 0.015168785 -0.1344815
0000c0 f9 42 30 be 53 e1 6a 3e 7f 4f 65 be 36 11 dd be
       -0.17213048 0.22937517 -0.22393607 -0.43177193
0000d0 34 d8 52 3e 1d 70 d4 bd f0 c4 01 be 45 4c e2 be
       0.20590287 -0.103729464 -0.12672782 -0.44198814
0000e0 0c af 05 3e ab bd 27 3c 7a 5e 8c bd 83 b4 d6 bd
       0.13055056 0.010238091 -0.068539575 -0.10483649
0000f0 cb 8e cb 3b 30 e9 73 bc cf ff 3d bd 8c ba 4a bd
       0.0062120906 -0.014887139 -0.046386536 -0.04949431
000100 c6 01 eb 3d f9 ae d6 3d aa 75 52 bd 9f aa 35 3d
       0.11474948 0.10482592 -0.051381744 0.04435217
000110 84 44 98 be 59 1c 20 3e 22 27 62 bd 39 d2 94 3d
       -0.29739773 0.15635814 -0.0552131 0.07266659
000120 d7 db e8 be a9 2e 89 3d 83 8a a8 3e 49 11 bd bd
       -0.45480224 0.06698353 0.32918176 -0.092318125
000130 7c d1 e5 3d 8e 59 a1 3d 16 54 be 3e 60 21 0d 3e
       0.112215966 0.07878409 0.37173527 0.13782263
000140 b5 a4 f1 bd 65 e9 7c be ce 18 38 bd 42 a0 88 3e
       -0.117989935 -0.24698408 -0.04494553 0.26684767
000150 3c c1 0e 3d 4e e9 85 3e 85 36 af 3e a8 3b 79 bd
       0.03485225 0.2615456 0.34221283 -0.06084791
000160 21 fc ef bd 84 17 ff 3d 71 5d d9 3d c1 c9 d6 be
       -0.11718012 0.12455657 0.10613526 -0.419508
000170 a5 46 07 bc 61 c1 f0 bb 56 44 76 be 59 11 17 bd
       -0.008256589 -0.0073472713 -0.24049506 -0.03688178
000180 7a 29 18 bd df 33 a0 bd 6a 7e 14 be 48 78 74 bd
       -0.03714893 -0.078223936 -0.14501348 -0.05968502
000190 52 35 9c 3e 44 f5 29 be 03 4d 29 be 30 e0 51 3e
       0.3050943 -0.16597468 -0.16533284 0.20495677
0001a0 b2 c5 34 3e 9a e3 bf be 0c eb 1c bc be fa 18 3e
       0.1765354 -0.37478334 -0.009577524 0.149394
0001b0 08 91 27 bd f4 f0 cf 3e d5 b2 d4 bd 45 db 82 3e
       -0.040909797 0.4061352 -0.10385672 0.25557914
0001c0 32 8c 07 be 20 1f 07 3d f3 47 ba 3e de c0 c0 3e
       -0.13237074 0.032988667 0.36383018 0.37647146
0001d0 b6 ab a9 bd 77 c9 93 bd f9 ca d2 3e 83 8e 92 3e
       -0.082847044 -0.07216161 0.4117048 0.28624353
0001e0 f6 af 29 3d 4c 26 20 be eb dc a6 be b5 b6 b5 3d
       0.041427575 -0.15639609 -0.32590422 0.08872739
0001f0 26 5b 8a be 3c 86 33 be 9b f6 85 3d 9e cb 98 3d
       -0.27022666 -0.17531675 0.06541177 0.07460712
000200 2d ea 35 3e e0 e2 2e bd 08 73 09 bd 19 0f 1c 3e
       0.17765112 -0.042696834 -0.033556968 0.15240134
000210 fd 62 48 bf cd 9d b5 3e 4c 2b cd 3d 23 9c 99 bd
       -0.78276044 0.35471955 0.10018024 -0.07500484
000220 54 c9 c3 bd 2f 23 80 3e 26 f8 22 3e ae df 2b 3c
       -0.09559885 0.25026843 0.15914974 0.010490341
000230 53 17 da 3d d0 3c 63 be 3d 76 9e 3e 78 ad 59 bc
       0.1064898 -0.22191167 0.30949584 -0.013285987
000240 7b db a0 bd ca e7 03 be 2d 1c a8 be 8f 8a d1 bd
       -0.078543626 -0.1288139 -0.32833996 -0.10231506
000250 e6 89 7f 3e d3 53 4d 3d de 6b 59 bd 9a 24 14 bc
       0.24954948 0.05012877 -0.053081386 -0.00904193
000260 0c b8 24 3e 2c 5d c0 3d 57 c9 8d bd 06 91 e8 be
       0.16085833 0.09392771 -0.06923168 -0.45423144
000270 ed 76 a3 bd c4 66 27 be ef ae 25 3e 9b 06 b7 3d
       -0.07981668 -0.16347796 0.16180013 0.08936807
000280 58 09 ee 3d ee a5 b2 3d f8 2b 12 be de f8 8d 3c
       0.11622876 0.08723055 -0.14274585 0.017330583
000290 d3 d0 37 be 09 22 b0 be 6a fc 2d be bd c6 b7 3d
       -0.17950754 -0.34400967 -0.1699082 0.08973453
0002a0 b4 c1 2d 3d b1 f1 93 be f6 e8 31 3e 69 51 95 3d
       0.042421058 -0.28895333 0.17374024 0.072909184
0002b0 a1 10 a8 bc b5 44 0a 3e 69 aa 3b 3e cb f5 d4 3d
       -0.020515742 0.13502772 0.18326725 0.10398444
0002c0 8e 95 82 bd 72 e1 b6 bd 29 5a 13 3d a3 df 80 3e
       -0.063761815 -0.08929719 0.035974655 0.2517062
0002d0 7a 63 47 bd 99 64 53 bd df 23 de 3d 3a 27 b4 3d
       -0.048678853 -0.05160961 0.108466856 0.087965444
0002e0 17 02 6b 3e 6c 51 d0 3d ba b5 4d bd 1c ea ea 3d
       0.22950016 0.1017178 -0.050222136 0.11470434
0002f0 29 9d 35 be 93 f8 f3 bc 92 92 3b bd 79 e5 32 3e
       -0.17735733 -0.029781615 -0.045794077 0.1747035
000300 c0 85 da bd eb 6d b1 3d cd 95 4c bd a6 7f c4 3d
       -0.10670042 0.08663543 -0.04994755 0.095946595
000310 9a 3f e2 3b fe fa a2 3b e7 c6 ab bd aa 85 b0 bd
       0.0069045546 0.0049737683 -0.08387547 -0.086192444
000320 7d 84 d9 3d 4e e0 39 be 74 f9 26 bc 21 cf 3f 3d
       0.10620973 -0.18151972 -0.01019131 0.046828393
000330 8e 5a 26 bc 0a d9 6e 3b df b0 ae bd e2 0b 02 be
       -0.010153426 0.0036445283 -0.08529829 -0.12699845
000340 ea c6 cf 3d d5 6d e8 bd cb 4e 97 3c 6a 42 1e 3e
       0.10145362 -0.11349074 0.018470189 0.15455022
000350 f9 79 41 be 9a 6e 50 3d 79 42 ee bd 65 0c 0e 3e
       -0.18894185 0.050886728 -0.116337724 0.13871916
000360 0e 3b 41 be 28 6d a2 bd e1 9e 8b bd 45 e6 07 be
       -0.18870184 -0.07930976 -0.06817413 -0.13271435
000370 e5 12 f5 bd 9a c9 17 be 4f b2 a6 3d 18 1f 19 bd
       -0.119664945 -0.14822999 0.081394784 -0.03738317
000380 ba 7e d3 bd 4e ab 52 be ee 4e 05 be d7 ce 8f 3d
       -0.103269055 -0.2057316 -0.1301839 0.070218734
000390 bf c1 17 3e 92 96 38 bf 28 a0 09 be 35 23 92 3e
       0.14820002 -0.7210475 -0.13440001 0.28542486
0003a0 08 94 e9 3d 24 71 4d 3b 38 13 21 bd 6d a1 7b 3d
       0.11405188 0.0031347955 -0.03932497 0.061433244
0003b0 18 66 8c 3c 0a 2d 02 3e 40 92 6b 3e 49 1b 90 3e
       0.017138526 0.12712494 0.23005009 0.28145817
0003c0 54 bd bf 3d a4 b4 1d 3d 06 67 7c 3e 31 2b ba 3e
       0.09362283 0.03850235 0.24648675 0.36361077
0003d0 20 56 54 bd 21 39 79 bd 60 21 a7 3e 57 c4 a7 3e
       -0.051839948 -0.060845498 0.3264265 0.32766983
0003e0 18 cc 8b be 2a 9c a5 3c c4 f7 03 bd e1 a1 98 be
       -0.2730415 0.020216066 -0.03221871 -0.29811004
0003f0 78 23 d8 bd 72 93 dd bc af 4a 23 3e c9 3a 6c bc
       -0.1055364 -0.027047846 0.15946458 -0.014418312

dec1.fe.FC2.bias f4 [32]
000000 76 cb 47 3e 04 20 b1 3e 5c db 02 be fa ac 6e be
       0.19511208 0.34594738 -0.12778991 -0.23308173
000010 b4 42 14 3e a0 b5 40 3c b3 df fe bd b5 0e e4 bd
       0.1447857 0.011762053 -0.12445011 -0.11135618
000020 d2 6d c3 3d 02 08 7b bd b6 3f be 3d 59 cc 4c 3e
       0.09542431 -0.061286934 0.09289496 0.19999827
000030 f3 f2 d2 3d e3 6e aa 3e 1b 14 be bd 18 60 22 3e
       0.10300245 0.33287725 -0.092811786 0.1585697
000040 c3 98 b9 3d 94 cc 0a 3d a5 ed 41 3e d6 9c 63 3e
       0.0906234 0.033886507 0.1893831 0.22227797
000050 2a 1e 24 3d df 9a 98 bd ec 55 b7 3d 41 19 7b 3e
       0.04006783 -0.07451414 0.08951935 0.24521352
000060 aa ec 3d 3e 78 b8 1d be eb 6f 1a 3e b3 95 9a be
       0.18547311 -0.154024 0.15081756 -0.30192336
000070 79 89 70 3b a3 af 35 3d 3b 68 00 3d 60 4f d5 3d
       0.0036703034 0.044356953 0.031349402 0.1041553
