Lightcode/bc/zyy_results/N_3_3_d_32_32/snr2_100/seed_777/weights/gbaf_1xfe_fy/T_8/pow_1/100000/0.002/K_3_m_3_snr1_0/model_weights120000.pt (torch, 181230 bytes, 38 tensors)

Tmodel.fe1.FC1.weight f4 [64, 21]
-0.20907205 0.23245135 -0.038367067 -0.028879847 0.09706013 0.16324168 0.08040033 0.0800734
0.0014422556 -0.045302935 -0.035331998 -0.051184908 -0.0015436899 -0.013804134 0.013628811 0.07258614
0.036519904 -0.015943903 -0.01494571 -0.046015203 -0.054389644 0.011515379 0.1603693 -0.016177911
0.046958882 0.0043425104 -0.00094032113 -0.0074685114 -0.004957802 0.0002782439 0.0072449674 -0.0066404426
-0.005623255 0.0051397975 -0.001049147 0.0017436212 0.059215207 0.07282349 -0.1050151 -0.020947192
-0.015135344 0.004421211 -0.39863566 0.005870246 0.019597458 0.037339486 0.026634336 -0.007824125
0.0045662643 -0.15044878 -0.0028389639 0.0034800482 -0.011191775 -0.0020214466 0.007976145 -0.0036692715
0.0018577073 -0.0023305565 -0.0070311446 -0.0060251513 -0.003440739 -0.00092894863 -0.004397783 0.019214947
-0.024915265 0.02570366 -0.00562719 0.5599578 -0.040953346 -0.21053399 -0.007592264 0.000120685305
-0.00057929324 -0.00020710228 -0.8357809 0.49783736 0.13953 0.0009175139 0.010551089 -0.0013833621
0.0038732258 -0.1764668 -0.11149914 -0.07155948 0.07371911 -0.19530258 0.133083 -0.18228075
0.26841217 0.19944611 0.052743033 -0.032085653 0.0072543486 -0.014336835 0.03998922 -0.046559915
-0.023396857 -0.005788266 0.008827651 0.13521977 0.05477169 -0.0094913235 -0.05908165 -0.07579661
-0.029462049 0.014566024 -0.17242981 0.041909266 -0.030825771 0.004503814 -0.002261496 -0.006416274
-0.006750839 -0.00035316992 -0.00698186 0.0024705876 0.0004467668 0.00013700302 0.0021241396 0.0031045747
-0.19100647 0.031062197 -0.011390445 -0.00050845504 0.0029293357 0.0025133493 -0.073713355 0.07519611
0.4327916 -0.04507322 -0.0014540905 -0.06460412 -0.04576293 0.031096462 0.0015243642 -0.18511261
-0.109147646 -0.118850894 0.10396534 -0.15607516 -0.0013503614 -0.037538286 -0.12285099 0.14494497
-0.11209935 -0.04461116 -0.071087755 0.1373441 -0.0675344 0.21484397 0.0043276027 -0.012462728
-0.029680107 -0.1581867 -0.054274686 -0.010714122 -0.031163227 -0.022507098 -0.017299363 0.023104755
0.026258385 -0.00055617123 0.04458841 -0.010619371 0.022771578 -0.02238504 -0.0232258 0.04669266
0.027553452 -0.1928236 0.03424197 -0.03013694 0.15787527 0.26248392 0.24690539 -0.012517997
-0.0037911865 -0.0011339342 0.00932634 -0.038025144 -0.038700763 -0.046181556 0.002254385 0.0792944
0.040769048 -0.030528355 -0.027102455 -0.10904145 -0.1613643 -0.0003694717 -3.1294916e-05 -0.00014322656
0.00029522623 7.367261e-06 -0.00060530944 -0.49682674 1.5785576e-05 -0.00015172822 6.152527e-05 -0.0003172245
-0.00022156516 0.00056882197 0.3411463 -8.434526e-05 9.8791796e-05 2.6629526e-05 -0.00014264103 -2.330467e-05
0.0002074064 -1.2312564 -0.015105545 0.01112525 -0.019667381 0.0014382908 0.0016619146 0.620858
-0.7394073 0.0050921445 0.0018974041 0.0018591805 -0.0006684407 0.00051468273 -0.054978628 0.30318838
7.7043216e-05 -0.00773359 -0.0013482168 0.00033155773 -0.0007487834 -1.3938953 -0.029361274 7.6118995e-05
-0.275005 0.037605453 -0.003907728 -0.05217505 -0.020991718 -0.031889264 -4.303604e-05 0.0013493225
-0.011464753 -0.013537889 0.004353331 0.008200264 -0.0016347197 -0.0033538656 -0.069494694 -0.047793735
0.060592018 0.0028296742 -0.024342785 0.005000261 -0.061409533 0.19489816 0.05757624 -0.025613613
00000000: fc16 56be ba07 6e3e c926 1dbd 6e95 ecbc
00000010: 76c7 c63d d428 273e eea8 a43d 86fd a33d
00000020: 110a bd3a 928f 39bd 49b8 10bd 44a7 51bd
00000030: a355 caba bc2a 62bc 604b 5f3c 0ba8 943d
00000040: e595 153d ca9c 82bc dade 74bc 707a 3cbd
00000050: adc7 5ebd 00ab 3c3c da37 243e 8a87 84bc
00000060: f557 403d 9e4b 8e3b e27f 76ba 6aba f4bb
00000070: 0f75 a2bb 44e1 9139 3167 ed3b 1298 d9bb
00000080: 4843 b8bb bf6b a83b 8883 89ba 388a e43a
00000090: a58b 723d 7b24 953d 2812 d7bd 7299 abbc
000000a0: 3cfa 77bc cedf 903b f919 ccbe 315b c03b
000000b0: d98a a03c 4af1 183d 4030 da3c c230 00bc
000000c0: 9aa0 953b 3f0f 1abe e90d 3abb 8511 643b
000000d0: b55d 37bc 3f7a 04bb 60ae 023c 2978 70bb
000000e0: 507e f33a 40bc 18bb 8465 e6bb a26e c5bb
000000f0: 057e 61bb b084 73ba 471b 90bb aa68 9d3c
00000100: 191b ccbc 7b90 d23c 4b64 b8bb 6559 0f3f
00000110: b2be 27bd 3996 57be 87c8 f8bb 6e18 fd38
00000120: b6db 17ba 9829 59b9 bdf5 55bf 8ae4 fe3e
00000130: f4e0 0e3e 5185 703a 7ade 2c3c ee51 b5ba
00000140: f2d5 7d3b b6b3 34be a959 e4bd c78d 92bd
00000150: 0bfa 963d 66fd 47be e946 083e cea7 3abe
00000160: 526d 893e 9a3b 4c3e 1409 583d 3f6c 03bd
00000170: e3b5 ed3b 0be5 6abc bdcb 233d 9cb5 3ebd
00000180: c4aa bfbc 7fab bdbb daa1 103c 0d77 0a3e
00000190: 4858 603d 7f81 1bbc 9aff 71bd 413b 9bbd
000001a0: 655a f1bc 55a6 6e3c 7191 30be 0da9 2b3d
000001b0: 5486 fcbc bb94 933b 9b35 14bb 9b3f d2bb
000001c0: 2436 ddbb aa29 b9b9 16c8 e4bb 95e9 213b
000001d0: 063c ea39 78a8 0f39 2635 0b3b 1f76 4b3b
000001e0: 3397 43be 2676 fe3c fd9e 3abc d749 05ba
000001f0: 19fa 3f3b 01b7 243b 07f7 96bd 6b00 9a3d
00000200: dc96 dd3e b29e 38bd 2e97 beba 2a4f 84bd
00000210: e971 3bbd 02be fe3c 2dcd c73a 298e 3dbe
00000220: cd88 dfbd 1968 f3bd c8eb d43d 2bd2 1fbe
00000230: 9cfe b0ba bfc1 19bd 4d99 fbbd 746c 143e
00000240: 5894 e5bd 31ba 36bd 7596 91bd efa3 0c3e
00000250: 7a4f 8abd 0f00 5c3e 90ce 8d3b 7830 4cbc
00000260: b223 f3bc b2fb 21be 224f 5ebd 498a 2fbc
00000270: 064a ffbc ce60 b8bc 65b7 8dbc 2f46 bd3c
00000280: d31b d73c 05cc 11ba 56a2 363d dffc 2dbc
00000290: 768b ba3c d560 b7bc 0844 bebc cd40 3f3d
000002a0: c7b7 e13c 8d73 45be 4f41 0c3d bee1 f6bc
000002b0: 0eaa 213e 4b64 863e c4d4 7c3e 4918 4dbc
000002c0: 8e75 78bb 85a0 94ba 81cd 183c 41c0 1bbd
000002d0: b184 1ebd df28 3dbd 4ebe 133b 1a65 a23d
000002e0: 72fd 263d 9a16 fabc f805 debc 2051 dfbd
000002f0: af3c 25be a7b5 c1b9 a942 03b8 162f 16b9
00000300: 98c8 9a39 4a34 f736 a1ad 1eba 1360 febe
00000310: 446b 8437 3c19 1fb9 2107 8138 2751 a6b9
00000320: f253 68b9 ff1c 153a baaa ae3e 84e2 b0b8
00000330: 712e cf38 7962 df37 e991 15b9 667e c3b7
00000340: 3b7b 5939 cf99 9dbf 3f7d 77bc ae46 363c
00000350: 7d1d a1bc 0885 bc3a 9ad4 d93a 8df0 1e3f
00000360: cc49 3dbf 01dc a63b 51b2 f83a bfaf f33a
00000370: 4c3a 2fba c6eb 063a 4531 61bd 823b 9b3e
00000380: 4392 a138 0e6a fdbb a6b6 b0ba edd4 ad39
00000390: 014a 44ba 296b b2bf 0e87 f0bc 13a2 9f38
000003a0: 75cd 8cbe 2d08 1a3d 660c 80bb 81b5 55bd
000003b0: d3f6 abbc 519e 02bd 9981 34b8 c0db b03a
000003c0: a9d6 3bbc 06ce 5dbc 63a6 8e3b 665a 063c
000003d0: 1744 d6ba 87cc 5bbb 3c53 8ebd 5dc3 43bd
000003e0: 562f 783d 0e72 393b 856a c7bc 3bd9 a33b
000003f0: 9088 7bbd 6293 473e 10d5 6b3d a4d3 d1bc

Tmodel.fe1.FC1.bias f4 [64]
0.00020154151 -0.36177602 -0.24628358 0.07046209 -0.011676365 -0.30803996 0.0012555248 0.19402291
0.18636641 -0.0029100303 0.09108133 -0.45628035 0.002642249 -2.263979e-05 0.00080995064 -0.00014076498
0.08171266 0.0008356701 -0.0036583142 0.073126696 -0.08874798 -0.38164634 0.37341648 -0.00017701702
0.000660732 -0.15985867 -0.2312034 0.05992917 -0.0008485347 0.0005128865 0.0006590363 -0.0006872473
4.637613e-05 -0.0014223747 0.0001172298 -0.004520851 0.087124094 0.081314094 -0.12913534 -0.12983954
-0.24939412 -0.26951727 -0.0155544095 0.4003681 0.0005372459 0.00012885935 0.0018322887 0.066886105
0.00072079164 0.0005215595 0.11342936 -0.2245829 -0.0025033376 0.0012953053 -0.029289661 0.00026156608
-0.0030077996 0.1740257 8.49037e-06 0.00035747187 0.3484901 0.0023815953 0.03997631 -0.017275639
00000000: e354 5339 b53a b9be c331 7cbe 6e4e 903d
00000010: 394e 3fbc 6ab7 9dbe 6c90 a43a f1ad 463e
00000020: d6d6 3e3e 35b6 3ebb d988 ba3d 949d e9be
00000030: 9529 2d3b 94ea bdb7 de52 543a 509a 13b9
00000040: f858 a73d df10 5b3a 54c0 6fbb 73c3 953d
00000050: 80c1 b5bd 2667 c3be 7230 bf3e a59d 39b9
00000060: f934 2d3a feb1 23be 96c0 6cbe 4a78 753d
00000070: 3370 5eba 3b73 063a 2dc3 2c3a 6328 34ba
00000080: fe83 4238 fa6e baba 45d9 f538 a623 94bb
00000090: 1e6e b23d 0188 a63d 0e3c 04be a8f4 04be
000000a0: 2c61 7fbe 2bfe 89be ecd7 7ebc 0cfd cc3e
000000b0: f6d5 0c3a 6b1e 0739 6829 f03a 95fb 883d
000000c0: 82f3 3c3a 44b9 083a a74d e83d 0ff9 65be
000000d0: 090f 24bb 3cc7 a93a dff0 efbc ce22 8939
000000e0: 811e 45bb cb33 323e dd71 0e37 106b bb39
000000f0: 4b6d b23e 8a14 1c3b 33be 233d a485 8dbc

Tmodel.fe1.FC2.weight f4 [64, 64]
0.001044946 -8.438936e-05 -0.009286464 0.0046946295 0.011898379 0.014709287 -0.040544074 0.12505038
-0.051438954 0.19747134 -0.0019424112 0.028375467 0.016991619 -0.017474921 -0.006263232 -0.013844773
0.005047338 -0.019517498 -0.0050893077 0.0023591176 -0.0029668321 0.021222226 -0.009304364 0.019854885
-0.0005221076 0.049837433 -0.5427954 -0.03045314 0.00026403688 0.06732787 -0.011508384 -0.002384667
-0.036715206 0.36034316 0.038865387 -0.01314906 -0.0033512737 -0.014382929 0.0069142748 -0.014733662
-0.024038106 -0.019968623 0.008474432 0.020403715 -0.06277441 -0.06347213 -0.0076535977 -0.0031527455
0.0039707534 0.012725932 -0.03462855 0.03152429 0.0036821072 0.0068196845 0.019236295 -0.0040668896
0.0200967 0.07335773 -0.009424223 -0.001587428 0.03739587 -0.047240153 0.019839695 0.41935253
0.028458921 -0.02969076 0.033131532 0.028984163 -0.027694002 -0.0524658 -0.02205707 0.035139136
0.16748752 -0.403746 -0.006480402 0.03651814 0.0019428264 -0.0131563395 6.530776e-05 -0.00967941
-0.015550021 0.023987781 -0.0072190757 -0.008910841 -0.06555232 0.069462635 -0.014761185 0.0075036716
0.00041467207 -0.10578691 -0.38447946 0.03795109 0.003181958 0.05086789 0.04725992 0.008082958
-0.011362622 -1.344507 0.015692264 -0.09204848 -0.01554278 -0.066903606 0.0026882016 0.014897498
0.007559061 -0.05477849 -0.043176893 -0.007848591 -0.106702454 0.009974806 0.013886028 -1.7227725
-0.009985994 -0.10500256 0.32195696 -0.04867816 0.01202517 -0.013489412 0.018124785 0.046623252
-0.025677536 0.0054280213 -0.013330961 0.010067214 -0.071636654 0.08230036 -0.052907478 -0.025865596
0.010644991 0.11040366 0.16577454 0.0026728208 0.030732334 0.003452206 0.1498719 0.046184417
-0.037220683 -8.500479 -0.0024256443 -0.046237435 0.068893775 0.036418878 0.009212083 -0.13880706
-0.019488355 0.041018024 -0.055695448 0.0007660587 -0.017463528 0.08747112 0.04459492 0.10916172
0.01136058 0.054887243 -0.0033780544 0.0033458825 0.0029671725 0.0640858 0.0058426023 0.0073446278
-0.01585953 -8.116814 -0.060088433 -0.033245876 0.010375392 0.088354774 0.01772092 0.059124835
0.15072487 0.021641007 -0.03218676 0.016499791 -0.3147015 1.0594923 -0.024962079 -0.008966147
0.012230059 -0.19270533 0.11267631 -0.10917976 0.05270857 0.0055672424 0.023350967 0.060153037
-0.007978 -0.06384161 0.0040016323 -0.10102619 0.06718493 0.038671847 -0.034473993 -0.06799217
0.029635897 -0.07749672 0.051240027 0.0100663705 -0.0136931185 -0.0053378916 -0.042924922 0.06615802
0.33080262 -0.0055463556 -0.018175017 0.059517015 -0.01526882 -0.00996551 -0.009544288 -0.04504847
0.004651604 0.019923596 -0.017699614 -0.0013763525 -0.03487018 0.02676532 -0.0017768864 -0.2987823
-0.0012702507 -0.028463323 0.11194204 -0.0053454065 0.0059663835 0.046451535 -0.02931774 -0.006489371
0.053391095 -0.0164219 0.06832813 0.09961276 0.014784719 -2.4758096 -0.014695093 -0.023230132
-0.009827353 0.013532836 -0.07475296 0.01752588 0.1171528 -0.020273339 0.0009950362 0.010389885
-0.013582918 -0.10106371 -0.048520505 0.034140572 -0.013311972 0.00981308 0.05378346 0.0024369282
0.03556198 -0.036263306 -0.019000378 -0.072245546 0.11886906 -0.15198559 0.13018218 -0.103184804
00000000: 92f6 883a 31fa b0b8 4126 18bc 68d5 993b
00000010: 6bf1 423c 39ff 703c 8b11 26bd 350d 003e
00000020: a7b1 52bd ed35 4a3e 8198 feba ab73 e83c
00000030: 0232 8b3c 9127 8fbc cc3b cdbb 30d5 62bc
00000040: 2464 a53b 29e3 9fbc 35c4 a6bb 6d9b 1a3b
00000050: 2f6f 42bb 3cda ad3c 5571 18bc b6a6 a23c
00000060: 0cde 08ba 5622 4c3d a4f4 0abf dd78 f9bc
00000070: 6e6e 8a39 32e3 893d a98d 3cbc 1348 1cbb
00000080: af62 16bd e67e b83e 5031 1f3d 286f 57bc
00000090: 0ba1 5bbb 60a6 6bbc 2491 e23b 7565 71bc
000000a0: 90eb c4bc 3d95 a3bc 58d8 0a3c b125 a73c
000000b0: df8f 80bd adfd 81bd 08cb fabb 4b9e 4ebb
000000c0: 181d 823b 6d80 503c abd6 0dbd 9d1f 013d
000000d0: 824f 713b a977 df3b 6f95 9d3c 8b43 85bb
000000e0: d6a1 a43c 943c 963d 0e68 1abc 3f11 d0ba
000000f0: 692c 193d e47e 41bd db86 a23c 60b5 d63e
00000100: af22 e93c 093a f3bc eeb4 073d 3270 ed3c
00000110: 88de e2bc 61e6 56bd 07b1 b4bc 0eee 0f3d
00000120: d981 2b3e ccb7 cebe 8d59 d4bb 0c94 153d
00000130: 70a6 fe3a b08d 57bc d6f5 8838 6396 1ebc
00000140: 84c5 7ebc 0682 c43c ff8d ecbb c7fe 11bc
00000150: 4b40 86bd 6d42 8e3d e6d8 71bc 5ce1 f53b
00000160: 5868 d939 cfa6 d8bd 7eda c4be 9a72 1b3d
00000170: 6688 503b d95a 503d 9e93 413d 626e 043c
00000180: 4a2a 3abc ce18 acbf 108d 803c ea83 bcbd
00000190: 25a7 7ebc c204 89bd 8a2c 303b a314 743c
000001a0: 00b2 f73b 695f 60bd 41da 30bd 6097 00bc
000001b0: d186 dabd 5e6d 233c 3982 633c cf83 dcbf
000001c0: 4b9c 23bc 950b d7bd 8bd7 a43e c062 47bd
000001d0: 3805 453c b202 5dbc 6e7a 943c 06f8 3e3d
000001e0: b259 d2bc 8bdd b13b 1a6a 5abc f5f0 243c
000001f0: 3db6 92bd 178d a83d 83b5 58bd 16e4 d3bc
00000200: 5468 2e3c 501b e23d cdc0 293e 7e2a 2f3b
00000210: 60c2 fb3c 683e 623b 0578 193e df2b 3d3d
00000220: b774 18bd f601 08c1 8ff7 1ebb 7763 3dbd
00000230: 2e18 8d3d f62b 153d 47ee 163c 7023 0ebe
00000240: 0ba6 9fbc 8402 283d e920 64bd 54d1 483a
00000250: ac0f 8fbc 0f24 b33d 2aa9 363d 2e90 df3d
00000260: ba21 3a3c 72d1 603d 5962 5dbb 9846 5b3b
00000270: e574 423b 6a3f 833d 4d73 bf3b 34ab f03b
00000280: d8eb 81bc 78de 01c1 4a1f 76bd d42c 08bd
00000290: 8cfd 293c 59f3 b43d 762b 913c e22c 723d
000002a0: 9f57 1a3e 7b48 b13c 44d6 03bd 922a 873c
000002b0: 8e20 a1be 729d 873f 467d ccbc bfe6 12bc
000002c0: 9660 483c 8c54 45be d6c2 e63d a399 dfbd
000002d0: f1e4 573d 6a6d b63b 874a bf3c 0863 763d
000002e0: 28b6 02bc 64bf 82bd 2020 833b d2e6 cebd
000002f0: 4198 893d 5f66 1e3d 9a34 0dbd 7b3f 8bbd
00000300: fbc6 f23c 9ab6 9ebd 10e1 513d 6bed 243c
00000310: 1a59 60bc 7be9 aebb 0bd2 2fbd db7d 873d
00000320: f65e a93e 34be b5bb c6e3 94bc 1dc8 733d
00000330: 132a 7abc 6146 23bc a55f 1cbc bf84 38bd
00000340: 7c6c 983b cf36 a33c c8fe 90bc ba66 b4ba
00000350: 09d4 0ebd f242 db3c 6ae6 e8ba fef9 98be
00000360: 8a7e a6ba ea2b e9bc de41 e53d 8528 afbb
00000370: a781 c33b f743 3e3d c22b f0bc caa4 d4bb
00000380: 9fb0 5a3d 3887 86bc 9eef 8b3d c601 cc3d
00000390: 9b3b 723c aa73 1ec0 b0c3 70bc 1e4d bebc
000003a0: e802 21bc d4b8 5d3c 1418 99bd 6f92 8f3c
000003b0: cfed ef3d 4614 a6bc e06b 823a 563a 2a3c
000003c0: e38a 5ebc 7efa cebd 70bd 46bd fcd6 0b3d
000003d0: 751a 5abc 0ac7 203c 0c4c 5c3d dfb4 1f3b
000003e0: 70a9 113d d588 14bd aea6 9bbc 79f5 93bd
000003f0: 9f71 f33d 1ca2 1bbe 7a4e 053e 8e52 d3bd

Tmodel.fe1.FC2.bias f4 [64]
-0.046441074 0.07142744 0.062160734 0.08861685 0.13856722 0.03973457 0.15801516 0.30180344
-0.038309447 -0.048223767 0.0833482 -0.17359835 0.028183658 -0.23519397 0.24828917 0.107054256
-0.063022375 0.14238386 -0.01971637 0.10480132 0.035379797 -0.21535495 -0.1339337 0.05321207
-0.027043793 0.11117571 0.28932258 -0.20993863 0.26427215 -0.10227318 -0.07726382 -0.20041212
0.053418715 -0.011525421 0.12369561 -0.34784332 -0.031284034 0.051787585 0.18780056 0.050898585
0.09358487 -0.03834639 0.1483833 -0.20081587 -0.25864345 0.060713135 -0.03612842 -0.13343102
-0.15011385 0.07479293 -0.19820048 0.2294664 0.11147752 -0.07634162 0.19520593 -0.12299804
-0.20179571 0.06667423 0.118594185 0.11690903 0.06713898 0.4215188 -0.20077348 -0.17718849
00000000: ff38 3ebd 8d48 923d 419c 7e3d c07c b53d
00000010: 91e4 0d3e b7c0 223d bace 213e fb85 9a3e
00000020: 5eea 1cbd 4986 45bd 76b2 aa3d c4c3 31be
00000030: 6ae1 e63c b0d6 70be 843f 7e3e 433f db3d
00000040: e011 81bd 13cd 113e 3a84 a1bc 13a2 d63d
00000050: 68ea 103d 0286 5cbe ea25 09be e6f4 593d
00000060: f28a ddbc 17b0 e33d 1722 943e 27fa 56be
00000070: ae4e 873e 9a74 d1bd 7e3c 9ebd d638 4dbe
00000080: 95cd 5a3d 1fd5 3cbc 2054 fd3d 8518 b2be
00000090: b023 00bd 381f 543d ca4e 403e 097b 503d
000000a0: 6da9 bf3d 1b11 1dbd cbf1 173e ada2 4dbe
000000b0: ea6c 84be 56ae 783d 65fb 13bd 24a2 08be
000000c0: 72b7 19be 092d 993d 11f5 4abe 3df9 6a3e
000000d0: 534e e43d ff58 9cbd 10e4 473e 65e6 fbbd
000000e0: 89a3 4ebe 808c 883d 82e1 f23d 006e ef3d
000000f0: 2980 893d 50d1 d73e 9097 4dbe e670 35be

Tmodel.fe1.FC3.weight f4 [64, 64]
0.000582957 -0.038295697 0.0362565 0.19363658 0.10611329 -0.10737906 -0.0043514445 0.08934408
-0.0363045 -0.09624217 0.051193908 0.105687775 0.5536973 0.21910752 -0.0020078947 0.028046614
0.07384321 0.34687647 0.05948356 -0.059236623 0.04913984 -0.09651017 0.02228278 0.07495963
-0.1265145 0.027100813 0.010651166 -0.25865185 0.02965701 0.096092775 0.06867128 0.056905705
0.038594518 -0.2874553 0.24912933 0.05486468 0.0875076 0.044222135 -0.072210394 0.054131027
0.04252969 -0.042750124 0.036345404 0.033785768 -0.07709791 0.0008443975 0.058493074 0.022598604
-0.058526926 -0.11832945 0.04666931 0.08704607 -0.054644264 0.12823708 0.052025314 -0.12309833
0.03005201 0.1020786 0.09235313 -0.005664487 -0.027123095 0.04610922 0.046053577 -0.0924003
0.008623649 0.014851418 0.019981502 0.0616509 -0.44475487 0.10041539 -0.010183999 -0.003219225
0.09040353 0.026603878 -0.035279315 -0.009145479 -0.29525435 -0.35761884 -0.032772075 -0.06842931
0.04488514 -0.08225366 -0.009481542 0.03611298 -0.017696396 -0.06692107 0.044068202 -0.04536579
0.081251554 -0.0143326875 0.0055452497 -0.109432675 0.060440596 0.003359324 0.14988917 0.12704003
0.028036105 0.11903314 -0.06926232 -0.13637324 0.017386455 0.028415717 -0.031272303 0.06320318
0.029114641 -0.36943576 -0.08236829 0.06119505 -0.04993387 0.0609486 -0.030239133 -0.08264941
-0.044841863 -0.62789166 -0.09493697 0.026633125 0.055817608 -0.025676904 0.021242449 -0.06602142
-0.0783334 0.15186688 0.38097104 -0.04665065 -0.042933866 -0.025902461 -0.005123133 0.034637835
-0.00861274 0.061927445 -0.11931712 0.015650848 -0.37630406 -0.09967775 -0.13320324 -0.07131606
-0.032176778 -0.07186408 0.059968162 0.0703282 -0.42130712 -0.3909949 0.009083097 -0.0007148571
0.083056346 0.04111751 -0.00116569 0.072391964 0.080000065 0.017948471 -0.35562417 -0.035743542
-0.08934109 0.14819945 -0.042252086 0.11525343 -0.006069211 0.20791256 0.26971978 0.0741267
0.17241514 0.10971549 -0.0022210455 0.48132706 0.0377809 0.17459498 0.067196116 0.066581905
0.16139948 -0.45719957 0.035197057 -0.25798467 0.14525694 0.054571833 -0.121330656 0.072340354
-0.16940175 -0.52309924 0.20647854 0.05750961 0.024311477 0.060372636 0.002647905 -0.098432325
-0.14678518 0.001371174 0.4144277 -0.035208248 0.15708403 -0.01048582 -0.07469981 -0.045654677
0.00892194 0.039072074 -0.042704396 0.057749316 0.22920182 0.11041491 0.03629395 0.10873436
-0.09543544 -0.08129196 0.024571594 -0.15601042 0.10218979 0.376993 0.027607659 -0.12908696
-0.05461736 -0.10507142 -0.10320787 -0.022357639 -0.048185542 -0.010784431 0.090828374 -0.19580708
0.17844257 0.051586434 -0.024779119 0.30878085 -0.05768052 -0.1775129 -0.27517 0.02541101
0.14144525 0.046428442 -0.15324298 -0.5366226 0.07228819 -0.052086584 0.0011177838 0.043502763
0.0052428157 -0.65637964 -0.10105403 -0.1543848 0.18900909 0.09755038 -0.006870233 -0.111792296
0.05639988 -0.39193925 -0.42711443 -0.036209803 0.046191987 -0.053229984 -0.050357565 0.20353243
0.0318912 -0.06345138 0.058337044 0.054107513 -0.15106007 -0.049200956 0.099919036 -0.10893685
00000000: 95d1 183a f3db 1cbd b281 143d ab48 463e
00000010: ed51 d93d 8de9 dbbd 9096 8ebb 07fa b63d
00000020: 07b4 14bd 9d1a c5bd b4b0 513d d572 d83d
00000030: 1bbf 0d3f b95d 603e e296 03bb 03c2 e53c
00000040: 1c3b 973d cb99 b13e 09a5 733d 1aa2 72bd
00000050: db46 493d 20a7 c5bd 608a b63c 6f84 993d
00000060: 048d 01be 8602 de3c 3a82 2e3c 046e 84be
00000070: 42f3 f23c 4acc c43d 87a3 8c3d f515 693d
00000080: 4915 1e3d 572d 93be c21b 7f3e c9b9 603d
00000090: 2f37 b33d 4522 353d 0be3 93bd 7fb8 5d3d
000000a0: 9d33 2e3d c11a 2fbd ebde 143d f262 0a3d
000000b0: 82e5 9dbd 8f5a 5d3a 6f96 6f3d b520 b93c
000000c0: eeb9 6fbd b656 f2bd 5228 3f3d 3645 b23d
000000d0: aad2 5fbd 9550 033e 7f18 553d fa1a fcbd
000000e0: a22f f63c 960e d13d a323 bd3d 299d b9bb
000000f0: 4131 debc 05dd 3c3d ada2 3c3d 5e3c bdbd
00000100: 354a 0d3c 5d53 733c 3fb0 a33c a785 7c3d
00000110: e9b6 e3be 96a6 cd3d cada 26bc a2f9 52bb
00000120: 7c25 b93d 60f0 d93c 0b81 10bd ebd6 15bc
00000130: 942b 97be d119 b7be 033c 06bd ab24 8cbd
00000140: 7bd9 373d 9b74 a8bd 7858 1bbc 34eb 133d
00000150: 08f8 90bc ea0d 89bd dc80 343d 7bd1 39bd
00000160: 3767 a63d a6d3 6abc edb4 b53b 3d1e e0bd
00000170: 8f90 773d 1b28 5c3b 8c7c 193e c816 023e
00000180: f9ab e53c a6c7 f33d 67d9 8dbd 6da5 0bbe
00000190: 0a6e 8e3c 14c8 e83c 6317 00bd ab70 813d
000001a0: d481 ee3c af26 bdbe b5b0 a8bd a9a7 7a3d
000001b0: 7587 4cbd 3da5 793d 0fb8 f7bc 1844 a9bd
000001c0: 1aac 37bd 82bd 20bf 506e c2bd b62d da3c
000001d0: 01a1 643d 5f58 d2bc a504 ae3c 3d36 87bd
000001e0: 436d a0bd fe82 1b3e a30e c33e c114 3fbd
000001f0: 6cdb 2fbd 6631 d4bc f4df a7bb 67e0 0d3d
00000200: 731c 0dbc a2a7 7d3d 895c f4bd 3536 803c
00000210: edaa c0be d923 ccbd 6e66 08be 280e 92bd
00000220: cccb 03bd 7a2d 93bd 2da1 753d 3b08 903d
00000230: 91b5 d7be 7c30 c8be 45d1 143c 3f65 3bba
00000240: 7219 aa3d d66a 283d 11ca 98ba 3d42 943d
00000250: 13d7 a33d ac08 933c 5f14 b6be d267 12bd
00000260: 76f8 b6bd 99c1 173e 8610 2dbd fe09 ec3d
00000270: 3be0 c6bb 08e7 543e b618 8a3e bdcf 973d
00000280: 988d 303e 84b2 e03d f68e 11bb 8070 f63e
00000290: 25c0 1a3d 07c9 323e 1e9e 893d 185c 883d
000002a0: e845 253e 1016 eabe ca2a 103d 9116 84be
000002b0: 3cbe 143e b786 5f3d 357c f8bd 2e27 943d
000002c0: a777 2dbe d5e9 05bf 1c6f 533e 328f 6b3d
000002d0: dd28 c73c 4c49 773d 7988 2d3b e396 c9bd
000002e0: db4e 16be f7b8 b33a de2f d43e 8636 10bd
000002f0: a3da 203e b7cc 2bbc 37fc 98bd 6600 3bbd
00000300: 542d 123c 0a0a 203d ceea 2ebd 8c8a 6c3d
00000310: e2b3 6a3e 3621 e23d f7a8 143d 1fb0 de3d
00000320: a873 c3bd 667c a6bd 5e4a c93c 32c1 1fbe
00000330: e148 d13d 3a05 c13e 7529 e23c 5f2f 04be
00000340: 74b6 5fbd af2f d7bd a65e d3bd 5e27 b7bc
00000350: 345e 45bd 2fb1 30bc 3a04 ba3d a781 48be
00000360: a6b9 363e 4c4c 533d 94fd cabc 8618 9e3e
00000370: 6942 6cbd f1c5 35be 15e3 8cbe c02a d03c
00000380: 06d7 103e c02b 3e3d baeb 1cbe 1960 09bf
00000390: d50b 943d be58 55bd 9a82 923a f42f 323d
000003a0: edcb ab3b 7f08 28bf 6af5 cebd 0d17 1ebe
000003b0: 998b 413e 7ec8 c73d b11f e1bb 5cf3 e4bd
000003c0: 9003 673d 43ac c8be beae dabe bb50 14bd
000003d0: cf33 3d3d af07 5abd bc43 4ebd ce6a 503e
000003e0: 59a0 023d ccf2 81bd d3f2 6e3d d79f 5d3d
000003f0: 7eaf 1abe f186 49bd 5aa2 cc3d 491a dfbd

Tmodel.fe1.FC3.bias f4 [64]
-0.22188427 -0.017114723 -0.10165296 0.06351777 0.7296736 0.018482085 0.0023041647 0.0043699774
-0.19876337 0.02380671 -0.0048450413 -0.026208438 0.048526328 0.081493646 -0.027197503 -0.02888763
0.0359188 -0.14581886 -0.06222009 -0.2919843 0.082284614 -0.037474394 -0.06915449 0.039660554
0.05149795 -0.17016594 0.0010176958 0.24897061 0.051973995 0.06322188 -0.07363271 0.41399437
-0.0703394 0.032880083 -0.24159534 -0.13593732 -0.09998017 -0.3162564 -0.045697257 -0.046456795
-0.070876844 -0.08385431 0.001431474 -0.07573708 -0.67236555 0.0048126173 -0.081538156 0.18607624
-0.023020105 -0.010611751 -0.19408031 -0.13746624 0.08295605 -0.03919293 0.109384984 0.1684288
-0.38764915 0.30819008 0.27329352 -0.11148068 -0.19330467 -0.20165072 0.0029634165 0.04648078
00000000: a135 63be 2d34 8cbc 6d2f d0bd 9b15 823d
00000010: e4cb 3a3f be67 973c 7801 173b 0732 8f3b
00000020: a088 4bbe 4a06 c33c 27c3 9ebb 14b3 d6bc
00000030: 8bc3 463d 24e6 a63d 4ccd debc c0a5 ecbc
00000040: 971f 133d 8a51 15be 7eda 7ebd f77e 95be
00000050: d684 a83d c07e 19bd dfa0 8dbd 1b73 223d
00000060: 84ef 523d fb3f 2ebe 3464 853a 27f2 7e3e
00000070: afe2 543d 797a 813d bfcc 96bd 12f7 d33e
00000080: 1a0e 90bd 44ad 063d c564 77be 2733 0bbe
00000090: 67c2 ccbd 5cec a1be 0c2d 3bbd 7b49 3ebd
000000a0: e127 91bd cfbb abbd 4ca0 bb3a 0b1c 9bbd
000000b0: 2620 2cbf 29b3 9d3b 7afd a6bd c58a 3e3e
000000c0: a994 bcbc e9dc 2dbc fdbc 46be f3c3 0cbe
000000d0: dde4 a93d c488 20bd 3c05 e03d 9978 2c3e
000000e0: f379 c6be 17cb 9d3e 21ed 8b3e fc4f e4bd
000000f0: a9f1 45be 877d 4ebe e135 423b a162 3e3d

Tmodel.fe1.FC4.weight f4 [32, 128]
0.054068923 -0.12331778 -0.2716612 0.085002445 -0.022725258 -0.32612252 -0.09961483 0.056482367
0.20780832 -0.0674092 -0.011680189 -0.1273972 -0.12352439 -0.23048918 -0.04237746 -0.061781093
-0.03598313 0.36122227 0.4075956 0.03517295 -0.23543374 0.4085818 0.17501564 0.074758664
0.081830345 -0.10153254 -0.06844258 0.13195662 0.017735045 -0.12564169 -0.0032523226 -0.02845565
0.5053039 0.027610479 -0.0117041 0.047833003 0.20531742 0.014168042 -0.067525245 0.10917828
0.25067124 0.17929713 0.41960788 0.0040522637 0.06665406 -0.31965277 0.012355291 0.0052809305
-0.13225749 0.124750376 0.39273793 -0.045471832 -0.5444943 -0.014105527 0.02125427 0.045390464
0.041783303 -0.13001741 0.013189504 0.099469855 -0.20138052 -0.09112903 -0.11002907 0.011124041
-0.009687584 0.039477807 0.21501902 -0.012152558 0.0018433844 0.16134919 -0.07861224 -0.062711
-0.095345736 -0.058556195 0.04622484 0.0068483786 0.07155786 0.046713594 -0.06562353 0.2956951
-0.021449447 -0.13093174 -0.061388697 0.04831022 0.1818789 -0.23463559 -0.030108552 -0.06703599
-0.00050844956 0.19475642 0.079348974 -0.3841257 -0.0018489637 0.0750864 0.005512662 0.020285508
-0.19088438 0.05852447 0.06938163 0.007114573 -0.26882878 -0.01744934 0.03476503 0.15140256
-0.079695456 0.048621196 -0.2955437 0.065224364 -0.0472567 0.18018125 -0.13677788 0.08229139
-0.053702492 0.06357416 -0.021299878 -0.005961149 0.046672624 0.17132875 -0.088963434 -0.06625768
0.062774904 0.08375209 -0.044848975 -0.0077747167 0.056463413 0.09590819 -0.035777796 -0.12856698
-0.13207334 -0.11104229 -0.15463258 -0.069708385 0.20170319 0.10661252 0.013984887 0.09379128
-0.11476946 -0.054900173 0.029330501 -0.18608198 0.080777325 -0.022255708 -0.049550492 -0.059740383
0.021368051 -0.14673047 -0.09091491 -0.20239398 0.18688613 -0.14141724 -0.10010725 0.045578826
0.104497954 -0.19268054 0.006019764 0.032018602 0.056843825 0.0033787866 -0.05587932 0.2242468
0.07404973 0.19488752 -0.05024574 0.14192572 -0.03917871 -0.22592948 -0.13165653 0.054736722
-0.014249655 -0.20074017 0.13752662 -0.095721565 -0.25804943 0.043357812 -0.05612874 0.17979728
-0.1287901 0.12675135 -0.16890357 -0.22368248 0.09201932 0.011647038 0.021925729 -0.008078338
-0.22207469 0.14136812 0.20036611 -0.10666083 -0.2297685 -0.24169877 -0.14605592 -0.0060603176
-0.13370863 -0.08358468 -0.050371923 -0.079403825 0.21666919 0.2732241 0.020702155 0.102475196
-0.105608046 -0.049894407 0.07563902 0.01985832 0.011404708 -0.071007855 -0.012794456 -0.029649606
-0.021850053 -0.03750931 -0.13460737 -0.17926125 0.24125583 -0.10794278 -0.041706096 0.023177037
0.202413 -0.12604102 0.020436207 -0.026298855 0.0138737485 0.09678446 -0.0049629775 0.22376832
0.08993091 0.045365144 -0.023449928 0.08804637 0.016798092 -0.18555382 -0.20216951 -0.048621703
-0.19429119 -0.3153238 0.23234618 -0.12855962 -0.28122538 0.02319281 -0.12905127 0.19055134
-0.18372816 0.039246704 -0.23155463 -0.23439126 0.03845115 -0.043866783 -0.013172287 0.00964048
-0.1846292 0.21180919 0.23598641 -0.10063266 -0.2538115 -0.20674643 -0.13474037 0.085971534
00000000: 6077 5d3d 088e fcbd 2d17 8bbe c315 ae3d
00000010: 522a babc 88f9 a6be dc02 ccbd 0e5a 673d
00000020: b4cb 543e d60d 8abd 435e 3fbc 6974 02be
00000030: 5bfa fcbd 5b05 6cbe fd93 2dbd 2c0e 7dbd
00000040: 0c63 13bd 20f2 b83e 5fb0 d03e 8311 103d
00000050: 8b15 71be a231 d13e 4d37 333e 121b 993d
00000060: ab96 a73d 4bf0 cfbd a02b 8cbd a31f 073e
00000070: 1649 913c 37a8 00be eb24 55bb d31b e9bc
00000080: 995b 013f 5f2f e23c 8ec2 3fbc 8aec 433d
00000090: bb3e 523e 1321 683c ad4a 8abd dd98 df3d
000000a0: fb57 803e ab99 373e d8d6 d63e dac8 843b
000000b0: ec81 883d 87a9 a3be d96d 4a3c a80b ad3b
000000c0: 826e 07be 207d ff3d f214 c93e ac40 3abd
000000d0: fa63 0bbf de1a 67bc 6f1d ae3c 5aeb 393d
000000e0: f824 2b3d 4923 05be ca18 583c dab6 cb3d
000000f0: b236 4ebe dba1 babd ec56 e1bd 9c41 363c
00000100: acb8 1ebc 7bb3 213d f22d 5c3e 861b 47bc
00000110: b79d f13a b938 253e 74ff a0bd a06e 80bd
00000120: a044 c3bd 9fd8 6fbd 4256 3d3d 5d68 e03b
00000130: ed8c 923d c156 3f3d a165 86bd 5965 973e
00000140: c0b6 afbc f812 06be b772 7bbd f0e0 453d
00000150: 763e 3a3e 5044 70be 36a6 f6bc 2a4a 89bd
00000160: 7949 05ba 3a6e 473e b781 a23d 20ac c4be
00000170: ed58 f2ba e6c6 993d 90a3 b43b cb2d a63c
00000180: 3277 43be 5bb7 6f3d f517 8e3d 5d21 e93b
00000190: eda3 89be ebf1 8ebc c765 0e3d 4609 1b3e
000001a0: 5f37 a3bd 0527 473d 8151 97be 5a94 853d
000001b0: 3e90 41bd 6f81 383e 800f 0cbe 6388 a83d
000001c0: 25f7 5bbd 2b33 823d 157d aebc be55 c3bb
000001d0: cb2b 3f3d ce70 2f3e 7632 b6bd 1bb2 87bd
000001e0: 2190 803d 3786 ab3d 8fb3 37bd 0dc3 febb
000001f0: 2e46 673d 836b c43d bd8b 12bd 10a7 03be
00000200: 3c3e 07be 246a e3bd 0158 1ebe 45c3 8ebd
00000210: 488b 4e3e aa57 da3d de20 653c a515 c03d
00000220: 400c ebbd 01df 60bd 8546 f03c 468c 3ebe
00000230: 956e a53d 9a51 b6bc 75f5 4abd 55b2 74bd
00000240: 0d0c af3c 8340 16be 9931 babd 5e40 4fbe
00000250: 145f 3f3e aecf 10be 0805 cdbd ddb0 3a3d
00000260: 0603 d63d 0c4e 45be 7141 c53b f025 033d
00000270: 12d5 683d a26e 5d3b b7e1 64bd f4a0 653e
00000280: 63a7 973d 9890 473e 7ace 4dbd fa54 113e
00000290: db79 20bd 0f5a 67be f8d0 06be 9d33 603d
000002a0: 6377 69bc d58e 4dbe c7d3 0c3e ab09 c4bd
000002b0: 0e1f 84be f697 313d 40e7 65bd c71c 383e
000002c0: 8de1 03be 1bcb 013e 0ff5 2cbe 050d 65be
000002d0: a074 bc3d 38d3 3e3c 969d b33c 015b 04bc
000002e0: 8c67 63be cec2 103e c62c 4d3e fe70 dabd
000002f0: 6f48 6bbe e27f 77be af8f 15be a195 c6bb
00000300: eaea 08be 722e abbd ca52 4ebd 799e a2bd
00000310: 87de 5d3e 07e4 8b3e 9197 a93c 84de d13d
00000320: 0849 d8bd 145e 4cbd a1e8 9a3d eaad a23c
00000330: d0da 3a3c 916c 91bd d79f 51bc bbe3 f2bc
00000340: e2fe b2bc 5da3 19bd 84d6 09be 4390 37be
00000350: c50b 773e 1b11 ddbd 03d4 2abd c5dd bd3c
00000360: 5a45 4f3e e610 01be d569 a73c b270 d7bc
00000370: b84e 633c ee36 c63d 79a0 a2bb 8623 653e
00000380: b22d b83d cdd0 393d 101a c0bc a851 b43d
00000390: 279c 893c d201 3ebe 8605 4fbe 8d27 47bd
000003a0: 45f4 46be 1f72 a1be 28ec 6d3e 22a5 03be
000003b0: c6fc 8fbe d9fe bd3c 0426 04be e41f 433e
000003c0: 3c23 3cbe 27c1 203d a81c 6dbe 4304 70be
000003d0: f47e 1d3d a8ad 33bd 93d0 57bc 1bf3 1d3c
000003e0: 700f 3dbe 82e4 583e 6ca6 713e 7f18 cebd
000003f0: 95f3 81be 56b5 53be 61f9 09be d811 b03d

Tmodel.fe1.FC4.bias f4 [32]
-0.0312503 0.33743718 0.099355906 -0.034278292 -0.070763685 0.16038914 0.04155629 -0.17274305
0.21868405 0.22700058 -0.015918195 0.17630303 0.24455658 -0.008353859 0.037207246 0.044744987
-0.050238743 0.0035471336 0.0017022814 -0.69768745 0.07016888 -0.07357404 0.060048547 -0.08006663
-0.049544696 -0.012862138 -0.040212702 -0.05488218 0.18617485 0.43517318 -0.81771547 0.23317194
00000000: 5100 00bd 91c4 ac3e 1c7b cb3d 6567 0cbd
00000010: 8dec 90bd 0d3d 243e ee36 2a3d 8ee3 30be
00000020: b6ee 5f3e d772 683e e066 82bc c888 343e
00000030: 0a6d 7a3e a0de 08bc a066 183d 8546 373d
00000040: 24c7 4dbd 0777 683b 161f df3a a59b 32bf
00000050: b4b4 8f3d fcad 96bd 77f5 753d f9f9 a3bd
00000060: 61ef 4abd b8bb 52bc 13b6 24bd 23cc 60bd
00000070: 9fa4 3e3e 05cf de3e cd55 51bf a0c4 6e3e

Tmodel.norm1.weight f4 [32]
0.19973598 0.07798062 0.3857241 0.4103317 1.0658581 0.13312589 0.39971644 0.23217739
0.30490705 0.21301089 1.1313993 0.09392185 0.17358842 0.36989376 0.30930725 0.3079377
0.15037745 0.20990416 0.23540142 0.3907669 0.4229395 0.8998414 0.30375317 0.44724613
0.18607748 0.8042585 0.39478448 0.19661237 0.22369695 0.030804956 0.18023613 0.24270442
00000000: 9787 4c3e 4eb4 9f3d a17d c53e ff16 d23e
00000010: 0a6e 883f 2752 083e a2a7 cc3e e9bf 6d3e
00000020: c71c 9c3e 871f 5a3e b1d1 903f 195a c03d
00000030: 2ac1 313e b762 bd3e 855d 9e3e 03aa 9d3e
00000040: 8cfc 193e 1ef1 563e 120d 713e 9912 c83e
00000050: 878b d83e 025c 663f 8985 9b3e 72fd e43e
00000060: 188b 3e3e e3e3 4d3f 3121 ca3e c154 493e
00000070: d010 653e ad5a fc3c d28f 383e 8287 783e

Tmodel.norm1.bias f4 [32]
-0.020715449 -0.13914032 -0.009975995 0.01291588 -0.061754003 -0.01973686 -0.00025699515 0.1341495
0.076025166 0.012279862 0.031707514 -0.021356232 0.083214685 -0.03315755 0.0051214956 -0.065063424
-0.01729225 -0.045222275 -0.06324197 0.776581 0.019141769 -0.04539901 0.013511944 -0.0445373
-0.021920389 -0.0797221 0.026592 -0.01542465 -0.020263894 -0.065365784 0.5191984 0.2068007
00000000: 72b3 a9bc cd7a 0ebe 5b72 23bc 219d 533c
00000010: c4f1 7cbd 32af a1bc 4ebd 86b9 7d5e 093e
00000020: 15b3 9b3d 7931 493c bddf 013d 44f3 aebc
00000030: 766c aa3d 36d0 07bd 38d2 a73b f93f 85bd
00000040: 7aa8 8dbc fe3a 39bd 0285 81bd 03ce 463f
00000050: 33cf 9c3c 50f4 39bd 3361 5d3c be6c 36bd
00000060: 6392 b3bc 5745 a3bd 77d7 d93c acb7 7cbc
00000070: 7700 a6bc 7fde 85bd 30ea 043f 90c3 533e

Tmodel.out1.weight f4 [32, 32]
-0.0008468801 0.0198577 -0.14133824 0.036302317 -0.5521808 -0.035797447 0.009958501 -0.014170053
-0.039027974 -0.041522413 -0.1693047 -0.02486339 -0.0058667567 -0.111428574 -0.019496007 -0.03277989
0.0050433697 0.0040853205 -0.018287528 -0.19361925 -0.06185931 -0.55627 -0.007680335 -0.30188373
0.018904014 0.06421012 -0.04515056 -0.017675888 -0.03249162 0.07920033 0.017790254 0.007905393
0.0005508268 -0.21374553 -0.091197476 0.02478546 0.04441089 -0.006229638 0.17578037 0.24079153
-0.22241262 -0.41772836 -0.22872956 -0.54110116 -0.19449297 -0.08323466 -0.10880946 -0.24681892
0.045044176 -0.16959573 0.015016467 0.7092071 -0.027053844 -0.04981393 -0.1313843 -0.28136575
-0.17026046 -0.15508924 0.016639195 0.032592516 -0.5150659 -0.00048335592 0.3352515 -0.16642144
-0.0010317496 -0.0059300456 0.018530505 -0.0021024789 -0.05604295 -0.0005256571 -0.01152899 0.013590904
-0.009559837 -0.0111134155 -0.011562496 -0.021049205 -0.0040002572 0.0014041151 -0.0011404096 -0.0023803224
-0.007155145 0.004063258 -0.005188882 -0.04140204 -0.0030057696 0.003757955 -0.0060936953 -0.009519634
-0.0034571143 -0.003039399 -0.010616614 0.00043009158 -0.00653028 -0.0040297536 0.0095473975 -0.0015892257
0.004610248 0.0005087717 -0.04099006 -0.0061702016 -0.011778031 -0.023914672 -0.005074194 -0.015180921
-0.0037729135 -0.021286312 -0.031052295 -0.009742315 -0.0059339413 -0.024057973 0.00096433226 -0.022350386
-0.0023022573 -0.024700452 -0.0018810033 -0.04653237 -0.015342509 -0.019463418 0.0028096074 -0.033013973
0.0041461587 -0.025452461 -0.01031078 -0.0027129655 -0.017100118 -0.04075952 -0.010278696 -0.013953551
0.071166925 0.40596294 0.11849231 0.2294804 0.10521248 -0.24891372 -0.18359515 0.42093596
-0.20186317 -0.43240285 0.09943822 -0.07242919 -0.31454957 0.18497877 -0.33702275 -0.008971463
0.293762 -0.8965539 -0.0950222 0.5119441 -0.03313892 -0.61315036 -0.3114958 0.11957989
-0.48925713 -0.16950049 -1.3222736 -0.2568691 -0.48452276 -0.26984984 0.872442 -0.2312706
-0.0762706 -0.019950096 0.22784781 0.16026574 0.102912545 0.06943946 0.06567087 -1.2728051
0.109883375 -0.061190054 0.23674542 -0.089388564 0.02678332 0.058584597 -2.8642 -0.0028959191
0.04147616 -0.07272356 -0.014671524 -1.1515919 -0.016322237 0.13683854 -0.13224603 -0.105674595
0.07653627 -0.078881115 -0.16750965 0.077774666 -0.12530948 0.015197132 -0.42183778 -0.051682346
-0.009441194 -0.0016222319 0.043244604 -0.016951047 0.004221958 -0.030002812 -0.038248204 0.04861492
-0.06057447 0.019820211 -0.05115385 -0.038476825 0.040983077 -0.06519791 -0.03977778 0.0258178
0.04113907 -0.045398742 -0.0051855403 0.03545217 -0.042168844 0.0145377545 -0.00880427 -0.025745524
-0.0031634585 -0.055337958 0.03455751 -0.035837244 -0.02157749 -0.023266088 -0.02472054 -0.0007277119
-0.09342325 -0.022156531 -0.00078298367 0.100346476 -0.21889845 -0.005237391 0.26605737 0.011411785
0.12224471 -0.06688502 0.18128385 -0.06465209 0.038677696 -0.77215517 -0.0016363534 0.0051001385
-0.0021920684 0.14373296 -0.004774732 0.3539639 -0.021621028 0.009207993 -0.014305455 -0.7632146
-0.1527762 0.13540421 -0.10600278 0.09483306 -0.24866495 -0.019799333 -0.04049566 -0.034499045
00000000: 2901 5eba 9eac a23c f9ba 10be bdb1 143d
00000010: b95b 0dbf 58a0 12bd fb28 233c 8329 68bc
00000020: ccdb 1fbd 6813 2abd 365e 2dbe 4fae cbbc
00000030: ec3d c0bb aa34 e4bd 17b6 9fbc 3544 06bd
00000040: da42 a53b 27de 853b bacf 95bc 2044 46be
00000050: 3060 7dbd b667 0ebf 52ab fbbb 8190 9abe
00000060: 97dc 9a3c 9880 833d cbef 38bd 06cd 90bc
00000070: ef15 05bd c833 a23d debc 913c 9f85 013c
00000080: 5c65 103a 1ce0 5abe bec5 babd e10a cb3c
00000090: 32e8 353d fe21 ccbb c5ff 333e 0e92 763e
000000a0: 22c0 63be 7ee0 d5be 1538 6abe 9b85 0abf
000000b0: 2a29 47be ef76 aabd 7fd7 debd 19be 7cbe
000000c0: 3e80 383d 81aa 2dbe a107 763c 998e 353f
000000d0: 06a0 ddbc b109 4cbd 9b89 06be 2c0f 90be
000000e0: c258 2ebe b7cf 1ebe ec4e 883c bb7f 053d
000000f0: 5cdb 03bf ef6a fdb9 16a6 ab3e 626a 2abe
00000100: c63b 87ba d450 c2bb 49cd 973c bec9 09bb
00000110: 4b8d 65bd 40cc 09ba 17e4 3cbc 62ac 5e3c
00000120: dda0 1cbc 0b15 36bc a070 3dbc 626f acbc
00000130: 9714 83bb 490a b83a cc79 95ba 2fff 1bbb
00000140: b575 eabb 1425 853b 7f07 aabb 2f95 29bd
00000150: 72fc 44bb 0648 763b 9fad c7bb 3df8 1bbc
00000160: c190 62bb a730 47bb 4ef1 2dbc ea7d e139
00000170: f6fb d5bb 060c 84bb b06c 1c3c 914d d0ba
00000180: 9011 973b 175f 053a 31e5 27bd 672f cabb
00000190: a4f8 40bc b4e8 c3bc 6d45 a6bb 66b9 78bc
000001a0: fc42 77bb a260 aebc 6261 febc 3b9e 1fbc
000001b0: 8271 c2bb 3a15 c5bc 3ecb 7c3a 2818 b7bc
000001c0: 78e1 16bb 9a58 cabc ff8b f6ba ba98 3ebd
000001d0: 265f 7bbc bf71 9fbc 6421 383b a939 07bd
000001e0: 80dc 873b ae81 d0bc 8cee 28bc 02cc 31bb
000001f0: 8c15 8cbc 74f3 26bd fa67 28bc 6f9d 64bc
00000200: f7bf 913d 60da cf3e 19ac f23d e9fc 6a3e
00000210: a479 d73d 3de3 7ebe 5e00 3cbe eb84 d73e
00000220: 38b5 4ebe e863 ddbe 44a6 cb3d c155 94bd
00000230: a40c a1be 136b 3d3e 3f8e acbe 0bfd 12bc
00000240: f967 963e 8e84 65bf 009b c2bd c50e 033f
00000250: adbc 07bd 6cf7 1cbf 617c 9fbe 4de6 f43d
00000260: e97f fabe 8991 2dbe 4340 a9bf 5984 83be
00000270: 5e13 f8be c229 8abe 5c58 5f3f 33d2 6cbe
00000280: c333 9cbd 626e a3bc f050 693e b41c 243e
00000290: d0c3 d23d 4736 8e3d 737e 863d 47eb a2bf
000002a0: 890a e13d 6ca2 7abd 646d 723e 5a11 b7bd
000002b0: b168 db3c 67f6 6f3d 0e4f 37c0 76c9 3dbb
000002c0: e8e2 293d 17f0 94bd d560 70bc 5d67 93bf
000002d0: 36b6 85bc 671f 0c3e 816b 07be ec6b d8bd
000002e0: 0cbf 9c3d 6c8c a1bd a687 2bbe 5348 9f3d
000002f0: 2151 00be 64fd 783c 1ffb d7be deb0 53bd
00000300: 3daf 1abc 12a1 d4ba 4121 313d ecdc 8abc
00000310: 5a58 8a3b 75c8 f5bc 26aa 1cbd 7020 473d
00000320: ef1c 78bd ff5d a23c b386 51bd e099 1dbd
00000330: dfdd 273d 7b86 85bd 07ee 22bd da7f d33c
00000340: 7181 283d 08f4 39bd 77eb a9bb 4b36 113d
00000350: 3db9 2cbd c32f 6e3c c93f 10bc 47e8 d2bc
00000360: 0752 4fbb 0eaa 62bd 2d8c 0d3d 13ca 12bd
00000370: 47c3 b0bc 8698 bebc bb82 cabc ebc3 3eba
00000380: b054 bfbd 9d81 b5bc 2541 4dba 7482 cd3d
00000390: ea26 60be 6c9e abbb ac38 883e 7ff8 3a3c
000003a0: 6f5b fa3d 03fb 88bd 79a2 393e 5168 84bd
000003b0: 816c 1e3d f6ab 45bf e97a d6ba 101f a73b
000003c0: cea8 0fbb bc2e 133e 5b75 9cbb c23a b53e
000003d0: 951e b1bc 1fdd 163c 6d61 6abc 0862 43bf
000003e0: 5d71 1cbe 67a7 0a3e fc17 d9bd d637 c23d
000003f0: 06a2 7ebe 3632 a2bc c7de 25bd df4e 0dbd

Tmodel.out1.bias f4 [32]
-0.025819497 -0.10046271 -0.03321412 -0.05291212 -0.0734153 -0.0021304847 -0.06365015 -0.025440697
0.0103550395 -0.016846849 0.009028223 0.61391175 -0.04088916 -0.010636217 0.6685975 -0.06425205
-0.06499281 -0.12741056 0.07634308 0.044098828 -0.033444125 -0.079703555 -0.072706155 -0.07373035
-0.007129752 -0.024540927 -0.09379692 -0.023535727 -0.10653266 -0.08276108 -0.009692364 -0.011755138
00000000: 6983 d3bc 65bf cdbd 870b 08bd 61ba 58bd
00000010: c35a 96bd 9a9f 0bbb 035b 82bd 0269 d0bc
00000020: 2fa8 293c 6702 8abc 1deb 133c 5229 1d3f
00000030: 647b 27bd 8743 2ebc 3529 2b3f 9496 83bd
00000040: f31a 85bd ea77 02be c359 9c3d f9a0 343d
00000050: b5fc 08bd 9e3b a3bd f7e6 94bd f0ff 96bd
00000060: b2a0 e9bb 0e0a c9bc 9918 c0bd ffcd c0bc
00000070: cc2d dabd a47e a9bd b9cc 1ebc 9f98 40bc

Tmodel.out2.weight f4 [1, 32]
0.00095044327 0.62406653 0.010150795 0.020435216 0.2510386 0.1945734 -0.0026148455 -0.12226871
0.5231401 -0.0017531423 -0.22595488 -0.07098831 -0.21635018 0.012570609 -0.025625482 -0.033907466
0.008189572 0.12683073 0.17321436 -0.76826584 0.001573157 -0.017613681 -0.009860574 -0.015594047
0.122887015 -4.5437155e-05 -0.6465466 0.00041820272 0.24035867 -0.3895653 -0.3523483 -0.00062641397
00000000: 2b27 793a d3c2 1f3f 854f 263c c167 a73c
00000010: 2288 803e 403e 473e d45d 2bbb 0468 fabd
00000020: 82ec 053f b2c9 e5ba b760 67be 5262 91bd
00000030: e78a 5dbe f5f4 4d3c 88ec d1bc 8ee2 0abd
00000040: 8e2d 063c eadf 013e 1b5f 313e 12ad 44bf
00000050: 6432 ce3a 914a 90bc 3f8e 21bc 2c7e 7fbc
00000060: 30ac fb3d c693 3eb8 1484 25bf 3842 db39
00000070: 9520 763e 1a75 c7be ff66 b4be ee35 24ba

Rmodel1.fe1.FC1.weight f4 [64, 8]
0.075355925 -3.6839036e-05 0.009489551 0.030758463 -0.009832837 0.0016956253 0.07223265 -0.006274997
0.13094382 0.005306923 -0.095800236 -0.09332744 -0.059548985 0.057900265 -0.10099853 0.09483689
0.006241402 0.07000182 0.024731908 -0.033368006 0.014226799 0.038528737 0.00020978591 0.07199879
0.08441451 0.0059312405 -0.06436484 -0.059523493 -0.024356058 0.015107344 -0.004519129 0.007830367
-0.14565012 0.0054007834 -0.10133479 -0.10228687 -0.067062706 0.062168017 -0.046831038 0.0355101
0.24876544 0.0032410559 -0.17376216 -0.16098425 -0.118225954 0.11454388 -0.094996065 0.053028252
-0.18145137 -0.015468263 0.14638786 0.088249795 0.0048250677 0.022737123 -0.017660122 -0.0056671607
0.01831887 0.0018871414 -0.0007770269 0.004012271 0.025698956 -0.01405406 -0.1183102 0.06811068
0.2480861 0.012677205 -0.14615478 -0.13934772 -0.1012307 0.078879476 -0.06169776 0.04826533
0.041193448 -0.0013551981 -0.02238872 -0.046578974 -0.04305964 -0.020595316 0.016779346 5.8356633e-05
-0.022126012 0.11483894 0.06913613 -0.027692726 0.035787854 -0.006725152 0.013549205 -0.017609483
-0.2514897 0.009840159 0.12476452 0.07895931 0.09594071 -0.095698826 0.082178846 -0.08588806
0.22101055 0.012370606 -0.15962358 -0.15895817 -0.122093216 0.10396793 -0.08153701 0.065760754
0.22908758 0.0046311 -0.037725803 -0.030862983 -0.019554539 0.01355837 -0.008381561 0.005100682
0.032538176 0.0026674327 -0.04581189 0.022319388 0.115445174 0.0016522494 -0.033308364 0.007243553
0.22437097 0.014938313 -0.15607524 -0.14615634 -0.10216012 0.08259692 -0.06434624 0.04635301
0.19400528 0.020890275 -0.13387236 -0.12420853 -0.099459976 0.07516678 -0.056372743 0.062286537
0.1658734 -0.005860008 0.08218206 0.06108297 0.020684058 -0.026612889 0.015271686 -0.0122328345
0.031176146 0.012232913 -0.049676947 0.006204692 0.006284422 0.006755528 0.013341924 0.0065770918
0.27689028 0.040551048 -0.15968718 -0.16958132 -0.09538189 0.0863713 -0.04627826 0.041815817
-0.024019083 -0.0013252706 0.017157955 0.01988808 0.022535076 -0.0135087045 -0.049842108 0.04136149
-0.15320396 0.0077692308 -0.12083845 -0.10967737 -0.058680646 0.056162443 -0.03944181 0.03261227
-0.012091823 -0.021807639 0.10764051 -0.058524568 -0.08234088 0.023047242 -0.038601413 0.0059913774
0.16186503 -0.0072397813 -0.11819786 -0.1211618 -0.09346804 0.07688973 -0.05490847 0.034530282
-0.002376164 -0.004859688 -0.1729907 -0.06410521 0.014517387 0.0125204595 0.0058957636 -0.0037343137
-0.012033897 -0.004218742 0.010725106 -0.18048733 -0.06806099 -0.00047537222 -0.013610208 0.002533625
0.2695797 0.040460832 -0.2157966 -0.19938049 -0.1137585 0.07894278 -0.07063658 0.034954693
-0.006135824 0.0222686 0.009510902 0.011304999 -0.0115768 -0.035032544 -0.051706877 -0.042241693
0.014270348 0.0064034224 -0.0037525848 -0.016843073 -0.023082905 -0.11884804 0.04403392 0.018649852
0.24207602 0.014422186 -0.08010472 -0.14131345 -0.11794019 0.08928996 -0.07601389 0.045110755
-0.0061531523 0.00046381494 0.0027615144 -0.005534967 0.0057507716 0.032410514 -0.008839426 -0.13056429
0.01881499 -0.1079176 -0.06568445 0.036049783 -0.04115712 0.009019139 -0.007617989 0.04189366
00000000: 3554 9a3d 9d83 1ab8 107a 1b3c 2cf9 fb3c
00000010: e819 21bc be3f de3a b6ee 933d 7d9e cdbb
00000020: 2316 063e b2e5 ad3b ea32 c4bd 7522 bfbd
00000030: a3e9 73bd d428 6d3d 51d8 cebd d839 c23d
00000040: ad84 cc3b 1d5d 8f3d 929a ca3c e4ac 08bd
00000050: 8517 693c 4fd0 1d3d faf9 5b39 1a74 933d
00000060: 84e1 ac3d da5a c23b b7d1 83bd e8ce 73bd
00000070: 5b86 c7bc cb84 773c 3415 94bb f14a 003c
00000080: 4e25 15be 0ef9 b03b 9d88 cfbd c77b d1bd
00000090: 2c58 89bd e4a3 7e3d e7d1 3fbd 0a73 113d
000000a0: 5ebc 7e3e e567 543b b5ee 31be 0ed9 24be
000000b0: 7320 f2bd fb95 ea3d 4c8d c2bd 2734 593d
000000c0: 63ce 39be 996e 7dbc b3e6 153e 4fbc b43d
000000d0: 9a1b 9e3b 3443 ba3c f6ab 90bc 97b3 b9bb
000000e0: 7411 963c f559 f73a 64b1 4bba 5e79 833b
000000f0: 9e86 d23c 0043 66bc 9e4c f2bd 9d7d 8b3d
00000100: 480a 7e3e 0db4 4f3c 99a9 15be 2bb1 0ebe
00000110: 0b52 cfbd 908b a13d cab6 7cbd deb1 453d
00000120: 76ba 283d e7a0 b1ba 8d68 b7bc 98c9 3ebd
00000130: 4e5f 30bd 82b7 a8bc d774 893c f5c3 7438
00000140: 9c41 b5bc ae30 eb3d 3e97 8d3d dbdb e2bc
00000150: 4996 123d aa5e dcbb 7cfd 5d3c c341 90bc
00000160: 42c3 80be 9e38 213c 8a84 ff3d 6bb5 a13d
00000170: 907c c43d bffd c3bd 624d a83d 14e6 afbd
00000180: 9750 623e 15ae 4a3c 5d74 23be eec5 22be
00000190: 020c fabd 23ed d43d e0fc a6bd 93ad 863d
000001a0: ef95 6a3e 7cc0 973b 5f86 1abd 5ed4 fcbc
000001b0: d730 a0bc ed23 5e3c d152 09bc 9f23 a73b
000001c0: c046 053d 18d0 2e3b 40a5 3bbd 26d7 b63c
000001d0: 856e ec3d 4a90 d83a 5a6e 08bd 545b ed3b
000001e0: 81c1 653e d3bf 743c 30d2 1fbe 02aa 15be
000001f0: 5339 d1bd 9328 a93d f6c7 83bd a7dc 3d3d
00000200: 52a9 463e 1522 ab3c d615 09be 0b61 febd
00000210: acb1 cbbd 0af1 993d 1be7 66bd 2b20 7f3d
00000220: b7da 293e 4f05 c0bb 114f a83d 2332 7a3d
00000230: 9d71 a93c 4603 dabc 1836 7a3c 3a6c 48bc
00000240: 1e65 ff3c 8e6c 483c 0e7a 4bbd bb50 cb3b
00000250: 8ded cd3b 7a5d dd3b 1698 5a3c a584 d73b
00000260: 90c4 8d3e db18 263d 0985 23be baa6 2dbe
00000270: 9557 c3bd 70e3 b03d 468e 3dbd 1047 2b3d
00000280: abc3 c4bc b4b4 adba d78e 8c3c 54ec a23c
00000290: 7b9b b83c 9d53 5dbc 3d27 4cbd aa6a 293d
000002a0: 80e1 1cbe 0895 fe3b 267a f7bd 879e e0bd
000002b0: 1e5b 70bd 970a 663d bc8d 21bd 7294 053d
000002c0: c81c 46bc efa5 b2bc a172 dc3d 75b7 6fbd
000002d0: 56a2 a8bd 92cd bc3c 841c 1ebd 5153 c43b
000002e0: f2bf 253e b03b edbb b811 f2bd ae23 f8bd
000002f0: 2c6c bfbd 5d78 9d3d b4e7 60bd a06f 0d3d
00000300: 6bb9 1bbb 053e 9fbb 7924 31be 9849 83bd
00000310: 56da 6d3c 9d22 4d3c 4031 c13b 63bb 74bb
00000320: d329 45bc 5f3d 8abb 5bb8 2f3c acd1 38be
00000330: 8f63 8bbd 613b f9b9 5afd 5ebc 2d0b 263b
00000340: 5a06 8a3e 42ba 253d c9f9 5cbe 662a 4cbe
00000350: 37fa e8bd c1ac a13d e9a9 90bd a72c 0f3d
00000360: 060f c9bb a46c b63c 9dd3 1b3c 9a38 393c
00000370: 9eac 3dbc 497e 0fbd 97ca 53bd a005 2dbd
00000380: 2dce 693c cdd3 d13b eded 75bb 7cfa 89bc
00000390: 5c18 bdbc 9a66 f3bd e95c 343d 93c7 983c
000003a0: c7e2 773e 084b 6c3c f20d a4bd 79b4 10be
000003b0: a08a f1bd a8dd b63d 2cad 9bbd 0ec6 383d
000003c0: 62a0 c9bb 302c f339 86fa 343b ab5e b5bb
000003d0: f870 bc3b e3c0 043d 3dd3 10bc a5b2 05be
000003e0: e521 9a3c e703 ddbd 9285 86bd f0a8 133d
000003f0: 5e94 28bd 03c5 133c 53a0 f9bb b098 2b3d

Rmodel1.fe1.FC1.bias f4 [64]
-0.18858132 -0.36766416 -0.20403157 0.23480259 -0.13007787 0.000355536 0.0005352073 -0.06455716
-0.15968095 0.12922958 -0.08254953 -0.0005481485 -0.21014062 0.2402041 -0.08167729 -0.24447656
-0.0009524257 -0.43756652 0.1591925 0.06609308 0.15297522 -0.29512537 -0.092534885 0.093466006
0.02972817 -0.045706674 0.00065941014 -0.06943158 -0.06280887 -0.00022641706 -0.085614346 -0.25267792
-0.46035182 -0.3023455 -0.09392633 0.038489666 0.13811967 -0.0212352 0.08422076 -0.00043611505
-0.22790396 -0.19455266 -0.14689453 -0.15430263 -0.3439971 -0.20105627 -0.0004668314 -0.17668915
0.0003626084 0.00039502245 -0.001098986 -0.11875095 -0.25329092 -0.3689346 -0.08377584 0.0010472434
-0.45027667 -0.37571865 -0.049168646 -0.06900408 -0.20728795 0.0010767917 -0.0007556064 0.1671896
00000000: 761b 41be 7a3e bcbe a7ed 50be 1770 703e
00000010: 2233 05be 3c67 ba39 274d 0c3a 8b36 84bd
00000020: 6783 23be c254 043e ba0f a9bd a0b1 0fba
00000030: 1a2f 57be 10f8 753e 6c46 a7bd 1058 7abe
00000040: 35ac 79ba b808 e0be 5c03 233e cf5b 873d
00000050: 89a5 1c3e ac1a 97be ee82 bdbd 1b6b bf3d
00000060: 7e88 f33c ec36 3bbd 44dc 2c3a 2532 8ebd
00000070: f0a1 80bd 5e6a 6db9 9356 afbd 005f 81be
00000080: 3cb3 ebbe 08cd 9abe 735c c0bd 57a7 1d3d
00000090: 3e6f 0d3e 71f5 adbc ef7b ac3d 5fa6 e4b9
000000a0: a85f 69be d038 47be 856b 16be 8201 1ebe
000000b0: 6320 b0be b2e1 4dbe 0dc1 f4b9 00ee 34be
000000c0: 7a1c be39 041b cf39 da0b 90ba b333 f3bd
000000d0: 59af 81be ffe4 bcbe ab92 abbd a843 893a
000000e0: aa8a e6be 325e c0be 1065 49bd 0352 8dbd
000000f0: 4b43 54be 2223 8d3a e313 46ba c033 2b3e
