GBCF_deepcode/weights/deepcode_bc_noisy_snr3_fb15.pt (torch, 607704 bytes, 44 tensors)

enc_gru1.weight_ih_l0 f4 [150, 8]
-0.5236695 -0.20226045 0.27287808 0.020635169 -0.10346871 0.27668813 -0.11525052 -0.10474523
-0.67194813 -0.5847385 0.1121713 0.0973438 0.112862095 0.098244816 -0.0104960045 -0.023357322
-0.8927555 -0.62878525 -0.5178307 -0.47212234 -0.18934067 0.04909699 -0.4947375 -0.1122415
-0.06591348 -0.18107747 -0.1253342 0.042665005 -0.0988508 0.37682346 0.07996506 -0.18572053
0.76407385 -0.37468404 1.8179412 -0.073472045 -4.4093704 0.22821997 -0.14823216 -0.060013797
-0.42408457 -0.9540547 0.3510582 0.6416784 -0.6067087 0.043466713 -0.07053326 0.17282508
-0.088289246 0.8555419 -1.0677472 -0.8484998 -0.61294323 1.691963 -0.34203434 -0.9255458
-0.42282394 0.11241925 0.11184447 -0.05840754 0.087050125 0.008885629 -0.032615606 -0.007385767
-0.6506638 -1.4407583 -0.4134845 0.59315485 -0.46470532 -0.25102898 0.14658624 0.21795698
-0.8487801 -0.43211585 0.018942192 0.25935844 0.13656361 -0.1297427 0.009731117 -0.14605951
-0.42261958 -0.12331792 -0.38843295 -0.3788492 0.07861686 0.307514 0.16499056 0.019674817
4.0054674 0.7106818 -1.4461043 -0.26909095 0.4749114 4.4810777 -0.107401565 0.005633662
-0.42916548 -0.43029916 -0.14742368 0.0981418 -0.10871307 0.3591101 -0.17003603 -0.080783136
-0.43476188 -0.390157 0.3350973 -0.0666979 0.34112665 -0.024639588 0.034508783 -0.11118912
-0.05534086 -0.14720988 -0.041415494 -0.21013552 0.257801 -0.0030232328 -0.04332851 -0.046694446
-0.5528262 -0.63592386 0.21256937 0.21136698 0.05867496 0.39884958 -0.16237915 -0.27507952
0.12922859 0.096870646 -0.07967985 -0.020826844 0.02713713 0.10774272 0.14400543 0.106728114
-0.4787284 0.91141814 -3.9724889 -0.55166805 0.5527142 3.8236063 -0.086615674 0.030014103
-0.20951185 -0.17448519 -0.027277965 0.15068318 -0.30885363 -0.27112666 -0.010414808 0.16718191
-0.48278433 -0.9111654 -0.62423354 -0.74400795 -0.7623269 -1.142484 0.07949802 0.56245077
-0.17388621 -0.051959425 0.13502634 -0.118685775 0.003144803 0.41183874 0.0044463067 -0.16222875
-0.10013596 -0.067031264 -3.0748155 -0.9643839 -3.8167276 -0.4528304 0.5431141 -0.008457487
-0.6677124 -0.39116108 0.4914106 -0.14892535 -0.1435454 -0.18731451 0.07690104 0.0061180997
-0.30199578 -0.64274174 1.0664732 0.7488925 0.3101913 1.2946926 -0.032523204 -0.55860364
-1.4608258 -5.196492 -1.4678386 0.05171678 1.1295327 0.5836298 0.17606618 -0.16600323
-0.2925126 -0.49652803 -0.08694546 -1.026158 -0.34609464 0.08104009 0.26967192 0.32377806
-1.3123901 -1.6656325 -3.0129588 -0.34825617 0.3397139 0.7236829 0.020321792 0.115143016
1.3982772 2.4533186 -1.2511784 0.15995862 0.3564076 0.72824824 -0.030900279 -0.096482985
-0.71478 -0.9082507 0.16806836 -0.031832855 -0.040038384 0.22855678 -0.1592489 0.044700652
0.62352276 0.8004422 0.5979592 -0.38807982 0.14985053 0.41868117 0.22183716 0.66662383
-0.623067 1.338997 -3.3194497 -0.36488557 0.25607157 4.3380218 0.10708228 -0.03869656
0.030569702 0.023242863 0.17283283 -0.07470356 -0.047311064 0.14493291 0.05105845 -0.15361522
00000000: 340f 06bf 5d1d 4fbe adb6 8b3e 160b a93c
00000010: 67e7 d3bd 11aa 8d3e 7708 ecbd ab84 d6bd
00000020: cb04 2cbf 6cb1 15bf 11ba e53d 305c c73d
00000030: 3e24 e73d 9434 c93d 6ff7 2bbc db57 bfbc
00000040: a08b 64bf 12f8 20bf 8e90 04bf 05ba f1be
00000050: 85e2 41be ed19 493d 3c4e fdbe dfde e5bd
00000060: a6fd 86bd 5f6c 39be 9c57 00be 80c1 2e3d
00000070: 4a72 cabd 01ef c03e b9c4 a33d 862d 3ebe
00000080: 589a 433f 96d6 bfbe 4cb2 e83f 8378 96bd
00000090: 9019 8dc0 7fb2 693e 2cca 17be 07d1 75bd
000000a0: 9d21 d9be ee3c 74bf e6bd b33e 0945 243f
000000b0: 4351 1bbf 270a 323d be73 90bd 0ff9 303e
000000c0: fed0 b4bd cb04 5b3f f1ab 88bf 4837 59bf
000000d0: d9e9 1cbf 3e92 d83f 201f afbe 92f0 6cbf
000000e0: 617c d8be 103c e63d b70e e53d bf3c 6fbd
000000f0: 5647 b23d 0795 113c f197 05bd 4e04 f2bb
00000100: e791 26bf c56a b8bf 3eb4 d3be ffd8 173f
00000110: dbed edbe df86 80be b41a 163e 1d30 5f3e
00000120: a749 59bf 4a3e ddbe a82c 9b3c a1ca 843e
00000130: 55d7 0b3e 45db 04be 436f 1f3c a090 15be
00000140: 9861 d8be 1b8e fcbd afe0 c6be 86f8 c1be
00000150: e001 a13d 7a72 9d3e 49f3 283e 152d a13c
00000160: ca2c 8040 3eef 353f f219 b9bf 4ac6 89be
00000170: 9627 f33e fd64 8f40 5af5 dbbd 959a b83b
00000180: 94bb dbbe 2c50 dcbe 3cf6 16be 91fe c83d
00000190: f5a4 debd 47dd b73e ed1d 2ebe a171 a5bd
000001a0: 1c99 debe a9c2 c7be e091 ab3e e998 88bd
000001b0: 27a8 ae3e f6d8 c9bc 1559 0d3d 1fb7 e3bd
000001c0: 19ad 62bd 30be 16be 4ba3 29bd c42d 57be
000001d0: 7efe 833e 6e21 46bb 3c79 31bd ad42 3fbd
000001e0: 0586 0dbf e8cb 22bf c9ab 593e 9670 583e
000001f0: 2855 703d 0336 cc3e b846 26be 39d7 8cbe
00000200: 8054 043e 1e64 c63d 302f a3bd 0f9d aabc
00000210: b04e de3c 37a8 dc3d 2976 133e 4594 da3d
00000220: e41b f5be b352 693f 423d 7ec0 1e3a 0dbf
00000230: ae7e 0d3f f7b5 7440 8f63 b1bd 23e0 f53c
00000240: 468a 56be 3fac 32be 0a76 dfbc b14c 1a3e
00000250: 1022 9ebe 1dd1 8abe dfa2 2abc bc31 2b3e
00000260: 822f f7be 2342 69bf c5cd 1fbf 4e77 3ebf
00000270: db27 43bf ea3c 92bf dccf a23d c6fc 0f3f
00000280: 3a0f 32be 68d3 54bd 5844 0a3e 8711 f3bd
00000290: 0a19 4e3b 87dc d23e 53b2 913b 4b1f 26be
000002a0: 1514 cdbd b047 89bd c7c9 44c0 dde1 76bf
000002b0: 4445 74c0 63d9 e7be 8709 0b3f 4691 0abc
000002c0: 33ef 2abf 4446 c8be 2c9a fb3e e37f 18be
000002d0: 91fd 12be 60cf 3fbe 4b7e 9d3d 577a c83b
000002e0: 319f 9abe b98a 24bf 3282 883f 6bb7 3f3f
000002f0: 65d1 9e3e 7db8 a53f 0d37 05bd a600 0fbf
00000300: 57fc babf aa49 a6c0 23e2 bbbf f9d4 533d
00000310: 8794 903f c368 153f b14a 343e c0fc 29be
00000320: 36c4 95be ec38 febe 7610 b2bd 2559 83bf
00000330: 5133 b1be 59f8 a53d 7012 8a3e 3dc6 a53e
00000340: 66fc a7bf 7233 d5bf 51d4 40c0 a24e b2be
00000350: fbee ad3e 4843 393f e379 a63c 1ad0 eb3d
00000360: bffa b23f 2c03 1d40 9d26 a0bf 31cc 233e
00000370: 0f7b b63e 7a6e 3a3f 9522 fdbc df98 c5bd
00000380: d2fb 36bf 1e83 68bf 1d1a 2c3e 2b63 02bd
00000390: 4aff 23bd ca0a 6a3e 2512 23be 0818 373d
000003a0: 309f 1f3f c8e9 4c3f db13 193f 66b2 c6be
000003b0: 6b72 193e 615d d63e 4829 633e dca7 2a3f
000003c0: 5281 1fbf 4164 ab3f dd71 54c0 48d2 babe
000003d0: d01b 833e 13d1 8a40 f44d db3d 4980 1ebd
000003e0: 506d fa3c d167 be3c 17fb 303e 2efe 98bd
000003f0: 3fc9 41bd 4b69 143e aa22 513d 4f4d 1dbe

enc_gru1.weight_hh_l0 f4 [150, 50]
-0.043511435 -0.14954396 0.16107859 -0.079145715 -0.13979696 -0.3170065 -0.30576977 0.012225289
0.35397893 0.16568755 0.2790081 -0.20776492 -0.21395008 -0.117710106 0.011897358 -0.23313078
-0.23252465 -0.14683358 0.040707044 0.16375913 0.06637278 0.26690784 -0.0930458 0.015376266
0.048308175 0.25618508 -0.08470429 -0.58201677 0.18917271 -0.42661762 -0.16297375 -0.023262396
0.13675371 0.36204815 0.08237067 0.068943195 0.20359914 0.25686687 0.0407852 -0.14695162
-0.10130533 0.05513785 0.36966956 -0.05648037 -0.20473942 -0.092986465 0.22281246 -0.23029429
0.11598482 -0.353405 0.008295742 -0.2613338 0.08634281 -0.18570289 -0.60516596 -0.22246616
-0.56500804 0.03266851 0.3015594 0.32831192 0.41286394 -0.49470443 -0.052050274 -0.31787458
-0.3343192 -0.2549233 -0.3746269 0.062332276 -0.09606253 0.06685503 0.25742072 0.34383634
0.08346776 0.064835556 -0.082431175 0.45091334 -0.098981634 0.17320383 0.12454221 -0.47757733
-0.1545683 0.30482942 0.26288998 0.26220596 0.29077548 0.031526662 0.5662642 0.12926054
-0.031904057 0.009109593 -0.121749386 -0.42064157 0.010121211 -0.3480948 -0.44500446 -0.20074922
0.51648253 -0.45480376 0.06772432 -0.4926256 0.21726932 -0.19057824 0.118669696 -0.14526059
-0.5506599 -0.22027788 -0.21499938 0.07251568 0.18142827 0.27182683 0.26053372 -0.5322859
-0.20231079 -0.26839995 -0.3131978 -0.20691332 -0.43868276 0.26431948 -0.18102227 0.04520417
0.22918124 0.33164075 -0.1555504 -0.15221515 0.3855406 0.16713433 0.41830307 0.26170257
-0.046720475 -0.36952335 0.2245343 0.20653693 0.24232051 0.8060744 -0.023468744 -0.06322947
0.3366492 -0.27302915 0.15368864 -0.09697529 -0.33371672 -0.3151958 0.2286924 0.039634366
-0.1919615 0.1890357 0.32580137 -0.22383197 0.013289969 -0.19303852 -0.07161232 -0.23762695
-0.03163152 -0.20737049 -0.1463947 -0.25570303 -0.030075757 -0.02027002 0.403433 0.26682925
0.054929085 -0.25923064 -0.14531563 -0.2395038 -0.0847539 -0.2556248 -0.28036928 0.027394975
-0.26703495 0.23261118 0.2235562 0.17007953 -0.2423628 -0.37177765 -0.28752384 0.40318012
0.037739187 -0.29603332 0.17089039 -0.34666932 0.049558543 0.24852292 0.06783195 0.2395291
0.18922283 0.06113306 0.22573946 0.31956387 -0.23164423 -0.2066693 -0.19042291 0.19403039
0.16320464 0.16601329 -0.15134487 -0.011226034 0.03415029 -0.28531656 -0.017591482 -0.17449465
-0.1267607 0.07768606 0.77603143 -0.34015378 -0.17360617 0.36112794 -0.01058502 0.17690319
-0.18248124 -0.11228727 0.44595754 0.09847067 -0.33016825 0.037751794 -0.14793263 -0.14178935
-0.3544549 0.16832012 -0.5217482 0.12716913 0.31694704 0.86107635 0.092250325 0.55587155
-0.24452579 0.26872313 -0.024331814 -0.33545983 -0.119883165 -0.31102332 -0.0744371 0.10399005
0.28796175 0.1497062 -0.38679624 -0.13223808 0.23955885 -0.105383 -0.042946834 -0.13421294
-0.7652551 0.19812168 1.5394485 0.18209252 -1.5432484 -2.1289961 0.17491768 -0.26272228
0.02531643 -0.48943603 0.053366303 -0.81694275 0.15075448 -0.6664244 -0.71342236 -0.998235
00000000: 0c39 32bd 0d22 19be c9f1 243e 2617 a2bd
00000010: ef26 0fbe ad4e a2be db8d 9cbe 944c 483c
00000020: ba3c b53e ffa9 293e 26da 8e3e 54c0 54be
00000030: bb15 5bbe ff11 f1bd 23ed 423c d6b9 6ebe
00000040: f11a 6ebe 8b5b 16be 6ebc 263d 79b0 273e
00000050: 74ee 873d 25a8 883e cc8e bebd bcec 7b3c
00000060: cbde 453d b12a 833e 7179 adbd 0dff 14bf
00000070: 7eb6 413e a06d dabe 97e2 26be c890 bebc
00000080: 2a09 0c3e 605e b93e f4b1 a83d 1732 8d3d
00000090: 4b7c 503e 0e84 833e 620e 273d 7c7a 16be
000000a0: 2b79 cfbd 3ad8 613d 5445 bd3e f657 67bd
000000b0: 36a7 51be b06f bebd f328 643e 44d2 6bbe
000000c0: 7389 ed3d 80f1 b4be ddea 073c 8bcd 85be
000000d0: 80d4 b03d e628 3ebe 28ec 1abf 2bce 63be
000000e0: 5ea4 10bf 6acf 053d fe65 9a3e 8018 a83e
000000f0: e762 d33e e649 fdbe ab32 55bd 75c0 a2be
00000100: e32b abbe 4f85 82be 19cf bfbe 2150 7f3d
00000110: 6fbc c4bd 4aeb 883d a6cc 833e 510b b03e
00000120: 25f1 aa3d 81c8 843d add1 a8bd 1dde e63e
00000130: e2b6 cabd 585c 313e fc0f ff3d 0485 f4be
00000140: 2747 1ebe 9a12 9c3e 8499 863e dc3f 863e
00000150: 86e0 943e 1a22 013d b1f6 103f e05c 043e
00000160: d4ad 02bd 6740 153c be57 f9bd 555e d7be
00000170: 70d3 253c 7b39 b2be a0d7 e3be 3491 4dbe
00000180: 3338 043f 0adc e8be 0cb3 8a3d 6c39 fcbe
00000190: d97b 5e3e f126 43be 1909 f33d 31bf 14be
000001a0: 0cf8 0cbf 8690 61be cc28 5cbe 1a83 943d
000001b0: 55c8 393e e32c 8b3e ad64 853e e443 08bf
000001c0: 8f2a 4fbe b86b 89be 765b a0be 16e1 53be
000001d0: 079b e0be e254 873e e75d 39be 0228 393d
000001e0: 7dae 6a3e d1cc a93e 9b48 1fbe 4ade 1bbe
000001f0: 9465 c53e 4325 2b3e d22b d63e e1fd 853e
00000200: f85d 3fbd 2a32 bdbe 52ec 653e 6b7e 533e
00000210: de22 783e e45a 4e3f 8641 c0bc 747e 81bd
00000220: 495d ac3e 7aca 8bbe 8e60 1d3e fb9a c6bd
00000230: ebdc aabe 5861 a1be 572e 6a3e a557 223d
00000240: 8e91 44be 9392 413e 70cf a63e 3534 65be
00000250: 2cbe 593c e4ab 45be 7ba9 92bd 7b54 73be
00000260: 0d90 01bd ee58 54be 7ee8 15be 82eb 82be
00000270: 6f61 f6bc 500d a6bc c58e ce3e d89d 883e
00000280: 52fd 603d e1b9 84be 9fcd 14be 7c40 75be
00000290: 7493 adbd 41e1 82be 908c 8fbe 6d6b e03c
000002a0: ceb8 88be a031 6e3e ebeb 643e 5429 2e3e
000002b0: f42d 78be a459 bebe 5336 93be a06d ce3e
000002c0: 6894 1a3d ae91 97be e4fd 2e3e a47e b1be
000002d0: e6fd 4a3d cb7c 7e3e 7aeb 8a3d 1e47 753e
000002e0: a1c3 413e a966 7a3d 3f28 673e e09d a33e
000002f0: 2534 6dbe 1ea1 53be 39fe 42be e7af 463e
00000300: 1e1f 273e 63ff 293e 26fa 1abe 66ed 37bc
00000310: 2de1 0b3d 0315 92be 031c 90bc baae 32be
00000320: 8fcd 01be de19 9f3d ffa9 463f a328 aebe
00000330: d1c5 31be c3e5 b83e cb6c 2dbc 1c26 353e
00000340: 5ddc 3abe def6 e5bd 8c54 e43e feaa c93d
00000350: d00b a9be a0a1 1a3d a77b 17be 3a31 11be
00000360: 1d7b b5be 1c5c 2c3e 4a91 05bf a038 023e
00000370: e246 a23e 806f 5c3f bded bc3d 994d 0e3f
00000380: f864 7abe 1496 893e 8353 c7bc 64c1 abbe
00000390: 4e85 f5bd 733e 9fbe 7a72 98bd bcf8 d43d
000003a0: b96f 933e 954c 193e 280a c6be 6b69 07be
000003b0: ea4e 753e 0bd3 d7bd 05e9 2fbd 1e6f 09be
000003c0: c2e7 43bf 69e0 4a3e a60c c53f 7676 3a3e
000003d0: 2a89 c5bf 7941 08c0 9f1d 333e 8983 86be
000003e0: 6764 cf3c 5c97 fabe a096 5a3d 2923 51bf
000003f0: 625f 1a3e ca9a 2abf d9a2 36bf 548c 7fbf

enc_gru1.bias_ih_l0 f4 [150]
-0.2977597 -1.2055485 -0.79202074 -0.38819438 -0.044218134 -2.0944204 0.48494768 -0.4344317
-0.75579494 -1.2797694 -0.55896384 0.09940149 -0.6096761 -0.4297295 -0.3564572 -1.0894341
-0.090725526 0.6595825 -0.52660257 -1.0828505 -0.22995462 -0.45863652 -0.69174975 -1.687235
-1.3592602 -0.42905056 -2.0071507 -2.1707478 -1.1616052 1.2384844 -1.3758808 -0.72221303
-0.48202705 -0.75180984 -0.9119124 -0.48472205 -0.7676051 -2.5300226 -0.520689 -0.6020379
-2.1136758 -2.0573745 0.14746279 -1.0720688 -0.8154987 -1.487584 0.42949313 -0.6595246
-0.27237716 -0.6754639 3.8570127 3.6838474 2.8118167 4.1342726 -0.17564362 0.7136063
2.8376548 3.998258 3.4000173 3.0325725 4.042678 -3.637076 3.2878535 4.061325
4.037275 2.954007 3.986022 -1.3313 3.3515885 3.37441 4.0067644 2.210257
3.7519584 2.621594 -1.7284847 3.7558258 -2.141139 -0.91644746 4.0522785 2.6753771
1.5449176 3.9607632 4.0488915 -0.14532888 3.9532197 3.8547125 3.9213073 1.1225746
3.9467893 4.010018 2.032632 -2.1338096 2.768717 -1.6795512 2.0124228 2.4539068
-0.19584154 3.9121082 3.9149346 3.8996797 0.1126428 -0.1328452 -0.015655767 0.33894286
0.18230447 0.31449133 0.3382344 -0.12039366 -0.038288623 -0.2501605 -0.3496784 1.1105757
-0.09949816 -0.004843701 0.048706934 0.3501302 0.2851173 -0.009244982 -0.11045309 0.5801561
-0.05749119 0.4199648 -0.051365517 -1.102973 -2.1257217 -0.45343858 0.29541355 -1.2012367
0.24486493 1.163237 1.0945038 0.024644796 -0.09121317 0.12480583 0.15920542 -0.05459716
-0.27199024 0.99235976 0.10203109 0.00631105 0.1048916 0.35951653 -0.5871751 2.0485277
0.11818144 0.43416053 -1.3143024 -0.08859882 -0.056923047 0.88086635
00000000: f673 98be 6a4f 9abf dfc1 4abf 6ac1 c6be
00000010: 131e 35bd fc0a 06c0 104b f83e d56d debe
00000020: c77b 41bf 7ccf a3bf 4118 0fbf 0293 cb3d
00000030: bc13 1cbf 8105 dcbe 8f81 b6be 9472 8bbf
00000040: 4ece b9bd 66da 283f 6dcf 06bf d89a 8abf
00000050: 3979 6bbe 68d2 eabe 8316 31bf 51f7 d7bf
00000060: 3dfc adbf 84ac dbbe 2875 00c0 88ed 0ac0
00000070: 7baf 94bf a886 9e3f dd1c b0bf f4e2 38bf
00000080: 40cc f6be 9c76 40bf 1773 69bf 7d2d f8be
00000090: c581 44bf e4eb 21c0 e04b 05bf 281f 1abf
000000a0: 7746 07c0 06ac 03c0 7c00 173e 8d39 89bf
000000b0: 86c4 50bf 2769 bebf 86e6 db3e 9bd6 28bf
000000c0: 0575 8bbe 34eb 2cbf 4cd9 7640 28c4 6b40
000000d0: cef4 3340 f64b 8440 ecdb 33be e7ae 363f
000000e0: 239c 3540 76e3 7f40 e299 5940 ab15 4240
000000f0: 9e5d 8140 dac5 68c0 316c 5240 60f6 8140
00000100: 5b31 8140 730e 3d40 fc1a 7f40 0a68 aabf
00000110: 6d80 5640 55f6 5740 6a37 8040 da74 0d40
00000120: 1620 7040 32c8 2740 fd3e ddbf 735f 7040
00000130: 6c08 09c0 4d9c 6abf 44ac 8140 6139 2b40
00000140: dcbf c53f 257d 7d40 8590 8140 18d1 14be
00000150: 8d01 7d40 9cb3 7640 b3f6 7a40 86b0 8f3f
00000160: 3298 7c40 1152 8040 a516 0240 5690 08c0
00000170: a932 3140 89fb d6bf 89cb 0040 cf0c 1d40
00000180: af8a 48be fb5f 7a40 4a8e 7a40 5a94 7940
00000190: 45b1 e63d 9208 08be 8640 80bc eb89 ad3e
000001a0: 06ae 3a3e 0205 a13e 0f2d ad3e f490 f6bd
000001b0: 88d4 1cbd 0915 80be 0c09 b3be 5827 8e3f
000001c0: b1c5 cbbd e9b7 9ebb ec80 473d 4444 b33e
000001d0: e5fa 913e 4478 17bc 3b35 e2bd 1c85 143f
000001e0: e27b 6bbd a005 d73e a664 52bd 382e 8dbf
000001f0: d30b 08c0 1a29 e8be 7240 973e 20c2 99bf
00000200: dfbd 7a3e f3e4 943f b318 8c3f e2e3 c93c
00000210: f8cd babd 339a ff3d bf06 233e 46a1 5fbd
00000220: 4e42 8bbe 4a0b 7e3f adf5 d03d edcc ce3b
00000230: 68d1 d63d 8d12 b83e 1b51 16bf 141b 0340
00000240: 1c09 f23d 4a4a de3e 103b a8bf 4c73 b5bd
00000250: 2428 69bd 7580 613f

enc_gru1.bias_hh_l0 f4 [150]
-0.440583 -1.1582172 -0.8804594 -0.22047368 0.009921245 -1.9661266 0.48461986 -0.41951415
-0.8845813 -1.2948968 -0.5547697 -0.10727741 -0.72607756 -0.55981046 -0.21322185 -1.1453054
-0.039411616 0.49497953 -0.6837192 -1.0707738 -0.38006324 -0.66420573 -0.50938356 -1.8297824
-1.273106 -0.57517076 -2.0099905 -2.1011713 -1.1045011 1.2920005 -1.1293489 -0.65188384
-0.4860962 -0.8990401 -0.8476159 -0.32203457 -0.7074942 -2.4969344 -0.6208801 -0.4144207
-2.122278 -2.2491446 0.12821205 -1.2156025 -0.9144199 -1.4461232 0.47303057 -0.57801694
-0.26148978 -0.5681522 3.8154402 3.7977018 2.9351091 4.0052266 0.062017832 0.5993045
2.669914 3.9370468 3.2095304 3.027129 4.0740566 -3.686965 3.3954704 4.2125797
3.9916773 3.0816252 4.0008245 -1.2814436 3.181957 3.3683035 4.0915847 2.060718
3.8051767 2.663824 -1.7133976 3.745416 -1.9975878 -1.0323604 4.2278013 2.89867
1.5033028 4.1732073 3.9980166 -0.2732288 3.8576062 4.024142 4.0052853 0.89030015
3.7975183 3.9000783 1.8980566 -2.0605497 2.9221933 -1.8657681 2.1416316 2.4411356
-0.12865417 3.8340652 3.8764067 3.9188724 0.21540788 -0.09434462 0.24109553 0.18167317
1.8049319 0.37071407 0.63442147 -0.01675173 -0.6614336 0.0003443659 -0.050038274 2.887641
0.08153976 0.17153513 0.07939371 0.20789239 0.16250485 3.2276626 -0.11874581 -0.55539024
0.0027943775 -2.6886723 0.14300443 0.16404857 -1.2972865 -0.24156737 0.4693866 0.28927076
-0.13083321 0.85405946 -1.1321112 -0.037508793 0.0076086964 -0.64525205 -0.27318433 -0.022345496
-0.06243297 -0.35891312 0.18338919 0.21850802 0.1851032 0.7813653 -2.1221945 1.215563
-1.9135648 0.28472424 -1.999005 -0.15143827 -0.08522895 0.40137967
00000000: 1894 e1be 7640 94bf ca65 61bf dac3 61be
00000010: b88c 223c 09aa fbbf 1820 f83e 8fca d6be
00000020: ec73 62bf 2ebf a5bf 6305 0ebf 42b4 dbbd
00000030: 38e0 39bf bd4f 0fbf d456 5abe 5e99 92bf
00000040: 136e 21bd f56d fd3e 3908 2fbf 1e0f 89bf
00000050: a697 c2be 6309 2abf f666 02bf 4f36 eabf
00000060: 23f5 a2bf 643e 13bf afa3 00c0 9779 06c0
00000070: 4b60 8dbf 4660 a53f 818e 90bf dce1 26bf
00000080: 9ae1 f8be 7e27 66bf 5bfd 58bf b7e1 a4be
00000090: 571e 35bf c6cd 1fc0 00f2 1ebf f32e d4be
000000a0: 67d3 07c0 fcf1 0fc0 054a 033e dd98 9bbf
000000b0: 6c17 6abf 911a b9bf 1031 f23e ebf8 13bf
000000c0: fde1 85be 6c72 11bf 2c30 7440 8c0d 7340
000000d0: d4d8 3b40 d12a 8040 6906 7e3d 056c 193f
000000e0: dfdf 2a40 93f8 7b40 f268 4d40 7bbc 4140
000000f0: ac5e 8240 3cf7 6bc0 634f 5940 74cd 8640
00000100: a477 7f40 5939 4540 c106 8040 5806 a4bf
00000110: 2fa5 4b40 4992 5740 43ee 8240 cee2 0340
00000120: 0488 7340 187c 2a40 9d50 dbbf e5b4 6f40
00000130: f5b0 ffbf 6324 84bf 264a 8740 cf83 3940
00000140: 3a6c c03f ea8a 8540 81df 7f40 a5e4 8bbe
00000150: 05e3 7640 c5c5 8040 4c2b 8040 b6ea 633f
00000160: 8a0a 7340 e29a 7940 85f3 f23f 0ce0 03c0
00000170: 3705 3b40 7dd1 eebf 7e10 0940 913b 1c40
00000180: ebbd 03be 5361 7540 0c17 7840 cece 7a40
00000190: e293 5c3e c137 c1bd bfe1 763e 8808 3a3e
000001a0: 0208 e73f 3cce bd3e 7269 223f ed3a 89bc
000001b0: b653 29bf 028c b439 eff4 4cbd 1ccf 3840
000001c0: 51fe a63d e8a6 2f3e 2b99 a23d bee1 543e
000001d0: ac67 263e 0692 4e40 0131 f3bd 0e2e 0ebf
000001e0: e021 373b 3513 2cc0 c16f 123e 59fc 273e
000001f0: 7c0d a6bf 705d 77be 7153 f03e 4c1b 943e
00000200: 24f9 05be a4a3 5a3f 05e9 90bf d2a2 19bd
00000210: 5f52 f93b 3d2f 25bf d1de 8bbe e70d b7bc
00000220: b7b9 7fbd 76c3 b7be 60ca 3b3e 91c0 5f3e
00000230: b18b 3d3e 8e07 483f 09d2 07c0 9297 9b3f
00000240: b1ef f4bf 60c7 913e 65df ffbf a212 1bbe
00000250: 848c aebd a381 cd3e

enc_gru1.weight_ih_l1 f4 [150, 50]
0.111675695 -0.268677 -0.18398483 -0.07657208 -0.108162485 0.8188399 -0.2994931 0.16155684
-1.6604251 0.07556589 0.25665024 -0.70577013 -0.15520757 0.19110318 -0.20495342 -0.19246812
-0.44083142 0.8348262 0.09674239 -0.5875398 0.05093043 0.79836845 0.5549174 0.43389168
1.0501803 0.55479515 -2.4330065 0.46443057 -0.8638133 -0.8155189 2.6673222 0.18438496
0.10485404 0.36674547 -0.6349154 0.07008558 0.3218083 -1.3971016 0.30056536 0.67133003
-0.71647036 2.161167 -0.41320473 -0.986356 -1.7469801 0.3276399 -0.12797175 -0.12990446
0.0024183784 -0.5252387 -0.056571074 0.0005019312 -0.18527342 0.1962362 -0.7491187 0.88411653
0.25320697 -0.16129203 -1.222796 -0.21577369 -0.044387426 -0.2790782 0.07999986 0.26264623
0.22226912 0.2352598 -0.0006027212 0.17294459 -0.1476382 -0.72368085 -0.01989994 -0.23778394
0.05596759 0.28588253 1.4636835 -0.16926716 0.38018525 1.8911079 -0.3164632 0.119299464
0.41233066 0.014644998 -0.054892253 -1.0313282 -0.9786009 -0.049080703 -0.28143904 0.21285105
-0.0062974733 0.0010641239 -0.58988357 0.99642915 0.045952853 -0.279782 -1.7444927 -0.29398614
-1.1495657 0.21480918 -0.112107664 0.05211935 0.13802911 0.058310814 0.14231965 0.06064691
0.026511298 0.12970422 -0.09171722 -0.11616415 -0.26915458 -0.07366986 0.14272144 0.25508958
-0.06401803 -0.028746508 0.0796589 0.058443237 -0.03510321 0.5370442 -0.06209845 0.0638073
-0.059212685 0.0710053 0.2647419 0.18774396 0.04294867 -0.052889798 -0.19831176 0.35666347
-0.10365906 0.009061417 0.16038825 -0.12880278 0.030910168 -0.013682479 -0.11025965 -0.14648178
-0.19741438 -0.02589975 0.0530322 0.16335025 -0.14717707 -0.14866108 -0.16504042 0.042736754
-0.038489196 0.03884648 -0.43679506 0.1517801 0.13347775 -0.014747758 0.12116105 -0.07928161
-1.036538 0.043273885 -0.29953042 0.21174681 1.533109 0.03670551 -0.37475845 0.13335165
-0.07079771 0.7127322 0.009987678 -0.19726725 -0.02791931 0.43808 -0.06039155 -0.0013119616
-0.10583448 -0.23967561 0.04568939 -0.3827518 -0.019949831 -0.036629833 -0.36239734 -0.035941057
-2.1306217 0.60180444 0.07673669 0.2010186 0.06689435 0.10977474 0.15817586 0.22761203
0.043086782 0.03408431 0.00206404 -0.10813321 -0.20997584 0.007897224 0.052494638 1.0847379
-0.6034887 -0.29253438 -0.30655903 0.44113147 -0.6319966 0.09246897 -0.16814916 0.46501857
-0.004117315 0.10219454 -0.052469544 -0.03478623 -0.92431337 0.5778326 0.6868373 -0.035535622
-0.6351966 0.03348406 0.019770382 0.925133 0.121441744 -0.0919534 0.09353614 0.04115636
0.1502489 1.2669703 -0.0015831896 0.02575217 -0.0018317829 -0.18272643 -0.11290802 0.4151204
-0.4371307 -0.10066352 -0.252015 -0.50223315 -0.08231286 0.025512077 0.74635416 -0.018196875
-0.005178509 -0.027484672 -0.101177216 -0.05855182 0.14727218 -0.94046164 -0.17226794 0.08192572
1.1257322 -0.009446339 -0.31152186 0.6049305 -0.14812845 -0.0039672055 -1.3243408 -0.12589799
-0.11059689 0.34617043 -0.0203951 -0.11389443 0.18289484 -0.06639816 -1.7621893 -0.0034093964
00000000: 3ab6 e43d 0890 89be 8566 3cbe d3d1 9cbd
00000010: 4b84 ddbd 7e9f 513f 2957 99be 286f 253e
00000020: cf88 d4bf 4ac2 9a3d a967 833e 5aad 34bf
00000030: bcee 1ebe 8db0 433e 4fdf 51be 5d16 45be
00000040: a8b4 e1be 2bb7 553f e020 c63d 0269 16bf
00000050: 6d9c 503d e061 4c3f 110f 0e3f 0d27 de3e
00000060: 4f6c 863f 0e07 0e3f 61b6 1bc0 d8c9 ed3e
00000070: de22 5dbf d9c5 50bf 68b5 2a40 69cf 3c3e
00000080: b7bd d63d 10c6 bb3e d189 22bf 0789 8f3d
00000090: 0fc4 a43e 3ad4 b2bf b4e3 993e 49dc 2b3f
000000a0: 9a6a 37bf 8f50 0a40 928f d3be d481 7cbf
000000b0: 0b9d dfbf 6bc0 a73e 070b 03be ad05 05be
000000c0: a87d 1e3b 0b76 06bf 12b7 67bd 0894 033a
000000d0: 51b8 3dbe 24f2 483e 3ec6 3fbf 7655 623f
000000e0: 58a4 813e bd29 25be 9484 9cbf c7f3 5cbe
000000f0: 97cf 35bd 56e3 8ebe f7d6 a33d 9179 863e
00000100: 849a 633e f2e7 703e efff 1dba 6318 313e
00000110: 782e 17be 2643 39bf 3305 a3bc a27d 73be
00000120: 463e 653d 325f 923e fb59 bb3f 5f54 2dbe
00000130: a4a7 c23e d30f f23f 7707 a2be 4753 f43d
00000140: 011d d33e 93f1 6f3c b3d6 60bd 9002 84bf
00000150: 9785 7abf d908 49bd c718 90be a0f5 593e
00000160: 095b cebb 137a 8b3a 9c02 17bf fb15 7f3f
00000170: 0f39 3c3d 963f 8fbe 894b dfbf 5a85 96be
00000180: f824 93bf f0f6 5b3e b498 e5bd 197b 553d
00000190: 8157 0d3e 52d7 6e3d 3ebc 113e e568 783d
000001a0: 392e d93c 2fd1 043e 3dd6 bbbd 78e7 edbd
000001b0: a1ce 89be 39e0 96bd 9225 123e 1a9b 823e
000001c0: e31b 83bd cc7d ebbc 3524 a33d 2d62 6f3d
000001d0: 62c8 0fbd bb7b 093f f25a 7ebd 67ad 823d
000001e0: 0089 72bd 3a6b 913d 408c 873e f43f 403e
000001f0: f2ea 2f3d f9a2 58bd 3d12 4bbe 989c b63e
00000200: 344b d4bd 5676 143c d13c 243e e0e4 03be
00000210: 5237 fd3c 7a2c 60bc d0cf e1bd 52ff 15be
00000220: ff26 4abe b62b d4bc 4b38 593d 4a45 273e
00000230: 96b5 16be 9c3a 18be 5b00 29be bc0c 2f3d
00000240: d9a6 1dbd 7d1d 1f3d 9aa3 dfbe 3e6c 1b3e
00000250: 64ae 083e 95a0 71bc 4923 f83d 665e a2bd
00000260: 47ad 84bf f53f 313d 0d5c 99be 28d4 583e
00000270: ea3c c43f 8458 163d 57e0 bfbe 568d 083e
00000280: 64fe 90bd 9e75 363f 5ca3 233c 6d00 4abe
00000290: 09b7 e4bc 064c e03e 215d 77bd 20f6 abba
000002a0: bfbf d8bd 866d 75be cc24 3b3d 0bf8 c3be
000002b0: d46d a3bc 2a09 16bd 258c b9be ee36 13bd
000002c0: 1b5c 08c0 db0f 1a3f 2028 9d3d d2d7 4d3e
000002d0: e8ff 883d 94d1 e03d daf8 213e 2113 693e
000002e0: c47b 303d fd9b 0b3d d844 073b f274 ddbd
000002f0: e803 57be 5c63 013c 9e04 573d b1d8 8a3f
00000300: 3c7e 1abf 11c7 95be 4ef5 9cbe fcdb e13e
00000310: 87ca 21bf 5f60 bd3d 4b2f 2cbe ea16 ee3e
00000320: 8bea 86bb 5f4b d13d 4eea 56bd 027c 0ebd
00000330: cd9f 6cbf d6ec 133f 92d4 2f3f cd8d 11bd
00000340: 3f9c 22bf 9526 093d 7ff5 a13c 84d5 6c3f
00000350: 73b6 f83d 1052 bcbd e08f bf3d 9293 283d
00000360: d9da 193e 152c a23f 0783 cfba 37f6 d23c
00000370: 6f18 f0ba a31c 3bbe 523c e7bd a98a d43e
00000380: 98cf dfbe ad28 cebd 1c08 81be 5a92 00bf
00000390: a593 a8bd b4fe d03c 1111 3f3f 9d11 95bc
000003a0: 7bb0 a9bb 8927 e1bc 0036 cfbd 09d4 6fbd
000003b0: 85ce 163e 18c2 70bf 0267 30be acc8 a73d
000003c0: fe17 903f d1c4 1abc cb7f 9fbe badc 1a3f
000003d0: fcae 17be 55ff 81bb 0084 a9bf 67eb 00be
000003e0: 9f80 e2bd 403d b13e a013 a7bc 7c41 e9bd
000003f0: c948 3b3e c2fb 87bd 6b8f e1bf 2e70 5fbb

enc_gru1.weight_hh_l1 f4 [150, 50]
0.54423016 0.32039836 -0.10854234 0.7846847 -0.35506153 1.6301472 0.5880587 -0.8684384
-0.21127637 -0.012954976 -0.16058475 0.7060815 0.45464158 -0.7876621 0.32251802 -0.4827671
0.36965382 -0.25332457 1.3407056 -0.12058359 -0.17274804 0.09511865 -0.0997006 0.60542524
-0.21079034 -0.11534907 0.58781755 -0.1271235 0.81570417 0.30463028 -0.29710054 0.115905516
-0.14258808 1.9543043 -0.2477283 0.18069348 -0.065180205 -0.85172164 -0.36292773 0.2835614
0.0050772657 0.8177353 0.16110493 -0.20260826 -0.736333 -0.37271237 -0.32761714 0.08320648
1.3509661 0.6478744 0.17837346 0.4418513 0.109008424 -0.38305685 -0.10175367 -0.041491255
0.14108409 -0.58982456 -0.03991618 0.03219637 -0.14382263 -0.1419203 -0.26225108 0.36639363
0.08575584 0.25987855 0.21926792 -0.22918461 0.25245386 -0.15062198 -0.103380606 0.21402673
0.10701175 0.10079801 0.13866381 0.6632736 -0.17191555 -0.10163183 0.0078111067 -0.11562018
0.022468733 0.063622475 -0.14596708 -0.032674816 -0.011579688 -0.040030945 -0.38415366 -0.06689422
0.0107361125 -0.7153253 -0.1607138 0.086646765 -0.04511166 -0.13927162 0.07043188 0.06343778
0.013727678 0.022490023 0.39837983 0.76506716 0.16420053 -0.012583997 0.1182141 0.15982533
-0.19749676 0.02585613 0.18733719 -0.12896612 -0.00861816 0.19068637 -0.075301416 0.16545285
-0.104034804 -0.19120686 -0.11995481 0.17164981 0.17942657 0.10514315 0.05780667 0.07001436
-0.0015042096 -0.13584924 -0.055318303 0.22997557 0.23803155 -0.07550514 0.20365526 -0.26267475
0.35330242 0.0031876413 -0.15288305 -0.14486252 -0.0018263868 0.43425578 -0.0132829435 -0.07837349
-0.020111473 -0.3534352 0.09393301 0.07440325 -0.05511994 0.15486605 -0.040040992 -0.18729153
-0.2389092 -0.12877339 -0.028280046 -0.16636054 0.04337269 -0.10086388 -0.1787765 -0.4101902
-0.17231132 0.3168743 -0.39784357 1.2367359 -0.038489778 -0.64756 -0.23494278 0.24850269
0.14443916 0.30813384 0.205708 -0.35350385 0.018565454 -0.22339278 0.19598849 -0.08784671
0.925758 0.39979467 0.2020467 0.14935486 -0.013908794 0.0717779 0.4423124 0.028569331
1.659566 -0.11481332 -0.16926865 0.22141387 -0.067866206 0.18221556 -0.14080805 1.3919604
0.082514025 0.3842958 0.10683513 -0.46699244 -0.72242296 1.641469 0.15773736 0.38094202
-0.12627862 -0.104657486 -0.3494596 0.13973357 0.023559442 0.23155788 1.0814912 -1.2768472
-0.89108884 -0.1649112 0.0778376 0.101436 -0.038618334 0.24942079 -0.10898395 -0.09233552
-0.025806071 0.2757166 -0.06548428 0.20526186 -0.05624058 -0.34953645 0.15427797 -0.12589654
-0.04436084 0.24186608 0.13054758 0.7734979 0.16135111 -0.0021304039 -0.009671711 0.12349108
-0.09820885 -0.386839 0.44289288 -0.18699187 -0.12771644 -0.02059513 0.02556181 -0.14835599
0.072836906 0.85687536 -0.08661966 0.10133469 0.12059382 -0.20890161 0.10374826 1.2825898
-0.1048625 0.21066365 -0.01703727 -0.13815366 -0.24546748 -0.12296517 0.04955447 0.01266599
0.06611231 -0.39917573 0.5259153 1.0580915 0.1655204 0.5346292 -0.27974576 0.21162544
00000000: ab52 0b3f 410b a43e 724b debd 19e1 483f
00000010: a0ca b5be aaa8 d03f 048b 163f fb51 5ebf
00000020: d558 58be 1c41 54bc 5470 24be c2c1 343f
00000030: c8c6 e83e 39a4 49bf 1521 a53e 402d f7be
00000040: 4443 bd3e c2b3 81be 3e9c ab3f 87f4 f6bd
00000050: dde4 30be 91cd c23d d42f ccbd 26fd 1a3f
00000060: 6cd9 57be 223c ecbd 367b 163f aa2c 02be
00000070: fdd1 503f 80f8 9b3e 901d 98be df5f ed3d
00000080: 9c02 12be a526 fa3f 7dac 7dbe b607 393e
00000090: 337d 85bd 6e0a 5abf aad1 b9be f62e 913e
000000a0: 315f a63b 1a57 513f b1f8 243e 8a78 4fbe
000000b0: 5280 3cbf 28d4 bebe 6fbd a7be 2968 aa3d
000000c0: 75ec ac3f 19db 253f 88a7 363e 553a e23e
000000d0: cf3f df3d 0720 c4be 3a64 d0bd bcf2 29bd
000000e0: 5978 103e befe 16bf 267f 23bd 57e0 033d
000000f0: 3d46 13be 8e53 11be c645 86be f297 bb3e
00000100: c2a0 af3d cd0e 853e c587 603e 5faf 6abe
00000110: a241 813e a63c 1abe 36b9 d3bd d329 5b3e
00000120: fa28 db3d 306f ce3d e3fd 0d3e 4ccc 293f
00000130: a10a 30be 5924 d0bd 50f4 ff3b 46ca ecbd
00000140: 5910 b83c 804c 823d 6578 15be 07d6 05bd
00000150: bbb8 3dbc 7df7 23bd caaf c4be d6ff 88bd
00000160: 85e6 2f3c 8f1f 37bf 2992 24be dc73 b13d
00000170: 01c7 38bd 389d 0ebe 973e 903d abeb 813d
00000180: 0eea 603c ff3c b83c 71f8 cb3e 71db 433f
00000190: 2f24 283e 1c2d 4ebc 3c1a f23d 40a9 233e
000001a0: 973c 4abe 3cd0 d33c 52d5 3f3e b20f 04be
000001b0: 2f33 0dbc 4a43 433e a137 9abd 796c 293e
000001c0: 3310 d5bd bbcb 43be deaa f5bd f8c4 2f3e
000001d0: 99bb 373e 4b55 d73d b0c6 6c3d b063 8f3d
000001e0: e628 c5ba 101c 0bbe 7295 62bd b77e 6b3e
000001f0: 8bbe 733e 70a2 9abd 018b 503e 4e7d 86be
00000200: 0ee4 b43e bfe7 503b 608d 1cbe d756 14be
00000210: 5f63 efba c656 de3e b4a0 59bc 4882 a0bd
00000220: d1c0 a4bc 75f5 b4be f35f c03d bb60 983d
00000230: 72c5 61bd 3595 1e3e 0602 24bd 5ac9 3fbe
00000240: 9da4 74be 2cdd 03be 8eab e7bc 6b5a 2abe
00000250: 90a7 313d b991 cebd 3011 37be 7304 d2be
00000260: 6172 30be 593d a23e 27b2 cbbe 5d4d 9e3f
00000270: 75a7 1dbd 7ec6 25bf d794 70be 7d77 7e3e
00000280: dce7 133e b8c3 9d3e 1ea5 523e 75fe b4be
00000290: 9416 983c 14c1 64be 35b1 483e fae8 b3bd
000002a0: 7afe 6c3f e3b1 cc3e 55e5 4e3e 7bf0 183e
000002b0: b6e1 63bc 4b00 933d c576 e23e 3b0a ea3c
000002c0: a96c d43f 3f23 ebbd c354 2dbe 51ba 623e
000002d0: 70fd 8abd b796 3a3e fc2f 10be c22b b23f
000002e0: 1dfd a83d 6bc2 c43e 60cc da3d a219 efbe
000002f0: b6f0 38bf a81b d23f e785 213e d50a c33e
00000300: 2f4f 01be aa56 d6bd 5eec b2be 5116 0f3e
00000310: bbff c03c 821d 6d3e 4e6e 8a3f bb6f a3bf
00000320: 661e 64bf 7bde 28be 5269 9f3d adbd cf3d
00000330: 422e 1ebd 2a68 7f3e fa32 dfbd 681a bdbd
00000340: 4167 d3bc ba2a 8d3e 9f1c 86bd 2a30 523e
00000350: 865c 66bd 71f6 b2be 0bfb 1d3e 06eb 00be
00000360: b6b3 35bd beab 773e 44ae 053e f503 463f
00000370: 3a39 253e 3f9e 0bbb 1976 1ebc e4e8 fc3d
00000380: b921 c9bd c30f c6be dbc2 e23e cc7a 3fbe
00000390: 19c8 02be 1eb7 a8bc 0067 d13c a2ea 17be
000003a0: 842b 953d 2f5c 5b3f a665 b1bd 9088 cf3d
000003b0: e5f9 f63d 4eea 55be f879 d43d e72b a43f
000003c0: 27c2 d6bd 36b8 573e bf91 8bbc 2778 0dbe
000003d0: d45b 7bbe 2ad5 fbbd a1f9 4a3d 0385 4f3c
000003e0: e465 873d c360 ccbe 63a2 063f 8b6f 873f
000003f0: 2e7e 293e 76dd 083f d63a 8fbe 57b4 583e

enc_gru1.bias_ih_l1 f4 [150]
-0.8629313 0.8732059 -0.07898901 0.3840642 0.867718 -0.4918583 0.34819546 1.0654747
-0.17640166 0.38018408 0.22275883 0.08744463 0.0042977016 0.37958702 0.036119938 -0.06084409
0.24395435 -0.3387471 -1.5810443 0.21469808 0.11323583 -0.4708282 0.07760063 0.2792944
-1.2498295 0.88095915 0.46435392 -0.019563807 0.31659272 -0.32732973 0.21192968 -0.41716838
-0.20010003 -0.34860322 -0.051585402 -0.28582707 0.16944216 0.41783702 -0.35380128 -1.2384079
-0.003829606 -0.9669336 0.16907866 -0.06304847 0.38668475 0.07499542 0.38298306 0.19285992
-0.287171 -1.103675 2.0062497 1.0794653 3.2830157 1.883822 2.4579542 1.5029664
3.207276 0.2837098 3.1630445 2.3974152 3.209309 3.4451976 2.3119793 2.3054862
3.3265922 2.2280629 3.3709314 1.7205781 1.9089575 1.8325384 3.312475 3.2106543
3.3372204 3.318868 -1.7725374 1.7339737 2.1067662 2.9255016 1.1346203 3.6356652
2.9993405 3.507933 3.220242 1.5316658 3.2156441 2.6524045 3.3743174 3.3714635
2.8019803 1.615042 3.2480803 -1.5056 3.3981497 -0.4012377 3.531254 3.330734
3.3524008 2.4790921 1.6554583 1.9056584 -0.27111864 -1.6893506 -0.19945557 -0.6795141
-0.58615375 0.78871167 0.11009649 0.7743144 0.010668668 0.16999127 0.1774475 0.04525451
-0.38008323 -0.13934377 -0.052618504 0.45159647 -0.11762153 -0.45678872 0.649839 0.98988205
0.07410872 0.082037695 -0.081721954 0.016875751 1.1278987 0.4320407 -0.12868896 0.47648454
-1.1626489 -0.2798736 0.014532043 -0.32811436 0.105491325 0.12644497 0.3692868 0.38619614
0.06663374 -0.3866359 0.2916578 -0.14058693 -0.0024566469 -0.786211 -0.11183245 -0.10410726
-0.093915485 0.10073728 -0.057606444 0.54418314 0.5453785 -0.4193076
00000000: 11e9 5cbf 6c8a 5f3f fdc4 a1bd 10a4 c43e
00000010: c422 5e3f dad4 fbbe ad46 b23e 7a61 883f
00000020: a3a2 34be 7da7 c23e e41a 643e 2c16 b33d
00000030: bcd3 8c3b 3b59 c23e 80f2 133d a737 79bd
00000040: 2bcf 793e 4370 adbe a95f cabf d0d9 5b3e
00000050: 30e8 e73d 6510 f1be 14ed 9e3d adff 8e3e
00000060: 6afa 9fbf 8a86 613f ccbf ed3e 4744 a0bc
00000070: 7118 a23e c397 a7be 1804 593e 1897 d5be
00000080: 06e7 4cbe 1f7c b2be 374b 53bd ed57 92be
00000090: 3f82 2d3e bcee d53e 7125 b5be 2684 9ebf
000000a0: 21fa 7abb f688 77bf f522 2d3e 8e1f 81bd
000000b0: 8bfb c53e 3397 993d 5b16 c43e 127d 453e
000000c0: 1408 93be 3945 8dbf 6566 0040 eb2b 8a3f
000000d0: ee1c 5240 1421 f13f 1f4f 1d40 3461 c03f
000000e0: 0344 4d40 6942 913e 526f 4a40 406f 1940
000000f0: 5265 4d40 1e7e 5c40 78f7 1340 168d 1340
00000100: e3e6 5440 9598 0e40 57bd 5740 e73b dc3f
00000110: b858 f43f 9e90 ea3f 97ff 5340 5c7b 4d40
00000120: 0595 5540 5568 5440 81e2 e2bf daf2 dd3f
00000130: 42d5 0640 6b3b 3b40 3d3b 913f bdae 6840
00000140: 32f5 3f40 f981 6040 7218 4e40 a00d c43f
00000150: 1dcd 4d40 ffc0 2940 d1f4 5740 0fc6 5740
00000160: a553 3340 b2b9 ce3f 8ce0 4f40 80b7 c0bf
00000170: 497b 5940 076f cdbe 1100 6240 bf2a 5540
00000180: bc8d 5640 72a9 1e40 0fe6 d33f 9dec f33f
00000190: 10d0 8abe a43c d8bf 153e 4cbe a3f4 2dbf
000001a0: 2c0e 16bf 02e9 493f 457a e13d 7839 463f
000001b0: a3cb 2e3c 3112 2e3e ccb4 353e cb5c 393d
000001c0: 459a c2be 22b0 0ebe 8086 57bd a737 e73e
000001d0: 8fe3 f0bd 36e0 e9be d95b 263f e968 7d3f
000001e0: 50c6 973d 6103 a83d d75d a7bd 043f 8a3c
000001f0: fc5e 903f 7034 dd3e 0ac7 03be c8f5 f33e
00000200: aed1 94bf 984b 8fbe ce17 6e3c 9bfe a7be
00000210: d60b d83d ca7a 013e 2913 bd3e 80bb c53e
00000220: 4577 883d 24f5 c5be 2c54 953e 05f6 0fbe
00000230: b2ff 20bb 2045 49bf 6908 e5bd 3036 d5bd
00000240: c356 c0bd 594f ce3d bcf4 6bbd 964f 0b3f
00000250: ed9d 0b3f 7caf d6be

enc_gru1.bias_hh_l1 f4 [150]
-0.9885865 0.96602297 -0.043922298 0.54356724 0.80714774 -0.3365927 0.55252934 1.0558932
-0.010252499 0.38629636 0.07590084 0.1816857 0.23735455 0.26430327 -0.022171887 -0.04501215
0.11300862 -0.30024013 -1.5035664 0.12754358 0.15432893 -0.19511224 -0.01675801 0.098977245
-1.1155179 1.0033531 0.4321044 -0.08378925 0.18670252 -0.3492714 0.2586773 -0.4973659
-0.1632252 -0.33797565 -0.12352155 -0.25935075 0.20464034 0.6250304 -0.5746822 -1.1348523
0.14608023 -1.1231416 -0.013846834 0.009930344 0.25814664 0.20034403 0.3805788 0.2185789
-0.21918684 -1.1102055 1.8203814 1.1475614 3.1068249 1.782315 2.570584 1.5207145
3.3302996 0.05445278 3.3243675 2.300613 3.211278 3.4739866 2.2450507 2.1040473
3.2456534 2.3090622 3.1486914 1.6981157 1.9332352 1.9159527 3.4956462 3.2810392
3.2257884 3.4695666 -1.7814537 1.7381642 2.1420522 3.001753 1.2468325 3.6061656
3.0130482 3.47446 3.1474438 1.400284 3.226763 2.4596746 3.5326283 3.3285701
2.7499583 1.6444211 3.2960305 -1.589997 3.2540777 -0.2526231 3.3716528 3.398152
3.337389 2.300067 1.6737772 1.6729482 -1.1720253 -1.3166118 -0.119828574 -0.73989534
-0.58329976 0.97379905 0.18855715 0.31035483 -0.036720973 -0.42471352 0.11319518 0.04855548
-0.11414298 -0.6239407 -0.08900624 0.118161894 -0.18871361 -0.68249667 -0.056811176 0.98564315
0.09653362 0.06470859 -0.08036329 -0.07513829 0.079931326 0.172936 -1.4803666 0.1627496
-1.1838849 0.17504849 0.49708316 0.11523416 -0.03570088 -2.1461782 0.17781107 0.3205804
0.072092 -0.5087586 -0.06560786 0.7406458 -0.04005798 -0.19697091 -0.082716994 0.078881525
-0.26126564 0.016186774 0.079940036 0.32391724 2.3150375 -0.5754359
00000000: 0114 7dbf 484d 773f dee7 33bd 3927 0b3f
00000010: 3ca1 4e3f e155 acbe 9072 0d3f 8227 873f
00000020: 19fa 27bc a3c8 c53e e671 9b3d d10b 3a3e
00000030: 120d 733e c252 873e d1a1 b5bc a95e 38bd
00000040: 1071 e73d 13b9 99be dd74 c0bf c99a 023e
00000050: 6708 1e3e 81cb 47be 1848 89bc 95b4 ca3d
00000060: 4ac9 8ebf e06d 803f ca3c dd3e b399 abbd
00000070: f22e 3f3e b3d3 b2be 5a71 843e bea6 febe
00000080: 8224 27be 250b adbe def8 fcbd 9fc9 84be
00000090: 3d8d 513e fe01 203f 5f1e 13bf d742 91bf
000000a0: 0e96 153e 1bc3 8fbf d5dd 62bc e2b2 223c
000000b0: cc2b 843e fc26 4d3e 39db c23e 26d3 5f3e
000000c0: 8472 60be 371b 8ebf 4202 e93f 4be3 923f
000000d0: 38d6 4640 e622 e43f 7384 2440 c6a6 c23f
000000e0: a123 5540 e109 5f3d 70c2 5440 3e3d 1340
000000f0: 9485 4d40 cc55 5e40 e9ae 0f40 b6a8 0640
00000100: c9b8 4f40 adc7 1340 2984 4940 db5b d93f
00000110: 4074 f73f f03d f53f abb8 5f40 8cfc 5140
00000120: 5173 4e40 610d 5e40 ad06 e4bf 2a7c de3f
00000130: 6217 0940 b91c 4040 3598 9f3f 6bcb 6640
00000140: c8d5 4040 8d5d 5e40 b86f 4940 823c b33f
00000150: 4983 4e40 4f6b 1d40 9516 6240 4b07 5540
00000160: 51ff 2f40 647c d23f 2af2 5240 0685 cbbf
00000170: cf42 5040 d157 81be 29c9 5740 537b 5940
00000180: c897 5540 4c34 1340 553e d63f 2b23 d63f
00000190: ed04 96bf bc86 a8bf af68 f5bd c869 3dbf
000001a0: 2253 15bf e54a 793f 2015 413e d4e6 9e3e
000001b0: bb68 16bd 0d74 d9be e0d2 e73d 1ce2 463d
000001c0: cbc3 e9bd 94ba 1fbf e748 b6bd ddfe f13d
000001d0: 243e 41be 1ab8 2ebf d6b2 68bd 1c53 7c3f
000001e0: 6bb3 c53d f085 843d 8295 a4bd 1be2 99bd
000001f0: 09b3 a33d 2316 313e a77c bdbf d5a7 263e
00000200: 8a89 97bf e93f 333e af81 fe3e e3ff eb3d
00000210: 163b 12bd fc5a 09c0 1b14 363e 1d23 a43e
00000220: f8a4 933d 013e 02bf 6a5d 86bd f79a 3d3f
00000230: d613 24bd beb2 49be 8767 a9bd a38c a13d
00000240: 9cc4 85be 209a 843c 9ab7 a33d 7bd8 a53e
00000250: 9329 1440 c44f 13bf

enc_linear.weight f4 [1, 50]
-0.51030755 0.67880356 -0.15682407 -0.49697703 0.28648117 -0.75816506 -0.16552633 0.1274474
-0.03400383 -0.4028507 0.12782337 -0.06155681 0.13524358 0.54452574 -0.057243403 -0.22808985
-0.10860993 -0.6219781 -0.4275772 -0.6340188 0.09078424 0.020072833 0.014774227 -0.057117943
-0.33427837 -0.09922202 -1.1614369 0.21430881 -0.779061 0.014999787 0.17492871 0.22034955
-0.013916083 -1.2679043 0.16461386 0.25735375 0.07377895 0.14618956 -0.3879244 -0.80248016
0.0061632562 -0.28266189 -0.13602711 0.09923925 0.12602642 0.06273449 0.08665993 0.35061342
-0.46232232 0.46718925
00000000: 84a3 02bf 12c6 2d3f 7d96 20be c673 febe
00000010: a9ad 923e 1b17 42bf bc7f 29be 9281 023e
00000020: 9a47 0bbd 7242 cebe 21e4 023e fe22 7cbd
00000030: 4b7d 0a3e 0a66 0b3f 0f78 6abd 6390 69be
00000040: e26e debd f539 1fbf 66eb dabe 0e4f 22bf
00000050: 16ed b93d c86f a43c 990f 723c 81f4 69bd
00000060: 8926 abbe ea34 cbbd f7a9 94bf c573 5b3e
00000070: 8b70 47bf abc1 753c 8320 333e 50a3 613e
00000080: 4800 64bc b04a a2bf 8990 283e dfc3 833e
00000090: 6b19 973d b7b2 153e 079e c6be 576f 4dbf
000000a0: 24f5 c93b 0fb9 90be b14a 0bbe f33d cb3d
000000b0: 120d 013e f17a 803d c37a b13d 9a83 b33e
000000c0: 83b5 ecbe 6e33 ef3e

dec_gru_1.weight_ih_l0 f4 [150, 3]
-0.06955934 -0.019156596 0.010950379 -0.119904086 -0.0057464107 -0.02238918 0.7681796 -0.013487861
-0.21940364 0.3618263 -0.19684528 -0.083335 0.10739607 -0.016882947 0.005604565 0.22939599
0.113525406 -0.008303072 0.7803228 -0.099541366 -0.35533586 -0.14504617 0.018702859 -0.0894151
-0.23670633 0.13482101 0.051337156 -0.6530407 0.30194214 0.11175962 -0.24589397 -0.24096464
-0.45073286 -0.26885563 -0.0459464 0.09668697 0.41307646 0.15471375 -0.43502006 -0.1714751
0.4598576 -0.3597474 -0.075466715 -0.044490986 -0.08738209 -0.5575696 0.07865935 0.1100376
0.16439275 -0.1840868 -0.08716264 0.059068456 0.060543958 0.0036315722 0.29893607 -0.23018654
-0.013906185 -0.0482768 -0.021727048 -0.028706385 -0.73248607 -0.0028400333 0.13849497 0.07426089
0.10187136 -0.042493496 0.21101105 -0.034016076 0.19385524 -0.20234706 0.041034047 0.22821383
0.5424702 -0.7105407 0.1964905 -0.18114704 0.25465557 0.09013555 -0.2873953 0.04585829
-0.042522565 0.33633184 -0.07398894 -0.21693134 -0.005772405 -0.10135417 0.12961465 1.2019374
-0.075032406 0.74941206 -0.272985 -0.17333533 0.1917986 0.2900065 -0.13129134 -0.051075064
0.4545699 -0.03737143 -0.078507416 -1.9125462 0.50383866 0.83004576 -0.06078364 0.12146125
0.10347695 0.93225837 -0.15068327 -0.4126057 -0.16949992 0.2615246 -0.023298694 -0.43706685
-0.15229551 0.037716627 0.4124427 0.05632508 -0.16734363 -0.3252199 -0.1387812 -0.09202852
-0.31382358 0.28947958 -0.035901982 0.52043927 -0.0066364165 -0.12971462 -0.51437426 -0.042012084
0.25072348 -1.8516545 0.06618733 -0.005398511 0.44978985 -0.014486018 -0.19764496 -0.43194634
0.22888638 0.8601416 -0.43155074 0.118012264 -0.074243575 0.09278348 -0.15869582 -0.18737404
-0.23320292 0.048759155 0.17509887 -0.13674808 0.056621335 -0.17758657 -0.03365079 -0.014955188
-0.039165664 0.010948696 -0.10961382 -0.053784948 0.08581557 0.011583601 -0.060298767 0.062801555
0.00083104917 -0.03869406 0.0076421825 -0.03697349 0.019681728 -0.033855233 -0.08075764 0.015113254
-0.019910067 -0.053527314 -0.057357587 0.036690563 -0.029180873 -0.029078396 -0.030859519 -0.0012058873
0.045757353 -0.9822225 0.052773967 1.5741261 2.8092487 -0.11229331 -1.659174 -0.061244857
-0.27200302 -0.042364474 0.08735858 -0.004528265 -0.041591834 -0.014659706 -0.017179986 -0.07648052
-0.020840654 -0.011167792 -0.024861101 0.048036262 -0.21534608 -0.07624842 0.022782298 0.032958653
-0.048288707 -0.05330014 -0.0075733704 -0.01551672 2.8967636 -0.16608343 -0.80080944 -0.04037518
-0.025295885 0.03261222 -0.035280198 -0.014862811 -0.07398827 -0.021572668 -0.04112564 0.0018343257
0.027097428 -0.06398948 -0.035424173 -0.07379068 -0.052177522 -0.014094667 0.09048689 0.15077698
1.314142 -3.3048453 0.10733176 0.19059856 -0.033449423 -0.027513506 -0.007468897 0.5400414
-0.054670386 -0.059434034 0.05107001 -0.05455953 -0.05161965 0.8912789 1.3101778 1.4158291
-0.100484625 0.044817764 0.07987215 0.059286196 -0.06677298 -0.07020495 0.043792255 -0.088334695
-0.0034177336 -0.6149538 0.1782118 -0.3982844 -0.048850916 0.025364753 -0.022247441 0.08619099
00000000: 2175 8ebd 4bee 9cbc 3869 333c 4690 f5bd
00000010: 634c bcbb 8369 b7bc 6ba7 443f 30fc 5cbc
00000020: 59ab 60be 4c41 b93e cf91 49be 8aab aabd
00000030: 79f2 db3d 1b4e 8abc 80a6 b73b c8e6 6a3e
00000040: 0280 e83d 9c09 08bc 3cc3 473f 58dc cbbd
00000050: 95ee b5be fc86 14be bd36 993c 441f b7bd
00000060: 2563 72be 850e 0a3e e946 523d ad2d 27bf
00000070: 2998 9a3e 3ae2 e43d a1cb 7bbe 6fbf 76be
00000080: 75c6 e6be 72a7 89be 4b32 3cbd d103 c63d
00000090: c27e d33e 486d 1e3e f3ba debe 2b97 2fbe
000000a0: 7572 eb3e d030 b8be 4b8e 9abd 2e3c 36bd
000000b0: 62f5 b2bd e2bc 0ebf 2718 a13d 655b e13d
000000c0: 9356 283e 4081 3cbe 5482 b2bd c4f1 713d
000000d0: f1fc 773d acff 6d3b 260e 993e 05b6 6bbe
000000e0: c4d6 63bc e5bd 45bd ecfc b1bc a729 ebbc
000000f0: 3584 3bbf da1f 3abb a0d1 0d3e 1816 983d
00000100: eea1 d03d a90d 2ebd 4813 583e 7154 0bbd
00000110: fd81 463e 1134 4fbe 5113 283d e3b0 693e
00000120: 54df 0a3f ffe5 35bf ce34 493e 9c7e 39be
00000130: 3762 823e fd98 b83d 7a25 93be e7d5 3b3d
00000140: 242c 2ebd b033 ac3e 8387 97bd 4023 5ebe
00000150: 7126 bdbb c692 cfbd b4b9 043e 16d9 993f
00000160: 97aa 99bd 78d9 3f3f b1c4 8bbe d17e 31be
00000170: da66 443e bb7b 943e 3d71 06be 1634 51bd
00000180: 63bd e83e c912 19bd 7fc8 a0bd 50ce f4bf
00000190: 92fb 003f e17d 543f 44f8 78bd adc0 f83d
000001a0: b9eb d33d 7ca8 6e3f b74c 1abe 0e41 d3be
000001b0: 6391 2dbe 8de6 853e e7dc bebc 3ac7 dfbe
000001c0: 5bf3 1bbe c07c 1a3d b12b d33e 21b5 663d
000001d0: 215c 2bbe 3983 a6be a91c 0ebe 7379 bcbd
000001e0: 7cad a0be ab36 943e f50d 13bd 823b 053f
000001f0: 4c76 d9bb e9d3 04be 08ae 03bf dd14 2cbd
00000200: d45e 803e 0403 edbf 398d 873d fee5 b0bb
00000210: db4a e63e c356 6dbc 7163 4abe 1228 ddbe
00000220: 3161 6a3e 3d32 5c3f 38f4 dcbe 6ab0 f13d
00000230: 040d 98bd 4405 be3d 2881 22be fbde 3fbe
00000240: bfcc 6ebe aeb7 473d 1e4d 333e b007 0cbe
00000250: c6eb 673d 41d9 35be 69d5 09bd 9b06 75bc
00000260: 2d6c 20bd 2962 333c 367d e0bd 9b4d 5cbd
00000270: 13c0 af3d 25c9 3d3c d7fb 76bd 1a9e 803d
00000280: c4da 593a aa7d 1ebd 466b fa3b 8471 17bd
00000290: 933b a13c c9ab 0abd 4364 a5bd 959d 773c
000002a0: 701a a3bc 753f 5bbd caef 6abd d848 163d
000002b0: ba0c efbc d135 eebc 1acd fcbc dd0e 9eba
000002c0: 106c 3b3d ef72 7bbf 8429 583d f77c c93f
000002d0: bbca 3340 09fa e5bd d05f d4bf e3db 7abd
000002e0: fb43 8bbe 5f86 2dbd 0ee9 b23d d761 94bb
000002f0: 335c 2abd 432f 70bc 0bbd 8cbc d2a1 9cbd
00000300: 05ba aabc 1df9 36bc 82a9 cbbc acc1 443d
00000310: af83 5cbe 2228 9cbd f1a1 ba3c a7ff 063d
00000320: 61ca 45bd 3f51 5abd 092a f8bb d739 7ebc
00000330: 9364 3940 c611 2abe d901 4dbf 7260 25bd
00000340: 5139 cfbc 6494 053d f881 10bd 2683 73bc
00000350: 2987 97bd 2ab9 b0bc 5c73 28bd c26d f03a
00000360: 6dfb dd3c eb0c 83bd f018 11bd 911f 97bd
00000370: 19b8 55bd 51ed 66bc 3151 b93d 4865 1a3e
00000380: ce35 a83f 9682 53c0 c1d0 db3d 452c 433e
00000390: 4302 09bd 0164 e1bc a6bd f4bb 2740 0a3f
000003a0: 0eee 5fbd 1a71 73bd c92e 513d d079 5fbd
000003b0: 206f 53bd db2a 643f e8b3 a73f e339 b53f
000003c0: e2ca cdbd d592 373d 0394 a33d 15d6 723d
000003d0: 46c0 88bd 9dc7 8fbd 825f 333d d2e8 b4bd
000003e0: 0efc 5fbb 9d6d 1dbf 277d 363e efeb cbbe
000003f0: e617 48bd bec9 cf3c 4440 b6bc e784 b03d
