GBCF_deepcode/weights/deepcode_bc_noiseless_snrminus1.pt (torch, 603438 bytes, 44 tensors)

enc_gru1.weight_ih_l0 f4 [150, 8]
0	0x3fc0d84c	1.5066009
1	0x3ecc4379	0.39895228
2	0x3f8292e4	1.0201077
3	0xbda0a7ce	-0.07844506
4	0xc0800ac0	-4.0013123
5	0xbde00b4e	-0.10939656
6	0xbddeae09	-0.10873038
7	0xbc89ba89	-0.01681258
8	0xbf8e8acc	-1.1136107
9	0x401b4a3f	2.4264066
10	0x3e8e1bfb	0.27755722
11	0xc0365d70	-2.849453
12	0xbd51d4a8	-0.051228195
13	0xbd9ec736	-0.0775284
14	0x3c6aa523	0.014321598
15	0x3da03b6a	0.07823832
16	0xc0201471	-2.5012476
17	0xbe7b0bdd	-0.24516244
18	0xbf839ff3	-1.0283188
19	0xbf376a76	-0.7164682
20	0x3e9aaec6	0.30211467
21	0x3d2a9d5e	0.041653983
22	0x3e26553d	0.16243453
23	0x3dc8b877	0.09800809
24	0xbf30bc2e	-0.6903714
25	0xbf421f5d	-0.75829107
26	0x3e3112f0	0.1729238
27	0x3e18287c	0.14859194
28	0xc032f377	-2.79611
29	0x3ecc9dc4	0.39964116
30	0xbe262a2c	-0.16227025
31	0xbdae5a87	-0.085133605
32	0xbe95f02e	-0.29284805
33	0x3d46dc30	0.04854983
34	0xbfcdfe06	-1.6093147
35	0x3f86a361	1.0518609
36	0xbf2104c2	-0.62897885
37	0x3e7b5999	0.24545898
38	0xbc664d05	-0.014056449
39	0xbe24c99f	-0.16092537
40	0xbe87059d	-0.2637147
41	0x3e3a75d3	0.18209009
42	0x3ef2d20d	0.4742588
43	0xbf4b87be	-0.79504
44	0xbf48d63e	-0.7845191
45	0x3f3dcec1	0.74143606
46	0x3d180062	0.03710974
47	0x3ea43387	0.32070562
48	0x3e6bc897	0.23025738
49	0x3f26f7ed	0.65222055
50	0xbd6f5872	-0.058433957
51	0x3e292fcb	0.16522138
52	0xbc461bf5	-0.012091626
53	0xbe82845f	-0.25491616
54	0x3be5556b	0.006998708
55	0xbd15c361	-0.03656328
56	0x3f10a17a	0.56496394
57	0xbe561cc3	-0.20909409
58	0xc075e91a	-3.8423524
59	0x3edcd775	0.4313313
60	0xbf844d9b	-1.0336183
61	0x3e920003	0.28515634
62	0x3eae06bc	0.33989513
63	0x3e84c73d	0.25933257
64	0x3e235819	0.15951575
65	0xbffb3dd6	-1.9628246
66	0xbf9f17b5	-1.242911
67	0x3d0fe40e	0.0351296
68	0xbea3b789	-0.31975964
69	0xbf02eecd	-0.5114563
70	0xbe64e9e9	-0.22354855
71	0xbd095761	-0.033530597
72	0x3e85fc6c	0.26169145
73	0x400c9791	2.1967509
74	0x401d9a19	2.4625304
75	0xbe36281b	-0.17788737
76	0x3e800f0f	0.2501149
77	0xbeac16e0	-0.33611202
78	0x3da0e680	0.078564644
79	0xbf09795b	-0.537008
80	0x3f20d2ac	0.6282146
81	0xbf93a23c	-1.1533885
82	0xbd26eb39	-0.04075167
83	0x3dac9f6c	0.08428845
84	0x403120ed	2.7676346
85	0xbfb11238	-1.3833685
86	0x3e7900bf	0.24316691
87	0x3c6fe5c7	0.0146421855
88	0x3fb60277	1.4219502
89	0xbf1228a0	-0.5709324
90	0x3f8a349b	1.0797304
91	0x3faddb2d	1.3582512
92	0xbf29a3b6	-0.6626543
93	0x3e36f713	0.17867689
94	0xbdafbdbd	-0.085811116
95	0x3f2a9f94	0.66649747
96	0x3f157488	0.5838094
97	0x3f7adc9a	0.9799286
98	0x3f1c76ee	0.6111897
99	0xbdb5a197	-0.088687114
100	0x3efdf71e	0.49602598
101	0xbf02a7cd	-0.51037294
102	0x3e5b299f	0.21402596
103	0x3c4dd853	0.012563783
104	0xbfa15516	-1.2604091
105	0xbfc4173d	-1.5319592
106	0x3f229060	0.6350155
107	0x3bd01fe0	0.006351456
108	0xbe0b8833	-0.13626175
109	0xbeaab71c	-0.33342826
110	0xbda3c732	-0.07996978
111	0x3e7d61c8	0.24744332
112	0x3f921f6a	1.1415837
113	0xbede263b	-0.43388543
114	0xc00f7e23	-2.2420738
115	0xbf0bc599	-0.54598385
116	0x3e55c162	0.20874551
117	0x402698be	2.6030726
118	0xbe2af50a	-0.16695037
119	0xbda640cd	-0.081178285
120	0x3f8d4386	1.1036232
121	0x3edf6c4f	0.4363732
122	0x3fb4fefb	1.4140314
123	0x3e132749	0.14370455
124	0x3f51c841	0.8194619
125	0xbee593dd	-0.44839373
126	0xbf00525e	-0.5012568
127	0xbf30ccbc	-0.690624
128	0xc00bce02	-2.1844487
129	0x3ec3e583	0.3826104
130	0xbf2899cf	-0.65859693
131	0xbf55b401	-0.8347779
132	0x3ea47e9a	0.3212784
133	0x40576c2d	3.3659775
134	0xbe963d1b	-0.29343495
135	0xbd6d1f78	-0.05789134
136	0xbeaa00f8	-0.33203864
137	0xbf48ab48	-0.78386354
138	0xbfd5357c	-1.6656947
139	0xbe856b85	-0.26058593
140	0xbeec954e	-0.4620766
141	0x3f4d6634	0.80234075
142	0x3be07f13	0.006851086
143	0x3cd524a6	0.026018452
144	0xbd5e400e	-0.054260306
145	0x3e4f8e3d	0.20269103
146	0x3fb84e7f	1.4398955
147	0xbd38c233	-0.045107078
148	0x3f9c3538	1.2203741
149	0x3e827958	0.25483203
150	0xbdb0642f	-0.086128585
151	0xbee77d59	-0.4521282
152	0x3fc1c6c6	1.5138786
153	0x3fea74a8	1.8316851
154	0xbf8632cb	-1.0484251
155	0xbe057f43	-0.13036828
156	0x3f5d6777	0.86486
157	0x3f91028e	1.1328905
158	0xbe197725	-0.14986856
159	0x3eef733e	0.4676761
160	0x3e47170a	0.19442382
161	0x3f8dc5f7	1.1076039
162	0x3eead46d	0.45865193
163	0x3e35d5ee	0.17757389
164	0x405c5c2c	3.4431257
165	0x3de8310a	0.113374785
166	0xbe29a841	-0.1656809
167	0xbe2129cd	-0.15738602
168	0x40882714	4.2547703
169	0x3ef8bbe3	0.48580846
170	0x3f7c4d60	0.98555565
171	0xbdab5c85	-0.08367256
172	0xbe549919	-0.20761527
173	0x3e97acb8	0.2962396
174	0xbe54f7e5	-0.2079769
175	0x3d81a67b	0.06330582
176	0xbe109fe1	-0.14123489
177	0xbf78452e	-0.9698056
178	0x3f9cf17c	1.2261195
179	0xbe6f8791	-0.23391558
180	0xbf15f32d	-0.5857418
181	0x3f28c4e7	0.6592545
182	0xbd239e51	-0.039945904
183	0xbde88a39	-0.11354489
184	0x3f105720	0.5638294
185	0x3f7d9369	0.99053055
186	0xbdc8ab34	-0.097982794
187	0x3eae9a17	0.34101936
188	0xbf888b47	-1.0667504
189	0xbfbd1d5a	-1.4774582
190	0xbd910dad	-0.070826866
191	0x3f105673	0.5638191
192	0xbed1c395	-0.4096953
193	0x3e45d740	0.19320393
194	0x3ff2f51d	1.8981053
195	0xbf5fd867	-0.8743958
196	0xbf822326	-1.0166976
197	0xbd5c0d1f	-0.05372345
198	0x3ec3d991	0.38251927
199	0x3e99a1ab	0.30006155
200	0x3f17615a	0.5913292
201	0x3f1ad614	0.6048291
202	0x3efee256	0.49782056
203	0x3d9a5c66	0.07537155
204	0xbe2090e2	-0.15680268
205	0xbe1a5233	-0.15070419
206	0x3da8ed08	0.08248335
207	0x3c5a0b65	0.013308381
208	0x3e6d81c9	0.2319404
209	0x3e1b889a	0.15188828
210	0x3e62e198	0.2215637
211	0xbf4da998	-0.80336905
212	0xbeec0375	-0.46096388
213	0x3e79e9f7	0.24405657
214	0x3db74481	0.08948613
215	0xbd5d3705	-0.05400755
216	0x3dba4e1e	0.09096931
217	0xbdca8aac	-0.09889731
218	0x3ee121d7	0.4397113
219	0x3eca5ce1	0.39523986
220	0xbd9b4d5c	-0.075831145
221	0xbebc2361	-0.36745742
222	0xbe2dd5fa	-0.16976157
223	0xbeb34a64	-0.35017693
224	0xbf11ef2f	-0.5700559
225	0xbf3cf696	-0.7381376
226	0x3d2b7fc0	0.04186988
227	0xc019523e	-2.3956447
228	0xbf3e6c58	-0.7438407
229	0xbf75ff82	-0.96093
230	0xbe36d2d1	-0.17853858
231	0xbed7de59	-0.42161825
232	0xbef1fde1	-0.47264007
233	0x3cbae68b	0.02281501
234	0xbdc1a0e6	-0.09454517
235	0x3eb6a919	0.35675886
236	0x3f0a5e0f	0.5404977
237	0x3f0c7e93	0.54880637
238	0x3ea633b3	0.32461318
239	0x3f434406	0.7627567
240	0x3ee02107	0.43775198
241	0xbefd043b	-0.4941729
242	0x40208297	2.5079706
243	0x3f083cfc	0.53218055
244	0xbe90dce4	-0.28293526
245	0xbf4e3431	-0.8054839
246	0xbd774cf5	-0.060376126
247	0xbcf27321	-0.029595913
248	0x400b3924	2.1753626
249	0x403765ef	2.8655965
250	0x3f852bbc	1.0403972
251	0x3eeabf87	0.4584925
252	0x3eb62bb2	0.35580212
253	0x3ff14e00	1.8851929
254	0xbdd9fe54	-0.10644212
255	0xbc353b09	-0.011061438

enc_gru1.weight_hh_l0 f4 [150, 50]
0	0xbf97d632	-1.1862242
1	0xbf33ea4d	-0.7027939
2	0xbf9d8c2a	-1.23084
3	0xbf722147	-0.9458203
4	0x3f0721e5	0.52786094
5	0xbe47b31a	-0.19501916
6	0xbf2aebbf	-0.6676597
7	0xbf92b156	-1.1460369
8	0xbcaf1c0a	-0.021375675
9	0x3f15362f	0.582858
10	0xbf892fff	-1.0717772
11	0xbe237335	-0.15961917
12	0xbe95ff7a	-0.29296476
13	0xbec6f144	-0.38855946
14	0x3f9e4798	1.2365599
15	0xbe9e118d	-0.30872765
16	0x3f03e256	0.51517236
17	0xbeaa4952	-0.33259064
18	0xbe696fef	-0.22796606
19	0x3eed7930	0.4638152
20	0x401625e9	2.3460639
21	0xbf0e7fae	-0.55663574
22	0x3e25b3ff	0.16181944
23	0x3fd5fff8	1.671874
24	0xbe581202	-0.2110062
25	0xbf4e12ae	-0.8049725
26	0x3ed69545	0.4191076
27	0x3e07c4e6	0.13258705
28	0x3e47c956	0.19510397
29	0xbe031bb3	-0.12803535
30	0x3dd7606b	0.10516437
31	0xbec901e0	-0.39259243
32	0xbe15c0c5	-0.14624317
33	0x3f683334	0.9070313
34	0x3eb04e01	0.34434512
35	0xbe929d1d	-0.28635493
36	0x3ee9f79c	0.45696723
37	0xbf9753bb	-1.1822428
38	0x3fc10300	1.507904
39	0xbe8dc52a	-0.27689487
40	0x3e0cabb4	0.13737375
41	0xbf175fc4	-0.591305
42	0x3fa1b45f	1.263317
43	0xbe5cc8d6	-0.21560988
44	0x3f87778d	1.0583359
45	0x3ddb2df0	0.10702121
46	0xbc64522e	-0.013935609
47	0x3c948bf4	0.018133141
48	0x3e7783d0	0.24171376
49	0xbe72f4f4	-0.23726255
50	0xbf8b0aed	-1.0862709
51	0x3cae2411	0.021257432
52	0x3cadcde8	0.021216348
53	0xbe929f57	-0.28637192
54	0xbc65a4e1	-0.014016361
55	0x3f3346f2	0.7003013
56	0x3ba75db7	0.005107607
57	0x3e6e48a1	0.23269893
58	0x3f5cbb15	0.86222965
59	0xbec7ad58	-0.38999438
60	0xbf238a55	-0.6388295
61	0x3e84c07c	0.25928104
62	0x3e358f89	0.17730536
63	0xbe080460	-0.13282919
64	0x3e8e3b1e	0.27779478
65	0xbf0351c9	-0.5129667
66	0x3f20d50e	0.62825096
67	0xbeca0da0	-0.3946352
68	0xbe07153d	-0.13191696
69	0x3ee14396	0.43996876
70	0x3e736c79	0.23771848
71	0xbebc46db	-0.36772808
72	0x3e17e01d	0.14831586
73	0xbef6bf92	-0.48193032
74	0x3dc8f7b9	0.09812874
75	0xbd0f0585	-0.034917373
76	0xbe10ab11	-0.14127757
77	0x3eaa7cce	0.33298343
78	0x3d550a41	0.052011732
79	0xbf21a81b	-0.63147134
80	0x3e0302b2	0.12793997
81	0xbec61bcd	-0.38693085
82	0x3ebeec8d	0.3728985
83	0x3e79dfca	0.24401775
84	0x3dc97029	0.09835846
85	0x3f23b712	0.6395122
86	0xbe81d1c4	-0.2535535
87	0x3fae2533	1.3605102
88	0x3ec313c6	0.38101023
89	0xbdc9faf0	-0.09862316
90	0xbf8a0b61	-1.0784723
91	0xbede2afd	-0.43392172
92	0x3f165b53	0.587331
93	0x3f91fa0c	1.1404433
94	0x3ecb6c84	0.39731228
95	0xbfb2ffc6	-1.3984306
96	0xbe47a120	-0.19495058
97	0x3e5d5547	0.21614562
98	0x3ef1a260	0.47194195
99	0x3d57a731	0.05264968
100	0xbd692f73	-0.056930017
101	0xbc8aa7dd	-0.016925747
102	0x3f7f7786	0.99791753
103	0xbd7d3ab7	-0.061823573
104	0x3e82b060	0.25525188
105	0x3d36e796	0.04465445
106	0xbee2022f	-0.4414229
107	0x3f9f39b5	1.2439486
108	0x3f13a087	0.5766682
109	0xbf0ac37e	-0.5420455
110	0xbf02095c	-0.5079553
111	0x3f2c9cce	0.67426765
112	0xbe876901	-0.264473
113	0xbe2a48e0	-0.16629362
114	0x3f1eb13f	0.61989206
115	0xbe7dc0b0	-0.24780536
116	0x3f8cafc6	1.0991142
117	0xbc417ba7	-0.011809266
118	0xbc7f36cf	-0.015577032
119	0x3ed41d6c	0.41428697
120	0x3ef4eee9	0.47838524
121	0xbf8c768d	-1.0973679
122	0x3e9a96ad	0.30193081
123	0xbee4959f	-0.44645402
124	0xbdb8b34b	-0.090185724
125	0xbe6ee38f	-0.23328994
126	0x3dab943b	0.08377882
127	0xbde69171	-0.112582095
128	0x3e1b38b3	0.15158348
129	0xbe86e46a	-0.2634614
130	0x3e823dd8	0.25437808
131	0xbebd1ae9	-0.36934593
132	0xbe3b1c54	-0.18272525
133	0xbf35de09	-0.71041924
134	0xbe9e487d	-0.3091468
135	0x3f8f3339	1.1187507
136	0xbd82d24e	-0.06387769
137	0x3eb6c165	0.35694423
138	0xbfed33a2	-1.8531382
139	0xbf00f90d	-0.5038002
140	0x3ef35820	0.47528172
141	0x3e9a13a5	0.30093113
142	0x3f2a023c	0.6640966
143	0x3e9d397d	0.30707923
144	0x3f6f891f	0.93568605
145	0xbc77d686	-0.01512683
146	0xbe471f1c	-0.19445461
147	0x3ea725ac	0.3264593
148	0x4020c7d4	2.5121965
149	0xbf15d218	-0.585237
150	0xbebc27bb	-0.36749062
151	0x3d4a82f7	0.049441304
152	0xbf03c7d5	-0.51476794
153	0xc0101938	-2.2515392
154	0x3e5da801	0.2164612
155	0xbdb720e4	-0.0894182
156	0x3ea68041	0.32519725
157	0xbe4dfb07	-0.2011529
158	0xbe63e78c	-0.22256297
159	0xbe99024c	-0.29884565
160	0xbd67408a	-0.056458034
161	0x3ee08c7a	0.43857175
162	0xbecc51a3	-0.39906034
163	0xbdf3b6b2	-0.11900081
164	0xbe9060a5	-0.28198734
165	0xbed25fb3	-0.41088638
166	0xbe37872a	-0.17922655
167	0xbc225a1c	-0.009909179
168	0x3f02f204	0.51150537
169	0x3e885c43	0.2663289
170	0xbe1206b8	-0.14260375
171	0xbcb13554	-0.021631874
172	0xbe4c8dfb	-0.19976036
173	0xbec394a5	-0.38199344
174	0xbeb5de7e	-0.3552131
175	0x3e4707d3	0.19436578
176	0x3e87bf0d	0.26512948
177	0x3eacfe4b	0.3378776
178	0x3ed6d358	0.41958117
179	0x3f017a3d	0.50577146
180	0x3ef5ce08	0.48008752
181	0x3c0056ca	0.007833192
182	0x3f3cd5c1	0.7376366
183	0xbe5d4429	-0.21608032
184	0xbe133ee2	-0.14379457
185	0xbf0f73a2	-0.56035817
186	0x3e225607	0.1585313
187	0xbf9b9bf4	-1.2156968
188	0x4004fdf8	2.078001
189	0xbe152ba5	-0.1456743
190	0x3d8b5e01	0.06805039
191	0xbe8a1616	-0.26969975
192	0x3f9858c9	1.1902095
193	0x3ef50bca	0.47860557
194	0x3f1b4eee	0.6066731
195	0x3eca9004	0.39563
196	0xbe241df1	-0.16027047
197	0xbdf7fd7f	-0.121088974
198	0x3f106e18	0.5641799
199	0xbccdf0a0	-0.025139153
200	0x3e495c8f	0.19664215
201	0xbf161d76	-0.58638704
202	0xbb8ea8e6	-0.0043536304
203	0xbf089b01	-0.5336152
204	0x3e00c743	0.12576012
205	0x3d90dd9f	0.07073521
206	0xbf6b04a1	-0.9180394
207	0x3d281e40	0.041044474
208	0xbe1691cc	-0.14704055
209	0x3e764eac	0.24053448
210	0xbe0cb221	-0.13739826
211	0xbef6001b	-0.48046955
212	0xbe7cafa1	-0.24676372
213	0x3e7e1d87	0.24815951
214	0xbd973ad3	-0.07384267
215	0xbcf1186e	-0.029430594
216	0xbdf7e7b6	-0.12104742
217	0x3df07423	0.11740901
218	0xbdc2dd86	-0.095149085
219	0xbee6903a	-0.4503191
220	0x3e783c90	0.24241853
221	0x3f95aaa7	1.1692704
222	0x3f4326f6	0.76231325
223	0xbd802d11	-0.06258596
224	0xbe5cac49	-0.21550097
225	0xbfbc1418	-1.4693632
226	0x3c234316	0.009964725
227	0x3e8b70c5	0.27234474
228	0xbaea6592	-0.0017883054
229	0x3e65d5b4	0.22444803
230	0xbcb288d7	-0.021793766
231	0xbefaa2dc	-0.48952377
232	0xbe007b28	-0.1254698
233	0x3e32845f	0.17433308
234	0x3e959e10	0.29222155
235	0x3dc0f494	0.094216496
236	0x3e1425c3	0.1446753
237	0x3e9f8978	0.31159568
238	0x3e43980b	0.19100969
239	0xbe865ac7	-0.26241133
240	0xbe2ad816	-0.16683993
241	0xbe97c152	-0.2963968
242	0x3e94d076	0.29065293
243	0x3c5f9295	0.013645788
244	0x3ec37858	0.38177752
245	0x3e7b871d	0.2456326
246	0xbdba888f	-0.09108078
247	0xbe44cac2	-0.19217971
248	0x3f46f946	0.7772411
249	0x3e03bfb2	0.12866095
250	0x3d8c1613	0.06840148
251	0x3e8ed450	0.27896357
252	0x3d99e61a	0.075145915
253	0xbda67d66	-0.081293866
254	0xbd021e2c	-0.031767055
255	0x3d8bebcf	0.06832086

enc_gru1.bias_ih_l0 f4 [150]
0	0x3dcbad65	0.09945182
1	0xbe4b8c3b	-0.19877712
2	0x3fe6ea3e	1.8040235
3	0x3f28ac98	0.6588836
4	0xbf3b6f72	-0.7321693
5	0x3ec2ff88	0.3808558
6	0xbfa64140	-1.2988663
7	0xbfc5a04a	-1.5439541
8	0x3f835531	1.0260373
9	0xbd75d2c1	-0.060015444
10	0xbebcd466	-0.36880797
11	0x3c209e2b	0.009803335
12	0x3e4a9e33	0.1978691
13	0xbfe22eb8	-1.7670507
14	0x3f2ab9c2	0.66689694
15	0x3f4f1220	0.8088703
16	0x3f11d536	0.5696596
17	0xbe78708c	-0.24261683
18	0x3fab8a75	1.3401629
19	0x3df41ae1	0.11919189
20	0x3ee58a5a	0.44832116
21	0xbf8e4424	-1.1114545
22	0x3cad0a00	0.021122932
23	0x3f1a4f54	0.60277295
24	0xbdf80c09	-0.121116705
25	0xbff03f81	-1.876938
26	0x3f3d4634	0.73935246
27	0xbf1253c7	-0.57159084
28	0x3f298a2c	0.6622646
29	0xbf2fe4ab	-0.68708295
30	0x3d9b5117	0.07583826
31	0xbf2e4269	-0.68070084
32	0x3e9b551c	0.3033837
33	0x3ec44e34	0.38340914
34	0x3dc93158	0.09823865
35	0x3f89dde0	1.0770836
36	0x3e06e7ea	0.13174406
37	0xbf051078	-0.51978254
38	0xbead4643	-0.33842668
39	0xbf32fbb9	-0.6991535
40	0xbd1222e2	-0.035677798
41	0x3ea23ee0	0.31688595
42	0x3ebe3a20	0.3715372
43	0x3f26c28a	0.65140593
44	0xbf858d58	-1.043376
45	0x3d41b9c5	0.047296304
46	0xc023f0c1	-2.5615695
47	0xbf11ed79	-0.5700298
48	0xbfc7c115	-1.5605799
49	0xbf866501	-1.0499574
50	0x401a9360	2.415245
51	0xbfc7c326	-1.560643
52	0x4030c3f6	2.7619605
53	0x400da15c	2.2129736
54	0x401f3186	2.4873977
55	0x40617211	3.522587
56	0xbf930b39	-1.14878
57	0x3fc1a176	1.5127399
58	0x40136352	2.302937
59	0x4053255e	3.2991557
60	0x4017ed31	2.373852
61	0x405cf95b	3.4527194
62	0x4078e832	3.889172
63	0xc00099fa	-2.009398
64	0x3fcf3fb4	1.6191316
65	0x404b4355	3.1759846
66	0x3fe5ba6d	1.7947518
67	0x407e1be1	3.9704516
68	0x3fda2f12	1.7045615
69	0x402c42fa	2.691588
70	0x4004bd54	2.0740557
71	0x3fbbcec0	1.467247
72	0x3f8ecc31	1.1156064
73	0x401c3e22	2.4412923
74	0x40684fe3	3.629876
75	0xc02ca221	-2.6973956
76	0x403d1aea	2.9547677
77	0x40745220	3.8175125
78	0x402966a8	2.6468906
79	0x4075d267	3.840967
80	0x40338287	2.8048418
81	0x40133a53	2.3004348
82	0x40611148	3.5166798
83	0x40279955	2.6187336
84	0xbf73967a	-0.95151484
85	0x4011af7c	2.2763357
86	0x4071e349	3.7794974
87	0x4048fbc5	3.1403668
88	0x404a6b07	3.1627824
89	0xc0086e8c	-2.1317472
90	0x403609ee	2.844356
91	0x402df268	2.7179203
92	0x40258144	2.5860147
93	0x404eb407	3.229738
94	0x3fb2c559	1.3966476
95	0x3fe86bc2	1.8157885
96	0xc01cd7ec	-2.4506788
97	0x407e010c	3.968814
98	0x400ace63	2.1688468
99	0x4060b667	3.511133
100	0x3f3d2c36	0.73895586
101	0x3f540375	0.82817775
102	0xc0055dcc	-2.08385
103	0x3ffdb537	1.9820927
104	0xbfaa1335	-1.3287112
105	0x3f308417	0.68951553
106	0x3ea4aed4	0.32164633
107	0x3f4271c8	0.75954866
108	0x3f57fa23	0.84366053
109	0xbd7b95d0	-0.06142217
110	0x3ee3466b	0.44389662
111	0xbfd0d7bb	-1.6315836
112	0xbe34c16f	-0.17651914
113	0xbfefbc56	-1.872935
114	0xbf743c75	-0.9540475
115	0x3f563fcf	0.83691114
116	0xbed797f8	-0.4210813
117	0x3e706285	0.23475082
118	0xbf93a7e8	-1.1535616
119	0xbf7d8bcd	-0.99041444
120	0xbf979a8c	-1.1844039
121	0xbf0f1b46	-0.5590099
122	0xbfd7dff5	-1.6865221
123	0x3e4ac972	0.19803408
124	0x3ecb59de	0.39717
125	0x3e49ffcc	0.19726485
126	0xbf8ee7e4	-1.1164517
127	0xbe731bce	-0.23741075
128	0xbf6b1c59	-0.9184013
129	0xbf66fcbc	-0.9022939
130	0xbfb917e9	-1.4460422
131	0xbf23b829	-0.6395288
132	0xbf3716ce	-0.7151917
133	0xbe237651	-0.15963103
134	0xbf9444d0	-1.15835
135	0xc027940e	-2.6184115
136	0xbecd2ab5	-0.40071645
137	0x3fcd30b2	1.6030486
138	0xc00e5764	-2.224084
139	0xbfd5fe14	-1.6718163
140	0xbe5ba1b7	-0.21448408
141	0xbdeaf111	-0.11471761
142	0x3e098cce	0.13432619
143	0x3ee7ada0	0.45249653
144	0x3e7ded98	0.24797666
145	0xbfa56a20	-1.2923012
146	0x3ec1755f	0.3778486
147	0x3d3967ce	0.04526501
148	0x3f841dbf	1.0321578
149	0xbefe1e63	-0.49632558

enc_gru1.bias_hh_l0 f4 [150]
0	0x3e1cef0f	0.15325569
1	0xbebd3457	-0.36953995
2	0x3fe17aa5	1.7615553
3	0x3f2c49d7	0.6730017
4	0xbf3ecf67	-0.7453522
5	0x3eda64c4	0.42655003
6	0xbf8972d6	-1.073817
7	0xbfc1079b	-1.5080446
8	0x3f6b62be	0.91947544
9	0xbd0f3461	-0.03496206
10	0xbf0427e1	-0.5162335
11	0x3e1c2557	0.15248619
12	0x3c57ef19	0.013179564
13	0xbff2d028	-1.8969774
14	0x3f110734	0.56651616
15	0x3f532019	0.8247085
16	0x3f0577c9	0.521359
17	0xbe7a7a97	-0.24460827
18	0x3fab2070	1.3369274
19	0xbd981322	-0.07425524
20	0x3ec988e9	0.39362267
21	0xbf9225dd	-1.1417805
22	0xbdef4d96	-0.1168472
23	0x3f14bdb5	0.5810197
24	0xbdcf99af	-0.10136735
25	0xbfe34a1c	-1.7756991
26	0x3f4349ab	0.76284283
27	0xbf0dd5dd	-0.55404454
28	0x3f50860a	0.8145453
29	0xbf4bfeaf	-0.7968549
30	0x3e16bdcc	0.1472084
31	0xbf31f30e	-0.695115
32	0x3ea4b94e	0.32172626
33	0x3eb83643	0.35978898
34	0x3e87463b	0.2642077
35	0x3f93507c	1.1508937
36	0x3e2fad7e	0.17156026
37	0xbec0aceb	-0.37631926
38	0xbea26f94	-0.31725752
39	0xbf42bd67	-0.76070255
40	0x3e0d39dd	0.13791604
41	0x3ef54946	0.47907466
42	0x3e6a73b6	0.22895703
43	0x3f2805ef	0.65634054
44	0xbf9164c3	-1.1358875
45	0x3e89b24f	0.2689385
46	0xc022c846	-2.5434737
47	0xbed88161	-0.42286208
48	0xbfddacd0	-1.7318363
49	0xbf525b67	-0.8217072
50	0x402a4cd4	2.6609392
51	0xbfd3dfb2	-1.6552641
52	0x40246e5c	2.5692358
53	0x40105271	2.2550318
54	0x40209bde	2.5095134
55	0x40631aac	3.548503
56	0xbf8f9ca6	-1.121968
57	0x3fcbd307	1.5923775
58	0x4007297f	2.1119077
59	0x405d65ef	3.4593465
60	0x40101ec4	2.2518778
61	0x405c23aa	3.4396768
62	0x4078aea3	3.885659
63	0xc0023b37	-2.0348642
64	0x3fc2b867	1.5212525
65	0x4055ab21	3.3385699
66	0x3ff79293	1.9341606
67	0x407a87b2	3.9145322
68	0x3fd8ab52	1.6927283
69	0x402dd09e	2.715858
70	0x40005f6d	2.0058243
71	0x3fce0615	1.6095606
72	0x3fa9c4db	1.32632
73	0x4021143e	2.5168605
74	0x406433b2	3.5656552
75	0xc029168a	-2.6420007
76	0x403bd11b	2.9346378
77	0x407ffd7b	3.9998462
78	0x4035a9ee	2.8384967
79	0x40708fea	3.7587838
80	0x402d0b34	2.7038088
81	0x4013f4fb	2.3118274
82	0x405e4acc	3.4733152
83	0x40243d5a	2.5662446
84	0xbf6251a7	-0.8840584
85	0x400bcb68	2.18429
86	0x406ef951	3.733967
87	0x4046b0da	3.1045442
88	0x404c2dc6	3.1902938
89	0xc01140ec	-2.2695875
90	0x40396bd7	2.897207
91	0x40369554	2.8528643
92	0x401800f7	2.375059
93	0x404b8430	3.179943
94	0x3fac7daf	1.3475856
95	0x3fe46c15	1.7845484
96	0xc027dc02	-2.6228032
97	0x407bf492	3.9368024
98	0x400a09be	2.1568446
99	0x4063b032	3.557629
100	0x4015f6ee	2.3431964
101	0xc0117979	-2.273039
102	0xc02df90a	-2.7183251
103	0x3fdc3bbb	1.7205728
104	0xbf4a394e	-0.7899369
105	0x3d9fbd3e	0.07799767
106	0x3d4a3268	0.049364477
107	0x3f9722c1	1.1807481
108	0x3f2e80cb	0.6816527
109	0x3f34fc45	0.7069743
110	0x3fbd4b08	1.4788523
111	0xbf93e543	-1.155434
112	0xbdcfc81f	-0.10145592
113	0xbecf3a2e	-0.40474075
114	0xc02589a4	-2.586526
115	0x3f248f4f	0.6428117
116	0xc01275b2	-2.2884336
117	0xbe34c3f4	-0.17652875
118	0xbf835be5	-1.0262419
119	0xbf805dff	-1.0028685
120	0xc030c54c	-2.762042
121	0x3e751904	0.23935324
122	0xbf55d718	-0.8353133
123	0x3d1243f2	0.03570933
124	0x3eee8853	0.46588382
125	0x3db86ca9	0.090051
126	0xbf896abd	-1.0735699
127	0xbef2ee03	-0.47447214
128	0xbf3e78fd	-0.74403363
129	0xbf0a4631	-0.54013354
130	0xbfe5608f	-1.7920092
131	0xc0025db4	-2.0369692
132	0xbec1db8e	-0.3786282
133	0xbe15f86f	-0.14645551
134	0xbfab10d4	-1.336451
135	0xc054bcde	-3.3240275
136	0xbe8f430b	-0.27980837
137	0x3e7a4fc0	0.24444485
138	0xbf49ca3f	-0.7882423
139	0xbe95b838	-0.2924211
140	0xbe8ffbf5	-0.28121915
141	0xbf23df1e	-0.64012325
142	0x3f1d1b57	0.6136984
143	0x3e9893e3	0.2980033
144	0x3f68049c	0.90632033
145	0xbf29d907	-0.6634678
146	0x3c58ebd8	0.013239823
147	0x3c777aa0	0.01510492
148	0xbfe3367a	-1.7751
149	0xbdd2a48c	-0.10285291

enc_gru1.weight_ih_l1 f4 [150, 50]
0	0x3f0f1eef	0.55906576
1	0x3e45ac35	0.19303973
2	0xbe49f696	-0.19722971
3	0x3ec3a7c2	0.38213927
4	0x3ecf3657	0.40471146
5	0x3e09fe97	0.13476025
6	0x3ec924de	0.3928594
7	0x3e208389	0.15675177
8	0xbe011453	-0.1260541
9	0x3e29b599	0.1657318
10	0x3f205d85	0.626427
11	0xbe7c07ed	-0.24612398
12	0xbdd7596d	-0.105151035
13	0xbeace957	-0.33771774
14	0xbfd8abf2	-1.6927474
15	0xbe5dd71a	-0.21664086
16	0x3ce53f57	0.027984304
17	0x3e457665	0.19283445
18	0x3eb9471a	0.3618706
19	0xbe232b46	-0.15934476
20	0xbde3608d	-0.111024
21	0xbe55c552	-0.20876053
22	0xbe988237	-0.29786846
23	0xbf618470	-0.8809271
24	0xbe199662	-0.14998773
25	0x3f0860fe	0.53273
26	0x3d498f35	0.04920884
27	0x3d97685e	0.07392953
28	0x3e85c1a2	0.26124293
29	0x3e9ffa7b	0.3124579
30	0x3eaa5639	0.33268908
31	0x3f222e67	0.63352054
32	0x3e6008fb	0.21878426
33	0xbe582390	-0.21107316
34	0xbfeb43b4	-1.8380036
35	0x3e0e07c4	0.1387015
36	0x3c793bd8	0.015212022
37	0x3e90b503	0.282631
38	0xbec42f5b	-0.3831738
39	0x3e671049	0.22564806
40	0x3db73932	0.08946456
41	0x3e96f0f4	0.29480708
42	0xbefc51bb	-0.49281105
43	0xbda14d39	-0.07876057
44	0xbd8ca240	-0.06866884
45	0xbf07f75d	-0.5311182
46	0xbcb98050	-0.022644192
47	0xbd6db7a9	-0.05803648
48	0xbd4ea5be	-0.050451033
49	0xbe83ef63	-0.25768575
50	0x3e4fd9b5	0.20297892
51	0x3da3763d	0.079815365
52	0xbe28ad71	-0.16472413
53	0x3f1caeb7	0.61204094
54	0xbe4b3d42	-0.19847587
55	0xbecdd07e	-0.4019813
56	0xbe5e5e2f	-0.21715616
57	0xbf0133e5	-0.5046981
58	0xbf6f2c7c	-0.9342725
59	0x3e6dff1a	0.23241845
60	0x3f032154	0.5122273
61	0x3ec0e72b	0.37676367
62	0xbee08bad	-0.43856564
63	0x3dd1545c	0.102211684
64	0x3d8568a3	0.065140985
65	0x3f28a214	0.6587231
66	0x3ee31787	0.44353887
67	0x3de577b6	0.11204474
68	0xbe9a5571	-0.30143312
69	0x3d0cf6ff	0.03441524
70	0x3ce635b3	0.028101778
71	0x3f1d34d3	0.6140873
72	0x3ed6721b	0.4188393
73	0x3ecbd4db	0.39810833
74	0xbeac0e6b	-0.3360475
75	0x3e4a0cd1	0.19731452
76	0xbf6c043d	-0.9219397
77	0x3f0ab3d6	0.5418066
78	0xbeaf81d4	-0.34278738
79	0x3e8af23c	0.27137935
80	0x3d5b5367	0.053546336
81	0x3f463e6c	0.77439
82	0xbef1fb13	-0.47261867
83	0xbf504a96	-0.8136381
84	0xbec58078	-0.38574576
85	0xbe1942e0	-0.14966917
86	0x3ed0e2c0	0.40797997
87	0x3ebc07de	0.36724752
88	0x3ebc37bf	0.3676128
89	0x3e85a913	0.26105556
90	0xbf311a26	-0.69180524
91	0xbe87a91b	-0.26496205
92	0xbf084b1c	-0.5323961
93	0xbe9697b4	-0.29412615
94	0xbf06ba56	-0.52628076
95	0x3f3cc9d1	0.7374545
96	0x3ceb9d5b	0.028761556
97	0xbe080f3f	-0.13287066
98	0xbe728ddb	-0.23686926
99	0xbf6e39c6	-0.93056905
100	0x3eefc18a	0.46827346
101	0xb88553f9	-6.357575e-05
102	0xbda7896e	-0.081805095
103	0x3e7a6e90	0.24456239
104	0x3de4764f	0.11155378
105	0x3e0b20f8	0.13586795
106	0x3d0bb5b9	0.03410885
107	0x3ed3e527	0.41385767
108	0xbe71abf3	-0.2360075
109	0xbb6317e3	-0.0034651689
110	0x3ee49b04	0.44649518
111	0xbe20a5ad	-0.156882
112	0xbe90d8eb	-0.28290495
113	0xbef31d69	-0.47483376
114	0xbe489339	-0.19587411
115	0x3cb4a4de	0.022051271
116	0xbec2ce82	-0.38048178
117	0x3d2c3957	0.04204687
118	0x3ec88048	0.3916037
119	0x3cc8d8eb	0.024517497
120	0x3e8e404a	0.27783424
121	0x3e7ebc23	0.24876456
122	0xbeb41c8e	-0.35178035
123	0xbef55352	-0.4791513
124	0xbe0f2d0d	-0.1398203
125	0xbedbc389	-0.4292262
126	0x3d64fecb	0.055907052
127	0x3e0c590d	0.13705845
128	0x3dbaeaba	0.09126802
129	0x3e811fa6	0.25219458
130	0x3ea81d21	0.32834724
131	0x3e40be01	0.1882248
132	0x3df37cd5	0.11889044
133	0xbd43bcb5	-0.047787387
134	0xbf713a99	-0.9423004
135	0xbcb34768	-0.021884635
136	0xbe47f379	-0.19526471
137	0x3e992f1b	0.2991875
138	0xbe69fc3e	-0.22850129
139	0xbed3b246	-0.4134695
140	0xbe0c8615	-0.13723023
141	0x3dbf20ba	0.09332414
142	0xbe4aedce	-0.19817278
143	0x3e10f134	0.14154512
144	0x3eaffe96	0.3437392
145	0xbe356a25	-0.17716272
146	0xbdcacc3f	-0.09902238
147	0xbc944621	-0.018099846
148	0xbeb4dff6	-0.3532712
149	0xbd5ce670	-0.0539307
150	0x3f4050c5	0.75123245
151	0xbea1fd5a	-0.31638604
152	0x3f7f1030	0.99634075
153	0x3e80f084	0.251835
154	0x3e28e23d	0.16492553
155	0xbe48e448	-0.19618332
156	0xbdc2aeaf	-0.095059745
157	0x3ec6d712	0.3883596
158	0xbf2efded	-0.6835621
159	0x3f08f3a4	0.53496766
160	0x3f7c5ee2	0.9858228
161	0x3e74af13	0.2389491
162	0xbe5d74ce	-0.21626589
163	0xbf79e0ab	-0.9760844
164	0x3c8ee0d2	0.017441187
165	0xbe051947	-0.12997924
166	0xbe42ebec	-0.1903531
167	0x3ebca5d4	0.36845267
168	0x3e542b2e	0.20719597
169	0x3d0df3f6	0.034656487
170	0x3e924058	0.28564715
171	0xbdf0d685	-0.11759666
172	0xbe55348e	-0.2082083
173	0xbeae145d	-0.3399991
174	0xbed1af7d	-0.409542
175	0xbf6fc981	-0.93666846
176	0x3cd67290	0.026177675
177	0x3e299589	0.1656095
178	0x3e835c29	0.2565625
179	0xbdc8d6ef	-0.0980662
180	0x3ed12a91	0.40852788
181	0x3ed3f86b	0.41400465
182	0x3d8ea75d	0.06965516
183	0xbee4ae4b	-0.44664225
184	0xbecadf71	-0.39623597
185	0x3f5526e3	0.8326246
186	0x3eaf949e	0.34293073
187	0x3dccfb21	0.100088365
188	0x3d631548	0.055440217
189	0xbf32721a	-0.69705355
190	0xbc156ac5	-0.009119694
191	0x3d466cc0	0.048443556
192	0x3c4a8dcf	0.012362911
193	0xbe967b1f	-0.2939081
194	0x3f255255	0.64578754
195	0x3ec25e8d	0.37962762
196	0xbee79cb9	-0.45236757
197	0xbe365e21	-0.17809345
198	0xbe903783	-0.28167352
199	0xbe4a695d	-0.19766755
200	0xbe5e97f8	-0.21737659
201	0x3e3ff823	0.18747
202	0x3dd61d8f	0.104548566
203	0xbdc7014e	-0.09717046
204	0x3de1538c	0.110022634
205	0xbdad8217	-0.08472078
206	0x3dcce698	0.1000492
207	0x3e1f80e8	0.15576518
208	0x3bd48c3d	0.0064864443
209	0xbe0d7142	-0.13812736
210	0xbbbca14b	-0.0057565323
211	0xbc03e25c	-0.008049574
212	0x3c114373	0.008866179
213	0x3c852dca	0.016257185
214	0xbd368a86	-0.0445657
215	0x3d898853	0.06715455
216	0x3e2b765d	0.16744371
217	0xbd87bafc	-0.06627461
218	0x3e363362	0.17793038
219	0xbe3b8a1e	-0.18314406
220	0x3dd491de	0.103793845
221	0x3c9c70c6	0.019096743
222	0x3dd17dd8	0.10229081
223	0xbd81f9f7	-0.06346505
224	0x3d9f33f2	0.0777358
225	0xbd2ae55d	-0.041722644
226	0xbd6692c4	-0.05629231
227	0xbdb213f6	-0.086952135
228	0xbd8caf11	-0.06869329
229	0xbd09c4e6	-0.033635043
230	0x3e0fbd92	0.14037159
231	0x3df0cdc3	0.11757996
232	0x3d3d0c36	0.046154223
233	0x3d22dd3a	0.03976176
234	0xbd2a7b7c	-0.04162167
235	0xbdaec798	-0.08534163
236	0x3daad214	0.083408505
237	0xbd78fd08	-0.060788184
238	0x3e1dd00f	0.154114
239	0xbcfc4e40	-0.030799031
240	0xbcc611f7	-0.024178488
241	0xbe6ca406	-0.23109445
242	0xbc852885	-0.016254673
243	0x3dfa62e0	0.1222589
244	0xbd0efaaf	-0.03490704
245	0x3dbb1822	0.09135462
246	0xbe122f10	-0.14275765
247	0x3db6a614	0.08918396
248	0x3ddb2d57	0.10702007
249	0x3deaf415	0.11472336
250	0x3d0b69f2	0.034036584
251	0xbbc7a9f6	-0.006093259
252	0xbda20b48	-0.07912308
253	0xbd2bf25a	-0.04197917
254	0x3e785b23	0.24253516
255	0x3da98e84	0.08279136

enc_gru1.weight_hh_l1 f4 [150, 50]
0	0x3b4bdf30	0.0031108372
1	0x3f40e819	0.7535415
2	0x3e7d8a0c	0.24759692
3	0x3d3d309e	0.046188943
4	0x3d7c9687	0.06166699
5	0xbe3a04d1	-0.181659
6	0xbed94dee	-0.42442268
7	0x3e2c0e6c	0.16802377
8	0x3e8640b7	0.26221249
9	0xbe53d96f	-0.20688413
10	0x3c1214b3	0.008916068
11	0xbe306faa	-0.17230096
12	0x3e9d221d	0.3069009
13	0xbe4bfa2e	-0.19919655
14	0xbed1ac87	-0.4095194
15	0x3f1c4bb2	0.61053
16	0xbdcbc887	-0.09950357
17	0xbe0f5888	-0.13998616
18	0x3db71d33	0.08941116
19	0x3e2372c2	0.15961745
20	0xbdab1269	-0.08353121
21	0xbee1783c	-0.44037044
22	0x3ecb620c	0.3972324
23	0xbdbb87d3	-0.09156766
24	0x3e85a903	0.26105508
25	0xbea1a126	-0.3156826
26	0xbd8d29ce	-0.06892739
27	0xbc25475c	-0.010087814
28	0x3dc2966c	0.09501347
29	0x3d4781a6	0.048707627
30	0xbd90664d	-0.07050762
31	0x3ca09509	0.019602316
32	0xbea98ba4	-0.3311435
33	0x3d2aadcb	0.04166965
34	0x3d00db19	0.031458948
35	0xbe8343fc	-0.25637805
36	0x3f2df1f2	0.67947304
37	0x3ea6976c	0.325374
38	0xbe0e8293	-0.13916998
39	0xbd3d2772	-0.046180196
40	0x3e99392b	0.29926428
41	0x3d9fbcd5	0.07799689
42	0x3c940a93	0.018071448
43	0xbf952d46	-1.1654441
44	0x3db5d291	0.08878053
45	0xbe8b19e0	-0.2716818
46	0x3e048d0c	0.1294443
47	0x3e84cdec	0.25938356
48	0x3e4d489d	0.20047231
49	0xbed98498	-0.42483974
50	0xbf75acc6	-0.95966756
51	0x3de2ae9f	0.110684626
52	0xbdb1f8fc	-0.08690068
53	0x3ea245ed	0.31693974
54	0x3d50447e	0.05084657
55	0x3e055d95	0.1302398
56	0x3dc5180b	0.096237265
57	0xbdce38c8	-0.10069424
58	0x3e3d2bef	0.1847379
59	0x3df134b8	0.117776334
60	0xbde0b280	-0.10971546
61	0x3c306959	0.010767304
62	0xbf744b93	-0.9542782
63	0x3b62045f	0.0034487469
64	0x3e7481ca	0.23877636
65	0xbebe8ae7	-0.3721535
66	0xbe3a75c5	-0.18208988
67	0xbc8e6741	-0.01738322
68	0x3d4fac01	0.050701145
69	0xbd99ab7d	-0.07503412
70	0xbdf9b7ce	-0.12193261
71	0x3dc1e94e	0.094683275
72	0x3e3aa3ee	0.18226597
73	0x3db2ee4a	0.08736856
74	0xbd0276a9	-0.031851444
75	0x3f1af575	0.6053079
76	0xbde03c41	-0.109489925
77	0x3dcbb439	0.09946484
78	0xbdd67bfa	-0.104728654
79	0x3ca3d57a	0.019999254
80	0x3e3c1cbe	0.1837034
81	0x3e634791	0.22195269
82	0xbd3b7d7a	-0.04577396
83	0x3dec6627	0.115429215
84	0xbc77711d	-0.015102652
85	0xbd5facc2	-0.054608114
86	0xbdc14120	-0.0943625
87	0x3f0f829e	0.5605868
88	0xbc5b5a8c	-0.013388287
89	0x3dbeea0d	0.093219854
90	0xbf121b88	-0.5707326
91	0x3e3fd6a6	0.18734226
92	0x3d216b7d	0.03940915
93	0xbf193a0b	-0.5985419
94	0x3d2dbe2c	0.04241769
95	0xbca9dbb4	-0.020734645
96	0x3ead3786	0.33831424
97	0xbd27f924	-0.041009083
98	0x3ddba442	0.10724689
99	0xbf1d0f91	-0.6135188
100	0xbd82fc3e	-0.06395768
101	0x3de38413	0.111091755
102	0x3db3e6ca	0.08784254
103	0xbc9e4c3f	-0.019323466
104	0x3e26325e	0.16230151
105	0xbe68d8ab	-0.22738902
106	0x3cd4d710	0.025981456
107	0x3d89540e	0.06705485
108	0xbd1095cb	-0.035299104
109	0x3d684c83	0.056713592
110	0x3dd120e3	0.10211351
111	0xbce04308	-0.027375713
112	0xbe050aef	-0.12992452
113	0xbdcd4896	-0.1002361
114	0xbec15a22	-0.37764078
115	0xbd808072	-0.06274499
116	0xbca1b861	-0.019741239
117	0xbd4e5086	-0.050369762
118	0x3cee8dc7	0.02912034
119	0x3e364471	0.17799546
120	0x3cb927dd	0.022602016
121	0x3dbdbee2	0.09264924
122	0x3e0ad60d	0.13558216
123	0xbd0f5cfb	-0.035000782
124	0x3e4d4e95	0.20049508
125	0x3d4bdee0	0.049773097
126	0x3e3eb1ad	0.18622465
127	0xba87a196	-0.0010347839
128	0xbc9dedef	-0.019278495
129	0x3ddd18b8	0.1079573
130	0x3e2d2249	0.1690761
131	0x3db83f54	0.08996454
132	0xbde53403	-0.11191561
133	0x3e58c17b	0.21167557
134	0xbe0c8330	-0.13721919
135	0xbd67bdd0	-0.056577504
136	0x3e997f6d	0.2998003
137	0xbeb979f5	-0.36225858
138	0xbdea2aea	-0.114339665
139	0xbe55c77c	-0.20876878
140	0x3e5c3fa6	0.21508655
141	0x3d6380de	0.05554282
142	0xbd579cfb	-0.052639943
143	0xbe1a3209	-0.1505815
144	0xbd3469bf	-0.04404616
145	0xbe9b10fe	-0.30286402
146	0xbdc1b897	-0.09459036
147	0x3e15066d	0.14553232
148	0x3e779436	0.24177632
149	0x3e8cf0e0	0.27527523
150	0x3e9b9cbb	0.30393013
151	0x3f5a3350	0.85234547
152	0x3f424917	0.75892776
153	0x3c477202	0.012173178
154	0x3ede4206	0.43409747
155	0xbf2c0fd7	-0.6721167
156	0xbf87ebb2	-1.0618804
157	0x3e9ae849	0.30255345
158	0x3fc627f6	1.5480945
159	0x3f035721	0.51304823
160	0x3e2822aa	0.16419473
161	0x3d7fc61f	0.062444802
162	0x3ee1ebf2	0.44125324
163	0xbf0595e1	-0.5218182
164	0xbf5aceeb	-0.8547198
165	0x3fab8922	1.3401225
166	0xbe5241fc	-0.20532984
167	0xbd48325c	-0.04887615
168	0x3d96d0f5	0.07364074
169	0x3f53ed6d	0.8278416
170	0xbe0eb3f9	-0.13935842
171	0xbf87cfd2	-1.0610297
172	0x3e70c978	0.23514354
173	0x3dd20d26	0.10256414
174	0x3f14a2e4	0.5806105
175	0xbefa7900	-0.4892044
176	0xbd78f7b9	-0.06078312
177	0x3b3f60ce	0.0029201987
178	0x3eb6eae0	0.3572607
179	0x3d10b176	0.03532549
180	0xbf8e943e	-1.113899
181	0x3bd9d19d	0.0066473023
182	0xbf2ddd63	-0.67915934
183	0xbcb4ce63	-0.02207107
184	0x3d6ba6d9	0.057532165
185	0xbecadb17	-0.39620277
186	0x3e7fb10f	0.24969886
187	0xbfd81834	-1.6882386
188	0xbe8af7da	-0.2714222
189	0xbf12093e	-0.5704535
190	0x3f8dccf5	1.1078173
191	0x3e16d6e1	0.14730407
192	0xbe2a9800	-0.16659546
193	0x3f48b07f	0.7839431
194	0x3dcfc438	0.10144848
195	0xbeee6982	-0.4656487
196	0xbee0c4d3	-0.43900165
197	0x3f86cb89	1.0530864
198	0x3f8a7b73	1.0818924
199	0x3fb127f6	1.384032
200	0x3c4128b0	0.011789486
201	0x3dfc71e4	0.123264104
202	0x3e4e3798	0.20138395
203	0xbe64d11f	-0.22345398
204	0x3dbdf6cb	0.09275588
205	0xbe8a3db2	-0.27000195
206	0x3cd1fca7	0.02563317
207	0x3dcc29a2	0.09968878
208	0xbd0efae6	-0.034907244
209	0x3e0bb6bb	0.13643925
210	0x3ba9dd2d	0.005183837
211	0xbe00e1ad	-0.12586088
212	0x3dea71e0	0.11447501
213	0xbdad6698	-0.08466834
214	0x3d34f6d0	0.04418069
215	0x3dc5256e	0.0962628
216	0x3c386189	0.011253723
217	0x3d1728d4	0.03690417
218	0x3e1f33f2	0.1554716
219	0xbd0abacd	-0.033869553
220	0x3cb55aa5	0.02213795
221	0xbdc7e97b	-0.0976133
222	0x3e008983	0.12552457
223	0xbda5dd56	-0.08098857
224	0x3e5317d3	0.20614557
225	0x3d24674f	0.040137585
226	0xbe4df2b1	-0.2011211
227	0xbe379134	-0.17926484
228	0xbd7afa05	-0.061273593
229	0x3d206292	0.039156504
230	0x3d55906d	0.05213969
231	0x3cc57eae	0.024108257
232	0xbe56f498	-0.20991743
233	0x3d79f732	0.06102676
234	0x3e134314	0.14381057
235	0xbc48a7f7	-0.012247077
236	0x3d1304d5	0.03589328
237	0xbde990b2	-0.114045516
238	0xbdad6273	-0.08466043
239	0x3dd31daa	0.10308392
240	0x3e91f80e	0.28509563
241	0x3b2a76d5	0.002601077
242	0xbdf85f4f	-0.12127554
243	0xbc4cb359	-0.012493932
244	0x3e18bc11	0.14915492
245	0xbd99e6a6	-0.07514696
246	0xbd874ce0	-0.066064596
247	0x3e3d7f2c	0.18505543
248	0xbd6ce7dc	-0.057838306
249	0x3eb40244	0.3515798
250	0x3c52bb26	0.0128620025
251	0x3cc474ed	0.023981536
252	0x3df6b1d2	0.12045635
253	0xbe9f718f	-0.31141326
254	0xbc1d1ac5	-0.009588902
255	0xbe3d841d	-0.18507428

enc_gru1.bias_ih_l1 f4 [150]
0	0x3e2f65d2	0.17128685
1	0xbe5f7f96	-0.21826014
2	0xbe2b2bd5	-0.1671594
3	0x3e103a3b	0.14084713
4	0xbe7e9c9f	-0.24864434
5	0xbd49ebf9	-0.049297307
6	0x3f09908c	0.53736186
7	0xbe8ff8fd	-0.2811965
8	0xbf623f70	-0.8837805
9	0xbf49f5ba	-0.78890574
10	0xbeae1d0f	-0.34006545
11	0x3cfd8107	0.030945314
12	0xbf4350e0	-0.7629528
13	0xbe12a92c	-0.14322346
14	0x3dff6fbc	0.124724835
15	0xbe8f3daa	-0.27976733
16	0xbd2d19c9	-0.04226092
17	0xbe98a6bf	-0.29814717
18	0x3a04b413	0.00050622335
19	0x3d9ad935	0.0756096
20	0xbe7e8e7e	-0.24859044
21	0x3e8e8f42	0.27843672
22	0x3f86b41e	1.0523717
23	0xbe8d4037	-0.27588055
24	0x3bdb956d	0.0067011626
25	0x3d7e8acb	0.062144082
26	0x3ea660b3	0.3249565
27	0xbbd7e4a5	-0.006588536
28	0x3ec0a591	0.37626317
29	0xbcfa6a27	-0.030568196
30	0xbe0a52bd	-0.13508125
31	0x3e8fbf0b	0.28075442
32	0xbe496869	-0.19668736
33	0xbdc4da1e	-0.09611915
34	0xbe303b18	-0.17210042
35	0xbdeee509	-0.11664779
36	0xbe30b6a4	-0.17257172
37	0xbfc4ac2a	-1.536504
38	0xbe7bca0e	-0.24588796
39	0xbe9b2c3a	-0.3030718
40	0x3f1934b9	0.59846073
41	0xbf60f9de	-0.8788127
42	0xbe141d87	-0.14464389
43	0xbf1348dc	-0.5753305
44	0x3dd35d8e	0.103205785
45	0xbe11d389	-0.1424085
46	0xbfa4c3c2	-1.287224
47	0xbea97be7	-0.33102342
48	0xbe8f2e68	-0.27965093
49	0xbf801262	-1.000561
50	0x403e9c14	2.9782763
51	0xbf989c4b	-1.1922697
52	0x40635789	3.5522177
53	0x40560714	3.344182
54	0x40648c47	3.5710618
55	0x406fd266	3.7472167
56	0x401c048c	2.4377775
57	0x405b38c2	3.4253392
58	0x400cf141	2.202225
59	0x402dd17f	2.7159116
60	0x4067f895	3.6245472
61	0x406aa05a	3.666037
62	0x4015c0c4	2.3398905
63	0x405ed2ad	3.4816086
64	0x406c4412	3.6916547
65	0x3ff1dc3c	1.8895335
66	0x40634b51	3.551472
67	0x4063f30a	3.561709
68	0x40618689	3.5238364
69	0x406bd04d	3.6845887
70	0x406c8d03	3.6961067
71	0xbfd09713	-1.6296104
72	0x3fbad5e7	1.4596528
73	0x4059fd50	3.406086
74	0x40628d85	3.5398877
75	0x3fd1f33b	1.6402353
76	0x40614d2f	3.520336
77	0x406c1db5	3.6893132
78	0x405fa4d3	3.494435
79	0x4066d009	3.6064475
80	0x3ef632cb	0.48085627
81	0x4056296e	3.3462787
82	0x405db7db	3.4643466
83	0x406110a7	3.5166414
84	0x406525ab	3.580424
85	0x40674b43	3.6139686
86	0x3ffbf2d9	1.9683486
87	0x3ff1c37f	1.8887786
88	0x4075c317	3.8400323
89	0x406eb2ad	3.7296555
90	0x403d40d5	2.957082
91	0x400ec943	2.231034
92	0x40636770	3.5531883
93	0x40360273	2.8438995
94	0x40659afc	3.5875845
95	0x406d3abf	3.7067106
96	0xbfd7fa57	-1.6873273
97	0x3fc875e3	1.5660976
98	0x4006c3dd	2.1057045
99	0x3ffee2aa	1.9912922
100	0xbe10825b	-0.14112227
101	0x3f144304	0.5791476
102	0xbda3c83e	-0.079971775
103	0xbef5019e	-0.47852796
104	0xbca80fa1	-0.020515265
105	0x3ddbfd10	0.10741627
106	0x3eeffc0e	0.4687199
107	0xbbfa81f5	-0.0076448866
108	0xbf840a92	-1.0315726
109	0x3f3cfd09	0.738236
110	0xbd1ae619	-0.037817094
111	0x3df2f72d	0.11863551
112	0x3e89d7a9	0.26922348
113	0x3ba13047	0.004919085
114	0xbe4222c0	-0.18958569
115	0xbf4d2562	-0.80135167
116	0x3cfd63b7	0.030931337
117	0x3c1f2842	0.009714188
118	0x3e4a3634	0.1974724
119	0xbbd6df40	-0.006557375
120	0x3df69c03	0.120414756
121	0x3fb8c072	1.443373
122	0x3fcb93f7	1.590453
123	0xbc4407d3	-0.011964756
124	0x3c802a26	0.015645098
125	0xbef50fc7	-0.478636
126	0xbe0f3123	-0.13983588
127	0xbca758f7	-0.020428164
128	0xbea792ff	-0.32729337
129	0x3c5d06ee	0.013490422
130	0x3f17fa6c	0.5936649
131	0xbe7e9b8a	-0.24864021
132	0x3c0ec618	0.008714221
133	0xbd7e8e1f	-0.062147256
134	0x3c93a78b	0.018024227
135	0xbde722cf	-0.11285936
136	0x3eecf0f7	0.46277592
137	0xbf8bfe4d	-1.0936981
138	0xbd9afc93	-0.07567706
139	0x3e2ef610	0.17086053
140	0x3f33d909	0.70253044
141	0xbf19aee9	-0.60032517
142	0xbdb466e5	-0.08808688
143	0x3faa9085	1.3325354
144	0xbca1f3ae	-0.019769516
145	0xbc1852f3	-0.00929712
146	0xbfb8ffd4	-1.4453073
147	0xbfd8e8a8	-1.6946001
148	0xbf74fb70	-0.95696163
149	0xbda4b25e	-0.08041833

enc_gru1.bias_hh_l1 f4 [150]
0	0x3dad7ec8	0.08471447
1	0xbe14db67	-0.1453682
2	0x3d44f894	0.048088625
3	0x3db2ad77	0.08724492
4	0xbe77fbdf	-0.24217175
5	0xbe71d564	-0.23616558
6	0x3eaaeda4	0.3338443
7	0xbdaf38bc	-0.08555743
8	0xbf5fa966	-0.87367857
9	0xbf2a6ece	-0.66575325
10	0xbe1d3104	-0.15350729
11	0xbd47cba7	-0.048778202
12	0xbf15b893	-0.5848476
13	0xbdae2205	-0.085025825
14	0x3e0c5277	0.13703333
15	0xbe51de90	-0.20495057
16	0xbd9f74e2	-0.077859655
17	0xbe898e03	-0.2686616
18	0x3dad3c36	0.0845875
19	0xbb80cf0a	-0.003930931
20	0xbbabd725	-0.005244153
21	0x3eab2f95	0.3343474
22	0x3f75f677	0.960792
23	0xbdf5ae6b	-0.11996158
24	0xbdbdc5f3	-0.092662714
25	0xbcd1a55c	-0.025591545
26	0x3e96233d	0.2932376
27	0xbe833176	-0.25623673
28	0x3eb35509	0.35025814
29	0xbd0be277	-0.03415152
30	0xbe5fdcc4	-0.21861559
31	0x3e8ed40c	0.27896154
32	0xbe716e53	-0.23577242
33	0xbdc40a8b	-0.095723234
34	0xbda71bae	-0.08159576
35	0x3cb7c972	0.022434924
36	0xbdb64d06	-0.0890141
37	0xbfc45c25	-1.534062
38	0xbe78cddd	-0.2429728
39	0xbe9b3ad5	-0.30318323
40	0x3f1641f5	0.5869439
41	0xbf37ad6b	-0.7174899
42	0xbd2e5386	-0.042560123
43	0xbf29c41a	-0.6631485
44	0x3d32a13c	0.043610796
45	0xbbe37f13	-0.0069426387
46	0xbfa9f6fb	-1.3278497
47	0xbe9b1ebc	-0.30296886
48	0xbece2303	-0.40261087
49	0xbf830416	-1.0235622
50	0x4044d88e	3.0757174
51	0xbf8c5fe6	-1.0966766
52	0x406137c6	3.5190291
53	0x405297bf	3.2905118
54	0x40623bd9	3.5349028
55	0x407d0c94	3.9538927
56	0x4016d5aa	2.356791
57	0x40671364	3.6105585
58	0x40092016	2.1425834
59	0x40366d70	2.8504295
60	0x406a1c6f	3.6579854
61	0x406d6f02	3.7099004
62	0x4023a113	2.5567062
63	0x4067bc0f	3.6208532
64	0x406c9a84	3.696931
65	0x40033901	2.0503542
66	0x40721ba5	3.7829373
67	0x40654199	3.5821288
68	0x40695f5d	3.6464455
69	0x405fb09d	3.4951546
70	0x4072ab73	3.7917144
71	0xbfc25b11	-1.5184041
72	0x3fc2a4b6	1.5206516
73	0x40658d7e	3.586761
74	0x4065b559	3.5891936
75	0x3fe86392	1.8155386
76	0x40661de3	3.5955741
77	0x4067cc63	3.6218498
78	0x4060defd	3.5136101
79	0x40681038	3.62599
80	0x3f27f20b	0.65603703
81	0x405a2e26	3.4090667
82	0x406aa905	3.6665661
83	0x406693a7	3.602762
84	0x40650bc9	3.5788443
85	0x4063f2ca	3.5616937
86	0x4009fe83	2.1561592
87	0x3ffabe14	1.9589257
88	0x4067c920	3.6216507
89	0x406d6bde	3.7097087
90	0x403f3b49	2.9879935
91	0x40111e97	2.267492
92	0x406b981e	3.6811595
93	0x403dac03	2.9636238
94	0x405f9233	3.4932983
95	0x40684b58	3.6295986
96	0xbfdfadeb	-1.747495
97	0x3fd84b4c	1.6897979
98	0x40032d93	2.0496566
99	0x3feadb43	1.8348163
100	0xbd81f9f3	-0.06346502
101	0xbbc9ad08	-0.00615466
102	0x3ec551ec	0.38539064
103	0xbf16840b	-0.5879523
104	0x3d2e138b	0.042499106
105	0x3cf1c5bc	0.029513232
106	0xbf0668e1	-0.5250378
107	0x3d954e0e	0.072902784
108	0xbf425d17	-0.75923294
109	0x3f32698c	0.696923
110	0xbcd16d48	-0.025564805
111	0x3bdf4f18	0.0068148486
112	0xbc11afe4	-0.008892033
113	0xbe079f8f	-0.1324446
114	0xbe2b4390	-0.16724992
115	0xbf9446b8	-1.1584082
116	0xbe189307	-0.14899836
117	0xbda6b5a3	-0.08140113
118	0xbd8d8e1b	-0.0691187
119	0x3cb78691	0.022403033
120	0xbdead596	-0.114665195
121	0x3e254a23	0.16141562
122	0x3f14ab24	0.5807364
123	0x3d8bfb1a	0.06835003
124	0x3e175f6b	0.14782493
125	0xbf54e8b9	-0.83167607
126	0x3c518188	0.01278723
127	0x3d36cca6	0.04462876
128	0xbf03b0dc	-0.5144174
129	0xbd1dba1f	-0.038507577
130	0xbea5f850	-0.3241601
131	0xbeaf7aea	-0.34273463
132	0xbdbe97f9	-0.0930633
133	0xbd73d703	-0.059531223
134	0xba8d51c9	-0.001078182
135	0xbc5bc24c	-0.013413023
136	0x3f0760ca	0.52882063
137	0x3f30dc58	0.6908622
138	0xbc2cf5d0	-0.010556653
139	0xbe2e65e6	-0.17031059
140	0x3ec8f9bf	0.3925304
141	0xbded4c16	-0.11586778
142	0x3cf39115	0.029732266
143	0x3eff7e17	0.49900886
144	0x3d478919	0.04871473
145	0xbda30217	-0.07959383
146	0xbd8301c4	-0.06396821
147	0x3e5c7ede	0.21532771
148	0xbe09b590	-0.13448167
149	0xbf993f97	-1.1972531

enc_linear.weight f4 [1, 50]
0	0x3e43a9b5	0.19107707
1	0x3ea1058f	0.31449553
2	0x3c408cf7	0.011752359
3	0xbe3c9747	-0.18417083
4	0xbd1c9b58	-0.038234085
5	0x3d0486de	0.032355182
6	0xbe9a0cef	-0.30087993
7	0xbc0c2fcf	-0.00855632
8	0x3ec614c0	0.38687706
9	0x3e894ef1	0.2681804
10	0x3d51135b	0.05104385
11	0x3c7c4407	0.015397078
12	0xbda7e4e1	-0.08197952
13	0x3c8a852c	0.016909204
14	0xbd07ca89	-0.033152137
15	0x3eba4beb	0.36386046
16	0x3bae738c	0.005323833
17	0x3b6ef457	0.0036461556
18	0x3bccd5f0	0.0062510893
19	0xbc025cd7	-0.007956705
20	0x3afd32da	0.0019317523
21	0xbf067913	-0.52528495
22	0x3eaa06a2	0.33208185
23	0xbb956879	-0.0045595733
24	0xbc32495c	-0.010881748
25	0xbda8ed20	-0.08248353
26	0xbd40bf8c	-0.047057673
27	0xbd20ab4b	-0.039225858
28	0x3e1ccf79	0.1531352
29	0xbbdb3c96	-0.006690572
30	0xbdd914b7	-0.10599654
31	0xbcc6866f	-0.024234025
32	0x3d1f2020	0.038848996
33	0x3c313df8	0.010817997
34	0xbc17bc9c	-0.009261277
35	0x3c92bc71	0.017912121
36	0x3e87aece	0.26500553
37	0xbec19567	-0.37809297
38	0xbc82f5cb	-0.015986344
39	0x3dded6fb	0.10880848
40	0x3e035ef6	0.12829193
41	0xbe51439f	-0.20435952
42	0x3beca82b	0.0072221956
43	0x3f184615	0.59481937
44	0xbd68b979	-0.056817506
45	0x3a0d1e91	0.0005383278
46	0xbeebece3	-0.46079168
47	0x3eb3831c	0.35060966
48	0x3e951654	0.29118598
49	0x3eb64c85	0.35605255

dec_gru_1.weight_ih_l0 f4 [150, 3]
0	0x3d9f1f26	0.07769613
1	0xbd998a79	-0.07497115
2	0x3e38e08d	0.1805441
3	0xbfb7aeb4	-1.435019
4	0x3d9c266a	0.076245144
5	0x3f2af83f	0.66785043
6	0xbd5a96c2	-0.05336643
7	0xbe25ca99	-0.16190566
8	0x3cf54907	0.029942049
9	0x3e0ca178	0.1373347
10	0xbc0a6c18	-0.008448623
11	0xbcc1c920	-0.023655474
12	0xbe1c32e3	-0.15253787
13	0xbe0a94ba	-0.13533297
14	0xbd22a411	-0.039707247
15	0xbeb39c84	-0.3508035
16	0x3cc294c0	0.02375257
17	0xbe67df43	-0.22643761
18	0xbf3e14a1	-0.7425023
19	0x3e96b8bc	0.29437816
20	0xbe314035	-0.1730965
21	0xbcebc40a	-0.028780002
22	0x3ea7b96b	0.3275865
23	0xbfa9fc49	-1.3280116
24	0x3db97689	0.09055812
25	0xbdb67c99	-0.08910484
26	0xbcc3ac31	-0.023885818
27	0x3eb331fb	0.3499907
28	0xbdcdf13e	-0.10055779
29	0x3b024e07	0.0019882934
30	0x3e310fa3	0.17291121
31	0xbba16a75	-0.0049260207
32	0x3e30b736	0.1725739
33	0xbf157d6f	-0.5839452
34	0x3e1bdb4c	0.15220374
35	0xbe2ff0e5	-0.17181738
36	0x3f0b162e	0.5433072
37	0xbd8f7167	-0.07004052
38	0x3f0678ab	0.52527875
39	0x3d876a12	0.06612028
40	0xbdc9eea6	-0.09859972
41	0x3d643ac6	0.055720113
42	0x3c72e32b	0.014824669
43	0xbe2d69da	-0.1693491
44	0x3e16e43d	0.14735503
45	0x3e5dfc2e	0.2167823
46	0x3ce5b85b	0.02804201
47	0x3e3f44d0	0.18678594
48	0x3f89d192	1.0767081
49	0xbdc2cf2b	-0.095121704
50	0x3e0d28df	0.13785122
51	0xbd9ca793	-0.0764915
52	0xbd90c0ca	-0.070680216
53	0xbb44c1c4	-0.003002272
54	0x3c1e76b0	0.009671852
55	0x3cba2da4	0.022726841
56	0xbcb76ac7	-0.022389783
57	0x3f0ca015	0.54931766
58	0xbd11168f	-0.035421904
59	0x3e2c0fc5	0.1680289
60	0xba9a1bd1	-0.0011757558
61	0xbdc58fcf	-0.0964657
62	0xbcba7acb	-0.02276363
63	0x3efea44c	0.49734724
64	0xbcfdcf53	-0.030982649
65	0x3d48acea	0.04899303
66	0x3deee5fa	0.11664958
67	0x3dde06a9	0.10841114
68	0x3cbfc26d	0.02340814
69	0x3d4e1381	0.05031157
70	0xbdc7cd05	-0.09755901
71	0x3dfa0bff	0.12209319
72	0x3f971c80	1.1805573
73	0xbe9bc447	-0.30423185
74	0x3e696e0c	0.22795886
75	0x3deaff37	0.114744596
76	0xbe865ab3	-0.26241073
77	0x3e4b6ec3	0.19866471
78	0x3f3594b2	0.70930016
79	0x3e45f49b	0.19331591
80	0x3da260f4	0.079286486
81	0xbe06f93c	-0.13181013
82	0xbd53fea4	-0.051756516
83	0x3d30d4ae	0.043171577
84	0x3f3ea2c7	0.7446713
85	0xbe1f5537	-0.1555985
86	0x3e89f39b	0.2694367
87	0xbd24e9c8	-0.040262014
88	0x3d96fde7	0.07372647
89	0x3df275f0	0.11838901
90	0xbe23eca9	-0.16008247
91	0x3d885ca5	0.066582955
92	0xbe0b0816	-0.13577303
93	0x3e102e62	0.14080194
94	0xbe1958b9	-0.14975251
95	0x3d65e0a1	0.056122426
96	0xbf38fabe	-0.722576
97	0x3db75eb1	0.08953608
98	0xbdf15c08	-0.11785132
99	0xbbae3d0c	-0.005317336
100	0xbdad31e6	-0.08456783
101	0x3e27814b	0.16357915
102	0xbf2fe30b	-0.68705815
103	0x3ee67c2d	0.45016614
104	0x3d35a02a	0.044342197
105	0x3eee95d8	0.46598697
106	0xbbb58965	-0.0055400603
107	0x3e0d503d	0.1380014
108	0xbf351ebf	-0.7075004
109	0xbe4d0904	-0.2002297
110	0xbef0de5b	-0.47044644
111	0xbe1a04ae	-0.15040848
112	0xbc2f9d32	-0.010718631
113	0xbe3f9904	-0.18710715
114	0xbdcd31e5	-0.10019282
115	0xbde60988	-0.11232287
116	0xbe016795	-0.1263717
117	0x3e526081	0.20544626
118	0xbd94bd57	-0.07262676
119	0x3dc759a2	0.09733893
120	0xbe8958c0	-0.26825523
121	0x3dacd215	0.084385075
122	0xbd6924ae	-0.056919746
123	0x3f0bd203	0.5461733
124	0x3df97a8e	0.121815786
125	0xbdb48356	-0.08814113
126	0x3ea7e31b	0.32790455
127	0xbdce6fa5	-0.10079888
128	0x3e7740da	0.24145833
129	0x3fd47fe9	1.6601535
130	0xbe9ba9f9	-0.30403116
131	0x3ed5844a	0.4170249
132	0xbf8abf52	-1.0839636
133	0x3ce9be6e	0.028533187
134	0xbf9ba0ce	-1.2158449
135	0xbd891c34	-0.066948324
136	0xbc974932	-0.01846752
137	0xbd3fbf61	-0.046813373
138	0x3db29c1f	0.08721184
139	0x3c09cef5	0.008411159
140	0x3c2c4b53	0.010516006
141	0x3e35a872	0.17740038
142	0xbd819da8	-0.06328899
143	0x3d9da951	0.0769831
144	0x3d855368	0.06510049
145	0xbd2fb6c7	-0.04289892
146	0x3d7c8d58	0.061658233
147	0xbe9e95fb	-0.309738
148	0x3e062fc0	0.13104153
149	0x3cd54725	0.0260349
150	0x3c7d1c03	0.015448573
151	0x3aee035a	0.0018158958
152	0x3ccc3696	0.024928372
153	0xbf883b28	-1.0643053
154	0x3d3a2796	0.04544791
155	0xbf1ec0c1	-0.6201287
156	0xbc1d5a80	-0.009604096
157	0x3bc2c1f3	0.0059435307
158	0x3d7e28b2	0.06205053
159	0x3c77604c	0.015098643
160	0x3bee3c72	0.0072703892
161	0x3cecde6d	0.028914655
162	0xbba561a2	-0.005047039
163	0xbb99ced1	-0.004693844
164	0x3d1f94b0	0.03896016
165	0x3cd8135b	0.026376417
166	0xbd0259cb	-0.031823914
167	0x3c131351	0.008976773
168	0xbd492d0d	-0.04911523
169	0x3c962d7b	0.018332234
170	0x3b995f69	0.004680563
171	0xbf261fce	-0.6489228
172	0x3d53996d	0.05165999
173	0xbeba7b09	-0.36421993
174	0xbcf50f61	-0.02991456
175	0xbb9c80eb	-0.0047761104
176	0x3d021660	0.03175962
177	0xbcbfe3e8	-0.023424104
178	0x3d0b67f7	0.034034695
179	0x3c16957a	0.009190911
180	0x3c10907d	0.008823511
181	0x3cbe1cbb	0.02320706
182	0x3d13f015	0.036117632
183	0xbcc174ba	-0.02361523
184	0x3c6cb8c1	0.014448346
185	0x3c3a4964	0.011370037
186	0x3e2b8997	0.16751705
187	0x3d267630	0.040640056
188	0x3e786008	0.24255383
189	0xbc32804a	-0.010894844
190	0x3be6c64f	0.007042683
191	0x3cfe2e27	0.031027867
192	0xbd024f42	-0.031813867
193	0xbc19f7d8	-0.009397469
194	0x3cc9d6a9	0.02463849
195	0x3c299c13	0.010352152
196	0xbcadd76b	-0.021220883
197	0x3d4ecc37	0.050487723
198	0x3f9ddd53	1.2333168
199	0xbe031cd4	-0.12803966
200	0x3f0290fd	0.51002485
201	0x3c76b9d6	0.015058955
202	0xbcc65866	-0.024212074
203	0x3b817f48	0.0039519407
204	0xbcdcd3c1	-0.02695644
205	0x3bb639ff	0.005561113
206	0x3d3d8e08	0.04627803
207	0x3fa6b411	1.3023702
208	0xbe528f3b	-0.2056245
209	0x3f865e0a	1.0497448
210	0xbce4f7f1	-0.027950259
211	0xbbfb33a4	-0.007666068
212	0x3cf5e350	0.030015618
213	0xbd08a8b8	-0.033364028
214	0x3d08fecb	0.033446115
215	0x3d172f8a	0.03691057
216	0xbb9c74eb	-0.00477468
217	0x3d31aa8f	0.043375548
218	0xbca84be6	-0.020544004
219	0x3c8c0ee9	0.017096953
220	0xbca044e8	-0.019564107
221	0x3cb8fee7	0.022582484
222	0x3f309434	0.6897614
223	0xbe47a9f9	-0.19498433
224	0x3ea67b1c	0.325158
225	0xbc6d7959	-0.014494264
226	0x3d538122	0.051636823
227	0xbb4a7835	-0.0030894403
228	0x3e88ee5e	0.2674436
229	0x3d335bd4	0.043788746
230	0x3eb4bdb9	0.35300997
231	0xbc531291	-0.012882845
232	0xbd04031a	-0.03222952
233	0x3d95f0b6	0.073213026
234	0x3d9e26b1	0.077222236
235	0xbe426d68	-0.18987048
236	0x3e4ff9ea	0.20310178
237	0xbc7af3ce	-0.015316917
238	0xbb02144e	-0.0019848528
239	0x3d49a520	0.04922974
240	0x3ae8ad5e	0.0017751863
241	0x3cbfa3d3	0.023393547
242	0x3cb19799	0.021678733
243	0x3cdce53f	0.026964782
244	0xbd232cca	-0.039837636
245	0x3d0131cc	0.03154163
246	0x3c050685	0.00811923
247	0x3d17696c	0.036965773
248	0x3dd41448	0.10355431
249	0x3bdde30f	0.0067714523
250	0xbd9b806e	-0.075928554
251	0x3cf7792b	0.030209145
252	0xbd8dd39d	-0.06925128
253	0xbdb822eb	-0.08991035
254	0xbe2542be	-0.16138741
255	0x3d280ead	0.04102962
