GBCF_deepcode/weights/deepcode_bc_noiseless_snr2.pt (torch, 603368 bytes, 44 tensors)

enc_gru1.weight_ih_l0 f4 [150, 8]
1.2950202 0.26393062 1.0498601 0.13743131 0.3235479 0.68394744 -0.24652694 0.10496611
-0.67841333 -0.14627829 -0.8694096 0.52957726 -0.22718287 0.38409132 0.71513504 0.13554688
0.23310183 0.03255722 0.12841627 -0.117758624 0.07786194 -0.22081956 0.34112006 0.82680863
-0.07427657 -0.11622307 -0.13052173 0.15640451 0.3776442 0.23200053 0.015328571 -0.092095904
-2.303985 1.3203007 -1.7715517 -1.2235026 -1.3599927 -1.6890543 0.18823834 0.2832889
-0.52681196 0.2056344 0.21023022 0.40029487 -0.37403655 0.56881696 -0.33909395 -0.6120558
-0.13495405 0.4580409 0.10439189 -0.06952229 -0.17586114 -0.11671942 -0.058615606 -0.108565964
-0.8486238 0.11944267 -2.2549677 0.18216254 -0.45621002 0.79761887 -0.3518254 -0.3298441
-1.3177886 -0.79541826 -0.40487012 -0.7216147 0.78722477 0.8268155 -0.08883417 0.10592737
1.3033767 2.2862387 0.19139679 0.8446054 1.3005538 0.20198101 0.3588381 0.12819214
-0.11897984 0.09467913 0.20869249 0.66683507 -0.30469963 0.24354544 -0.22997081 -0.364695
-0.027612079 -0.14290556 -0.0074156164 0.1620087 -0.03663492 0.12838826 0.11754507 0.15067326
1.0602168 -0.5754695 1.0266262 0.0021444138 0.034504034 -0.5764409 -0.8646788 -0.7416916
-0.22391234 1.3781596 -0.49815965 -2.4540827 -1.2569252 -2.1581607 -0.01736957 0.08118618
-2.1435096 -0.18728873 -0.75035524 0.17446467 0.38468882 -0.6190549 -0.056998268 0.29871297
0.74546933 7.016025 -0.74705744 0.089151956 0.85714835 0.13828744 -0.28454536 -0.13972612
5.7308125 -1.1564463 1.5961881 1.3958753 0.519726 -0.28010514 0.55809593 0.43855694
-2.9456806 -0.45642182 -1.3644462 -0.6011399 -0.4971457 -0.28699115 -0.19815372 0.1412894
0.021798661 -0.15003785 -0.07920684 -0.40615436 0.47979933 -0.16683613 0.120729424 0.0604157
0.88240355 -1.2313279 5.0359674 0.4606316 0.16713293 1.678769 0.20180711 -0.040593516
1.5256026 2.9223163 -0.70804244 0.0116699645 -0.5769261 -0.08006587 -0.52605337 0.19263521
-0.18963964 -0.51716167 -0.18031698 0.14209509 0.17122987 -0.22736764 0.23051433 0.30999568
0.10223879 0.13690592 1.8228146 0.23664114 0.59158486 -0.22692296 -0.09815043 -0.30003372
-0.16782098 -0.3208129 0.13936807 0.4355158 -1.4034729 0.37592518 -1.3772798 -1.161616
0.8855913 0.63209695 4.0001025 0.51195025 0.56368595 6.8357863 0.2586703 0.05353011
1.0458614 -0.52796364 1.3323495 -0.5435104 -0.34025356 -1.5256559 -0.7820997 -0.49448588
-0.90019226 -0.6226934 1.7904643 0.39953125 0.3741448 -0.8247735 0.24859884 0.3798779
0.6362556 3.8991468 0.11095228 -0.34874937 1.145644 0.11045335 0.23774381 0.029130436
-0.97908 1.0131506 1.0176562 -0.3642866 -0.013139982 0.071062 0.06677934 -0.051463995
1.9433178 0.97327036 -1.1483883 0.75726604 1.1697775 1.2343524 0.41734385 0.0995628
0.04883322 -0.4516612 0.7946726 -0.063436605 -0.27935168 4.2872972 -0.96775323 -0.60212487
0.006734656 -0.7376593 1.588946 0.26359347 0.43791148 -1.2108917 -0.2515156 -0.8130652
00000000: 39c3 a53f ea21 873e d161 863f cbba 0c3e
00000010: 12a8 a53e 2e17 2f3f 8f71 7cbe 79f8 d63d
00000020: 7fac 2dbf fac9 15be a191 5ebf 6092 073f
00000030: a0a2 68be 9ea7 c43e 1713 373f cdcc 0a3e
00000040: 3fb2 6e3e b85a 053d 8e7f 033e 6f2b f1bd
00000050: 1576 9f3d 861e 62be 4aa7 ae3e bba9 533f
00000060: 501e 98bd 5c06 eebd 7da7 05be 8128 203e
00000070: 955a c13e 8c91 6d3e b024 7b3c c79c bcbd
00000080: 7e74 13c0 9dff a83f 35c2 e2bf bc9b 9cbf
00000090: 3e14 aebf ee32 d8bf 8dc1 403e 3e0b 913e
000000a0: 26dd 06bf d391 523e 9746 573e 73f3 cc3e
000000b0: b881 bfbe fd9d 113f b99d adbe b0af 1cbf
000000c0: 6531 0abe 5684 ea3e 6acb d53d b461 8ebd
000000d0: f114 34be 970a efbd eb16 70bd d557 debd
000000e0: 693f 59bf 5c9e f43d 6451 10c0 d188 3a3e
000000f0: 5c94 e9be c030 4c3f 7522 b4be 53e1 a8be
00000100: 4cad a8bf 88a0 4bbf 234b cfbe bebb 38bf
00000110: 9087 493f 2eaa 533f b0ee b5bd 73f0 d83d
00000120: 0cd5 a63f bc51 1240 85fd 433e 0f38 583f
00000130: 8c78 a63f 1cd4 4e3e a1b9 b73e cd44 033e
00000140: b4ab f3bd 22e7 c13d 7cb3 553e b4b5 2a3f
00000150: 9701 9cbe fa63 793e 787d 6bbe 4eb9 babe
00000160: ba32 e2bc d655 12be b3fe f2bb 9ce5 253e
00000170: 7f0e 16bd 3678 033e 78bb f03d 174a 1a3e
00000180: 2fb5 873f f851 13bf 7d68 833f 4b89 0c3b
00000190: 1a54 0d3d a191 13bf 975b 5dbf 80df 3dbf
000001a0: 4749 65be 8967 b03f c80e ffbe b10f 1dc0
000001b0: ede2 a0bf 4e1f 0ac0 a14a 8ebc f144 a63d
000001c0: 432f 09c0 9ec8 3fbe 4817 40bf dea6 323e
000001d0: eff5 c43e 627a 1ebf 0477 69bd e8f0 983e
000001e0: 14d7 3e3f 4783 e040 283f 3fbf 4d95 b63d
000001f0: 136e 5b3f 399b 0d3e eeaf 91be 5d14 0fbe
00000200: d162 b740 6f06 94bf e44f cc3f 0bac b23f
00000210: c30c 053f f169 8fbe 60df 0e3f 898a e03e
00000220: 0886 3cc0 1fb0 e9be 2ca6 aebf 4ee4 19bf
00000230: e289 febe 81f0 92be cfe8 4abe 2bae 103e
00000240: 1b93 b23c 86a3 19be 3237 a2bd 77f3 cfbe
00000250: 42a8 f53e 17d7 2abe fd40 f73d 7476 773d
00000260: 33e5 613f 279c 9dbf a526 a140 e8d7 eb3e
00000270: e524 2b3e e7e1 d63f 86a6 4e3e 6345 26bd
00000280: f246 c33f 3b07 3b40 4542 35bf 6133 3f3c
00000290: 6eb1 13bf 93f9 a3bd 6fab 06bf 2a42 453e
000002a0: e530 42be b564 04bf 04a5 38be 6081 113e
000002b0: e256 2f3e 10d3 68be f30b 6c3e c1b7 9e3e
000002c0: 9262 d13d 1131 0c3e fd51 e93f 0e52 723e
000002d0: 1b72 173f 7e5e 68be 1803 c9bd 059e 99be
000002e0: 43d9 2bbe 9741 a4be 81b6 0e3e edfb de3e
000002f0: 00a5 b3bf 4479 c03e b44a b0bf d5af 94bf
00000300: 1db6 623f 1bd1 213f d700 8040 2c0f 033f
00000310: b94d 103f c3be da40 6f70 843e 6342 5b3d
00000320: c9de 853f a028 07bf 6e8a aa3f 7f23 0bbf
00000330: b735 aebe b148 c3bf b037 48bf 412d fdbe
00000340: 0073 66bf d668 1fbf ef2d e53f 5c8f cc3e
00000350: e88f bf3e 5b24 53bf b290 7e3e 5b7f c23e
00000360: a6e1 223f 9f8b 7940 f33a e33d 478f b2be
00000370: 76a4 923f 5e35 e23d 1d73 733e f4a2 ee3c
00000380: fda4 7abf ebae 813f 8f42 823f c683 babe
00000390: 1449 57bc f488 913d 9bc3 883d e9cb 52bd
000003a0: a3be f83f 3f28 793f 63fe 92bf 30dc 413f
000003b0: 45bb 953f 42ff 9d3f 18ae d53e 95e7 cb3d
000003c0: 5805 483d 2340 e7be aa6f 4b3f 0deb 81bd
000003d0: 2f07 8fbe 8a31 8940 adbe 77bf db24 1abf
000003e0: 64ae dc3b 3dd7 3cbf 9562 cb3f b9f5 863e
000003f0: ef35 e03e 80fe 9abf a7c6 80be 0a25 50bf

enc_gru1.weight_hh_l0 f4 [150, 50]
0.4778212 -0.40930516 -0.34455362 -0.04431454 -0.49039906 -0.5649322 0.4958981 0.2506446
0.24893893 0.36956537 -0.10066981 -0.18505773 0.050852284 -0.06478215 -0.0039715506 0.018131852
-0.7520414 0.14281999 -0.39169 0.03648869 -0.5418622 -0.64049906 0.28704584 0.060097426
1.0906492 0.3250151 -0.70645124 0.6385614 -0.044415947 -0.7433953 0.27496144 0.31989285
1.0091792 -0.31615943 0.10580168 0.41397604 -1.057681 -0.32710728 -0.14864385 0.4753911
0.019200576 0.3932356 -0.008302781 0.12004441 -0.07900209 0.47329146 0.51098704 -0.36170515
0.34763455 0.26591066 -0.28376955 0.050952803 0.27015108 0.07371317 -0.01030577 -0.012740756
-0.11622596 -0.15207411 -0.0385386 -0.26655567 0.22791806 0.0690508 0.12552743 0.33008844
-0.4515157 1.0468655 0.242067 0.6372902 0.6277925 -1.1183635 0.70394397 0.14904664
0.6348184 0.15247273 -0.42728117 -0.52833754 -0.3038284 -0.49715006 -0.61895883 0.3287111
-0.82722586 -0.41786322 0.63275826 0.13242207 -0.10321224 -0.33473545 -0.055933494 0.4080784
0.16333993 0.08677998 -0.010318986 0.59020376 -0.33218092 -0.39853358 0.43297365 -0.06294986
-0.043634787 0.12393704 0.32377547 -0.27593473 -0.23286651 -0.07048321 0.12903893 -0.09122741
0.24557659 0.104174174 -0.092262074 -0.17643629 -0.04683931 -0.37254822 -0.022665186 0.1714653
-0.0112787215 0.14184788 0.16574141 -0.032156862 0.06291792 0.11276593 0.24258868 -0.054406535
-0.15596579 0.12199495 0.06130819 -0.012867293 0.0494404 -0.15769628 0.102611616 -0.14602193
-0.5618781 -0.05336043 -0.1153983 -0.20771208 -0.20430376 0.084055714 -0.005727427 -0.42347386
0.2546935 0.13303928 0.17084768 -0.03568861 -0.1952911 -0.08563373 -0.2131908 -0.20309016
0.19204953 -0.26805362 -0.31730393 0.28255975 -0.5006769 -0.18395954 -0.22020598 -0.07548461
0.36334324 0.013710746 0.17699108 -0.14430097 0.04183256 0.0040523494 -0.067325234 -0.21538962
0.0046895784 0.022297846 -0.054490168 0.18558426 0.6065555 0.20956193 0.29495057 -0.298241
0.2999449 0.08588449 0.27335194 0.2591101 0.07669629 0.060728684 -0.01203178 -0.32261494
-0.0652206 0.13146277 -0.049093794 -0.08761072 -0.12024029 -0.09679712 0.20612621 0.18432362
-0.19372274 -0.2490477 0.07644884 0.34912047 0.052686483 0.12358357 -0.06945598 0.3368931
0.04695306 -0.17950924 0.26575825 0.046720523 0.014807259 0.3630194 0.12696993 -0.32041565
-1.0561755 -0.37233993 0.35261077 -0.04486921 -0.6046576 0.4759007 -0.5097066 -0.31816083
0.86244 -0.8728985 0.82891536 0.27622667 -1.0967586 -0.24540612 0.19438666 0.028393462
0.5345401 -0.3267886 0.7110274 0.21347964 0.19066909 0.092651874 -0.5949542 -0.30993575
-0.2643924 -0.51276064 -0.059615497 0.0062524755 -0.30603775 0.430876 -0.7477307 0.11530471
-0.22169694 0.21943417 -0.40388831 -0.02767296 -0.67845947 0.57827884 0.31304124 -1.6446184
-0.23105635 -0.2179146 -0.41435772 0.52198046 -0.34733164 -1.360656 -0.86033994 -0.0342023
0.312799 -0.36036652 -0.7513831 -0.117592335 0.40610972 0.0064029708 0.4581873 -0.48739427
00000000: fba4 f43e 7290 d1be 5569 b0be 2a83 35bd
00000010: 9615 fbbe 669f 10bf 5be6 fd3e 7d54 803e
00000020: d9e9 7e3e ac37 bd3e f92b cebd c67f 3dbe
00000030: 7c4a 503d 81ac 84bd c823 82bb 4089 943c
00000040: c985 40bf 673f 123e 978b c8be 2a75 153d
00000050: 7bb7 0abf bff7 23bf acf7 923e b828 763d
00000060: 659a 8b3f 6168 a63e fdd9 34bf c378 233f
00000070: 7fed 35bd 284f 3ebf bfc7 8c3e ffc8 a33e
00000080: c92c 813f a6df a1be 8dae d83d abf4 d33e
00000090: 1762 87bf 9b7a a7be 1836 18be 7666 f33e
000000a0: 874a 9d3c 2d56 c93e 6308 08bc d8d9 f53d
000000b0: d9cb a1bd 4253 f23e 0cd0 023f 6b31 b9be
000000c0: 28fd b13e 7125 883e 3e4a 91be e3b3 503d
000000d0: 3e51 8a3e eef6 963d 88d9 28bc 9bbe 50bc
000000e0: e007 eebd 51b9 1bbe a7da 1dbd fc79 88be
000000f0: 5a63 693e 816a 8d3d 438a 003e 5a01 a93e
00000100: 112d e7be b0ff 853f 69e0 773e 7325 233f
00000110: 02b7 203f 8926 8fbf ac35 343f af9f 183e
00000120: 7583 223f d021 1c3e 99c4 dabe 2141 07bf
00000130: 658f 9bbe 748a febe 1674 1ebf d24c a83e
00000140: 13c5 53bf 2bf2 d5be 72fc 213f a799 073e
00000150: f060 d3bd 7262 abbe 851a 65bd a7ef d03e
00000160: 9542 273e b4b9 b13d f710 29bc 9817 173f
00000170: 9e13 aabe 980c ccbe b9ae dd3e dbeb 80bd
00000180: 64ba 32bd b4d2 fd3d e6c5 a53e 5147 8dbe
00000190: 8f74 6ebe 8059 90bd c822 043e 70d5 babd
000001a0: 6e78 7b3e 4559 d53d e6f3 bcbd b7ab 34be
000001b0: 94da 3fbd a4be bebe 57ac b9bc 9994 2f3e
000001c0: 63ca 38bc 9240 113e 1eb8 293e eab6 03bd
000001d0: 1cdb 803d d3f1 e63d 2b69 783e 63d9 5ebd
000001e0: 7fb5 1fbe 7dd8 f93d 4c1e 7b3d 57d1 52bc
000001f0: 0482 4a3d 227b 21be 0a26 d23d c686 15be
00000200: 3ed7 0fbf 7790 5abd f255 ecbd 7ab2 54be
00000210: 0135 51be 6725 ac3d 24ad bbbb 91d1 d8be
00000220: 3067 823e 733b 083e b2f2 2e3e 382e 12bd
00000230: 64fa 47be bd60 afbd b04e 5abe def6 4fbe
00000240: a2a8 443e 533e 89be a975 a2be acab 903e
00000250: 5c2c 00bf e45f 3cbe ad7d 61be ad97 9abd
00000260: 2008 ba3e 09a3 603c 263d 353e a2c3 13be
00000270: 9e58 2b3d 92c9 843b d0e1 89bd 198f 5cbe
00000280: 09ab 993b f9a9 b63c 1531 5fbd cd09 3e3e
00000290: 3947 1b3f 6797 563e c303 973e 0bb3 98be
000002a0: 6192 993e 35e4 af3d c9f4 8b3e 14aa 843e
000002b0: f212 9d3d a4be 783d f120 45bc c92d a5be
000002c0: 6192 85bd 2d9e 063e 9316 49bd 406d b3bd
000002d0: 8b40 f6bd 923d c6bd c012 533e 55bf 3c3e
000002e0: 415f 46be 5c06 7fbe 3691 9c3d ebbf b23e
000002f0: c8cd 573d 6219 fd3d f03e 8ebd 417d ac3e
00000300: da51 403d 45d1 37be 7711 883e 055e 3f3d
00000310: 259a 723c aedd b93e 6804 023e 850d a4be
00000320: c230 87bf 57a3 bebe 6689 b43e c7c8 37bd
00000330: d7ca 1abf 42a9 f33e 227c 02bf fae5 a2be
00000340: dec8 5c3f 4776 5fbf cc33 543f 956d 8d3e
00000350: 9662 8cbf be4b 7bbe 4c0d 473e 6899 e83c
00000360: 9fd7 083f d650 a7be e405 363f 689a 5a3e
00000370: c23e 433e 44c0 bd3d eb4e 18bf e6af 9ebe
00000380: 715e 87be 4844 03bf 612f 74bd 91e1 cc3b
00000390: fbb0 9cbe c79b dc3e 476b 3fbf e024 ec3d
000003a0: 8604 63be 5ab3 603e 73ca cebe 67b2 e2bc
000003b0: 85af 2dbf 150a 143f f146 a03e db82 d2bf
000003c0: 099a 6cbe 0125 5fbe b226 d4be 83a0 053f
000003d0: 74d5 b1be fa29 aebf 3d3f 5cbf b617 0cbd
000003e0: 3127 a03e f681 b8be a55a 40bf 40d4 f0bd
000003f0: 9ded cf3e 03d0 d13b 8797 ea3e be8b f9be

enc_gru1.bias_ih_l0 f4 [150]
0.1413939 -1.3315793 -0.40965638 -0.5963537 -0.3788851 -1.5867367 -0.90131 -1.1261743
-1.4176731 -0.0056193853 -0.72039163 -0.50935066 -0.5452945 0.13493358 -2.1422338 -2.1224625
-2.7063978 -1.5999122 -0.45027766 -0.22092655 0.365313 -1.429176 -1.3387108 -0.09630943
0.47019848 -0.5046798 -2.0588696 -0.8905563 -2.7262938 -0.83515173 -0.23866351 -0.68256164
-2.6057262 -1.219767 -0.0458047 -1.3555449 -1.0339859 -0.5836508 -0.45296407 -1.5307508
-0.6376178 -0.8926002 -1.7467388 -0.11796484 -0.30723536 -0.28978118 0.75086623 -0.63502175
-1.7537036 -0.6054026 3.4881814 3.0236564 3.6152284 3.8038433 0.36995262 2.7233179
3.7189028 2.7299511 1.7665519 3.069636 3.5273438 3.956258 3.4823675 2.3091924
-2.0646603 -3.0047321 0.03692019 -1.8524132 3.255207 1.6176004 -0.45537928 2.4849837
1.7435082 2.6831193 -0.6434738 2.930297 0.6748551 0.71871096 -0.85361457 1.7629161
2.227223 2.4040065 -1.9552981 3.3030124 3.7023199 2.6963377 0.4273463 2.8906438
3.3739073 1.9540017 3.0866306 1.0003382 -0.5183811 1.7462401 2.6169672 0.66847277
2.0065696 3.4004576 -1.7165396 4.0651526 -0.048633374 -0.63148606 0.42728046 0.12122305
-0.6382649 -0.424349 -0.7277247 -0.43595725 0.6640525 0.56641406 -0.079723 -0.27728724
-0.454721 -1.3000317 -0.1667914 -0.68481153 0.02086832 -1.4905192 -0.6530342 0.26720688
-2.114979 0.6302434 -0.3771907 -0.6297681 0.6777152 0.4610949 0.99368715 0.45474255
0.0120356325 -0.2626049 1.1833345 0.93208694 0.14527787 0.43352458 -0.26668185 0.057910282
0.40083575 -0.030515144 0.111595 0.7046027 0.4276662 -1.1231401 0.009299875 0.29642433
-0.24102628 0.754287 1.6669025 0.13543685 -1.3408939 -0.3107691
00000000: 90c9 103e 3171 aabf 7bbe d1be a3aa 18bf
00000010: 3afd c1be 301a cbbf 41bc 66bf 7b26 90bf
00000020: 5076 b5bf d222 b8bb 966b 38bf ce64 02bf
00000030: 6c98 0bbf 072c 0a3e 5c1a 09c0 6dd6 07c0
00000040: 9f35 2dc0 ecc9 ccbf cb8a e6be 923a 62be
00000050: 4e0a bb3e 3def b6bf e05a abbf e13d c5bd
00000060: dbbd f03e b232 01bf 85c4 03c0 7ffb 63bf
00000070: 997b 2ec0 81cc 55bf 3564 74be 5cbc 2ebf
00000080: 38c4 26c0 5321 9cbf b69d 3bbd 7f82 adbf
00000090: a659 84bf 246a 15bf e8ea e7be a4ef c3bf
000000a0: ec3a 23bf 7281 64bf 2395 dfbf 8d97 f1bd
000000b0: f44d 9dbe 335e 94be c538 403f c990 22bf
000000c0: 5c79 e0bf aafb 1abf 5d3e 5f40 9683 4140
000000d0: e75f 6740 2b72 7340 6e6a bd3e d74a 2e40
000000e0: 8102 6e40 85b7 2e40 5f1e e23f eb74 4440
000000f0: 00c0 6140 5533 7d40 1cdf 5e40 cfc9 1340
00000100: 6523 04c0 884d 40c0 a039 173d e01b edbf
00000110: 5055 5040 880d cf3f 7927 e9be f909 1f40
00000120: 472b df3f 3ab8 2b40 b3ba 24bf fc89 3b40
00000130: 4ec3 2c3f 71fd 373f 7c86 5abf 3ca7 e13f
00000140: d28a 0e40 3edb 1940 3547 fabf 8e64 5340
00000150: cff2 6c40 cc90 2c40 22cd da3e 4f00 3940
00000160: 19ee 5740 ba1c fa3f 5b8b 4540 150b 803f
00000170: a0b4 04bf cc84 df3f 647c 2740 0821 2b3f
00000180: a36b 0040 19a1 5940 92b7 dbbf bb15 8240
00000190: ca33 47bd 12a9 21bf 81c4 da3e ca43 f83d
000001a0: 5465 23bf 4644 d9be 2a4c 3abf ca35 dfbe
000001b0: 58ff 293f 8300 113f d045 a3bd 98f8 8dbe
000001c0: 31d1 e8be 7067 a6bf 5dcb 2abe cf4f 2fbf
000001d0: 0af4 aa3c 55c9 bebf 402d 27bf 57cf 883e
000001e0: d15b 07c0 a257 213f 241f c1be 7b38 21bf
000001f0: be7e 2d3f a114 ec3e 4862 7e3f 04d4 e83e
00000200: 1a31 453c 2674 86be 8177 973f 409d 6e3f
00000210: b9c3 143e eff6 dd3e 868a 88be 5533 6d3d
00000220: 583a cd3e e5fa f9bc eb8b e43d d860 343f
00000230: 10f7 da3e 0ec3 8fbf 815e 183c eec4 973e
00000240: 98cf 76be f418 413f 105d d53f f5af 0a3e
00000250: 69a2 abbf 211d 9fbe

enc_gru1.bias_hh_l0 f4 [150]
0.0780306 -1.3322865 -0.3671113 -0.55749893 -0.2623632 -1.7348422 -0.78809005 -1.0804913
-1.4317254 -0.01782192 -0.60661656 -0.5215748 -0.5098604 0.08940918 -2.1226547 -2.373087
-2.6132061 -1.820569 -0.47634542 -0.1417157 0.32792118 -1.473143 -1.3945901 -0.15926066
0.36829194 -0.5857303 -1.8273531 -0.88532066 -2.6188378 -0.7234901 -0.34419373 -0.6607653
-2.5901952 -1.0852307 -0.19893678 -1.243386 -1.2754989 -0.38926178 -0.6952022 -1.6612101
-0.66050875 -0.95998937 -1.7224064 0.085118435 -0.18564129 -0.26349825 0.66339684 -0.45849967
-1.6930411 -0.40698776 3.4912508 2.849871 3.5232234 3.682269 0.53468746 2.5254836
3.771528 2.6874092 1.8786547 2.9321966 3.592982 4.1545043 3.4903524 2.29644
-2.2707112 -2.930131 -0.17275135 -1.8350343 3.3941343 1.6278379 -0.3257259 2.3431764
1.6708161 2.5875447 -0.51307327 2.8748782 0.6315421 0.90276533 -0.6757493 1.8083755
2.1611395 2.1464062 -2.001292 3.334181 3.5997179 2.635387 0.477365 2.7867572
3.5057197 2.109287 3.0187323 1.1673825 -0.54172415 1.7606112 2.6991394 0.6565122
2.1123195 3.235397 -1.7257212 4.087062 -0.20691024 -0.030375918 0.24529232 0.23504727
-2.143232 0.105075896 -0.32238322 -0.2835754 0.022675239 0.18285337 -0.23563206 -0.1875772
-0.5608765 -1.7976978 -0.27561712 -0.7688795 -4.1524997 -0.03981363 -0.42848638 2.6052299
-1.1868073 0.34438702 0.4478756 -0.10557307 3.3907256 -0.19489576 -0.0457459 -0.51252776
0.12300746 -0.40793416 -0.3979691 0.64807206 0.21814835 0.4996785 -0.51251495 -0.22264159
-0.5268793 0.15552934 0.35214037 -0.8164597 0.43147528 1.6202438 -0.4146227 0.87247735
-0.021579336 1.0812126 2.7168357 -0.02477084 -1.1486262 -0.13822523
00000000: 82ce 9f3d 5d88 aabf 03f6 bbbe 40b8 0ebf
00000010: 7854 86be 4f0f debf 45c0 49bf 8a4d 8abf
00000020: c742 b7bf 46ff 91bc 394b 1bbf ed85 05bf
00000030: 3686 02bf 291c b73d 93d9 07c0 a8e0 17c0
00000040: c53e 27c0 6808 e9bf 8ce3 f3be ec1d 11be
00000050: 49e5 a73e f38f bcbf ee81 b2bf 3a15 23be
00000060: c390 bc3e 6cf2 15bf b5e6 e9bf 60a4 62bf
00000070: 0a9b 27c0 a636 39bf 293a b0be ea27 29bf
00000080: c2c5 25c0 d7e8 8abf 15b6 4bbe 4627 9fbf
00000090: 8c43 a3bf 524d c7be c5f8 31bf 88a2 d4bf
000000a0: 1a17 29bf ddc1 75bf d077 dcbf 9352 ae3d
000000b0: c018 3ebe 3ee9 86be 60d4 293f 78c0 eabe
000000c0: 92b5 d8bf b360 d0be a770 5f40 4964 3640
000000d0: 7e7c 6140 4caa 6b40 47e1 083f 86a1 2140
000000e0: b760 7140 83fe 2b40 c277 f03f 1ca9 3b40
000000f0: 6bf3 6540 b3f1 8440 ef61 5f40 dff8 1240
00000100: 5553 11c0 4487 3bc0 bbe5 30be 67e2 eabf
00000110: 7f39 5940 fe5c d03f 8cc5 a6be 9af6 1540
00000120: 4ddd d53f 559a 2540 c558 03bf 01fe 3740
00000130: beac 213f a11b 673f e8fd 2cbf d978 e73f
00000140: 1c50 0a40 b85e 0940 2b15 00c0 3963 5540
00000150: c761 6640 2eaa 2840 2f69 f43e 3b5a 3240
00000160: b65d 6040 8ffe 0640 e932 4140 ca6c 953f
00000170: 6fae 0abf b55b e13f b3be 2c40 2f11 283f
00000180: 3e30 0740 bf10 4f40 6fe4 dcbf 36c9 8240
00000190: 47e0 53be ebd6 f8bc e92d 7b3e 3bb0 703e
000001a0: b72a 09c0 0832 d73d 6a0f a5be cb30 91be
000001b0: 6cc1 b93c ea3d 3b3e 8849 71be 3d14 40be
000001c0: 9a95 0fbf f61a e6bf b01d 8dbe 49d5 44bf
000001d0: 47e1 84c0 9e13 23bd 9162 dbbe 16bc 2640
000001e0: 4de9 97bf 7f53 b03e f34f e53e b236 d8bd
000001f0: a601 5940 c192 47be 0e60 3bbd 0535 03bf
00000200: 56eb fb3d bfdc d0be 9bc2 cbbe 0de8 253f
00000210: 4862 5f3e dcd5 ff3e 2e34 03bf 28fc 63be
00000220: 90e1 06bf 1543 1f3e be4b b43e 8103 51bf
00000230: 54ea dc3e 2664 cf3f 6d49 d4be ad5a 5f3f
00000240: 26c7 b0bc 2d65 8a3f a3e0 2d40 37ec cabc
00000250: 2f06 93bf ea8a 0dbe

enc_gru1.weight_ih_l1 f4 [150, 50]
0.13383552 0.08213429 0.11216976 -0.09209905 -0.201181 0.32433775 0.028741144 0.034014136
0.039222654 0.030227328 0.10896236 0.12852749 -0.0229413 -0.14457418 0.105164185 -0.29859504
-0.29302987 0.2711095 -0.21467246 -0.081057586 0.22732447 -0.030760128 -0.21842173 0.023411486
0.20930679 0.030230738 0.4158202 -0.08152334 0.05183535 0.0727469 0.33745727 0.18666045
0.010158165 -0.2931938 -0.036573984 0.0774926 0.0016936841 -0.03633607 -0.032373898 -0.2199698
-0.17612672 -0.43911618 0.062962025 0.09426624 -0.023379061 -0.38439897 0.1998166 -0.24735412
0.22785178 0.14915612 -0.3641725 -0.4280099 -0.073788166 0.03425276 -0.5456496 -0.38230133
0.13259822 -0.0716724 -0.42269722 -0.25412938 0.18681978 0.056514952 0.060103368 1.419499
0.10290426 -0.33633855 -1.2244567 1.081977 0.27690426 -0.082534194 -0.23309202 -0.3682005
0.30784658 -0.4696885 0.449765 -0.17573248 1.0151353 0.73654306 -0.39763978 -1.3829588
3.1872706 -0.46834248 -1.7583363 0.036608115 0.06081688 -0.11790696 -0.02580654 -0.1660472
0.21413581 0.3725191 -0.04197519 0.23527186 -1.0193808 -1.0116014 -0.24755363 -0.030734254
0.025841106 0.12752189 -0.43365565 -0.095207654 0.84473234 -1.3676683 0.17976816 0.9096732
0.28136358 0.675257 -0.032267112 -0.43935528 2.213918 0.56436616 -0.06319405 -0.11561228
-1.3430419 -3.1253304 0.8858412 -0.03356461 2.1529956 -3.2985468 0.4295431 -0.35027516
-0.4487802 0.0993601 0.015057249 -0.19127068 0.26384914 0.9808719 1.3160203 0.7371028
0.7928125 0.20827094 2.5074174 0.106482565 -1.2030351 0.25279492 0.049438387 1.170989
1.6482978 -0.8133115 -0.12829882 -0.29047668 0.61194944 -0.8294802 -0.038824826 -2.0450747
1.2758844 -0.056642078 -0.41816723 0.058042638 -1.2104386 -0.17010272 0.030492416 0.101419605
-0.17462358 0.12543331 -0.096973844 0.36204046 -0.013944781 0.015501159 0.18291539 0.25431314
-0.022113366 0.12013978 0.061422687 -0.07531749 -0.34020847 -2.8231578 -0.18256971 0.21796495
0.014593683 -0.18281466 -0.05954014 -0.080475196 -0.41905743 0.15107286 -0.2106224 0.1630002
0.69886774 -0.037564524 0.6621635 0.27153718 0.41479525 0.06843112 -0.91980934 -0.14417103
0.13658589 0.16767402 0.9678512 -0.13427658 -0.11233153 -0.20783724 0.019823631 -1.4255211
0.67470336 0.36320382 0.25647387 -1.2236725 0.010428234 -0.13763933 0.26697716 -0.024176717
-0.01240459 -0.12077432 -0.07565697 0.099822246 -0.06349429 0.19637494 -0.040187173 0.12196888
-0.107577644 -0.03380343 -0.0019765904 -0.013814581 -0.06697049 0.17775884 0.22995867 -0.32750472
-0.45372966 0.17801426 0.060026027 -0.037356857 0.13791718 -0.07244355 -0.18764314 0.0467025
0.41805702 0.0014163716 0.029362164 -0.091570996 0.1700831 -0.083076574 0.32052714 0.17087848
0.013013659 -0.0334236 -0.062380366 0.09419004 -0.16712008 -0.032177202 0.10557887 -0.08539156
-0.03764084 -0.63202035 -0.23535877 0.22180265 0.0050997487 -0.31316912 0.29615918 0.007972789
0.53540856 0.12053976 -0.14582574 -0.0839144 0.00086468394 0.13889128 -0.29018524 0.067483336
00000000: 2e0c 093e 0636 a83d 42b9 e53d 6d9e bcbd
00000010: 6402 4ebe 990f a63e 8c72 eb3c 6852 0b3d
00000020: efa7 203d 4d9f f73c a827 df3d b69c 033e
00000030: 65ef bbbc 410b 14be 5260 d73d 73e1 98be
00000040: 0308 96be ddce 8a3e 19d3 5bbe 8501 a6bd
00000050: bfc7 683e aafc fbbc f2a9 5fbe 72c9 bf3c
00000060: 8554 563e 74a6 f73c 63e6 d43e b5f5 a6bd
00000070: 4e51 543d 54fc 943d 33c7 ac3e eb23 3f3e
00000080: 6f6e 263c 7f1d 96be 9ace 15bd 71b4 9e3d
00000090: 9cfe dd3a 22d5 14bd 7e9a 04bd c33f 61be
000000a0: 905a 34be d6d3 e0be 3cf2 803d a90e c13d
000000b0: 7285 bfbc f1cf c4be b99c 4c3e 664a 7dbe
000000c0: fa51 693e 62bc 183e d174 babe 1d24 dbbe
000000d0: 401e 97bd 9f4c 0c3d b1af 0bbf 00bd c3be
000000e0: d4c7 073e fbc8 92bd c56b d8be 3f1d 82be
000000f0: af4d 3f3e 397c 673d f32e 763d 25b2 b53f
00000100: 78bf d23d 9134 acbe ffba 9cbf 397e 8a3f
00000110: 65c6 8d3e b007 a9bd adaf 6ebe c784 bcbe
00000120: 119e 9d3e 037b f0be 9947 e63e 37f3 33be
00000130: f4ef 813f 168e 3c3f 7197 cbbe cb04 b1bf
00000140: 3efc 4b40 96ca efbe 2a11 e1bf 64f2 153d
00000150: 1f1b 793d 3479 f1bd 3d68 d3bc 4708 2abe
00000160: 6b46 5b3e d3ba be3e 2dee 2bbd 1beb 703e
00000170: 127b 82bf 287c 81bf b37e 7dbe 67c6 fbbc
00000180: bab0 d33c 1995 023e 1d08 debe 3bfc c2bd
00000190: 6140 583f c10f afbf 2515 383e 58e0 683f
000001a0: e30e 903e a5dd 2c3f 852a 04bd 2df3 e0be
000001b0: d5b0 0d40 4d7a 103f e26b 81bd 22c6 ecbd
000001c0: cce8 abbf 6a05 48c0 7dc6 623f 0b7b 09bd
000001d0: aeca 0940 641b 53c0 13ed db3e 4457 b3be
000001e0: 85c6 e5be 4f7d cb3d aeb2 763c 76dc 43be
000001f0: 3c17 873e 6c1a 7b3f 5a73 a83f c5b2 3c3f
00000200: c3f5 4a3f fa44 553e 8779 2040 8813 da3d
00000210: 0efd 99bf 566e 813e e87f 4a3d f8e2 953f
00000220: 6cfb d23f 2f35 50bf c460 03be 5cb9 94be
00000230: b8a8 1c3f d058 54bf c806 1fbd 81e2 02c0
00000240: 2e50 a33f 8601 68bd 041a d6be 1ebe 6d3d
00000250: a7ef 9abf 682f 2ebe 3bcb f93c 15b5 cf3d
00000260: 86d0 32be 9771 003e 399a c6bd 5e5d b93e
00000270: a778 64bc 93f8 7d3c 2c4e 3b3e 5535 823e
00000280: 1727 b5bc d80b f63d 5b96 7b3d 0e40 9abd
00000290: ce2f aebe 9eae 34c0 8ef3 3abe 3432 5f3e
000002a0: 581a 6f3c c433 3bbe 5de0 73bd 2ed0 a4bd
000002b0: b28e d6be d8b2 1a3e 66ad 57be 86e9 263e
000002c0: ffe8 323f 42dd 19bd 8c83 293f ec06 8b3e
000002d0: 0b60 d43e 9d25 8c3d a078 6bbf 92a1 13be
000002e0: 2cdd 0b3e bdb2 2b3e 19c5 773f cd7f 09be
000002f0: 130e e6bd 49d3 54be 2b65 a23c 7a77 b6bf
00000300: 5cb9 2c3f daf5 b93e 8b50 833e 4da1 9cbf
00000310: 2fdb 2a3c 53f1 0cbe 3bb1 883e 400e c6bc
00000320: 9f3c 4bbc 8758 f7bd 0bf2 9abd 9b6f cc3d
00000330: 4b09 82bd 8316 493e 4e9b 24bd d2ca f93d
00000340: ab51 dcbd 7775 0abd af89 01bb 8d56 62bc
00000350: d327 89bd 6a06 363e 497a 6b3e b3ae a7be
00000360: 414f e8be 5f49 363e dadd 753d 8103 19bd
00000370: 293a 0d3e 495d 94bd 8625 40be 1f4b 3f3d
00000380: 920b d63e 8ba5 b93a ec88 f03c 9389 bbbd
00000390: 442a 2e3e 0d24 aabd 221c a43e c5fa 2e3e
000003a0: 3e37 553c 2fe7 08bd 8e82 7fbd b5e6 c03d
000003b0: 8721 2bbe 3ecc 03bd bc39 d83d c5e1 aebd
000003c0: 482d 1abd 16cc 21bf e401 71be 3c20 633e
000003d0: cb1b a73b b457 a0be 2da2 973e 4da0 023c
000003e0: 8910 093f 8ddd f63d 5853 15be 50db abbd
000003f0: f5ab 623a 8439 0e3e 2993 94be b434 8a3d

enc_gru1.weight_hh_l1 f4 [150, 50]
-0.09920647 -0.06384971 0.2774572 0.041980498 -0.12598307 0.0052494463 -0.0019348316 0.046607286
0.04320915 0.10564331 0.010062195 -0.11954262 0.026239723 -0.034332156 -0.1811345 0.026046162
0.03732121 -0.18889536 -0.21717165 0.10248127 0.003049538 0.05900091 0.010588847 0.00086488354
0.078550175 0.21791796 -0.05854642 0.15902473 -0.01622118 0.08968929 0.061855137 -0.055091515
-0.069955915 0.010976844 0.117291346 0.111804456 -0.107689045 -0.17603736 -0.02527443 -0.17772456
-0.07148579 -0.22939664 -0.29189858 0.18716201 0.09386654 0.2429795 0.08725522 0.047454726
-0.17553888 -0.0635596 0.1240697 -0.15262266 0.1567363 -0.07144155 0.029418424 -0.46393365
0.31794864 0.558478 0.14566505 0.53714603 -0.57756996 -0.31398094 0.6789092 0.025716534
-0.96186465 1.047342 0.82072985 -1.6476941 -0.43352097 -0.6381881 -0.09493235 0.24148157
0.6570218 0.094420396 0.21891613 0.21801461 0.68276584 0.02061343 0.04834745 -0.84948134
-0.06277087 -0.7671247 -0.05645481 0.38484356 0.5208882 0.20466441 0.7048106 0.8480749
-0.5458088 0.75226396 0.5471307 0.5945359 -0.62626547 -0.70705426 0.33540002 -0.1731367
1.1989949 -0.041058615 -0.005961563 -0.009492806 0.25580838 0.22107895 -2.5878997 0.39335006
0.35239768 -0.5636797 0.37372366 -0.6005938 0.019492747 1.9241898 1.1209042 1.0445595
-0.21259452 0.4720137 0.6535303 -0.34814507 -0.5192042 -0.7254957 0.31318733 -0.70551354
0.34234044 0.15099685 0.29297924 -0.15236801 -0.12296192 -0.6704619 0.08767659 -0.42938724
-0.06817287 1.330806 -0.29603422 0.06762714 0.15599449 -0.122378506 1.1614316 1.7279223
0.4740474 0.2130108 -1.2246611 2.1797261 -0.5357327 0.07775696 0.04314501 0.0648595
-0.089529574 -0.18189767 -0.7020617 0.19206378 0.034966 0.024831919 -0.09240754 0.16038413
0.43611723 0.078524455 -0.12660699 -0.07409878 0.021230828 0.20842277 0.032344412 0.0135744205
0.0050999336 -0.11874493 0.041457124 0.08243566 -0.22441274 -0.46116805 0.04199179 -0.058870118
-0.10404508 0.31877947 -0.13084017 -0.3067288 -0.08499321 -0.042942636 0.009034942 0.056280967
0.037442055 0.061646644 -0.10142874 0.11896657 -0.1243751 -0.0010733816 0.07534715 0.086565875
0.017158942 0.110908866 -0.20114246 -0.17359799 0.1144599 -0.35648066 0.017755475 0.34319067
0.66466606 -0.028511154 0.0003342611 -0.069491364 0.094950974 -0.11972699 -0.043670148 -0.0059258174
0.037906896 0.07785848 0.09534925 -0.10265833 0.10848993 -0.14832118 -0.0705596 0.07761506
0.043683786 0.08916991 -0.09494698 -0.15434219 0.024646483 0.05208784 0.013651943 0.029028336
-0.053747527 -0.24605367 -0.13070723 -0.011086475 -0.13327457 0.04368785 0.037024613 -0.013864237
0.16437633 -0.08613498 -0.037838623 0.16321737 0.09771312 0.027792 -0.05874629 0.112071104
-0.033748303 0.17810513 -0.051273312 -0.07944637 -0.054034393 -0.1369432 -0.06573229 -0.11324277
0.10778644 -0.15222214 -0.22087118 -0.061287183 0.009955143 -0.06597748 0.16818154 0.17524944
-0.0012935232 0.01730688 0.08029708 0.76700383 -0.69474804 0.20931742 0.07807939 0.13370043
00000000: c32c cbbd a3c3 82bd df0e 8e3e bef3 2b3d
00000010: b501 01be 8c03 ac3b 2d9a fdba 48e7 3e3d
00000020: 14fc 303d 855b d83d e8db 243c c3d2 f4bd
00000030: b0f4 d63c e09f 0cbd 537b 39be c35e d53c
00000040: 20de 183d c96d 41be 3f62 5ebe b3e1 d13d
00000050: c2da 473b f0aa 713d d87c 2d3c 5ab9 623a
00000060: eade a03d e325 5f3e 5fce 6fbd 61d7 223e
00000070: 48e2 84bc 05af b73d d05b 7d3d a4a7 61bd
00000080: 0c45 8fbd 38d8 333c 7236 f03d bcf9 e43d
00000090: 138c dcbd 2343 34be 520c cfbc 6dfd 35be
000000a0: 2467 92bd f4e6 6abe bb73 95be 66a7 3f3e
000000b0: 1a3d c03d 9ecf 783e ddb2 b23d e35f 423d
000000c0: 77c0 33be 892b 82bd 4118 fe3d 1d49 1cbe
000000d0: 7b7f 203e f34f 92bd e8fe f03c b688 edbe
000000e0: 2aca a23e 6af8 0e3f 3829 153e 6782 093f
000000f0: a0db 13bf 1cc2 a0be fecc 2d3f 7bab d23c
00000100: c33c 76bf 4d0f 863f 5a1b 523f a4e7 d2bf
00000110: 76f6 ddbe 4c60 23bf e46b c2bd f246 773e
00000120: 9532 283f 7b5f c13d 8d2b 603e 393f 5f3e
00000130: bec9 2e3f 7fdd a83c fa07 463d 9c77 59bf
00000140: 048e 80bd 4962 44bf 293d 67bd 370a c53e
00000150: ee58 053f 8c93 513e 786e 343f 701b 593f
00000160: 20ba 0bbf 5f94 403f c210 0c3f 8133 183f
00000170: ef52 20bf 8201 35bf 8db9 ab3e bf4a 31be
00000180: aa78 993f 142d 28bd 3759 c3bb b787 1bbc
00000190: 51f9 823e 8562 623e 26a0 25c0 2e65 c93e
000001a0: 786d b43e 504d 10bf b558 bf3e 84c0 19bf
000001b0: 41af 9f3c da4b f63f ca79 8f3f 20b4 853f
000001c0: 61b2 59be c8ab f13e c34d 273f 1240 b2be
000001d0: 91ea 04bf 16ba 39bf 175a a03e 899c 34bf
000001e0: 3f47 af3e eb9e 1a3e 6001 963e 5c06 1cbe
000001f0: 76d3 fbbd 64a3 2bbf c98f b33d a5d8 dbbe
00000200: 389e 8bbd da57 aa3f cc91 97be 1980 8a3d
00000210: 05bd 1f3e 95a1 fabd caa9 943f 8f2c dd3f
00000220: 57b6 f23e 811f 5a3e b2c1 9cbf a280 0b40
00000230: c725 09bf 0b3f 9f3d d2b8 303d 0fd5 843d
00000240: 485b b7bd 6243 3abe 51ba 33bf 5eac 443e
00000250: 8238 0f3d 4f6c cb3c 2a40 bdbd bd3b 243e
00000260: c24a df3e 6ed1 a03d 43a5 01be 1ac1 97bd
00000270: 46ec ad3c c76c 553e 937b 043d 3f67 5e3c
00000280: 581d a73b 8b30 f3bd f2ce 293d 07d4 a83d
00000290: 74cc 65be 381e ecbe 95ff 2b3d cb21 71bd
000002a0: 9615 d5bd 1037 a33e f7fa 05be 8f0b 9dbe
000002b0: ec10 aebd 9ee4 2fbd 4b07 143c df86 663d
000002c0: d75c 193d 3181 7c3d dfb9 cfbd bfa4 f33d
000002d0: 5fb8 febd b6b0 8cba 9b4f 9a3d 7349 b13d
000002e0: e990 8c3c 3024 e33d 4af8 4dbe acc3 31be
000002f0: f469 ea3d a284 b6be ee73 913c b0b6 af3e
00000300: 8e27 2a3f 3990 e9bc c43f af39 7d51 8ebd
00000310: a875 c23d 6d33 f5bd 78df 32bd 5c2d c2bb
00000320: 4344 1b3d 4474 9f3d 7846 c33d 883e d2bd
00000330: f82f de3d 82e1 17be 8d81 90bd a5f4 9e3d
00000340: c5ed 323d b79e b63d 9073 c2bd e10b 1ebe
00000350: 6ce7 c93c 0f5a 553d 66ac 5f3c d5cc ed3c
00000360: 5e26 5cbd 7ef5 7bbe 1ed8 05be 0ca4 35bc
00000370: 2179 08be 08f2 323d 1fa7 173d d326 63bc
00000380: 4552 283e 8967 b0bd acfc 1abd 7422 273e
00000390: d11d c83d 0cac e33c f39f 70bd 8985 e53d
000003a0: a93b 0abd 3161 363e f703 52bd c7b4 a2bd
000003b0: 2b53 5dbd d73a 0cbe a79e 86bd d3eb e7bd
000003c0: 23bf dc3d 1fe0 1bbe 0e2c 62be 4508 7bbd
000003d0: e51a 233c 331f 87bd c837 2c3e 9774 333e
000003e0: 708b a9ba 28c7 8d3c cc72 a43d 5d5a 443f
000003f0: 02db 31bf 4e57 563e 16e8 9f3d c4e8 083e

enc_gru1.bias_ih_l1 f4 [150]
-0.25441256 0.008641722 0.7746375 0.08300863 -0.01725304 -0.048224185 0.10270335 -0.28246287
0.15422252 0.05555133 -0.09904494 -0.2101525 -0.20437953 0.22028981 0.23576939 -0.74515325
-0.27690935 -1.3125961 -0.072141916 -0.5613707 0.360517 0.43707225 0.9601934 0.030340571
-0.23875114 -0.25113413 0.124145225 0.118799925 -0.3636356 -0.24072036 0.023678862 -0.051224865
-0.037587874 0.023380047 -0.03212352 -0.9732581 0.4642311 -0.09412581 0.4072743 -0.05307654
0.4474372 -0.8913233 1.0917751 0.44776982 0.07773204 0.054590404 -0.0050098146 -0.17151855
-0.4173399 -0.03132042 2.5352557 1.4917768 1.6672882 2.0595877 2.798829 2.1374629
2.1642582 1.9716331 2.3518953 2.259037 1.900441 2.6597733 2.3121774 2.7021236
2.18083 -1.0457507 1.4099165 2.4214463 2.8878615 0.41605452 2.634562 -0.5651992
1.0881962 2.9355366 1.7839019 1.6446301 2.6267192 3.016464 2.3665903 2.142053
2.697378 2.0942695 2.7775872 2.9183452 1.7469682 1.4950339 1.9168338 2.2304769
2.3557699 2.0382266 2.2570906 -1.4645152 -0.5683118 2.5373738 2.7681208 3.0838583
1.4204429 1.3143885 2.3971295 2.7829864 -0.21659464 0.27532062 0.41236112 -0.54785126
-0.11075194 0.5777265 -0.5142135 0.1646147 -0.56624836 -0.6897803 -0.27786073 0.63396466
0.33498082 -0.082431786 -0.11225969 1.1464881 0.94585145 0.823164 0.024657072 0.038795624
0.077662766 0.21221778 -1.224224 -0.2260577 0.25365934 0.0072283 0.025667876 0.0808576
-0.16997182 0.11261948 -0.10300844 0.55608046 -0.23340903 -0.0063155154 0.19731773 -0.040321097
-0.37637177 -0.18254818 -0.58128035 -0.49164584 -0.06111998 -1.2708025 -0.97665536 0.18190786
-0.15966436 -0.019619513 0.2624055 1.3446099 -0.52350926 -0.0052951896
00000000: 5d42 82be 0296 0d3c a54e 463f 6e00 aa3d
00000010: 3f56 8dbc b986 45bd 2256 d23d f99e 90be
00000020: 82ec 1d3e cb89 633d 13d8 cabd 3832 57be
00000030: de48 51be a793 613e 886d 713e 5dc2 3ebf
00000040: 10c7 8dbe 2603 a8bf 24bf 93bd fdb5 0fbf
00000050: af95 b83e efc7 df3e 3ccf 753f ca8c f83c
00000060: 2e7b 74be a794 80be da3f fe3d 604d f33d
00000070: 722e babe 667f 76be 2cfa c13c 2ad1 51bd
00000080: bef5 19bd 8387 bf3c f493 03bd 7127 79bf
00000090: b3af ed3e 08c5 c0bd 4286 d03e c966 59bd
000000a0: 7d16 e53e c42d 64bf 49bf 8b3f 1642 e53e
000000b0: fa31 9f3d 309a 5f3d 5f29 a4bb 8fa2 2fbe
000000c0: 93ad d5be d749 00bd a141 2240 8bf2 be3f
000000d0: b369 d53f 49d0 0340 0420 3340 31cc 0840
000000e0: 3583 0a40 795e fc3f 7485 1640 1094 1040
000000f0: a741 f33f ba39 2a40 b7fa 1340 98ef 2c40
00000100: b892 0b40 29db 85bf 2578 b43f faf8 1a40
00000110: b9d2 3840 1905 d53e aa9c 2840 e5b0 10bf
00000120: 034a 8b3f d5df 3b40 e656 e43f 3d83 d23f
00000130: 2b1c 2840 bf0d 4140 3776 1740 6517 0940
00000140: d7a1 2c40 8308 0640 fdc3 3140 2bc6 3a40
00000150: a79c df3f 455d bf3f cf5a f53f 22c0 0e40
00000160: efc4 1640 4e72 0240 2c74 1040 3c75 bbbf
00000170: e27c 11bf 5564 2240 e428 3140 ef5d 4540
00000180: 13d1 b53f e23d a83f 926a 1940 731c 3240
00000190: fcca 5dbe d3f6 8c3e ff20 d33e fb3f 0cbf
000001a0: ead1 e2bd e2e5 133f 7fa3 03bf c290 283e
000001b0: a7f5 10bf 7195 30bf c343 8ebe 824b 223f
000001c0: 9b82 ab3e ffd1 a8bd 69e8 e5bd 1fc0 923f
000001d0: 5223 723f e0ba 523f a1fd c93c 29e8 1e3d
000001e0: a80d 9f3d 9e4f 593e 5fb3 9cbf ab7b 67be
000001f0: a3df 813e 60db ec3b 7045 d23c ab98 a53d
00000200: 180d 2ebe 0ba5 e63d 17f6 d2bd 4a5b 0e3f
00000210: c702 6fbe 62f2 cebb a90d 4a3e bc27 25bd
00000220: cdb3 c0be e9ed 3abe cace 14bf 01b9 fbbe
00000230: f258 7abd a8a9 a2bf 1606 7abf 0e46 3a3e
00000240: 0e7f 23be 1ab9 a0bc 045a 863e 2d1c ac3f
00000250: b404 06bf 4583 adbb

enc_gru1.bias_hh_l1 f4 [150]
-0.2706547 0.21687351 0.5084656 0.016780252 -0.10549312 0.019221094 0.04590007 -0.3498368
0.037327267 0.14396548 -0.18794712 -0.29932874 -0.2937028 0.25018674 0.2176755 -0.64516526
-0.40972987 -1.4278728 0.06968511 -0.49796054 0.4536191 0.58576435 0.97314256 0.017725548
-0.10395017 -0.26175186 0.12054905 0.04385795 -0.33643135 -0.10433403 -0.18828739 0.0789713
0.027222425 -0.06944125 0.0043653455 -0.9900001 0.4647527 0.032366786 0.6335788 0.19620632
0.5361745 -0.7746764 1.1877173 0.3022616 0.24834569 0.21949211 -0.09400898 -0.20436828
-0.3587443 -0.13648751 2.6954503 1.6490116 1.4568974 2.1303215 2.821402 2.0943792
1.9417571 1.9290862 2.328981 2.258455 1.8276194 2.6387417 2.3667943 2.6406112
2.2346733 -1.0543123 1.3608412 2.4658394 2.8295267 0.25511765 2.648056 -0.45120004
1.2555382 2.8866131 1.8101981 1.67748 2.7084696 2.9817133 2.600643 2.0975409
2.5236452 2.1660106 2.6432972 2.8353348 1.8872967 1.4585885 2.0274465 2.179413
2.4476106 2.0959828 2.370563 -1.354425 -0.6444981 2.452274 2.771104 3.0831993
1.3647236 1.553416 2.4184508 2.7551918 0.021945005 0.033093363 2.5076022 -1.2495974
0.07218899 -0.043223865 -0.29829708 0.22833706 -0.4475471 -1.510298 0.35906404 0.19470476
0.14643319 -0.048666492 -0.12961675 0.09975642 2.2816396 -0.577511 0.07631954 0.27228445
0.13140789 0.029688694 -0.61727494 -0.17937945 0.339354 0.017943026 -0.011112553 -0.13270658
0.006618519 -0.21626969 0.07808253 0.50934726 -0.154632 0.09521529 0.17974134 -0.10758562
-0.8477953 -0.4765528 -4.083151 -2.4997857 0.15978299 -0.04027008 -0.31090334 -0.077392444
-0.1660831 -0.09079771 -0.30851418 -2.575121 -0.25188586 -0.116727985
00000000: 4193 8abe 1714 5e3e cd2a 023f bd76 893c
00000010: c70c d8bd 8e75 9d3c b601 3c3d cf1d b3be
00000020: 7ae4 183d b06b 133e 3675 40be 9e41 99be
00000030: 3760 96be 7a18 803e 54e6 5e3e 8d29 25bf
00000040: 1dc8 d1be 89c4 b6bf 11b7 8e3d aff4 febe
00000050: c340 e83e a7f4 153f df1f 793f 2b35 913c
00000060: d4e3 d4bd 5704 86be 6ce2 f63d 65a4 333d
00000070: bb40 acbe 14ad d5bd 69ce 40be b4bb a13d
00000080: 9001 df3c 3737 8ebd 2c0b 8f3b a670 7dbf
00000090: 11f4 ed3e 0993 043d 3832 223f 4fea 483e
000000a0: bb42 093f 3151 46bf 1f07 983f 08c2 9a3e
000000b0: 554e 7e3e 8ac2 603e c887 c0bd eb45 51be
000000c0: 55ad b7be 62c3 0bbe 4282 2c40 d012 d33f
000000d0: 9d7b ba3f 3057 0840 da91 3440 4f0a 0640
000000e0: 7f8b f83f 4cec f63f 060e 1540 878a 1040
000000f0: 6fef e93f 25e1 2840 8f79 1740 c6ff 2840
00000100: e304 0f40 b5f3 86bf 0b30 ae3f 50d0 1d40
00000110: f716 3540 c89e 823e c079 2940 b103 e7be
00000120: 7ab5 a03f 45be 3840 92b4 e73f aab7 d63f
00000130: 9157 2d40 64d4 3e40 ef70 2640 1c3e 0640
00000140: 6783 2140 eb9f 0a40 c82b 2940 2076 3540
00000150: f092 f13f 07b3 ba3f afc1 0140 817b 0b40
00000160: a7a5 1c40 9524 0640 4eb7 1740 cc5d adbf
00000170: d4fd 24bf 0ff2 1c40 c559 3140 2353 4540
00000180: 43af ae3f 56d6 c63f e6c7 1a40 1055 3040
00000190: 03c6 b33c e88c 073d 8e7c 2040 cff2 9fbf
000001a0: d2d7 933d 820b 31bd 65ba 98be 31d1 693e
000001b0: e524 e5be 7251 c1bf 3ed7 b73e af60 473e
000001c0: 95f2 153e 8456 47bd 41ba 04be 184d cc3d
000001d0: 6206 1240 c3d7 13bf 6b4d 9c3d de68 8b3e
000001e0: ca8f 063e b435 f33c bb05 1ebf 3faf 37be
000001f0: cfbf ad3e 41fd 923c 6d11 36bc 3ce4 07be
00000200: 29e0 d83b cd75 5dbe bce9 9f3d 9564 023f
00000210: da57 1ebe 3c00 c33d 1d0e 383e d955 dcbd
00000220: 1d09 59bf bbfe f3be 2ca9 82c0 7dfc 1fc0
00000230: 279e 233e 3df2 24bd b92e 9fbe ee7f 9ebd
00000240: b011 2abe 26f4 b9bd 92f5 9dbe c8ce 24c0
00000250: 2ff7 80be 150f efbd

enc_linear.weight f4 [1, 50]
0.2191568 -0.36384848 -0.64426255 0.073363334 -0.13123018 -0.57221496 0.37817347 0.7336499
-0.37831992 1.0669012 -0.34766573 -0.664616 0.45044592 0.11850662 -0.5928728 0.26594898
0.9020669 -0.8058049 0.33735535 -0.07974735 -0.075265475 0.18820702 0.4880394 0.043006342
0.5210659 0.48336753 0.09746494 -0.2381394 0.20636098 -0.44362292 0.3222275 -0.043640077
0.45824805 0.1405536 0.16575448 0.69483095 0.9137256 0.44648603 -1.8604048 1.0726604
0.2655954 0.4079507 -0.19489168 -0.1591579 0.111078456 0.13712731 0.32390925 0.75100887
0.25096795 0.21817794
00000000: a46a 603e 594a babe 64ee 24bf 843f 963d
00000010: 3461 06be ae7c 12bf f49f c13e 7bd0 3b3f
00000020: 26b3 c1be 3890 883f 3e01 b2be 4624 2abf
00000030: d9a0 e63e 99b3 f23d 83c6 17bf 772a 883e
00000040: dbed 663f 3b49 4ebf d7b9 ac3e 9452 a3bd
00000050: c924 9abd 57b9 403e 4de0 f93e 6b27 303d
00000060: 9364 053f f37b f73e b39b c73d d1da 73be
00000070: 4b50 533e 8b22 e3be 01fb a43e f0bf 32bd
00000080: 7d9f ea3e 48ed 0f3e 8bbb 293e 71e0 313f
00000090: ece9 693f d199 e43e bf21 eebf f04c 893f
000000a0: 1ffc 873e eade d03e af91 47be 4afa 22be
000000b0: 1a7d e33d 1a6b 0c3e 6fd7 a53e 1e42 403f
000000c0: df7e 803e 0a6a 5f3e

dec_gru_1.weight_ih_l0 f4 [150, 3]
3.043201 -0.7020044 1.5002594 0.2408837 0.032662887 -0.004227465 -0.120561555 -0.16114064
0.19206066 0.06965267 0.054465223 0.105653465 -0.12013927 -0.050689038 -0.14475726 0.694198
-0.4009298 0.8546212 -0.25918454 0.072600774 -0.05081962 0.13780332 -0.096410386 0.055462614
-0.2068533 -0.109477215 0.039571438 0.20516068 -0.033853218 0.072055504 0.35545313 0.3633446
0.68718654 -1.3150848 0.24864015 -0.6438605 -0.3394869 -0.085851654 -0.10646046 0.15377934
-0.22076482 0.28298408 -0.10677629 -0.09555869 0.14817165 -2.1515973 1.2623901 1.6102287
-0.24040909 -0.072612084 0.006806314 0.15778103 0.017971225 0.07236829 0.06143607 -0.006656537
0.028416658 -1.1799606 0.32190904 -0.30344573 0.11632495 0.3108504 -0.0010789781 -0.19939461
-0.17600685 -0.23343937 0.40359464 0.041637532 0.3312744 0.26696917 0.44938695 1.2263727
-0.5645857 -0.31825638 -0.34631678 -0.49507856 1.1254435 0.53813463 -0.22830532 0.0653668
-0.084711805 -0.0794114 -0.20053223 -0.35630727 0.9608889 -0.10216811 0.22731493 0.003836365
0.04105576 -0.0007188957 0.23550582 -0.21025702 -0.23087911 -0.09202017 -0.025904102 0.038909644
0.25341427 -0.1133331 0.1316108 -0.01635531 0.075600475 0.09954976 -0.033327427 0.08945507
0.15215784 -0.20357867 -0.10099814 -0.13222937 0.0784965 0.00080213044 -0.06609055 0.145764
-0.048731644 0.14991428 0.1783113 0.09356138 -0.01029518 -0.1359265 -0.010034091 -0.06261828
-0.35753226 0.2202285 -0.6718911 -0.46224785 -0.08396788 -0.4489897 0.2743876 0.029987665
-0.1382699 0.05776451 0.10920775 -0.02881514 -0.033310972 0.047566086 -0.06936736 -0.26051527
0.090032674 -0.1879051 -0.5482996 -0.1854051 -0.1826857 -0.4275674 -0.15162995 -0.64576423
-0.30396748 -0.22855121 -0.6027863 -0.059224483 0.0573918 -0.067857414 -0.059060555 0.15032475
0.2169049 0.05972158 0.034722365 0.02947123 0.014497498 -0.0013148667 0.052036222 0.14724466
-0.05851018 0.12359897 0.07550719 0.03980542 0.012199284 -0.03529055 -0.11741459 -0.22780952
0.11284537 0.0061156354 -0.015969608 -2.4455502 -0.07379344 -0.6547611 0.021423867 -0.00068819086
-0.034659643 0.07029825 0.0001609644 -0.0048915315 -0.29842862 -0.08119502 0.0396543 0.2428705
-0.02790693 0.2714827 0.07791366 0.0230246 -0.032547798 -0.07829801 -0.02957886 -0.0746427
-0.017719297 0.03477285 -0.033618793 0.66346115 0.05852499 1.0526079 -0.05874907 -0.048127215
-0.07813944 -0.038982913 -0.007306997 -0.03743109 0.05836683 -0.019709812 -0.009454559 0.17689826
-0.24847585 -0.096917145 0.09327863 -0.017362641 0.006618072 -0.03564869 -0.051942684 -0.14870031
0.10645812 -0.08283505 0.15957344 0.6930953 0.20830424 1.3610077 -2.302889 -0.42549157
-1.5012728 -0.7186089 1.22596 1.134854 0.09644809 -0.053794093 -0.059332184 0.15044223
0.0026048229 -0.030966915 -0.5010527 -0.04681933 -0.5585863 -0.09120599 -0.06597431 0.019856054
-0.05428425 -0.009093635 -0.06458795 -0.046935704 0.0056846943 -0.035456337 0.0046647885 -0.000305528
-0.02913016 0.0555616 0.0064822836 -0.040561877 -0.087209426 -0.0029095055 -0.07274823 0.016675115
00000000: cec3 4240 8fb6 33bf 8008 c03f 37aa 763e
00000010: 85c9 053d 8c86 8abb fae8 f6bd 0d02 25be
00000020: 8dab 443e 0fa6 8e3d ed16 5f3d d860 d83d
00000030: 940b f6bd 4f9f 4fbd 3f3b 14be f6b6 313f
00000040: ac46 cdbe 74c8 5a3f d6b3 84be b7af 943d
00000050: 3c28 50bd 501c 0d3e cf72 c5bd c42c 633d
00000060: 5ad1 53be 9735 e0bd a915 223d a415 523e
00000070: aca9 0abd d691 933d f4fd b53e 4e08 ba3e
00000080: 75eb 2f3f b354 a8bf 869b 7e3e 0bd4 24bf
00000090: 3ad1 adbe fed2 afbd f107 dabd 5578 1d3e
000000a0: 2c10 62be 4ae3 903e 87ad dabd 46b4 c3bd
000000b0: 4fba 173e c5b3 09c0 0096 a13f f91b ce3f
000000c0: cd2d 76be a5b5 94bd 8007 df3b 5a91 213e
000000d0: 6438 933c d335 943d 63a4 7b3d 141f dabb
000000e0: 0dca e83c f308 97bf 43d1 a43e 3d5d 9bbe
000000f0: c63b ee3d c927 9f3e 7f6c 8dba 1a2e 4cbe
00000100: 243b 34be bb0a 6fbe f5a3 ce3e 1e8c 2a3d
00000110: cc9c a93e 2fb0 883e 0c16 e63e c8f9 9c3f
00000120: b088 10bf 80f2 a2be 6f50 b1be f07a fdbe
00000130: 880e 903f 31c3 093f dfc8 69be 07df 853d
00000140: 627d adbd 72a2 a2bd 5258 4dbe e86d b6be
00000150: d1fc 753f 843d d1bd 3fc5 683e 866b 7b3b
00000160: 162a 283d 4674 3cba 7028 713e 9e4d 57be
00000170: 936b 6cbe 1275 bcbd d734 d4bc b85f 1f3d
00000180: 84bf 813e 2f1b e8bd fbc4 063e 92fb 85bc
00000190: 6cd4 9a3d bfe0 cb3d 5782 08bd 3834 b73d
000001a0: 44cf 1b3e ed76 50be 1dd8 cebd 2367 07be
000001b0: c6c2 a03d 1046 523a 7b5a 87bd 2843 153e
000001c0: d59a 47bd 2183 193e 3d97 363e 1c9d bf3d
000001d0: 1dad 28bc 5130 0bbe 0766 24bc 033e 80bd
000001e0: 780e b7be 9483 613e 0e01 2cbf c0ab ecbe
000001f0: 5af7 abbd fae1 e5be 887c 8c3e b1a8 f53c
00000200: a096 0dbe 7b9a 6c3d 50a8 df3d ba0d ecbc
00000210: 1671 08bd a8d4 423d 7910 8ebd 4262 85be
00000220: 0d63 b83d 326a 40be 5d5d 0cbf d6da 3dbe
00000230: f611 3bbe 1dea dabe e244 1bbe ce50 25bf
00000240: a0a1 9bbe 5409 6abe 3450 1abf 5f95 72bd
00000250: aa13 6b3d d4f8 8abd 7be9 71bd bbee 193e
00000260: 511c 5e3e 9e9e 743d 0a39 0e3d a66d f13c
00000270: ea86 6d3c 9b57 acba ef23 553d 4ec7 163e
00000280: 5fa8 6fbd 7521 fd3d 83a3 9a3d 020b 233d
00000290: 81df 473c d38c 10bd 1077 f0bd e646 69be
000002a0: 791b e73d ab65 c83b b2d2 82bc e583 1cc0
000002b0: 0421 97bd 6c9e 27bf 1b81 af3c b567 34ba
000002c0: 45f7 0dbd 87f8 8f3d 8dc8 2839 2449 a0bb
000002d0: a3cb 98be 9349 a6bd 8c6c 223d 0bb3 783e
000002e0: 139d e4bc c8ff 8a3e 3291 9f3d 169e bc3c
000002f0: d750 05bd b55a a0bd 5e4f f2bc 46de 98bd
00000300: 0f28 91bc fa6d 0e3d dcb3 09bd 97d8 293f
00000310: e6b7 6f3d dbbb 863f dda2 70bd 0b21 45bd
00000320: 9207 a0bd 8cac 1fbd 896f efbb 5851 19bd
00000330: 0f12 6f3d 7976 a1bc 4be7 1abc d124 353e
00000340: 7470 7ebe 7f7c c6bd de08 bf3d 193c 8ebc
00000350: 69dc d83b 5c04 12bd dac1 54bd e544 18be
00000360: b706 da3d 6ca5 a9bd 3867 233e b26e 313f
00000370: b54d 553e 8035 ae3f 8962 13c0 08da d9be
00000380: b529 c0bf c1f6 37bf 42ec 9c3f e542 913f
00000390: 9486 c53d 3257 5cbd 4e06 73bd 870d 1a3e
000003a0: adb5 2a3b 54ae fdbc fd44 00bf a0c5 3fbd
000003b0: 83ff 0ebf 35ca babd 8a1d 87bd 2aa9 a23c
000003c0: 2959 5ebd 78fd 14bc b046 84bd a73f 40bd
000003d0: ac46 ba3b aa3a 11bd 15db 983b 462f a0b9
000003e0: 60a2 eebc 8f94 633d 5669 d43b 3624 26bd
000003f0: db9a b2bd 67ad 3ebb 06fd 94bd 409a 883c
